logs/maddpg_checkpoint_ep0.pth (torch, 585494 bytes, 24 tensors)

fc1.weight f4 [128, 147]
0	0xbcf3c48e	-0.02975681
1	0xbd50cc2f	-0.050975975
2	0x3c85f570	0.016352385
3	0x3d92e2fc	0.071722
4	0x3d47acac	0.048748657
5	0x3d06353a	0.032765605
6	0x3d1d69a0	0.03843081
7	0x3d70b65c	0.05876766
8	0xbd794eee	-0.06086629
9	0xbd8c91a4	-0.06863716
10	0xbcd4c374	-0.025972106
11	0xbca888b4	-0.020572998
12	0xbc068958	-0.008211456
13	0xbd0f5e36	-0.035001956
14	0x3d93c28e	0.07214843
15	0x3ca8eb68	0.020620063
16	0xbc608dc8	-0.013705678
17	0xbc0e0c68	-0.00866995
18	0xbd6f75ee	-0.058462076
19	0xbd9fab13	-0.07796302
20	0x3d59877c	0.053107724
21	0x3d7e4c20	0.062084317
22	0x3b7e5a40	0.0038811117
23	0x3c183898	0.009290837
24	0x3d814f3c	0.06313941
25	0xbaf1cb00	-0.001844734
26	0xbda65fad	-0.081237175
27	0xbd760d52	-0.060071297
28	0xbd7ece30	-0.062208354
29	0x3cc6ac08	0.024251953
30	0x3da3044e	0.079598054
31	0x3c77bff0	0.015121445
32	0xbd9b65b8	-0.07587761
33	0xbc9685f8	-0.018374428
34	0xbc9d88b4	-0.019230224
35	0xbcd74ef8	-0.026282772
36	0x3cfe54a4	0.03104622
37	0xbc843b48	-0.016141549
38	0x3d490aac	0.049082443
39	0xbccddd2c	-0.025129877
40	0x3d617c48	0.055050164
41	0x3d436d34	0.047711566
42	0x3c4888d8	0.012239657
43	0xbcb82628	-0.022479132
44	0x3cabaaf0	0.020955533
45	0x3d88c360	0.0667789
46	0x3c06abb0	0.008219644
47	0xbd8b562a	-0.06803544
48	0xbc79af30	-0.015239522
49	0xbd505140	-0.050858736
50	0x3d274f8e	0.040847354
51	0xbca508e8	-0.020145848
52	0xbd9f34f6	-0.07773773
53	0x3d590fb0	0.052993476
54	0x3d8af916	0.067857906
55	0xbd69081c	-0.0568925
56	0x3d132f46	0.035933755
57	0xbc4bace0	-0.012431353
58	0x3c789740	0.01517278
59	0x3d9debd6	0.07710998
60	0xbd026afb	-0.031840306
61	0xbd2c9dcb	-0.04214267
62	0x3d98cffe	0.07461546
63	0x3cae36fc	0.021266453
64	0x3be8cfb0	0.0071048364
65	0xbd38d1f3	-0.0451221
66	0xbd8ac1f3	-0.06775274
67	0xb99a0a00	-0.0002938062
68	0x3d2fa92c	0.042885944
69	0x3c279138	0.010227494
70	0xbc088d90	-0.008334532
71	0x3c95ed24	0.018301554
72	0xbd17ac9f	-0.03702986
73	0xbca050b4	-0.019569732
74	0x3d9f234e	0.07770406
75	0xbd039b07	-0.032130267
76	0x3d817884	0.06321815
77	0x3d85dbe2	0.0653608
78	0x3d488c90	0.048962176
79	0x3d6e2484	0.058140293
80	0x3d910d6c	0.07082638
81	0x3d8714b2	0.06595744
82	0xbd1df78b	-0.038566153
83	0x3d801904	0.06254771
84	0xbcc75300	-0.02433157
85	0xbd8d6a73	-0.06905069
86	0xba9f5200	-0.0012155175
87	0xbc6b8c60	-0.01437673
88	0xbd84b58b	-0.06479939
89	0x3d64273c	0.05570148
90	0x3d08e086	0.033417247
91	0x3c126bd0	0.008936837
92	0xbd57e777	-0.052710976
93	0xbd6b72a0	-0.05748236
94	0xbd1de073	-0.03854413
95	0x3ca1d5ec	0.019755326
96	0xbd57e922	-0.052712567
97	0x3d3b9980	0.045800686
98	0x3d50661c	0.05087863
99	0xbd698a24	-0.057016507
100	0xbc51b290	-0.01279892
101	0x3d40f350	0.04710704
102	0x3d1ff2fc	0.039050087
103	0xbc0d5db8	-0.008628301
104	0x3cd86f10	0.026420146
105	0x3d6eb758	0.05828032
106	0xbda41467	-0.08011704
107	0x3bd0ad00	0.0063682795
108	0x3c982b44	0.018575318
109	0xbcc0658c	-0.023485921
110	0xbd71018c	-0.058839366
111	0x3d0e7bf0	0.034786165
112	0x3d79c7ac	0.060981438
113	0x3d9d5506	0.076822326
114	0xbd87e767	-0.06635933
115	0x3da1b1ec	0.07895264
116	0xbc052020	-0.008125335
117	0x3d22edb2	0.039777465
118	0x3cfa5d84	0.03056217
119	0xbd57c7a6	-0.052680634
120	0xbd8e7687	-0.06956201
121	0xbd49fd9b	-0.049314123
122	0x3d907698	0.0705387
123	0x3cd3caa8	0.02585347
124	0x3d92fd36	0.071772024
125	0xbd44f928	-0.048089176
126	0x3da1410c	0.07873735
127	0x3d851b4e	0.064993486
128	0xbd7a701f	-0.061142083
129	0xbb644900	-0.003483355
130	0xbd6418dc	-0.05568777
131	0xbd5c4569	-0.053777132
132	0x3cd35004	0.02579499
133	0xbc868bf0	-0.01642415
134	0xbd915de3	-0.070979856
135	0xbcb67b1a	-0.022275496
136	0x3d4f74a8	0.05064836
137	0xbd9655bd	-0.07340572
138	0xbda49ef8	-0.080381334
139	0xbda4edec	-0.080531925
140	0x3d3bcd60	0.045850158
141	0x3d51b064	0.05119361
142	0xbd2b595a	-0.04183326
143	0xbd55a864	-0.052162543
144	0xbc89424c	-0.016755246
145	0xbc983910	-0.018581897
146	0x3b60fec0	0.003433153
147	0x3d4824d0	0.048863232
148	0x3b704ba0	0.003666617
149	0xbcc7de24	-0.024397917
150	0x3da66ab2	0.08125819
151	0x3d4d5b3c	0.050135836
152	0xbd34766a	-0.04405824
153	0x3b7c7fa0	0.003852822
154	0x3cd5fcf8	0.026121601
155	0x3c8df13c	0.017326944
156	0xbc1730c8	-0.009227939
157	0xbd319e2e	-0.043363743
158	0xbd95b716	-0.073103115
159	0x3d0bc326	0.034121655
160	0x3d7c26d0	0.061560452
161	0xbc0e99a0	-0.008703619
162	0xbd8a5f08	-0.06756407
163	0xbcac9f7c	-0.021072142
164	0x3c8402e8	0.016114667
165	0x3d2f88c0	0.042855024
166	0xbd6aec2b	-0.057354134
167	0x3d82660c	0.0636712
168	0x3d80e070	0.06292808
169	0x3c9b8b74	0.018987395
170	0x3d128446	0.035770677
171	0xb96cba00	-0.00022576004
172	0x3da854f4	0.082193285
173	0x3b863c70	0.00409656
174	0xbd6288cc	-0.05530624
175	0xbd54849e	-0.051884286
176	0xbd7fafca	-0.062423505
177	0xbcb4b290	-0.022057801
178	0xbd4c3c12	-0.049861975
179	0x3d54dfa0	0.051971078
180	0xbd298434	-0.041385844
181	0x3c11e1a8	0.008903898
182	0xbd0b1bbb	-0.033961993
183	0xbc7c7cd0	-0.015410617
184	0x3da1689e	0.07881282
185	0xbd20a700	-0.039221764
186	0xbd7d36aa	-0.06181971
187	0xbd66a03c	-0.056305155
188	0x3c3bc860	0.011461347
189	0xbd3d8fd7	-0.046279754
190	0x3b937170	0.004499607
191	0x3c080298	0.0083014
192	0xbd3b5ec7	-0.045744684
193	0x3da853f4	0.08219138
194	0xbd9d0c6c	-0.07668385
195	0xbd92d352	-0.071692124
196	0x3c8bbbfc	0.017057411
197	0xbd00e7d1	-0.031471077
198	0x3da6d466	0.081459805
199	0xbd451543	-0.04811598
200	0xbd27c8bf	-0.04096293
201	0xbd4200a9	-0.04736391
202	0x3ca1df50	0.019759804
203	0xbd87879d	-0.06617663
204	0xbd8139da	-0.063098624
205	0x3c00edf8	0.007869236
206	0x3c82da7c	0.015973322
207	0xbd7a0a42	-0.06104494
208	0xbb2f6120	-0.0026760772
209	0xbd469a82	-0.048487194
210	0xbc8b0428	-0.016969755
211	0x3ab16f40	0.0013537183
212	0x3c99c33c	0.018769853
213	0xbc218060	-0.009857267
214	0x3d8a2e04	0.06747058
215	0x3d6a7924	0.057244435
216	0x3b6fbf40	0.00365825
217	0x3b6696e0	0.0035185143
218	0x3c94800c	0.018127464
219	0x3d80a806	0.06282048
220	0xbd735382	-0.05940581
221	0x3d7eb414	0.062183455
222	0x3cd1ba18	0.025601432
223	0xbb2c1ce0	-0.0026262328
224	0xbd75749a	-0.059925653
225	0x3d7085d8	0.058721393
226	0xbc97ea18	-0.018544242
227	0x3da7a9fa	0.08186717
228	0xbd3a1d2c	-0.045437977
229	0x3d83750c	0.06418809
230	0x3d124804	0.03571321
231	0xbd184eee	-0.03718465
232	0xbd323313	-0.04350574
233	0xbc6b4f40	-0.014362156
234	0x3d11178e	0.035422854
235	0xbd9da880	-0.076981544
236	0xbd9f8cbb	-0.07790514
237	0x3d08c7b8	0.03339359
238	0xbd94790b	-0.072496496
239	0xbc8d948c	-0.017282747
240	0x3d5dace4	0.05411996
241	0x3d6ecba0	0.05829966
242	0x3d029f3e	0.031890146
243	0x3c239210	0.0099835545
244	0xbd5f6276	-0.05453726
245	0xbc40a858	-0.011758886
246	0x3bda4320	0.006660834
247	0xbd674cba	-0.056469657
248	0x3d2e5c34	0.0425684
249	0x3d8b4d7a	0.06801887
250	0xbc401fd0	-0.011726335
251	0xbd6eb7b4	-0.05828066
252	0xbd725ac4	-0.059168592
253	0xbcd71830	-0.02625665
254	0xbd7346c4	-0.05939366
255	0x3da16b9a	0.078818515

fc1.bias f4 [128]
0	0x3bb92710	0.0056504086
1	0xbd6307d5	-0.05542739
2	0x3c9617e8	0.018321946
3	0x3c02dde0	0.007987469
4	0x3da202ee	0.07910715
5	0xbd1f79f7	-0.038934674
6	0x3d208b94	0.039195612
7	0xbd468d1b	-0.048474412
8	0x3ccb92bc	0.024850242
9	0x3ca5a330	0.020219415
10	0x3c653d40	0.013991654
11	0xbd88c60c	-0.066783994
12	0xbd97f9d4	-0.07420698
13	0xbd26d370	-0.040728986
14	0xbb39ede0	-0.0028370544
15	0xbd833d30	-0.06408155
16	0xbd66dcda	-0.056362964
17	0x3d7c787c	0.06163834
18	0x3c9df9d4	0.019284166
19	0xbd776654	-0.060400322
20	0xbd088403	-0.03332902
21	0x3c628050	0.013824537
22	0x3da6340e	0.081153974
23	0xbd37298e	-0.044717364
24	0x3cb99d84	0.022658117
25	0x3d75d104	0.060013786
26	0x3bc71580	0.006075561
27	0x3da56b52	0.0807711
28	0xbd4ed794	-0.05049856
29	0xbd226743	-0.03964926
30	0xbd4ed1c9	-0.050493035
31	0xbcaafa00	-0.020871162
32	0xbcb54794	-0.022128858
33	0xbd83f11e	-0.06442474
34	0xbd784800	-0.06061554
35	0x3d779f34	0.060454562
36	0x3d164cca	0.036694326
37	0xbda7fd66	-0.08202629
38	0xbd6c6140	-0.057709932
39	0xbda6d039	-0.08145184
40	0xb9dc2d00	-0.00041995198
41	0xbd9235b9	-0.07139153
42	0x3da4be0e	0.080440626
43	0xbd0e31fa	-0.03471563
44	0x3c3150b8	0.0108224675
45	0xbc7a0198	-0.015259169
46	0x3cd63880	0.026149988
47	0x3d438db8	0.047742575
48	0xbaa9d700	-0.0012957752
49	0x3ca16d80	0.019705534
50	0xbd83276a	-0.06404002
51	0xbd95e950	-0.073198915
52	0x3c010498	0.00787463
53	0x3d2854a4	0.041096345
54	0x3c51b860	0.012800306
55	0xbc638848	-0.013887472
56	0x3be8d640	0.0071056187
57	0x3da2623a	0.079288915
58	0x3d646fcc	0.05577068
59	0xbc54fc78	-0.012999646
60	0x3d85e24e	0.06537305
61	0xbc6f40b0	-0.014602825
62	0xbc1f43c8	-0.00972075
63	0xbd3c460c	-0.04596524
64	0xbd3d7fb7	-0.046264376
65	0xbbfddd70	-0.0077473447
66	0xbd8f7abe	-0.07005833
67	0xbda6cffa	-0.08145137
68	0x3d4d892c	0.050179645
69	0xbb3a2d40	-0.0028408319
70	0xbd85a557	-0.06525677
71	0xbda4c8ee	-0.08046137
72	0x3d04062e	0.032232456
73	0x3d670678	0.056402653
74	0xbb493600	-0.0030702353
75	0xbd8aabea	-0.06771071
76	0x3cf996f8	0.030467495
77	0x3cca33e8	0.024682954
78	0xbcb84e08	-0.022498146
79	0xbd9b9185	-0.07596115
80	0xbd524631	-0.05133647
81	0x3d62834c	0.055300996
82	0x3aded100	0.0016999543
83	0xbc12b3b0	-0.008953974
84	0x3d7225d0	0.059118092
85	0xbd380bb4	-0.044933036
86	0xbbce3000	-0.006292343
87	0x3cbd61b0	0.02311787
88	0xbb5a6280	-0.003332287
89	0x3d654e90	0.055983126
90	0xbd2420da	-0.040070392
91	0xbcffb3fa	-0.03121375
92	0xbc14a820	-0.009073287
93	0x3c774ac8	0.015093513
94	0x3d90bbd0	0.070670724
95	0x3d65e08c	0.056122348
96	0xbd361fc2	-0.04446388
97	0xbcab0484	-0.020876177
98	0x3d65a1b8	0.05606243
99	0xbb47c680	-0.0030483305
100	0xbd3eafed	-0.046554495
101	0x3caa7bc4	0.02081097
102	0x3d81d19c	0.06338808
103	0x3d4d0ba4	0.05005993
104	0x3bed2d20	0.0072380453
105	0xbd1e28b8	-0.03861305
106	0x3d7d3024	0.06181349
107	0x3d848e0e	0.06472407
108	0x3c8fedc8	0.017569438
109	0xbca6dcf8	-0.020369038
110	0xbcaf08a6	-0.021366429
111	0x3d030296	0.031984888
112	0xbd3a8928	-0.04554096
113	0x3c6416a8	0.013921417
114	0xbd1bbcea	-0.03802196
115	0xbd485063	-0.048904788
116	0x3d1cbcc8	0.038265973
117	0x3c8c8df8	0.01715754
118	0xbcd74b38	-0.026280984
119	0x3be00eb0	0.0068376884
120	0x3d0dfbbc	0.0346639
121	0x3d75abe0	0.059978366
122	0x3cc82c30	0.024435133
123	0x3d78e094	0.06076105
124	0x3c23ef00	0.0100057125
125	0xbc220e28	-0.00989107
126	0x3d5b0a94	0.053476885
127	0xbd38cb42	-0.045115717

fc2.weight f4 [128, 128]
0	0x3d8bd93b	0.06828543
1	0xbc287640	-0.010282099
2	0xbd8751bc	-0.066073865
3	0xbc0389c0	-0.008028448
4	0x3d74eeee	0.059798174
5	0xbb78cbe0	-0.0037963316
6	0x3d0df152	0.03465397
7	0x3d208052	0.039184876
8	0x3d5f907e	0.054581158
9	0x3d00430c	0.03131394
10	0xbba792b0	-0.005113922
11	0x3d1d4c52	0.038402863
12	0x3cca9194	0.02472762
13	0xbda4ec1d	-0.080528475
14	0xbd23283f	-0.039833304
15	0xbd6195f9	-0.055074666
16	0xbd348291	-0.04406983
17	0xbdb0bd10	-0.08629811
18	0x3d96d921	0.07365633
19	0x3d94e209	0.07269675
20	0x3c9f1668	0.019419864
21	0x3d880cbd	0.06643055
22	0x3da2f5e3	0.079570554
23	0x3d73a272	0.05948109
24	0xbac4d180	-0.0015016049
25	0xbd90f736	-0.07078402
26	0xbd0dc73a	-0.034613825
27	0xbda2b838	-0.07945293
28	0xbbf877a0	-0.00758262
29	0xbbab82c0	-0.0052340925
30	0x3dac5dff	0.08416366
31	0xbd9d0ddd	-0.0766866
32	0x3d9932b9	0.07480378
33	0xbcac9e20	-0.021071494
34	0xbd841c3b	-0.06450697
35	0x3d62d756	0.05538114
36	0xbbd49c20	-0.006488338
37	0xbd384238	-0.044985026
38	0xbce600ea	-0.028076608
39	0xbda52c5b	-0.08065101
40	0x3ce35468	0.027750209
41	0x3d52e06a	0.05148355
42	0xbd04e260	-0.03244245
43	0xbd773d40	-0.060361147
44	0xbd09c364	-0.033633605
45	0x3d9faec7	0.07797008
46	0xbd9504f9	-0.07276339
47	0x3d994d91	0.07485498
48	0x3c696718	0.014245771
49	0xbb494f00	-0.0030717254
50	0xbc83f24c	-0.016106747
51	0x3d8b2b27	0.0679534
52	0x3c9378b4	0.018001892
53	0xbdabcf36	-0.08389132
54	0xbd701fa4	-0.058623925
55	0xbb853e60	-0.0040662736
56	0x3cf52780	0.029926062
57	0x3db2ff85	0.08740143
58	0xbc592c80	-0.0132552385
59	0xbd87e5a7	-0.066355996
60	0x3db2b247	0.0872541
61	0x3dad1385	0.08450989
62	0xbc571bb8	-0.013129167
63	0xbd02cb8a	-0.03193239
64	0xbd806521	-0.06269289
65	0x3d8729c5	0.06599764
66	0x3c070cb8	0.0082427785
67	0xbda71aa5	-0.08159379
68	0xbd865675	-0.06559459
69	0x3daebca9	0.08532078
70	0xbd0a0d16	-0.033703886
71	0xbcb45830	-0.022014707
72	0x3cc9bbc4	0.024625666
73	0xbc28ee28	-0.010310687
74	0x3cc11104	0.023567684
75	0x3d8f6d8b	0.070033155
76	0xbd6a2b1e	-0.057170026
77	0x3db1a749	0.08674485
78	0x3b156c00	0.0022799969
79	0xbccf4cd0	-0.025305182
80	0xbda1b404	-0.078956634
81	0x3b9d8980	0.004807651
82	0xbdb27356	-0.08713405
83	0x3b9af440	0.004728824
84	0x3d7826e6	0.06058397
85	0x3cac7c3c	0.021055333
86	0x3c036c80	0.008021474
87	0x3cf6adfc	0.03011226
88	0x3ba0d910	0.0049086884
89	0x3c88bb24	0.016690798
90	0x3bdc36d0	0.0067204013
91	0xbcdf697e	-0.027271982
92	0x3b73da00	0.0037208796
93	0x3c5777f0	0.013151154
94	0x3caa8e48	0.020819798
95	0x3d7cb846	0.061699174
96	0x3d5d2fa2	0.054000504
97	0xbd33e5b6	-0.04392024
98	0xbd208385	-0.039187927
99	0xbcbc9934	-0.023022272
100	0xbd1f8c22	-0.038952
101	0x3d6cceee	0.05781453
102	0xbd936a26	-0.071979806
103	0x3d856c05	0.06514744
104	0x3d3cae92	0.04606492
105	0x3dad7f15	0.084715046
106	0x3d8484b7	0.06470626
107	0xbd8de701	-0.06928826
108	0x3c2a29f8	0.010385983
109	0x3d9b1c1d	0.075737216
110	0xbdabd6de	-0.08390592
111	0xbd30fafb	-0.043208104
112	0x3d703ed6	0.058653675
113	0x3db498f5	0.08818237
114	0x3d8dfefd	0.06933401
115	0xbd4f0618	-0.05054292
116	0xbd212447	-0.039341237
117	0xbc95dbe8	-0.018293336
118	0xbdb37e88	-0.08764368
119	0xbd073fea	-0.033019938
120	0x3d078c78	0.033092946
121	0x3bd06fa0	0.006360963
122	0xbdb40f1e	-0.08791946
123	0x3c821eb8	0.015883788
124	0xbcb38b8c	-0.021917127
125	0x3ce76b38	0.028249368
126	0xbd1be57b	-0.038060647
127	0xbd4012ab	-0.046892803
128	0x3d0e1b8a	0.034694232
129	0xbcea1960	-0.028576553
130	0x3ce057e0	0.027385652
131	0xbd674645	-0.0564635
132	0xbc7c2a38	-0.015390925
133	0xbd838905	-0.06422619
134	0xbd3d7a77	-0.04625937
135	0x3d3a51ce	0.04548817
136	0x3d4f4576	0.050603352
137	0xbd960a6f	-0.07326209
138	0x3c27d268	0.010243036
139	0x3d23adf6	0.039960824
140	0x3d6614ba	0.05617211
141	0xbd7b2557	-0.061314907
142	0xbd404f61	-0.0469507
143	0xbd692ff4	-0.056930497
144	0x3d543f6a	0.05181829
145	0xbd548600	-0.051885605
146	0xbd9cb139	-0.0765099
147	0x3d2905b6	0.041265212
148	0x3d47f2c6	0.04881551
149	0x3d645a42	0.05575014
150	0xbbc1c600	-0.005913496
151	0x3d74206e	0.05960124
152	0xbd55e224	-0.052217618
153	0xbceab6e2	-0.028651658
154	0xbd420495	-0.04736765
155	0x3d9b8f5b	0.07595702
156	0x3dad0331	0.08447874
157	0xbd08242d	-0.033237625
158	0x3a6e1600	0.0009082258
159	0x3acf02c0	0.0015793666
160	0x3cace044	0.021103032
161	0xbc1da2a0	-0.009621292
162	0x3d911c51	0.07085479
163	0xbc2acc08	-0.010424621
164	0xb7c37000	-2.3297966e-05
165	0xbce7003e	-0.028198358
166	0x3cdae728	0.026721552
167	0xbc816ad8	-0.015798017
168	0xbd6be4ee	-0.05759137
169	0xbda62165	-0.08111838
170	0x3da28e5b	0.079373084
171	0xbc699a80	-0.014258027
172	0x3d99bfc3	0.07507279
173	0xbcee844e	-0.029115822
174	0x3d99a007	0.07501226
175	0x3d4bec1e	0.049785726
176	0xbd7b6260	-0.061373115
177	0x3d84af93	0.064788006
178	0xbcb77b38	-0.022397622
179	0xbce6b81e	-0.028163966
180	0x3c4f9ff8	0.012672417
181	0xbd16f51c	-0.03685485
182	0xbc543c18	-0.012953781
183	0xbd1ea360	-0.038730025
184	0xbc84ecc4	-0.01622618
185	0x3d89b3a1	0.067237146
186	0xbc2bae30	-0.010478541
187	0x3d0f72b4	0.0350215
188	0x3daea40f	0.085273854
189	0xbd1be9ea	-0.038064875
190	0xbc2c0178	-0.010498397
191	0x3d09b526	0.033620022
192	0xbd8d10bd	-0.06887958
193	0x3cdfdd58	0.027327225
194	0x3d349856	0.04409059
195	0x3ceffd04	0.029295452
196	0x3d799be6	0.060939692
197	0xbd48f81b	-0.049064737
198	0x3c75dbc0	0.015006006
199	0xbd46c4a1	-0.048527364
200	0x3ccb5f04	0.02482558
201	0x3db4d8d7	0.088304214
202	0xbb4f7360	-0.0031654462
203	0xbd100c0f	-0.03516775
204	0xbd1e194a	-0.038598336
205	0xbcd5c1b6	-0.026093345
206	0x3d890039	0.066894956
207	0xbccc52c8	-0.024941817
208	0xbcec8550	-0.028872162
209	0xbc929b88	-0.017896429
210	0xbd67b190	-0.05656582
211	0xbd542d0f	-0.051800784
212	0x3c1bd1a0	0.009510428
213	0xbd98e844	-0.07466176
214	0xbd96c5b3	-0.07361927
215	0x3d60af72	0.054854818
216	0x3d9f2165	0.077700414
217	0xbcd2c92c	-0.025730692
218	0xbd03841e	-0.03210842
219	0x3cdc9210	0.026925117
220	0x3c6f1e50	0.014594629
221	0x3d878ae9	0.06618292
222	0x3db0ec6b	0.08638843
223	0xbd10c963	-0.035348307
224	0x3c4ba4b8	0.012429409
225	0xbd5bb143	-0.053635847
226	0xbd9ed55e	-0.0775554
227	0x3d4c3706	0.049857162
228	0xbd6b37cf	-0.05742627
229	0xbd8f6a63	-0.070027135
230	0x3d81af39	0.06332249
231	0x3c0c25d0	0.008553937
232	0xbd2c1d1b	-0.042019945
233	0x3d94e1eb	0.07269653
234	0xbd8e0118	-0.06933802
235	0xbd9caafe	-0.07649802
236	0xbdb06d20	-0.08614564
237	0xbc8e0400	-0.017335892
238	0xb98d8a00	-0.00026996434
239	0xbc9532c0	-0.018212676
240	0x3bb26720	0.0054444224
241	0xbb3ac280	-0.0028497279
242	0x3cec09e4	0.02881331
243	0xbd7d72d6	-0.061877094
244	0xbc1f7bb8	-0.009734087
245	0xbd539875	-0.051659066
246	0x3d4bddf2	0.04977221
247	0x3d20e882	0.039284237
248	0xbc7e9df0	-0.015540585
249	0xbc9c253c	-0.019060723
250	0xbc434650	-0.011918619
251	0x3d7089de	0.05872523
252	0xbd4cb75f	-0.049979564
253	0x3d9d98f7	0.07695191
254	0x3da59d9f	0.080867045
255	0x3d7f256a	0.06229154

fc2.bias f4 [128]
0	0x3d4a7a82	0.04943324
1	0xbd32d491	-0.04365975
2	0xbce55d3e	-0.027998563
3	0x3d0b41ce	0.033998303
4	0xbda1e5a3	-0.07905128
5	0x3d2b9eb6	0.041899405
6	0xbd3065fb	-0.043066006
7	0xbd60d259	-0.054888103
8	0x3d88c721	0.06678606
9	0x3d33c186	0.04388573
10	0x3d8e401b	0.06945821
11	0x3d8febcd	0.07027397
12	0xbd81bb79	-0.06334586
13	0x3a4a6180	0.0007720217
14	0xbccfd86c	-0.025371753
15	0x3aab0880	0.0013048798
16	0x3c50d7a0	0.0127467215
17	0x3d2a0eae	0.041517906
18	0x3bbd7430	0.005781673
19	0xbd304909	-0.0430384
20	0xbd768358	-0.060183853
21	0x3cc56eb4	0.024100639
22	0xbd6f5818	-0.058433622
23	0xbd927a53	-0.07152238
24	0x3d1e617a	0.03866718
25	0xbcce8c80	-0.02521348
26	0x3d51ddc2	0.051236875
27	0xbd071262	-0.032976516
28	0xbd87b71f	-0.066267245
29	0x3d0efeda	0.034911014
30	0xbda325ac	-0.0796617
31	0xbb117d20	-0.0022199824
32	0xbc00f448	-0.007870741
33	0x3d98ef97	0.07467573
34	0xbdb2c0f6	-0.08728211
35	0x3da03339	0.0782227
36	0x3d92955d	0.07157395
37	0x3c17d3d8	0.009266816
38	0x3d3d4466	0.046207808
39	0xbd806447	-0.062691264
40	0xbd74f48f	-0.05980354
41	0xbdaa6d3a	-0.083216146
42	0xbdb0909d	-0.08621333
43	0xbd98954a	-0.0745035
44	0x3d8b5d49	0.06804902
45	0xbd0767b3	-0.03305788
46	0x3c309890	0.010778561
47	0xbbda2190	-0.006656833
48	0x3d492542	0.049107797
49	0xbd30b10e	-0.043137603
50	0xbcce14a4	-0.025156327
51	0x399ea100	0.00030256063
52	0xbcf44f82	-0.029823069
53	0xbd7a7dc7	-0.061155107
54	0xbda56b0e	-0.0807706
55	0x3d826d7d	0.063685395
56	0x3cf51a78	0.029919848
57	0xbd10852d	-0.035283256
58	0x3b6da300	0.0036260486
59	0xbd3cb663	-0.046072375
60	0xbd8fcee5	-0.07021884
61	0x3c321e48	0.010871477
62	0xbd8f566c	-0.069989055
63	0x3d01aa28	0.031656414
64	0xbc8c7938	-0.017147645
65	0xbd45e458	-0.04831347
66	0xbda59c9c	-0.080865115
67	0x3d70fa36	0.05883237
68	0x3d8bced7	0.06826561
69	0x3da07963	0.07835653
70	0xbd2de823	-0.04245771
71	0x3cbfaf8c	0.023399137
72	0x3da340af	0.07971322
73	0xbcf187c2	-0.02948368
74	0xbd8796c6	-0.066205546
75	0xbd4192c8	-0.047259122
76	0xbca7004c	-0.020385884
77	0x3d829245	0.06375555
78	0x3d0c2b72	0.03422112
79	0x3c364cc0	0.011126697
80	0xbd22ab79	-0.03971431
81	0x3c9da1a8	0.019242123
82	0x3da7cd79	0.08193488
83	0x3d7cb2ee	0.06169408
84	0x3d73c24a	0.05951146
85	0x3c061428	0.008183517
86	0x3d16a7aa	0.03678099
87	0xbb1ce440	-0.0023939759
88	0xbd0e364f	-0.03471976
89	0x3d5a4652	0.05328972
90	0x3da8e3eb	0.08246597
91	0xbd839fa3	-0.06426933
92	0x3d8b95f1	0.068157084
93	0xbdaaf505	-0.08347515
94	0xbd0073a0	-0.03136027
95	0x3cf7bc40	0.030241132
96	0xbd8971a4	-0.06711128
97	0xbd0428e2	-0.03226555
98	0xbd9922bd	-0.07477329
99	0xbd9a705b	-0.07540961
100	0x3dae4dd3	0.085109375
101	0xbd7a74c9	-0.06114653
102	0x3d917481	0.071022995
103	0x3cdc8194	0.026917256
104	0xbd92c4c2	-0.07166435
105	0x3daa7aad	0.0832418
106	0xbcd4a1a8	-0.02595599
107	0xbd16c884	-0.03681232
108	0x3d409556	0.047017418
109	0x3c0f6940	0.008753121
110	0x3d3117aa	0.04323546
111	0xbc08c950	-0.008348778
112	0x3d1a73de	0.037708156
113	0xbcc27db4	-0.02374158
114	0x3d78c01a	0.060730077
115	0xbdad3e88	-0.084591925
116	0x3c82f378	0.015985236
117	0x3a433d00	0.00074477494
118	0x3dac941f	0.08426689
119	0xbc1067d0	-0.008813813
120	0x3d7335ba	0.05937741
121	0x3d7ac742	0.061225183
122	0xbc942a18	-0.018086478
123	0xbd50e2d7	-0.05099758
124	0x3db2cd2f	0.08730542
125	0xbd5849c1	-0.052804712
126	0x3db1ffa3	0.08691337
127	0xbd11d1a6	-0.035600327

fc3.weight f4 [5, 128]
0	0x3d891229	0.06692917
1	0xba5f3100	-0.00085140765
2	0xbd8afb84	-0.06786254
3	0xbd10fa44	-0.035394922
4	0xbd0f3c91	-0.03496987
5	0x3b5517e0	0.0032515451
6	0xbc4d9f40	-0.012550175
7	0x3c015b88	0.007895358
8	0x3d865a53	0.06560197
9	0xbd76664a	-0.060156144
10	0x3c935540	0.017984986
11	0x3d46c79e	0.048530214
12	0x3da927e3	0.08259561
13	0x3d5e038e	0.05420261
14	0xbd99e625	-0.075146
15	0x3c2da9a8	0.010599531
16	0xbd6d09ba	-0.057870604
17	0x3d9ba227	0.075992875
18	0x3da86483	0.08222296
19	0x3da1d169	0.0790127
20	0x3d6f76c2	0.058462866
21	0x3d8290ef	0.063753
22	0xbd59442e	-0.053043537
23	0xbd56375e	-0.052298896
24	0xbd857b07	-0.06517606
25	0xbc3443f8	-0.011002533
26	0x3c90cf0c	0.017676853
27	0xbd908391	-0.07056344
28	0xbdb2e65e	-0.08735345
29	0x3d8e647b	0.06952759
30	0xbd9c2736	-0.076246664
31	0xbda1c992	-0.078997746
32	0x3d509672	0.050924726
33	0xbd7c721c	-0.06163226
34	0x3cc0ee70	0.023551196
35	0x3d01ffb4	0.031737998
36	0x3dad0d61	0.084498174
37	0x3d90d6a1	0.07072187
38	0xbbeb5740	-0.007182032
39	0xbd133eab	-0.035948437
40	0x3ce7454c	0.028231286
41	0xbd2dc8ce	-0.04242783
42	0x3d9b427d	0.07581041
43	0x3cbe6984	0.023243673
44	0xbc28bbc8	-0.010298677
45	0xbd0ae1b7	-0.033906665
46	0x3d9ff0fb	0.07809635
47	0x3d4c1402	0.04982377
48	0x3d98e4dd	0.07465527
49	0x3c5b8a38	0.013399653
50	0xbdaecf1d	-0.085355975
51	0xbd212bfa	-0.03934858
52	0x3ab00e00	0.0013431907
53	0xbda9e738	-0.082960546
54	0xbdae14e1	-0.08500076
55	0xbd6d5df0	-0.057950914
56	0x3d5e0b06	0.05420973
57	0xbc0ec9b8	-0.008715086
58	0x3da6c17b	0.08142372
59	0xbd9d9549	-0.076944895
60	0x3d977bdf	0.073966734
61	0x3d9eb32d	0.07749019
62	0xbca4f228	-0.020135
63	0x3cca1a64	0.024670787
64	0xbd64b5ec	-0.055837557
65	0xbda1fabc	-0.07909152
66	0x3d28ee6a	0.041242994
67	0x3d20ad36	0.039227687
68	0x3d91f82d	0.07127414
69	0x3ce5e820	0.028064787
70	0xbd20b8a4	-0.039238587
71	0x3d846be5	0.06465892
72	0xbd778848	-0.060432702
73	0xbc83774c	-0.016048096
74	0xbd6951af	-0.056962665
75	0xbd7afb0f	-0.061274584
76	0x3daab049	0.08334405
77	0xbcb33ba0	-0.021879017
78	0x3c25fc00	0.010130882
79	0x3d8db10d	0.069185354
80	0x3d552f36	0.052046977
81	0x3d9662d7	0.07343071
82	0x3db150a7	0.08657961
83	0x3d54dc7e	0.05196809
84	0x3d4214ae	0.047383003
85	0xbc858340	-0.016297936
86	0x3cb79650	0.022410542
87	0xbbee2ae0	-0.0072682947
88	0xbd0cc2a3	-0.034365308
89	0x3cfa9844	0.030590184
90	0xbc003da8	-0.0078272
91	0x3bc1fd40	0.0059200823
92	0x3cea3cbc	0.028593414
93	0xbd9d2f50	-0.0767504
94	0x3d34b522	0.044118054
95	0x3d1cc2ea	0.038271822
96	0x3dafffa7	0.08593684
97	0xbd9341a0	-0.07190251
98	0x3d94ebad	0.07271514
99	0xbd4a2522	-0.04935182
100	0x3ce269a8	0.027638271
101	0x3ca19790	0.019725591
102	0xbc80d96c	-0.015728675
103	0xbd3c5ac0	-0.045984983
104	0xbd9b8f6e	-0.075957164
105	0x3cc35888	0.023845926
106	0x3d3020f2	0.04300017
107	0x3d856a13	0.06514373
108	0x3ce26b94	0.027639188
109	0x3cc0fffc	0.023559563
110	0xbc28e048	-0.010307379
111	0x3d4cddea	0.05001632
112	0xbd9c73b4	-0.07639256
113	0x3d53baca	0.051691808
114	0x3db40f93	0.08792033
115	0xbd761640	-0.060079813
116	0x3d0f7e2a	0.03503243
117	0xbc017490	-0.007901326
118	0xbc91dc80	-0.017805338
119	0x3d30e0fe	0.04318332
120	0x3d1ad496	0.037800394
121	0x3d88e585	0.066844024
122	0x3be0bf10	0.006858714
123	0xbd44a3c5	-0.048007745
124	0x3d5cf046	0.05394008
125	0x3d6b77b2	0.057487197
126	0xbc084db0	-0.008319303
127	0xbd8724ec	-0.06598839
128	0xbda4d0ec	-0.08047661
129	0xbd4fa214	-0.05069168
130	0x3cc82bd8	0.024434969
131	0x3cfa6194	0.030564107
132	0xbd01a209	-0.03164867
133	0x3d5b6c72	0.05357022
134	0xbd101291	-0.035173956
135	0xbd925631	-0.07145346
136	0xbb618b80	-0.0034415424
137	0xbc92ca7c	-0.017918818
138	0x3d5ee0c2	0.054413565
139	0xbd90a120	-0.07061982
140	0xbca7d460	-0.02048701
141	0xbd8b9fcb	-0.068175875
142	0x3d397596	0.045278154
143	0xbda22858	-0.07917851
144	0xbd7091eb	-0.05873291
145	0xbd6bd4e0	-0.05757606
146	0xbdac13a6	-0.08402185
147	0xbc843b10	-0.016141444
148	0xbbbca8b0	-0.005757414
149	0x3c24af20	0.010051519
150	0xbd98e72d	-0.07465968
151	0xbb0a9f40	-0.002115205
152	0xbc85cee8	-0.016334012
153	0xbd938ac4	-0.07204202
154	0x3c0af9d8	0.008482419
155	0xbb8affc0	-0.0042419136
156	0x3c9e08f4	0.019291379
157	0xbd929230	-0.07156789
158	0x3ca17f80	0.019714117
159	0x3d21aa6a	0.03946916
160	0xbdac0e0a	-0.08401115
161	0x3b172980	0.0023065507
162	0xbc807048	-0.01567854
163	0x3c842518	0.016130969
164	0x3da78669	0.081799336
165	0x3d8dc6a9	0.06922657
166	0xbd84ef08	-0.06490904
167	0xbd361327	-0.04445186
168	0xbd489b0b	-0.048975985
169	0x3d3825fe	0.044958107
170	0x3bd545d0	0.0065085664
171	0xbcad10cc	-0.021126173
172	0xbd871706	-0.06596188
173	0xbc9c880c	-0.019107841
174	0x3da87661	0.08225704
175	0x3d96197d	0.0732908
176	0x3d3d90d2	0.04628069
177	0xbd72c666	-0.05927124
178	0xbdb32cbc	-0.08748767
179	0x3d5a3682	0.05327464
180	0x3cd3c5b4	0.025851108
181	0xbd8971f8	-0.06711191
182	0x3d8e7585	0.06956009
183	0xbd87b704	-0.06626704
184	0x3c93d840	0.018047452
185	0x3cf97630	0.030451864
186	0x3d490dc6	0.0490854
187	0xbda43233	-0.08017387
188	0xbcc3d4e0	-0.023905218
189	0xbd88c9ab	-0.0667909
190	0x3d1cb8f2	0.038262315
191	0x3d9d8489	0.07691295
192	0xbda0c139	-0.07849354
193	0xbda4c377	-0.080450945
194	0x3c8d9b60	0.017286003
195	0xbcac4870	-0.021030635
196	0xbd77983c	-0.060447916
197	0xbc8ae010	-0.016952544
198	0x3c4ca108	0.012489565
199	0x3d3425aa	0.04398123
200	0x3d979b6d	0.07402692
201	0x3c818470	0.015810221
202	0xbd72a9da	-0.059244014
203	0x3c796898	0.015222691
204	0x3b6d2940	0.0036187917
205	0x3c2b94f0	0.010472521
206	0xbda0947f	-0.078408234
207	0x3d9bf8cf	0.07615816
208	0xbd66cebd	-0.056349505
209	0xbc90cd14	-0.017675914
210	0x3d4121ce	0.04715138
211	0xbb39dd40	-0.0028360635
212	0x3c298338	0.010346226
213	0xbd2bbd6d	-0.041928697
214	0xbbed9fc0	-0.0072517097
215	0xbda92a95	-0.08260075
216	0x3da4b3eb	0.08042129
217	0x3d96cd1f	0.073633425
218	0xbd4d96ff	-0.05019283
219	0x3d82a8d9	0.063798614
220	0xbcd32ae4	-0.025777288
221	0xbd91ba24	-0.07115582
222	0xbd2c2175	-0.042024095
223	0xbdb34825	-0.08753995
224	0x3d4bdca2	0.04977096
225	0xbd90fff4	-0.07080069
226	0xbc62bf10	-0.013839498
227	0xbd93140a	-0.071815565
228	0xbd163bd6	-0.036678158
229	0x3c5eb8c0	0.0135938525
230	0x3d13c556	0.036076866
231	0xbd319ec7	-0.043364312
232	0xbd32b7aa	-0.043632187
233	0x3d439222	0.047746785
234	0xbd887c8b	-0.0666438
235	0x3da50e2f	0.08059346
236	0x3da4ce25	0.080471314
237	0x3d19b356	0.037524544
238	0x3bc5dc60	0.0060382336
239	0xbc3779e8	-0.011198498
240	0x3da8e269	0.08246309
241	0xbbddd190	-0.0067693666
242	0xbb2b6680	-0.0026153624
243	0xbce42354	-0.027848877
244	0x3c7a11b0	0.015263006
245	0x3d419a06	0.04726603
246	0xbc3c5780	-0.011495471
247	0xbc6b2af0	-0.014353499
248	0xbd2402d4	-0.04004176
249	0x3cb1df10	0.02171281
250	0x3d6a1f5e	0.05715882
251	0xbcb4ff40	-0.022094369
252	0xbd142a06	-0.03617289
253	0x3bb0eac0	0.005399078
254	0xbd6f13d9	-0.058368538
255	0xbbde26a0	-0.006779507

fc3.bias f4 [5]
0	0xbc9f9358	-0.019479439
1	0x3d82d659	0.0638854
2	0x3d75ae9a	0.059980966
3	0x3d127224	0.035753384
4	0xb92de800	-0.00016584992

fc1.weight f4 [128, 147]
0	0xbd883c16	-0.066520855
1	0xbccff314	-0.025384463
2	0x3b6c73e0	0.003607981
3	0x3da29c92	0.0794002
4	0x3d236d12	0.03989894
5	0x3a67ce80	0.00088427216
6	0xbc758898	-0.01498618
7	0xbd328229	-0.04358116
8	0x3d1af3d4	0.03783019
9	0x3d647ca8	0.055782944
10	0xbcf5b97e	-0.029995676
11	0xbd4b0ba7	-0.04957166
12	0x3c759798	0.014989756
13	0x3d297284	0.041368976
14	0x3d0b68ce	0.034035496
15	0xbd9c9c47	-0.07646995
16	0xbd82c97e	-0.06386088
17	0x3d529578	0.051412076
18	0x3d8405ba	0.06446405
19	0x3d66bd98	0.056333154
20	0xbd6549e5	-0.055978674
21	0xb9eed100	-0.00045550615
22	0xbc0f5820	-0.008749038
23	0x3c93e90c	0.018055461
24	0xbd35bae6	-0.044367693
25	0x3ca05f7c	0.01957678
26	0x3d1d9122	0.038468488
27	0xbbfc5150	-0.007700123
28	0x3d37a80c	0.044837996
29	0x3d74077c	0.05957745
30	0x3d868b7c	0.06569573
31	0x3c455818	0.012044929
32	0x3d9b7e06	0.075923964
33	0xbb2f2620	-0.0026725605
34	0xbd539018	-0.05165109
35	0x3d452354	0.048129395
36	0xbda20c19	-0.07912464
37	0xbd1c77a8	-0.03820005
38	0xbd9f9b90	-0.07793343
39	0xbd37488c	-0.04474692
40	0xbd58d798	-0.05293998
41	0xbcc635c0	-0.024195552
42	0x3d99ac04	0.075035125
43	0xbd84316e	-0.064547405
44	0xbd68a962	-0.05680216
45	0x3d5d901c	0.05409251
46	0x3d976fd2	0.07394375
47	0xbd0c9a19	-0.034326646
48	0x3d52e4a4	0.05148758
49	0xbd0f9f0c	-0.03506379
50	0xbcbc7656	-0.023005646
51	0xbd931d9c	-0.07183382
52	0xbce6dd14	-0.02818159
53	0xbd0a3b9a	-0.033748247
54	0xbd5f3383	-0.054492485
55	0x3d9e5356	0.07730739
56	0xbc0c0750	-0.008546665
57	0x3d8b3a62	0.06798245
58	0xbda2e215	-0.07953278
59	0xbd1ef8f8	-0.038811654
60	0x3c27a818	0.010232948
61	0x3d310630	0.04321879
62	0x3cc023f8	0.023454651
63	0xbda382da	-0.07983942
64	0xbbd6ec90	-0.006558962
65	0xbd401527	-0.046895172
66	0xbd304d44	-0.043042436
67	0x3d96cef8	0.07363695
68	0xbda61cd0	-0.08110964
69	0x3da02434	0.07819405
70	0xbda30f9a	-0.0796196
71	0xbd826a23	-0.063679
72	0xbbf10bf0	-0.0073561594
73	0xbce82fc2	-0.028343085
74	0xbd42783c	-0.047477946
75	0xbd213cf0	-0.039364755
76	0xbbfc8020	-0.0077057034
77	0x3d23372e	0.039847545
78	0x3d4fd060	0.05073583
79	0x3c2a1bd8	0.010382615
80	0x3d7e8998	0.06214294
81	0xbd2bc55c	-0.041936263
82	0xbd95a418	-0.07306689
83	0x3d7c4dd4	0.06159766
84	0x3aef15c0	0.0018240735
85	0xbd508e92	-0.050917216
86	0x3acae840	0.0015480593
87	0x3d864c46	0.06557517
88	0x3d34c150	0.04412967
89	0x3d50ba1c	0.050958738
90	0xbd150447	-0.036381032
91	0xbd885921	-0.06657625
92	0xbd72263a	-0.059118487
93	0x3d8ebeac	0.069699615
94	0xbd7910c3	-0.060807
95	0xbd9a2eef	-0.07528483
96	0xbd9ce06a	-0.07659991
97	0x3cd57390	0.026056081
98	0xbd863155	-0.06552378
99	0x3a9d9e40	0.0012025312
100	0x3d9bd3a6	0.07608728
101	0xbbf0f110	-0.0073529556
102	0xbd137c66	-0.036007307
103	0x3d16cb28	0.03681484
104	0x3da76b62	0.081747785
105	0x3c84a218	0.016190574
106	0xbd567b62	-0.05236376
107	0xbc215938	-0.009847932
108	0xbd8743d4	-0.06604734
109	0xbd5e8f34	-0.054335788
110	0xbbf77c20	-0.0075526386
111	0xbca858f4	-0.020550229
112	0x3cbd0a04	0.023076065
113	0xbd41bbc0	-0.047298193
114	0xbda8b440	-0.08237505
115	0xbd9a7f0d	-0.07543764
116	0x3c9cb2a0	0.019128144
117	0xbda25de8	-0.079280674
118	0x3d229c76	0.039699994
119	0xbd2f74c2	-0.04283596
120	0x3d0d36d0	0.0344761
121	0x3d1a7e0e	0.03771787
122	0xbc83408c	-0.01602199
123	0xbd858cde	-0.06521009
124	0xbd2d7272	-0.04234547
125	0xbd71d41e	-0.05904018
126	0xbbb1d800	-0.0054273605
127	0x3d48ab64	0.048991576
128	0x3be7aba0	0.00707002
129	0xbcccc538	-0.024996385
130	0x3da08ed4	0.07839742
131	0x3d9986c2	0.07496406
132	0xbca47222	-0.020073954
133	0x3c360be0	0.01111123
134	0xbd8c20f0	-0.0684222
135	0xbd2c1e18	-0.042020887
136	0xbd64b0e8	-0.055832773
137	0xbc7789f0	-0.01510857
138	0x3d6cee9c	0.057844743
139	0xbd4b8786	-0.049689792
140	0xbce7259a	-0.028216172
141	0x38458000	4.708767e-05
142	0x3d95befe	0.073118195
143	0x3bd941a0	0.0066301376
144	0xbcb7e994	-0.022450246
145	0xbd6c93ca	-0.05775813
146	0x3d438968	0.047738463
147	0xbc92ddfc	-0.017928116
148	0x3d92ac86	0.071618125
149	0xbd56faa6	-0.05248513
150	0xbd8f54d8	-0.069986045
151	0x3cdcbcc0	0.026945472
152	0xbceae480	-0.02867341
153	0xbd188643	-0.037237417
154	0x3bfbc4f0	0.007683389
155	0xbd1f77e2	-0.03893269
156	0xbd6fbb83	-0.058528434
157	0x3d7a2dd8	0.061078876
158	0xbc92c8dc	-0.017918043
159	0xbd62811e	-0.055298917
160	0x3d848028	0.06469756
161	0x3d9461da	0.07245226
162	0x3d9b7460	0.07590556
163	0x3c83ec80	0.016103983
164	0x3d8b78c0	0.068101406
165	0xbcaa22d4	-0.02076856
166	0x3d816000	0.06317139
167	0xbd515aff	-0.05111217
168	0xbb685a60	-0.0035454258
169	0xbc9cd514	-0.019144572
170	0x3cc305f0	0.023806542
171	0x3d90003e	0.07031296
172	0x3b6e93c0	0.0036403984
173	0x3da502b2	0.08057155
174	0xbd9f5c2a	-0.07781251
175	0x3a9f4c80	0.0012153536
176	0xbc1695b0	-0.009190962
177	0xbc32fa50	-0.010923937
178	0xbc99b8c0	-0.018764853
179	0xbca138d4	-0.019680418
180	0x3c9f2ed0	0.019431502
181	0xbbc3c350	-0.005974211
182	0xbd23ef21	-0.040022973
183	0x3ccf0794	0.025272168
184	0x3d1fae0a	0.038984336
185	0xbcbf7d04	-0.023375042
186	0x3d9c1f0c	0.07623109
187	0x3cc7cfcc	0.024391077
188	0x3d5d4a10	0.05402571
189	0xbd28213f	-0.04104733
190	0x3d69039c	0.056888208
191	0x3d6ef60c	0.058340117
192	0x3d2cc260	0.042177558
193	0x3c627030	0.013820693
194	0xbc730820	-0.01483348
195	0xbce01a4e	-0.027356293
196	0x3b61c7e0	0.003445141
197	0x3c238680	0.009980798
198	0xbce7cede	-0.028296884
199	0x3d932802	0.07185365
200	0x3c09e030	0.008415267
201	0x3d9241ea	0.07141478
202	0xbc8d1f04	-0.017226703
203	0x3d3525a0	0.044225335
204	0xbd1268e4	-0.035744563
205	0xbb2bcd80	-0.0026215017
206	0xbad96c80	-0.0016588122
207	0x3d64c968	0.05585614
208	0xbd15748f	-0.036488112
209	0x3c2cbf58	0.010543667
210	0x3d54480c	0.05182652
211	0x3d28f8e8	0.041253
212	0xbc81ab30	-0.015828699
213	0x3d9b0100	0.0756855
214	0xbd16540c	-0.036701247
215	0xbda37be7	-0.07982617
216	0xbd14fe98	-0.036375612
217	0x3bbbc5a0	0.005730346
218	0xbc782040	-0.015144408
219	0xbd8f8691	-0.070080884
220	0x3da82f76	0.082121775
221	0x3cb25898	0.02177076
222	0xbc981d0c	-0.018568538
223	0x3cc34eec	0.023841344
224	0xbc4c4300	-0.012467146
225	0x3cb998b0	0.022655815
226	0x3d815198	0.06314391
227	0x3da57a58	0.08079976
228	0xbce3d402	-0.027811054
229	0x3da07866	0.07835464
230	0x3d99b976	0.07506077
231	0xbcce0e8a	-0.025153417
232	0xbc39f4d0	-0.011349872
233	0x3cc6b1e8	0.024254754
234	0x3ce91748	0.028453484
235	0xbc46c870	-0.012132749
236	0xbd748fb0	-0.059707344
237	0x3d9b91f0	0.07596195
238	0xbd971e58	-0.073788345
239	0x3d77ea8c	0.060526416
240	0x3d9c6cd8	0.07637948
241	0xbce2d61a	-0.027689982
242	0xbd3cba2b	-0.04607598
243	0x3d44e5dc	0.048070773
244	0x3d8fe606	0.07026295
245	0xbda54fee	-0.08071886
246	0xbd9ebf78	-0.077513635
247	0xbd6eaac4	-0.058268324
248	0x3bc9e310	0.006161101
249	0x3d0c87fa	0.034309365
250	0x3c8d35a4	0.017237492
251	0x3c4f6a00	0.01265955
252	0x3d85d7ce	0.06535302
253	0xbd4ea596	-0.050450884
254	0x3c338250	0.010956362
255	0xbda85232	-0.082188025

fc1.bias f4 [128]
0	0x3cf03cb8	0.029325828
1	0xbd393790	-0.045219004
2	0x3d8c6d48	0.06856781
3	0xbc269960	-0.010168403
4	0x3cef8fbc	0.029243343
5	0x3d07f192	0.033189364
6	0xbd87f44f	-0.06638395
7	0xbd8f20c7	-0.06988674
8	0xbc200890	-0.009767666
9	0xbc850234	-0.016236402
10	0xbd92f997	-0.07176512
11	0xbcafcff6	-0.021461468
12	0x3d83ebfc	0.06441495
13	0x3cc0b26c	0.023522578
14	0xbd174527	-0.036931183
15	0x3d48f080	0.049057484
16	0xbd038c6e	-0.032116346
17	0x3d274876	0.04084059
18	0xbda68fca	-0.08132894
19	0x3d80aa0c	0.06282434
20	0xbd90b6e3	-0.07066133
21	0xbd9abaf5	-0.075551905
22	0x3d769e94	0.060209826
23	0xbd85ee3c	-0.0653958
24	0x3c116468	0.008874036
25	0x3b7eed80	0.0038898885
26	0xbc2f0fe0	-0.010684937
27	0xbd897ab1	-0.06712855
28	0x3d671c2c	0.05642335
29	0x3da0da40	0.07854128
30	0xbca057c0	-0.019573092
31	0xbd46ab6d	-0.048503328
32	0xbd620c70	-0.055187643
33	0x3da6f2b8	0.08151764
34	0x3d83d882	0.0643778
35	0xbd6018f0	-0.054711282
36	0x3d24fcd6	0.040280186
37	0xbd8fb950	-0.070177674
38	0xbd7f4008	-0.062316924
39	0xbd7b0230	-0.061281383
40	0x3d509514	0.050923422
41	0x3d8c47ca	0.0684963
42	0x3d64efd0	0.055892766
43	0x3d813022	0.06308009
44	0xbd8be3e6	-0.068305776
45	0x3d648218	0.05578813
46	0x3d5df298	0.054186434
47	0x3d82c74e	0.063856706
48	0x3c5933a8	0.013256945
49	0x3d9818ba	0.07426591
50	0x3b21fa80	0.002471596
51	0x3d50e8c8	0.051003247
52	0x3d5922bc	0.05301164
53	0x3bac3070	0.0052547976
54	0x3d471aac	0.04860942
55	0x3c761648	0.015019961
56	0x3cfa6bcc	0.03056898
57	0x3d90b6ca	0.07066114
58	0xbd9facc4	-0.07796624
59	0x3d8f66aa	0.070020035
60	0xbd185b0e	-0.03719621
61	0xbbb92960	-0.0056506842
62	0xbd5371d1	-0.051622216
63	0x3d586dc0	0.05283904
64	0xbd519431	-0.051166717
65	0xbca52afe	-0.020162102
66	0x3d760880	0.0600667
67	0x3da09e86	0.07842736
68	0xbd99beeb	-0.07507118
69	0xbc90709c	-0.017631821
70	0x3bc6eb10	0.006070502
71	0x3d78c174	0.060731366
72	0x3d056948	0.032571107
73	0x3d7851e4	0.060624972
74	0xbce41f06	-0.027846824
75	0x3c63da30	0.013907
76	0x3d640148	0.055665284
77	0x3d7821d0	0.06057912
78	0xbc607cd8	-0.01370164
79	0xbd8907f8	-0.06690973
80	0x3da12c88	0.07869822
81	0x3d3d21a4	0.04617466
82	0xbbfb6d40	-0.0076729357
83	0x3c1c36e8	0.009534575
84	0xbd96bba2	-0.07360007
85	0xbd1d8f64	-0.038466826
86	0xbcbf7f9e	-0.023376282
87	0xbd5cb1df	-0.05388057
88	0xbca87d88	-0.02056767
89	0xbd92251c	-0.07135984
90	0x3beff890	0.007323332
91	0x3d422954	0.047402695
92	0x3b753d20	0.0037420467
93	0xbd2a8433	-0.04162998
94	0xbd751273	-0.059832048
95	0x3d7f2540	0.062291384
96	0xbd72bc26	-0.059261464
97	0x3bb574c0	0.0055375993
98	0x3c332fd8	0.0109367
99	0x3bed0b40	0.007234007
100	0xbb35f8a0	-0.00277666
101	0x3ce788ac	0.028263412
102	0x3c9e6fc0	0.019340396
103	0xbcff5310	-0.031167537
104	0xbbc6edc0	-0.0060708225
105	0x3cac7928	0.021053866
106	0xbbfc85c0	-0.007706374
107	0xbb87fbb0	-0.0041498765
108	0x3d8d2810	0.06892407
109	0xbce42232	-0.027848337
110	0x3cbcd408	0.023050323
111	0xbc796e68	-0.015224077
112	0xbc8b3768	-0.016994193
113	0x3cb8a4a4	0.022539444
114	0x3cff10bc	0.03113591
115	0xbbd8aaa0	-0.006612137
116	0x3d330750	0.043708146
117	0xbda5207f	-0.08062839
118	0x3c08f230	0.008358523
119	0xbd94db31	-0.0726837
120	0x3d88c7bc	0.06678721
121	0x3d5fd8e4	0.054650202
122	0xbcac1488	-0.021005884
123	0xbd09d996	-0.03365477
124	0x3bdf2050	0.006809272
125	0xbd8f8d60	-0.07009387
126	0xbaf3ab00	-0.0018590391
127	0xbd89137b	-0.06693169

fc2.weight f4 [128, 128]
0	0x3da19663	0.07890012
1	0x3d984b9d	0.07436297
2	0xbcca443c	-0.02469074
3	0xbd10d67e	-0.035360806
4	0xbda7f0ec	-0.08200249
5	0xbd7492ae	-0.059710197
6	0x3b8d9ec0	0.004321903
7	0x3d5e88c2	0.05432964
8	0xbd5451aa	-0.051835693
9	0xbca1622c	-0.019700132
10	0xbc3c44c8	-0.011491008
11	0x3d96935d	0.07352326
12	0x3cd55c8c	0.026045106
13	0xba9f5940	-0.0012157336
14	0x3cc9c538	0.024630174
15	0x3db2c273	0.087284945
16	0xbce06df8	-0.027396187
17	0xbd0e69ce	-0.034768872
18	0xbd178d26	-0.036999844
19	0x3dacf891	0.08445848
20	0x3d900e57	0.07033985
21	0xbd52d34b	-0.051471036
22	0x3d921515	0.07132927
23	0x3d28b0ce	0.04118424
24	0x3d76141e	0.06007778
25	0xbd55a2ff	-0.0521574
26	0x3ce712bc	0.028207175
27	0xbd60e85b	-0.05490909
28	0xbcdbec1c	-0.026845984
29	0xbbbe8440	-0.0058141053
30	0xbbc22e60	-0.0059259385
31	0x3ce83448	0.028345242
32	0xbd5e34c3	-0.054249536
33	0x3d8b604b	0.06805476
34	0x3c9189f8	0.017765984
35	0xbd308187	-0.043092277
36	0xbcc40a38	-0.023930654
37	0xbc5750b0	-0.013141796
38	0xbd9fc3ab	-0.078009926
39	0xbd976f50	-0.07394278
40	0xbd9617ac	-0.07328734
41	0xbcde215a	-0.027115513
42	0xbd6c8bb0	-0.057750404
43	0xbd8eb23e	-0.06967591
44	0xbda0316d	-0.07821927
45	0xbda6f134	-0.081514746
46	0x3da65c97	0.08123129
47	0xbd8f61f8	-0.07001108
48	0x3bf8a630	0.0075881705
49	0x3d6d5852	0.057945557
50	0x3d8b7a15	0.06810395
51	0x3d2e4782	0.042548664
52	0x3d9da87b	0.07698151
53	0x3c36c2b0	0.011154816
54	0x3c951200	0.01819706
55	0xbcc55030	-0.024086088
56	0x3d88560f	0.066570394
57	0x3c97819c	0.01849442
58	0xbd34dbb7	-0.04415485
59	0xbd85d46e	-0.06534658
60	0x3cbc0e48	0.022956029
61	0x3daf180f	0.08549511
62	0x3d4a76e6	0.049429797
63	0xbd43b399	-0.0477787
64	0xbdad1289	-0.08450801
65	0x3d6ae98a	0.057351626
66	0x3d77eb8a	0.060527362
67	0x3bd03540	0.006354004
68	0xbd9d4ff2	-0.07681264
69	0xba142f00	-0.00056527555
70	0x3d8dd167	0.06924706
71	0xbd831202	-0.06399919
72	0xbd043977	-0.032281365
73	0xbcb97004	-0.022636421
74	0x3d40528a	0.046953715
75	0x3db30b07	0.08742338
76	0x3cca06d8	0.024661466
77	0xbd4329db	-0.04764734
78	0x3d66034e	0.056155495
79	0xbb945e00	-0.0045278072
80	0x3c415730	0.011800572
81	0xbd840c9f	-0.0644772
82	0x3ce31cd8	0.027723715
83	0xbd11a758	-0.035559982
84	0xbc0fdb18	-0.008780263
85	0x3d39ad46	0.045331262
86	0x3d8180bf	0.063233845
87	0x3d9ed331	0.07755125
88	0x3c541ab8	0.012945823
89	0xbc7e8230	-0.015533969
90	0x3d9d04ad	0.076669075
91	0x3dafb313	0.085790776
92	0x3ce6c66c	0.028170787
93	0xbd639d93	-0.055570196
94	0xbdb490e2	-0.08816697
95	0xbd4a60f6	-0.049408875
96	0xbc8ba52c	-0.017046534
97	0xbda88baf	-0.082297675
98	0xbcbac828	-0.02280052
99	0xbd5e817c	-0.054322705
100	0x3d64caaa	0.055857338
101	0xbc8f3a78	-0.017483935
102	0xbd110c41	-0.035412077
103	0xbcb22a94	-0.021748818
104	0xbc906c24	-0.01762969
105	0x3d34a5de	0.044103496
106	0xbb8ccdf0	-0.0042970106
107	0xbc95fd60	-0.018309295
108	0x3ce5002c	0.027954184
109	0xbd2c3f96	-0.042052828
110	0xbdaf04d1	-0.085458405
111	0x3da8b969	0.08238489
112	0xbd0093eb	-0.031391066
113	0x3d9c4457	0.07630222
114	0xbcc884c0	-0.024477363
115	0xbc432870	-0.0119114965
116	0xbd562183	-0.052278053
117	0xbd3a48b5	-0.045479495
118	0xbd39f750	-0.04540187
119	0xbd4b52b1	-0.049639408
120	0xbacbd0c0	-0.0015549883
121	0xbb7f5160	-0.0038958415
122	0x3d0fdadc	0.03512083
123	0x3d90783f	0.07054185
124	0xbd8e6520	-0.06952882
125	0x3c99ea84	0.018788584
126	0xbd99accd	-0.07503662
127	0x3d313aa6	0.043268822
128	0x3d8a7cbf	0.06762075
129	0xbc8aa44c	-0.016924046
130	0xbcfb7464	-0.030695148
131	0x3d925303	0.071447395
132	0xbdb471d8	-0.088107765
133	0xbd8efab5	-0.06981412
134	0x3d5d9c5a	0.054104187
135	0x3daf2d81	0.08553601
136	0x3cdebaa4	0.027188607
137	0x3d8bcf97	0.06826704
138	0x3d70d66e	0.058798246
139	0xbd844378	-0.06458181
140	0x3d2d7f96	0.042358004
141	0xbd94a6eb	-0.072583996
142	0x3d328c22	0.043590672
143	0x3da6bfa5	0.08142022
144	0x3d2e46fe	0.042548172
145	0xbc060410	-0.0081796795
146	0x3d8c91e9	0.06863768
147	0xbd19cafd	-0.0375471
148	0xbc2cb000	-0.010540009
149	0xbd82fafa	-0.06395526
150	0x3d871893	0.06596484
151	0x3db3afdb	0.08773776
152	0x3baf3d50	0.005347885
153	0x3c65e798	0.014032267
154	0x3c441780	0.011968493
155	0x3d9c255b	0.076243125
156	0xbda25e22	-0.07928111
157	0xbd906558	-0.0705058
158	0x3c8fa7f0	0.017536134
159	0xbc3cc8c0	-0.011522472
160	0x3dabca47	0.08388191
161	0x3d3830d6	0.04496845
162	0xbd2bb550	-0.04192096
163	0xbd1d0201	-0.03833199
164	0xbd60657d	-0.054784287
165	0xbd10d75a	-0.035361625
166	0xbc3c1af0	-0.011481032
167	0xbd2df680	-0.04247141
168	0x3d9b716d	0.075899936
169	0x3d5020b6	0.050812446
170	0x3d4bf8f2	0.04979796
171	0xbd90d775	-0.07072345
172	0xbd3bdc5d	-0.04586445
173	0x3d8a02a3	0.06738784
174	0x3c024c70	0.007952794
175	0xbc368160	-0.011139244
176	0xbdb24c21	-0.08705927
177	0x3cb4ded0	0.022078902
178	0x3d84e26d	0.064885
179	0x3cd964bc	0.026537292
180	0x3d21a4d2	0.039463826
181	0xbb058ae0	-0.0020376965
182	0x3c170a68	0.00921879
183	0x3ce5db28	0.028058603
184	0xbd47ed87	-0.048810508
185	0xbd77ad53	-0.06046803
186	0x3d8eed97	0.069789104
187	0x3c90cd78	0.0176761
188	0x3cdfd22c	0.027321897
189	0x3d85f79b	0.065413676
190	0xbd3b529f	-0.04573309
191	0x3ce6b790	0.028163701
192	0xbd51eab6	-0.05124923
193	0x3d7caa46	0.061685823
194	0x3d6d44d6	0.057926975
195	0x3d032eb0	0.032026947
196	0xbd1aef11	-0.037825648
197	0xbcea5c5a	-0.02860849
198	0x3b0a09e0	0.0021063015
199	0xbd8d0852	-0.068863526
200	0xbb477f20	-0.0030440763
201	0x3d936a91	0.0719806
202	0x3d39304e	0.045212083
203	0xbd8a43cb	-0.06751212
204	0xbd3283ea	-0.043582834
205	0xbcbeba64	-0.023282237
206	0x3cdb43dc	0.026765756
207	0xbc8db6cc	-0.017299078
208	0xbd89cbf9	-0.06728358
209	0xbbc82ae0	-0.0061086267
210	0x3d854bb3	0.06508579
211	0xbc67f490	-0.014157429
212	0xbcc29aa4	-0.023755379
213	0x3d05119e	0.032487504
214	0x3c4ca210	0.012489811
215	0xbd659f58	-0.056060165
216	0xbcc24e2c	-0.023718916
217	0x3d9c2e17	0.076259784
218	0xbd21dbc0	-0.03951621
219	0x3c6ddc10	0.014517799
220	0xbaa19300	-0.0012327135
221	0xbd8164ca	-0.06318052
222	0xbc13c598	-0.009019278
223	0xbcc92360	-0.024553
224	0xbc01a1d0	-0.007912114
225	0xbd8ed53b	-0.06974264
226	0x3c3396d8	0.010961257
227	0x3d40a00a	0.047027625
228	0xbd9ed66c	-0.077557415
229	0xbc8d9f94	-0.017288007
230	0x3d187286	0.037218593
231	0x3d019c94	0.031643465
232	0x3d359b12	0.04433734
233	0xbd7a7660	-0.061148047
234	0x3d8d3c8f	0.06896316
235	0xbaafa600	-0.0013400912
236	0x3d60165e	0.05470883
237	0xbc6eb868	-0.014570333
238	0x3d2312be	0.039812796
239	0xbdb2b9eb	-0.08726867
240	0x3d1e7d4e	0.03869372
241	0xbd4bcacd	-0.049753953
242	0x3d1c8532	0.038212962
243	0xbc7052a8	-0.014668144
244	0x3d6ade0e	0.057340674
245	0x3ca4636c	0.02006694
246	0x3c25eee0	0.010127753
247	0xbcff7dac	-0.031187855
248	0x3d71901a	0.058975317
249	0x3d31c84e	0.043403916
250	0xbcd84994	-0.026402272
251	0x3c886cbc	0.016653411
252	0x3d7f39fa	0.06231115
253	0x3d31b68a	0.043386973
254	0x3d758d3e	0.059949152
255	0xbd879d22	-0.066217676

fc2.bias f4 [128]
0	0x3d7f1526	0.062276028
1	0x3c4a19b8	0.012335233
2	0xbda2b870	-0.07945335
3	0x3c8c729c	0.017144494
4	0xbc8e2444	-0.017351277
5	0x3d98a339	0.07453007
6	0xbd777b1c	-0.06042014
7	0xbb107140	-0.0022040159
8	0xbc0f2f48	-0.0087393
9	0x3cf9e244	0.0305034
10	0xbda615f7	-0.08109658
11	0x3c83eb04	0.016103275
12	0xbcb60eb4	-0.022223808
13	0x3d49fcf2	0.049313493
14	0xbda9431f	-0.082647555
15	0x3d8d9491	0.069131024
16	0x3cc4d978	0.024029478
17	0x3d9532b5	0.07285062
18	0x3cf11794	0.029430188
19	0xbd15db70	-0.036586225
20	0x3c1f1278	0.009708993
21	0xbd7e09c0	-0.062021017
22	0xbd9d6e2d	-0.0768703
23	0x3d689d76	0.05679079
24	0x3da2f861	0.07957531
25	0xbd164b8c	-0.03669314
26	0x3d2024e2	0.039097674
27	0xbcf93b86	-0.03042389
28	0x3d6eed12	0.058331557
29	0xbcbc48a0	-0.022983849
30	0x3d540976	0.051766835
31	0xbd9801fc	-0.074222535
32	0xbdaf78e4	-0.0856798
33	0x3d02c6d0	0.031927884
34	0xbd39a763	-0.045325648
35	0xbd248169	-0.040162478
36	0x3d54e6d6	0.051977955
37	0x3d7711a2	0.06031955
38	0xbd8f3dfe	-0.06994246
39	0xbd97d88f	-0.07414352
40	0x3d6e78a2	0.058220513
41	0xbd77b2dc	-0.060473308
42	0x3d55b722	0.052176602
43	0x3d91293f	0.07087945
44	0x3cae3e94	0.021270074
45	0xbd885e7a	-0.06658645
46	0x3aea5700	0.0017878711
47	0xbd990084	-0.074708015
48	0x3cbda7f8	0.023151383
49	0x3c10e848	0.008844443
50	0x3bf6d530	0.007532738
51	0xbd8391a9	-0.06424267
52	0x3da75f5f	0.081724875
53	0xbd668883	-0.05628253
54	0xbb6afb80	-0.0035855472
55	0x3d997ecb	0.07494887
56	0xbd20c6d1	-0.039252106
57	0x3d91e955	0.07124583
58	0xbda7cd3c	-0.08193442
59	0x3bc53280	0.006017983
60	0x3bb50a30	0.005524896
61	0xbcf58986	-0.029972803
62	0x3d6bfd6e	0.057614736
63	0xbd562d9f	-0.0522896
64	0x3b9e0cc0	0.0048232973
65	0x3d275d32	0.040860362
66	0x3c0b15a8	0.00848905
67	0xbc9a53a0	-0.018838704
68	0x3d9fbca9	0.07799656
69	0x3b06b1c0	0.0020552725
70	0x3da8227f	0.082097046
71	0xbda49adb	-0.08037349
72	0xbd12abbc	-0.03580831
73	0x3d97da97	0.074147396
74	0xbd932446	-0.07184653
75	0x3ca5f5c8	0.0202588
76	0xbd91644d	-0.07099209
77	0x3d1de222	0.038545735
78	0xbd96ee3a	-0.07369657
79	0x3ab15840	0.0013530329
80	0xbd84eef4	-0.06490889
81	0x3b3e8ca0	0.0029075518
82	0xbd912c57	-0.07088535
83	0xbda32257	-0.07965534
84	0x3c80e830	0.015735716
85	0x3d5357ce	0.05159741
86	0x3d706406	0.05868914
87	0x3d252b1a	0.040324308
88	0x3cae3b1c	0.02126842
89	0xbd5ae7e1	-0.053443793
90	0x3d2ba592	0.041905947
91	0xbc0a7630	-0.00845103
92	0x3d34bae6	0.044123553
93	0xbd9ef289	-0.07761104
94	0xbda936ff	-0.08262443
95	0xbd2ea062	-0.04263342
96	0x3c986874	0.018604495
97	0xbda5b097	-0.080903225
98	0x3b5f0e40	0.0034035593
99	0xbd26e9c1	-0.04075027
100	0xbd862680	-0.06550312
101	0x3916de00	0.00014387816
102	0x3cfb8718	0.030704066
103	0xbd5b0c4c	-0.053478524
104	0x3ce5bcb8	0.02804409
105	0x3d391712	0.045188017
106	0xbd494fee	-0.049148493
107	0x3d840ad1	0.064473756
108	0xbda3cda3	-0.079982065
109	0x3d21164e	0.039327912
110	0xbbb05ad0	-0.0053819194
111	0x3bd0a350	0.0063671246
112	0xbd83bd46	-0.064325854
113	0xbcaa05e4	-0.020754762
114	0x3d580696	0.052740656
115	0xbdac548c	-0.084145635
116	0x3d9166bd	0.07099674
117	0xbd8c2100	-0.06842232
118	0xbda79f2b	-0.08184656
119	0xbd54adff	-0.051923748
120	0x3d55d416	0.052204214
121	0x3d877ed9	0.06615991
122	0x3d727bf2	0.059200235
123	0xbd2dfc59	-0.042476986
124	0xbdab006e	-0.08349691
125	0xbc9fcfa0	-0.019508183
126	0xbca324d8	-0.01991503
127	0x3a941900	0.0011298954
