logs/maddpg_checkpoint_ep200.pth (torch, 585614 bytes, 24 tensors)

fc1.weight f4 [128, 147]
00000000: 873e b2bc fc4d 22bd 99d4 1f3d 9855 ab3d
00000010: bcea 813d 51df 523d d6ea 533d 6f22 983d
00000020: 1363 25bd e74d 76bd d70e 88bc 5efb 9fb9
00000030: 3ec8 a73b f677 eabc b59a ba3d 99ab 143d
00000040: 6461 b0bb 2f01 233c 6e3d 3cbd 94cd 99bd
00000050: 8d13 933d a9cc a63d 4a98 793c ba77 0c3d
00000060: dc63 a13d 62b3 3a3c 178d 7bbd 31dc 54bd
00000070: c2e9 74bd d112 3f3d b95e c53d 7061 023d
00000080: 1974 72bd 3088 8abb f2fa 77bc e411 e4bb
00000090: 12f0 3c3d d4fc bbbb a9d2 8b3d 5f7f 7abc
000000a0: 2878 773d 72ae 893d 4013 e13c cd21 4fbc
000000b0: 7bb5 333d 081e a43d 9d7a c53c 8856 3abd
000000c0: 4a47 deba 6064 34bd 88d5 7f3d 0c03 cdbb
000000d0: 9c0a 8ebd 4184 993d 40d7 b23d 9ee6 4bbd
000000e0: 7139 693d 4279 833b 653f f63c 6e8d c73d
000000f0: 5c54 babc 5075 0fbd 1b2e c33d e4b1 183d
00000100: 57f4 a13c 2e12 c7bc e451 77bd 2d42 6e3c
00000110: 8bab 823d c784 e63c 20ab df3b c1d5 213d
00000120: d022 4fbc ecf0 bebb ce4d c73d a77f 52bc
00000130: ad05 9b3d 3d7d af3d 4cf7 893d 4590 923d
00000140: ae46 ba3d bfe2 a73d 7a48 f1bc faa1 ad3d
00000150: 5421 38bc 3298 65bd e9d0 b13c 2ac7 1c3b
00000160: edaf 62bd 284c a13d fe24 5b3d 0691 9f3c
00000170: 4510 07bd c980 25bd 3b31 dbbc dea7 263d
00000180: 1b1e 21bd 6076 833d 0505 933d 2a3f 31bd
00000190: d6a1 22bb 5d45 8a3d f26a 653d 1dee 80ba
000001a0: 95d5 3b3d 140e 923d 592f 93bd 51bb e33c
000001b0: 7e49 0d3d 6974 2dbc 81fb 20bd 7009 4c3d
000001c0: 841c 9d3d 7271 c83d 5268 67bd 3d1e c23d
000001d0: dc2b 5e3c 7409 613d 6bf3 333d 5f89 03bd
000001e0: 156d 6dbd 394d 22bd a123 ba3d 303b 333d
000001f0: 2a20 b13d 7261 d6bc b8b3 bf3d 74d5 973d
00000200: 229b 25bd 9582 1b3c e3b8 34bd 7f24 0abd
00000210: 78ca 1a3d f776 0dbb 930a 4cbd 0624 2dbc
00000220: 1b02 863d 808b 52bd b6e4 96bd f6f2 94bd
00000230: 79e1 873d 02bd 883d ebe5 07bd e9e2 04bd
00000240: a437 aabb 18c2 b6bb 5fa0 cc3c 1f8d 803d
00000250: 6e39 bb3c b9dd 023a 530f c93d 587a 873d
00000260: 0f5e 80bc 3e2e c93c cc76 2b3d 00e7 383d
00000270: 4ee4 4b3c df50 03bd 774b 37bd 85eb 6b3d
00000280: 89dc 943d 49a2 863c d57f 4cbd da86 10bc
00000290: e73c 353d 0ac5 803d 2a30 43bd 863c b93d
000002a0: 0fc5 b83d 8e54 0e3d ce03 8e3d b44f 903c
000002b0: c1cc cb3d 0633 0f3d 4e96 1fbd bdbe 26bd
000002c0: 3167 00bd add8 8eba 1483 fdbc 3115 a63d
000002d0: 7a22 a1bc a0f2 933c fafc babb 9e8c e53b
000002e0: f516 c03d 3588 46bc 9bcc 39bd 0875 52bd
000002f0: abcf 223d 3ff6 e2bc 0bd9 af3c e30d 253d
00000300: 62e9 d2bc 0848 d33d b819 35bd 656d 5abd
00000310: 3a07 103d b6c9 373a e371 d93d eeb9 0cbd
00000320: ec81 42bc 4e71 d0bc d36b 163d 062b 19bd
00000330: 4c1f 30bd a296 c63c 3aef 3a3d 15b7 41bd
00000340: a6c4 263c 6241 97bc af34 a33b 55ef a43c
00000350: 0fde 443d 9c00 4a3c d3f4 b43d 08db b23d
00000360: 31cd d13c 3ac8 ba3c 4ed5 493d 5f53 c63d
00000370: b425 40bd 67e5 ba3d 58a1 663d cf86 513c
00000380: b8e5 ffbc 853b ad3d 338d d3ba dff3 e63d
00000390: f1a1 d9bc f39e a23d 3841 893d ba56 60bc
000003a0: b9d4 adbc f2ba 823c 9d44 793d 1336 82bd
000003b0: 5b97 42bd 6565 743d 2960 7bbd 12b7 403c
000003c0: f2c0 a83d 37af a03d 7a38 7c3d f3c9 f03c
000003d0: e582 0ebd 8b72 973c 78b4 ce3c 6c4a 31bd
000003e0: d8e9 943d ef3a ba3d 8d10 e9ba 889d eebc
000003f0: 3913 2dbd ea1d 23bc e985 fabc ae29 d03d
-0.021758331 -0.039625153 0.03902111 0.08365935 0.063436 0.051482502 0.05173763 0.07428443
-0.040377688 -0.060132887 -0.016608639 -0.00030514126 0.0051203063 -0.028621655 0.09111539 0.03629646
-0.0053827036 0.009949013 -0.04595702 -0.07509914 0.071814634 0.081445046 0.015234062 0.034293868
0.07880375 0.011395307 -0.06141385 -0.051967803 -0.05979324 0.046648804 0.096372075 0.031831205
-0.05919275 -0.0042276606 -0.015135514 -0.0069601405 0.046127386 -0.0057369266 0.068272896 -0.015289157
0.060417324 0.06722726 0.027475 -0.012642336 0.043874245 0.080135405 0.024106318 -0.04549268
-0.0016958502 -0.044041038 0.0624595 -0.0062564667 -0.06935617 0.074959286 0.08732462 -0.04978048
0.056939546 0.004012258 0.030059526 0.097437724 -0.022745304 -0.035023987 0.09530278 0.037279025
0.01976983 -0.024300661 -0.06038083 0.014542145 0.063803755 0.028139485 0.0068258196 0.039510492
-0.012642577 -0.00582706 0.09731637 -0.0128478175 0.07569442 0.08568809 0.06736621 0.071564235
0.09095512 0.08197545 -0.029453505 0.0847816 -0.011238415 -0.056053348 0.021706061 0.0023922422
-0.055343557 0.07875854 0.053502075 0.019478332 -0.0329745 -0.040406022 -0.026756873 0.040687434
-0.03933535 0.064190626 0.07178692 -0.04327313 -0.00248157 0.06751511 0.056010194 -0.0009836588
0.045857985 0.071315914 -0.07186765 0.02779928 0.034493916 -0.010586836 -0.039302353 0.049813688
0.076714545 0.09787263 -0.056495972 0.09478424 0.013560262 0.054940656 0.043933313 -0.03211343
-0.057965357 -0.039624427 0.09088827 0.043757617 0.08648713 -0.026169512 0.093604505 0.0741376
-0.04043115 0.009491582 -0.044121634 -0.03372621 0.037790745 -0.00215858 -0.04981477 -0.010567671
0.0654337 -0.05140257 -0.07367842 -0.072729036 0.06634802 0.066766754 -0.03317825 -0.03244296
-0.005194621 -0.005577337 0.024978815 0.06276917 0.022854533 0.00049921457 0.09817376 0.06615132
-0.01566985 0.024558183 0.04186134 0.045142174 0.012444569 -0.032059547 -0.044749703 0.057597656
0.07268626 0.016434805 -0.049926598 -0.008821214 0.044247534 0.06287582 -0.047653355 0.09044747
0.09021961 0.034748606 0.069343194 0.01761613 0.09951163 0.03496077 -0.0389617 -0.040709246
-0.03134841 -0.0010898315 -0.030946292 0.08109511 -0.01966976 0.018060029 -0.0057064267 0.0070052883
0.09379379 -0.012117435 -0.045361143 -0.05138114 0.03974883 -0.02770531 0.021465799 0.040296447
-0.025746051 0.10316473 -0.04421398 -0.053326983 0.03516314 0.0007010953 0.10617425 -0.034357004
-0.011871796 -0.025444653 0.036723923 -0.037394546 -0.042998597 0.02424175 0.0456383 -0.04729374
0.010178721 -0.018463794 0.0049806456 0.020133654 0.048063334 0.012329247 0.08835759 0.08733183
0.025610538 0.022800554 0.04927569 0.096838705 -0.046910957 0.09125786 0.056306213 0.0127884885
-0.031237468 0.08458618 -0.0016140103 0.112769835 -0.026566477 0.079404734 0.067018926 -0.013692552
-0.021219598 0.015958283 0.06085645 -0.0635797 -0.047507625 0.05966701 -0.061371002 0.011762397
0.082399264 0.078459196 0.061577298 0.029393172 -0.0347928 0.018487236 0.025232539 -0.043283865
0.07271165 0.09093272 -0.0017781422 -0.029127851 -0.04225466 -0.009955863 -0.030581431 0.101642

fc1.bias f4 [128]
00000000: a511 f63c 4862 afbc 4f39 483d 42e2 1e3d
00000010: 5212 bf3d 61d8 34bc 11d7 8a3d 1bae 98bc
00000020: a729 663d 009c 403d ac31 273d 15ff 0cbd
00000030: a452 28bd f24e 03bc f202 a1bc ec78 00bd
00000040: f01f c1bc 399c a33d 1be7 203d a957 e1bc
00000050: 546c f3ba 514f f13c cf6c e03d 304f 01bd
00000060: 2718 ec3c 89f0 b53d ab0f 0f3d c03b e23d
00000070: 70c4 c9bc 257d b6bb e4d3 a2bc 50ea 583c
00000080: fa85 0a3b 64ec 23bd addd e8bc ce4d ac3d
00000090: 37df 5b3d 75b0 45bd e809 c9bc 64f8 45bd
000000a0: 0c6d c03c 9d44 26bd b076 e03d 7e74 11bb
000000b0: e51e 3a3d 8cbc 433c 8748 0a3d 0442 a13d
000000c0: 4e8f d03c 750e 3a3d 1325 0dbd fbde 2ebd
000000d0: 327e 92ba 7feb 8d3d 68ed 123d 00bf 673c
000000e0: ce54 133d cef7 d73d e187 8b3d 72c0 8f3c
000000f0: 2308 a83d 65d4 6e3c 2a6f d3bc a189 67bc
00000100: 5ea6 75bd a54f 8d3c aa0f a1bd 90f0 47bd
00000110: cc51 873d 5b4b 5c3c 20bc 07bd c278 3fbd
00000120: 94c9 7f3d 77d7 aa3d 7f35 f93c 442b 80bd
00000130: b249 c03c 2a52 6c3d f830 303c 0cb9 58bd
00000140: c290 97bc 4c27 873d 47a8 0d3d 88d6 b93c
00000150: 51ef b33d 52ff 5dbd 51c4 843c aaa8 553d
00000160: f719 a53c a006 7f3d d118 0ebc e43e 48bd
00000170: cc48 ce3c 4c7a 2e3d d428 cd3d a448 a93d
00000180: a598 84bc 1bb4 1a3c 5bc5 953d d856 e83c
00000190: 332e 9abc 6de2 583d b758 bf3d 80ee 9d3d
000001a0: 8ae5 233d 3b05 cabc 5947 bf3d c706 aa3d
000001b0: 78c8 493d 7efa 443c c0d2 293c af0d 843d
000001c0: c298 6abc 2e07 1b3d 40c3 c2bb 1477 a9bc
000001d0: fb26 613d ec69 453d fa03 083c 6c86 003d
000001e0: a90b 8b3d 764a b63d 87f2 193d 5843 803d
000001f0: 65d2 2d3d 7122 f73b e3dc ab3d e87c d4bc
0.03003771 -0.021409169 0.04888278 0.038789995 0.09329666 -0.011037917 0.06779302 -0.018637707
0.056192067 0.047023773 0.040818855 -0.034422953 -0.041094437 -0.0080144275 -0.019654725 -0.03136532
-0.0235748 0.079887815 0.0392829 -0.02750762 -0.0018571713 0.029456766 0.109582536 -0.03156966
0.02882011 0.08883769 0.03492705 0.11046553 -0.024629802 -0.0055691176 -0.019876428 0.013239458
0.0021136985 -0.04002036 -0.028426016 0.084132776 0.05367967 -0.048263986 -0.024540856 -0.048332587
0.023489498 -0.04059278 0.10960138 -0.002219468 0.04543962 0.011946809 0.033760574 0.078739196
0.025458958 0.045423944 -0.034459185 -0.04269312 -0.0011176525 0.06929683 0.03587094 0.014144659
0.035969548 0.10545312 0.06813026 0.01754782 0.08204677 0.014577006 -0.025809843 -0.014131934
-0.059973113 0.017249892 -0.07864316 -0.048813403 0.066073984 0.0134457005 -0.033138394 -0.046746023
0.0624481 0.08341878 0.030421017 -0.06258252 0.02347264 0.057695545 0.010753863 -0.05291085
-0.018501643 0.06599292 0.03458431 0.022685304 0.0878588 -0.05419857 0.016206892 0.052162804
0.020153983 0.062262177 -0.008672909 -0.048888102 0.025181197 0.0425971 0.10017553 0.08265808
-0.016186068 0.009442355 0.07313033 0.028361723 -0.018820858 0.05295031 0.09343093 0.07711506
0.040013827 -0.024660697 0.0933978 0.08302074 0.049263448 0.012022613 0.010365188 0.064479224
-0.014318647 0.037848644 -0.005943686 -0.020686664 0.054968815 0.048196718 0.008301729 0.031378195
0.067893334 0.08900921 0.037584808 0.06262845 0.042436976 0.0075419475 0.0839174 -0.025938466

fc2.weight f4 [128, 128]
00000000: 8d33 523d 2810 e3bc 690a a8bd 126d ccbc
00000010: b062 343d 2c98 a9bc 045a 953c 79d4 ba3c
00000020: fe57 1f3d e930 6d3c 3d36 a2bc 216e b53c
00000030: 2653 063c 2f3e c7bd 56be 4fbd 9b78 91bd
00000040: 06af 74bd 954d d0bd 6469 6a3d c351 633d
00000050: 0bad 543b 73de 513d 391c 823d 6db6 483d
00000060: a559 80bc 959d b2bd eecb 52bd e06f c2bd
00000070: 58b1 c4bc b581 adbc 5151 893d 5ac6 bdbd
00000080: 3f6a 6e3d 8264 10bd 1050 a4bd dc16 203d
00000090: a434 bbbc 5292 76bd 3fc0 35bd a655 c5bd
000000a0: 19be 3a3c f392 0e3d 30d2 48bd d182 9cbd
000000b0: 6381 52bd 1859 7a3d 2700 b0bd 965e 6c3d
000000c0: 19b8 15bb 438f a0bc e83f 06bd 75a9 503d
000000d0: 79e7 973b c129 ccbd 033d 9bbd c8d4 a4bc
000000e0: bbcc 5a3c f68f 913d 66f6 ebbc 7e82 a8bd
000000f0: 0ec7 913d 608f 8a3d 9ce5 c0bc 483f 43bd
00000100: 3364 96bd aeda 453d 86ac 91bb 771f c8bd
00000110: 9e75 a3bd 7627 8e3d fe89 4cbd 82a8 1fbd
00000120: 2970 003c 2384 debc 81f0 de3b 097e 753d
00000130: dcc6 8ebd b5c8 8f3d 0130 52bc e0ea 2ebd
00000140: c3ba c3bd 2944 2abc 1082 d2bd a21e 40bc
00000150: 3423 343d 8ba1 193c f3e7 0ebc bfe9 603c
00000160: d57f 3dbc 6858 c43a 2030 22bc 4377 15bd
00000170: 5b69 4ebc 1e7a 5fbb 21c7 9e3b ad8d 383d
00000180: 0510 1c3d bdab 78bd ba90 5abd d758 22bd
00000190: 1470 65bd a68e 263d 414a b5bd 1636 433d
000001a0: 92eb f23c 33be 903d 3c43 453d 5bf4 aebd
000001b0: ee2b c8bb 801f 703d 31bc cdbd 4056 73bd
000001c0: 0849 2a3d eb49 923d b915 573d e2c2 8bbd
000001d0: 662b 5bbd 0d7a 0dbd 08bb d3bd 329b 49bd
000001e0: 7e16 863c 1c76 1cbc f9e6 cebd 6f2f 0e3b
000001f0: 8fa3 1ebd 4694 573c 749c 5dbd d089 7cbd
00000200: ff7f 013d a05f 04bd 9dcf a63c 90f7 7bbd
00000210: 4462 b5bc 1d03 8cbd af05 5bbd 8736 1a3d
00000220: 834b 303d e289 9fbd ca63 be3b bfeb 093d
00000230: 7b0b 4b3d 5fa9 80bd f8de 46bd 991a 82bd
00000240: 5a1d 3f3d a8cb 69bd b227 a3bd f177 133d
00000250: 94e3 2a3d 2e49 523d 010a 51bc c6f2 6b3d
00000260: 528b 6abd 5844 0ebd c3f7 55bd 1193 8b3d
00000270: 53f0 9e3d 2284 17bd d406 59bb 5780 afbb
00000280: 379b 863c c1ae 25bc 455a 873d 8416 80bc
00000290: fac6 a0bb dc35 edbc 2142 c13c 241b 90bc
000002a0: 72e4 75bd b493 adbd 213e 943d 960b b2bc
000002b0: 1499 913d ae08 0bbd 33bb 8c3d b17b 3b3d
000002c0: 0bbe 83bd 9d21 723d 0505 d9bc f08d 02bd
000002d0: d5b6 373c 3d94 34bd f2c8 85bc 26bc 3bbd
000002e0: 5cbc a5bc 5bd5 783d a597 87bc e802 e23c
000002f0: 978e a13d 36ef 34bd 0456 4bbc 1140 dd3c
00000300: 4436 8fbd b07c c03c 3d12 293d b5e8 bf3c
00000310: 0e00 623d d96f 54bd fd2a 5d3c 416f 59bd
00000320: 22ad 953c d9c5 a53d 6134 08bc 4cad 1dbd
00000330: dea0 2fbd 0b0e 06bd cc3e 843d 3d58 d1bc
00000340: b1a0 12bd d67b a7bc 0853 80bd b7f8 6bbd
00000350: 2c74 bc3b 1f1b 99bd 5c62 a1bd 86e5 4b3d
00000360: 9829 9b3d d2dd 05bd 5ad9 19bd 556d d03c
00000370: ab50 093c c1ab 733d 1f5d a23d 7e1e 2cbd
00000380: 3481 b53b 1f59 74bd 1321 a7bd 2964 333d
00000390: 1755 78bd 82a4 9cbd d60e 6b3d ac0d ac3b
000003a0: a266 3fbd 91ba 913d da60 9dbd 9db9 a9bd
000003b0: 9c54 bcbd dd1b b9bc de2e e7bb 3036 c8bc
000003c0: 665d a93b 0b8c 16bc 2223 bb3c 4e5d 83bd
000003d0: c2a1 6fbc d648 6abd 24d4 383d 391d 113d
000003e0: 5070 bcbc b74d d4bc e01d 80bc fb3d 613d
000003f0: 67f1 5dbd 9057 953d 605d 983d b02d 6c3d
0.051318694 -0.027717665 -0.082051106 -0.024954353 0.04403943 -0.020702444 0.0182314 0.022806393
0.038902275 0.014476993 -0.019801253 0.02214724 0.008198535 -0.097286575 -0.050718628 -0.07103082
-0.059737228 -0.101710476 0.057229415 0.055497896 0.0032451774 0.051237535 0.06353039 0.0490021
-0.015667746 -0.08721463 -0.051464014 -0.09493995 -0.024010345 -0.021180013 0.06704963 -0.09266348
0.058206793 -0.0352521 -0.08023083 0.0390843 -0.02285225 -0.060198136 -0.044372793 -0.09635477
0.011397862 0.03480811 -0.049028575 -0.07642139 -0.051392924 0.061120123 -0.08593779 0.05770739
-0.0022845326 -0.019599563 -0.03277579 0.050942857 0.004635748 -0.099689014 -0.075799964 -0.020120993
0.013354476 0.071075365 -0.028804015 -0.082280144 0.07118045 0.06765628 -0.023546986 -0.04766777
-0.0734333 0.048304252 -0.004445615 -0.097716264 -0.07981418 0.0694112 -0.049936287 -0.03897906
0.007839241 -0.027162617 0.0068035726 0.05993465 -0.06971523 0.07020704 -0.012828828 -0.042704463
-0.09557106 -0.010392227 -0.10278714 -0.011726053 0.043978885 0.009376894 -0.008722293 0.013727604
-0.011566122 0.001497996 -0.009899169 -0.03649069 -0.012598361 -0.0034099887 0.0048455154 0.045056988
0.038101215 -0.060710657 -0.05336068 -0.039635506 -0.05601509 0.040663384 -0.088520534 0.047659002
0.029653344 0.070675276 0.048159823 -0.08542701 -0.0061087525 0.05862379 -0.1004566 -0.059408426
0.041573554 0.07143005 0.05251095 -0.0682428 -0.053508185 -0.034540225 -0.10338408 -0.04922027
0.016368147 -0.009549644 -0.10102648 0.0021695753 -0.0387302 0.01315791 -0.054104283 -0.061654866
0.031616207 -0.032317758 0.02036267 -0.06151539 -0.022141583 -0.06836531 -0.053472217 0.037649658
0.043040764 -0.07789971 0.0058102356 0.03367209 0.049571496 -0.06282305 -0.048552483 -0.06352729
0.04665885 -0.057078987 -0.07966556 0.036003057 0.04172094 0.05133932 -0.012758733 0.057604574
-0.057261772 -0.034733146 -0.052238237 0.0681516 0.07760682 -0.036991246 -0.0033115642 -0.0053558755
0.016431434 -0.010112465 0.066090144 -0.015635736 -0.0049065324 -0.028956346 0.023591103 -0.017591067
-0.060032316 -0.08475438 0.07238413 -0.02173404 0.071092755 -0.033943824 0.06871643 0.04577226
-0.06432732 0.059114087 -0.026491651 -0.031873643 0.011213024 -0.044086684 -0.01633117 -0.04583373
-0.020231418 0.060750347 -0.016551802 0.027589276 0.07888525 -0.04417344 -0.012410644 0.027008088
-0.06992772 0.023496956 0.04127716 0.023426393 0.055175833 -0.05186448 0.013499019 -0.053084616
0.018271033 0.08094377 -0.008313269 -0.038495347 -0.042878024 -0.032728236 0.0645729 -0.02555477
-0.03579778 -0.020444792 -0.06265837 -0.05761024 0.0057511535 -0.07475876 -0.07880089 0.049779437
0.07576293 -0.032682247 -0.0375608 0.025442759 0.008381049 0.05948997 0.07927918 -0.042021267
0.005539084 -0.059655305 -0.08160605 0.043796692 -0.060628023 -0.07648565 0.057387196 0.0052506533
-0.046728738 0.07115663 -0.076844886 -0.08287356 -0.091958255 -0.022596294 -0.0070551476 -0.024439901
0.0051686047 -0.009188662 0.022843901 -0.06414281 -0.014625968 -0.057198368 0.045124188 0.03542826
-0.023002774 -0.025915964 -0.015639246 0.05499075 -0.054185297 0.07292092 0.07439685 0.05766076

fc2.bias f4 [128]
00000000: 92e2 0a3d 6913 50bd bb4b 11bb 050c 523d
00000010: a3e5 a1bd d119 8b3d 65fb 6bbc c57d 29bd
00000020: db53 803d 3091 823d 2974 c93d a184 723d
00000030: c76e 86bd 1f71 ee3c 21ae 3539 0bc9 3b3c
00000040: a196 263d 5d56 813d 510f f8bb 8a0b 2cbc
00000050: 6c54 8cbd 641b 4f3d e226 19bd cb83 2ebd
00000060: 9e65 7e3d dbf4 01bd 8b3c 343d a77f febb
00000070: 3cc2 1abd da00 bc3c b73c 9fbd 078f db3c
00000080: f81b 983c 41a7 ce3d f6c0 b2bd 7e89 853d
00000090: b295 d03d 29e7 173d 741e 0d3d 9e9a 22bd
000000a0: 2872 80bd 3a6d aabd cb1a b6bd e798 53bd
000000b0: 8cb3 653d b4db 2abd 2006 8c3b ae86 a83c
000000c0: ac17 9b3d 6c61 59bd 5080 58bb 921f e53c
000000d0: d15e a4bb 64cb 0dbd 7e66 58bd a81f 543d
000000e0: 0a01 613d 6f63 2ebd 7b67 95ba 3979 47bd
000000f0: 865d a1bd 47ec 0c3a c44d 2cbd 609b 6e3d
00000100: 3402 d2bc 72ef 55bd d711 aabd b6b1 4d3d
00000110: 6c88 713d 9967 863d 5946 76bc 838b 5d3d
00000120: 91f6 d43d a416 84bb be5f 21bd b043 c5bc
00000130: 9103 cbbc e847 5d3d 561b a83c 391b 1a3d
00000140: dc18 46bd c577 1c3d 89fd dd3d 308a ab3d
00000150: 909d b43d 763a 003d 8264 bf3c 3974 00bc
00000160: cb27 14bc 3d0c a33d 3b22 ba3d cd89 07bd
00000170: 6964 903d e2f5 67bd 60fa 0ebd 90b4 a53c
00000180: e385 92bd c685 b6bb 3de0 37bd 1ab9 a0bd
00000190: fab7 8e3d d6d9 8ebd af7a c33d 61a5 403d
000001a0: e63e 64bd c0c0 e43d 3c26 0bbd 1b6f 1abd
000001b0: daef 973d a08f 4e3a f2f8 953d 99ce 82bc
000001c0: cd32 833d b8ad f8bc c685 b43d 794e 6abd
000001d0: d90c 293d 9ebe d03c a442 e23d e346 72bc
000001e0: 69c1 453d fe2e 983d 6f57 e0bc cbe8 a5bc
000001f0: a495 943d 22ff 6dbd dc57 e53d 9a05 febb
0.03390748 -0.05079976 -0.0022170383 0.051280994 -0.07905128 0.067920335 -0.014403199 -0.04137971
0.06265994 0.063753486 0.09836609 0.059208516 -0.06564098 0.029106675 0.00017326373 0.011461507
0.040670995 0.063153006 -0.0075701852 -0.010500798 -0.0685204 0.05056323 -0.037390597 -0.042606156
0.06210863 -0.031727653 0.04400305 -0.007766682 -0.037782893 0.022949625 -0.07775252 0.0268016
0.018568024 0.10090495 -0.08728211 0.06520365 0.10184802 0.037085686 0.03445287 -0.039698236
-0.062717736 -0.083216146 -0.08891829 -0.05165949 0.056079432 -0.04171343 0.004273191 0.020572033
0.075728744 -0.053071424 -0.0033035465 0.027969155 -0.005016186 -0.034617797 -0.05283212 0.051788002
0.05493263 -0.042575296 -0.0011398637 -0.04869959 -0.07879166 0.0005375784 -0.04206635 0.058253646
-0.025635816 -0.052230306 -0.08304184 0.050218306 0.058967993 0.065627284 -0.015031421 0.054088127
0.10398591 -0.0040310193 -0.039397947 -0.024080127 -0.024781974 0.054023653 0.020520847 0.037623618
-0.04836355 0.03820016 0.108393736 0.083759665 0.08819115 0.031305753 0.023363356 -0.00784021
-0.0090426905 0.07961319 0.0908856 -0.0330904 0.07050402 -0.056630976 -0.034906745 0.0202277
-0.07154443 -0.0055701463 -0.044891585 -0.07847805 0.069686845 -0.06975143 0.095448844 0.047032718
-0.055724047 0.11169577 -0.03397201 -0.037703615 0.07418795 0.0007879678 0.07322873 -0.015967654
0.06406174 -0.030356273 0.08814578 -0.057203744 0.041272018 0.025481518 0.11047867 -0.0147874085
0.048280153 0.07430838 -0.027385442 -0.020252606 0.07255104 -0.05810464 0.111983985 -0.0077521326

fc3.weight f4 [5, 128]
00000000: 692e 643d d48f b1bb 5ddf c6bd 2ac9 88bd
00000010: 913c 0fbd ec8d bfbc 2e78 3abd 4eb9 c6bc
00000020: 4f48 423d a953 b9bd 81e1 0cbc b31f 2a3d
00000030: 4665 a43d b2fc cc3c 3dfa d9bd d757 9cbc
00000040: 59eb afbd 9d9a 413d 322e 963d 2b00 453d
00000050: 0f78 503d 9b3a fe3c 69ad a9bd 1622 abbd
00000060: fe9c c8bd 40ea 83bc f0d4 db3b a5ff cbbd
00000070: bd9b f1bd 87ea 773d fcf4 b6bd 9a39 dfbd
00000080: df2c b83c 9c9e b4bd 70ee c03c 73e1 a93c
00000090: 4582 6d3d 1a4e 2c3d 979c 79bc f557 86bd
000000a0: d54e de3c cec8 2dbd e5e5 983d 47a5 0cbc
000000b0: aa92 98bc 4c46 22bd 8f23 8f3d 8c8a a33c
000000c0: 59a5 423d faa1 543b 1672 f1bd d6c1 87bd
000000d0: cc85 f9bc 2d94 ecbd b234 ebbd ed67 89bd
000000e0: 6df1 d23c 5804 79bc c0f9 963d e37f a2bd
000000f0: aa52 863d 3a08 8c3d 2b8e 59bd 8fa8 27bb
00000100: d9ec 7bbd e8b2 a8bd dca9 233d 89a3 053d
00000110: a1be 823d 0cac 853c 1977 93bd 5a08 163d
00000120: fafd b0bd ec8d 3abd d13a b5bd 2972 b7bd
00000130: 309a a23d 887e 01bd 8393 363a 47f9 2c3d
00000140: 5834 3b3d a67d 3b3d 2dd6 763d 5cba ca3c
00000150: edab ac3c 743d 34bd 0f73 403c 81a4 1ebc
00000160: 5936 81bd c2dd 813b 19c1 02bd 1882 e0bc
00000170: 5987 f03b 2b7e dcbd 2994 273d 0048 043d
00000180: ec02 a83d 5797 d8bd 42f0 2c3d 3e7b 56bd
00000190: 8832 8a3c 89ba 543c e795 2fbd eb87 98bd
000001a0: 8cc0 b9bd a191 00bb 9a5c 193d 1620 613d
000001b0: 141f cbba 4286 8e3c 4fb5 19bd f581 313d
000001c0: 131c d3bd 517a 3e3d 9c39 783d cf18 bbbd
000001d0: 4690 023c e985 1dbd 38ce 35bd d21d 203d
000001e0: d5af e73c e16b 1c3d 7ceb 43ba 0bf9 a5bd
000001f0: 977a 2e3d 8f05 5a3d 45e6 0dbd 211f c9bd
00000200: 2719 88bd 98c8 32bd 2672 693d 245f 843d
00000210: 09a2 01bd b00d ab3d 1c21 66ba d366 16bd
00000220: dbdc 913c 05e1 7d3c 6a9b ac3d 86bc 79bd
00000230: f441 93bc 3941 12bd fbe0 a33d 22c9 3ebd
00000240: 017e e0bc d6ca d1bc 098d 94bd dc1c 903c
00000250: ba9c 5a3b 011a 3a3d 2672 29bd 997f f13c
00000260: 6af8 a03c 9014 84bd c0b7 b63c 73b1 e53c
00000270: 831e 4e3d de3a 75bd 8c62 073d 43e1 943d
00000280: 5ccc 55bd f9ca 033d 4870 80bc 4b5f f53c
00000290: 3b81 e43d c330 cf3d 6233 5ebd f1c1 57bc
000002a0: 49de 39bd fe25 383d 659a 133c 2cde 5d3c
000002b0: fc23 61bd b56f 36bc 5897 be3d 29a5 d93d
000002c0: 8b19 9d3d 7b49 40bd 8e39 56bd be04 ab3d
000002d0: baad 793d f1ac 01bd 3cf6 cc3d 87aa 5ebd
000002e0: 18ef 4c3d 4268 1e3d 48f4 703d 2430 9fbd
000002f0: 6b58 56bc 5dc8 61bd d58b 953d 3504 dc3d
00000300: 5987 91bd f6f9 9bbd e808 993c ecf4 46bc
00000310: f96b 4ebd 8649 1bbb 8cd4 3f3d f72f 9a3d
00000320: 8a98 d33d 3192 473d 8e17 cebc e48d 403d
00000330: f256 023c 996f bc3c 6fbc 87bd 2fe9 d93d
00000340: 446c 42bd e505 593c 6532 9d3d 057a e13c
00000350: d483 233d f096 31bc 3176 ca3b e974 9fbd
00000360: a02f e63d ee1c d43d 4543 bcbc a00c c83d
00000370: a580 baba f2ba 22bd 3925 1bbd c77f a1bd
00000380: 0061 5d3d 1a67 0dbd 9144 a23c b13e 8cbd
00000390: d330 bdbc e24d b73c 696d 883d 33f7 3dbc
000003a0: 2a26 f0bc bc4e 9d3d 0e12 71bd 9a69 bf3d
000003b0: 085c e73d c1e1 3c3d cb87 153d b12b 06bb
000003c0: 7444 e63d e12a c639 7849 e53c a2f2 c13b
000003d0: ac16 3b3d 1430 a63d 1e66 963c e870 f9bb
000003e0: 638b e3bc dc95 583d 8ecc 893d 032d 483c
000003f0: 8e2d b4bc 8634 393c caac ebbc e5e9 e73c
0.055708323 -0.005418757 -0.09710572 -0.06678994 -0.03496987 -0.023383103 -0.04552477 -0.024258282
0.04743224 -0.0904916 -0.008598686 0.041534137 0.08027129 0.025022838 -0.10643432 -0.019084854
-0.08589811 0.04726659 0.0733303 0.048095863 0.050895747 0.031033805 -0.082850285 -0.08356111
-0.09795569 -0.01610291 0.0067087337 -0.0996087 -0.11797283 0.060526397 -0.08933446 -0.108996585
0.022482334 -0.08819315 0.023551196 0.020737385 0.057985563 0.04206667 -0.015235088 -0.06559745
0.0271372 -0.04242783 0.07465724 -0.008584327 -0.018624622 -0.03961782 0.06989204 0.019963525
0.04752097 0.0032445178 -0.11789338 -0.06628768 -0.030459307 -0.115517 -0.1148466 -0.067092754
0.025749886 -0.01519879 0.07371855 -0.07934549 0.06558736 0.068375066 -0.053114098 -0.0025582646
-0.061505172 -0.08237249 0.039956912 0.032626662 0.06384016 0.01631739 -0.072004505 0.03662906
-0.08642192 -0.045545503 -0.08849109 -0.08957321 0.07939565 -0.03161481 0.000696473 0.042229917
0.045704216 0.045774125 0.060262848 0.024747066 0.021078074 -0.04400392 0.011746182 -0.0096827755
-0.06309194 0.003963203 -0.031922434 -0.027405784 0.0073403534 -0.10766252 0.04091278 0.032295227
0.08203682 -0.10575741 0.042221315 -0.052363627 0.016869798 0.012983927 -0.042867567 -0.07447799
-0.090699285 -0.0019618052 0.037441827 0.05496224 -0.0015496933 0.017398003 -0.037526425 0.043336827
-0.10308089 0.04650337 0.060601816 -0.09135591 0.007968968 -0.038457785 -0.04438612 0.03909094
0.028282085 0.03818882 -0.00074737496 -0.08104142 0.04259738 0.053227957 -0.03464343 -0.098203905
-0.066454224 -0.043648332 0.056993626 0.06463459 -0.03164867 0.0835222 -0.00087787374 -0.036719155
0.017805507 0.015495543 0.084280804 -0.060970806 -0.017975785 -0.035706732 0.08001896 -0.046578534
-0.027403833 -0.025609415 -0.07253463 0.017591886 0.0033357576 0.045434956 -0.041368626 0.029479789
0.019649703 -0.064492345 0.022304416 0.028038716 0.050322067 -0.059870593 0.033052966 0.07269528
-0.052196845 0.03217599 -0.01567854 0.029952666 0.11157461 0.101167224 -0.05424822 -0.013168798
-0.045378003 0.044958107 0.0090089785 0.013541739 -0.054965958 -0.0111350315 0.0930621 0.10627205
0.076708876 -0.046945076 -0.052300982 0.08350514 0.060956694 -0.03165907 0.10007903 -0.054361846
0.050032705 0.038673647 0.058826715 -0.07772854 -0.013082604 -0.055122722 0.073020615 0.1074299
-0.07105894 -0.07616036 0.018681005 -0.012143355 -0.05039594 -0.0023694946 0.04683356 0.0752868
0.10331829 0.048723403 -0.025157716 0.047010317 0.0079553 0.023002433 -0.06627738 0.10640179
-0.04746653 0.013246034 0.076756276 0.027524004 0.039920643 -0.010839209 0.0061786403 -0.07785971
0.112395525 0.103570804 -0.022981295 0.09768033 -0.0014229013 -0.039729066 -0.037877295 -0.078857
0.054047585 -0.034522153 0.019808086 -0.06847895 -0.02309457 0.022376005 0.06661493 -0.011594581
-0.029315073 0.07681033 -0.05885511 0.09346314 0.112968504 0.046113733 0.036506455 -0.002047282
0.11243525 0.0003779745 0.027989134 0.0059188167 0.04567592 0.08114639 0.01835924 -0.0076123364
-0.027776426 0.052877292 0.06728469 0.012217763 -0.021994378 0.0113040265 -0.028768916 0.028309772

fc3.bias f4 [5]
00000000: ddd0 29bd ef58 b63d 82fe 153d 30d0 6c3d
00000010: 7900 cfbc
-0.041458953 0.089036815 0.03661967 0.05781573 -0.02526878

fc1.weight f4 [128, 147]
00000000: 2eb0 73bd b940 a0bc 3ed7 933c c011 b53d
00000010: a80c 483d 9836 5e3c 51f0 b3bb 3b2e 1cbd
00000020: 6dea 553d 96a9 803d c87e b1bc 96cb 08bd
00000030: 92f0 c13c e6b8 583d f49f 3d3d 5485 8abd
00000040: e361 69bd 2ba3 843d 729a 943d e800 843d
00000050: 76e3 2cbd b1fa 723c f192 18bb 038a 143d
00000060: b44b 08bd 3eec ff3c c48d 603d 12e6 813b
00000070: 8bb0 5f3d 5722 953d b238 983d 7060 f93c
00000080: 9d3c ba3d daca 093c 4509 2dbd e141 803d
00000090: 89ad 94bd bb67 f8bc edb1 7ebd 05c0 24bd
000000a0: 9d86 45bd cfc4 14bc 266e ae3d 491d 5ebd
000000b0: f024 25bd 7901 803d e0ad ae3d 44a0 8ebc
000000c0: 0025 813d edb6 b9bc 0af9 05bc 9f4f 6fbd
000000d0: 7637 86bc 10b2 a0bc 2c2a 2bbd 3d9b c13d
000000e0: 6f88 083c c2e2 a23d 95ba 85bd f68c bfbc
000000f0: 70e9 ae3c a1f9 723d ee3d 1a3d 399b 97bd
00000100: 6a1a 273b 79b7 fabc 3089 f9bc f84d ab3d
00000110: 160b 8cbd 728f bc3d a2c1 96bd f8c2 46bd
00000120: 2e56 163c 46c2 92bc a3a1 1cbd 4ecd e1bc
00000130: d06e a93a 1206 643d ae3b 7b3d 25d5 be3c
00000140: 8358 9f3d f613 0dbd 07eb 82bd 74f6 9c3d
00000150: 1e7b 353c 209c 0abd 1dc7 8e3c b757 a13d
00000160: 30bf 5a3d e3ef 893d e960 bbbc e152 78bd
00000170: 4831 2ebd 0d4e a73d b68c 5abd 7709 7ebd
00000180: 3538 91bd a25e 273d 2fae 4ebd 3858 1c3c
00000190: a5ba b43d 041f 0d3c 4c86 00bd 7658 4b3d
000001a0: 862b c53d c3fa db3c c161 37bd 79f7 ec3b
000001b0: e298 6dbd 92ff 32bd 5e46 153c 57c0 05bc
000001c0: 4075 0b3d 92e3 fdbc cd50 9dbd 13d7 87bd
000001d0: 2f4e 103d cd52 94bd b460 513d a8d9 edbc
000001e0: 16f1 403d 9ad8 463d 0501 49b9 5ab3 4fbd
000001f0: eb72 0bbd 3042 2ebd bb2a 9d3b 6220 6b3d
00000200: f5bb b63c 5a34 84bc 88c4 ba3d f5f4 b53d
00000210: ba8b 00bc ca38 cd3c 1d0b 52bd 4161 07bd
00000220: 6bbe 41bd 8e79 8e3a c8ca 8b3d f821 22bd
00000230: 5aa7 5cbc cc10 063c c203 ac3d acc2 ac3c
00000240: e6b0 79bc e4ee 5abd 565c 773d bfad 0fbc
00000250: 4feb a13d d6fb 03bd edb7 81bd 7639 0a3d
00000260: 5813 d2bb 09f5 fabc 6741 723c bcb2 96bc
00000270: 4e0c 62bd 217a 973d ee58 833b 2150 4abd
00000280: 2f3f a03d 0cdf cd3d ec2b ba3d 0c47 c43c
00000290: cec7 c23d 6354 8cbc 0ede 9a3d b326 f0bc
000002a0: e71c 1d3c b95f 75bc 1c20 683d 21c5 bf3d
000002b0: 6c21 283c 0ceb e13d d4f6 93bd 165a 543b
000002c0: c29e 643c 4fa5 c3bb 3601 fbba 70a6 753b
000002d0: 3d5a 003d a741 fe39 5ec5 72bc ead7 1c3d
000002e0: 87ad 453d cb6f 21bb bf98 ba3d 90d6 053d
000002f0: b691 a93d 0792 15bd 18bb 933d cf66 b73d
00000300: 4d1c 823d f780 d83c fa74 2a3c d52f a8bc
00000310: a06b 863c 8263 0f3d b41a 53bc d0d6 b53d
00000320: 360a 163d a53f c63d da6d a4bb 9447 943d
00000330: bfee c3bc c6d3 3e3c e13f c73c 0ae4 9a3d
00000340: cb64 d6bc 5ae2 1d3d 3510 953d e119 5b3d
00000350: 3d24 d83b ed32 ce3d a90a 01bd 9ae3 84bd
00000360: 67d8 a1bc 2c2b 813c 08b2 033c 518f 10bd
00000370: 8552 cd3d aedd 1e3d cc4f 23bb b4fb 123d
00000380: 781b 423c de7d 123d 4c6d a63d b3ef e13d
00000390: 2656 9abc bad1 c33d 84a9 d73d 4079 adbc
000003a0: 988b 923b 5b2d 523d 0c2b 3c3d ff6b 08ba
000003b0: aa8f 10bd 8a9f cc3d 5238 8cbd bead b43d
000003c0: 52e6 cb3d 4613 abbc 9bc7 d0bc 55da 843d
000003d0: ca93 bf3d 52b3 71bd 9b16 9abd 61f7 5abd
000003e0: f9f3 0c3d 5cc5 483d f944 f13c ee2f 293d
000003f0: be1d ad3d 27f1 3ebd b9cf 163d b46d 9abd
-0.05949419 -0.019562112 0.018046971 0.08841276 0.048840195 0.013562821 -0.0054912944 -0.038130026
0.05222552 0.06282346 -0.0216669 -0.03339728 0.023674283 0.052910708 0.04629512 -0.067637116
-0.056978118 0.06476434 0.072560206 0.06445485 -0.04220911 0.014830277 -0.0023280943 0.03626443
-0.03327532 0.031240579 0.0548227 0.003964194 0.054611724 0.072819404 0.07432689 0.030441493
0.09093592 0.00841018 -0.04224517 0.062625654 -0.07259662 -0.0303229 -0.062181402 -0.040222187
-0.04822408 -0.009080126 0.08517103 -0.054227147 -0.04031843 0.06250281 0.08529258 -0.017410405
0.06305885 -0.022670234 -0.008177051 -0.058425542 -0.016383868 -0.019616157 -0.041788265 0.094534375
0.00833331 0.07953407 -0.06529728 -0.023382645 0.021351546 0.059320096 0.037656717 -0.07402653
0.0025497922 -0.030605065 -0.030460924 0.08364481 -0.06838052 0.092070475 -0.07361151 -0.04852578
0.00917582 -0.017914902 -0.038240086 -0.027563717 0.0012926701 0.05566985 0.06133621 0.023294995
0.07780554 -0.034442864 -0.06392484 0.07664195 0.011076717 -0.0338403 0.017428929 0.078780584
0.053404987 0.06735208 -0.022873359 -0.060625914 -0.042527467 0.08169184 -0.05335685 -0.062020745
-0.07090799 0.040861733 -0.050459083 0.009542517 0.08824662 0.008613352 -0.031378075 0.04964491
0.09627442 0.026852971 -0.04477096 0.0072316495 -0.05800713 -0.043700762 0.009111015 -0.008163533
0.034047365 -0.030992303 -0.07681427 -0.06632819 0.03523081 -0.072423555 0.051117614 -0.02903445
0.047104917 0.04854641 -0.00019169234 -0.050708152 -0.03404514 -0.04254359 0.0047963536 0.05740393
0.022306422 -0.016138244 0.091195166 0.088846125 -0.007845813 0.025051493 -0.05128013 -0.033051733
-0.047300737 0.0010869966 0.06825787 -0.039583176 -0.013467634 0.008182716 0.08399154 0.02108892
-0.01523993 -0.05345048 0.060390793 -0.008769452 0.0790621 -0.03222259 -0.06333909 0.033746205
-0.0064109974 -0.03063442 0.014786101 -0.018395774 -0.055187516 0.07396341 0.004008404 -0.049392823
0.07824551 0.100523084 0.09090409 0.023959659 0.09510766 -0.017130082 0.07561885 -0.029315328
0.00958941 -0.014976435 0.056671247 0.09363771 0.010261875 0.1103116 -0.07224813 0.0032402328
0.013953866 -0.005970634 -0.0019150141 0.0037483238 0.031336058 0.0004849557 -0.014817564 0.03829185
0.04826119 -0.0024633284 0.09111165 0.032675326 0.08279745 -0.036516216 0.0721342 0.08955156
0.06353054 0.026428683 0.010403866 -0.02053062 0.016408741 0.035007007 -0.0128847845 0.08878863
0.03663083 0.09680108 -0.005017978 0.07240215 -0.023917554 0.01164717 0.024322452 0.07563026
-0.026171109 0.038545944 0.07278482 0.053491477 0.006596117 0.10068307 -0.031504307 -0.06488724
-0.019756509 0.015767656 0.008038051 -0.035292927 0.10025505 0.03878563 -0.0024919389 0.035884574
0.011847369 0.035764568 0.081263155 0.11032047 -0.018839907 0.095614865 0.105303794 -0.02117598
0.0044722073 0.051312786 0.04593949 -0.0005204081 -0.03529326 0.09991367 -0.0684668 0.08822201
0.099560395 -0.020883214 -0.025485804 0.06486956 0.093543604 -0.059008904 -0.07523843 -0.053458575
0.034412358 0.04901634 0.029451834 0.041305475 0.084529385 -0.0466167 0.036819194 -0.075404555

fc1.bias f4 [128]
00000000: 63d5 3b3d 05e7 2abc 3f7d b63d 1b68 6c3c
00000010: 7b2c 713d 8a84 803d b2fb 2ebd 6acb 73bd
00000020: e0e3 f73b 2801 6b3c 3c32 67bd 3469 a43a
00000030: 55c6 aa3d 0d9e 263d d8c1 1cbc d74b 993d
00000040: d3bb 8abb 13b8 933d 36f4 46bd 3590 be3d
00000050: 08e1 20bd e7e1 2dbd 61b9 bb3d 7ab5 a2bd
00000060: b0bc 103d 8235 f03c 44fe 943c bbb5 17bd
00000070: 520e a03d 3dad db3d 0d9e 2b3b 5ced 19bd
00000080: 1493 14bd 0112 d63d 68a1 a43d ca23 a9bc
00000090: 593f 8f3d 5c8d 79bd dd6e 55bd eef6 10bd
000000a0: ca91 893d d21d b73d 41c1 b13d d81f bd3d
000000b0: 8c9c 1abd 4d18 af3d 21cd 993d 86c4 b33d
000000c0: 10d3 ae3c 0d05 d53d 39e1 0f3d 7e1e a73d
000000d0: b1a0 a33d 3591 cf3c 2682 993d 1329 433d
000000e0: 40ea 423d e6f8 cd3d 2a5c 69bd 4d4b b23d
000000f0: 3362 30bc 088e aa3c 011b a7bc 458d 953d
00000100: bc28 b3bc 7c6f e4ba f692 993d 4bc8 c13d
00000110: 0bb0 2bbd d07d 88bb d679 113d bb2d bb3d
00000120: d3bd 7c3d 30b4 9b3d aba9 3ebc db1a 363d
00000130: 8d7a 943d 6ca8 993d 870e 843c b623 0dbd
00000140: 4c63 c03d afc6 9a3d f605 be3c a0b6 2c3d
00000150: 2fc6 2fbd 5af5 c1bc ba12 ee3b 72e4 c8bc
00000160: 1e94 183c 8c99 22bd 6a3a 193d d7d1 a13d
00000170: 7acc 123d 5639 09bc 867f e7bc d910 a63d
00000180: 4253 03bd 5bc6 143d 386c 2a3d 574f 0f3d
00000190: ffda e63c 3b16 6d3d c79d 483d f802 01bd
000001a0: 463a d43c e03b 4f3d 6d59 b83c e807 ea3c
000001b0: df3d ca3d d1c1 2c3b a598 5d3c 662a 38bc
000001c0: e1fd 61bb 77ef 543d 6dd3 5a3d a085 7c3c
000001d0: 4b95 963d 8ee9 4cbd e331 2a3d 77af 34bd
000001e0: 14c3 c33d fe23 ad3d 6046 4a3c 6b54 e3bb
000001f0: dfdd 003d 4a5c 36bd 3300 d63c cdb5 0cbd
0.0458578 -0.010431056 0.089106075 0.014429118 0.05888031 0.0627528 -0.042720504 -0.059520163
0.0075650066 0.014343537 -0.05644439 0.001254356 0.0833861 0.040678073 -0.0095677 0.074851684
-0.004233816 0.07212844 -0.04857274 0.09304849 -0.039277107 -0.042451765 0.091662176 -0.0794477
0.035336196 0.02932239 0.01818765 -0.037038546 0.078152314 0.10726402 0.0026186735 -0.03757988
-0.036273077 0.10452653 0.08038598 -0.020646948 0.069945045 -0.060925826 -0.05210768 -0.03539174
0.0671726 0.08941235 0.086794384 0.09234589 -0.03774695 0.08549557 0.07509828 0.08777718
0.021340877 0.10401354 0.0351269 0.08160113 0.07989634 0.025337795 0.07495527 0.047646593
0.04758668 0.10057239 -0.05697266 0.08705769 -0.0107656 0.020819679 -0.020398619 0.07302336
-0.02187001 -0.0017428244 0.07498734 0.09462031 -0.041915935 -0.0041653886 0.035516582 0.09139582
0.061704468 0.076027274 -0.011637132 0.044459205 0.07249937 0.07502827 0.016120208 -0.034457885
0.093939394 0.07557427 0.023196202 0.042166352 -0.042913612 -0.023676563 0.007265416 -0.024522994
0.009312658 -0.039697215 0.037409224 0.07901352 0.035839535 -0.008375486 -0.02825905 0.08108682
-0.032061823 0.03632198 0.04160711 0.034987774 0.028180597 0.05788253 0.048978593 -0.03149697
0.025906693 0.05059421 0.022503579 0.028568223 0.09875082 0.002636064 0.013525163 -0.011240577
-0.00344836 0.051986184 0.053424288 0.015412718 0.07352694 -0.050027423 0.041551482 -0.04411265
0.095586926 0.084541306 0.01234588 -0.0069375536 0.031461593 -0.044521607 0.026123142 -0.034353066

fc2.weight f4 [128, 128]
00000000: 3b59 843d f7aa 7a3d 8f2d 20bd ba7d 48bd
00000010: b65e c4bd 0dad 96bd 4744 01bc e583 303d
00000020: e554 85bd ac88 0cbd 474a bcbc 36a7 723d
00000030: ac3b 4e3c 5fab 6cbc dba9 233c e52e 963d
00000040: 2385 29bd 02cb 46bd bb79 4ebd 5d5b 8f3d
00000050: 0ed1 643d 3fb3 84bd 2710 6b3d 6b6c fa3c
00000060: 27a4 3c3d a08e 86bd 68aa 6f3c d4a0 8dbd
00000070: 380c 27bd 377a a3bc fc76 8cbc 9346 903c
00000080: 9fff 8abd a959 5d3d a0fc 813b 49f4 66bd
00000090: 4038 19bd 20e3 b2bc 2122 b0bd 0821 b3bd
000000a0: 5b8c b1bd 8240 29bd d4f3 92bd 09b8 aabd
000000b0: ef60 bdbd ce30 c3bd c5bb 893d bc8a acbd
000000c0: 71a4 afbb 7007 333d 806e 5d3d e17c ea3c
000000d0: 0706 813d 1cda c0ba 9308 813b 3eaa 1cbd
000000e0: d5a0 583d 3a5e 973b 2416 56bd 4c4d a0bd
000000f0: d401 413c 73fd 903d 3c22 0f3d b254 7cbd
00000100: d41d cabd 0578 333d 93ab 3f3d 73c6 d5bb
00000110: 9621 babd 40a7 4cbc 7fce 5d3d a602 9fbd
00000120: 7e58 3cbd d624 14bd 183e 0e3d 7492 953d
00000130: 033a 3a3c df60 78bd 345d 2d3d 539c 89bc
00000140: 08d8 dbba d820 a0bd e188 563c 5544 4ebd
00000150: 9b18 bbbc 8ce9 0e3d a057 483d 76b5 823d
00000160: 7402 b0ba ce45 f3bc 9cbb 7e3d 99a1 913d
00000170: 442c 6c3c f153 8ebd aa0a d0bd f43f 81bd
00000180: 6b3e ffbc c769 c4bd 42dc 17bd fc54 8bbd
00000190: f31c 283d b742 01bd a6b4 4abd cd79 01bd
000001a0: ab87 00bd e160 f43c dcb3 97bc 3ef9 06bd
000001b0: 806a 643c 215f 65bd 1063 c4bd af2f 8e3d
000001c0: d0ce 2ebd e12e 7e3d eb8c 19bd 1811 d8bc
000001d0: 84d6 86bd bd7f 70bd fd0f 75bd 80ae 83bd
000001e0: f7cc 78bc 25b9 92bc ede0 ae3c b486 663d
000001f0: a486 aabd 9ff8 963b 8792 b6bd 12f4 ee3c
00000200: b7b8 603d b239 e6bc 8b5b 24bd d131 713d
00000210: 5b87 ccbd 3dc4 a4bd 62de 263d 3c0e 9b3d
00000220: d8fc 8c3c dcb0 643d e8fc 4e3d e6e0 9bbd
00000230: a09e 033d 489c aabd d6cb f23c 5272 8f3d
00000240: d27f ff3c f60c aabc 7f80 613d 208d 47bd
00000250: b757 adbc b5d9 98bd fed7 5f3d fce2 a13d
00000260: 20b9 d2bb 07ca 563b 1620 fcba 930d 823d
00000270: 7369 b9bd fb29 a8bd 6a0b 093c eda4 b1bc
00000280: 672a 923d cc20 0b3d 03bd 52bd 6ef7 4abd
00000290: a147 88bd df65 2dbd 6524 97bc e6f6 52bd
000002a0: b010 833d e4d4 203d d6b0 193d d880 a7bd
000002b0: d7dd 6dbd accc 633d d2c8 3bbb 6e89 ccbc
000002c0: 65dd c3bd 8885 233c 4573 573d 866d 713c
000002d0: bfcb de3c 4c8c 3ebc 1863 15bb 0534 833c
000002e0: 92d6 73bd 5aba 92bd ea9a 823d 347e f53b
000002f0: 7aa4 8b3c 0d1e 553d f14e 6abd 5b7b 863c
00000300: 2e5d 80bd 00b6 4e3d 8b59 423d d95f ac3c
00000310: e4f5 4dbd 1343 20bd 0e39 1ebc 3848 a2bd
00000320: d280 64bc 6400 7b3d 2a19 123d 0c31 a1bd
00000330: c36d 56bd 3da7 04bd 7f7a 7a3c 9c6b d5bc
00000340: c132 9fbd cea7 91bc df76 5b3d 3675 d1bc
00000350: 408e 10bd b764 c23c 972c dc39 32d0 8abd
00000360: 05bd 10bd c427 803d f490 51bd c3c8 df3a
00000370: cd24 64bc da08 98bd 3ee8 afbc cd08 12bd
00000380: fea7 b3bc 9411 a5bd 7b3d 64ba f24d 133d
00000390: f2e8 b6bd e01b eabc d00f d73c 630c bf3c
000003a0: f206 033d ec8f 94bd 7b0c 673d 9ad2 5fbc
000003b0: 6471 303d bd4e d8bc f56a 003d 9bb6 c6bd
000003c0: 413d f53c d1a3 7ebd efaf e43c 9455 d0bc
000003d0: ff29 3c3d 927c d63b 5e48 2dbb 77b4 30bd
000003e0: aad9 433d 6247 003d 9a6c 1bbd 0c24 9c3b
000003f0: 9cd6 4d3d 9ffc f43c ecb4 403d 2641 9cbd
0.06462332 0.0611982 -0.039105948 -0.048948027 -0.09588377 -0.073572256 -0.007889814 0.043094534
-0.06510333 -0.034310028 -0.022984637 0.059241496 0.012587469 -0.014445155 0.009989227 0.07333163
-0.041386735 -0.048533447 -0.05040906 0.06999848 0.055863433 -0.06479501 0.05738845 0.030569276
0.046054985 -0.06570172 0.01462803 -0.06915441 -0.040783137 -0.019955738 -0.01714658 0.017611777
-0.06787037 0.054040585 0.003966883 -0.056385312 -0.03740716 -0.021836817 -0.086002596 -0.087465346
-0.08669349 -0.041321285 -0.07175413 -0.08335883 -0.09247004 -0.09530793 0.06725267 -0.08424899
-0.005360179 0.043708265 0.05406046 0.028624 0.06299978 -0.0014713439 0.0039377897 -0.038248293
0.052887756 0.004619387 -0.05226721 -0.07827243 0.011780221 0.070795916 0.034944758 -0.06160421
-0.098689705 0.04381563 0.046794485 -0.006523901 -0.09088437 -0.012491047 0.05415201 -0.07764177
-0.04598283 -0.036167942 0.034727186 0.07303324 0.01136637 -0.06063926 0.042325214 -0.016798174
-0.0016772756 -0.078187644 0.013094158 -0.050358135 -0.022838881 0.034890696 0.04891169 0.06382267
-0.0013428465 -0.029696371 0.062190637 0.071109004 0.014414851 -0.06949604 -0.10158284 -0.06311026
-0.031157693 -0.09590488 -0.03707529 -0.06803319 0.041043233 -0.031557765 -0.049488686 -0.0316103
-0.031379383 0.029831352 -0.01851838 -0.03295254 0.013941407 -0.055998925 -0.09589207 0.06942689
-0.0426777 0.062056426 -0.037487905 -0.026375338 -0.06583884 -0.05871557 -0.0598297 -0.064297676
-0.015185586 -0.01791055 0.021347487 0.056280807 -0.08326462 0.0046072747 -0.089146666 0.029169116
0.054863658 -0.028103683 -0.040126365 0.0588854 -0.099867545 -0.08045242 0.040739425 0.07571074
0.017210409 0.05583273 0.05053416 -0.07611255 0.0321337 -0.083305895 0.029638212 0.07004227
0.03118888 -0.020758133 0.055054184 -0.04871857 -0.02115999 -0.07463399 0.054649346 0.07904622
-0.00643076 0.0032774226 -0.0019235637 0.06350245 -0.09053316 -0.08211132 0.008364538 -0.021685088
0.07136994 0.033966824 -0.051449787 -0.049552374 -0.06654287 -0.04233348 -0.018449971 -0.051504992
0.06399667 0.03926553 0.03752216 -0.08178872 -0.05807289 0.055615112 -0.0028653634 -0.024967875
-0.09563712 0.009980567 0.052600164 0.014735585 0.027196763 -0.011630129 -0.002279466 0.016016016
-0.059530802 -0.0716445 0.06377204 0.007491851 0.017046202 0.05203061 -0.05720419 0.016416242
-0.062677726 0.050466537 0.047448676 0.021041797 -0.050283328 -0.039126467 -0.009657158 -0.07923931
-0.013946729 0.06127967 0.03566853 -0.07870683 -0.05235077 -0.032386053 0.015287994 -0.026052289
-0.077733524 -0.01778021 0.05358016 -0.025568586 -0.03529191 0.023729665 0.00041994892 -0.06777991
-0.035336513 0.06257585 -0.05116363 0.0017073381 -0.01392479 -0.07423563 -0.021473046 -0.035652924
-0.02193069 -0.080599934 -0.0008706671 0.035963006 -0.089311495 -0.028577745 0.026252657 0.023321336
0.031989045 -0.072540134 0.056408387 -0.013661051 0.043076888 -0.026404733 0.031352002 -0.09702798
0.029936435 -0.062167946 0.027915923 -0.025431432 0.045938488 0.0065456117 -0.002644084 -0.043140855
0.047815003 0.031318076 -0.037945367 0.0047650393 0.050253496 0.029905615 0.04704754 -0.076296136

fc2.bias f4 [128]
00000000: 769e 473d 81db c03a 70b8 a2bd 1089 543c
00000010: 46b7 c9bc 8cb2 813d 458b 04bd 8364 9e3c
00000020: ce0f b33b b146 5d3d c23b b0bd d196 323d
00000030: c38f eabc 320d 9d3d 3c6f 93bd c81c c13d
00000040: 8934 6c3c ca25 a73d 31cd 5f3d 2965 0ebc
00000050: c280 313b 6893 06bd 2d6e 9dbd fe99 a43d
00000060: c59d d53d 25a4 44bd 94a7 6f3d 326f 81bb
00000070: fecc 403d 108b ecbc c29a 9e3d 718b 3ebd
00000080: d7a2 66bd 2b77 c53c 1dd8 49bd 732e c4bc
00000090: accd 803d bea3 ae3d 674b 9fbd 9de2 9cbd
000000a0: e742 ab3d c78d 22bd 5a06 2c3d 8f49 743d
000000b0: 7e32 3e3d 7a5e 88bd c7b0 df3c 8400 99bd
000000c0: 4dd2 463d baea 0d3d 5167 083d 5a42 16bd
000000d0: 2ebe 8a3d ef62 e0bc 45d4 c53c 442c ce3d
000000e0: 982c eabc 4075 c53d f667 b5bd 10fe fc3c
000000f0: 4ac8 af3c c086 85b6 7166 443d 9e8d 60bd
00000100: 821a 013d 08fd 7c3d 2ae0 a73c bed2 cc3b
00000110: 95f0 d63d fa3b cb3c e7fd 923d db9a a4bd
00000120: e382 bebb d589 d03d 4df2 28bd fe4a 4d3c
00000130: 2640 96bd 3c98 613d f682 3bbd d797 cb3c
00000140: 2850 54bd f4cc f63c 572c 91bd 8aaf 53bd
00000150: 33d3 2c3d cdc7 973d 17dd ac3d 0829 003d
00000160: a599 453d d54d 82bd b47d 8f3d b2dc 993c
00000170: 2ec6 8c3d e0cf 3ebd d684 c1bd 52ae 85bc
00000180: 0de6 343d a2d3 59bd 50c7 c53c 4526 35bd
00000190: b44f 90bd 5bf2 d03c 4468 1d3d 45cc 3fbd
000001a0: cda9 8e3c baf5 8f3d 489f 5abd 1130 c13d
000001b0: a3cd a3bd df9a ec3c dc5a 56bc 420b 023d
000001c0: 6d1c 0cbd 8a50 c4bc 4eae a03d ad81 b0bd
000001d0: 3e68 6a3d a517 27bd 8148 61bd d793 d7bc
000001e0: bed9 9e3d e295 be3d 90f1 b33d 39f3 40bd
000001f0: a7cd 6abd 63b3 e3bc 5d1a 4d3a 013e 03bc
0.048735105 0.0014713855 -0.07945335 0.012972131 -0.024623524 0.06332883 -0.03235938 0.019335037
0.0054645305 0.054022495 -0.08605148 0.04360086 -0.028633004 0.076685324 -0.07198951 0.09429318
0.014416822 0.081615046 0.054639045 -0.008691111 0.0027084802 -0.03285542 -0.0768703 0.08037184
0.10430483 -0.048008103 0.058509424 -0.003950023 0.047070496 -0.028874904 0.077443615 -0.0465197
-0.05630764 0.024104675 -0.049278367 -0.02394793 0.06289229 0.08527325 -0.07778054 -0.076604106
0.0836237 -0.03968599 0.041998245 0.059640463 0.04643487 -0.06658645 0.027305974 -0.074708015
0.048540402 0.03464768 0.033301655 -0.03668437 0.06774555 -0.027390925 0.02414907 0.10067037
-0.028585717 0.09641504 -0.088577196 0.030882865 0.02145781 -3.979396e-06 0.04794926 -0.054822557
0.03151942 0.061764747 0.020492632 0.0062507084 0.10495106 0.024808872 0.07177334 -0.08037349
-0.0058139428 0.101825394 -0.0412467 0.012530087 -0.07336454 0.055076823 -0.04577919 0.024852676
-0.051834255 0.030127026 -0.07088535 -0.05168108 0.042193603 0.07411156 0.08440607 0.03128913
0.04824223 -0.063625015 0.07006398 0.018781994 0.06873737 -0.046584964 -0.094491646 -0.016318474
0.044164706 -0.053180344 0.024142891 -0.04422595 -0.07046452 0.02550619 0.038429514 -0.046825666
0.017414952 0.070292905 -0.05337456 0.09432996 -0.079982065 0.028882442 -0.013083186 0.031749018
-0.034206796 -0.023964185 0.07845746 -0.08618484 0.05722832 -0.040794034 -0.055000786 -0.026315613
0.07756375 0.09305932 0.08786309 -0.047106955 -0.05732503 -0.0277955 0.0007824058 -0.008010388
