logs/maddpg_checkpoint_ep350.pth (torch, 585614 bytes, 24 tensors)

fc1.weight f4 [128, 147]
0	0xbc9736f7	-0.018458826
1	0xbce2d5c8	-0.02768983
2	0x3d3af9af	0.045648273
3	0x3db08e3c	0.08620879
4	0x3d8c6d8a	0.068568304
5	0x3d648b8a	0.055797137
6	0x3d64cfc6	0.05586221
7	0x3d9ebd3f	0.077509396
8	0xbd0d5ed7	-0.034514274
9	0xbd6bc1ae	-0.057557754
10	0xbc1f4dc7	-0.009723133
11	0x3bfcd014	0.0077152345
12	0x3c2ceddb	0.010554756
13	0xbcc8ce3b	-0.0245124
14	0x3dc3c2e4	0.09558657
15	0x3d28415c	0.041077957
16	0x3ab05049	0.0013451661
17	0x3c630d02	0.013858082
18	0xbd2ed1e2	-0.04268063
19	0xbd941ab1	-0.072316535
20	0x3d9c157f	0.076212876
21	0x3daed7bf	0.08537244
22	0x3cb3ced4	0.02194921
23	0x3d27623a	0.04086516
24	0x3da787eb	0.08180221
25	0x3ccca5cd	0.024981404
26	0xbd62b997	-0.055352774
27	0xbd4acec4	-0.049513593
28	0xbd3aae58	-0.045576423
29	0x3d58e603	0.05295373
30	0x3dccac6f	0.099938266
31	0x3d0f3129	0.034958992
32	0xbd56487c	-0.05231522
33	0x3a831d8c	0.0010003312
34	0xbc3dd41d	-0.011586216
35	0xbaf22da0	-0.0018476732
36	0x3d51cd7f	0.051221367
37	0x3a9f737a	0.0012165152
38	0x3d93eea6	0.07223253
39	0xbc4796eb	-0.012181978
40	0x3d95db05	0.07317165
41	0x3d939f80	0.072081566
42	0x3d010c56	0.031505905
43	0xbba6db77	-0.00509208
44	0x3d4f7ef4	0.05065818
45	0x3dabce78	0.0838899
46	0x3d0a4c28	0.033764035
47	0xbd20de78	-0.039274663
48	0x3b971fab	0.0046119294
49	0xbd0de80c	-0.034645125
50	0x3d8ef34e	0.069800004
51	0xb9b7411c	-0.0003495299
52	0xbd82b306	-0.06381802
53	0x3da59c49	0.0808645
54	0x3dbac9ea	0.09120543
55	0xbd320419	-0.04346094
56	0x3d7cd23b	0.06172393
57	0x3c561d26	0.013068473
58	0x3d16ad10	0.03678614
59	0x3dcf7337	0.10129397
60	0xbc97d65e	-0.018534835
61	0xbcddd922	-0.027081076
62	0x3dcbe4d8	0.09955758
63	0x3d2e9632	0.042623706
64	0x3ccd5cc6	0.025068652
65	0xbc74d7c0	-0.014944017
66	0xbd5ecdda	-0.054395534
67	0x3ca37e0a	0.019957561
68	0x3d9146e4	0.070935994
69	0x3d0e8a42	0.03479982
70	0x3ca62e4f	0.020285754
71	0x3d3b1db7	0.045682635
72	0xbb11067e	-0.0022129114
73	0x3c894f5f	0.01676148
74	0x3dd46488	0.10370737
75	0xba0a98a8	-0.000528703
76	0x3da64bb4	0.08119908
77	0x3dbc1deb	0.09185394
78	0x3d93895c	0.072039336
79	0x3d992378	0.07477468
80	0x3dc243fd	0.09485624
81	0x3daded06	0.08492474
82	0xbcca273f	-0.024676917
83	0x3db5d0bb	0.08877703
84	0xbaed8e45	-0.0018124065
85	0xbd51f31e	-0.051257245
86	0x3ce03d8d	0.0273731
87	0x3c52ea3d	0.01287323
88	0xbd51026b	-0.051027697
89	0x3dab31d2	0.08359112
90	0x3d7be292	0.06149537
91	0x3cca94dd	0.024729187
92	0xbcd72ea9	-0.026267366
93	0xbd006c7e	-0.031353466
94	0xbcb55a1d	-0.022137696
95	0x3d43bb03	0.04778577
96	0xbcfac194	-0.030609883
97	0x3d91e04c	0.07122859
98	0x3d9d99c2	0.076953426
99	0xbd1a8814	-0.03772743
100	0x3b1afaf4	0.0023648115
101	0x3d945d0a	0.07244308
102	0x3d7819d6	0.060571514
103	0x3b6a982a	0.0035796263
104	0x3d4d78af	0.05016392
105	0x3da218d2	0.0791489
106	0xbd8d818d	-0.069094755
107	0x3d11167e	0.03542184
108	0x3d275bef	0.04085916
109	0xba66bf12	-0.00088022754
110	0xbd060cd5	-0.03272708
111	0x3d68d268	0.056841284
112	0x3da64e89	0.08120448
113	0x3dd19482	0.10233404
114	0xbd554cea	-0.052075304
115	0x3dcab41b	0.09897634
116	0x3c9e6f76	0.019340258
117	0x3d860ad9	0.06545038
118	0x3d46b2cc	0.048510358
119	0xbcd598de	-0.02607387
120	0xbd5eb3ca	-0.05437068
121	0xbcd76dcf	-0.026297478
122	0x3dc34b09	0.09535796
123	0x3d43b9e3	0.047784697
124	0x3db8f306	0.09030728
125	0xbca4e280	-0.020127535
126	0x3dca305d	0.09872506
127	0x3da37706	0.07981686
128	0xbd0bdb2e	-0.034144573
129	0x3c995b2e	0.018720236
130	0xbd138ac8	-0.036021024
131	0xbcd5624b	-0.026047846
132	0x3d2f7dcf	0.04284459
133	0x3bf2631f	0.00739707
134	0xbd2a1ca4	-0.04153122
135	0xbbda626d	-0.0066645653
136	0x3d8f3ab4	0.069936186
137	0xbd35108b	-0.04420523
138	0xbd8eb700	-0.06968498
139	0xbd8e3bfd	-0.069450356
140	0x3d90ab75	0.07063953
141	0x3d8fef6b	0.07028087
142	0xbce4266e	-0.027850356
143	0xbce37dbd	-0.027769918
144	0x3ad4dd36	0.0016240242
145	0x3b395b1f	0.0028283072
146	0x3cf49417	0.029855771
147	0x3d86bc9b	0.065789424
148	0x3d071041	0.032974485
149	0x3bc93df7	0.00614142
150	0x3dce8421	0.10083795
151	0x3d922fd7	0.07138031
152	0xbc3bdb45	-0.011465852
153	0x3ce96c14	0.028493918
154	0x3d398589	0.045293365
155	0x3d4d7e5a	0.050169326
156	0x3c8518b2	0.016247127
157	0xbcce7db9	-0.025206434
158	0xbd155c19	-0.036464784
159	0x3d7e2958	0.062051147
160	0x3d9c300b	0.07626351
161	0x3cadd5b4	0.021220066
162	0xbd37f800	-0.044914246
163	0xbaed0788	-0.001808391
164	0x3d46471d	0.048407663
165	0x3d86ee9e	0.06588481
166	0xbd31e6c4	-0.043432966
167	0x3dc2bf27	0.09509116
168	0x3dc0ce80	0.09414387
169	0x3d2b1793	0.04177053
170	0x3d9a23f3	0.07526388
171	0x3caafa88	0.020871416
172	0x3de13d38	0.10998005
173	0x3d298730	0.04138869
174	0xbd0ef82c	-0.034904644
175	0xbcadd3b7	-0.021219118
176	0xbcc2b568	-0.023768142
177	0x3b37266b	0.0027946483
178	0xbcef67dc	-0.029224329
179	0x3daf9831	0.0857395
180	0xbc742314	-0.014900941
181	0x3ca5f01f	0.0202561
182	0xba7a8840	-0.0009557046
183	0x3c4f44eb	0.012650709
184	0x3dca9faa	0.09893735
185	0xbbfef851	-0.0077810665
186	0xbd272c60	-0.040813804
187	0xbd2ee020	-0.04269421
188	0x3d37e11f	0.044892427
189	0xbcbd0b40	-0.023076653
190	0x3cdd8253	0.027039682
191	0x3d3eed6a	0.046613134
192	0xbcaee9a9	-0.021351652
193	0x3de2a50b	0.11066636
194	0xbd157047	-0.03648403
195	0xbd4004bf	-0.046879526
196	0x3d36f37a	0.04466579
197	0x3c069d15	0.008216162
198	0x3de27ec7	0.11059337
199	0xbcbfa38a	-0.023393411
200	0xbb9a8976	-0.0047160937
201	0xbca7acd5	-0.020468155
202	0x3d2affc7	0.041747835
203	0xbd06755f	-0.032826778
204	0xbd0de25e	-0.03463971
205	0x3cf9978a	0.030467767
206	0x3d4a80c1	0.049439196
207	0xbd28c9da	-0.041208126
208	0x3c7a4a23	0.015276465
209	0xbc65105b	-0.01398095
210	0x3c2f78cb	0.010709952
211	0x3ccb29fb	0.024800291
212	0x3d5b89e5	0.053598303
213	0x3c94671a	0.018115569
214	0x3dbfadc4	0.09359315
215	0x3dbea4e3	0.093087934
216	0x3d034fe1	0.0320586
217	0x3d0cc758	0.034369797
218	0x3d5d53e9	0.0540351
219	0x3dda593a	0.1066155
220	0xbccebe1b	-0.025237134
221	0x3dc9d339	0.09854741
222	0x3d8be813	0.06831374
223	0x3c974681	0.018466236
224	0xbcc107e8	-0.02356334
225	0x3db7d263	0.08975675
226	0x3ac42f8b	0.0014967782
227	0x3def370e	0.11680423
228	0xbcb56da4	-0.022147007
229	0x3daa7fc1	0.083251484
230	0x3d90cd91	0.07070459
231	0xbba9e890	-0.0051851943
232	0xbc820762	-0.015872661
233	0x3caa631b	0.02079921
234	0x3d8d941d	0.06913016
235	0xbd6f115a	-0.058366157
236	0xbd2f06ab	-0.04273097
237	0x3d8abc86	0.06774239
238	0xbd64ad93	-0.055829596
239	0x3c8a4fdb	0.016883781
240	0x3dba47e2	0.09095742
241	0x3da8c88a	0.08241375
242	0x3d8a91bd	0.067660786
243	0x3d137548	0.03600052
244	0xbce324db	-0.027727535
245	0x3cc40a20	0.02393061
246	0x3cf5186f	0.029918877
247	0xbd1b243d	-0.037876356
248	0x3d9efaf8	0.07762712
249	0x3dc49b2c	0.09599909
250	0x3b3ad82f	0.0028510203
251	0xbcc82106	-0.02442981
252	0xbd0be8f1	-0.034157697
253	0xbaffd783	-0.0019519184
254	0xbccd8fb1	-0.025092931
255	0x3ddd2d44	0.10799649

fc1.bias f4 [128]
0	0x3d25c120	0.04046738
1	0xbc3e9585	-0.011632328
2	0x3d676971	0.05649704
3	0x3d40e634	0.04709454
4	0x3dd22012	0.10260023
5	0xbaf4ae33	-0.0018667638
6	0x3d9aa5f8	0.07551187
7	0xbc32c32c	-0.01091079
8	0x3d830e51	0.06399215
9	0x3d6079eb	0.05480377
10	0x3d53cef9	0.051711056
11	0xbcca9e72	-0.024733756
12	0xbcfcc9f6	-0.030858021
13	0x3b948985	0.004532995
14	0xbca3b19c	-0.019982152
15	0xbcbb129d	-0.022836024
16	0xbc4b0db1	-0.012393401
17	0x3db99e60	0.09063411
18	0x3d46d6df	0.04854476
19	0xbc8d5a37	-0.017254932
20	0x3bf7b681	0.007559598
21	0x3d2d0eec	0.04225056
22	0x3deec206	0.11658101
23	0xbc50b19e	-0.01273766
24	0x3d34fda1	0.044187192
25	0x3dc79136	0.09744494
26	0x3d41dbb2	0.04732866
27	0x3df0fefd	0.11767385
28	0xbc7fedc6	-0.015620654
29	0x3b9e3688	0.004828278
30	0xbc27828a	-0.010223994
31	0x3cbcda46	0.0230533
32	0x3c4a7334	0.012356568
33	0xbce904d2	-0.028444681
34	0xbc7cf563	-0.015439364
35	0x3dbe68cb	0.092973314
36	0x3d8300c8	0.063966334
37	0xbd0ec321	-0.03485406
38	0xbc797434	-0.015225459
39	0xbd1adb51	-0.037806813
40	0x3d0f473c	0.034980044
41	0xbd00c1e6	-0.031434916
42	0x3df22afe	0.11824606
43	0x3be14880	0.0068750978
44	0x3d689b46	0.056788705
45	0x3cc3f24a	0.023919243
46	0x3d4b559f	0.0496422
47	0x3db38f75	0.08767597
48	0x3d123eb5	0.035704333
49	0x3d580d1d	0.05274688
50	0xbcd7a97d	-0.026325935
51	0xbcfedb01	-0.031110289
52	0x3c828ea9	0.015937166
53	0x3d9cb99e	0.07652591
54	0x3d3c1d1c	0.0459262
55	0x3cb79a4e	0.022412445
56	0x3d3be262	0.045870192
57	0x3de904ec	0.11377892
58	0x3d9e4f2e	0.07729946
59	0x3cd5f790	0.026119024
60	0x3dbdbf96	0.09265058
61	0x3cc6cfd4	0.024269022
62	0xbccd7b04	-0.025083072
63	0xbba3bf3e	-0.004997163
64	0xbd38f08f	-0.04515129
65	0x3ce04307	0.027375711
66	0xbd86ad52	-0.06576027
67	0xbd1e8c1f	-0.03870785
68	0x3da0219a	0.07818909
69	0x3cd8e106	0.026474487
70	0xbcba6dbc	-0.022757404
71	0xbd1dffe5	-0.03857412
72	0x3d956a18	0.072956264
73	0x3dbaeee2	0.091275945
74	0x3d2937f6	0.041313134
75	0xbd1b677f	-0.0379405
76	0x3d1ca8e1	0.038246993
77	0x3d87d5b8	0.066325605
78	0x3ce2b4c2	0.027674083
79	0xbd268d1d	-0.04066192
80	0xbc03114c	-0.007999729
81	0x3da0b3fa	0.07846828
82	0x3d346763	0.04404391
83	0x3d011ce4	0.031521693
84	0x3dc65f40	0.09686136
85	0xbd569286	-0.05238583
86	0x3ccd2d5b	0.025046041
87	0x3d823376	0.06357472
88	0x3d032083	0.032013427
89	0x3d985872	0.074387446
90	0x39f0754e	0.00045863766
91	0xbd4426c5	-0.047888536
92	0x3d1473f5	0.036243398
93	0x3d56faca	0.052485265
94	0x3dddc226	0.108280465
95	0x3db889d9	0.09010667
96	0xbbeb586c	-0.0071821716
97	0x3c924e38	0.017859563
98	0x3db06ffe	0.08615111
99	0x3d139bc8	0.036037236
100	0xbb6937ef	-0.0035586318
101	0x3d7de823	0.06198896
102	0x3dcdf12e	0.10055767
103	0x3db20fd4	0.08694425
104	0x3d4d29f2	0.05008883
105	0xbc1a4f4a	-0.009418318
106	0x3dd00444	0.101570636
107	0x3dc00bc6	0.093772456
108	0x3d697462	0.056995757
109	0x3cae8022	0.021301333
110	0x3c952c0d	0.018209482
111	0x3d98225d	0.07428429
112	0xbbb85ee5	-0.0056265467
113	0x3d36ce34	0.044630244
114	0x3bdc072d	0.0067147226
115	0xbc44febd	-0.012023625
116	0x3d8b7385	0.06809143
117	0x3d66ad92	0.056317873
118	0x3cb950fd	0.022621626
119	0x3d31e97f	0.04343557
120	0x3d9da765	0.076979436
121	0x3dc7109f	0.09719967
122	0x3d5ddcee	0.054165773
123	0x3dad6c1a	0.08467884
124	0x3d56fb55	0.052485783
125	0x3c9e795f	0.019344984
126	0x3dbab96c	0.09117398
127	0xbc66d67c	-0.014089223

fc2.weight f4 [128, 128]
0	0x3d522162	0.051301368
1	0xbce32338	-0.027726755
2	0xbda80ca6	-0.082055375
3	0xbccc833a	-0.024964917
4	0x3d345d92	0.044034548
5	0xbca9a44f	-0.020708231
6	0x3c954ef2	0.01822612
7	0x3cbacbee	0.02280232
8	0x3d1f50d7	0.038895454
9	0x3c6d1443	0.014470163
10	0xbca26540	-0.01982367
11	0x3cb562f8	0.022141919
12	0x3c063b7c	0.008192893
13	0xbdc74530	-0.09729993
14	0xbd4fbe5f	-0.05071866
15	0xbd917b90	-0.07103646
16	0xbd74b0ce	-0.059738927
17	0xbdd05153	-0.10171761
18	0x3d6a6120	0.057221532
19	0x3d633dba	0.05547879
20	0x3b53f90a	0.0032344484
21	0x3d51d0b0	0.05122441
22	0x3d8219b7	0.06352561
23	0x3d4895b0	0.048970878
24	0xbc80652f	-0.015673248
25	0xbdb2a007	-0.08721929
26	0xbd52dd88	-0.0514808
27	0xbdc2720a	-0.094944075
28	0xbcc4b972	-0.024014208
29	0xbcad8b39	-0.02118455
30	0x3d894ad8	0.067037284
31	0xbdbdcadb	-0.09267207
32	0x3d6e647e	0.058201306
33	0xbd106528	-0.03525272
34	0xbda46322	-0.080267206
35	0x3d200f62	0.03907717
36	0xbcbb4964	-0.022862144
37	0xbd7694aa	-0.06020037
38	0xbd35ce17	-0.044385996
39	0xbdc55666	-0.0963562
40	0x3c3aa4b3	0.011391806
41	0x3d0e8994	0.034799173
42	0xbd48d813	-0.04903419
43	0xbd9c853b	-0.07642599
44	0xbd5285c2	-0.051397093
45	0x3d7a4388	0.06109956
46	0xbdb000ab	-0.085938774
47	0x3d6c565a	0.05769954
48	0xbb166a6b	-0.0022951614
49	0xbca09dc3	-0.019606477
50	0xbd0645ed	-0.03278153
51	0x3d509eb9	0.05093262
52	0x3b97ddd9	0.0046346006
53	0xbdcc2b76	-0.09969227
54	0xbd9b43be	-0.0758128
55	0xbca4de85	-0.020125637
56	0x3c5aa332	0.013344573
57	0x3d918c69	0.07106859
58	0xbcec0583	-0.028811222
59	0xbda88546	-0.08228545
60	0x3d91c3bb	0.07117411
61	0x3d8a8d05	0.067651786
62	0xbcc0e5e6	-0.023547124
63	0xbd434fe4	-0.04768361
64	0xbd96644b	-0.07343348
65	0x3d45c4df	0.048283454
66	0xbb91b3de	-0.0044464907
67	0xbdc8205c	-0.09771797
68	0xbda37871	-0.07981957
69	0x3d8e1e53	0.06939378
70	0xbd4c9073	-0.049942445
71	0xbd1fb2a3	-0.03898872
72	0x3c00595b	0.007833804
73	0xbcde994b	-0.027172705
74	0x3bdea8ec	0.0067950394
75	0x3d757e06	0.05993464
76	0xbd8ec735	-0.069715895
77	0x3d8fc52a	0.07020028
78	0xbc527d96	-0.012847325
79	0xbd2eefa8	-0.042709023
80	0xbdc3c066	-0.095581815
81	0xbc2a4c72	-0.010394203
82	0xbdd283a6	-0.10279016
83	0xbc4034d6	-0.011731347
84	0x3d341bf4	0.04397197
85	0x3c19a0a3	0.009376678
86	0xbc0efe23	-0.008727583
87	0x3c60bb52	0.013716536
88	0xbc3d8f64	-0.0115698315
89	0x3ac3b4cc	0.0014931201
90	0xbc224c4e	-0.009905888
91	0xbd157743	-0.03649069
92	0xbc4e7b52	-0.012602644
93	0xbb6019eb	-0.0034195136
94	0x3b9ea4cc	0.0048414227
95	0x3d388681	0.045050148
96	0x3d1c085c	0.03809391
97	0xbd78b457	-0.06071886
98	0xbd5a97c6	-0.0533674
99	0xbd225f8c	-0.0396419
100	0xbd6576c9	-0.056021485
101	0x3d2685eb	0.040655058
102	0xbdb54cbf	-0.08852529
103	0x3d432d44	0.04765059
104	0x3cf2df7b	0.02964758
105	0x3d90bc54	0.07067171
106	0x3d4539ee	0.04815095
107	0xbdaef94e	-0.08543645
108	0xbbc86652	-0.006115713
109	0x3d7010fd	0.05860995
110	0xbdcdbe69	-0.100460835
111	0xbd735ac0	-0.059412718
112	0x3d2a4169	0.041566286
113	0x3d9246e8	0.071424305
114	0x3d570ece	0.052504353
115	0xbd8bccf6	-0.068262026
116	0xbd5b327d	-0.053514946
117	0xbd0d7fb4	-0.034545615
118	0xbdd3bcf9	-0.10338778
119	0xbd49abb9	-0.049236033
120	0x3c86005f	0.016357599
121	0xbc1c94a6	-0.009556925
122	0xbdcef466	-0.10105209
123	0x3b0d98d7	0.0021605992
124	0xbd1eacde	-0.038739078
125	0x3c576f02	0.013149025
126	0xbd5da174	-0.05410905
127	0xbd7c9010	-0.061660826
128	0x3d017fff	0.031616207
129	0xbd045fa4	-0.032317773
130	0x3ca6cf7f	0.020362614
131	0xbd7bf79f	-0.061515447
132	0xbcb5625c	-0.022141628
133	0xbd8c0320	-0.068365335
134	0xbd5b05bd	-0.05347227
135	0x3d1a3679	0.037649605
136	0x3d304b74	0.043040708
137	0xbd9f89e2	-0.07789971
138	0x3bbe63ca	0.0058102356
139	0x3d09ebb4	0.03367205
140	0x3d4b0b6c	0.04957144
141	0xbd80a95f	-0.06282305
142	0xbd46def8	-0.048552483
143	0xbd821a9f	-0.06352734
144	0x3d3f1d4d	0.046658803
145	0xbd69cba8	-0.057078987
146	0xbda327b2	-0.07966556
147	0x3d1377f1	0.036003057
148	0x3d2ae383	0.04172088
149	0x3d52492e	0.05133932
150	0xbc510a3a	-0.012758786
151	0x3d6bf2c6	0.057604574
152	0xbd6a8b52	-0.057261772
153	0xbd0e4469	-0.03473321
154	0xbd55f7cd	-0.052238274
155	0x3d8b930b	0.068151556
156	0x3d9ef04d	0.077606775
157	0xbd178429	-0.036991272
158	0xbb5906d5	-0.0033115644
159	0xbbaf80ea	-0.005355944
160	0x3c869b37	0.016431434
161	0xbc25aec1	-0.010112465
162	0x3d875a3f	0.0660901
163	0xbc80168e	-0.015635755
164	0xbba0c6fa	-0.0049065324
165	0xbced35dc	-0.028956346
166	0x3cc1421c	0.023591094
167	0xbc901b24	-0.017591067
168	0xbd75e472	-0.060032316
169	0xbdad93b4	-0.08475438
170	0x3d943e1c	0.07238409
171	0xbcb20bb7	-0.021734102
172	0x3d91990c	0.071092695
173	0xbd0b08bf	-0.033943888
174	0x3d8cbb30	0.06871641
175	0x3d3b7bb1	0.04577226
176	0xbd83be0b	-0.06432732
177	0x3d722198	0.05911407
178	0xbcd90505	-0.026491651
179	0xbd028e01	-0.031873707
180	0x3c37b6d5	0.011213024
181	0xbd34944e	-0.044086747
182	0xbc85c8f2	-0.01633117
183	0xbd3bbc35	-0.045833785
184	0xbca5bc6f	-0.020231454
185	0x3d78d550	0.060750306
186	0xbc8797b9	-0.01655184
187	0x3ce202cd	0.027589226
188	0x3da18e92	0.07888521
189	0xbd34ef46	-0.0441735
190	0xbc4b5604	-0.012410644
191	0x3cdd3fef	0.027008025
192	0xbd8f3644	-0.06992772
193	0x3cc07ca9	0.023496943
194	0x3d29123d	0.04127716
195	0x3cbfe895	0.023426333
196	0x3d61ffff	0.055175778
197	0xbd546fd9	-0.05186448
198	0x3c5d2afd	0.013499019
199	0xbd596f49	-0.053084645
200	0x3c95ad04	0.018270977
201	0x3da5c5d4	0.08094373
202	0xbc08347f	-0.008313297
203	0xbd1dad4c	-0.038495347
204	0xbd2fa0de	-0.042878024
205	0xbd060e1b	-0.032728296
206	0x3d843ec4	0.06457284
207	0xbcd1583d	-0.02555477
208	0xbd12a0c2	-0.03579784
209	0xbca77bd6	-0.020444792
210	0xbd80530e	-0.062658414
211	0xbd6bf8c9	-0.057610307
212	0x3bbc742c	0.0057511535
213	0xbd991b1f	-0.07475876
214	0xbda16260	-0.07880092
215	0x3d4be574	0.04977937
216	0x3d9b2998	0.07576293
217	0xbd05dddf	-0.032682296
218	0xbd19d966	-0.037560843
219	0x3cd06d55	0.025442759
220	0x3c09508d	0.008381021
221	0x3d73abb8	0.059489936
222	0x3da25d1d	0.07927916
223	0xbd2c1e8f	-0.04202133
224	0x3bb5809b	0.0055390126
225	0xbd74592c	-0.059655353
226	0xbda72113	-0.08160605
227	0x3d33641e	0.04379665
228	0xbd785517	-0.060628023
229	0xbd9ca489	-0.0764857
230	0x3d6b0ece	0.057387166
231	0x3bac0dac	0.0052506533
232	0xbd3f66a2	-0.046728738
233	0x3d91ba91	0.07115663
234	0xbd9d60e1	-0.07684494
235	0xbda9b9a1	-0.08287359
236	0xbdbc549c	-0.091958255
237	0xbcb91bdd	-0.022596294
238	0xbbe72f65	-0.0070552104
239	0xbcc83647	-0.024439944
240	0x3ba95d66	0.0051686047
241	0xbc168c50	-0.009188727
242	0x3cbb22fc	0.02284383
243	0xbd835d4e	-0.06414281
244	0xbc6fa1f4	-0.014626015
245	0xbd6a48d8	-0.057198375
246	0x3d38d413	0.045124125
247	0x3d111d33	0.035428237
248	0xbcbc7072	-0.023002837
249	0xbcd44dd5	-0.02591602
250	0xbc801de0	-0.015639246
251	0x3d613dfb	0.05499075
252	0xbd5df169	-0.054185305
253	0x3d955790	0.07292092
254	0x3d985d60	0.07439685
255	0x3d6c2dac	0.057660744

fc2.bias f4 [128]
0	0x3d0adeba	0.033903815
1	0xbd501373	-0.0507998
2	0x3b03cc7a	0.0020110891
3	0x3d7acae8	0.061228663
4	0xbda1e5a3	-0.07905128
5	0x3d93a7bb	0.072097264
6	0xbc0c2b09	-0.008555182
7	0xbd14c641	-0.036321882
8	0x3d90b82a	0.070663765
9	0x3d9227ac	0.07136473
10	0x3dd9bae3	0.10631349
11	0x3d72849a	0.05920849
12	0xbd86d62e	-0.0658382
13	0x3d022866	0.03177681
14	0x3bf6cd91	0.0075318296
15	0x3c835158	0.016029999
16	0x3d3bbb26	0.045832776
17	0x3d84e86f	0.06489646
18	0xbbfd46f6	-0.0077294065
19	0xbb53137d	-0.003220766
20	0xbd8c5486	-0.06852059
21	0x3d67b8af	0.056572612
22	0xbd0cd469	-0.034382258
23	0xbd0dc651	-0.034612957
24	0x3d8e00ed	0.0693377
25	0xbd01f523	-0.03172792
26	0x3d345722	0.04402841
27	0xbb8007a7	-0.003907162
28	0xbcf45a21	-0.029828133
29	0x3cbbfba0	0.022947133
30	0xbd3af78c	-0.045646235
31	0x3d0cf8d3	0.034416985
32	0x3ca855cb	0.020548722
33	0x3dd820cc	0.105531305
34	0xbdb2f8d6	-0.08738868
35	0x3d85888a	0.065201834
36	0x3de3df28	0.11126548
37	0x3d2f83ff	0.04285049
38	0x3d0d1d90	0.03445202
39	0xbd013b6f	-0.03155082
40	0xbd8076f8	-0.062726915
41	0xbdaa6d3a	-0.083216146
42	0xbdb61acb	-0.08891829
43	0xbd34447f	-0.044010635
44	0x3d65b381	0.05607939
45	0xbd2adc1a	-0.04171381
46	0x3b8c0541	0.0042730873
47	0x3d04de64	0.03243865
48	0x3da4699d	0.08027957
49	0xbd597347	-0.053088453
50	0xb99ad02b	-0.00029528266
51	0x3d0f0f18	0.034926504
52	0x39f8f3e3	0.00047483956
53	0xbcf9b2a8	-0.030480698
54	0xbd3dfff7	-0.046386685
55	0x3d541f8b	0.051787894
56	0x3d71a507	0.058995273
57	0xbd2e66f8	-0.042578667
58	0xba955185	-0.0011392093
59	0xbd477939	-0.04869959
60	0xbda1a48b	-0.07892712
61	0x3a0ae399	0.0005298197
62	0xbd0f6bb0	-0.03501481
63	0x3d84797d	0.064684846
64	0xbcd2025a	-0.025635887
65	0xbd55f03b	-0.052231055
66	0xbdaa11d7	-0.08304184
67	0x3d4db1b6	0.050218306
68	0x3d71886c	0.058967993
69	0x3d866623	0.0656245
70	0xbc1d22ef	-0.009590848
71	0x3d782433	0.060581397
72	0x3dde5144	0.10855344
73	0x3abdb5b7	0.0014473711
74	0xbd0fe456	-0.035129867
75	0xbca532b5	-0.02016578
76	0xbccb0397	-0.024781985
77	0x3d5d47dc	0.05402361
78	0x3ca7eb0c	0.020497821
79	0x3d2ec080	0.04266405
80	0xbd4618df	-0.048363563
81	0x3d27bcfc	0.040951714
82	0x3de68545	0.11255888
83	0x3dbcfdf3	0.092281245
84	0x3dc254e0	0.09488845
85	0x3d0dea00	0.034646988
86	0x3cbf2566	0.023333263
87	0xbc007439	-0.00784021
88	0xbb942dce	-0.004522062
89	0x3dacb798	0.08433455
90	0x3dcb9dda	0.09942217
91	0xbcd320ef	-0.02577254
92	0x3da4d22f	0.08047902
93	0xbd532fbe	-0.051559202
94	0xbd0efa60	-0.034906745
95	0x3ca5b46a	0.02022763
96	0xbd9286e7	-0.07154637
97	0xbaa2fbb3	-0.0012434631
98	0xbd223ba6	-0.039607666
99	0xbda0c0f0	-0.078493
100	0x3d8eb5c1	0.069682606
101	0xbd782eba	-0.060591437
102	0x3dcc9931	0.099901564
103	0x3d4f24c6	0.05057218
104	0xbd0db93c	-0.03460048
105	0x3df3038c	0.11865911
106	0xbd0b6db9	-0.034040187
107	0xbbd9b861	-0.006644294
108	0x3da3244a	0.07965906
109	0x3a4e8efd	0.0007879583
110	0x3da9962f	0.08280598
111	0xbc82cec9	-0.015967743
112	0x3d8efcbd	0.069818
113	0xbcf8adb8	-0.030356273
114	0x3dbd272a	0.092359856
115	0xbd5862c8	-0.05282858
116	0x3d399db4	0.045316413
117	0x3d0c2a3a	0.034219958
118	0x3dea7fb3	0.11450138
119	0xbc7246fe	-0.014787434
120	0x3d45c135	0.04827996
121	0x3dab652f	0.083689086
122	0xbce05737	-0.027385337
123	0xbc5ca2f6	-0.013466587
124	0x3d9494e1	0.07254959
125	0xbd712124	-0.058869496
126	0x3deb4f35	0.11489717
127	0xbb1e12ac	-0.0024120016

fc3.weight f4 [5, 128]
0	0x3d642d8e	0.055707507
1	0xbbb19008	-0.005418781
2	0xbdd7c844	-0.105362445
3	0xbda08b20	-0.07839036
4	0xbd0f3c91	-0.03496987
5	0xbcf8893d	-0.030338878
6	0xbd64e48c	-0.05588202
7	0xbd136832	-0.03598804
8	0x3d17b1c1	0.037034754
9	0xbdcd97fc	-0.10038754
10	0xbc830af1	-0.015996428
11	0x3d2a1faf	0.041534122
12	0x3da37492	0.079812184
13	0x3c89f80a	0.016841907
14	0xbdee3949	-0.1163202
15	0xbcfd0dd3	-0.030890381
16	0xbdc0455f	-0.093882315
17	0x3d20d646	0.039266847
18	0x3d960fe6	0.07327251
19	0x3d1f809e	0.03894102
20	0x3d5077c4	0.050895467
21	0x3ca754da	0.020426203
22	0xbdbac646	-0.09119849
23	0xbdc13515	-0.09433953
24	0xbddf9b15	-0.109182514
25	0xbc83eb1e	-0.016103324
26	0x3bdb988a	0.0067015337
27	0xbddc7ed6	-0.107663795
28	0xbe06f78b	-0.13180368
29	0x3d77ea30	0.060526073
30	0xbdffeb56	-0.12496059
31	0xbdf29b3f	-0.11846017
32	0x3c721bd8	0.014777146
33	0xbdc2fa77	-0.09520429
34	0x3cbed888	0.02329661
35	0x3ca9e074	0.02073691
36	0x3d50083e	0.05078911
37	0x3d0938ca	0.033501424
38	0xbc799e3a	-0.015235478
39	0xbda122ae	-0.07867943
40	0x3cde36da	0.027125765
41	0xbd2dc8ce	-0.04242783
42	0x3d98e5e5	0.07465724
43	0xbcab6c77	-0.020925744
44	0xbc9892b8	-0.018624648
45	0xbd224696	-0.039618097
46	0x3d8f238c	0.06989202
47	0x3c1ee7da	0.009698832
48	0x3d24940b	0.040180247
49	0x3b4f98f8	0.003167687
50	0xbe028b9f	-0.12748574
51	0xbd9713ca	-0.07376821
52	0xbd2571f0	-0.040391862
53	0xbe0078fc	-0.12546152
54	0xbe02330b	-0.12714784
55	0xbd8967f6	-0.06709282
56	0x3c9173dd	0.017755443
57	0xbc791b6b	-0.015204291
58	0x3d96f87e	0.07371615
59	0xbda27fe3	-0.07934549
60	0x3d86511e	0.065584406
61	0x3d8c066f	0.068371646
62	0xbd829598	-0.06376189
63	0xbc250593	-0.01007213
64	0xbd7becee	-0.06150525
65	0xbda8b320	-0.082372904
66	0x3d23a9dc	0.039956912
67	0x3d05a389	0.032626662
68	0x3d82bea1	0.06384016
69	0x3c85aa17	0.016316457
70	0xbda708bc	-0.08155963
71	0x3ce87414	0.028375663
72	0xbdbea157	-0.09308117
73	0xbd5e8cc0	-0.05433345
74	0xbdca401e	-0.09875511
75	0xbdc71a10	-0.09721768
76	0x3da29a30	0.07939565
77	0xbd017e8f	-0.031614836
78	0x3a34b6f5	0.0006893718
79	0x3d0f58b2	0.034996696
80	0x3d3b3454	0.0457042
81	0x3d1d7005	0.03843691
82	0x3d5a65d7	0.05331978
83	0x3c85c294	0.016328134
84	0x3c66b8ce	0.014082147
85	0xbd524cd6	-0.051342808
86	0x3c40339d	0.011731056
87	0xbc1ea481	-0.0096827755
88	0xbd91742e	-0.07102238
89	0xbb47b968	-0.00304755
90	0xbd2e124a	-0.04249791
91	0xbd1d4246	-0.03839328
92	0xbb8e4bbc	-0.0043425243
93	0xbdf41653	-0.119183205
94	0x3d279429	0.04091278
95	0x3d0447fa	0.032295205
96	0x3da802ec	0.08203682
97	0xbdefbc9a	-0.11705895
98	0x3d083fb3	0.033263873
99	0xbd568eb9	-0.052382205
100	0x3c8a316e	0.016869273
101	0xbbdf2a7e	-0.0068104854
102	0xbd4eb852	-0.05046875
103	0xbda911ca	-0.08255346
104	0xbdf40961	-0.119158514
105	0xbc0db67a	-0.008649463
106	0x3d193d9b	0.037412267
107	0x3cb0e760	0.021594703
108	0xbc2d80e1	-0.010589809
109	0x3c8e863f	0.017397998
110	0xbd397c46	-0.045284532
111	0x3d3181eb	0.04333679
112	0xbde1e7c4	-0.11030534
113	0x3d3e7a51	0.04650337
114	0x3d5922db	0.053011756
115	0xbdcdd12e	-0.100496635
116	0x3a490681	0.00076685107
117	0xbd4600bb	-0.04834054
118	0xbd53d77d	-0.051719178
119	0x3d201dd2	0.03909094
120	0x3ce7afa6	0.028281998
121	0x3cbc382e	0.022976007
122	0xba445957	-0.00074901193
123	0xbdbb1e70	-0.09136665
124	0x3d2e7a34	0.04259701
125	0x3d59ff70	0.05322212
126	0xbd2a0138	-0.04150507
127	0xbddd762c	-0.10813555
128	0xbd8818ba	-0.06645341
129	0xbd32c895	-0.04364832
130	0x3d8edd6e	0.06975828
131	0x3da66b8c	0.08125982
132	0xbd01a209	-0.03164867
133	0x3dc11a1c	0.09428808
134	0x3c6af3ec	0.014340382
135	0xbca4913d	-0.020088786
136	0x3d074e99	0.03303394
137	0x3cf6d1fb	0.030129423
138	0x3dc42267	0.09576874
139	0xbd79bc83	-0.060970794
140	0xbc8ed0f8	-0.017433628
141	0xbcbef370	-0.02330944
142	0x3dc24939	0.09486622
143	0xbcf65eb2	-0.030074451
144	0xbc7858b2	-0.015157865
145	0xbc603226	-0.013683831
146	0xbd945ef4	-0.07244673
147	0x3d00db18	0.031458944
148	0x3b5aa17a	0.0033360408
149	0x3d79a763	0.060950648
150	0xbceb3075	-0.02870963
151	0x3d3a0407	0.045413997
152	0x3d12d825	0.035850663
153	0xbd84146c	-0.06449208
154	0x3cb6c899	0.02231245
155	0x3d24cbf7	0.04023358
156	0x3d8e4128	0.06946021
157	0xbd753a86	-0.059870265
158	0x3d8c7ac6	0.06859355
159	0x3db2147a	0.08695312
160	0xbd261513	-0.04054744
161	0x3d3082b9	0.043093417
162	0xbc68d35d	-0.014210549
163	0x3cf56044	0.02995313
164	0x3dfb2aad	0.12263999
165	0x3de9d8f9	0.114183374
166	0xbd5e3301	-0.05424786
167	0x3bade313	0.0053066104
168	0xbd39d4e8	-0.04536906
169	0x3d3825fe	0.044958107
170	0x3c139a65	0.0090089785
171	0x3cfea501	0.03108454
172	0xbd6123f7	-0.05496594
173	0xbc366ece	-0.011134816
174	0x3dbe975a	0.09306212
175	0x3df8de4b	0.12151774
176	0x3db42ae1	0.08797241
177	0xbd3fae3a	-0.046797015
178	0xbd1b975a	-0.037986137
179	0x3dc2a7d4	0.09504667
180	0x3d9aedb0	0.075648665
181	0xbc8acf77	-0.01694463
182	0x3df10a2e	0.1176952
183	0xbd5eaa73	-0.05436177
184	0x3d7df10f	0.06199747
185	0x3d1e6c8b	0.038677733
186	0x3d70f6c1	0.058829073
187	0xbd9f3024	-0.07772854
188	0xbc561d6d	-0.013068539
189	0xbd61c469	-0.055118952
190	0x3db5c34f	0.08875143
191	0x3df3e4e1	0.119088896
192	0xbd918754	-0.0710589
193	0xbd9bf9be	-0.07615994
194	0x3c9908ec	0.018681012
195	0xbc46f4ec	-0.012143355
196	0xbd4e6bf9	-0.05039594
197	0xbb1b3878	-0.002368478
198	0x3d7b1167	0.061295893
199	0x3db3df38	0.0878281
200	0x3de8cd00	0.11367226
201	0x3d7e9b84	0.06216003
202	0xbc222ea3	-0.009898814
203	0x3d715341	0.058917288
204	0x3c0256f8	0.007955305
205	0x3cbc6fa8	0.02300246
206	0xbd87b650	-0.0662657
207	0x3df0ca6e	0.117573604
208	0xbd426c42	-0.047466524
209	0x3cc867fe	0.02446365
210	0x3db324a1	0.08747221
211	0x3d24f9d6	0.040277325
212	0x3d4fce00	0.050733566
213	0x39d98164	0.0004148587
214	0x3bcaffff	0.006195068
215	0xbd9f74e9	-0.07785971
216	0x3dff318e	0.12460624
217	0x3dea53a7	0.11441737
218	0xbc004d9a	-0.007831002
219	0x3de97c05	0.11400608
220	0x3c770915	0.015077849
221	0xbcbc5938	-0.022991762
222	0xbd1b2539	-0.037877295
223	0xbda17fc7	-0.078857
224	0x3d5d6103	0.054047596
225	0xbc94d287	-0.018166794
226	0x3d0898b8	0.03334877
227	0xbd8c33da	-0.068458274
228	0xbcbd2fbb	-0.023094049
229	0x3d29ce6f	0.041456636
230	0x3da02dae	0.07821213
231	0x3a249558	0.00062783575
232	0x3af0ebf3	0.0018380865
233	0x3db26809	0.087112494
234	0xbd70eee9	-0.058821592
235	0x3e024e78	0.12725246
236	0x3e01a2db	0.1265978
237	0x3d3ce1c1	0.046113733
238	0x3d465921	0.048424844
239	0xbb062af6	-0.0020472384
240	0x3dfd1847	0.12358146
241	0x39c62b1b	0.0003779762
242	0x3d222ec2	0.039595373
243	0x3ca1ee58	0.019766971
244	0x3d688a13	0.056772303
245	0x3dc498e9	0.09599478
246	0x3cf1f9f4	0.029538132
247	0xbbf970e1	-0.007612333
248	0xbce38b34	-0.027776338
249	0x3d95cf24	0.073148996
250	0x3d89cd6b	0.067286335
251	0x3ce1ecaf	0.02757868
252	0xbcb42cca	-0.021994013
253	0x3c39a891	0.011331693
254	0xbc9602e2	-0.018311922
255	0x3d306e9a	0.043074228

fc3.bias f4 [5]
0	0xbd38da17	-0.04512986
1	0x3dc120bd	0.094300725
2	0x3d0a9da1	0.033841733
3	0x3d7185c1	0.05896545
4	0xbcf22278	-0.029557452

fc1.weight f4 [128, 147]
0	0xbd52cedb	-0.051466804
1	0xbbbef29d	-0.0058272616
2	0x3cc9d8fe	0.024639603
3	0x3dbeb748	0.09312302
4	0x3d5be8b5	0.053688724
5	0x3c9587a4	0.018253155
6	0xba4348f2	-0.00074495294
7	0xbcf80128	-0.030273989
8	0x3d72b5c3	0.059255373
9	0x3d8cdc19	0.06877918
10	0xbc8160f4	-0.015793301
11	0xbccf90ad	-0.025337541
12	0x3cf3b68a	0.029750127
13	0x3d69640a	0.05698017
14	0x3d5516a2	0.052023537
15	0xbd806a09	-0.062702246
16	0xbd496983	-0.04917289
17	0x3d8d09f6	0.068866655
18	0x3d9dc1cd	0.0770298
19	0x3d8fb9de	0.07017873
20	0xbd159494	-0.03651865
21	0x3ca09473	0.019602036
22	0x3b72f158	0.0037070122
23	0x3d36bcce	0.044613652
24	0xbce9b943	-0.028530722
25	0x3d38626f	0.04501575
26	0x3d7c9b9e	0.061671846
27	0x3c8692d8	0.016427442
28	0x3da14da6	0.078761384
29	0x3da1e256	0.07904498
30	0x3da03004	0.07821658
31	0x3d0abc43	0.033870947
32	0x3dc5617e	0.09637736
33	0x3c7c5cfa	0.015403027
34	0xbd1a89ab	-0.037728947
35	0x3d8bf420	0.068336725
36	0xbd8bce30	-0.068264365
37	0xbcdb954c	-0.026804589
38	0xbd647e72	-0.05578465
39	0xbcfec77c	-0.031100981
40	0xbd2620be	-0.04055857
41	0xbb4e7c80	-0.0031507313
42	0x3db984cd	0.09058533
43	0xbd453729	-0.048148308
44	0xbcf7737e	-0.030206438
45	0x3d8ae1e3	0.06781366
46	0x3dbac393	0.09119334
47	0xbc1b231f	-0.009468823
48	0x3d8eacb1	0.06966532
49	0xbc84d1a1	-0.01621324
50	0x3877e2ac	5.9100494e-05
51	0xbd461103	-0.048356067
52	0xbbfc9ef5	-0.007709379
53	0xbc3d82f7	-0.011566869
54	0xbd0a7b1f	-0.033808824
55	0x3dcb230c	0.09918794
56	0x3c730769	0.01483331
57	0x3daf3304	0.08554652
58	0xbd6a88a7	-0.057259228
59	0xbc8c1d7f	-0.017103909
60	0x3ce07f6c	0.02740451
61	0x3d82a418	0.06378955
62	0x3d302c8e	0.04301124
63	0xbd8b115c	-0.067904204
64	0x3bf5ec09	0.007504944
65	0xbcb6c907	-0.022312654
66	0xbcc16717	-0.023608727
67	0x3db4e254	0.08832231
68	0xbd63f735	-0.055655677
69	0x3dcecb43	0.10097363
70	0xbd8a0b23	-0.067404054
71	0xbd1e19b4	-0.03859873
72	0x3ca129e0	0.019673288
73	0xbc07eae9	-0.008295753
74	0xbce921ce	-0.028458502
75	0xbc9f0dfa	-0.019415844
76	0x3bb7bad9	0.005606991
77	0x3d7ad5e1	0.061239127
78	0x3d869981	0.06572247
79	0x3cec5739	0.028850185
80	0x3da94953	0.082659386
81	0xbcdb5159	-0.026772188
82	0xbd70c45c	-0.058781013
83	0x3da6ab6e	0.08138166
84	0x3c89d166	0.016823482
85	0xbcc68865	-0.02423496
86	0x3ccbcdd8	0.024878427
87	0x3dafe090	0.08587754
88	0x3d73ee3d	0.059553374
89	0x3d96b9c4	0.07359651
90	0xbc88e4fb	-0.016710749
91	0xbd681eb1	-0.056669895
92	0xbd081e53	-0.033232044
93	0x3db44e5d	0.08804009
94	0xbd46d933	-0.04854698
95	0xbd58786d	-0.052849222
96	0xbd881060	-0.06643748
97	0x3d38b757	0.04509672
98	0xbd315896	-0.043297373
99	0x3c5e7c8e	0.013579501
100	0x3dbd124b	0.09232005
101	0x3c66089a	0.014040137
102	0xbcca6a5a	-0.024708916
103	0x3d5b83a2	0.05359233
104	0x3dcf16e9	0.10111792
105	0x3cfe8d2c	0.031073175
106	0xbd12937c	-0.035785183
107	0x3c774acb	0.015093516
108	0xbd4e8e96	-0.05042895
109	0xbd105513	-0.035237383
110	0x3c820432	0.015871141
111	0xbb805e3a	-0.0039174827
112	0x3d2118b3	0.039330196
113	0xbcc0b773	-0.023524975
114	0xbd92f2fb	-0.07175251
115	0xbd7232a7	-0.059130337
116	0x3d28842e	0.04114168
117	0xbd8baac6	-0.06819682
118	0x3d64beac	0.0558459
119	0xbcabc8c0	-0.020969748
120	0x3d55bb28	0.05218044
121	0x3d593d05	0.05303671
122	0x3be192a0	0.006883934
123	0xbd3c8717	-0.04602727
124	0xbcdb533a	-0.026773084
125	0xbd0ffcfb	-0.03515337
126	0x3c1f3610	0.009717479
127	0x3d7bc7ff	0.061470028
128	0x3cee4351	0.029084833
129	0xbc24d239	-0.010059887
130	0x3dc3817d	0.09546182
131	0x3dc52f80	0.096282005
132	0xbb7677bd	-0.003760799
133	0x3ce900dd	0.028442794
134	0xbd29d147	-0.041459348
135	0xbcec1936	-0.028820615
136	0xbd2b0347	-0.041751172
137	0x3c3318fc	0.01093125
138	0x3d94df9a	0.07269211
139	0xbd0bc1a9	-0.034120236
140	0xbbfad60a	-0.00765491
141	0x3c2c3c5a	0.010512436
142	0x3db6ff31	0.08935393
143	0x3cdc2a82	0.026875738
144	0xbc4e47d2	-0.0125903655
145	0xbd3e4edb	-0.04646192
146	0x3d883835	0.06651346
147	0xbb9241c0	-0.0044634044
148	0x3db608fc	0.088884324
149	0xbce7ad42	-0.028280858
150	0xbd785bc7	-0.0606344
151	0x3d1878e0	0.03722465
152	0xbb899100	-0.0041981936
153	0xbce28f67	-0.02765627
154	0x3ca0d7be	0.019634124
155	0xbc48e000	-0.012260437
156	0xbd5c14a8	-0.053730637
157	0x3da2b73c	0.079451054
158	0x3c0e6972	0.008692132
159	0xbd44854f	-0.047978695
160	0x3da72370	0.08161056
161	0x3dd7ecd5	0.10543219
162	0x3dc7c0f1	0.097535975
163	0x3cffd626	0.031230044
164	0x3dcae733	0.09907379
165	0xbc5a8ea7	-0.013339675
166	0x3da541be	0.0806918
167	0xbccd3440	-0.025049329
168	0x3c785040	0.015155852
169	0xbc178664	-0.00924835
170	0x3d8b1788	0.067915976
171	0x3dc78f07	0.09744077
172	0x3c970d5f	0.018438993
173	0x3df292a5	0.118443765
174	0xbd8387c5	-0.0642238
175	0x3ca42846	0.020038735
176	0x3c9d4d03	0.019201761
177	0xba4ca0ab	-0.0007805924
178	0x3b9f1924	0.004855292
179	0x3c36942d	0.011143726
180	0x3d19f39e	0.037585847
181	0x3bc1e1ec	0.0059168246
182	0xbc136a75	-0.008997549
183	0x3d39a0d4	0.045319393
184	0x3d5062d2	0.050875492
185	0x39da81fc	0.00041677046
186	0x3dcc220c	0.099674314
187	0x3d1cc25b	0.03827129
188	0x3db5a47f	0.08869266
189	0xbcf5b442	-0.02999318
190	0x3d9e2fac	0.077239364
191	0x3dc9cf3f	0.09853982
192	0x3d8f9779	0.07011313
193	0x3d08c950	0.03339511
194	0x3c88cb9a	0.016698647
195	0xbc6acad2	-0.014330583
196	0x3cb59810	0.022167236
197	0x3d369ecf	0.044585045
198	0xba6a8c8a	-0.00089473336
199	0x3dc38282	0.09546377
200	0x3d34f2a3	0.04417671
201	0x3dd57476	0.10422604
202	0x3ac712ca	0.0015188095
203	0x3da26eb3	0.079312705
204	0xbc5cd782	-0.013479115
205	0x3c9acc18	0.018896148
206	0x3cf3f5c7	0.029780282
207	0x3daace62	0.08340146
208	0xbcacb7e1	-0.021083774
209	0x3d398bad	0.04529922
210	0x3da0e183	0.07855513
211	0x3d6b1b72	0.05739922
212	0x3c42159b	0.011845971
213	0x3dda2498	0.10651511
214	0xbcd3e2f9	-0.025865065
215	0xbd75bfbf	-0.059997316
216	0xbbc60cee	-0.006044022
217	0x3c9048dd	0.017612869
218	0x3c654809	0.013994225
219	0xbcc70f1a	-0.024299193
220	0x3ddb5940	0.107103825
221	0x3d3ed6ef	0.046591695
222	0x3badae5c	0.0053003263
223	0x3d21f832	0.039543338
224	0x3c93ee61	0.018058004
225	0x3d2f6fcb	0.042831223
226	0x3db1891b	0.08668729
227	0x3ded0635	0.115734495
228	0xbc5b1ff2	-0.013374316
229	0x3dcb038f	0.09912788
230	0x3de46851	0.11152709
231	0xbc9378ca	-0.018001933
232	0x3c3ee4f2	0.0116512645
233	0x3d6d2ce7	0.05790415
234	0x3d69b410	0.057056487
235	0x3bf0797d	0.0073387013
236	0xbcf3c7d3	-0.02975837
237	0x3dd6b315	0.10483376
238	0xbd858ab9	-0.065206
239	0x3dc3503e	0.09536789
240	0x3dd9485d	0.10609505
241	0xbc864852	-0.016391907
242	0xbcafd9c9	-0.021466153
243	0x3d916081	0.07098485
244	0x3dc6b9ff	0.09703445
245	0xbd5e9138	-0.05433771
246	0xbd93c98f	-0.072161786
247	0xbd41f286	-0.04735043
248	0x3d280052	0.04101593
249	0x3d5e39ae	0.054254226
250	0x3d0cf451	0.034412686
251	0x3d40163f	0.046896216
252	0x3db6bc41	0.08922625
253	0xbd350cb2	-0.04420156
254	0x3d2f49fb	0.042795163
255	0xbd96b621	-0.07358957

fc1.bias f4 [128]
0	0x3d66d4c3	0.05635525
1	0x3a138053	0.0005626727
2	0x3dc9e222	0.098575845
3	0x3cd4bedb	0.025969913
4	0x3d86acae	0.06575905
5	0x3d8cc9a0	0.068743944
6	0xbd0046a6	-0.031317376
7	0xbd3161b0	-0.043306053
8	0x3c8350d0	0.016029745
9	0x3cb14f7a	0.021644343
10	0xbd31d510	-0.043416083
11	0x3c1de973	0.009638178
12	0x3dbe2ce2	0.092859045
13	0x3d4cb7b0	0.049979866
14	0xb9e607c8	-0.00043874816
15	0x3da6db48	0.08147293
16	0x3b0d5bc0	0.002156958
17	0x3da294ef	0.07938563
18	0xbd2073e8	-0.039173037
19	0x3dcb70ec	0.099336475
20	0xbcfe7b46	-0.03106464
21	0xbd0808f2	-0.033211656
22	0x3dcb7bcc	0.09935722
23	0xbd9fdfb4	-0.0780634
24	0x3d2b3da7	0.041806843
25	0x3d2b64e5	0.041844267
26	0x3ce08ae4	0.027409978
27	0xbcf85826	-0.03031547
28	0x3dad2051	0.084534295
29	0x3de788cf	0.11305391
30	0x3c93c130	0.018036455
31	0xbca8bbda	-0.020597387
32	0xbce0e735	-0.027453998
33	0x3de3067b	0.110852204
34	0x3db93803	0.090438865
35	0xbc2e7e5a	-0.010650242
36	0x3d9e4538	0.07728046
37	0xbd0c004c	-0.03417997
38	0xbd0171e1	-0.031602744
39	0xbcd10c7c	-0.025518648
40	0x3d9d7149	0.07687623
41	0x3dc75814	0.097335964
42	0x3dc067e1	0.09394813
43	0x3dc9672c	0.098341316
44	0xbcf1d794	-0.029521741
45	0x3dbcc6fb	0.0921764
46	0x3da689d3	0.08131757
47	0x3dc68d68	0.0969494
48	0x3d001697	0.031271543
49	0x3de2d33e	0.110754475
50	0x3d33bcf2	0.043881364
51	0x3db674f6	0.08909027
52	0x3db08b5d	0.086203314
53	0x3d299073	0.041397523
54	0x3da66e25	0.08126477
55	0x3d6c191d	0.057641137
56	0x3d62d0e2	0.055374987
57	0x3dda9a31	0.10673941
58	0xbd2f696f	-0.04282516
59	0x3dc6a0a6	0.0969861
60	0x3baf947a	0.005358276
61	0x3cef428b	0.029206535
62	0xbc52adf9	-0.012858861
63	0x3da4f113	0.08053794
64	0xbc7fd8f3	-0.01561569
65	0x3bb640bc	0.005561916
66	0x3dabe704	0.08393672
67	0x3dd8d8b8	0.10588211
68	0xbd044d43	-0.032300245
69	0x3bf19bca	0.007373308
70	0x3d3416dd	0.043967117
71	0x3dca817f	0.09887981
72	0x3d8a14f2	0.06742276
73	0x3dac0ad5	0.084005035
74	0xbb11fa8e	-0.0022274586
75	0x3d540cf8	0.05177018
76	0x3da70b3f	0.08156442
77	0x3db97f5e	0.090574965
78	0x3cbb6bac	0.02287849
79	0xbcc5617c	-0.024094336
80	0x3dd15c38	0.102226675
81	0x3da80adc	0.08205196
82	0x3cfceb17	0.030873818
83	0x3d4f01b0	0.05053872
84	0xbd136f98	-0.035995096
85	0xbc23e178	-0.010002486
86	0x3c605f12	0.0136945415
87	0xbc9234df	-0.017847477
88	0x3c84435a	0.016145397
89	0xbd0685bf	-0.032842394
90	0x3d3409a2	0.0439545
91	0x3db0d943	0.086351894
92	0x3d3216a6	0.04347863
93	0x3b2914ec	0.0025799824
94	0xbcad35fc	-0.021143906
95	0x3db76bdc	0.089561194
96	0xbcb5f404	-0.022211082
97	0x3d32565a	0.043539383
98	0x3d4b52c1	0.049639467
99	0x3d2c79b3	0.04210825
100	0x3d1295e9	0.035787497
101	0x3d836e33	0.06417503
102	0x3d63f7d9	0.055656288
103	0xbc019e54	-0.0079112835
104	0x3d0f6692	0.035009928
105	0x3d68a97b	0.056802254
106	0x3cedf82d	0.029049003
107	0x3d18496b	0.03717939
108	0x3dd7117c	0.10501382
109	0x3c17ac4f	0.00925739
110	0x3cb4e07b	0.022079697
111	0x3b9665b0	0.004589759
112	0x3c50f696	0.012754103
113	0x3d729481	0.059223656
114	0x3d7a34d9	0.061085556
115	0x3ccd7cdb	0.02508395
116	0x3da472b4	0.080296904
117	0xbd1c61c4	-0.038179174
118	0x3d51ced1	0.051222626
119	0xbcf0f1c5	-0.02941216
120	0x3dd02a63	0.101643346
121	0x3dbbcd36	0.0917
122	0x3cc0fb9f	0.023557482
123	0xba039758	-0.00050198054
124	0x3d1f6a83	0.038919937
125	0xbd11fbdb	-0.03564058
126	0x3d07dc56	0.033169113
127	0xbcc918e0	-0.024547994

fc2.weight f4 [128, 128]
0	0x3d8454a4	0.064614564
1	0x3d7aaa7d	0.061197747
2	0xbd202fb4	-0.039107993
3	0xbd487eb8	-0.048948973
4	0xbdc45fdb	-0.095885955
5	0xbd96ada4	-0.07357338
6	0xbc01463a	-0.0078902785
7	0x3d3083bf	0.043094393
8	0xbd855609	-0.065105505
9	0xbd0c8c7c	-0.034313664
10	0xbcbc7afb	-0.02300786
11	0x3d729dfb	0.059232693
12	0x3c4e1f87	0.012580759
13	0xbc6cb135	-0.014446546
14	0x3c238e35	0.009982635
15	0x3d962e00	0.073329926
16	0xbd298703	-0.041388523
17	0xbd46cf1b	-0.048537355
18	0xbd4e7cdb	-0.05041204
19	0x3d8f5a3a	0.06999631
20	0x3d64cc42	0.055858858
21	0xbd84b699	-0.0648014
22	0x3d6b0dfa	0.057386376
23	0x3cfa6b75	0.030568818
24	0x3d3ca291	0.046053473
25	0xbd869382	-0.06571104
26	0x3c6f977c	0.014623519
27	0xbd8da228	-0.069156945
28	0xbd270dbe	-0.04078459
29	0xbca37da2	-0.019957367
30	0xbc8ca2e7	-0.017167522
31	0x3c902d6b	0.017599782
32	0xbd8b01b0	-0.06787431
33	0x3d5d5774	0.05403848
34	0x3b81c9f7	0.0039608437
35	0xbd66f59d	-0.05638658
36	0xbd193a53	-0.037409138
37	0xbcb3343c	-0.021875493
38	0xbdb02221	-0.086002596
39	0xbdb3212e	-0.08746563
40	0xbdb18d96	-0.086695835
41	0xbd294268	-0.041323096
42	0xbd92f435	-0.07175485
43	0xbdaab89c	-0.08335993
44	0xbdbd614f	-0.09247076
45	0xbdc331ad	-0.09530959
46	0x3d89ba81	0.06725026
47	0xbdac8b76	-0.084250376
48	0xbbafaaaa	-0.005360921
49	0x3d3305c6	0.043706678
50	0x3d5d6de9	0.054059897
51	0x3cea7786	0.028621446
52	0x3d8104ce	0.062997445
53	0xbac0f77a	-0.0014722191
54	0x3b80fab4	0.003936136
55	0xbd1cab15	-0.038249094
56	0x3d589e25	0.052885193
57	0x3b974bcd	0.0046171905
58	0xbd561687	-0.052267577
59	0xbda04e2b	-0.07827409
60	0x3c40ff73	0.011779654
61	0x3d90fb5f	0.07079195
62	0x3d0f2051	0.03494293
63	0xbd7c5629	-0.061605606
64	0xbdca1fae	-0.09869324
65	0x3d33765a	0.04381404
66	0x3d3fa976	0.04679247
67	0xbbd61550	-0.0065333024
68	0xbdba2204	-0.09088519
69	0xbc4cb125	-0.012493406
70	0x3d5dc8d2	0.054146595
71	0xbd9f034e	-0.07764302
72	0xbd3c5a5a	-0.045984603
73	0xbd142790	-0.036170542
74	0x3d0e3db2	0.034726806
75	0x3d95905b	0.07302924
76	0x3c3a3575	0.011365284
77	0xbd786a65	-0.06064834
78	0x3d2d5b36	0.042323314
79	0xbc899ea2	-0.016799275
80	0xbadbf99a	-0.0016782761
81	0xbda021a8	-0.078189194
82	0x3c567e36	0.0130916145
83	0xbd4e46c7	-0.050360467
84	0xbcbb1cab	-0.022840818
85	0x3d0ee91f	0.03489029
86	0x3d485518	0.048909277
87	0x3d82b491	0.063820966
88	0xbab03a6a	-0.0013445143
89	0xbcf34f56	-0.029700916
90	0x3d7eb82e	0.062187366
91	0x3d919e98	0.071103275
92	0x3c6c26ee	0.014413578
93	0xbd8e5b24	-0.069509774
94	0xbdd00bee	-0.101585254
95	0xbd814124	-0.06311253
96	0xbcff43b5	-0.031160215
97	0xbdc46a1c	-0.09590551
98	0xbd17ddeb	-0.03707687
99	0xbd8b5569	-0.068034
100	0x3d2818e2	0.041039355
101	0xbd01443a	-0.031559207
102	0xbd4ab645	-0.049490232
103	0xbd017a07	-0.031610515
104	0xbd008ab2	-0.03138227
105	0x3cf45893	0.029827392
106	0xbc97bafa	-0.018521775
107	0xbd06fbd6	-0.032955013
108	0x3c64609c	0.013939049
109	0xbd656242	-0.05600191
110	0xbdc46310	-0.09589207
111	0x3d8e2ee1	0.06942535
112	0xbd2ed005	-0.04267885
113	0x3d7e2d6f	0.062055048
114	0xbd198d1b	-0.037488084
115	0xbcd81713	-0.02637819
116	0xbd86d8cb	-0.06584319
117	0xbd707ff8	-0.05871579
118	0xbd752268	-0.059847265
119	0xbd83af08	-0.06429869
120	0xbc78d3df	-0.015187233
121	0xbc92bbf4	-0.017911889
122	0x3caedcfc	0.021345608
123	0x3d668338	0.056277484
124	0xbdaa8774	-0.08326617
125	0x3b96ee22	0.0046060244
126	0xbdb69435	-0.08914987
127	0x3ceef2ac	0.02916845
128	0x3d609149	0.054826055
129	0xbce68454	-0.02813927
130	0xbd24708f	-0.040146407
131	0x3d708406	0.058719657
132	0xbdcc8f09	-0.09988219
133	0xbda4c7cd	-0.080459215
134	0x3d260098	0.04052791
135	0x3d9afb96	0.075675175
136	0x3c8cee06	0.017203342
137	0x3d6494f4	0.055806115
138	0x3d4ef442	0.05052591
139	0xbd9bf50a	-0.07615097
140	0x3d03925d	0.032122005
141	0xbdaaa48c	-0.08332166
142	0x3cf266f1	0.029590102
143	0x3d8f6c55	0.070030846
144	0x3cff60a1	0.031174006
145	0xbcaa43d4	-0.020784296
146	0x3d613878	0.054985493
147	0xbd479629	-0.04872719
148	0xbcad7cf2	-0.021177743
149	0xbd98e1cc	-0.07464942
150	0x3d5fcbec	0.054637834
151	0x3da1e2fc	0.07904622
152	0xbbd34278	-0.0064471327
153	0x3b56a5be	0.0032752599
154	0xbb041ccd	-0.0020158768
155	0x3d81fd2e	0.06347118
156	0xbdb96fd3	-0.09054532
157	0xbda832e4	-0.082128316
158	0x3c08a405	0.008339887
159	0xbcb23935	-0.021755794
160	0x3d921b1d	0.07134078
161	0x3d0b1674	0.03395696
162	0xbd52cad5	-0.051462967
163	0xbd4af97c	-0.049554333
164	0xbd885369	-0.06656534
165	0xbd2d65e1	-0.042333487
166	0xbc972465	-0.018449971
167	0xbd53625b	-0.05160747
168	0x3d83026a	0.06396945
169	0x3d20bfae	0.0392453
170	0x3d199810	0.037498534
171	0xbda7865b	-0.08179923
172	0xbd6dfcf2	-0.058102556
173	0x3d63bce9	0.05560008
174	0xbb3c4d76	-0.0028732694
175	0xbccd2b02	-0.025044922
176	0xbdc3de42	-0.09563877
177	0x3c2339c6	0.009962505
178	0x3d5752d0	0.05256921
179	0x3c712978	0.01471936
180	0x3cde9e12	0.027174983
181	0xbc3e8d6e	-0.011630399
182	0xbb169a0b	-0.002298
183	0x3c82c11e	0.015961226
184	0xbd73e750	-0.05954677
185	0xbd92c343	-0.071661495
186	0x3d829aea	0.06377204
187	0x3bf511fb	0.00747895
188	0x3c8b9fab	0.017043909
189	0x3d54f866	0.051994704
190	0xbd6a5e47	-0.057218816
191	0x3c86544a	0.016397614
192	0xbd806402	-0.06269075
193	0x3d4ea497	0.050449934
194	0x3d424810	0.047432005
195	0x3cac228d	0.021012569
196	0xbd4e1e38	-0.050321788
197	0xbd2074ee	-0.039174013
198	0xbc1e4aae	-0.00966136
199	0xbda24c85	-0.07924751
200	0xbc64aa20	-0.013956577
201	0x3d7aeda6	0.061261795
202	0x3d120ea9	0.035658512
203	0xbda1373a	-0.07871862
204	0xbd566e20	-0.052351117
205	0xbd04cfbd	-0.032424677
206	0x3c7a390d	0.015272391
207	0xbcd5b99e	-0.026089486
208	0xbd9f3c02	-0.077751175
209	0xbc91cb75	-0.017797211
210	0x3d5b6c30	0.053569973
211	0xbcd1a625	-0.02559192
212	0xbd10a2a5	-0.03531136
213	0x3cc204b3	0.023683881
214	0x39d2f253	0.00040234867
215	0xbd8adb8e	-0.06780158
216	0xbd10cbb8	-0.03535053
217	0x3d801398	0.06253737
218	0xbd51a15b	-0.05117927
219	0x3ad9b05e	0.0016608348
220	0xbc64cff8	-0.013965599
221	0xbd9809d0	-0.074237466
222	0xbcb0193a	-0.021496404
223	0xbd122501	-0.03567982
224	0xbcb4e9d9	-0.022084164
225	0xbda51488	-0.08060557
226	0xba6dd623	-0.00090727414
227	0x3d133fa4	0.035949364
228	0xbdb6f0e3	-0.08932664
229	0xbcea3453	-0.028589403
230	0x3cd6fa30	0.026242346
231	0x3cbeec61	0.023306074
232	0x3d02e472	0.031956144
233	0xbd94977f	-0.07255458
234	0x3d66f436	0.05638524
235	0xbc603186	-0.013683682
236	0x3d3062aa	0.043062843
237	0xbcd8713f	-0.026421187
238	0x3d006af5	0.031352002
239	0xbdc6be7d	-0.097043015
240	0x3cf5240f	0.02992442
241	0xbd7ebd43	-0.062192213
242	0x3ce47ed1	0.027892502
243	0xbcd08282	-0.025452856
244	0x3d3c1b02	0.045924194
245	0x3bd4e113	0.0064965575
246	0xbb2fab5a	-0.0026805014
247	0xbd313b16	-0.04326924
248	0x3d43ce9d	0.047804464
249	0x3d00308f	0.03129631
250	0xbd1bed3c	-0.03806804
251	0x3b9b9301	0.004747749
252	0x3d4dc61a	0.050237752
253	0x3cf473c2	0.029840354
254	0x3d409cf3	0.04702468
255	0xbd9c5788	-0.07633883

fc2.bias f4 [128]
0	0x3d479d00	0.04873371
1	0x3abfdf4b	0.001463869
2	0xbda2b870	-0.07945335
3	0x3c548910	0.012972131
4	0xbcc9b755	-0.024623552
5	0x3d81b288	0.0633288
6	0xbce95954	-0.028484978
7	0x3cc3bb6e	0.023893084
8	0x3c5bb308	0.013409384
9	0x3d724495	0.059147436
10	0xbdb09be3	-0.08623483
11	0x3d42ea35	0.04758664
12	0xbcea904f	-0.028633265
13	0x3da70df6	0.0815696
14	0xbd6c9dab	-0.05776755
15	0x3dc8462f	0.097790115
16	0x3c6c3482	0.014416816
17	0x3db9dcb4	0.09075299
18	0x3d7178c7	0.058953073
19	0xbba06599	-0.004894924
20	0x3b31808c	0.0027084677
21	0xbce05761	-0.027385416
22	0xbd9d6e2d	-0.0768703
23	0x3dad4e17	0.0846216
24	0x3ddc1edb	0.10748073
25	0xbd44a6f2	-0.048010774
26	0x3d84afae	0.06478821
27	0x39bcd32d	0.00036015493
28	0x3d40cd8b	0.04707102
29	0xbcec8b10	-0.028874904
30	0x3da62c48	0.08113915
31	0xbd1a8aec	-0.037730142
32	0xbd547ee4	-0.051878825
33	0x3cc5772b	0.024104675
34	0xbd49d8a5	-0.049278874
35	0xbc13f6f3	-0.009031045
36	0x3d929562	0.07157399
37	0x3db5b857	0.08873051
38	0xbda007cc	-0.07813987
39	0xbd9c7719	-0.076399036
40	0x3db31f60	0.08746219
41	0xbd0c5eeb	-0.03427021
42	0x3d2c0110	0.0419932
43	0x3d744987	0.059640434
44	0x3d4cb162	0.049973853
45	0xbd885e7a	-0.06658645
46	0x3cfd83db	0.030946663
47	0xbd990084	-0.074708015
48	0x3d560b2d	0.05225675
49	0x3d1cfe27	0.038328316
50	0x3d164a39	0.036691878
51	0xbd04b258	-0.032396644
52	0x3d8abd1d	0.06774352
53	0xbcb181b6	-0.021668296
54	0x3cef7802	0.029232029
55	0x3dd5e6f8	0.104444444
56	0xbc9d06dd	-0.019168312
57	0x3dcea374	0.1008977
58	0xbdb567f6	-0.088577196
59	0x3d0cf240	0.034410715
60	0x3cf2f985	0.029659996
61	0x3ba6a58a	0.0050856518
62	0x3d44665a	0.047949173
63	0xbd608d9e	-0.054822557
64	0x3d12f8a2	0.035881646
65	0x3d87f165	0.06637839
66	0x3cd2ee4c	0.025748394
67	0x3c1ecac8	0.0096919015
68	0x3de0ca16	0.10976045
69	0x3ce39866	0.02778263
70	0x3d92fde7	0.07177334
71	0xbda49adb	-0.08037349
72	0xba1bca95	-0.0005942968
73	0x3dda82ef	0.10669505
74	0xbd1196a1	-0.03554404
75	0x3c4d4af8	0.012530081
76	0xbd964026	-0.07336454
77	0x3d80cdb7	0.06289237
78	0xbd278491	-0.04089791
79	0x3ceffd85	0.029295692
80	0xbd0e0177	-0.034669366
81	0x3d0ad2d2	0.03389246
82	0xbd912c57	-0.07088535
83	0xbd434951	-0.04767734
84	0x3d3f4fcc	0.04670696
85	0x3da00eb5	0.07815305
86	0x3db4ab7d	0.08821771
87	0x3d002908	0.03128913
88	0x3d581920	0.052758336
89	0xbd828764	-0.0637348
90	0x3d98e5a0	0.074656725
91	0x3cbd79c3	0.02312935
92	0x3d932f29	0.071867295
93	0xbd279352	-0.04091198
94	0xbdc1d8cd	-0.094651796
95	0xbc1d3219	-0.009594464
96	0x3d43d2ae	0.04780834
97	0xbd4af8bd	-0.04955362
98	0x3cf5a399	0.029985236
99	0xbd352645	-0.04422595
100	0xbd904ff0	-0.07046497
101	0x3cf16b90	0.029470235
102	0x3d412a3a	0.04715941
103	0xbc7f3960	-0.015577644
104	0x3c8ea931	0.017414661
105	0x3d97207d	0.073792435
106	0xbd5d5818	-0.05403909
107	0x3dcd98fa	0.100389436
108	0xbda3cda3	-0.079982065
109	0x3cec9a0f	0.028882055
110	0xbc565ae0	-0.01308319
111	0x3d198692	0.037481852
112	0xbce9b020	-0.028526366
113	0xbcc42de5	-0.023947665
114	0x3da8116c	0.08206448
115	0xbdb081ad	-0.08618484
116	0x3d6a6812	0.057228155
117	0xbd12f387	-0.035876777
118	0xbd4d0372	-0.050052114
119	0xbcbc53bb	-0.022989145
120	0x3da55247	0.08072334
121	0x3dc5dadb	0.09660884
122	0x3dbe2916	0.0928518
123	0xbd40f339	-0.047106955
124	0xbd5bbda2	-0.053647645
125	0xbce3b366	-0.027795505
126	0x3bc31d5f	0.005954429
127	0xbc0383e9	-0.008027055
