logs/maddpg_checkpoint_ep100.pth (torch, 585614 bytes, 24 tensors)

fc1.weight f4 [128, 147]
00000000: 3bb7 dfbc 5ac4 47bd 671c b83c 55c6 973d
00000010: c5e3 573d def7 163d 44a0 243d c4ec 813d
00000020: 6900 64bd 3abb 89bd 9521 c7bc 9b98 82bc
00000030: aefd b7bb 4ab9 09bd 64c6 9e3d 3ffe c23c
00000040: 724a 56bc d853 93bb d9e1 67bd 13ab 9fbd
00000050: ff37 6d3d 8e9d 883d 3712 df3b 36dd 6e3c
00000060: 37fe 8a3d c435 63b9 9d29 9fbd 4654 73bd
00000070: 30ce 7ebd dbc8 ef3c 2947 ab3d 76be 873c
00000080: 1648 95bd f8a3 7fbc b488 9dbc 7280 b2bc
00000090: 1c16 0b3d 1b91 71bc 2b08 5d3d 4fbe bfbc
000000a0: d32b 663d 9c81 583d 618f 823c d4c2 a5bc
000000b0: 48de d43c 5d2b 8c3d 638b 3d3c 0f72 81bd
000000c0: cfe9 4dbc da44 4ebd c17f 393d 8f89 92bc
000000d0: bf3d 9bbd 9493 753d 9842 953d 1c08 69bd
000000e0: 6225 293d f277 14bc bfed 8a3c bcdd a93d
000000f0: 07c5 ffbc ac74 29bd 81c8 a43d 8d64 d23c
00000100: a324 203c 9352 25bd cd6b 84bd 3a0d 743b
00000110: 1ce9 433d f333 6c3c 9e4a cbbb 0ec1 b43c
00000120: 6e8c 00bd 3947 87bc b3c8 a83d bf1e f5bc
00000130: 5923 883d 5aad 8f3d a557 5e3d 0c92 773d
00000140: 6740 9a3d 0602 8e3d 1125 15bd 862b 8c3d
00000150: bf50 b0bc da5d 8cbd eb30 a53b 1e38 30bc
00000160: 0436 83bd 1367 7b3d e44c 1c3d 988c 243c
00000170: bd27 48bd a677 5cbd 7e2e 0cbd 9ee9 cd3c
00000180: 35d4 52bd 0236 4f3d 70d5 663d 965f 62bd
00000190: 158e 35bc 51cf 563d c51a 373d 6b26 03bc
000001a0: 67b2 fd3c 9d8d 773d 5094 a1bd 896d 3f3c
000001b0: 9d23 b83c 685f bcbc 7cc0 5ebd 181f 1b3d
000001c0: e180 843d ddac a73d 32e1 86bd 8048 aa3d
000001d0: 12b8 4dbb cc8d 2e3d f777 0a3d 385a 45bd
000001e0: 2dcf 8bbd 9bfd 49bd b9f7 9b3d 5a95 ea3c
000001f0: c7a4 9b3d 6e17 2fbd ae20 ac3d 7fae 883d
00000200: 81fc 68bd b843 09b9 734b 5abd 114e 50bd
00000210: adcc dc3c 0b34 58bc f630 87bd d2e8 a3bc
00000220: 88c9 5e3d 6193 8ebd 0e24 a3bd e98d a3bd
00000230: 84d5 4d3d dd3b 683d cb80 23bd 6aab 41bd
00000240: 37ee 7ebc 7a32 84bc a884 153c 2ed4 573d
00000250: c3bc fe3b a96d 88bc c8e8 b33d d530 603d
00000260: 32fa 04bd 96cf 533c 7666 fb3c 8045 f03c
00000270: 34b0 0e3a 63de 2cbd 96e4 7bbd 7844 383d
00000280: 70c7 823d c805 6c3a 3cad 7ebd 1e3d 94bc
00000290: 443f eb3c 0135 563d eb2b 64bd 835b 9b3d
000002a0: 638f 993d fde6 cf3c a757 4e3d ef29 da3b
000002b0: 6282 b13d c4a9 8c3c ad38 54bd 9e2e 4cbd
000002c0: dd10 4cbd 9a0e 6fbc 5b14 40bd c5ae 853d
000002d0: 4ea4 08bd b963 273c 1681 b6bc e622 ddbb
000002e0: 19f5 a73d 632b dfbc 11c4 67bd 77aa 5ebd
000002f0: 4db4 c53c 1c01 21bd fead 193c 744d b93c
00000300: 957c 19bd 4c13 b63d 5c8e 82bd 6bfa 87bd
00000310: 20f1 be3c e38c 91bc 21ff bd3d 08d2 38bd
00000320: 7e7f ebbc 2452 29bd 0db6 c53c ec56 5fbd
00000330: 2eae 6bbd 8e5c 3a3c f2a7 f03c 84b1 6dbd
00000340: 714a 0bba 5b5c 10bd 5eed edbb bcd3 0b3c
00000350: 95eb 023d 5044 62b8 e632 9c3d db9a 903d
00000360: 43e7 233c 27ff 1d3c b29d 023d f2db 9f3d
00000370: 515d 6ebd b802 9a3d af33 1d3d a73c 383b
00000380: a3e4 44bd d358 8f3d 0b37 5dbc f5db c43d
00000390: 7590 23bd 0d81 8c3d 8d27 4d3d 91d0 e6bc
000003a0: 0925 19bd 5ae4 a3ba bf9e 3e3d fa8d 96bd
000003b0: d638 88bd fad6 363d f969 8ebd 12ab 9dbb
000003c0: d786 873d 0714 8a3d dc2e 393d 9042 783c
000003d0: 8f1a 49bd 3d73 d43a b08a 483c 76a3 56bd
000003e0: 350c 693d 5608 a13d f03d 26bc 8ef4 3bbd
000003f0: 5e12 5dbd 30e0 b2bc 7731 44bd caa2 b73d
-0.02730905 -0.04877124 0.02247448 0.07410876 0.052707452 0.03685748 0.040191904 0.063439876
-0.055664454 -0.06725164 -0.024308005 -0.015941909 -0.005614958 -0.03362397 0.07752684 0.023802875
-0.013079273 -0.004496079 -0.05661187 -0.07796302 0.05791473 0.06670676 0.0068075913 0.014579108
0.06786769 -0.00021668436 -0.07771609 -0.05940654 -0.062208354 0.02927058 0.08363182 0.016570311
-0.0728914 -0.015603058 -0.019230224 -0.021789763 0.033956632 -0.0147440685 0.053962868 -0.023406176
0.056194138 0.05285798 0.015937509 -0.020234503 0.025984898 0.068442084 0.011568877 -0.06320583
-0.012567951 -0.05035863 0.04528785 -0.017887859 -0.075801365 0.059955195 0.072880924 -0.0568925
0.041295417 -0.0090618 0.01695907 0.082942456 -0.03122188 -0.041371033 0.080460556 0.025682712
0.00977436 -0.040361952 -0.06465874 0.003723933 0.047829732 0.0144166825 -0.0062039634 0.022064712
-0.031383924 -0.016513454 0.08241405 -0.029921887 0.06647367 0.07015486 0.054282803 0.060442016
0.07531815 0.0693398 -0.036412302 0.06844239 -0.021522878 -0.06853838 0.005041232 -0.010755567
-0.06406787 0.061377596 0.038159266 0.010043286 -0.048866022 -0.053825043 -0.034224026 0.025135811
-0.051471908 0.050588615 0.056355894 -0.05526694 -0.011081238 0.052443806 0.044703264 -0.008004765
0.030968858 0.060437787 -0.078896165 0.01168383 0.02247792 -0.022994712 -0.054382786 0.03787145
0.06469894 0.08187268 -0.06585921 0.083146095 -0.0031390232 0.042615697 0.033805814 -0.048181742
-0.06826625 -0.049314123 0.07615609 0.02863567 0.07599788 -0.042746954 0.08404671 0.066739075
-0.05688143 -0.00013090565 -0.05329461 -0.0508557 0.026953066 -0.013196002 -0.066011354 -0.020008478
0.054391414 -0.06961704 -0.07965861 -0.079860516 0.050252452 0.056697715 -0.03991775 -0.047282614
-0.0155597245 -0.01613735 0.009125866 0.052692585 0.007773967 -0.016653853 0.08784634 0.05473407
-0.032465167 0.01292791 0.030688506 0.029330015 0.00054431264 -0.042204272 -0.061497293 0.044987172
0.06385696 0.0009003547 -0.062176928 -0.01809555 0.02871669 0.052296642 -0.055705946 0.07585814
0.07498052 0.025378698 0.05037656 0.006657831 0.08667447 0.017170794 -0.051811863 -0.049849145
-0.04982077 -0.014590884 -0.046894412 0.06527475 -0.03335982 0.010216647 -0.02227835 -0.006748545
0.082010455 -0.027242368 -0.056583468 -0.054361787 0.024133826 -0.0393077 0.009379862 0.02261994
-0.037472326 0.08890399 -0.06374809 -0.0663956 0.023308337 -0.017767375 0.092771776 -0.045122176
-0.028747316 -0.0413381 0.02413466 -0.054526255 -0.057539158 0.011374606 0.029376958 -0.05803062
-0.0005313522 -0.035244327 -0.0072609624 0.008534368 0.03196295 -5.394622e-05 0.076268956 0.07060786
0.010003868 0.009643353 0.03188867 0.07805623 -0.058194462 0.0752005 0.038379367 0.0028112323
-0.048069607 0.06999364 -0.013501893 0.09612266 -0.039932687 0.06860552 0.050086547 -0.028175624
-0.037388835 -0.0012503967 0.04653811 -0.07351299 -0.066514656 0.04463861 -0.069538064 -0.004811653
0.066175155 0.06742101 0.045210704 0.0151525885 -0.049097594 0.001620866 0.012240097 -0.052401982
0.056896407 0.07862918 -0.010146603 -0.045887522 -0.053972594 -0.021835417 -0.047898736 0.089665964

fc1.bias f4 [128]
00000000: 6014 393c fb9f 24bd e278 063d 4141 bc3c
00000010: 6f2b 993d 9baa f0bc 28e0 4f3d 8677 0dbd
00000020: 5b9c 223d 81c8 003d f8c9 9f3c 3a5a 56bd
00000030: 1789 72bd a584 d2bc b3d3 7bbc 4d91 4abd
00000040: d79c 28bd 8b2e 773d 3718 a33c 1e4c 3ebd
00000050: 61e3 9abc 8c46 0c3c 1a3d c03d 1533 56bd
00000060: ee6b 353c bcb0 953d 42b2 6e3c 7a7f c33d
00000070: fbf2 2bbd 816a c8bc d38f 1bbd 41bb c0bb
00000080: cda9 8dbc 1326 77bd f660 43bd d49c 883d
00000090: 98ff 0b3d 5d3b 8fbd 44ca 30bd 34e7 8abd
000000a0: 0cae 343b f576 6cbd d210 bf3d 926b a1bc
000000b0: ec60 d63c f04e dabb 1e58 703c a7d8 7d3d
000000c0: 0453 e73b 9589 f63c cd82 52bd 87a3 7cbd
000000d0: d03a a2bb 6d0a 5d3d b752 873c f4cc 75bb
000000e0: 6b0c 963c 3510 b63d 8278 473d 3004 ac3a
000000f0: 4aff 7f3d f352 5abb bd21 b6bc d749 00bd
00000100: 95db 59bd 4cc4 e4ba d395 a9bd 17fc 87bd
00000110: f810 383d 5f3e e6bb 8f0a 58bd 5745 86bd
00000120: 5aba 373d b078 883d b187 473c 9c4f a3bd
00000130: a003 8e3c dbf2 233d 9ca1 13bc e311 95bd
00000140: 712f 13bd e754 3a3d aff7 8a3c 0814 cd3b
00000150: 0561 8f3d a6c4 68bd 3053 b4ba a782 0c3d
00000160: 48e1 b8b9 187a 373d a52d cfbc 7190 34bd
00000170: 4487 a93b 871d c63c 18b8 ae3d 4281 883d
00000180: c45a 09bd a932 0ebc 7427 553d 3731 393c
00000190: 1e49 22bd 8301 113d ab9c 9f3d b4dd 743d
000001a0: f7af b63c d741 3dbd 4e20 9c3d 4ea6 7e3d
000001b0: a146 063d dc37 afbb 1c0b d2bb 7872 413d
000001c0: dbf5 0bbd b9bf b13c b83e c4bc 6871 1dbd
000001d0: 1c94 083d 82bf 013d ee3e 3dbc 9aca 4e3c
000001e0: 0864 483d 1fae 943d 6e6e 8b3c a0b4 443d
000001f0: 4eab c63c ab56 43bc 2c91 8b3d efc4 3fbd
0.011296362 -0.04019163 0.032830127 0.022980334 0.074789874 -0.029378226 0.05075088 -0.034537815
0.039699893 0.031441215 0.019505486 -0.05233214 -0.05921277 -0.025698015 -0.015370297 -0.049454976
-0.0411652 0.06034712 0.019909007 -0.04645931 -0.01890725 0.008561742 0.09386654 -0.05229481
0.011073096 0.073091 0.014568867 0.095457986 -0.04197977 -0.024464848 -0.03797896 -0.0058816974
-0.017292881 -0.060339045 -0.04769989 0.066705376 0.0341793 -0.069937445 -0.043161646 -0.0678238
0.002756956 -0.057730634 0.0932938 -0.019704614 0.026169263 -0.006662242 0.014669446 0.061974194
0.007059457 0.030094901 -0.051394273 -0.06167939 -0.0049508587 0.05396502 0.016518934 -0.0037506195
0.018316468 0.0888981 0.04869891 0.0013123807 0.062499322 -0.0033313602 -0.022232885 -0.03132042
-0.053187925 -0.001745352 -0.0828053 -0.06639879 0.044938058 -0.007026478 -0.052744444 -0.06556194
0.044855453 0.06663644 0.012178347 -0.07974169 0.017335713 0.040026527 -0.009010699 -0.07278802
-0.035933916 0.045491125 0.016963808 0.0062584914 0.07000927 -0.056828164 -0.0013757702 0.034304287
-0.00035263062 0.044794172 -0.02529032 -0.044083063 0.0051735956 0.024184002 0.08531207 0.06665279
-0.033533826 -0.0086790705 0.05203958 0.011303238 -0.03962051 0.035401832 0.07793554 0.059781745
0.022300703 -0.046205368 0.07623349 0.06217032 0.0327822 -0.005347235 -0.0064100157 0.047228307
-0.034170013 0.021697866 -0.023955688 -0.03843823 0.033344373 0.031676777 -0.011550648 0.012621546
0.048923522 0.072597735 0.01702043 0.04802382 0.024251606 -0.011922519 0.06814799 -0.04681867

fc2.weight f4 [128, 128]
00000000: d99c 613d 0b21 c5bc b8b7 a1bd 1b0d aebc
00000010: 612a 413d 4360 8abc c576 b13c ca26 d53c
00000020: 7e98 2b3d 3c35 943c a5b5 8cbc a511 cf3c
00000030: 8a20 403c b8a4 bfbd 421a 4dbd 4946 8bbd
00000040: 2131 69bd dff3 c9bd b672 793d 07c3 733d
00000050: d813 da3b 1a43 5f3d cea5 883d 60cb 4c3d
00000060: b5b6 5cbc 84e8 abbd 2643 44bd 98cb bcbd
00000070: 747e a7bc ddef 94bc dc9d 903d cd1f b7bd
00000080: a8ea 7c3d aa6d 07bd 08f1 9dbd 0169 2e3d
00000090: 0bf3 9cbc 01d1 6abd ce53 29bd 0bf7 bebd
000000a0: 90af 763c 4e72 1d3d 6955 3abd cb4e 96bd
000000b0: 2aa4 41bd bba6 833d 595d acbd 351c 7c3d
000000c0: 24d2 9b3a 526d 83bc 3d13 efbc 34da 603d
000000d0: 569a d83b 2c20 c6bd 5ab4 92bd d6a3 8abc
000000e0: 34a0 8a3c 0c7e 983d d987 d2bc 2e8e a2bd
000000f0: 7dd1 983d 69e1 913d b759 bcbc e71c 37bd
00000100: fca7 94bd b65c 593d aa08 62bb c9ff c1bd
00000110: 77a8 9ebd e314 963d 7720 40bd f04e 0fbd
00000120: e7fe 3f3c 0ee6 c2bc d640 2c3c d954 773d
00000130: 3c35 8cbd 1904 973d f459 1fbc 27fb 1fbd
00000140: 7a54 bcbd e493 edbb 3d65 ccbd 8d5e 08bc
00000150: c2ad 413d c476 2d3c ca96 a1bb 7c02 8d3c
00000160: 978a f8bb c824 903b 1379 cebb db80 14bd
00000170: ca4d 15bc 9cbe a539 60cb 023c 9e83 473d
00000180: 3d14 293d ce91 6bbd 1c62 50bd dcc0 12bd
00000190: f580 53bd bd8c 353d e048 aebd d968 543d
000001a0: 6788 073d 10c5 963d f90f 543d db3b a8bd
000001b0: 7d02 2abb 3d82 7f3d a693 c6bd d59c 65bd
000001c0: ece6 3a3d 7eb7 993d ec2a 663d d3df 83bd
000001d0: bf9c 51bd bdc5 ffbc 18a2 ccbd 37b4 3bbd
000001e0: 4847 a53c b4ae d6bb 89e5 cabd bceb 883b
000001f0: aeb3 10bd 5dfd 843c d4da 50bd 014d 71bd
00000200: 9783 013d 97b9 02bd a8a8 b03c 30ab 76bd
00000210: 247e adbc f244 8abd fad9 55bd 8968 1f3d
00000220: 779b 353d e47b 9fbd 75b5 bf3b 573e 0e3d
00000230: 948a 503d 5da7 80bd 6cde 46bd 22b5 7ebd
00000240: be18 443d 3a09 69bd a225 a3bd 72dc 133d
00000250: 80a9 303d 6d64 523d f303 40bc 57f4 6b3d
00000260: 7ffc 69bd a52e 08bd 158d 52bd 682f 8e3d
00000270: 50b1 a13d 4ada 14bd 12de 56bb 3101 83bb
00000280: 18c5 863c cbad 25bc 7407 8a3d 9e2a 79bc
00000290: 4f8b a0bb 2735 edbc 537d c43c ab18 90bc
000002a0: e6e2 75bd fb8e adbd 06ba 963d a25b a7bc
000002b0: 90b1 943d db00 05bd e9ce 8e3d 0a83 3b3d
000002c0: 7cbb 83bd eb51 743d 6986 d7bc 3a20 f9bc
000002d0: c9b7 373c a7a6 2ebd 35a0 85bc 5e68 36bd
000002e0: 852b 9fbc ab51 7d3d f52a 81bc 850e eb3c
000002f0: b7fa a33d 803d 2fbd 3452 4bbc 5888 e83c
00000300: a135 8fbd 3517 c43c 8d14 293d fc6d ca3c
00000310: d92c 673d 666c 54bd b32e 5d3c bc07 56bd
00000320: 1dbc 9f3c 4544 a83d 2afe fbbb d0a4 1dbd
00000330: a87a 2fbd f673 00bd 7260 873d 4957 d1bc
00000340: 8d92 0cbd 217a a7bc 8d90 7bbd e5cd 65bd
00000350: 35b0 bc3b 1f1b 99bd f23b 9fbd 071e 523d
00000360: 202a 9b3d e71f 01bd ad8c 15bd 936f d03c
00000370: ef54 133c f438 773d 4737 a43d 8e57 26bd
00000380: 18ad e43b 554c 6fbd 5312 a7bd bc5e 373d
00000390: 4150 78bd 5bb7 99bd 7820 6e3d f625 ac3b
000003a0: b443 3fbd b2ba 913d e07a 9abd 2e95 a7bd
000003b0: fd47 bbbd 90cc b8bc 55b6 bdbb b313 c1bc
000003c0: 805d a93b c0e4 01bc 7867 c73c babd 82bd
000003d0: 695e 60bc 9a96 68bd 9fbc 3e3d 4b62 133d
000003e0: 99a6 b1bc bb2d cabc bd15 80bc 0041 613d
000003f0: 62e4 5bbd a884 953d 43c5 993d 3b68 6e3d
0.055081222 -0.024063608 -0.0789637 -0.021246484 0.047159556 -0.016891604 0.021663079 0.026019473
0.041893475 0.01809179 -0.017176459 0.025276968 0.011726508 -0.093575895 -0.05007387 -0.06800515
-0.05693162 -0.09860968 0.060900412 0.059512164 0.0066551976 0.054507352 0.0667225 0.04999864
-0.013471295 -0.08393958 -0.0479156 -0.0921852 -0.02044604 -0.018180782 0.07061359 -0.089416124
0.061747223 -0.03306357 -0.07711989 0.04258061 -0.01915886 -0.057328228 -0.041339688 -0.093244635
0.015056506 0.038439088 -0.04549161 -0.07339247 -0.0472757 0.06428286 -0.08416242 0.061550338
0.0011888188 -0.016043339 -0.029183978 0.054895595 0.006610195 -0.09674105 -0.071633056 -0.016923826
0.016922094 0.074459165 -0.025699543 -0.07937275 0.07461832 0.07123072 -0.022991998 -0.044705298
-0.07258603 0.05306693 -0.0034490027 -0.09472615 -0.07746976 0.073282026 -0.04690596 -0.03498739
0.011718488 -0.02379134 0.010513505 0.06038365 -0.06846091 0.073738284 -0.009726036 -0.039057877
-0.091958 -0.007250296 -0.09980247 -0.008323324 0.04728485 0.010587398 -0.0049313055 0.017213099
-0.0075848806 0.004398916 -0.0063010543 -0.0362557 -0.009112785 0.00031613267 0.007983059 0.048709504
0.041279066 -0.057512097 -0.050874814 -0.035828456 -0.051636655 0.04432367 -0.085099936 0.051857803
0.033089068 0.073618054 0.051773045 -0.082145415 -0.0025941425 0.062380064 -0.096961305 -0.05605777
0.04563038 0.075057015 0.056193277 -0.064391755 -0.051174875 -0.031222219 -0.099918544 -0.045826163
0.020175591 -0.006551588 -0.099070616 0.0041784924 -0.035327606 0.016234094 -0.05098994 -0.058911327
0.031619634 -0.031915274 0.021564797 -0.06022185 -0.021178313 -0.067514315 -0.05220983 0.038918052
0.044337716 -0.07787302 0.005850489 0.03472742 0.05091341 -0.06281922 -0.04855196 -0.06218446
0.04787516 -0.056893565 -0.07966162 0.036098905 0.043130398 0.051365305 -0.011719692 0.057606068
-0.057125565 -0.03324761 -0.051404078 0.06942636 0.07895148 -0.03634099 -0.0032786173 -0.0039979448
0.016451403 -0.010112236 0.06739703 -0.015207915 -0.0048994194 -0.02895601 0.02398554 -0.017589888
-0.06003084 -0.08474537 0.073597 -0.020429436 0.0726043 -0.03247152 0.06973059 0.045779265
-0.06432244 0.059648436 -0.026309209 -0.030410875 0.011213251 -0.0426394 -0.016311744 -0.044533126
-0.019429931 0.061845463 -0.015767554 0.028693447 0.080068044 -0.04278326 -0.0124097355 0.028385326
-0.06992651 0.023936847 0.041279364 0.024710648 0.056439254 -0.05186119 0.0134999035 -0.05225347
0.01949888 0.082161464 -0.007690211 -0.038487256 -0.042841583 -0.03136059 0.06610192 -0.025554316
-0.03431945 -0.020443978 -0.06141715 -0.05610456 0.00575831 -0.07475876 -0.077751055 0.051298168
0.07576394 -0.031524565 -0.036511112 0.025443828 0.008992418 0.06035705 0.08018356 -0.040610842
0.006978642 -0.058422405 -0.08157792 0.04476808 -0.06062341 -0.075056754 0.058136433 0.0052535487
-0.046695426 0.071156874 -0.07542968 -0.08182751 -0.0914459 -0.02255848 -0.005789558 -0.023568964
0.005168617 -0.007928073 0.02434133 -0.06383844 -0.013694384 -0.05678425 0.0465666 0.03598241
-0.021685885 -0.02468001 -0.015635366 0.05499363 -0.0536846 0.07300693 0.07508328 0.05820487

fc2.bias f4 [128]
00000000: e7ac 163d e0f9 4bbd d5af 68bc 7b3d 053d
00000010: a3e5 a1bd d32c 663d 777e 03bd e8a8 7cbd
00000020: 5ba9 713d d01e 473d a874 ab3d 69c5 733d
00000030: 1d0c 85bd fc68 6b3c 85fc 75bc 246e ebbb
00000040: 763e d73c 4b39 403d 0ded c7bb 9d4e e4bc
00000050: a222 8bbd a62e 043d 96c0 4dbd d063 76bd
00000060: b937 373d b388 00bd 3556 373d 861e a1bc
00000070: b7f6 6fbd 8e49 c43c dcf9 abbd e2d9 503c
00000080: 6fbf a83b 30bc b53d f6c0 b2bd 540b 8a3d
00000090: e96c af3d 1965 c03c 4191 0f3d 6b33 7abd
000000a0: cd21 7ebd 3a6d aabd eb19 b6bd d30b 94bd
000000b0: a8e4 673d ca49 29bd ca71 9c3b f4e4 343b
000000c0: eaf6 803d 10bd 53bd 9d3d a0bc 8921 733c
000000d0: d5cc a3bc 9a38 53bd a9b3 93bd f968 563d
000000e0: 2869 2f3d c1c4 2bbd 687f 6bba 0e47 47bd
000000f0: 83c6 9fbd e70c bb3a 4323 72bd 3a23 3c3d
00000100: af39 c7bc a10d 52bd ce44 a8bd 076c 4e3d
00000110: 8000 733d 3624 8c3d 75eb f1bc 7fbf 193d
00000120: a655 bc3d 766b 8fbc 9c17 64bd 3231 12bd
00000130: cd3d c7bc 0c34 613d 5617 b33c 236d d03c
00000140: 9f76 44bd d6de c83c 5a62 c53d 651f 863d
00000150: e583 973d d0fe 9a3c 2e3a ce3c 6a45 00bc
00000160: d4fe acbc cd45 8a3d e908 983d 98a8 4fbd
00000170: d132 743d 116b 9bbd 3f94 0dbd 06f0 a63c
00000180: 3cc8 8fbd fed7 c6bc 10a0 75bd c949 9cbd
00000190: 5908 943d 9ebf 8cbd 5b17 ab3d ff84 073d
000001a0: c2c4 92bd 31e4 c73d b0e3 09bd aa2c 21bd
000001b0: 0860 7c3d 6d2b 803a 2cd1 633d 953f 80bc
000001c0: 7134 523d f9cc f7bc 411e 9a3d 5ba5 92bd
000001d0: eaa4 e93c 95a5 3d3c 3733 c83d 628a 6cbc
000001e0: 1196 4a3d 08eb 623d 9645 dcbc 9c3b 16bd
000001f0: 1def 993d 3eed 64bd 0d5b cc3d d004 b4bc
0.036785986 -0.049798846 -0.014202078 0.032529335 -0.07905128 0.05619509 -0.03210303 -0.06168452
0.0589994 0.04861337 0.0837186 0.059514437 -0.06496451 0.014368292 -0.015013819 -0.0071847606
0.0262749 0.04692964 -0.0061012567 -0.027869517 -0.06793715 0.03227105 -0.050232492 -0.060153782
0.044730876 -0.031380367 0.044759948 -0.019667875 -0.058584895 0.023960855 -0.08397266 0.01274726
0.005149774 0.088737845 -0.08728211 0.06740442 0.08565695 0.023485707 0.035050634 -0.061084192
-0.062043954 -0.083216146 -0.08891662 -0.07228818 0.056614548 -0.041330136 0.004774307 0.0027602287
0.06297095 -0.051693976 -0.01956063 0.014839538 -0.019995132 -0.05156765 -0.07212002 0.052346203
0.042824894 -0.041935686 -0.00089835236 -0.048651747 -0.07801535 0.0014270813 -0.05911566 0.045932032
-0.024319498 -0.05128253 -0.082162485 0.05039599 0.05932665 0.06842844 -0.02953122 0.03753614
0.09196024 -0.017507296 -0.05568658 -0.035691448 -0.024321461 0.054981276 0.021861713 0.025442665
-0.04796469 0.024520319 0.096379 0.06548957 0.07398204 0.018920332 0.025174227 -0.00782905
-0.021117605 0.06751595 0.074235745 -0.050697893 0.059618775 -0.07588781 -0.034565207 0.020378124
-0.070206136 -0.024272915 -0.0599671 -0.07631261 0.07228155 -0.068724856 0.08354064 0.03308582
-0.07166435 0.09760321 -0.033664405 -0.039349236 0.06161502 0.0009778567 0.055619404 -0.015655318
0.051319543 -0.030249106 0.07525302 -0.07160445 0.02852102 0.011575122 0.097753935 -0.01443729
0.04945952 0.055399925 -0.02688865 -0.03667794 0.0751631 -0.055890314 0.09978304 -0.021974951

fc3.weight f4 [5, 128]
00000000: 8085 6a3d 19bc 9bbb 0d1b a4bd 0908 3dbd
00000010: 913c 0fbd d3f4 0abc a7fa ccbc abb0 ebba
00000020: 4c36 623d 55bb 93bd c32c cf3b 80e8 2a3d
00000030: b949 a63d 9d5d 2c3d 4d03 b3bd e349 9d3a
00000040: add1 8ebd 2370 833d 0e24 983d 20df 873d
00000050: 4523 533d 8847 533d 53b7 85bd 2b6c 80bd
00000060: 741c 9ebd 2992 81bc ae8e 043c 15a7 a9bd
00000070: 6245 c1bd f93f 7a3d 0e7e a4bd 26fa babd
00000080: c66e 1f3d c42e 96bd 70ee c03c 9550 b43c
00000090: 7a37 953d f617 703d 5ed2 71bc 5546 2dbd
000000a0: 6a3a e53c cec8 2dbd 97e6 983d 99ae 6a3c
000000b0: 356f 95bc 150e 21bd 65f5 8f3d 7363 1c3d
000000c0: 71b7 803d 49b6 aa3b eea8 c8bd 3f27 51bd
000000d0: 6e99 34bc 712a c3bd 6e4d bcbd db38 88bd
000000e0: 8df5 2c3d eb77 63bc ae37 983d 4a5a a2bd
000000f0: 82a7 873d 07b6 8d3d 9777 04bd f57b 523c
00000100: 881b 75bd 1635 a5bd 3d19 253d 1e22 063d
00000110: a220 833d a1f2 933c 3e67 58bd 169b 583d
00000120: 1884 93bd 80db e6bc f15d 8abd 9c1f 96bd
00000130: 451a a33d ff0f febc e589 bd3a b736 6b3d
00000140: ef29 3d3d 6b59 7c3d ea78 993d 1be5 263d
00000150: fa90 123d f31d e7bc 1c1e 583c 1d6d 1ebc
00000160: c2a2 3ebd 9e44 9a3c d1d1 94bc a086 cdbb
00000170: 2558 953c c575 aebd 00f7 273d e5a0 043d
00000180: 1458 a83d d200 abbd 4aeb 763d 2bcb 4bbd
00000190: ed06 943c f3f8 663c 422e e1bc f617 6dbd
000001a0: 6e8f 9bbd 4685 493c 7830 1a3d 5a5a 683d
000001b0: c27c 7f3c 84c0 903c e8fd b3bc b355 323d
000001c0: d854 b4bd 90bf 3e3d 15f4 9b3d 8fb7 93bd
000001d0: 5c92 be3c 0a67 a6bc 7eca f0bc c6a4 203d
000001e0: 2cff ec3c 2269 713d de09 71b9 bffb 78bd
000001f0: 57cd 343d be69 5f3d 1e39 a3bc 065b a1bd
00000200: 1a30 8bbd b66f 35bd c2ff 223d 87c4 333d
00000210: 09a2 01bd 5a12 8c3d f313 b0bc a0e8 72bd
00000220: 2288 213c 46b1 45bb 4c98 8d3d 1869 7abd
00000230: 7458 9cbc b7f8 58bd 291b 793d de5b 89bd
00000240: e659 33bd d904 2fbd 9055 96bd 70b9 5cba
00000250: 1ab5 343b fbd1 ca3c 6b29 72bd 6359 0b3c
00000260: 23f4 a0ba a589 84bd 06a3 ab3c 7769 353c
00000270: a3f3 d73c d162 77bd f76a c13c a17a 603d
00000280: 9000 8dbd 8cfb 8b3c 4870 80bc 7e36 eb3c
00000290: f69b c53d 48dc ac3d 00ea 5fbd 7298 16bd
000002a0: ba90 3cbd fe25 383d a095 133c 285b 1dbc
000002b0: 8d8c 62bd 264e 3abc a1dc bd3d 0b06 b43d
000002c0: e283 7a3d cbb8 47bd ea3c 94bd eb64 8b3d
000002d0: e98a 293d 0214 55bd e58c 9d3d b7db 60bd
000002e0: a599 083d d73c 1a3d 72d0 6e3d af55 9fbd
000002f0: d6fb 5fbc e3d6 64bd 5586 553d 0b03 bc3d
00000300: 52e6 93bd 5b31 9fbd 6428 963c ae8c 48bc
00000310: 1a16 4fbd ca15 86bb 1751 e13c 8fec 703d
00000320: e7a6 b53d e62d ff3c 6c3e 3dbd e6f8 f93c
00000330: 902f fd3b 89c9 b73c 9d2b 89bd bd58 ba3d
00000340: c121 44bd be07 38bb 8d5e 7d3d 40fb 393c
00000350: ecc8 cc3c b501 dcbc b7d8 9c3b 627b 9fbd
00000360: d1d7 c33d b133 b53d 1d4a 17bd 8170 9c3d
00000370: 10cc 4cbc c9a5 7fbd 7084 1bbd 58a4 a1bd
00000380: 4ec1 5c3d e848 69bd bcfb ca3a 98cb 91bd
00000390: 7cb8 c6bc d3e2 af3c 3fec 503d f7a5 e8bc
000003a0: aab7 32bd 6253 7f3d 37b3 71bd e0ea bb3d
000003b0: 15d5 c33d ae03 3c3d 5cea a93c fe20 11bb
000003c0: fc0c c73d 9e30 ad39 eb3a 483c 6867 5cbc
000003d0: 1415 f73c 90aa 803d 7659 4e3b 8e9c fcbb
000003e0: b189 e8bc 0c38 033d 65e3 883d 400a 06bc
000003f0: 9f97 c0bc 5a70 233c df04 33bd 1052 0f3c
0.05725622 -0.0047526476 -0.08012972 -0.04615024 -0.03496987 -0.008481222 -0.025021864 -0.0017981728
0.055227563 -0.07213465 0.0063224747 0.041725636 0.0811953 0.042081464 -0.08740864 0.0012000169
-0.06973586 0.06417873 0.07428752 0.066343546 0.051547308 0.05158189 -0.06529107 -0.062706314
-0.07720271 -0.015816765 0.008090658 -0.082838215 -0.09437062 0.061096165 -0.080318555 -0.09129743
0.038924 -0.073331386 0.023551196 0.02201108 0.07285972 0.0586166 -0.014759628 -0.042303402
0.027981956 -0.04242783 0.074658565 0.014323854 -0.018241504 -0.03932007 0.07029227 0.03818078
0.06284989 0.0052097184 -0.09797846 -0.05106282 -0.011022909 -0.095295794 -0.09194456 -0.06651469
0.042226363 -0.013883571 0.07432495 -0.079273775 0.066237465 0.069194846 -0.032340612 0.0128469365
-0.05984071 -0.08066766 0.040307272 0.03274738 0.064027086 0.01806003 -0.052832834 0.052882276
-0.07202929 -0.028180838 -0.06756199 -0.07330248 0.07963995 -0.031013487 0.0014460651 0.057425227
0.04618257 0.061608713 0.07493766 0.040745836 0.03578279 -0.028212523 0.013190772 -0.009669569
-0.046541937 0.018831547 -0.018166455 -0.006272152 0.018230507 -0.085185565 0.041007042 0.032380003
0.082199246 -0.08349766 0.060282983 -0.049754303 0.018069709 0.01409744 -0.027487878 -0.05788418
-0.075957164 0.012299841 0.03764388 0.05672679 0.015593709 0.017669924 -0.021971658 0.04353876
-0.08805245 0.046569407 0.07614914 -0.072127454 0.023263149 -0.020312805 -0.02939343 0.03921964
0.02893027 0.058938153 -0.00022987227 -0.06078696 0.04414114 0.054544203 -0.019924697 -0.078786895
-0.06796284 -0.04429599 0.03979469 0.043888595 -0.03164867 0.06839438 -0.021493888 -0.05930388
0.009859117 -0.0030165478 0.06913814 -0.06113538 -0.019085146 -0.052971568 0.060816918 -0.067069754
-0.043786906 -0.042729232 -0.073405385 -0.00084199663 0.0027573765 0.02475833 -0.05912153 0.008505198
-0.001227979 -0.06471566 0.02095176 0.011072508 0.026361292 -0.060396973 0.023610575 0.054804448
-0.06884873 0.01708772 -0.01567854 0.028712507 0.09648888 0.08440453 -0.05466652 -0.036766477
-0.04603646 0.044958107 0.009007841 -0.009604253 -0.05530982 -0.011371171 0.09270597 0.08790215
0.06116093 -0.048760217 -0.07238181 0.06806358 0.04139224 -0.052021034 0.07692889 -0.054897036
0.03334965 0.037655678 0.058304258 -0.07780015 -0.013670882 -0.055868994 0.052130062 0.09180268
-0.072216645 -0.07773086 0.018329807 -0.012240572 -0.050558187 -0.004091953 0.027504487 0.05881935
0.08869725 0.031149816 -0.04620211 0.030514192 0.007726617 0.022434967 -0.06697772 0.09098957
-0.047883753 -0.0028080787 0.06185775 0.011351407 0.02499815 -0.026856283 0.0047865766 -0.07787205
0.09562648 0.0884775 -0.036935914 0.07638646 -0.012499824 -0.062413964 -0.0379681 -0.07892674
0.053895287 -0.056954294 0.00154864 -0.071189106 -0.02425789 0.021470463 0.05100655 -0.02839945
-0.043632187 0.06233538 -0.059008803 0.09175658 0.095621265 0.045901947 0.020741634 -0.002214491
0.097192734 0.00033033354 0.012221078 -0.013452388 0.030161418 0.06282532 0.0031486428 -0.0077090925
-0.028385969 0.032035872 0.06683997 -0.008181155 -0.023509799 0.009975517 -0.043705817 0.008747593

fc3.bias f4 [5]
00000000: 6310 fbbc 85d9 9f3d b276 3e3d 7df8 413d
00000010: 7f2d 52bc
-0.030647462 0.078051604 0.046499915 0.047356118 -0.01282823

fc1.weight f4 [128, 147]
00000000: 7d1b 88bd c9c2 c9bc 59f6 213b c65b 9f3d
00000010: be05 2b3d 40ba 59ba fc6e 80bc 2982 32bd
00000020: 13b8 153d 359e 573d 10cc efbc f027 4dbd
00000030: 0954 4e3c ab78 2f3d 40b5 fb3c 844d 9bbd
00000040: 7ec9 82bd 4adf 4d3d e9b5 803d 8cb3 643d
00000050: a46b 6dbd e613 80b9 cdd3 f9bb 0d01 853c
00000060: 70a9 3abd afc9 a03c 69ef 193d 9167 0cbc
00000070: 011e 3c3d 8472 6a3d 35a3 7c3d 9c8e 513c
00000080: 56f0 9b3d dc58 5cbb cbe7 50bd e510 413d
00000090: ca99 a3bd 0a8f 16bd 02c3 9fbd dc9c 42bd
000000a0: 98d7 58bd 523f cdbc 9f87 953d 1168 82bd
000000b0: 9a3c 72bd e2c6 4e3d af2b 933d 6c79 0bbd
000000c0: 5325 4d3d 8d49 12bd fcc3 d0bc d9cb 97bd
000000d0: b889 e2bc 814a 17bd e9a8 69bd df6e a23d
000000e0: eb96 15bc 0156 873d a6e6 a0bd bd0a 21bd
000000f0: bc3d 013c 1e84 323d c709 ae3c da82 a3bd
00000100: 9072 c8bb 7973 47bd 6db9 37bd dea9 963d
00000110: d48c aabd 1b18 9b3d 7056 a4bd 1670 86bd
00000120: d904 1cbc 0756 debc 49c7 4cbd 08d1 26bd
00000130: 2859 0ebc b9e3 213d 09ad 493d ae16 183c
00000140: 0bd1 7b3d 1611 35bd debf 94bd abae 783d
00000150: a0b5 5db7 a1c0 46bd ff55 22b9 12c2 833d
00000160: a7e7 2c3d 8e14 4d3d 8794 17bd d277 8dbd
00000170: cf05 71bd 993e 8a3d e80b 79bd 39c9 9ebd
00000180: 0fdb 9bbd bf35 c93c d98f 8abd df5d 97ba
00000190: c08b 993d 77e3 05bc e50d 25bd 8221 153d
000001a0: 6960 a53d c4ac 823c 5a07 51bd 2805 0fbc
000001b0: d443 87bd 97f7 60bd 7bd1 05bc 6f08 b5bc
000001c0: 6904 b43c 85f9 43bd 3097 abbd fcf9 9ebd
000001d0: ad89 943c de84 a0bd 6f17 233d c044 39bd
000001e0: 7237 103d a1c7 193d 1b05 91bc 489e 83bd
000001f0: c6a4 2bbd 03bf 7abd f54f d8bb 0ec0 413d
00000200: 6ef5 e83b 1e83 d5bc 76fa 9f3d 699d 943d
00000210: 40e8 a1bc 0f39 633c c4a7 8dbd 55c1 2dbd
00000220: 5860 70bd ebd9 91bc 3da7 693d 941c 4bbd
00000230: e550 fabc c368 29bb cf37 943d 16cc a23b
00000240: 24b9 c0bc d943 77bd e3b3 383d faa8 82bc
00000250: 7f7f 953d 7a1a 3cbd 4f96 8bbd 84c8 e83c
00000260: 8b2f 9cbc f8da 0ebd f0c4 fb3b b55a 08bd
00000270: 83bb 6fbd 0f81 833d 49b6 21bc 55a2 5fbd
00000280: 2684 8c3d 3c6e ac3d 64de a43d df2b 903c
00000290: c23b a43d 8f0a a6bc a733 8a3d 4064 31bd
000002a0: 91fa fcba 14d5 9cbc 6bf3 0f3d 7462 a63d
000002b0: c093 6e3b 2426 be3d 82d8 9cbd 804c 9f3a
000002c0: 3627 eaba 63b3 38bc 0aa8 94bc 2a38 44bc
000002d0: 6bd1 b03c a1d8 b6bb b0f2 fdbc 426e e83c
000002e0: a260 263d f046 8fbc 52e0 a53d d3a7 dc3c
000002f0: 86bb 883d 5b9c 22bd bc2e 7d3d 3ec3 923d
00000300: 4eb9 523d 66e8 783c 02c7 e0bb 4e1a e0bc
00000310: c61d b33b 0e20 943c 9c6e cdbc 4838 9c3d
00000320: dd1a 9a3c 2064 a63d bb60 86bc 6020 5f3d
00000330: 2d4d 05bd fda7 d8ba 7d10 0e3c 1d26 7e3d
00000340: 93ea 18bd 1063 af3c c173 763d df76 393d
00000350: 6c65 12bc 4247 b03d 0c54 16bd b6ec 9fbd
00000360: b37c 08bd 25a2 143c 61ee 09bc b3a1 61bd
00000370: 9c3c b63d 5ae9 d33c b3be 6cbc 15e2 e13c
00000380: 199b 64bb 422c cc3c 388b 8b3d d604 bf3d
00000390: 3873 d4bc 1bae a93d e3e3 b43d 71dd c0bc
000003a0: 8049 27bc e8f2 0c3d 3172 083d a7ff 1cbc
000003b0: bc9e 54bd 78fa ac3d 581e 97bd 63bb 943d
000003c0: ea4d ad3d 0d7a d7bc 49ff 1ebd 23b4 533d
000003d0: 0cc7 9d3d 8722 98bd 78bf 9ebd c4aa 6ebd
000003e0: e82f 913c 595b 1d3d 5772 983c a713 c43c
000003f0: d91b 953d 6d8d 4cbd f749 ae3c e441 a2bd
-0.06645868 -0.024629014 0.0024713485 0.07781176 0.041753523 -0.00083056465 -0.015677921 -0.04358116
0.0365525 0.052641112 -0.02927211 -0.050086915 0.012593278 0.042839687 0.030726075 -0.07583144
-0.06386088 0.050261773 0.062846966 0.05583529 -0.057963982 -0.00024428888 -0.0076241256 0.016235853
-0.045571744 0.01962742 0.037581835 -0.008569614 0.04592705 0.057238117 0.061679084 0.012790348
0.076142 -0.00336223 -0.051002305 0.047135253 -0.07988317 -0.036757506 -0.07800867 -0.047512874
-0.05293998 -0.025054608 0.07301258 -0.06367505 -0.059139825 0.05048264 0.07186066 -0.034051344
0.050084423 -0.035714675 -0.025484078 -0.07411928 -0.02765356 -0.036936287 -0.05704585 0.07931303
-0.00913022 0.06608201 -0.07856493 -0.03931688 0.007888254 0.043583028 0.021244897 -0.07983942
-0.0061171725 -0.048694108 -0.04485457 0.07356618 -0.08327642 0.07572957 -0.08024299 -0.065643474
-0.00952264 -0.02714063 -0.04999474 -0.04072669 -0.008688249 0.039523814 0.049237285 0.009282751
0.061478656 -0.044205748 -0.07263158 0.06071345 -1.3214914e-05 -0.04852355 -0.0001548156 0.064335
0.04221311 0.05006843 -0.03700688 -0.069076195 -0.05884343 0.06750221 -0.06080237 -0.07753224
-0.076101415 0.024561761 -0.06765718 -0.0011548362 0.07497358 -0.008171908 -0.040296454 0.03640891
0.080750294 0.015951522 -0.0510324 -0.008729257 -0.06604734 -0.05492362 -0.00816762 -0.022098748
0.02197476 -0.047845382 -0.08378446 -0.077625245 0.018132055 -0.078378424 0.03981727 -0.04523158
0.035209127 0.037543897 -0.01770263 -0.06426674 -0.041905187 -0.06121732 -0.0066013285 0.0473023
0.0071093356 -0.026063498 0.078114435 0.07256586 -0.019764066 0.013868584 -0.069167644 -0.042420704
-0.05868563 -0.017804107 0.057044256 -0.0495878 -0.030556152 -0.0025849796 0.07237207 0.0049681766
-0.023525782 -0.06036744 0.04509343 -0.015949715 0.072997086 -0.045923688 -0.068157785 0.028415926
-0.019065639 -0.034876794 0.007683389 -0.03328963 -0.058528434 0.064211 -0.00987012 -0.05459817
0.06861143 0.08419463 0.0805023 0.017599044 0.080192104 -0.020268707 0.06748133 -0.043308496
-0.0019300749 -0.019144572 0.03514425 0.08124247 0.0036403984 0.092846185 -0.07658483 0.0012153536
-0.0017864469 -0.011273238 -0.018146534 -0.011976281 0.021584233 -0.0055800234 -0.030999511 0.028372888
0.0406195 -0.01748988 0.08099426 0.026935494 0.06676392 -0.039699893 0.061812147 0.07166146
0.05144625 0.015192127 -0.006859661 -0.027356293 0.0054661958 0.018081691 -0.025077157 0.07627922
0.018811638 0.08124566 -0.016403547 0.054474235 -0.032544304 -0.0016529557 0.008670923 0.062048066
-0.037333082 0.021409541 0.060168985 0.04527938 -0.008935314 0.08607341 -0.036701247 -0.07808821
-0.033322047 0.009071861 -0.00841865 -0.05508585 0.08898279 0.025868107 -0.014449763 0.027573625
-0.0034882484 0.024923448 0.06813663 0.09327094 -0.025933847 0.08285161 0.088325284 -0.023543091
-0.010210395 0.03441134 0.033312026 -0.009582437 -0.051909193 0.084462106 -0.073788345 0.07262304
0.084621266 -0.026303316 -0.038817678 0.051685464 0.07703981 -0.074284606 -0.077513635 -0.058268324
0.017723039 0.038417194 0.018609209 0.023935152 0.07280702 -0.04993956 0.021275504 -0.07922724

fc1.bias f4 [128]
00000000: 477d de3c 4698 f7bc 6c34 913d 3b61 aebb
00000010: f097 333d ae28 453d 3979 81bd 3026 a2bd
00000020: 8df7 2abc 2426 b0ba 7746 9bbd 6b04 85bc
00000030: 56ab 843d d5c5 b03c 17e1 e0bc f524 753d
00000040: b395 a0bc 4039 663d c9ed 86bd 025b 9f3d
00000050: 057d 64bd 8cdf 77bd c349 9a3d 6885 9fbd
00000060: b179 a93c 8fa4 123c 84be 2a3a 401d 56bd
00000070: 12a8 803d a942 bf3d 2b7d 98bc 5452 6dbd
00000080: 625b 5ebd 32d2 b83d f507 7b3d 3e4c 22bd
00000090: 809c 5d3d cb3f a0bd b7a3 92bd f267 60bd
000000a0: 117d 443d 5f5c 953d b01f 913d ded7 9f3d
000000b0: f030 5bbd a554 8f3d 01e2 763d 24cf 8f3d
000000c0: 720d 4e3b 178d b53d e003 8d3c dab5 863d
000000d0: 0643 853d 402d 873b af61 783d cf5e f63c
000000e0: cd30 f93c fc2b af3d 33d1 9ebd 74c1 8a3d
000000f0: 2dee fabc 90e4 913b 816c 15bd d409 693d
00000100: fc10 15bd aaa4 99bc 380e 673d 918e 993d
00000110: 3103 76bd 5bb1 c4bc 8ee5 943c c4e0 9a3d
00000120: fea0 423d 9841 6f3d cb22 fbbc 2ac5 ec3c
00000130: e0a6 5d3d 913f 5b3d 6d36 4d3a fb88 58bd
00000140: aabc 9a3d 422c 7a3d b238 ed3b 5bc6 cb3c
00000150: ce98 6fbd d460 36bd 3380 07bc 190d 21bd
00000160: 5d4b d8bb b8b4 64bd 7d1f b63c 090c 803d
00000170: 58f3 9b3c 534d debc 2c48 37bd 1ff2 813d
00000180: 6d16 50bd 79a7 a83c 2a01 c93c 1115 9e3c
00000190: 732a 453c 82bf 303d 8fd1 0b3d 7806 2ebd
000001a0: ceb6 133c c3a8 123d 2ac2 ed3b 891c 323c
000001b0: 87e9 ab3d 9328 52bc 6053 603c 6082 debc
000001c0: 2399 cabc d006 103d e086 153d d631 22bb
000001d0: bee0 6f3d 0975 88bd 38f3 c13c c90b 84bd
000001e0: 76be a63d 150b 8e3d 868c d0bb 6ded b9bc
000001f0: 29ec 7c3c dc4f 7cbd f5c5 2b3c 2a99 55bd
0.027159346 -0.030223977 0.07090077 -0.0053216494 0.04384607 0.0481345 -0.063219495 -0.0791744
-0.010434997 -0.0013439101 -0.075817995 -0.016237458 0.06477992 0.021578709 -0.027451081 0.059849698
-0.019602632 0.05620694 -0.06588323 0.0778103 -0.05578329 -0.060515925 0.075336 -0.07789117
0.02068791 0.008950367 0.00065133744 -0.05227399 0.06282057 0.09338886 -0.018614372 -0.057939842
-0.05428637 0.090244666 0.061286885 -0.03962349 0.05410433 -0.078246675 -0.071601324 -0.05478663
0.047970835 0.07293009 0.07086122 0.07804845 -0.053513467 0.069985665 0.060274128 0.07021931
0.003144112 0.088648014 0.017213762 0.06577654 0.06506924 0.0041252673 0.060640033 0.030074505
0.030418778 0.08553311 -0.07754745 0.067751795 -0.03063115 0.0044522956 -0.03648043 0.05689414
-0.03639315 -0.018755276 0.056410044 0.074978955 -0.060061637 -0.02401035 0.018175866 0.07562402
0.047516815 0.058412164 -0.030656239 0.028902609 0.054114223 0.05352742 0.00078282395 -0.05286501
0.07555516 0.061077364 0.0072394246 0.024874857 -0.058495335 -0.044525936 -0.008270311 -0.03931913
-0.006600781 -0.05583641 0.022231812 0.062522955 0.019036934 -0.02713648 -0.044746563 0.06345009
-0.050802637 0.02058767 0.024536688 0.019297155 0.012034046 0.043151386 0.034135398 -0.042486638
0.009015752 0.035805475 0.007255812 0.010871061 0.08394151 -0.012827056 0.013691753 -0.027161777
-0.024731224 0.035162747 0.03650558 -0.0024748943 0.05856394 -0.06662948 0.023675546 -0.0644756
0.08141796 0.069357075 -0.006364408 -0.022696221 0.015437164 -0.061599597 0.010484208 -0.05214802

fc2.weight f4 [128, 128]
00000000: adbb 883d 352b 803d cbe1 17bd 88fa 3dbd
00000010: ac58 c1bd c498 93bd 2faa d5bb 8aee 323d
00000020: 733c 82bd 1aeb 04bd f70f b4bc 81c5 7a3d
00000030: 475e 6a3c 592a 56bc b75c 443c e852 993d
00000040: ed37 23bd 6e24 41bd c0a8 49bd 9ef0 923d
00000050: d745 6c3d 2d2a 82bd 5861 713d 57b7 fd3c
00000060: 2f0f 433d 4e33 83bd 9d26 833c f95b 8abd
00000070: 609c 20bd 1c4b 96bc 5f2d 84bc c758 953c
00000080: 6d94 87bd bcd9 633d f095 c13b e938 61bd
00000090: b337 14bd 61d0 adbc f009 b0bd 1331 b0bd
000000a0: 1c79 aebd 6738 22bd 35c1 8fbd e7df a7bd
000000b0: 940c babd 913d c0bd 4607 8d3d 98b4 a8bd
000000c0: a32b 87bb ebd9 393d 8df7 633d 00e2 f63c
000000d0: 7947 843d 293f dd39 3699 b73b c295 15bd
000000e0: 7b02 5f3d c8b7 c53b cc9f 54bd 0595 9dbd
000000f0: 7bf4 493c 4f08 953d 10d2 163d 4ee6 75bd
00000100: f4aa c6bd 9cd6 393d ec6c 463d 04cc a8bb
00000110: efae b6bd 8a0a 3ebc d427 673d 4940 9cbd
00000120: adb1 36bd 41ac 0dbd 4045 123d 4c1a 993d
00000130: 3dd3 513c fa4f 71bd 5e56 333d 9b5b 7ebc
00000140: 96dc cab8 2f24 9dbd cf63 753c 21f5 45bd
00000150: a413 adbc 02d0 123d 0439 4f3d c573 853d
00000160: 5614 b439 0e47 e6bc f0f7 823d bc7b 953d
00000170: 12c0 813c a30b 8bbd 339d cdbd d1d7 7bbd
00000180: 6b9d f0bc 3cac c1bd ba23 11bd 2689 88bd
00000190: e10c 303d 3784 f5bc b51f 44bd e243 00bd
000001a0: 1999 f6bc 0c28 013d e5f6 89bc 72ac febc
000001b0: 4a0a 7e3c 7521 5fbd 09e0 c3bd 7bf6 903d
000001c0: e46f 2bbd 04ab 823d 1c44 15bd d820 c8bc
000001d0: fb16 84bd 1851 6cbd 8d51 6dbd b16b 7dbd
000001e0: 3d47 62bc 294f 86bc e46f b93c 795c 6d3d
000001f0: 5ba9 a7bd d5f2 d23b c147 b3bd 0a96 fe3c
00000200: 04dd 693d 179e dbbc f7c0 21bd 4c8c 7d3d
00000210: 12af c9bd 4849 a3bd 23c4 363d a58c 9d3d
00000220: 3531 913c 836b 6b3d 335c 503d edef 98bd
00000230: 38ba 063d df58 a8bd 8997 043d 17d1 913d
00000240: 2a0e 043d db18 9bbc 72d3 6b3d d55d 43bd
00000250: aa49 a6bc 7a7a 97bd 03c5 633d fb57 a23d
00000260: 7455 a6bb a66d 943b 9761 213a 2ad0 853d
00000270: 3e1b b7bd 18b0 a5bd 251f 0e3c d999 a5bc
00000280: 53c5 963d 42d9 0e3d 6c30 4fbd d51a 45bd
00000290: 0373 85bd be33 2cbd 5bd9 96bc f3ac 4fbd
000002a0: 9c77 863d 2753 263d ac1a 213d d318 a5bd
000002b0: 1147 68bd 5852 693d 13a1 03bb 780e b0bc
000002c0: 6b8c c3bd e12e 3c3c 3cfd 5d3d 12c3 833c
000002d0: 4d74 eb3c 3f04 37bc d1b4 85ba d5eb 8b3c
000002e0: d0bd 6fbd bae9 90bd 8ac1 823d 7a06 063c
000002f0: 4e4b 903c 0324 5e3d 4d19 65bd 642f 923c
00000300: 12cf 7bbd e713 543d a702 473d a6d1 b63c
00000310: eefb 46bd bcef 1bbd 04e4 04bc 5a25 a1bd
00000320: 11f2 56bc 7de5 7f3d 950c 153d e8b3 9fbd
00000330: 1fa2 54bd 142a 02bd 7c78 883c 82de d0bc
00000340: 0ccf 9cbd 9fe7 87bc 9266 5f3d 22fa cabc
00000350: 9b7f 0bbd 28af c63c 76af f33a 3a2a 88bd
00000360: 2f3c 0cbd c3de 843d 11e6 4bbd 88e9 863b
00000370: a0ff 43bc 24c9 95bd 0ef6 a1bc 22c1 0cbd
00000380: d0de 92bc b2a5 a3bd cbe8 583a a507 163d
00000390: b921 b4bd d2ea e1bc 82af de3c 8a0c c13c
000003a0: 5370 083d db30 92bd 18af 6d3d 29b1 45bc
000003b0: 9601 353d 12f5 ccbc 3b00 013d cd1d c5bd
000003c0: 2043 fa3c 792d 77bd 7b68 ea3c ac73 c9bc
000003d0: ca65 403d 06d8 0e3c bf9a 5eba 5811 24bd
000003e0: 3b2d 483d 7a1d 063d 5cf2 16bd 9b02 c93b
000003f0: 2195 533d 5b98 043d 05d3 473d 0bde 9abd
0.06676421 0.06258241 -0.037080567 -0.046381503 -0.09440741 -0.07206872 -0.0065205316 0.04368452
-0.06359186 -0.032450773 -0.021980269 0.06122351 0.014304704 -0.01307162 0.011984996 0.07486516
-0.039848257 -0.047153883 -0.0492332 0.071748 0.057683792 -0.06355701 0.058930725 0.030971212
0.047621902 -0.0640627 0.016009623 -0.06755824 -0.03921163 -0.018346362 -0.016134916 0.018230809
-0.06620107 0.05562757 0.0059077665 -0.054985914 -0.03618593 -0.021217527 -0.085956454 -0.0860311
-0.085191935 -0.03960457 -0.07019273 -0.08197003 -0.0908443 -0.09386743 0.06886153 -0.082375705
-0.004125075 0.04537384 0.055656005 0.030137062 0.06458945 0.00042199463 0.005602981 -0.036519773
0.054445725 0.0060338713 -0.051910207 -0.07694439 0.012326355 0.07276975 0.036821425 -0.06003409
-0.097005755 0.045370683 0.04844372 -0.0051512737 -0.08920085 -0.011599192 0.056434467 -0.07629449
-0.04460304 -0.034588102 0.035710573 0.07475719 0.012806711 -0.058914162 0.043783538 -0.01552477
-9.673198e-05 -0.07672917 0.0149774095 -0.048329476 -0.02112753 0.035842903 0.050591484 0.06516222
0.00034347427 -0.028110053 0.063949466 0.07298991 0.015838657 -0.06789329 -0.10039749 -0.061485115
-0.029371938 -0.09456679 -0.035434462 -0.06666784 0.042981032 -0.029970272 -0.0478818 -0.031314738
-0.0301023 0.031532332 -0.016841361 -0.031088088 0.015505383 -0.054475266 -0.09564216 0.070782624
-0.041854754 0.06380275 -0.036441907 -0.024429724 -0.06449696 -0.057694525 -0.0579391 -0.06187028
-0.01381093 -0.016395168 0.022636361 0.057949517 -0.08186599 0.0064376392 -0.0875392 0.031077404
0.057095543 -0.026808782 -0.039490666 0.061901376 -0.09847845 -0.07972962 0.044620644 0.076928414
0.017723659 0.057475578 0.050869178 -0.07467637 0.032892436 -0.08220076 0.032371078 0.07119959
0.03224007 -0.01893275 0.057574697 -0.047696907 -0.020298798 -0.073964074 0.055607807 0.07926937
-0.005076105 0.0045296727 0.00061562046 0.06533845 -0.08940743 -0.08090228 0.008674418 -0.020214962
0.07361855 0.034875162 -0.050583288 -0.048121292 -0.06516077 -0.042041533 -0.01841419 -0.050702047
0.065657824 0.040606644 0.039332077 -0.080613755 -0.0567084 0.056963295 -0.0020085021 -0.021491274
-0.09548267 0.011485786 0.05419658 0.016084228 0.02874198 -0.011170446 -0.0010200982 0.017080227
-0.05853063 -0.0707583 0.06384571 0.008180255 0.017614033 0.054233562 -0.05593233 0.017844863
-0.061476775 0.051776793 0.048586514 0.022316765 -0.048580103 -0.038070425 -0.008111004 -0.07868452
-0.013119237 0.062474716 0.036388952 -0.07797986 -0.051912423 -0.03177841 0.016659014 -0.025496725
-0.076566786 -0.016589938 0.054541178 -0.024777476 -0.03405724 0.024253443 0.001859172 -0.06648679
-0.034237083 0.06487801 -0.049779955 0.0041171946 -0.011962801 -0.07313755 -0.019770648 -0.034363873
-0.01792851 -0.07990588 0.0008274435 0.036628384 -0.087954946 -0.027577791 0.027183298 0.02356555
0.033310246 -0.07138225 0.05802831 -0.012066164 0.044190966 -0.025019202 0.03149436 -0.09624825
0.030549586 -0.0603461 0.028614273 -0.02459129 0.046972074 0.008718496 -0.0008491687 -0.040055603
0.04887126 0.032742955 -0.036852226 0.006134344 0.051655892 0.03237186 0.04878523 -0.075618826

fc2.bias f4 [128]
00000000: 1c38 4d3d 19da 1a3b 70b8 a2bd 919b 543c
00000010: 25ce c5bc 278c 823d 9449 39bd 9411 e03b
00000020: a63c 64bc 3c5d 293d 80a9 adbd 5cd2 f63c
00000030: b9a0 e8bc f951 823d 0e46 b3bd f996 aa3d
00000040: 1427 6f3c b1fb 873d 0eae 2f3d 6b46 afbc
00000050: 1902 3f3b b5d3 47bd 2d6e 9dbd 3876 8c3d
00000060: d416 c03d a9e6 41bd dd06 2c3d 5353 87bc
00000070: 6b4f 433d 01f0 ebbc 219e 873d 0ed8 8abd
00000080: 084c 90bd 1683 c63c fc67 46bd a90c 33bd
00000090: 1ed1 363d 9495 983d 39de 9dbd 6989 9cbd
000000a0: 2e9c 943d 6702 65bd 1614 2d3d f3ce 753d
000000b0: 9d74 113d 7a5e 88bd 40f7 823c 8400 99bd
000000c0: a123 193d 2eac be3c b577 b53c 7395 4abd
000000d0: 73ee 8c3d cf69 2bbd fece 333c 0653 b63d
000000e0: 178a 42bd 149f ac3d df45 b5bd c517 9c3c
000000f0: 86e5 3b3b 1c88 86bc 7592 453d 868b 60bd
00000100: e10f 9e3c abed 473d ebb1 943b d445 95bb
00000110: cb4e bd3d b078 683c 1576 933d db9a a4bd
00000120: 176c abbc 41c7 b53d 46b6 68bd 0805 4f3c
00000130: 2225 96bd cc1a 183d 9a6d 7abd 1ec2 473c
00000140: f4ee 84bd 57fd 903c 572c 91bd 03f0 83bd
00000150: 4547 f53c 2e0f 803d 5d16 953d 408b 003d
00000160: f053 113d 8a10 81bd 6aa4 673d 9d3b cb3b
00000170: bbc2 6e3d 71af 7fbd 9791 bdbd 4d58 12bd
00000180: c753 063d c9be 88bd d2f1 183c 1f24 35bd
00000190: b99b 8cbd c6d9 5d3c 5ce5 b93c 3ddb 4fbd
000001a0: a41e 933c f4fd 723d 963d 57bd 16db a03d
000001b0: a3cd a3bd efae ef3c 6830 54bc 3668 7f3c
000001c0: dccd 4cbd 9855 c2bc 0f2e 893d 8280 b0bd
000001d0: 7309 6f3d 29d9 5bbd 2012 91bd 0e86 19bd
000001e0: f697 873d 8428 a53d 0374 973d b9cf 40bd
000001f0: c0b9 8cbd 4489 e1bc 9575 4cbc 0624 f0bb
0.05010234 0.0023628531 -0.07945335 0.012976543 -0.024146149 0.06374388 -0.045236185 0.006838033
-0.013930475 0.04134868 -0.08479595 0.030129604 -0.028396951 0.06363291 -0.08753596 0.08329577
0.014596719 0.06639803 0.0428906 -0.021395883 0.0029145537 -0.048785884 -0.0768703 0.06858486
0.09379354 -0.047339115 0.041998733 -0.016519224 0.04768316 -0.028800966 0.066219576 -0.067794904
-0.07045752 0.024232429 -0.04843901 -0.043713246 0.044633023 0.07450405 -0.07708401 -0.076433964
0.072563514 -0.055910494 0.042255484 0.060011815 0.0355116 -0.06658645 0.015987039 -0.074708015
0.037387494 0.023275461 0.022151807 -0.049458932 0.06881418 -0.041848954 0.010974644 0.08902554
-0.047494974 0.08428779 -0.088512175 0.019054303 0.0028670742 -0.016422324 0.048235375 -0.05482056
0.019294681 0.048810642 0.004537811 -0.0045554433 0.09243544 0.01418893 0.07200257 -0.08037349
-0.020925565 0.08875895 -0.056814454 0.012635477 -0.07331301 0.03713493 -0.06113968 0.012192277
-0.06490889 0.017698927 -0.07088535 -0.06442263 0.02994121 0.06252895 0.07279656 0.0313828
0.03548044 -0.06301983 0.05655328 0.006202175 0.05829118 -0.062423173 -0.09256285 -0.03572874
0.03279474 -0.066770144 0.009334998 -0.0442239 -0.06865639 0.013540691 0.022692375 -0.05074619
0.017958947 0.05932422 -0.052548967 0.07854287 -0.079982065 0.02925822 -0.012950994 0.015588811
-0.05000101 -0.023722455 0.06698238 -0.08618261 0.05835862 -0.053673897 -0.07083535 -0.03748136
0.06620781 0.08064368 0.07395174 -0.0470731 -0.068713665 -0.027531274 -0.012479206 -0.007328513
