logs/maddpg_checkpoint_ep150.pth (torch, 585614 bytes, 24 tensors)

fc1.weight f4 [128, 147]
0	0xbcc40636	-0.023928743
1	0xbd3a8161	-0.04553354
2	0x3d00442d	0.031315017
3	0x3da12d15	0.07869927
4	0x3d6f5af0	0.058436334
5	0x3d38a92f	0.04508322
6	0x3d3fd701	0.046835903
7	0x3d8f2a09	0.069904394
8	0xbd422536	-0.04739877
9	0xbd810252	-0.06299271
10	0xbca341c7	-0.019928826
11	0xbbebc15b	-0.0071946806
12	0xb9092b61	-0.00013081498
13	0xbcfc628d	-0.030808711
14	0x3daf1dcd	0.08550606
15	0x3d01ed3a	0.031720378
16	0xbc0dbecb	-0.008651446
17	0x3b88c1cd	0.0041734935
18	0xbd4c9298	-0.04994449
19	0xbd9fab13	-0.07796302
20	0x3d8733f5	0.06601707
21	0x3d99f1bf	0.075168125
22	0x3c3badd9	0.011455023
23	0x3cccc631	0.024996849
24	0x3d96079e	0.073256716
25	0x3b9a9508	0.004717473
26	0xbd8d1e1c	-0.068905085
27	0xbd64743e	-0.05577492
28	0xbd7ece30	-0.062208354
29	0x3d1fa73b	0.038977843
30	0x3dbb0225	0.091312684
31	0x3cbf926d	0.023385251
32	0xbd875084	-0.06607154
33	0xbc1bc7ac	-0.009508055
34	0xbc8bb2a5	-0.017052958
35	0xbc604a32	-0.013689565
36	0x3d288c86	0.04114964
37	0xbc377360	-0.011196941
38	0x3d802cc5	0.06258539
39	0xbc9992e5	-0.018746803
40	0x3d73ba9a	0.05950413
41	0x3d7bb8e1	0.06145561
42	0x3cba6a26	0.022755694
43	0xbc8f90b6	-0.017525058
44	0x3d1280cd	0.035767365
45	0x3d9a18c6	0.075242564
46	0x3c93cecc	0.018042944
47	0xbd5c1dd6	-0.05373939
48	0xbbeab47f	-0.00716263
49	0xbd43b01e	-0.04777538
50	0x3d5fc852	0.0546344
51	0xbc487359	-0.012234532
52	0xbd973ba5	-0.07384423
53	0x3d8c74d9	0.068582244
54	0x3da56783	0.08076384
55	0xbd643a8c	-0.055719897
56	0x3d4d6a77	0.05015036
57	0xbb190ba9	-0.0023352897
58	0x3cbc5b2d	0.022992695
59	0x3dbb0b87	0.09133058
60	0xbcd831d5	-0.02639095
61	0xbd2338fb	-0.039849263
62	0x3db6c004	0.08923343
63	0x3d04bb13	0.03240497
64	0x3c7f15b8	0.015569143
65	0xbd0150b8	-0.03157112
66	0xbd805ae3	-0.06267335
67	0x3c1f72e8	0.009731986
68	0x3d685bbc	0.05672811
69	0x3cb48937	0.022038085
70	0x392fb858	0.00016757974
71	0x3d00d1f7	0.031450238
72	0xbcaf2acf	-0.021382717
73	0xbc381c33	-0.011237192
74	0x3dba2f72	0.09091081
75	0xbcaa2f03	-0.02077437
76	0x3d913c17	0.07091539
77	0x3da1c86a	0.07899554
78	0x3d7bda76	0.061487637
79	0x3d87bc2b	0.06627687
80	0x3dac9b40	0.08428049
81	0x3d9d887b	0.07692047
82	0xbd07f4ff	-0.03319263
83	0x3d9f5359	0.07779569
84	0xbc873e12	-0.01650909
85	0xbd83fedf	-0.06445097
86	0x3c655436	0.013997128
87	0xbb982a79	-0.004643735
88	0xbd73a32a	-0.059481777
89	0x3d910778	0.07081503
90	0x3d3da5bb	0.04630063
91	0x3c737154	0.0148585625
92	0xbd24b413	-0.040210795
93	0xbd43b93a	-0.047784068
94	0xbcf53d30	-0.029936403
95	0x3d0b47b0	0.034003913
96	0xbd3bae0f	-0.045820292
97	0x3d67b19f	0.056565877
98	0x3d85a38d	0.065253355
99	0xbd481805	-0.04885103
100	0xbbdfe642	-0.006832869
101	0x3d7b4021	0.061340455
102	0x3d52900c	0.051406905
103	0xbb7aba1e	-0.0038257907
104	0x3d22cf33	0.03974838
105	0x3d891401	0.066932686
106	0xbd9a3f26	-0.07531576
107	0x3ca92957	0.020649595
108	0x3cf0d4fd	0.029398436
109	0xbc9106fc	-0.017703526
110	0xbd3d2761	-0.046180133
111	0x3d31d018	0.043411344
112	0x3d914e66	0.070950314
113	0x3dba70de	0.09103559
114	0xbd7cc7d9	-0.061714027
115	0x3db8aa73	0.090168856
116	0x3bcb13dd	0.0061974362
117	0x3d4a9c79	0.04946563
118	0x3d22d621	0.03975499
119	0xbd20e6be	-0.039282553
120	0xbd7b7fe8	-0.061401278
121	0xbd34af66	-0.044112585
122	0x3dad836b	0.084723316
123	0x3d198169	0.03747693
124	0x3da866ea	0.08222754
125	0xbd0992ad	-0.033587147
126	0x3db7474e	0.08949147
127	0x3d91f81e	0.07127403
128	0xbd470f2b	-0.04859845
129	0x3b9c0657	0.004761498
130	0xbd48090e	-0.04883676
131	0xbd2b195d	-0.041772235
132	0x3d082437	0.033237662
133	0xbbefa7f7	-0.007313724
134	0xbd6b15e9	-0.057393942
135	0xbc6b952a	-0.014378825
136	0x3d79d824	0.060997143
137	0xbd7666f3	-0.060156774
138	0xbd9cc9e0	-0.07655692
139	0xbd9c8720	-0.076429605
140	0x3d73005a	0.059326507
141	0x3d80d620	0.06290841
142	0xbd1646ac	-0.03668849
143	0xbd1da191	-0.03848416
144	0xbc26e312	-0.010185974
145	0xbc298e83	-0.010348919
146	0x3c9688cb	0.018375775
147	0x3d726ae6	0.059183978
148	0x3c680084	0.014160279
149	0xbbe5b7cc	-0.0070104357
150	0x3dbe3dcb	0.0928913
151	0x3d79e06f	0.061005052
152	0xbcbc2356	-0.022966068
153	0x3ca150a7	0.019691778
154	0x3d18a910	0.037270606
155	0x3d1ca93c	0.038247332
156	0x3beaa05a	0.0071602287
157	0xbd1690d9	-0.03675923
158	0xbd582f25	-0.052779336
159	0x3d5863b5	0.052829463
160	0x3d8c217c	0.06842324
161	0x3c233d74	0.009963382
162	0xbd62b479	-0.055347893
163	0xbc5c3572	-0.013440477
164	0x3d1c6332	0.038180538
165	0x3d723a52	0.05913765
166	0xbd518aba	-0.05115769
167	0x3dac49f6	0.084125444
168	0x3daba119	0.08380336
169	0x3cfc7fd2	0.030822668
170	0x3d76aafe	0.060221665
171	0x3c48db99	0.012259387
172	0x3dbeac2e	0.093101844
173	0x3cddb01d	0.027061516
174	0xbd3788c2	-0.044808157
175	0xbd383428	-0.044971615
176	0xbd22b5ea	-0.039724268
177	0xbbda145d	-0.0066552595
178	0xbd214c5d	-0.039379466
179	0x3d9757b7	0.07389777
180	0xbcd3878a	-0.025821466
181	0x3c77598b	0.015097032
182	0xbc530ae7	-0.012881017
183	0x3aaa3dfe	0.0012988446
184	0x3db5520b	0.08853539
185	0xbc963bcd	-0.018339062
186	0xbd4e8471	-0.050419275
187	0xbd54b864	-0.05193366
188	0x3d09444a	0.03351239
189	0xbd065ee9	-0.032805357
190	0x3c806fee	0.015678372
191	0x3d044ae7	0.032297995
192	0xbcfff486	-0.031244528
193	0x3dc5fba9	0.09667141
194	0xbd5950f0	-0.053055704
195	0xbd74d1c1	-0.05977035
196	0x3cf60e0a	0.030035991
197	0xbbf61647	-0.00750998
198	0x3dccea77	0.10005658
199	0xbd249062	-0.040176757
200	0xbc9df9c8	-0.019284144
201	0xbd07496e	-0.033029012
202	0x3cf95d23	0.030439919
203	0xbd38a022	-0.04507459
204	0xbd4afe29	-0.049558792
205	0x3c8cecc8	0.01720275
206	0x3d1efb86	0.03881409
207	0xbd53a92b	-0.051675003
208	0x3b780aa3	0.0037848137
209	0xbcd09e38	-0.02546607
210	0xb9b53108	-0.0003455954
211	0x3c75e434	0.015008021
212	0x3d28b032	0.041183658
213	0x3bca3e99	0.006172013
214	0x3daa1801	0.0830536
215	0x3da44e57	0.08022755
216	0x3c9a93c0	0.01886928
217	0x3c88614c	0.016647957
218	0x3d28a36f	0.041171487
219	0x3db4a46c	0.088204235
220	0xbd595e6e	-0.05306857
221	0x3dac2ebc	0.084073514
222	0x3d45de00	0.04830742
223	0x3bfce7ba	0.0077180536
224	0xbd1e119b	-0.03859101
225	0x3da06240	0.0783124
226	0xbbf53161	-0.007482693
227	0x3dd85506	0.10563092
228	0xbd07e493	-0.03317697
229	0x3d974cd7	0.07387703
230	0x3d74d831	0.05977649
231	0xbca6d06a	-0.020363051
232	0xbcf61fb2	-0.03004441
233	0x3c015290	0.00789322
234	0x3d5d7cf5	0.054074246
235	0xbd8b5d4f	-0.068049066
236	0xbd666da4	-0.056256905
237	0x3d57b090	0.052658617
238	0xbd846a95	-0.064656414
239	0x3b9cdcdf	0.004787072
240	0x3d98f9a1	0.07469488
241	0x3d9770e9	0.07394583
242	0x3d5f38b5	0.05449744
243	0x3cbc2c73	0.022970414
244	0xbd30cec8	-0.043165952
245	0x3c384a82	0.011248233
246	0x3ca304e8	0.0198998
247	0xbd468c7d	-0.048473824
248	0x3d871848	0.06596428
249	0x3daff51d	0.085916735
250	0xbbb5998c	-0.005541986
251	0xbd151452	-0.036396332
252	0xbd43d883	-0.047813904
253	0xbc83af5c	-0.016074829
254	0xbd1b3ca7	-0.03789964
255	0x3dc5822c	0.09643969

fc1.bias f4 [128]
0	0x3cae783d	0.021297568
1	0xbcf61e11	-0.030043634
2	0x3d2b622f	0.041841682
3	0x3d02294f	0.031777676
4	0x3dae9dec	0.08526215
5	0xbc9e3338	-0.019311532
6	0x3d76a409	0.06021503
7	0xbcd379d1	-0.025814923
8	0x3d485319	0.048907373
9	0x3d243a74	0.040094808
10	0x3cffd50c	0.031229518
11	0xbd2e62f2	-0.04257483
12	0xbd49aae0	-0.049235225
13	0xbc85caea	-0.016332109
14	0xbca0f359	-0.019647287
15	0xbd20ffc0	-0.039306402
16	0xbd0125eb	-0.031530302
17	0x3d915dcd	0.07097969
18	0x3cfc1674	0.030772425
19	0xbd13458b	-0.035954993
20	0xbc1e233d	-0.009651956
21	0x3ca0796e	0.019589152
22	0x3dd23b92	0.102652684
23	0xbd2d3c92	-0.042294092
24	0x3c968d9f	0.018378077
25	0x3da6fe29	0.08153946
26	0x3cd08e14	0.025458373
27	0x3dd47ebb	0.103757344
28	0xbd054353	-0.03253491
29	0xbc6bf157	-0.014400802
30	0xbce6f5e2	-0.028193418
31	0x3b9fd02a	0.00487711
32	0xbbd9d847	-0.0066480967
33	0xbd4b745a	-0.04967151
34	0xbd1bc1fd	-0.0380268
35	0x3d9cbf81	0.07653714
36	0x3d379755	0.044822056
37	0xbd707c44	-0.05871226
38	0xbd076681	-0.03305674
39	0xbd6abbfd	-0.057308186
40	0x3c5e681b	0.013574625
41	0xbd45f409	-0.048328433
42	0x3dd100e1	0.10205246
43	0xbc23c48c	-0.009995591
44	0x3d1507aa	0.036384262
45	0x3b53199a	0.0032211305
46	0x3cbbe15d	0.02293461
47	0x3d91d758	0.07121152
48	0x3c8c20ae	0.017105427
49	0x3d1dbff7	0.03851315
50	0xbd2c2e05	-0.042036075
51	0xbd529059	-0.051407192
52	0xbbca02ee	-0.0061649
53	0x3d800d04	0.062524825
54	0x3cde7c88	0.02715899
55	0x3bd25eb1	0.0064199795
56	0x3ce24656	0.02762143
57	0x3dc8dfb8	0.09808296
58	0x3d7309dd	0.05933558
59	0x3c24f168	0.010067321
60	0x3d963a6f	0.07335364
61	0x3bd42a41	0.0064747636
62	0xbcd0a80f	-0.025470762
63	0xbcb54eec	-0.02213236
64	0xbd706a08	-0.05869487
65	0x3c07b5b7	0.00828307
66	0xbdaa8357	-0.08325832
67	0xbd68357c	-0.05669163
68	0x3d65f057	0.05613741
69	0x3b7d744f	0.0038674062
70	0xbd2cbda4	-0.042173043
71	0xbd633d93	-0.055478644
72	0x3d5f195f	0.054467555
73	0x3d9b237d	0.07575128
74	0x3cb411eb	0.0219812
75	0xbd97c0f7	-0.07409852
76	0x3c89f59a	0.016840745
77	0x3d4c7be8	0.049922854
78	0x3a8ca1ff	0.0010729431
79	0xbd7f91d5	-0.062394936
80	0xbcd91215	-0.02649788
81	0x3d63acf3	0.05558486
82	0x3cdaba4d	0.026700163
83	0x3c7a16fa	0.015264267
84	0x3da3bec3	0.07995369
85	0xbd6a3fc2	-0.05718971
86	0x3c08f4ad	0.0083591165
87	0x3d32e4e5	0.043675322
88	0x3c2f2bfc	0.010691639
89	0x3d585689	0.0528169
90	0xbc8583d1	-0.016298207
91	0xbd43746f	-0.04771846
92	0x3c84d708	0.016215816
93	0x3d0cb682	0.03435374
94	0x3dbf6caf	0.093469016
95	0x3d9acbc4	0.075583965
96	0xbcc624fb	-0.024187556
97	0x3aa62fd5	0.001267905
98	0x3d819b67	0.06328469
99	0x3cab2823	0.020893162
100	0xbce94cae	-0.028478947
101	0x3d38ab62	0.04508532
102	0x3db17ed2	0.08666767
103	0x3d8d4239	0.068973966
104	0x3d024e29	0.03181282
105	0xbd1010e8	-0.035172373
106	0x3daff9b1	0.08592547
107	0x3d967c0d	0.073478796
108	0x3d2ccc3d	0.042186964
109	0x3b866e10	0.004102476
110	0x3b40800b	0.0029373195
111	0x3d66fada	0.056391574
112	0xbcbfc223	-0.023408001
113	0x3cfc8540	0.030825257
114	0xbc6ec558	-0.014573418
115	0xbced0179	-0.028931366
116	0x3d375e38	0.04476759
117	0x3d276fc2	0.040878065
118	0xba872758	-0.0010311408
119	0x3cb8f4a4	0.022577591
120	0x3d73f27a	0.059557416
121	0x3da7491f	0.081682436
122	0x3ce23801	0.027614595
123	0x3d548bf7	0.051891293
124	0x3d0bfd8f	0.03417736
125	0xbaa559a3	-0.0012615215
126	0x3d9d6744	0.07685712
127	0xbd12da98	-0.035853

fc2.weight f4 [128, 128]
0	0x3d5381bf	0.051637407
1	0xbce130e4	-0.027489133
2	0xbda7b08a	-0.08187969
3	0xbcca71c8	-0.024712458
4	0x3d351bcc	0.044215962
5	0xbca79d53	-0.02046076
6	0x3c96f125	0.018425534
7	0x3cbc3f46	0.02297939
8	0x3d2028ad	0.03910129
9	0x3c70df03	0.014701608
10	0xbca056dc	-0.019572668
11	0x3cb6f931	0.02233562
12	0x3c09ab95	0.008402725
13	0xbdc6b428	-0.09702331
14	0xbd4fb609	-0.05071071
15	0xbd91225e	-0.07086633
16	0xbd742ee2	-0.059615023
17	0xbdcff065	-0.101532735
18	0x3d6b6bd3	0.057475876
19	0x3d64d8cf	0.055870827
20	0x3b661d8f	0.0035112833
21	0x3d53239e	0.05154764
22	0x3d827650	0.063702226
23	0x3d49753d	0.049184073
24	0xbc7e1697	-0.0155083155
25	0xbdb23e38	-0.087032735
26	0xbd517577	-0.051137414
27	0xbdc22497	-0.09479635
28	0xbcc2c894	-0.023777284
29	0xbcac396a	-0.02102347
30	0x3d89e743	0.06733563
31	0xbdbd5b2c	-0.09245905
32	0x3d6f2688	0.058386356
33	0xbd103a32	-0.03521175
34	0xbda3034e	-0.07959615
35	0x3d20f3bc	0.039294943
36	0xbcb8cbe5	-0.022558162
37	0xbd763181	-0.060105804
38	0xbd34a432	-0.0441019
39	0xbdc51494	-0.096230656
40	0x3c3dad70	0.011576995
41	0x3d0fb4aa	0.035084404
42	0xbd47ffef	-0.04882806
43	0xbd9c2a73	-0.07625284
44	0xbd5176ae	-0.051138572
45	0x3d7b6594	0.06137617
46	0xbdafd89a	-0.08586235
47	0x3d6d685d	0.057960857
48	0xbb049270	-0.0020228885
49	0xbc9ecb6b	-0.019384107
50	0xbd05542b	-0.032550972
51	0x3d51d0b3	0.05122442
52	0x3b9bbac9	0.004752491
53	0xbdcbdc1e	-0.099540934
54	0xbd9a93ba	-0.07547708
55	0xbca37317	-0.01995234
56	0x3c5ee807	0.013605124
57	0x3d91f694	0.07127109
58	0xbcea6508	-0.028612629
59	0xbda82a05	-0.082111396
60	0x3d9232b8	0.0713858
61	0x3d8afcf4	0.06786528
62	0xbcc0b3a3	-0.023523157
63	0xbd42564e	-0.047445588
64	0xbd96520f	-0.0733987
65	0x3d47c91f	0.04877579
66	0xbb90312f	-0.0044003944
67	0xbdc7cc0a	-0.09755714
68	0xbda31cf1	-0.079645045
69	0x3d8ed868	0.0697487
70	0xbd4bacce	-0.049725346
71	0xbd1e7b19	-0.038691614
72	0x3c044e90	0.008075371
73	0xbcdca67c	-0.026934855
74	0x3be70312	0.0070499266
75	0x3d758285	0.059938926
76	0xbd8eaacd	-0.069661714
77	0x3d90376c	0.07041821
78	0xbc4eb443	-0.01261622
79	0xbd2e4155	-0.042542774
80	0xbdc33fb5	-0.095336355
81	0xbc273e71	-0.010207758
82	0xbdd23c9c	-0.102654666
83	0xbc3ce9c2	-0.011530342
84	0x3d34ebe8	0.04417029
85	0x3c1a3b79	0.009413593
86	0xbc0af6b4	-0.00848167
87	0x3c650b10	0.013979688
88	0xbc39b125	-0.011333738
89	0x3adc20e3	0.0016794469
90	0xbc1e3c28	-0.009657897
91	0xbd157596	-0.03648909
92	0xbc4b2b31	-0.012400434
93	0xbb4e8c77	-0.003151683
94	0x3ba42208	0.0050089397
95	0x3d396d6f	0.04527038
96	0x3d1cca67	0.038278963
97	0xbd77e61d	-0.060522188
98	0xbd59eb4e	-0.05320292
99	0xbd215ec6	-0.039397024
100	0xbd63e02f	-0.05563372
101	0x3d2776bf	0.04088473
102	0xbdb4e8c3	-0.08833458
103	0x3d446964	0.04795207
104	0x3cf48608	0.029849067
105	0x3d917196	0.07101743
106	0x3d4656fc	0.0484228
107	0xbdae7d6c	-0.08520016
108	0xbbc11b36	-0.0058931364
109	0x3d715a01	0.058923725
110	0xbdcd5cb9	-0.10027451
111	0xbd729845	-0.059227247
112	0x3d2af98e	0.0417419
113	0x3d92b240	0.07162905
114	0x3d582d14	0.052777365
115	0xbd8afc36	-0.06786387
116	0xbd5a58d4	-0.05330737
117	0xbd0cba3e	-0.034357302
118	0xbdd2f1d9	-0.10300035
119	0xbd48b302	-0.04899884
120	0x3c884921	0.016636433
121	0xbc198a8b	-0.00937141
122	0xbdce6e24	-0.100796014
123	0x3b19376a	0.0023378977
124	0xbd1db02a	-0.03849808
125	0x3c5b14b5	0.013371636
126	0xbd5ce709	-0.05393127
127	0xbd7b962d	-0.061422516
128	0x3d018001	0.031616215
129	0xbd045afd	-0.032313336
130	0x3ca6e58f	0.020373134
131	0xbd7beb4d	-0.061503697
132	0xbcb550ad	-0.022133196
133	0xbd8bfebb	-0.06835695
134	0xbd5afa78	-0.053461522
135	0x3d1a41d2	0.037660427
136	0x3d305719	0.043051813
137	0xbd9f89cf	-0.07789957
138	0x3bbe65e6	0.005810487
139	0x3d09f53d	0.033681143
140	0x3d4b1760	0.04958284
141	0xbd80a95f	-0.06282305
142	0xbd46def8	-0.048552483
143	0xbd82148f	-0.063515775
144	0x3d3f2868	0.046669394
145	0xbd69c9af	-0.057077106
146	0xbda327b2	-0.07966556
147	0x3d13788f	0.036003646
148	0x3d2af050	0.041733086
149	0x3d524956	0.05133947
150	0xbc50e2d7	-0.012749395
151	0x3d6bf2c6	0.057604574
152	0xbd6a8a70	-0.05726093
153	0xbd0e36e1	-0.034720305
154	0xbd55ef2e	-0.052230053
155	0x3d8b98d4	0.06816259
156	0x3d9ef660	0.07761836
157	0xbd177d6d	-0.03698485
158	0xbb590363	-0.003311359
159	0xbbaf1e79	-0.005344209
160	0x3c869b78	0.016431555
161	0xbc25aec1	-0.010112465
162	0x3d876026	0.06610136
163	0xbc800e1c	-0.015631728
164	0xbba0c69e	-0.0049064895
165	0xbced35dc	-0.028956346
166	0x3cc14746	0.023593556
167	0xbc901b24	-0.017591067
168	0xbd75e472	-0.060032316
169	0xbdad93b0	-0.08475435
170	0x3d9443a8	0.07239467
171	0xbcb1f443	-0.021722918
172	0x3d91a011	0.07110608
173	0xbd0afb6f	-0.033931192
174	0x3d8cbfb8	0.06872505
175	0x3d3b7bba	0.04577229
176	0xbd83be0b	-0.06432732
177	0x3d7226c8	0.059119016
178	0xbcd902a4	-0.026490517
179	0xbd0280ec	-0.03186123
180	0x3c37b6d5	0.011213024
181	0xbd348738	-0.044074267
182	0xbc85c8b4	-0.016331054
183	0xbd3bb06c	-0.045822546
184	0xbca5ad65	-0.020224283
185	0x3d78df42	0.06075979
186	0xbc87884b	-0.016544482
187	0x3ce216e8	0.027598813
188	0x3da1940b	0.07889565
189	0xbd34e2d0	-0.044161618
190	0xbc4b5602	-0.012410643
191	0x3cdd58a6	0.02701981
192	0xbd8f3644	-0.06992772
193	0x3cc08336	0.023500066
194	0x3d29123d	0.04127716
195	0x3cbfff7e	0.023437258
196	0x3d620b7b	0.05518673
197	0xbd546fd8	-0.051864475
198	0x3c5d2aff	0.013499021
199	0xbd596814	-0.053077772
200	0x3c95c3c4	0.018281825
201	0x3da5cb62	0.08095433
202	0xbc081eea	-0.008308152
203	0xbd1dad42	-0.03849531
204	0xbd2fa0a4	-0.04287781
205	0xbd0601ae	-0.032716446
206	0x3d8445e0	0.0645864
207	0xbcd1583d	-0.02555477
208	0xbd129377	-0.035785165
209	0xbca77bd6	-0.020444792
210	0xbd804d58	-0.06264752
211	0xbd6beb1d	-0.05759727
212	0x3bbc7488	0.0057511963
213	0xbd991b1f	-0.07475876
214	0xbda15d7e	-0.0787916
215	0x3d4bf320	0.04979241
216	0x3d9b2998	0.07576293
217	0xbd05d36c	-0.03267233
218	0xbd19cf2e	-0.037551098
219	0x3cd06d55	0.025442759
220	0x3c096737	0.008386425
221	0x3d73b3f6	0.059497796
222	0x3da26133	0.079286955
223	0xbd2c11c0	-0.042009115
224	0x3bb5e794	0.005551288
225	0xbd744e3a	-0.059644915
226	0xbda720ff	-0.081605904
227	0x3d336d87	0.043805625
228	0xbd785513	-0.060628008
229	0xbd9c9e20	-0.076473475
230	0x3d6b1621	0.05739415
231	0x3bac0dd0	0.00525067
232	0xbd3f666e	-0.046728544
233	0x3d91ba91	0.07115663
234	0xbd9d5a84	-0.0768328
235	0xbda9b4b8	-0.082864225
236	0xbdbc5208	-0.09195334
237	0xbcb91b63	-0.022596067
238	0xbbe6d521	-0.00704445
239	0xbcc82547	-0.024431838
240	0x3ba95d66	0.0051686047
241	0xbc165d57	-0.009177527
242	0x3cbb3e1e	0.022856768
243	0xbd835c55	-0.06414095
244	0xbc6f7f44	-0.014617745
245	0xbd6a44e4	-0.057194605
246	0x3d38e107	0.045136478
247	0x3d11232b	0.03543393
248	0xbcbc5861	-0.022991361
249	0xbcd437d2	-0.025905523
250	0xbc801dd6	-0.015639227
251	0x3d613dfb	0.05499075
252	0xbd5ded81	-0.05418158
253	0x3d9557d5	0.07292143
254	0x3d986081	0.07440282
255	0x3d6c3276	0.05766531

fc2.bias f4 [128]
0	0x3d0b7d26	0.034054898
1	0xbd500a52	-0.050791092
2	0xbbe7838f	-0.0070652436
3	0x3d31a3ea	0.04336921
4	0xbda1e5a3	-0.07905128
5	0x3d816e18	0.06319827
6	0xbcb1e98d	-0.021717811
7	0xbd4e08ac	-0.05030124
8	0x3d70c9e4	0.058786288
9	0x3d6aa7dc	0.05728899
10	0x3dbd213c	0.092348546
11	0x3d728b5b	0.05921493
12	0xbd85610b	-0.0651265
13	0x3cbac4b5	0.022798875
14	0xbbc7a696	-0.0060928566
15	0x3b12b17c	0.002238362
16	0x3d0d8499	0.034550283
17	0x3d65f617	0.056142893
18	0xbbf14de4	-0.0073640216
19	0xbc904108	-0.017609134
20	0xbd8c4198	-0.068484485
21	0x3d2fe327	0.04294124
22	0xbd2f72f5	-0.04283424
23	0xbd4b6ad5	-0.04966243
24	0x3d60ea11	0.054910723
25	0xbd01c3fc	-0.031681046
26	0x3d34264e	0.043981843
27	0xbc4e1660	-0.012578577
28	0xbd3ee0d0	-0.046601117
29	0x3cbc2a94	0.022969522
30	0xbdad2083	-0.08453467
31	0x3cac4f7e	0.021033999
32	0x3c52805a	0.012847984
33	0x3dc480ab	0.09594854
34	0xbdb2c0f6	-0.08728211
35	0x3d85c4ec	0.065317005
36	0x3dc3113e	0.09524773
37	0x3d008f92	0.03138692
38	0x3d0d3b14	0.03448017
39	0xbd48ba52	-0.049005814
40	0xbd7e2309	-0.06204513
41	0xbdaa6d3a	-0.083216146
42	0xbdb61acb	-0.08891829
43	0xbd775c20	-0.06039059
44	0x3d65bbe0	0.056087375
45	0xbd2a97a9	-0.04164854
46	0x3b8c7bab	0.0042872033
47	0x3c5b892b	0.013399403
48	0x3d9058f3	0.07048216
49	0xbd588933	-0.05286522
50	0xbc26a06c	-0.0101700835
51	0x3cb92cf0	0.022604436
52	0xbc36518f	-0.0111278435
53	0xbd2a84d9	-0.0416306
54	0xbd77674d	-0.06040125
55	0x3d542c77	0.051800217
56	0x3d4cac44	0.049968973
57	0xbd2decd4	-0.042462185
58	0xba8f5af8	-0.0010937145
59	0xbd4778ec	-0.048699304
60	0xbda145f2	-0.07874669
61	0x3a155777	0.0005696932
62	0xbd4852a2	-0.04890693
63	0x3d5a3fdc	0.053283557
64	0xbcd1e6c5	-0.025622735
65	0xbd556a87	-0.052103546
66	0xbdaa0ebb	-0.08303591
67	0x3d4db363	0.050219905
68	0x3d718b4f	0.058970746
69	0x3d86d483	0.06583502
70	0xbcaaf408	-0.020868316
71	0x3d40de91	0.047087256
72	0x3dcaeb2b	0.09908136
73	0xbc1e8dcc	-0.009677362
74	0xbd3b6b09	-0.045756374
75	0xbcebcf8f	-0.028785495
76	0xbccafd85	-0.02477909
77	0x3d5d5223	0.05403341
78	0x3ca8d405	0.020608911
79	0x3d05fa5a	0.032709457
80	0xbd461488	-0.048359424
81	0x3d0410a7	0.032242443
82	0x3dd3fb26	0.10350637
83	0x3d9bfdbe	0.07616757
84	0x3da8974a	0.08231981
85	0x3cd6128b	0.026131889
86	0x3cc0a5d3	0.023516571
87	0xbc0073f1	-0.007840143
88	0xbc64a70c	-0.013955843
89	0x3d990b82	0.07472898
90	0x3da8ce97	0.08242529
91	0xbd24097b	-0.040048104
92	0x3d8109df	0.06300711
93	0xbd840b31	-0.06447447
94	0xbd0ef823	-0.03490461
95	0x3ca5bd2d	0.020231808
96	0xbd91dab3	-0.07121792
97	0xbc56f06b	-0.013118844
98	0xbd5185aa	-0.051152863
99	0xbd9f93f6	-0.07791893
100	0x3d8eee98	0.06979102
101	0xbd8ebe4e	-0.069698915
102	0x3db98c3c	0.09059951
103	0x3d27b335	0.04094239
104	0xbd8add1d	-0.06780455
105	0x3dd8dd80	0.10589123
106	0xbd0af894	-0.03392847
107	0xbd1f5c50	-0.038906395
108	0x3d8d87e9	0.069106884
109	0x3a4efc2f	0.00078958547
110	0x3d873828	0.06602508
111	0xbc82acc0	-0.015951514
112	0x3d70f2e3	0.058825385
113	0xbcf8ac52	-0.030355606
114	0x3da98e67	0.08279114
115	0xbd80ba72	-0.062855616
116	0x3d13401c	0.03594981
117	0x3ca2107c	0.019783251
118	0x3dd76eb0	0.10519159
119	0xbc72327f	-0.014782547
120	0x3d45e1ed	0.048311163
121	0x3d82d4ad	0.06388221
122	0xbce0321a	-0.02736764
123	0xbcdb469b	-0.026767066
124	0x3d94ee33	0.072719954
125	0xbd6c93e7	-0.05775824
126	0x3ddafae7	0.10692387
127	0xbc5b38aa	-0.013380209

fc3.weight f4 [5, 128]
0	0x3d645c4f	0.055752095
1	0xbbb16b78	-0.0054144226
2	0xbdb7537c	-0.0895147
3	0xbd6adbe2	-0.057338603
4	0xbd0f3c91	-0.03496987
5	0xbc898e42	-0.016791467
6	0xbd14c5f3	-0.03632159
7	0xbc5d89d3	-0.013521629
8	0x3d531686	0.051535152
9	0xbda83fe0	-0.08215308
10	0xbb007a3d	-0.001960411
11	0x3d2a2497	0.0415388
12	0x3da5f9d4	0.081042916
13	0x3d062647	0.032751348
14	0xbdc879a9	-0.0978883
15	0xbc04bd6b	-0.008101801
16	0xbda0f821	-0.07859827
17	0x3d6168f6	0.05503174
18	0x3d966cfb	0.07345005
19	0x3d6676d6	0.056265675
20	0x3d50aa2e	0.050943546
21	0x3d254717	0.040351
22	0xbd999ad2	-0.07500233
23	0xbd98075b	-0.07423278
24	0xbdb54f8d	-0.08853064
25	0xbc8359de	-0.016034063
26	0x3bdedf4c	0.0068015214
27	0xbdbcb4bd	-0.092141606
28	0xbdd9e494	-0.10639301
29	0x3d780305	0.060549755
30	0xbda8f76b	-0.08250316
31	0xbdcecefe	-0.100980744
32	0x3cf4d9ed	0.029889071
33	0xbda7230c	-0.081609815
34	0x3cc0ee70	0.023551196
35	0x3caa389a	0.020778943
36	0x3d843fdf	0.06457495
37	0x3d4ac91d	0.049508203
38	0xbc795411	-0.015217797
39	0xbd5f044a	-0.05444745
40	0x3ce53895	0.027981082
41	0xbd2dc8ce	-0.04242783
42	0x3d98e5e5	0.07465724
43	0x3b0d1b6a	0.0021531233
44	0xbc98881d	-0.018619591
45	0xbd22145e	-0.039570205
46	0x3d8f27c8	0.069900095
47	0x3ce7a016	0.028274577
48	0x3d5ea3a6	0.054355286
49	0x3b657e9e	0.0035018097
50	0xbddf1052	-0.10891785
51	0xbd73b9ad	-0.059503246
52	0xbcb24a80	-0.02176404
53	0xbdd9e623	-0.10639598
54	0xbdd526bf	-0.10407781
55	0xbd8960fe	-0.06707953
56	0x3d07b6a3	0.03313316
57	0xbc75e245	-0.01500756
58	0x3d9723f2	0.07379903
59	0xbda27fa9	-0.079345055
60	0x3d8669ca	0.065631464
61	0x3d8c1bd3	0.068412445
62	0xbd3371ef	-0.043809827
63	0x3b8bee6f	0.004270367
64	0xbd7bdd44	-0.061490312
65	0xbda88c67	-0.082299046
66	0x3d23ac39	0.039959166
67	0x3d05a474	0.032627538
68	0x3d82bf59	0.06384153
69	0x3c864637	0.016390903
70	0xbd81fd3d	-0.063471295
71	0x3d345566	0.044026755
72	0xbda3fd53	-0.08007302
73	0xbd1a775d	-0.03771149
74	0xbda1fa79	-0.07909102
75	0xbda8aa6a	-0.08235629
76	0x3da29afb	0.079397164
77	0xbd017840	-0.03160882
78	0x3a42ca43	0.0007430652
79	0x3d488f3f	0.048964735
80	0x3d3b38f1	0.0457086
81	0x3d587bae	0.052852325
82	0x3d88c06e	0.06677328
83	0x3d036896	0.032082163
84	0x3ce2298e	0.027607705
85	0xbd1768cf	-0.036965188
86	0x3c423aa5	0.011854802
87	0xbc1ea42b	-0.009682695
88	0xbd642c93	-0.05570657
89	0x3c2c5c69	0.010520079
90	0xbcc536d7	-0.024074001
91	0xbc926474	-0.017870165
92	0x3c63ca06	0.013903147
93	0xbdc72a66	-0.09724884
94	0x3d2794c4	0.04091336
95	0x3d044a06	0.032297157
96	0x3da80506	0.08204083
97	0xbdc38b62	-0.095480695
98	0x3d4e48de	0.05036246
99	0xbd52b2b7	-0.051439967
100	0x3c8a6874	0.01689551
101	0x3c55e23c	0.013054427
102	0xbd134e7d	-0.035963524
103	0xbd892abc	-0.06697604
104	0xbda2e6ae	-0.07954155
105	0x3b8d859a	0.004318905
106	0x3d196494	0.037449434
107	0x3d65018c	0.05590968
108	0x3bcd5416	0.0062661273
109	0x3c8e8ac7	0.017400159
110	0xbcfa46f0	-0.030551404
111	0x3d318ac3	0.043345224
112	0xbdc56dff	-0.09640121
113	0x3d3e7abf	0.04650378
114	0x3d8a6ee2	0.067594305
115	0xbda9a747	-0.08283859
116	0x3c71bb41	0.0147541175
117	0xbcf889e8	-0.030339196
118	0xbd1a1ebf	-0.037626978
119	0x3d201edb	0.039091926
120	0x3ce7cf86	0.028297197
121	0x3d4e692b	0.050393265
122	0xba3ff5bf	-0.0007322691
123	0xbd936000	-0.07196045
124	0x3d2ead70	0.04264587
125	0x3d5a2c53	0.053264927
126	0xbce600f0	-0.028076619
127	0xbdb75b1c	-0.089529246
128	0xbd88301d	-0.06649802
129	0xbd32cd0b	-0.043652575
130	0x3d4a4cf5	0.0493898
131	0x3d61bdcc	0.055112645
132	0xbd01a209	-0.03164867
133	0x3d9d931e	0.07694076
134	0xbc260db6	-0.010135105
135	0xbd435b53	-0.047694515
136	0x3c5f74a5	0.01363865
137	0x3beaa3c1	0.0071606343
138	0x3d9f08a0	0.07765317
139	0xbd79c0c5	-0.060974855
140	0xbc9b1996	-0.018933099
141	0xbd31ea79	-0.0434365
142	0x3d924c15	0.07143418
143	0xbd6ce52e	-0.05783575
144	0xbd0e2828	-0.034706265
145	0xbd08b67c	-0.033377156
146	0xbd94c642	-0.07264377
147	0x3c1a111d	0.009403494
148	0x3b578300	0.0032884479
149	0x3d13b07f	0.03605699
150	0xbd499a88	-0.049219638
151	0x3ca45ee6	0.020064782
152	0x3c266420	0.010155708
153	0xbd842dd7	-0.06454056
154	0x3cb5fa39	0.022214042
155	0x3ca8a5b0	0.020586818
156	0x3d1d0dc5	0.03834321
157	0xbd755154	-0.059892014
158	0x3cd35242	0.02579606
159	0x3d847401	0.064674385
160	0xbd7418d7	-0.059594
161	0x3cd1bd53	0.025602972
162	0xbc807048	-0.01567854
163	0x3cf509ae	0.029911842
164	0x3dd70c9c	0.10500452
165	0x3dbff5f7	0.09373086
166	0xbd5e4300	-0.054263115
167	0xbcca1390	-0.024667531
168	0xbd3c8fb6	-0.04603549
169	0x3d3825fe	0.044958107
170	0x3c139a61	0.009008975
171	0x3b25a526	0.0025275438
172	0xbd6128dc	-0.054970607
173	0xbc3706e4	-0.011171076
174	0x3dbe9389	0.09305484
175	0x3dc89b7b	0.097952805
176	0x3d8f2116	0.069887325
177	0xbd416863	-0.04721869
178	0xbd7b428f	-0.061342772
179	0x3d9d2718	0.07673472
180	0x3d5600b7	0.052246775
181	0xbd2746ec	-0.04083912
182	0x3db64eea	0.089017704
183	0xbd5eb7cd	-0.054374505
184	0x3d2ebec3	0.042662393
185	0x3d1dd307	0.03853133
186	0x3d70acc8	0.058758527
187	0xbd9f305e	-0.07772897
188	0xbc570071	-0.013122664
189	0xbd61ec80	-0.055157185
190	0x3d825578	0.06363958
191	0x3dce0baa	0.100608185
192	0xbd918cdd	-0.07106946
193	0xbd9c2026	-0.07623319
194	0x3c990428	0.01867874
195	0xbc46f7f5	-0.0121440785
196	0xbd4e6d3c	-0.050397143
197	0xbb2023c5	-0.0024435383
198	0x3d1cc119	0.03827009
199	0x3d8b09c7	0.06788974
200	0x3dc69c41	0.09697772
201	0x3d276e75	0.040876824
202	0xbd0de57f	-0.034642693
203	0x3d22fbeb	0.03979103
204	0x3c0250f4	0.007953871
205	0x3cbc635c	0.022996597
206	0xbd87d36e	-0.06632124
207	0x3dcc2589	0.09968097
208	0xbd427059	-0.047470424
209	0x3bca44ef	0.0061727683
210	0x3d8fe321	0.07025743
211	0x3ca5775f	0.020198522
212	0x3d08d3e4	0.0334052
213	0xbc926e50	-0.017874867
214	0x3bc709c9	0.0060741645
215	0xbd9f74f0	-0.07785976
216	0x3dd70de3	0.105006956
217	0x3dc6b59d	0.09702609
218	0xbcfcf876	-0.030880194
219	0x3db44236	0.08801691
220	0xbc03f9fa	-0.0080552045
221	0xbd4e5552	-0.050374337
222	0xbd1b25cf	-0.037877854
223	0xbda1809c	-0.078858584
224	0x3d5d5cdf	0.054043647
225	0xbd384167	-0.044984248
226	0x3c3eda5c	0.011648741
227	0xbd8e3771	-0.06944168
228	0xbcbd66f4	-0.023120381
229	0x3cb6c4e7	0.022310687
230	0x3d749888	0.059715778
231	0xbc9c6f51	-0.019096049
232	0xbd23f936	-0.040032588
233	0x3d907ce1	0.07055069
234	0xbd7118b6	-0.058861457
235	0x3dbd862e	0.09254108
236	0x3dd75903	0.105150245
237	0x3d3cdff9	0.046112034
238	0x3cf2004c	0.029541157
239	0xbb06a6eb	-0.0020546268
240	0x3dd89e88	0.105771124
241	0x39c602db	0.0003776763
242	0x3cac0f5a	0.021003414
243	0xbb2bacf2	-0.0026195613
244	0x3d1f580a	0.03890232
245	0x3d958d7e	0.07302378
246	0x3c3e3a72	0.011610614
247	0xbbf97744	-0.0076130945
248	0xbce3aa87	-0.027791275
249	0x3d24f0b2	0.040268607
250	0x3d89c54e	0.06727086
251	0x3b48fd8f	0.003066871
252	0xbcb49322	-0.022042815
253	0x3c389093	0.011264938
254	0xbd10ac97	-0.035320845
255	0x3ca09f91	0.019607337

fc3.bias f4 [5]
0	0xbd18576d	-0.03719275
1	0x3dadb5fb	0.08481976
2	0x3d252466	0.040317915
3	0x3d5bd5ae	0.053670578
4	0xbca5eb4a	-0.020253796

fc1.weight f4 [128, 147]
0	0xbd80391d	-0.062608935
1	0xbcbb419b	-0.022858432
2	0x3c374d72	0.011187898
3	0x3dacfbff	0.08446502
4	0x3d3615ad	0.044454265
5	0x3c0104c3	0.00787467
6	0xbc20c892	-0.009813445
7	0xbd3197e0	-0.04335773
8	0x3d39f8c2	0.04540325
9	0x3d71ece2	0.0590638
10	0xbccb3d01	-0.024809362
11	0xbd29dc5a	-0.04146991
12	0x3c9a0df6	0.018805485
13	0x3d43e530	0.047825992
14	0x3d24754b	0.04015092
15	0xbd941e94	-0.07232395
16	0xbd7deafd	-0.06199168
17	0x3d71dd2b	0.059048813
18	0x3d8bed2a	0.06832345
19	0x3d76cea0	0.060255647
20	0xbd4ae2ca	-0.04953269
21	0x3c0b0a29	0.008486309
22	0xbb9d3d5d	-0.004798575
23	0x3cdeb5f5	0.027186373
24	0xbd1c53a4	-0.038165703
25	0x3cd3892d	0.025822246
26	0x3d421d0e	0.04739099
27	0xbae0677c	-0.0017120684
28	0x3d506e44	0.050886407
29	0x3d882b4d	0.06648884
30	0x3d8d93ab	0.06912931
31	0x3cb8db13	0.0225654
32	0x3dae7ae3	0.085195325
33	0x3b42aba9	0.0029704368
34	0xbd414e79	-0.047193978
35	0x3d65e2af	0.056124385
36	0xbd9d94d5	-0.07694403
37	0xbd0bf508	-0.034169227
38	0xbd8d77a1	-0.06907583
39	0xbd357f65	-0.044310946
40	0xbd4bee25	-0.04978766
41	0xbc824bd8	-0.015905306
42	0x3da4885d	0.08033822
43	0xbd72fa03	-0.05932046
44	0xbd4aacdb	-0.049481254
45	0x3d6cdd2e	0.05782812
46	0x3da24245	0.07922796
47	0xbccb38b3	-0.02480731
48	0x3d6be5e2	0.05759228
49	0xbce8acc0	-0.028402686
50	0xbc810781	-0.015750648
51	0xbd8903ce	-0.06690179
52	0xbcb79134	-0.022408105
53	0xbce211ba	-0.027596343
54	0xbd472bbf	-0.048625704
55	0x3db3977f	0.0876913
56	0x394b4dfe	0.00019388643
57	0x3d97200b	0.073791586
58	0xbd9571e7	-0.07297116
59	0xbcf8b03d	-0.030357474
60	0x3c7a7f96	0.015289208
61	0x3d52d5fc	0.051473603
62	0x3cfc10fc	0.030769818
63	0xbd9e3682	-0.0772524
64	0xbb090d6a	-0.0020912536
65	0xbd20585c	-0.039146766
66	0xbd1bd249	-0.03804234
67	0x3da2dc56	0.07952182
68	0xbd9b6a90	-0.075886846
69	0x3dae313a	0.08505483
70	0xbd9d62a9	-0.076848336
71	0xbd6a8a5a	-0.05726085
72	0x3a40c5b8	0.0007353681
73	0xbcb5f36f	-0.022210805
74	0xbd392604	-0.04520227
75	0xbd0a9f50	-0.03384334
76	0xbb517697	-0.0031961554
77	0x3d481f04	0.048857704
78	0x3d640dab	0.055677097
79	0x3c86d1a0	0.016457379
80	0x3d915c38	0.070976675
81	0xbd2156d1	-0.039389435
82	0xbd8cd2cf	-0.06876146
83	0x3d8e9603	0.06962206
84	0x3bb85d19	0.0056263325
85	0xbd37cf59	-0.044875477
86	0x3c1c926f	0.009556397
87	0x3d94154b	0.07230624
88	0x3d452105	0.048127193
89	0x3d73f96e	0.059564047
90	0xbcfd3b26	-0.030911993
91	0xbd85eb03	-0.065389656
92	0xbd4c165e	-0.04982602
93	0x3d99b48f	0.07505142
94	0xbd68b9ed	-0.056817938
95	0xbd8dd5d0	-0.06925547
96	0xbd95a7c0	-0.073073864
97	0x3d08806e	0.033325605
98	0xbd6e511e	-0.058182828
99	0x3ba8a81d	0.005146994
100	0x3daa2111	0.08307088
101	0x3aeb3c08	0.0017946968
102	0xbd14a654	-0.036291435
103	0x3d342ca3	0.04398788
104	0x3db7ed08	0.08980757
105	0x3cb1fe31	0.021727653
106	0xbd4660c9	-0.048432145
107	0x3a30d6b3	0.000674586
108	0xbd7d54fb	-0.06184862
109	0xbd4fb288	-0.05070737
110	0x3ae8ef96	0.0017771597
111	0xbc610851	-0.013734893
112	0x3ce9ef7e	0.028556582
113	0xbd1c5286	-0.038164638
114	0xbda595b5	-0.08085195
115	0xbd93e56f	-0.07221495
116	0x3ce58e61	0.028021993
117	0xbd9bad30	-0.07601392
118	0x3d40dd8e	0.04708629
119	0xbd142b52	-0.036174126
120	0x3d29be53	0.041441273
121	0x3d375218	0.044756025
122	0xbc00f340	-0.007870495
123	0xbd6f9c83	-0.05849887
124	0xbd1a62fb	-0.03769205
125	0xbd522dac	-0.051313087
126	0x3a445e4b	0.00074908574
127	0x3d5a428a	0.053286113
128	0x3c825263	0.015908426
129	0xbca7f879	-0.020504223
130	0x3daf9d58	0.08574933
131	0x3da7ee73	0.081997775
132	0xbc47bbf8	-0.012190811
133	0x3cab078f	0.020877628
134	0xbd733106	-0.059372924
135	0xbd1b1e51	-0.03787071
136	0xbd59cfb9	-0.053176615
137	0xbbf8299f	-0.007573321
138	0x3d8305f4	0.0639762
139	0xbd33f0c6	-0.04393079
140	0xbca68460	-0.020326793
141	0x3b535370	0.0032245778
142	0x3da2265b	0.07917472
143	0x3c6a4cf2	0.014300572
144	0xbc93411e	-0.017975386
145	0xbd6ad34c	-0.057330415
146	0x3d5cf74d	0.053946782
147	0xbc40f52d	-0.011777204
148	0x3d9b17d3	0.075729035
149	0xbd1cb427	-0.038257744
150	0xbd86b262	-0.065769926
151	0x3d00416b	0.031312387
152	0xbc42b0e7	-0.011882997
153	0xbd015358	-0.031573623
154	0x3c29d7fc	0.010366436
155	0xbcd15fdf	-0.02555841
156	0xbd66e20e	-0.056367926
157	0x3d8f0660	0.06983638
158	0xbabda963	-0.0014470037
159	0xbd536f80	-0.051620007
160	0x3d96a647	0.07355934
161	0x3dc09c5c	0.09404823
162	0x3db03781	0.086043365
163	0x3caacad3	0.020848667
164	0x3db678bf	0.08909749
165	0xbc9dc721	-0.019259991
166	0x3d917368	0.0710209
167	0xbd13ca3d	-0.03608154
168	0x3b64db45	0.0034920734
169	0xbc8e7c2e	-0.017393198
170	0x3d3be491	0.045872275
171	0x3db59842	0.088669315
172	0x3b98d0b8	0.004663553
173	0x3dd28b91	0.102805264
174	0xbd98895e	-0.07448076
175	0x3af646f8	0.0018789461
176	0x3beac992	0.0071651423
177	0xbbf794aa	-0.007555564
178	0xbc31707b	-0.01083004
179	0xbb8a6881	-0.0042238836
180	0x3cdb181a	0.026744891
181	0xbb0a193a	-0.0021072165
182	0xbcb7a04e	-0.022415306
183	0x3d0a3020	0.0337373
184	0x3d37dd0d	0.044888545
185	0xbc12a745	-0.008951013
186	0x3db0c0dc	0.08630535
187	0x3cf5e66c	0.0300171
188	0x3d9bd095	0.07608143
189	0xbd217580	-0.039418697
190	0x3d88c0e4	0.06677416
191	0x3da66399	0.081244655
192	0x3d6f2c15	0.05839165
193	0x3cac7fc0	0.02105701
194	0x3b379f2a	0.0028018453
195	0xbcca7665	-0.024714658
196	0x3c349716	0.01102235
197	0x3ce02d8e	0.027365472
198	0xbca2bf07	-0.01986648
199	0x3daa32f5	0.083105005
200	0x3ce2ce36	0.02768622
201	0x3db86e38	0.090053976
202	0xbc3f4b13	-0.011675614
203	0x3d82ddd2	0.06389965
204	0xbceff52b	-0.02929171
205	0x3b8a21a6	0.004215437
206	0x3c9096ac	0.017649971
207	0x3d8de565	0.06928519
208	0xbd08cbd4	-0.03339751
209	0x3cff3211	0.031151803
210	0x3d89a104	0.067201644
211	0x3d4a5780	0.049399853
212	0xba00bb3c	-0.00049107126
213	0x3dc1af3a	0.0945725
214	0xbd12ef6d	-0.035872865
215	0xbd94fcf3	-0.07274809
216	0xbce294e9	-0.027658897
217	0x3c5bda9f	0.013418823
218	0xba106300	-0.0005507916
219	0xbd35d4da	-0.044392444
220	0x3dc43324	0.09580067
221	0x3d084619	0.033269975
222	0xbc0cda1f	-0.008596926
223	0x3d01db5f	0.03170335
224	0x3bb9ccc3	0.0056701615
225	0x3cf7f2a9	0.030267077
226	0x3d9ac9e8	0.07558042
227	0x3dd2d4d4	0.102945
228	0xbcbb1464	-0.022836871
229	0x3db8c354	0.09021631
230	0x3dc7d2d7	0.097570114
231	0xbcb85ab0	-0.02250418
232	0xbbe37d50	-0.0069424286
233	0x3d33c310	0.043887198
234	0x3d23b7e6	0.0399703
235	0xbba42c97	-0.0050101983
236	0xbd31f9fa	-0.043451287
237	0x3dbea997	0.093096904
238	0xbd92a757	-0.07160824
239	0x3da71398	0.08158034
240	0x3dbe094b	0.09279116
241	0xbccea9c5	-0.025227437
242	0xbcfa25f9	-0.030535685
243	0x3d6de664	0.058081046
244	0x3db027c9	0.086013384
245	0xbd86e351	-0.06586326
246	0xbd9ebf78	-0.077513635
247	0xbd64cb74	-0.05585809
248	0x3cdcebcf	0.026967911
249	0x3d34471e	0.044013135
250	0x3cc6cd22	0.024267737
251	0x3d07fd14	0.03320034
252	0x3da1d8ff	0.07902717
253	0xbd42fa29	-0.047601853
254	0x3cfad0ae	0.030617084
255	0xbd9e02ac	-0.07715353

fc1.bias f4 [128]
0	0x3d1942ef	0.03741735
1	0xbc9ffe96	-0.019530576
2	0x3da5d7a5	0.080977716
3	0x3bb56ba2	0.0055365125
4	0x3d56ba4b	0.052423757
5	0x3d686ba3	0.056743275
6	0xbd568936	-0.05237695
7	0xbd8dfb2e	-0.06932674
8	0xb892481e	-6.9752554e-05
9	0x3bfb4b49	0.007668887
10	0xbd85ca8d	-0.06532774
11	0xbbca63d5	-0.0061764517
12	0x3d9a4be0	0.07534003
13	0x3d057d04	0.032589927
14	0xbc9039be	-0.017605659
15	0x3d8c44f9	0.06849093
16	0xbc2cc4c8	-0.010544963
17	0x3d861171	0.065462954
18	0xbd64a39a	-0.055820085
19	0x3db1b905	0.08677868
20	0xbd3e085d	-0.046394695
21	0xbd4e50f8	-0.050370187
22	0x3dad7fcb	0.0847164
23	0xbda32020	-0.07965112
24	0x3cef7b78	0.02923368
25	0x3ca3a2d2	0.0199751
26	0x3c2e0c58	0.01062306
27	0xbd31d19e	-0.043412797
28	0x3d935d7a	0.071955636
29	0x3dcfff8b	0.10156163
30	0xbbe9913f	-0.0071279104
31	0xbd43de7b	-0.047819596
32	0xbd345e42	-0.044035204
33	0x3dc9de63	0.0985687
34	0x3d931a74	0.0718278
35	0xbcef7417	-0.02923016
36	0x3d817ced	0.06322656
37	0xbd913c4e	-0.0709158
38	0xbd831b4f	-0.06401693
39	0xbd34d85f	-0.04415166
40	0x3d714d4e	0.058911614
41	0x3da8ef07	0.08248716
42	0x3da41fab	0.08013853
43	0x3db13d9a	0.08654328
44	0xbd3758af	-0.04476231
45	0x3da1db65	0.07903174
46	0x3d8d58e2	0.06901719
47	0x3da42206	0.08014302
48	0x3c5345f3	0.012895095
49	0x3dc7c7de	0.097549185
50	0x3ce28e9e	0.027655896
51	0x3d992939	0.07478566
52	0x3d971da4	0.073787004
53	0x3c7c9528	0.015416421
54	0x3d8d4f7a	0.068999246
55	0x3d22f95d	0.039788593
56	0x3d25e8fb	0.04050539
57	0x3dc159ed	0.0944098
58	0xbd88ff0b	-0.066892706
59	0x3da144bc	0.07874438
60	0xbca726a7	-0.020404173
61	0x3c606f12	0.013698356
62	0xbcded12d	-0.027199352
63	0x3d87b93f	0.0662713
64	0xbce4f9c9	-0.027951138
65	0xbc0fa1e6	-0.008766627
66	0x3d891f38	0.06695408
67	0x3daffc0c	0.08592996
68	0xbd4d1ee0	-0.050078273
69	0xbc5314c7	-0.012883372
70	0x3ce5a24d	0.028031493
71	0x3dad463b	0.08460661
72	0x3d651bf3	0.055934858
73	0x3d8caee1	0.06869293
74	0xbca30e47	-0.019904269
75	0x3d1acf51	0.03779537
76	0x3d844b68	0.06459695
77	0x3d84f691	0.06492341
78	0x3c1dc7a2	0.009630116
79	0xbd2f47bd	-0.042793024
80	0x3db090cf	0.0862137
81	0x3d8e3889	0.06944377
82	0x3c858acb	0.016301533
83	0x3d0e569c	0.034750566
84	0xbd4aa303	-0.049471866
85	0xbd09d834	-0.033653453
86	0x3a6bcbe4	0.00089949206
87	0xbcfcf366	-0.03087778
88	0x3b334910	0.002735678
89	0xbd3dc722	-0.046332486
90	0x3cfe1556	0.031016033
91	0x3d93ac0b	0.07210549
92	0x3cebba33	0.02877531
93	0xbc8a2d0a	-0.01686718
94	0xbd0fd584	-0.035115734
95	0x3d96af2f	0.07357632
96	0xbd24fca3	-0.040279996
97	0x3cf3dec8	0.029769316
98	0x3d0c969d	0.034323324
99	0x3ce8c3ce	0.02841368
100	0x3cadc152	0.021210346
101	0x3d53e160	0.051728606
102	0x3d2f0d64	0.04273738
103	0xbd23a358	-0.0399507
104	0x3c984576	0.018587809
105	0x3d361acb	0.044459146
106	0x3c842044	0.016128667
107	0x3cac9862	0.021068756
108	0x3dbdb01f	0.09262108
109	0xbb74d909	-0.0037360808
110	0x3c38d664	0.011281583
111	0xbcaaaed5	-0.02083532
112	0xbc797bfa	-0.015227312
113	0x3d383c01	0.0449791
114	0x3d3dc59e	0.04633104
115	0x3bef031a	0.007294071
116	0x3d89a994	0.067217976
117	0xbd6d8a71	-0.057993356
118	0x3d0a4a92	0.033762522
119	0xbd5ac5fb	-0.053411465
120	0x3db7a167	0.08966332
121	0x3d9fc065	0.07800368
122	0x3b802419	0.003910553
123	0xbc5ab4d7	-0.01334878
124	0x3ccaf4e8	0.024774984
125	0xbd547dde	-0.05187785
126	0x3c9fe4e2	0.01951832
127	0xbd2e1c2b	-0.04250733

fc2.weight f4 [128, 128]
0	0x3d84b858	0.06480473
1	0x3d7aeb0b	0.06125931
2	0xbd1fd398	-0.03902015
3	0xbd47d732	-0.04878921
4	0xbdc43b68	-0.09581643
5	0xbd9689cb	-0.07350501
6	0xbc0028ba	-0.00782221
7	0x3d309c38	0.04311773
8	0xbd852e2f	-0.065029494
9	0xbd0c15ae	-0.034200363
10	0xbcbb6466	-0.022875022
11	0x3d734805	0.059394855
12	0x3c5095f7	0.012731067
13	0xbc6babda	-0.014384234
14	0x3c2616fe	0.010137318
15	0x3d96504c	0.07339534
16	0xbd293904	-0.04131414
17	0xbd466f08	-0.04844573
18	0xbd4e4275	-0.050356347
19	0x3d8f8215	0.07007233
20	0x3d655554	0.05598958
21	0xbd847f3f	-0.06469583
22	0x3d6b5de8	0.057462603
23	0x3cfac714	0.030612506
24	0x3d3ce9a8	0.04612127
25	0xbd8652e5	-0.065587796
26	0x3c717190	0.014736548
27	0xbd8d7fdf	-0.06909155
28	0xbd26c288	-0.040712863
29	0xbca2e568	-0.01988478
30	0xbc8ae65c	-0.016955547
31	0x3c90a2cd	0.017655754
32	0xbd8acb83	-0.06777098
33	0x3d5da5b3	0.0541131
34	0x3b8602b4	0.0040896777
35	0xbd668c22	-0.056285985
36	0xbd1902e5	-0.037356276
37	0xbcb22857	-0.021747751
38	0xbdb021fd	-0.08600233
39	0xbdb30685	-0.08741478
40	0xbdb161db	-0.086612426
41	0xbd28ee0a	-0.041242637
42	0xbd92d6c8	-0.071698725
43	0xbdaa9d61	-0.08330799
44	0xbdbd3b82	-0.09239866
45	0xbdc31376	-0.09525196
46	0x3d89e521	0.06733156
47	0xbdac5839	-0.08415265
48	0xbbadeb59	-0.0053075966
49	0x3d335505	0.043782253
50	0x3d5dc5fe	0.0541439
51	0x3ceb0f4a	0.028693814
52	0x3d813297	0.06308477
53	0xbaaeeebd	-0.0013346296
54	0x3b836fae	0.004011116
55	0xbd1c2c0e	-0.03812795
56	0x3d58f1af	0.052964862
57	0x3b9978a3	0.0046835705
58	0xbd55e87e	-0.052223675
59	0xbda031bd	-0.07821987
60	0x3c41bee8	0.011825301
61	0x3d91408d	0.0709239
62	0x3d0f856e	0.035039358
63	0xbd7c1120	-0.06153977
64	0xbdc9ea85	-0.09859184
65	0x3d33b93e	0.043877833
66	0x3d3ffa8c	0.0468698
67	0xbbd1880f	-0.0063943933
68	0xbdb9ebb4	-0.0907816
69	0xbc4bb9f5	-0.012434472
70	0x3d5eca5b	0.0543922
71	0xbd9ee10d	-0.07757769
72	0xbd3c1c1a	-0.045925237
73	0xbd13d24e	-0.036089234
74	0x3d0e76b3	0.03478117
75	0x3d95d2dc	0.07315609
76	0x3c3b1ade	0.01141998
77	0xbd77a417	-0.060459223
78	0x3d2dab7d	0.042399872
79	0xbc888e56	-0.016669434
80	0xbad2dfb3	-0.0016088396
81	0xbd9ff8c8	-0.07811123
82	0x3c582caa	0.0131942425
83	0xbd4dc69b	-0.050238233
84	0xbcba4107	-0.022736086
85	0x3d0f2a4f	0.034952458
86	0x3d48ae94	0.048994616
87	0x3d82d37c	0.06387994
88	0xbaa51c3f	-0.0012596919
89	0xbcf284c9	-0.029604333
90	0x3d7f18a2	0.06227935
91	0x3d91d8f9	0.071214624
92	0x3c6da1c9	0.014503905
93	0xbd8e0bca	-0.06935842
94	0xbdcff05a	-0.10153265
95	0xbd811a90	-0.063038945
96	0xbcfe7f2f	-0.031066505
97	0xbdc43ccc	-0.095819086
98	0xbd1785c8	-0.036992818
99	0xbd8b372a	-0.06797631
100	0x3d288430	0.04114169
101	0xbd00f58c	-0.03148417
102	0xbd4a6b2f	-0.049418624
103	0xbd0161c0	-0.031587362
104	0xbd003bee	-0.031307153
105	0x3cf52cfa	0.029928673
106	0xbc96e054	-0.018417515
107	0xbd069a6f	-0.032862123
108	0x3c65af29	0.014018812
109	0xbd650dae	-0.05592125
110	0xbdc46128	-0.095888436
111	0x3d8e54a3	0.06949737
112	0xbd2e9e7d	-0.042631615
113	0x3d7e8158	0.06213507
114	0xbd196aef	-0.037455495
115	0xbcd7417d	-0.026276344
116	0xbd86a8cd	-0.06575165
117	0xbd7058fd	-0.058678616
118	0xbd742a1a	-0.059610464
119	0xbd836bcd	-0.06417046
120	0xbc77d5d4	-0.015126664
121	0xbc921cd0	-0.017836004
122	0x3cafa346	0.02144016
123	0x3d66e37b	0.056369286
124	0xbdaa6ac3	-0.083211444
125	0x3b9b21a5	0.0047342354
126	0xbdb666a7	-0.08906298
127	0x3cef97ed	0.029247249
128	0x3d622caa	0.055218376
129	0xbce4713b	-0.027886024
130	0xbd23f977	-0.04003283
131	0x3d7339ef	0.05938142
132	0xbdcc2536	-0.09968035
133	0xbda49a85	-0.08037285
134	0x3d29e1e7	0.041475203
135	0x3d9bb9fd	0.07603834
136	0x3c8d3f96	0.017242234
137	0x3d659476	0.056049787
138	0x3d4f0107	0.05053809
139	0xbd9b784c	-0.07591304
140	0x3d03d477	0.032185044
141	0xbdaa4466	-0.08313827
142	0x3cf6a3a7	0.030107332
143	0x3d8fbc17	0.07018297
144	0x3d004d3a	0.03132365
145	0xbca7d15c	-0.020485573
146	0x3d6367b0	0.055518806
147	0xbd471a64	-0.048609152
148	0xbcad01d0	-0.021119028
149	0xbd98b9ae	-0.074572906
150	0x3d60490b	0.05475716
151	0x3da1e3e9	0.079047985
152	0xbbcccc39	-0.006249931
153	0x3b5baea8	0.0033520851
154	0xbac080ce	-0.0014686824
155	0x3d828d5c	0.063746184
156	0xbdb9207d	-0.090394
157	0xbda7d6b7	-0.081952505
158	0x3c091b8f	0.008368387
159	0xbcaec318	-0.021333262
160	0x3d92f1fb	0.0717506
161	0x3d0b7fb6	0.03405734
162	0xbd521118	-0.051285833
163	0xbd4a8be0	-0.0494498
164	0xbd87e369	-0.06635172
165	0xbd2d621a	-0.042329885
166	0xbc9723ee	-0.01844975
167	0xbd521e93	-0.05129869
168	0x3d8398f6	0.06425659
169	0x3d2190a8	0.039444596
170	0x3d1ac332	0.03778381
171	0xbda72e7a	-0.081631616
172	0xbd6d0976	-0.05787035
173	0x3d648578	0.05579135
174	0xbb362315	-0.0027791907
175	0xbcc6b6df	-0.024257122
176	0xbdc3d1d2	-0.095615044
177	0x3c26ccbb	0.0101806475
178	0x3d586bd5	0.05283721
179	0x3c745598	0.014912985
180	0x3ce090dd	0.027412826
181	0xbc3e0a3f	-0.011599123
182	0xbb09b486	-0.0021012141
183	0x3c842c6c	0.016134463
184	0xbd734287	-0.059389617
185	0xbd928681	-0.07154561
186	0x3d829b24	0.06377247
187	0x3bf7ea13	0.0075657456
188	0x3c8bbacc	0.017056845
189	0x3d5678e9	0.052361403
190	0xbd69a3d6	-0.05704101
191	0x3c8811fa	0.016610134
192	0xbd800cad	-0.06252418
193	0x3d4f73a3	0.05064739
194	0x3d43283e	0.0476458
195	0x3cae24bd	0.021257753
196	0xbd4cdf9d	-0.05001794
197	0xbd1f5ba0	-0.03890574
198	0xbc1bb941	-0.009504617
199	0xbda235b6	-0.07920401
200	0xbc630d5e	-0.013858167
201	0x3d7bbf4e	0.06146174
202	0x3d129b60	0.03579271
203	0xbda11ec9	-0.078672
204	0xbd564f03	-0.052321445
205	0xbd0412ee	-0.032244615
206	0x3c7d94c8	0.015477367
207	0xbcd515e2	-0.026011411
208	0xbd9ed07e	-0.077546105
209	0xbc90718e	-0.017632272
210	0x3d5be0aa	0.053681053
211	0xbcd0f431	-0.025507065
212	0xbd0fd87e	-0.035118572
213	0x3cc2965c	0.023753338
214	0x3a1efa2f	0.0006064502
215	0xbd8a75f7	-0.06760781
216	0xbd104106	-0.03521826
217	0x3d80db2f	0.06291806
218	0xbd50d5a2	-0.050984986
219	0x3b0c4773	0.0021404892
220	0xbc5e990d	-0.013586295
221	0xbd97d82a	-0.07414277
222	0xbcae07dd	-0.021243984
223	0xbd11416c	-0.03546278
224	0xbcac1bd4	-0.021009363
225	0xbda4f850	-0.08055174
226	0xba1bd298	-0.00059441617
227	0x3d137e71	0.036009256
228	0xbdb6912c	-0.08914408
229	0xbce92206	-0.028458606
230	0x3cd7ecd2	0.026358042
231	0x3cbf3f2f	0.023345558
232	0x3d03809d	0.032105077
233	0xbd9444a0	-0.07239652
234	0x3d67eb2a	0.056620754
235	0xbc5c6f9a	-0.013454342
236	0x3d30f259	0.04319987
237	0xbcd6e1a0	-0.026230633
238	0x3d006c6a	0.03135339
239	0xbdc66571	-0.09687317
240	0x3cf550b1	0.029945703
241	0xbd7d8537	-0.06189462
242	0x3ce5ad13	0.02803663
243	0xbccfaea6	-0.025351834
244	0x3d3c94ea	0.046040453
245	0x3be28b07	0.006913546
246	0xbb22b594	-0.0024827467
247	0xbd2dc7e4	-0.04242696
248	0x3d446323	0.047946107
249	0x3d010921	0.031502847
250	0xbd1a7d6e	-0.037717275
251	0x3ba1c3d5	0.004936675
252	0x3d4e9093	0.050430845
253	0x3cf89395	0.03034381
254	0x3d41b20c	0.04728894
255	0xbd9c33a9	-0.07627041

fc2.bias f4 [128]
0	0x3d47d975	0.048791368
1	0x3acdf7a5	0.0015714063
2	0xbda2b870	-0.07945335
3	0x3c54892b	0.0129721565
4	0xbcc9abc2	-0.024618033
5	0x3d81b6d1	0.063336976
6	0xbd17b35b	-0.03703628
7	0x3c6cca8a	0.014452586
8	0xbb22fd0e	-0.002487007
9	0x3d47c32c	0.048770115
10	0xbdaeff03	-0.085447334
11	0x3d1db79a	0.038505174
12	0xbcea31f9	-0.028588282
13	0x3d92254f	0.07136022
14	0xbdaedccd	-0.08538208
15	0x3db88ca5	0.09011201
16	0x3c6c3b2a	0.014418403
17	0x3d974304	0.07385829
18	0x3d4cb2f5	0.049975354
19	0xbc59bc90	-0.013289586
20	0x3b31a65c	0.0027107215
21	0xbd1ef338	-0.03880617
22	0xbd9d6e2d	-0.0768703
23	0x3d9b1e85	0.075741805
24	0x3dcda508	0.10041243
25	0xbd447df2	-0.047971673
26	0x3d55608c	0.052094027
27	0xbc12d68a	-0.008962283
28	0x3d40eada	0.047098972
29	0xbcec8a19	-0.028874444
30	0x3d95e3d0	0.073188424
31	0xbd64c449	-0.055851255
32	0xbd7c408e	-0.061585
33	0x3cc57a06	0.024106037
34	0xbd497cd4	-0.04919131
35	0xbd142614	-0.036169127
36	0x3d5ebd87	0.054379966
37	0x3da63fa0	0.08117604
38	0xbd9eb20d	-0.07748804
39	0xbd9c9d89	-0.07647235
40	0x3da27ee3	0.07934358
41	0xbd3ac917	-0.04560193
42	0x3d2c13d6	0.042011105
43	0x3d745015	0.059646685
44	0x3d2d27f2	0.042274423
45	0xbd885e7a	-0.06658645
46	0x3cbc2c05	0.022970209
47	0xbd990084	-0.074708015
48	0x3d352fae	0.044234924
49	0x3cf8ba11	0.03036216
50	0x3cef0132	0.029175375
51	0xbd2aab0f	-0.04166704
52	0x3d8ad886	0.0677958
53	0xbd093ebb	-0.03350709
54	0x3c996067	0.018722726
55	0x3dc4eef0	0.09615886
56	0xbd19f68e	-0.03758865
57	0x3dbb8bce	0.09157525
58	0xbdb567c2	-0.08857681
59	0x3cd9c76b	0.026584348
60	0x3c5b5e7f	0.013389229
61	0xbbc37875	-0.0059652873
62	0x3d44775d	0.047965396
63	0xbd608d9e	-0.054822557
64	0x3cda798c	0.026669286
65	0x3d68cd5e	0.05683648
66	0x3c6fc2b3	0.014633822
67	0x3b0eb71e	0.0021776627
68	0x3dcc6b47	0.09981399
69	0x3cac8c49	0.021062987
70	0x3d92ffbe	0.07177685
71	0xbda49adb	-0.08037349
72	0xbc3f5497	-0.011677883
73	0x3dc5b911	0.09654439
74	0xbd42b457	-0.047535267
75	0x3c4d50ec	0.0125315
76	0xbd963ffe	-0.07336424
77	0x3d4266f1	0.047461454
78	0xbd5237ef	-0.051322874
79	0x3ca40138	0.020020112
80	0xbd841efc	-0.06451222
81	0x3cd0fcd2	0.02551118
82	0xbd912c57	-0.07088535
83	0xbd674445	-0.05646159
84	0x3d18bc0f	0.03728872
85	0x3d8ea78c	0.06965551
86	0x3da3a3b2	0.07990207
87	0x3d0029b0	0.031289756
88	0x3d3149ec	0.043283388
89	0xbd821d49	-0.06353242
90	0x3d84c000	0.064819336
91	0x3c639729	0.01389102
92	0x3d84d968	0.064867795
93	0xbd5868a0	-0.052834153
94	0xbdc0ea21	-0.094196565
95	0xbcc40f79	-0.02393316
96	0x3d230472	0.03979916
97	0xbd6cca8b	-0.057810348
98	0x3c94e370	0.018174857
99	0xbd352645	-0.04422595
100	0xbd90265d	-0.07038567
101	0x3cabd706	0.020976555
102	0x3cfd0884	0.03088785
103	0xbd480d9a	-0.048841096
104	0x3c8ee4e8	0.017443135
105	0x3d8761f2	0.066104785
106	0xbd5a9908	-0.0533686
107	0x3db3d971	0.08781708
108	0xbda3cda3	-0.079982065
109	0x3cecc5fc	0.028903
110	0xbc565657	-0.013082108
111	0x3cd260c0	0.0256809
112	0xbd25293b	-0.040322524
113	0xbcc448b0	-0.023960441
114	0x3d97c6b3	0.07410946
115	0xbdb081ad	-0.08618484
116	0x3d6a8247	0.05725315
117	0xbd3cbc35	-0.046077926
118	0xbd791dba	-0.060819365
119	0xbcf9b982	-0.030483965
120	0x3d964cac	0.07338843
121	0x3db5522b	0.08853563
122	0x3da8a8f7	0.082353525
123	0xbd40f303	-0.047106754
124	0xbd7c45b8	-0.061589926
125	0xbce3af2f	-0.027793495
126	0xbb936bf5	-0.0044989535
127	0xbc01cdc1	-0.007922591
