logs/maddpg_checkpoint_ep250.pth (torch, 585614 bytes, 24 tensors)

fc1.weight f4 [128, 147]
-0.020151868 -0.0327215 0.04318629 0.08489827 0.06683865 0.053863395 0.054357708 0.07667391
-0.037493445 -0.058470342 -0.012579417 0.004207541 0.008348598 -0.027391663 0.09375856 0.03930132
-0.0019454388 0.012214807 -0.044177778 -0.073692925 0.074248776 0.084113225 0.019016797 0.03840028
0.08074269 0.018691069 -0.057775117 -0.05066395 -0.05817175 0.050314408 0.09867587 0.033818785
-0.055129822 -0.0019618392 -0.012968674 -0.0040377164 0.048556916 -0.0013089898 0.070653714 -0.01325506
0.06621716 0.070149235 0.02952934 -0.008968211 0.047749244 0.08241536 0.029128436 -0.041619867
0.0009965071 -0.040430292 0.06676785 -0.0031923873 -0.06682855 0.07842883 0.089766346 -0.045773398
0.059723433 0.00884062 0.033837106 0.09973177 -0.02113571 -0.030641356 0.097787775 0.04028536
0.022671971 -0.020138858 -0.057052065 0.017414002 0.06774409 0.031889558 0.012537876 0.043447923
-0.0073383353 0.0029951762 0.10091154 -0.007357956 0.0783362 0.08906715 0.07020873 0.07305536
0.09340606 0.08366067 -0.027498998 0.087139055 -0.0070740054 -0.052986074 0.025333606 0.007099996
-0.05372124 0.08197572 0.057289857 0.022731686 -0.029366514 -0.036421694 -0.024596319 0.044713423
-0.034313507 0.06767018 0.074672945 -0.03977346 -0.00054444856 0.0704467 0.05891048 0.0016897543
0.048505783 0.07462338 -0.07074403 0.03231564 0.03754609 -0.006192251 -0.0356141 0.053425133
0.07951927 0.100506134 -0.053774565 0.097505786 0.016999988 0.058828868 0.046348657 -0.02883586
-0.055904515 -0.03530939 0.09352989 0.045954857 0.08826837 -0.022629546 0.09589796 0.07780347
-0.03686958 0.0126616135 -0.039275974 -0.029279346 0.040503155 0.0022275543 -0.044742502 -0.008294526
0.068016194 -0.046937115 -0.07154787 -0.07073263 0.068923496 0.0686118 -0.03075667 -0.029780881
-0.0019965752 -0.0028228322 0.027897699 0.06446018 0.029550157 0.0044266004 0.099498086 0.06970975
-0.013234968 0.027188784 0.044444226 0.048165306 0.015276742 -0.02770783 -0.040241588 0.060296208
0.07471702 0.019421646 -0.04673568 -0.004651191 0.046669513 0.06475681 -0.046197664 0.09304477
0.093025215 0.039247792 0.07322137 0.019627899 0.10618203 0.0389062 -0.036609482 -0.036710735
-0.027044931 0.0016906062 -0.029328033 0.084087916 -0.017524114 0.019400997 -0.0028812217 0.009690372
0.097849466 -0.009469105 -0.04299437 -0.045692466 0.04289568 -0.025435237 0.024377622 0.043893754
-0.02316575 0.10815513 -0.03970974 -0.050596196 0.040411524 0.005131151 0.10864794 -0.030608688
-0.0077995677 -0.022390414 0.040168818 -0.03442987 -0.038654532 0.02797421 0.048122704 -0.044716645
0.013955108 -0.015648615 0.00818986 0.02279187 0.051310986 0.015435041 0.0913917 0.0909823
0.029201388 0.028072339 0.0526802 0.10198639 -0.03756743 0.095350824 0.061413903 0.015560612
-0.027214993 0.08766889 -2.3753237e-05 0.115324505 -0.024175024 0.08160568 0.069369696 -0.009860777
-0.017345425 0.019462649 0.0646191 -0.060939487 -0.044075143 0.06341077 -0.05815168 0.015657358
0.08679502 0.08071857 0.06554542 0.033042178 -0.031157516 0.021625934 0.028254857 -0.04038334
0.075734 0.094052136 0.0011784339 -0.026001036 -0.038685437 -0.0046247616 -0.026882729 0.10475445
00000000: 8815 a5bc fb06 06bd 1be4 303d 25df ad3d
00000010: b4e2 883d dd9f 5c3d 30a6 5e3d 3607 9d3d
00000020: ba92 19bd 997e 6fbd e619 4ebc 69df 893b
00000030: 8fc8 083c 7b64 e0bc 7d04 c03d 6cfa 203d
00000040: 18fe feba 9d20 483c c2f3 34bd 51ec 96bd
00000050: be0f 983d 8e43 ac3d 1dc9 9b3c 9d49 1d3d
00000060: 6c5c a53d 031e 993c 9aa5 6cbd 0185 4fbd
00000070: 8045 6ebd 7b16 4e3d 9316 ca3d 9185 0a3d
00000080: cfcf 61bd 3392 00bb 907a 54bc d24e 84bb
00000090: 9ee3 463d 6992 abba e5b2 903d c02b 59bc
000000a0: dd9c 873d 67aa 8f3d 84e7 f13c 67ef 12bc
000000b0: b694 433d 62c9 a83d c29e ee3c 9879 2abd
000000c0: 3b9d 823a 3c9a 25bd 95bd 883d 5f37 51bb
000000d0: 68dd 88bd 4b9f a03d 6bd7 b73d e37c 3bbd
000000e0: 8fa0 743d 3fd8 103c c798 0a3d 2c40 cc3d
000000f0: cc24 adbc 9503 fbbc f544 c83d 4302 253d
00000100: 92ba b93c 3ffa a4bc 6daf 69bd cfa7 8e3c
00000110: 6abd 8a3d a09e 023d aa6b 4d3c 73f6 313d
00000120: 6b76 f0bb b84a 443b b6aa ce3d 021b f1bb
00000130: bb6e a03d d768 b63d 98c9 8f3d 0c9e 953d
00000140: ad4b bf3d 4956 ab3d 9445 e1bc f675 b23d
00000150: 0fcd e7bb ed07 59bd 6c88 cf3c 15a7 e83b
00000160: ce0a 5cbd e3e2 a73d c5a8 6a3d cd37 ba3c
00000170: 0b92 f0bc ea2e 15bd 387e c9bc 6c25 373d
00000180: 528c 0cbd aa96 8a3d 21ee 983d 7fe9 22bd
00000190: 53b9 0eba 5c46 903d 1e4c 713d bf7a dd3a
000001a0: 00ae 463d 25d4 983d 3fe2 90bd 685d 043d
000001b0: eec9 193d 5ee8 cabb 17e0 11bd 50d4 5a3d
000001c0: 00db a23d 29d6 cd3d b842 5cbd 1db1 c73d
000001d0: 8f43 8b3c 8af6 703d 17d8 3d3d 2e39 ecbc
000001e0: 22fc 64bd 94a0 10bd 998c bf3d 293b 3c3d
000001f0: 0cc6 b43d 9961 b9bc 2666 c43d 6d57 9f3d
00000200: 8f04 17bd a872 4f3c d8df 20bd 3ddb efbc
00000210: a3e6 253d 29fc 113b ea43 37bd c3e5 07bc
00000220: 134c 8b3d 2241 40bd b187 92bd 45dc 90bd
00000230: c327 8d3d 5884 8c3d 69f5 fbbc 09f7 f3bc
00000240: f9d8 02bb 44ff 38bb b789 e43c b303 843d
00000250: 2c13 f23c 040d 913b a7c5 cb3d fcc3 8e3d
00000260: 7bd7 58bc 03bb de3c 260b 363d fc48 453d
00000270: 4d4b 7a3c 88fb e2bc 5dd4 24bd 28f9 763d
00000280: 3d05 993d 251a 9f3c ea6d 3fbd 0569 98bb
00000290: 8828 3f3d 389f 843d c339 3dbd 428e be3d
000002a0: 0184 be3d 4bc2 203d 16f5 953d b0ca a03c
000002b0: f775 d93d 1c5c 1f3d d3f3 15bd ff5d 16bd
000002c0: 558d ddbc 5597 dd3a 5841 f0bc 4936 ac3d
000002d0: bb8e 8fbc d7ee 9e3c e1d2 3cbb 5ec4 1e3c
000002e0: 4d65 c83d 4e24 1bbc dd1a 30bd 0628 3bbd
000002f0: 61b3 2f3d 8f5d d0bc 94b3 c73c f0c9 333d
00000300: 19c6 bdbc 7080 dd3d aea6 22bd f53d 4fbd
00000310: 8e86 253d 3723 a83b d082 de3d 12bf fabc
00000320: 8493 ffbb 1a6c b7bc 0f88 243d 5606 0dbd
00000330: 3754 1ebd 2c2a e53c 501c 453d cd28 37bd
00000340: f7a3 643c 8631 80bc c32e 063c 04b6 ba3c
00000350: 782b 523d 41e3 7c3c 922b bb3d ee54 ba3d
00000360: c037 ef3c f6f7 e53c 32c7 573d 3ede d03d
00000370: 4ee0 19bd 4b47 c33d 258d 7b3d f0f1 7e3c
00000380: faf1 debc bf8b b33d b041 c7b7 412f ec3d
00000390: b30a c6bc e120 a73d b311 8e3d 198f 21bc
000003a0: fe17 8ebc 2270 9f3c 0557 843d af9b 79bd
000003b0: 2388 34bd 81dd 813d 7530 6ebd dc43 803c
000003c0: 96c1 b13d c74f a53d ad3c 863d 3c57 073d
000003d0: 0c3e ffbc df28 b13c bb76 e73c 0069 25bd
000003e0: 6d1a 9b3d 689e c03d ae75 9a3a 2000 d5bc
000003f0: 9f74 1ebd 508b 97bb 2b39 dcbc 8089 d63d

fc1.bias f4 [128]
0.03534194 -0.016261455 0.05286533 0.042980827 0.09811624 -0.0062331473 0.071991034 -0.014537138
0.060303945 0.051077172 0.04651051 -0.029331282 -0.036003865 -0.0020299878 -0.01929228 -0.026865952
-0.018298987 0.085353166 0.044182844 -0.02234456 0.002917229 0.035694234 0.11343865 -0.023233827
0.035985216 0.093213096 0.041142315 0.11428774 -0.01993957 -0.00024906636 -0.015035095 0.018257977
0.007352726 -0.03402284 -0.02199264 0.08862031 0.059144523 -0.041978776 -0.019542508 -0.04290253
0.02944525 -0.03584431 0.114072666 0.0023617002 0.051141527 0.01778286 0.0412565 0.08325457
0.030607942 0.049418654 -0.030135859 -0.037068486 0.004773995 0.07311124 0.041001733 0.018457185
0.041033328 0.10976222 0.0730682 0.021917341 0.08726399 0.019483015 -0.025671883 -0.009482686
-0.058707617 0.022678286 -0.07386675 -0.04377405 0.07235749 0.01968913 -0.02805651 -0.041945692
0.067666665 0.08779179 0.03569658 -0.05237616 0.029884225 0.062210992 0.018290687 -0.046834894
-0.013426184 0.07255215 0.039277006 0.027179066 0.0926249 -0.05202602 0.020839417 0.057888925
0.02568155 0.068297975 -0.00398809 -0.048816133 0.030651802 0.04754917 0.1042292 0.086655445
-0.0114079965 0.014055874 0.079483405 0.032488067 -0.012287641 0.05760959 0.09719733 0.08217359
0.04514783 -0.017929133 0.09767528 0.08872306 0.053299446 0.016775168 0.014546719 0.069462955
-0.009596355 0.04161877 0.0004246941 -0.015992433 0.061510075 0.05243796 0.014890172 0.03720457
0.07269496 0.09329873 0.04437874 0.07221402 0.04752033 0.013281825 0.08790658 -0.019710924
00000000: b6c2 103d be36 85bc 5189 583d aa0c 303d
00000010: 2bf1 c83d 6e3f ccbb 0970 933d 2d2d 6ebc
00000020: 4501 773d 4c36 513d ce81 3e3d 2848 f0bc
00000030: ca78 13bd 8b09 05bb d80a 9ebc fc15 dcbc
00000040: c2e7 95bc a4cd ae3d 12f9 343d f00b b7bc
00000050: fb2e 3f3b 1e34 123d 8652 e83d de54 bebc
00000060: 3c65 133d 82e6 be3d d884 283d b10f ea3d
00000070: 4f58 a3bc 1f95 82b9 c255 76bc c191 953c
00000080: 23ef f03b 895b 0bbd e929 b4bc 917e b53d
00000090: 8741 723d f0f1 2bbd 9c17 a0bc 90ba 2fbd
000000a0: 2a37 f13c 7cd1 12bd ee9e e93d c1c6 1a3b
000000b0: c779 513d 5cad 913c 93fc 283d 5f81 aa3d
000000c0: 82bd fa3c 376b 4a3d 7adf f6bc 20d5 17bd
000000d0: 2c6f 9c3b 59bb 953d 6ff1 273d 8633 973c
000000e0: 9012 283d 04cb e03d c8a4 953d ff8b b33c
000000f0: 76b7 b23d d89a 9f3c d74d d2bc 455d 1bbc
00000100: 6677 70bd d0c7 b93c 7347 97bd 6b4c 33bd
00000110: 2a30 943d 194b a13c c4d6 e5bc 3fcf 2bbd
00000120: d294 8a3d 2fcc b33d 9436 123d 6288 56bd
00000130: c3cf f43c f4d0 7e3d 5ad6 953c f2d5 3fbd
00000140: 7ff9 5bbc 3996 943d ede0 203d a2a6 de3c
00000150: 20b2 bd3d 3c19 55bd 6db7 aa3c f01c 6d3d
00000160: 1d62 d23c cfdf 8b3d 86ae 82bb 6df3 47bd
00000170: 7d19 fb3c ebc2 423d 1e76 d53d 6978 b13d
00000180: 9be8 3abc 9c4a 663c 32c8 a23d 3512 053d
00000190: 1a52 49bc 09f8 6b3d 650f c73d a14a a83d
000001a0: eeec 383d 1ee0 92bc fa09 c83d 70b4 b53d
000001b0: 8550 5a3d 146c 893c 5d55 6e3c 9842 8e3d
000001c0: 083a 1dbc 7278 2a3d 7aa9 de39 9002 83bc
000001d0: fdf1 7b3d 30c9 563d e8f5 733c d263 183d
000001e0: 18e1 943d 6813 bf3d 7bc6 353d f2e4 933d
000001f0: ada4 423d 039c 593c 5d08 b43d ce78 a1bc

fc2.weight f4 [128, 128]
0.05130175 -0.02772659 -0.08205533 -0.024964683 0.044034623 -0.02070813 0.018226225 0.022802375
0.03889558 0.014470277 -0.019823076 0.02214203 0.008193004 -0.09729972 -0.05071866 -0.07103635
-0.059738927 -0.10171747 0.057221644 0.0554792 0.0032346444 0.051224668 0.06352567 0.0489711
-0.01567314 -0.08721922 -0.05148053 -0.09494402 -0.024014153 -0.021184526 0.06703762 -0.09267192
0.058201417 -0.03525272 -0.08026599 0.039077282 -0.022861954 -0.06020037 -0.04438535 -0.0963562
0.011392034 0.034799334 -0.04903409 -0.07642593 -0.05139708 0.061100014 -0.085938774 0.057699665
-0.002294966 -0.019606337 -0.032781474 0.05093267 0.0046346057 -0.09969221 -0.07581266 -0.020125553
0.013344811 0.071068704 -0.028811097 -0.08228536 0.071174204 0.067651816 -0.023547124 -0.047683332
-0.07343348 0.048283793 -0.004446487 -0.09771797 -0.07981957 0.06939421 -0.049942102 -0.03898862
0.007833883 -0.027172506 0.006795194 0.05993464 -0.069715895 0.07020037 -0.012847222 -0.04270885
-0.09558162 -0.010394194 -0.10279011 -0.011731283 0.043972112 0.009376678 -0.008727533 0.013716743
-0.011569813 0.0014932099 -0.009905777 -0.03649069 -0.012602586 -0.0034193257 0.004841491 0.045050267
0.03809409 -0.060718704 -0.053367272 -0.039641794 -0.05602146 0.040655233 -0.088525236 0.047650732
0.029647702 0.07067171 0.048151106 -0.08543625 -0.0061155907 0.058610246 -0.10046079 -0.059412662
0.04156673 0.07142438 0.05250441 -0.06826168 -0.053514887 -0.03454553 -0.10338778 -0.049235627
0.016357789 -0.009556773 -0.10105159 0.002160696 -0.038738903 0.013149279 -0.054108974 -0.061660603
0.031616207 -0.032317773 0.020362614 -0.061515447 -0.022141628 -0.068365335 -0.05347227 0.037649605
0.043040708 -0.07789971 0.0058102356 0.03367205 0.04957144 -0.06282305 -0.048552483 -0.06352734
0.046658803 -0.057078987 -0.07966556 0.036003057 0.04172088 0.05133932 -0.012758786 0.057604574
-0.057261772 -0.03473321 -0.052238274 0.068151556 0.077606775 -0.036991272 -0.0033115644 -0.005355944
0.016431434 -0.010112465 0.0660901 -0.015635755 -0.0049065324 -0.028956346 0.023591094 -0.017591067
-0.060032316 -0.08475438 0.07238409 -0.021734102 0.071092695 -0.033943888 0.06871641 0.04577226
-0.06432732 0.05911407 -0.026491651 -0.031873707 0.011213024 -0.044086747 -0.01633117 -0.045833785
-0.020231454 0.060750306 -0.01655184 0.027589226 0.07888521 -0.0441735 -0.012410644 0.027008025
-0.06992772 0.023496943 0.04127716 0.023426333 0.055175778 -0.05186448 0.013499019 -0.053084645
0.018270977 0.08094373 -0.008313297 -0.038495347 -0.042878024 -0.032728296 0.06457284 -0.02555477
-0.03579784 -0.020444792 -0.062658414 -0.057610307 0.0057511535 -0.07475876 -0.07880092 0.04977937
0.07576293 -0.032682296 -0.037560843 0.025442759 0.008381021 0.059489936 0.07927916 -0.04202133
0.0055390126 -0.059655353 -0.08160605 0.04379665 -0.060628023 -0.0764857 0.057387166 0.0052506533
-0.046728738 0.07115663 -0.07684494 -0.08287359 -0.091958255 -0.022596294 -0.0070552104 -0.024439944
0.0051686047 -0.009188727 0.02284383 -0.06414281 -0.014626015 -0.057198375 0.045124125 0.035428237
-0.023002837 -0.02591602 -0.015639246 0.05499075 -0.054185305 0.07292092 0.07439685 0.057660744
00000000: c921 523d e022 e3bc a00c a8bd bc82 ccbc
00000010: a65d 343d 19a4 a9bc 2a4f 953c 0ccc ba3c
00000020: f950 1f3d be14 6d3c 0164 a2bc 3463 b53c
00000030: f33b 063c 1345 c7bd 5fbe 4fbd 827b 91bd
00000040: ceb0 74bd 4051 d0bd 3e61 6a3d 283e 633d
00000050: 54fc 533b f5d0 513d bf19 823d ec95 483d
00000060: f564 80bc fe9f b2bd 40dd 52bd 0372 c2bd
00000070: 54b9 c4bc 2c8b adbc 054b 893d c7ca bdbd
00000080: 9c64 6e3d 2865 10bd 7f62 a4bd 800f 203d
00000090: fe48 bbbc aa94 76bd 6acd 35bd 6656 c5bd
000000a0: a7a5 3a3c bf89 0e3d f8d7 48bd 3385 9cbd
000000b0: bf85 52bd 0244 7a3d ab00 b0bd 7c56 6c3d
000000c0: 2467 16bb 789d a0bc de45 06bd c69e 503d
000000d0: e4dd 973b 6e2b ccbd ab43 9bbd 58de a4bc
000000e0: 32a4 5a3c 788c 913d 4005 ecbc 3a85 a8bd
000000f0: c8c3 913d 098d 8a3d e6e5 c0bc 994f 43bd
00000100: 4b64 96bd 3ac5 453d d6b3 91bb 5c20 c8bd
00000110: 7178 a3bd 8d1e 8e3d 1790 4cbd 88b2 1fbd
00000120: b059 003c e098 debc 38aa de3b 067e 753d
00000130: 35c7 8ebd 36c5 8f3d 287d 52bc 7aef 2ebd
00000140: 4cc0 c3bd 694c 2abc 9f83 d2bd 9134 40bc
00000150: 1a1c 343d a3a0 193c edfd 0ebc 31bc 603c
00000160: 508f 3dbc cfb7 c33a d74b 22bc 4377 15bd
00000170: 147b 4ebc c416 60bb 5fa5 9e3b a186 383d
00000180: 8c08 1c3d 2db4 78bd a497 5abd 6f5f 22bd
00000190: c276 65bd 1a86 263d b84c b5bd 6a2d 433d
000001a0: bddf f23c 54bc 903d 183a 453d 33f9 aebd
000001b0: 4b65 c8bb 4c11 703d 63be cdbd b15a 73bd
000001c0: e041 2a3d f246 923d dd0e 573d c8cc 8bbd
000001d0: 6d32 5bbd 9d7f 0dbd f9bc d3bd 4cab 49bd
000001e0: c500 863c 0394 1cbc 23f4 cebd 779a 0d3b
000001f0: afac 1ebd 1370 573c 5fa1 5dbd d48f 7cbd
00000200: ff7f 013d a45f 04bd 7fcf a63c 9ff7 7bbd
00000210: 5c62 b5bc 2003 8cbd bd05 5bbd 7936 1a3d
00000220: 744b 303d e289 9fbd ca63 be3b b4eb 093d
00000230: 6c0b 4b3d 5fa9 80bd f8de 46bd 9f1a 82bd
00000240: 4d1d 3f3d a8cb 69bd b227 a3bd f177 133d
00000250: 83e3 2a3d 2e49 523d 3a0a 51bc c6f2 6b3d
00000260: 528b 6abd 6944 0ebd cdf7 55bd 0b93 8b3d
00000270: 4df0 9e3d 2984 17bd d506 59bb ea80 afbb
00000280: 379b 863c c1ae 25bc 3f5a 873d 8e16 80bc
00000290: fac6 a0bb dc35 edbc 1c42 c13c 241b 90bc
000002a0: 72e4 75bd b493 adbd 1c3e 943d b70b b2bc
000002b0: 0c99 913d bf08 0bbd 30bb 8c3d b17b 3b3d
000002c0: 0bbe 83bd 9821 723d 0505 d9bc 018e 02bd
000002d0: d5b6 373c 4e94 34bd f2c8 85bc 35bc 3bbd
000002e0: 6fbc a5bc 50d5 783d b997 87bc cd02 e23c
000002f0: 928e a13d 46ef 34bd 0456 4bbc ef3f dd3c
00000300: 4436 8fbd a97c c03c 3d12 293d 95e8 bf3c
00000310: ffff 613d d96f 54bd fd2a 5d3c 496f 59bd
00000320: 04ad 953c d4c5 a53d 7f34 08bc 4cad 1dbd
00000330: dea0 2fbd 1b0e 06bd c43e 843d 3d58 d1bc
00000340: c2a0 12bd d67b a7bc 0e53 80bd c9f8 6bbd
00000350: 2c74 bc3b 1f1b 99bd 6062 a1bd 74e5 4b3d
00000360: 9829 9b3d dfdd 05bd 66d9 19bd 556d d03c
00000370: 8d50 093c b8ab 733d 1d5d a23d 8f1e 2cbd
00000380: 9b80 b53b 2c59 74bd 1321 a7bd 1e64 333d
00000390: 1755 78bd 89a4 9cbd ce0e 6b3d ac0d ac3b
000003a0: a266 3fbd 91ba 913d e160 9dbd a1b9 a9bd
000003b0: 9c54 bcbd dd1b b9bc 652f e7bb 4736 c8bc
000003c0: 665d a93b 508c 16bc fc22 bb3c 4e5d 83bd
000003d0: f4a1 6fbc d848 6abd 13d4 383d 331d 113d
000003e0: 7270 bcbc d54d d4bc e01d 80bc fb3d 613d
000003f0: 69f1 5dbd 9057 953d 605d 983d ac2d 6c3d

fc2.bias f4 [128]
0.033903863 -0.0507998 0.000159663 0.05602588 -0.07905128 0.07023421 -0.010783894 -0.037291605
0.066241644 0.067495525 0.10197754 0.05920849 -0.065837085 0.031681318 0.003767997 0.01567501
0.04373482 0.06579927 -0.007641342 -0.0066881045 -0.06852059 0.05433028 -0.035025403 -0.038644955
0.065984964 -0.03172792 0.0440204 -0.0054836646 -0.033455085 0.02294723 -0.06267549 0.030271193
0.020777943 0.10341024 -0.08728211 0.065201834 0.10598614 0.040119372 0.03445203 -0.034943774
-0.062726885 -0.083216146 -0.08891829 -0.047251567 0.05607939 -0.04171381 0.0042730873 0.025510453
0.07830953 -0.053101618 -0.0004420889 0.03114263 -0.0019134368 -0.031462137 -0.049268626 0.051787894
0.057318363 -0.042578664 -0.0011392127 -0.04869959 -0.078884475 0.00053008075 -0.038395558 0.06116143
-0.025635887 -0.052231055 -0.08304184 0.050218306 0.058967993 0.0656245 -0.012046305 0.05775026
0.106472105 -0.001071187 -0.03654144 -0.021813665 -0.024781985 0.05402361 0.020509513 0.040186353
-0.048363563 0.04069244 0.11076188 0.08804889 0.09145832 0.033625383 0.023340996 -0.00784021
-0.0065704416 0.08209904 0.09569484 -0.029377386 0.07560767 -0.053127218 -0.034906745 0.02022763
-0.07154637 -0.00230332 -0.041796435 -0.07849293 0.069682606 -0.06959347 0.09788534 0.04977703
-0.04380454 0.11501092 -0.034039717 -0.023944465 0.07691434 0.0007879583 0.07762912 -0.015967743
0.06693295 -0.030356273 0.090691164 -0.054549072 0.043791454 0.029187705 0.11297903 -0.014787434
0.04827996 0.079915546 -0.027385337 -0.016771678 0.07254959 -0.05850031 0.11415796 -0.004883369
00000000: c7de 0a3d 7313 50bd 366b 2739 657b 653d
00000010: a3e5 a1bd f4d6 8f3d eeae 30bc 15bf 18bd
00000020: b3a9 873d 183b 8a3d 9ad9 d03d 9a84 723d
00000030: 98d5 86bd 45c4 013d 80f0 763b e168 803c
00000040: 4823 333d c5c1 863d 3964 fabb e327 dbbb
00000050: 8654 8cbd 6d89 5e3d cc76 0fbd 2c4a 1ebd
00000060: 2023 873d 23f5 01bd bc4e 343d 50b0 b3bb
00000070: 3308 09bd d4fb bb3c 025c 80bd 4bfb f73c
00000080: 8136 aa3c bfc8 d33d f6c0 b2bd 8a88 853d
00000090: 430f d93d 3654 243d 921d 0d3d 3421 0fbd
000000a0: f476 80bd 3a6d aabd cb1a b6bd dc8a 41bd
000000b0: 81b3 653d 1adc 2abd 4105 8c3b 4cfb d03c
000000c0: bf60 a03d 1581 59bd 2bc8 e7b9 d41e ff3c
000000d0: 49cc faba 71de 00bd e6cd 49bd 8b1f 543d
000000e0: a9c6 6a3d f766 2ebd a351 95ba 3979 47bd
000000f0: 2f8e a1bd 1ef5 0a3a a944 1dbd 6884 7a3d
00000100: 5a02 d2bc 3bf0 55bd d711 aabd b6b1 4d3d
00000110: 6c88 713d 2366 863d de5d 45bc 898b 6c3d
00000120: 0c0e da3d 1267 8cba 7aac 15bd 92b2 b2bc
00000130: 9703 cbbc dc47 5d3d 9103 a83c 729a 243d
00000140: df18 46bd 1ead 263d 20d7 e23d fa52 b43d
00000150: 804e bb3d c5ba 093d 9e35 bf3c 3974 00bc
00000160: dc4c d7bb 8b23 a83d a8fb c33d d8a8 f0bc
00000170: 32d8 9a3d ed9b 59bd 60fa 0ebd 6ab4 a53c
00000180: e786 92bd 4cf3 16bb bd32 2bbd e7c0 a0bd
00000190: c1b5 8e3d 0587 8ebd 1c78 c83d 00e3 4b3d
000001a0: 646c 33bd d88a eb3d 3b6d 0bbd 2f27 c4bc
000001b0: 4485 9d3d fd8e 4e3a 04fc 9e3d c9ce 82bc
000001c0: 2414 893d b8ad f8bc 4abc b93d d96e 5fbd
000001d0: ab5e 333d 0e1b ef3c 8d61 e73d fe46 72bc
000001e0: 35c1 453d c3aa a33d 3757 e0bc c264 89bc
000001f0: e194 943d 059e 6fbd a6cb e93d ab04 a0bb

fc3.weight f4 [5, 128]
0.055707507 -0.005418781 -0.10144426 -0.07258013 -0.03496987 -0.027079128 -0.0509379 -0.030532371
0.042996064 -0.09551222 -0.012420053 0.041534122 0.07981481 0.020593852 -0.11148646 -0.025508558
-0.090101 0.042849224 0.07329628 0.04335154 0.050895467 0.025501939 -0.08733221 -0.08905249
-0.103671424 -0.016103324 0.006702447 -0.10387067 -0.12501305 0.060526073 -0.1048771 -0.113779046
0.01828772 -0.091896676 0.023551196 0.02073691 0.05424812 0.037647225 -0.01523547 -0.07231638
0.027125824 -0.04242783 0.07465724 -0.014959241 -0.018624648 -0.039618097 0.06989202 0.014892642
0.04363837 0.0031810903 -0.123089924 -0.07016922 -0.035606638 -0.12080997 -0.121185265 -0.06709282
0.021511681 -0.015204263 0.07371615 -0.07934549 0.06558461 0.068371736 -0.05857916 -0.006450926
-0.06150525 -0.082372904 0.039956912 0.032626662 0.06384016 0.016316457 -0.07697265 0.032318965
-0.08995903 -0.050109066 -0.093904145 -0.09362581 0.07939565 -0.031614836 0.00069140136 0.038431432
0.0457042 0.041790325 0.05658413 0.020415101 0.017405493 -0.047956984 0.011733077 -0.0096827755
-0.067275085 0.00026766118 -0.037254237 -0.03301794 0.001755535 -0.11374792 0.04091278 0.032295205
0.08203682 -0.111776605 0.037527695 -0.052382108 0.016869273 0.012854983 -0.04685503 -0.07880396
-0.104575574 -0.0054772515 0.03741247 0.042238098 -0.0061878534 0.017397998 -0.04154138 0.04333679
-0.10687126 0.04650337 0.056584273 -0.09618325 0.0041401354 -0.043381337 -0.048276175 0.03909094
0.028281998 0.030449418 -0.00074900256 -0.08634196 0.04259701 0.053222187 -0.038337007 -0.10332885
-0.06645341 -0.04364832 0.06215941 0.07128137 -0.03164867 0.087907925 0.0053956136 -0.029582663
0.022934768 0.02132425 0.08881232 -0.060970794 -0.017436763 -0.030500736 0.085956186 -0.03930064
-0.022433346 -0.020445704 -0.072500475 0.02318479 0.0033360398 0.051837485 -0.03608503 0.035888445
0.026229985 -0.06449208 0.022311116 0.033045366 0.058263578 -0.059870265 0.04874175 0.07830239
-0.04727372 0.03657681 -0.01567854 0.02995313 0.11598833 0.10635977 -0.05424786 -0.005496194
-0.045369096 0.044958107 0.0090089785 0.020848788 -0.05496594 -0.011134816 0.09306212 0.11218473
0.08129321 -0.04683696 -0.046198424 0.088092946 0.06694433 -0.025488345 0.10736211 -0.05436177
0.054993264 0.038677722 0.058829073 -0.07772854 -0.0130719915 -0.05511907 0.07939647 0.11205257
-0.0710589 -0.07615994 0.018681012 -0.012143355 -0.05039594 -0.002368483 0.052682694 0.08035577
0.10752798 0.05411655 -0.018844234 0.05184013 0.007955305 0.02300246 -0.06627205 0.110902354
-0.047466524 0.017959436 0.08111371 0.03261055 0.044274654 -0.0061583747 0.0061924625 -0.07785971
0.11736101 0.10795597 -0.016891573 0.10425794 0.004904627 -0.03269249 -0.037877295 -0.078857
0.054047596 -0.027599998 0.025329448 -0.06845837 -0.023094049 0.022656813 0.071319364 -0.0064995075
-0.015097005 0.08096374 -0.058821816 0.10656568 0.11840539 0.046113733 0.041253652 -0.0020472384
0.11691989 0.0003779762 0.03273066 0.011603439 0.050210137 0.08691655 0.022935947 -0.007612333
-0.027776338 0.06141608 0.067286335 0.018433085 -0.021994013 0.011326846 -0.024415487 0.034287505
00000000: 8e2d 643d 0890 b1bb 02c2 cfbd e4a4 94bd
00000010: 913c 0fbd 0cd5 ddbc 42a4 50bd 061f fabc
00000020: a41c 303d e99b c3bd 7a7d 4bbc af1f 2a3d
00000030: f275 a33d 70b4 a83c 0353 e4bd 53f7 d0bc
00000040: e086 b8bd ab82 2f3d 5c1c 963d 6291 313d
00000050: c477 503d 71e9 d03c 3bdb b2bd 2761 b6bd
00000060: af51 d4bd 1eeb 83bc 33a0 db3b 25ba d4bd
00000070: 6c03 00be 30ea 773d cec9 d6bd fd04 e9bd
00000080: 21d0 953c 5334 bcbd 70ee c03c 74e0 a93c
00000090: 4733 5e3d fa33 1a3d 319e 79bc 9c1a 94bd
000000a0: fa36 de3c cec8 2dbd e5e5 983d 9b17 75bc
000000b0: b892 98bc 9646 22bd 8c23 8f3d 4500 743c
000000c0: 26be 323d d779 503b 9216 fcbd e1b4 8fbd
000000d0: 44d8 11bd 386b f7bd fb2f f8bd f667 89bd
000000e0: 4439 b03c 4d1b 79bc 7ef8 963d e37f a2bd
000000f0: 3951 863d 7b06 8c3d b4f0 6fbd 4a62 d3bb
00000100: eeec 7bbd 20b3 a8bd dca9 233d 89a3 053d
00000110: a1be 823d 17aa 853c d6a3 9dbd e460 043d
00000120: 713c b8bd 2a3f 4dbd d150 c0bd e4be bfbd
00000130: 309a a23d 8f7e 01bd 293f 353a 476a 1d3d
00000140: 5434 3b3d 552c 2b3d c3c4 673d 923d a73c
00000150: f795 8e3c 8b6e 44bd 173c 403c 81a4 1ebc
00000160: 85c7 89bd e054 8c39 e697 18bd d23d 07bd
00000170: fb19 e63a abf4 e8bd 2994 273d fa47 043d
00000180: ec02 a83d 22eb e4bd a4b6 193d 9f8e 56bd
00000190: 6e31 8a3c b59d 523c 0feb 3fbd f863 a1bd
000001a0: b82b d6bd 847a b3bb d13d 193d db01 2d3d
000001b0: 7ac3 cabb 3f86 8e3c 4b27 2abd eb81 313d
000001c0: 52df dabd 517a 3e3d e9c4 673d b9fb c4bd
000001d0: f9a9 873b a1b0 31bd 3dbd 45bd d21d 203d
000001e0: a6af e73c 0f71 f93c b658 44ba 0ed4 b0bd
000001f0: 347a 2e3d 82ff 593d 4407 1dbd 139e d3bd
00000200: ba18 88bd 95c8 32bd de9a 7e3d f8fb 913d
00000210: 09a2 01bd 1209 b43d b0cd b03b 5757 f2bc
00000220: b2e1 bb3c 32b0 ae3c 3ce3 b53d 83bc 79bd
00000230: 8bd7 8ebc aedc f9bc cc09 b03d b5f9 20bd
00000240: 23c6 b7bc c07d a7bc 217b 94bd 07ee bd3c
00000250: 76a1 5a3b 8b53 543d e5cd 13bd c3ff 123d
00000260: 44e0 d63c 6c14 84bd cdc5 b63c 945a 073d
00000270: caa5 6e3d 863a 75bd 6ea5 473d 015d a03d
00000280: 17a2 41bd 91d1 153d 4870 80bc 4460 f53c
00000290: 4a8b ed3d 27d3 d93d 0133 5ebd 6b19 b4bb
000002a0: f2d4 39bd fe25 383d 659a 133c 14cb aa3c
000002b0: f723 61bd ce6e 36bc 5a97 be3d 1cc1 e53d
000002c0: 0e7d a63d 1dd8 3fbd 8f3a 3dbd 136a b43d
000002d0: 1c1a 893d efcc d0bc aae0 db3d 73aa 5ebd
000002e0: 9e40 613d 886c 1e3d c1f6 703d 2430 9fbd
000002f0: e82b 56bc 89c4 61bd 9e9a a23d d17b e53d
00000300: 5487 91bd bef9 9bbd ec08 993c ecf4 46bc
00000310: f96b 4ebd 8d38 1bbb cfc9 573d 9191 a43d
00000320: a137 dc3d 51a9 5d3d 395f 9abc 5156 543d
00000330: f856 023c a86f bc3c a4b9 87bd c620 e33d
00000340: 426c 42bd ab1f 933c f21e a63d a492 053d
00000350: 5759 353d 31cc c9bb 24ea ca3b e974 9fbd
00000360: f85a f03d 0518 dd3d 3260 8abc 3085 d53d
00000370: feb6 a03b 8fe8 05bd 3925 1bbd c77f a1bd
00000380: 0361 5d3d 6419 e2bc b47f cf3c e733 8cbd
00000390: bb2f bdbc c89a b93c e30f 923d d2f9 d4bb
000003a0: 6e59 77bc 51d0 a53d 25ef 70bd 1b3f da3d
000003b0: 867e f23d c1e1 3c3d 97f9 283d f62a 06bb
000003c0: b273 ef3d 1b2b c639 9610 063d 5a1c 3e3c
000003d0: 25a9 4d3d 4e01 b23d 2be4 bb3c e170 f9bb
000003e0: 348b e3bc 6d8f 7b3d 6bcd 893d fb00 973c
000003f0: ca2c b4bc 3c94 393c fd02 c8bc 0e71 0c3d

fc3.bias f4 [5]
-0.043520346 0.09139535 0.03501321 0.059258997 -0.02767255
00000000: 6442 32bd 7c2d bb3d 036a 0f3d 90b9 723d
00000010: 8bb1 e2bc

fc1.weight f4 [128, 147]
-0.056987368 -0.015482326 0.020701637 0.0911915 0.051560424 0.015833236 -0.0021432764 -0.033738002
0.055803325 0.0648121 -0.019510727 -0.02964139 0.02643347 0.055089112 0.04940816 -0.065589204
-0.054361787 0.06703061 0.07423422 0.066349275 -0.039345246 0.017410267 0.00022470974 0.041149925
-0.031095877 0.03593477 0.058833014 0.008271343 0.059251484 0.07598419 0.07650781 0.032380372
0.09369882 0.011664037 -0.040193792 0.06551549 -0.07086325 -0.029220534 -0.059203397 -0.03566196
-0.04580919 -0.006016209 0.088525034 -0.051042285 -0.03524481 0.065717235 0.08855935 -0.013130296
0.06640148 -0.019382806 -0.0038472079 -0.05352923 -0.014006831 -0.015360816 -0.037995428 0.09717866
0.011958187 0.08247077 -0.06063046 -0.019815063 0.024436682 0.06186891 0.040688083 -0.07175729
0.005962689 -0.026410894 -0.02651421 0.08642656 -0.063263714 0.09597057 -0.072066434 -0.04363294
0.014326787 -0.015741345 -0.033762854 -0.023306472 0.0038269227 0.05881632 0.06379149 0.026433723
0.08068602 -0.03018111 -0.061301228 0.07943437 0.013538366 -0.028302334 0.021193454 0.08253891
0.056536388 0.07062229 -0.01940821 -0.058970623 -0.038049698 0.084989436 -0.05184099 -0.057587646
-0.06945411 0.043360602 -0.04671297 0.011913991 0.0906957 0.011657378 -0.027866364 0.05160271
0.09898732 0.029031334 -0.040243883 0.010795243 -0.055026565 -0.038925983 0.012043005 -0.0061700596
0.036718197 -0.0277167 -0.07424769 -0.06193075 0.038545676 -0.07139087 0.052831754 -0.024966978
0.04986838 0.050696995 0.0036580588 -0.047814846 -0.029674359 -0.038372498 0.008154413 0.05995227
0.025310181 -0.0124969315 0.09352953 0.09252778 -0.005569715 0.026547542 -0.04664209 -0.030582855
-0.044663332 0.006424669 0.07095644 -0.036880497 -0.010115219 0.009665442 0.08703025 0.024238527
-0.014167029 -0.050915256 0.06365218 -0.006311059 0.08299343 -0.028538175 -0.061729398 0.036035985
-0.0039893165 -0.028884461 0.017415322 -0.013927651 -0.0542419 0.07663195 0.0073586577 -0.048884645
0.07997918 0.10402147 0.09421606 0.02636719 0.0979637 -0.016008813 0.07815974 -0.025614597
0.013879949 -0.011141274 0.06404318 0.09561943 0.01443033 0.115261026 -0.06761555 0.007836303
0.017963475 -0.003287909 0.003172325 0.009277734 0.033097703 0.0037246621 -0.0108966045 0.041878685
0.0491975 0.00012061352 0.09554267 0.03517432 0.08621349 -0.032720793 0.07513223 0.094645485
0.067570396 0.030715346 0.014824047 -0.017461278 0.02035049 0.040588878 -0.0074244514 0.091540314
0.04183977 0.100158505 -0.00036952185 0.07715134 -0.020388842 0.016267776 0.028415041 0.079491876
-0.02280735 0.043051176 0.07570939 0.056553453 0.01094262 0.103886 -0.028341373 -0.059763975
-0.014289106 0.016785419 0.012591926 -0.02912486 0.10219858 0.04204489 0.0013881007 0.038464934
0.015160674 0.039437667 0.084389776 0.11420838 -0.016454753 0.09780055 0.109397314 -0.019259969
0.010849155 0.055771764 0.051336806 0.0036444028 -0.030294098 0.102964014 -0.06603174 0.09255933
0.10320159 -0.019040495 -0.022222111 0.06815558 0.09651108 -0.05447523 -0.073560625 -0.04963367
0.038947213 0.051786795 0.03154868 0.045014184 0.087049216 -0.045542624 0.04058298 -0.0741358
00000000: 966b 69bd 95a9 7dbc 7b96 a93c 9cc2 ba3d
00000010: 0631 533d b4b4 813c 3676 0cbb dc30 0abd
00000020: 0792 643d 35bc 843d f6d4 9fbc 80d2 f2bc
00000030: 018b d83c 1fa5 613d 3660 4a3d a253 86bd
00000040: 77aa 5ebd 5847 893d 1c08 983d 21e2 873d
00000050: 7b28 21bd fa9f 8e3c 10a0 6b39 d38c 283d
00000060: c8bc febc 5630 133d e3fa 703d 8784 073c
00000070: afb1 723d 999d 9b3d 20b0 9c3d 48a1 043d
00000080: 2be5 bf3d 841a 3f3c 3fa2 24bd fc2c 863d
00000090: c020 91bd e75f efbc 437f 72bd 4612 12bd
000000a0: 6ba2 3bbd 9e23 c5bb 9d4c b53d b711 51bd
000000b0: dd5c 10bd c296 863d 9b5e b53d 7420 57bc
000000c0: 80fd 873d b1c8 9ebc 7021 7cbb 7741 5bbd
000000d0: e87c 65bc efab 7bbc 18a1 1bbd 9b05 c73d
000000e0: 46ec 433c 6fe6 a83d a557 78bd 3353 a2bc
000000f0: 702f c83c 416a 7d3d 8ca8 263d 7cf5 92bd
00000100: a962 c33b a95b d8bc 5434 d9bc 6900 b13d
00000110: 6890 81bd 388c c43d 9197 93bd 74b8 32bd
00000120: e6ba 6a3c fef3 80bc eb4a 0abd 37ed bebc
00000130: 1ccd 7a3b 62e9 703d 1da5 823d 898b d83c
00000140: b63e a53d 603e f7bc ff16 7bbd 7dae a23d
00000150: 06d0 5d3c 4cda e7bc e59d ad3c 290a a93d
00000160: b392 673d 6ba2 903d f7fd 9ebc 2e8b 71bd
00000170: 00da 1bbd f10e ae3d 3857 54bd 06e1 6bbd
00000180: f53d 8ebd e39a 313d 1956 3fbd e632 433c
00000190: abbe b93d 96fe 3e3c 0048 e4bc 5d5d 533d
000001a0: ddb9 ca3d 1fd3 ed3c c5d6 24bd 88de 303c
000001b0: 8963 61bd da70 1fbd 0650 453c 362e cabb
000001c0: d265 163d 220e e3bc 2c0f 98bd 19ab 7dbd
000001d0: 12e2 1d3d 6035 92bd 1c66 583d 8c87 ccbc
000001e0: c942 4c3d a7a7 4f3d 0bbc 6f3b 80d9 43bd
000001f0: a417 f3bc 7b2c 1dbd 169a 053c 8390 753d
00000200: 4c57 cf3c eebf 4cbc 698c bf3d 347f bd3d
00000210: 2882 b6bb 3b7a d93c c70b 3fbd e588 fabc
00000220: e6f0 36bd 0886 d23b 9c51 913d 0110 17bd
00000230: 4eba 25bc cd5b 1e3c ea3c b23d e08f c63c
00000240: d41c 68bc 848c 50bd 135c 823d 00cd cebb
00000250: 76f8 a93d e4c8 e9bc f7d7 7cbd 789a 133d
00000260: d0b8 82bb 1b9f ecbc 94aa 8e3c cd30 64bc
00000270: c12c 5ebd 36f1 9c3d e520 f13b 443b 48bd
00000280: 20cc a33d 3509 d53d 5af4 c03d 0100 d83c
00000290: 31a1 c83d ea24 83bc 3712 a03d b4d5 d1bc
000002a0: ba68 633c e489 36bc 1229 833d 1fd4 c33d
000002b0: 316d 6c3c f90d ec3d 057a 8abd d663 003c
000002c0: 2328 933c f679 57bb c8e6 4f3b a301 183c
000002d0: 7591 073d 7619 743b ac87 32bc fc88 2b3d
000002e0: 5183 493d e4f1 fc38 e0ab c33d f312 103d
000002f0: b390 b03d 3d06 06bd edde 993d 7ed5 c13d
00000300: 5962 8a3d c09e fb3c 8fe0 723c f40a 8fbc
00000310: 12b6 a63c 8640 263d d048 f3bb 7d79 bb3d
00000320: 2e60 2b3d e71f cd3d 62bc c1b9 8601 9e3d
00000330: 8006 a7bc 0044 853c a9c6 e83c a3cc a23d
00000340: 7bd6 babc 6e56 303d 860d 9b3d 98a4 673d
00000350: ad48 333c 2fc2 d43d 2b2c e8bc 12cb 74bd
00000360: db1c 6abc 9381 893c 5e4e 4e3c 4297 eebc
00000370: 7d4d d13d 4337 2c3d eef0 b53a 688d 1d3d
00000380: 7a64 783c 6489 213d 8cd4 ac3d 15e6 e93d
00000390: 1ecc 86bc a84b c83d b30b e03d 15c7 9dbc
000003a0: a7c0 313c ef70 643d 8b46 523d efd6 6e3b
000003b0: 542b f8bc ccde d23d a63b 87bd bf8f bd3d
000003c0: 5b5b d33d d0fa 9bbc 250b b6bc 2795 8b3d
000003d0: 9aa7 c53d 6b21 5fbd f4a6 96bd ad4c 4bbd
000003e0: 1d87 1f3d 641e 543d 3039 013d cb60 383d
000003f0: dc46 b23d e78a 3abd 573a 263d 83d4 97bd

fc1.bias f4 [128]
0.051008757 -0.0042629894 0.09412374 0.02035851 0.0623381 0.06606845 -0.03649756 -0.052690055
0.012107674 0.018099954 -0.050602827 0.0054789917 0.088232346 0.045502223 -0.004619047 0.078373805
-0.0008184419 0.07609496 -0.04398042 0.096249074 -0.034848426 -0.03770686 0.09579053 -0.07886638
0.038693648 0.035143107 0.022665633 -0.03343103 0.08142232 0.11042923 0.00907499 -0.030343106
-0.031706747 0.10790047 0.08579946 -0.01536505 0.07386053 -0.05101661 -0.042214725 -0.030171545
0.072211556 0.09348257 0.09052892 0.09552137 -0.03348385 0.08897203 0.07825845 0.092287876
0.026419394 0.107575655 0.039309807 0.08539096 0.08329067 0.03285573 0.078243524 0.053017687
0.051618975 0.10379808 -0.049736176 0.092134885 -0.0035879936 0.025164308 -0.01649351 0.07697336
-0.018472238 0.0021710817 0.07973114 0.10028343 -0.036964722 0.0015917709 0.03992802 0.09541731
0.06482894 0.080238186 -0.0066176835 0.048249632 0.07720084 0.082455605 0.019656612 -0.029579956
0.098437026 0.07896767 0.02725944 0.04653768 -0.039142348 -0.016917616 0.010579798 -0.020855943
0.012990903 -0.036119476 0.041041266 0.0828693 0.039618257 -0.003145494 -0.024484223 0.08518037
-0.027118701 0.040135078 0.045888063 0.038881633 0.032270696 0.061173465 0.052436486 -0.02326864
0.030599775 0.053976953 0.02596232 0.032787237 0.102004655 0.0061578806 0.017154364 -0.0044277213
0.004854281 0.055873156 0.057367988 0.020463955 0.07717442 -0.04428043 0.04659275 -0.037130542
0.09891433 0.08840935 0.01769596 -0.0035463788 0.03527404 -0.04004464 0.029853452 -0.029608637
00000000: 8fee 503d 8cb0 8bbb f3c3 c03d e4c6 a63c
00000010: 3c56 7f3d e54e 873d 777e 15bd 87d1 57bd
00000020: 445f 463c 5b46 943c e944 4fbd 1d89 b33b
00000030: 29b3 b43d 8a60 3a3d 605b 97bb 7282 a03d
00000040: b58c 56ba add7 9b3d d024 34bd 3c1e c53d
00000050: 39bd 0ebd 8272 1abd d32d c43d b284 a1bd
00000060: 3b7d 1e3d 38f2 0f3d 47ad b93c faee 08bd
00000070: bfc0 a63d b828 e23d 44af 143c 1b92 f8bc
00000080: efde 01bd ecfa dc3d a1b7 af3d b1bd 7bbc
00000090: 3144 973d cbf6 50bd 59e9 2cbd 512a f7bc
000000a0: a7e3 933d ca73 bf3d 3a67 b93d b5a0 c33d
000000b0: 5d26 09bd f836 b63d f745 a03d 6d01 bd3d
000000c0: 7c6d d83c a050 dc3d 5203 213d 75e1 ae3d
000000d0: 4c94 aa3d bb93 063d 243e a03d 1329 593d
000000e0: 6b6e 533d 1694 d43d 29b8 4bbd 37b1 bc3d
000000f0: 8b24 6bbb 6125 ce3c 661d 87bc 35a4 9d3d
00000100: 1753 97bc b548 0e3b 144a a33d 6661 cd3d
00000110: 5268 17bd f8a2 d03a 908b 233d 276a c33d
00000120: 09c5 843d eb53 a43d 27d9 d8bb 68a1 453d
00000130: 791b 9e3d 7cde a83d e706 a13c aa51 f2bc
00000140: 5a99 c93d cdb9 a13d 304f df3c 4b9e 3e3d
00000150: ba53 20bd d096 8abc e456 2d3c 15da aabc
00000160: ccd7 543c 04f2 13bd e31a 283d 61b7 a93d
00000170: c146 223d a224 4ebb 2393 c8bc 0c73 ae3d
00000180: 0a28 debc ae64 243d 1ff5 3b3d 5942 1f3d
00000190: 472e 043d 0791 7a3d a4c7 563d e09d bebc
000001a0: 61ac fa3c f016 5d3d eeae d43c e94b 063d
000001b0: d1e7 d03d 0cc8 c93b 4f87 8c3c 6b16 91bb
000001c0: a910 9f3b 40db 643d b2fa 6a3d 06a4 a73c
000001d0: 9f0d 9e3d 655f 35bd 0ad8 3e3d 3216 18bd
000001e0: 9993 ca3d f60f b53d 1ef7 903c 5d6a 68bb
000001f0: 837b 103d d905 24bd 3a8f f43c d08d f2bc

fc2.weight f4 [128, 128]
0.06461459 0.061197747 -0.039107993 -0.048948973 -0.095885955 -0.07357338 -0.0078902785 0.043094393
-0.065105505 -0.034313656 -0.023007732 0.05923273 0.012580794 -0.014446541 0.009982671 0.073329926
-0.041388523 -0.048537347 -0.05041204 0.06999631 0.055858873 -0.0648014 0.057386376 0.030568818
0.046053473 -0.06571101 0.014623541 -0.069156945 -0.04078459 -0.019957367 -0.017167406 0.017599845
-0.06787431 0.05403848 0.003960877 -0.05638658 -0.037409138 -0.021875273 -0.086002596 -0.08746563
-0.086695835 -0.041323096 -0.07175485 -0.08335993 -0.09247076 -0.09530959 0.06725026 -0.084250376
-0.005360918 0.043706678 0.054059897 0.028621456 0.062997445 -0.0014722145 0.003936144 -0.038249094
0.052885193 0.0046172016 -0.052267577 -0.07827409 0.011779654 0.07079195 0.03494293 -0.061605606
-0.09869324 0.04381404 0.04679247 -0.0065332493 -0.09088519 -0.012493396 0.054146614 -0.07764302
-0.045984603 -0.036170542 0.034726806 0.07302924 0.011365287 -0.060648303 0.042323314 -0.016799275
-0.0016782706 -0.078189194 0.013091627 -0.050360467 -0.022840815 0.03489029 0.048909277 0.063820966
-0.001344505 -0.029700898 0.06218737 0.071103275 0.014413583 -0.069509715 -0.101585254 -0.06311253
-0.031160206 -0.09590551 -0.03707687 -0.068034 0.041039363 -0.031559207 -0.049490232 -0.031610515
-0.03138227 0.029827408 -0.01852176 -0.032955013 0.013939059 -0.05600191 -0.09589207 0.06942535
-0.04267885 0.062055048 -0.037488084 -0.026378179 -0.06584319 -0.05871579 -0.059847176 -0.06429869
-0.015187226 -0.017911889 0.021345612 0.056277487 -0.08326617 0.00460603 -0.08914987 0.02916845
0.054843593 -0.028113775 -0.04013165 0.05881993 -0.099875696 -0.080456756 0.040663827 0.07569822
0.017206376 0.055819772 0.050531026 -0.076128975 0.032126456 -0.083314724 0.029619073 0.0700358
0.031181812 -0.020771196 0.055016503 -0.048722316 -0.021163289 -0.07463759 0.054643113 0.07904622
-0.006440191 0.0032769577 -0.0019799212 0.063486904 -0.090539925 -0.08212094 0.008360466 -0.021729035
0.07135421 0.033961475 -0.0514584 -0.049554333 -0.0665566 -0.042333487 -0.018449971 -0.051523637
0.06398247 0.039254155 0.03750934 -0.08179523 -0.05808909 0.055606466 -0.0028696484 -0.025008138
-0.0956377 0.009970559 0.052582778 0.014726108 0.02718531 -0.011630399 -0.0022889434 0.015995113
-0.059539232 -0.07165268 0.06377204 0.007486123 0.017046023 0.05201217 -0.057211295 0.016405854
-0.0626846 0.0504563 0.04744065 0.021032339 -0.0503026 -0.039148867 -0.009661328 -0.07924333
-0.013951419 0.061271835 0.035662584 -0.07871208 -0.052351117 -0.03240452 0.015279672 -0.026058814
-0.07774259 -0.017789051 0.053575214 -0.025578456 -0.03529963 0.023721714 0.00041007184 -0.06779204
-0.035344496 0.062554576 -0.051171396 0.0016829341 -0.013940943 -0.074237466 -0.021484751 -0.03566625
-0.021990746 -0.080603436 -0.0008910067 0.035956882 -0.08931978 -0.028582683 0.026248524 0.023315363
0.031967375 -0.07254844 0.056395467 -0.013673454 0.043069188 -0.0264146 0.031352002 -0.09703445
0.029930962 -0.062182028 0.027901659 -0.025440577 0.045932174 0.0065167756 -0.0026520914 -0.04321986
0.047809444 0.031306244 -0.03798698 0.0047565266 0.05024435 0.029873906 0.04703426 -0.076304145
00000000: a754 843d 7daa 7a3d b42f 20bd b87e 48bd
00000010: db5f c4bd a4ad 96bd 3a46 01bc bf83 303d
00000020: 0956 85bd 7a8c 0cbd b67a bcbc 059e 723d
00000030: ad1f 4e3c 2fb1 6cbc 5b8e 233c 002e 963d
00000040: 0387 29bd 19cf 46bd db7c 4ebd 3a5a 8f3d
00000050: 46cc 643d 99b6 84bd fa0d 6b3d 756b fa3c
00000060: 91a2 3c3d 7e93 86bd 9497 6f3c 28a2 8dbd
00000070: be0d 27bd a27d a3bc a9a2 8cbc 8d2d 903c
00000080: b001 8bbd 7457 5d3d 3fca 813b 9df5 66bd
00000090: 533a 19bd c633 b3bc 2122 b0bd 2e21 b3bd
000000a0: 968d b1bd 6842 29bd 35f4 92bd 9cb8 aabd
000000b0: 4f61 bdbd ad31 c3bd 81ba 893d 768b acbd
000000c0: a4aa afbb c605 333d e96d 5d3d 8b77 ea3c
000000d0: ce04 813d 52f7 c0ba c5fa 803b 15ab 1cbd
000000e0: 259e 583d e54b 973b 8716 56bd 2b4e a0bd
000000f0: 73ff 403c 5ffb 903d 5120 0f3d 2956 7cbd
00000100: ae1f cabd 5a76 333d 76a9 3f3d de14 d6bb
00000110: 0422 babd 1ab1 4cbc d7c8 5d3d 4e03 9fbd
00000120: 5a5a 3cbd 9027 14bd b23d 0e3d 5b90 953d
00000130: 7835 3a3c 5b6a 78bd 365b 2d3d a29e 89bc
00000140: 6bf9 dbba a821 a0bd 437e 563c c746 4ebd
00000150: a91c bbbc 1fe9 0e3d 1855 483d 91b4 823d
00000160: 1a3a b0ba 4c4f f3bc 2fb8 7e3d 989e 913d
00000170: f326 6c3c 1c5b 8ebd ee0b d0bd 2441 81bd
00000180: b043 ffbc 1c6a c4bd ebdd 17bd 6955 8bbd
00000190: e418 283d 3a44 01bd 45b6 4abd 077a 01bd
000001a0: b28a 00bd 9c58 f43c f2ba 97bc d6fb 06bd
000001b0: a760 643c 4262 65bd 1063 c4bd e12e 8e3d
000001c0: 05d0 2ebd 6f2d 7e3d 1b8d 19bd 0d17 d8bc
000001d0: cbd8 86bd f87f 70bd 5022 75bd 08af 83bd
000001e0: d8d3 78bc f4bb 92bc fedc ae3c 3983 663d
000001f0: 7487 aabd 2eee 963b 3594 b6bd acf2 ee3c
00000200: ada3 603d dc4e e6bc 1661 24bd 2bed 703d
00000210: a18b ccbd 83c6 a4bd 1d8f 263d ab07 9b3d
00000220: 63f4 8c3c 46a3 643d 9ff9 4e3d 82e9 9bbd
00000230: 0897 033d e9a0 aabd b3a3 f23c ee6e 8f3d
00000240: 0071 ff3c 5b28 aabc fc58 613d 0d91 47bd
00000250: a25e adbc 98db 98bd 75d1 5f3d fce2 a13d
00000260: 3d08 d3bb 3ac2 563b 91c1 01bb 6c05 823d
00000270: ff6c b9bd 062f a8bd 56fa 083c 1701 b2bc
00000280: 2822 923d 301b 0b3d 0bc6 52bd 7cf9 4abd
00000290: d44e 88bd e165 2dbd 6524 97bc 730a 53bd
000002a0: 3e09 833d f7c8 203d 65a3 193d 4284 a7bd
000002b0: d3ee 6dbd 9bc3 633d b610 3cbb dedd ccbc
000002c0: b3dd c3bd 8e5b 233c 0a61 573d c645 713c
000002d0: bab3 de3c 6e8d 3ebc 1902 16bb 2f08 833c
000002e0: 69df 73bd a4be 92bd ea9a 823d 274e f53b
000002f0: 1aa4 8b3c b70a 553d 6456 6abd 9265 863c
00000300: c960 80bd 44ab 4e3d 2151 423d 034c ac3c
00000310: 190a 4ebd 905a 20bd 8c4a 1ebc 544a a2bd
00000320: 7e94 64bc 2df8 7a3d ee12 123d cd33 a1bd
00000330: 206e 56bd 9aba 04bd 9757 7a3c 4b79 d5bc
00000340: 8237 9fbd 58ba 91bc af71 5b3d e989 d1bc
00000350: 5896 10bd 0a54 c23c e9fe d639 8ed6 8abd
00000360: 64c5 10bd 9d1c 803d 1999 51bd e695 dc3a
00000370: 8e68 64bc d009 98bd ca00 b0bc c616 12bd
00000380: f025 b4bc 6a13 a5bd 7392 69ba 8647 133d
00000390: 4aed b6bd 3b26 eabc 2507 d73c dcff be3c
000003a0: 39f0 023d 4794 94bd effe 663d 9f06 60bc
000003b0: 5169 303d 6e63 d8bc f56a 003d ffb9 c6bd
000003c0: c731 f53c 95b2 7ebd 0592 e43c c268 d0bc
000003d0: 6023 3c3d ad8a d53b b6ce 2dbb 4f07 31bd
000003e0: d6d3 433d fa3a 003d 3c98 1bbd a3dc 9b3b
000003f0: 05cd 4d3d 1fba f43c ffa6 403d 5945 9cbd

fc2.bias f4 [128]
0.04873371 0.0014670728 -0.07945335 0.012972131 -0.024623552 0.0633288 -0.030222975 0.02193829
0.008158702 0.05734882 -0.08623379 0.045112398 -0.028633265 0.07948758 -0.06272183 0.096230514
0.014416816 0.0873134 0.057320498 -0.0066426434 0.0027084677 -0.029616479 -0.0768703 0.08297081
0.106088355 -0.048010767 0.06194075 -0.0016928253 0.047070995 -0.028874904 0.079573125 -0.04279739
-0.05418939 0.024104675 -0.049278874 -0.016976349 0.068483934 0.08729571 -0.07813782 -0.076650925
0.08601723 -0.037271556 0.041993238 0.059640434 0.048462927 -0.06658645 0.029293016 -0.074708015
0.05070436 0.03664089 0.03511265 -0.034332678 0.06774356 -0.023948606 0.027228503 0.10271466
-0.023217464 0.09914276 -0.088577196 0.03248547 0.026856149 0.002904986 0.047949173 -0.054822557
0.034077607 0.06438231 0.021957995 0.008224717 0.10793958 0.026299506 0.07177334 -0.08037349
-0.0035063657 0.10467952 -0.038185492 0.012530081 -0.07336454 0.060167886 -0.04346863 0.02745059
-0.041681793 0.031806316 -0.07088535 -0.049478166 0.0448562 0.076516025 0.08647281 0.03128913
0.050725456 -0.06373418 0.07231273 0.021088455 0.070501804 -0.04370704 -0.094356716 -0.0134392455
0.046143133 -0.051396824 0.027748922 -0.04422595 -0.07046497 0.027607832 0.042181272 -0.035777092
0.017414661 0.072287194 -0.053392984 0.09766372 -0.079982065 0.028882055 -0.01308319 0.035240743
-0.03099038 -0.023955436 0.08033267 -0.08618484 0.057228155 -0.037749797 -0.05331025 -0.024622934
0.078879744 0.09438239 0.09044305 -0.047106955 -0.055232435 -0.027795505 0.0040329657 -0.0080117155
00000000: 009d 473d cb4a c03a 70b8 a2bd 1089 543c
00000010: 55b7 c9bc 88b2 813d 2c96 f7bc eeb7 b33c
00000020: 14ac 053c 99e6 6a3d 579b b0bd c7c7 383d
00000030: 4f90 eabc 62ca a23d 4e74 80bd 8114 c53d
00000040: 8234 6c3c 5ed1 b23d e6c8 6a3d 88aa d9bb
00000050: 8c80 313b 429e f2bc 2d6e 9dbd 9aec a93d
00000060: da44 d93d f0a6 44bd 95b5 7d3d cbe1 ddba
00000070: 84cd 403d 108b ecbc 3cf7 a23d 514c 2fbd
00000080: b2f5 5dbd 2b77 c53c a5d8 49bd fc11 8bbc
00000090: 4e41 8c3d 18c8 b23d b906 a0bd 29fb 9cbd
000000a0: cd29 b03d 0faa 18bd 1a01 2c3d 8749 743d
000000b0: 1081 463d 7a5e 88bd e8f7 ef3c 8400 99bd
000000c0: 60af 4f3d c214 163d 48d2 0f3d 6ca0 0cbd
000000d0: 23bd 8a3d de2f c4bc 4f0e df3c 105c d23d
000000e0: 8d32 bebc 5c0b cb3d f667 b5bd 7c0f 053d
000000f0: 6d01 dc3c 9461 3e3b 5a66 443d 9e8d 60bd
00000100: f694 0b3d dfda 833d 41e1 b33c f7c0 063c
00000110: 6d0f dd3d 1072 d73c e7fd 923d db9a a4bd
00000120: 0ecb 65bb 3762 d63d 6468 1cbd f84a 4d3c
00000130: 2640 96bd 9a72 763d 2a0c 32bd 0fe0 e03c
00000140: 87ba 2abd 5747 023d 572c 91bd 9ea9 4abd
00000150: 23bb 373d 6fb4 9c3d a818 b13d 0829 003d
00000160: 7fc5 4f3d 1187 82bd b218 943d b2c1 ac3c
00000170: 4063 903d 2706 33bd 183e c1bd 4830 5cbc
00000180: 9500 3d3d 7a85 52bd b551 e33c 4526 35bd
00000190: f04f 90bd d229 e23c 45c6 2c3d 008b 12bd
000001a0: 31a9 8e3c 4f0b 943d 9ab2 5abd eb03 c83d
000001b0: a3cd a3bd 0f9a ec3c e05a 56bc 9958 103d
000001c0: 8adf fdbc 313e c4bc 7485 a43d ad81 b0bd
000001d0: 1268 6a3d 889f 1abd d95b 5abd 09b6 c9bc
000001e0: b48b a13d 8e4b c13d 353a b93d 39f3 40bd
000001f0: 683b 62bd 66b3 e3bc f826 843b 9243 03bc
