logs/maddpg_checkpoint_ep300.pth (torch, 585614 bytes, 24 tensors)

fc1.weight f4 [128, 147]
00000000: 665f 9bbc ca5c f5bc 4516 373d 5593 af3d
00000010: 6679 8b3d 2a2c 603d 2e23 633d 9982 9e3d
00000020: a39a 13bd 5bb0 6dbd b0c4 3abc 5c57 d33b
00000030: 4d6c 1c3c cd49 d1bc fdd8 c13d 3ad2 253d
00000040: bf9a 40ba c2b9 583c 6d04 32bd 39ef 94bd
00000050: 1a12 9a3d bf1d ae3d 93ab ac3c 26b7 233d
00000060: 6c53 a73d c110 b93c c42f 66bd 9992 4bbd
00000070: b6cd 4dbd b5d8 543d 2076 cb3d 16db 0c3d
00000080: 3870 5bbd a6ad 0939 e38e 42bc ff86 31bb
00000090: d4d1 4b3d 7022 c1b4 52c4 923d 4776 4dbc
000000a0: 9e19 8f3d bab3 913d 5465 fe3c 815d d9bb
000000b0: 8891 4b3d bcc8 aa3d 277f 013d c714 25bd
000000c0: 1918 413b 6107 1bbd 57b1 8c3d 1e8d d6ba
000000d0: a1fa 85bd f7ce a33d 0fb1 b93d 9449 36bd
000000e0: 7bff 793d 353b 353c 14ca 113d 9a2d ce3d
000000f0: 7bc4 9ebc 574b e9bc 3d7f ca3d 7a87 2b3d
00000100: b852 c53c cfd5 8abc 6688 61bd 753a 9b3c
00000110: e8f5 8e3d a731 0b3d 0ee3 8e3c 5853 373d
00000120: a53f 8dbb 7b36 4e3c a51a d23d 153b 44bb
00000130: 4b1f a33d 0ef4 b93d 0d07 923d f52f 973d
00000140: dd34 c13d 61ee ac3d f7b5 d6bc d851 b43d
00000150: 14a5 75bb 0302 55bd 6d77 d93c 0f1c 303c
00000160: d376 57bd 6d11 aa3d f125 763d 95e1 c43c
00000170: 93ff e2bc 98c8 0bbd 62b2 bcbc b192 3e3d
00000180: 65e5 04bd 40c4 8e3d 9fd3 9b3d b076 1dbd
00000190: c880 a03a 8fd8 923d 0ad9 743d dcc2 333b
000001a0: f0f1 4a3d cc37 9e3d fd76 8ebd 64fe 0b3d
000001b0: 314b 223d 5125 58bb aea9 0abd 2c72 633d
000001c0: a1f9 a43d 1a38 d03d e83a 58bd 4950 c93d
000001d0: 7135 973c b8d8 813d 1ca0 433d 694a dfbc
000001e0: 4d2b 60bd dbd1 fabc 37fa c13d 74dd 403d
000001f0: 7553 b73d 0ee1 acbc 11ad c73d 4591 a13d
00000200: 3604 10bd 553c 843c 61e9 18bd 9bad e0bc
00000210: 4844 2b3d cc86 b83b 4aa7 2fbd a4b1 ebbb
00000220: 829e 8d3d 971c 39bd e623 90bd c7c7 8ebd
00000230: c63e 8f3d 3b9b 8e3d 5e76 f0bc 95d5 e9bc
00000240: 3651 84b7 0a6f 903a 639b ee3c 96fb 853d
00000250: 6bdc 013d e7de b13b 1685 cd3d 5257 913d
00000260: 13d9 4cbc cdbe e63c b5ff 383d e2e7 493d
00000270: c59b 813c 44de d9bc 07d8 1bbd 0fca 7a3d
00000280: cf17 9b3d bf6f a53c 62f9 39bd 4ee0 68bb
00000290: ee27 433d 15f1 853d 12f7 35bd be88 c03d
000002a0: e23a c03d 52fa 273d a291 983d 2e26 a93c
000002b0: 8dfc dd3d 7299 253d d657 11bd 866b e5bc
000002c0: 1bc6 cdbc 812c 173b c19f f1bc 6c17 ae3d
000002d0: f60d 80bc 9efd a33c dea6 e3ba ec07 353c
000002e0: 8691 c93d e4dc 0abc 3ed2 2bbd 3ec7 33bd
000002f0: a58c 333d e417 c2bc 0942 d53c 7bed 3a3d
00000300: 728c b4bc 98a3 e03d 0d96 1abd e762 46bd
00000310: 29c6 2f3d e482 e53b d3c9 e03d 14d2 d9bc
00000320: 464f c3bb c3ae adbc 01cd 273d 6bdc 08bd
00000330: 789d 15bd 567a f13c be43 483d 07a4 2ebd
00000340: 40e4 733c 20d6 70bc 8581 213c 0018 c43c
00000350: 0813 583d 8098 8d3c 28f9 bd3d 60ed bc3d
00000360: e276 ff3c cd62 033d 39ba 5a3d 1b79 d63d
00000370: b5be edbc 992d c73d 579e 863d cea9 8a3c
00000380: a415 cdbc 6711 b63d 4ae6 483a a0d6 ed3d
00000390: 4802 bcbc 12bd a83d dc7e 8f3d 0f93 e4bb
000003a0: c3eb 86bc a2fb a43c 8d39 8a3d 86d4 73bd
000003b0: de12 31bd 29a5 873d 3e07 68bd 6957 853c
000003c0: 5ebb b63d fc7f a73d 97b2 883d f7d2 0d3d
000003d0: 8263 efbc 5474 bc3c e211 f03c fa20 1fbd
000003e0: 3680 9d3d 82a7 c23d 48f2 083b 5428 cdbc
000003f0: 6a31 13bd 8d85 39bb 14dd d3bc a8b9 da3d
-0.018966388 -0.029951472 0.044698972 0.08573023 0.06810264 0.054729618 0.05545347 0.07739753
-0.036036145 -0.058029514 -0.011399433 0.006449623 0.009547305 -0.025547886 0.09465215 0.04048369
-0.0007347278 0.013227882 -0.043461252 -0.072721906 0.07522984 0.08501767 0.021077907 0.039969586
0.08170208 0.022590997 -0.056197897 -0.049700353 -0.05024501 0.05196448 0.0993464 0.034388624
-0.053573817 0.00013130027 -0.011874887 -0.002708852 0.049760655 -3.5974108e-07 0.071663514 -0.012540407
0.06987308 0.07114358 0.031054176 -0.006633461 0.049699336 0.08339068 0.031615403 -0.040303018
0.0029463826 -0.037848834 0.068697624 -0.001636896 -0.06541944 0.0799846 0.09066974 -0.044503763
0.06103466 0.011061479 0.035593107 0.100672916 -0.019380799 -0.028478308 0.0988755 0.041877247
0.024087295 -0.016947655 -0.05506172 0.018948773 0.06980497 0.0339829 0.017442252 0.044757217
-0.0043105655 0.012586231 0.10258988 -0.0029942442 0.07964953 0.09079753 0.07130251 0.07382194
0.09433911 0.08443905 -0.026209814 0.08804673 -0.0037482427 -0.05200387 0.026546204 0.010748877
-0.052603554 0.08304105 0.060094777 0.024033347 -0.027709758 -0.034126848 -0.023034278 0.046526615
-0.03244533 0.069710255 0.07608723 -0.038443267 0.0012245411 0.071702115 0.059777297 0.0027429378
0.049547136 0.07725486 -0.06956289 0.034178153 0.03962249 -0.0032981227 -0.033853225 0.055528805
0.080554254 0.101669505 -0.052790552 0.09829766 0.0184581 0.06340164 0.047760114 -0.027257161
-0.054728795 -0.030617645 0.09471553 0.047086194 0.08951465 -0.021103408 0.09749807 0.07889036
-0.035160266 0.01614205 -0.037331942 -0.027426532 0.041813165 0.0056313034 -0.04288415 -0.0071928073
0.069149986 -0.04519328 -0.07038097 -0.06971698 0.06994395 0.069632016 -0.029353317 -0.028544227
-1.5773443e-05 0.001101942 0.029126829 0.06542127 0.031704348 0.0054281834 0.1003515 0.07096733
-0.012502926 0.028167153 0.045165736 0.049293406 0.015821347 -0.026595242 -0.038047817 0.061227854
0.075729005 0.020194886 -0.045403846 -0.0035534087 0.0476455 0.065401234 -0.044425078 0.094010815
0.09386231 0.04101021 0.07449652 0.020648088 0.10839186 0.04042954 -0.035484158 -0.028005373
-0.025118878 0.0023067298 -0.029495122 0.08500561 -0.015631657 0.020018395 -0.0017368456 0.011049252
0.098422095 -0.008475516 -0.04194855 -0.043891184 0.0438353 -0.023693033 0.026032465 0.045636635
-0.022039626 0.10968703 -0.037740756 -0.048434164 0.04291359 0.007004129 0.10975995 -0.02658943
-0.005960378 -0.021201497 0.04096699 -0.033413332 -0.036527127 0.02947728 0.04889273 -0.042636897
0.014885962 -0.014699489 0.00985754 0.023937225 0.052752525 0.017284632 0.092760384 0.09224963
0.031184617 0.032076646 0.053400252 0.10472318 -0.0290216 0.09725494 0.0657317 0.016926672
-0.025034733 0.08890038 0.000766371 0.11613202 -0.022950307 0.08239187 0.070066184 -0.0069755386
-0.016469842 0.02013952 0.06749258 -0.05952885 -0.043230884 0.06623299 -0.05664753 0.016277032
0.08922456 0.08178708 0.06674688 0.03462502 -0.029222254 0.023004688 0.029305402 -0.03884981
0.0769047 0.09504606 0.0020896364 -0.025043644 -0.035935797 -0.0028308362 -0.025862254 0.10679942

fc1.bias f4 [128]
00000000: 9229 1d3d 9996 5dbc b28e 613d 204c 3a3d
00000010: 296f ce3d 1b73 6ebb a5bc 973d 32c0 4abc
00000020: 370a 803d 8760 5a3d 8bf9 4a3d 23dd d9bc
00000030: 8bb7 06bd a1e8 fd3a 213c a3bc bd60 c8bc
00000040: d35c 71bc 3c3d b53d 0a9f 3f3d a91c 9ebc
00000050: 0ea2 bb3b ab0d 223d f11f ec3d 8a03 90bc
00000060: 9057 273d 8124 c43d 614a 373d 7c38 ee3d
00000070: b11c 8ebc 8d18 3e3b 5ea1 45bc 071d ad3c
00000080: a62a 293c 7a95 fcbc 233a 93bc bce2 ba3d
00000090: 1cdf 7d3d 9e4f 1bbd d101 8bbc 010a 23bd
000000a0: e83b 063d 830e 08bd 2eb4 ee3d acbc a63b
000000b0: fb1f 5f3d a898 af3c dcdc 3c3d a8f5 af3d
000000c0: acdf 093d 0777 523d ca4e e4bc 1311 09bd
000000d0: a10c 1c3c 9ef4 993d 7e0a 343d 28c3 aa3c
000000e0: a7ac 333d f1b5 e53d 73ba 9a3d bd4f c83c
000000f0: 3c6c b93d 5508 b73c c0aa cebc b1f7 dbbb
00000100: 03d5 50bd ede0 cf3c 7546 8ebd 29ca 26bd
00000110: b621 9b3d fba5 c23c 0c8f ccbc 5f99 23bd
00000120: 6c11 913d 8de3 b73d db0b 203d b239 34bd
00000130: 9653 0d3d ac75 843d b2ec c23c b4ef 30bd
00000140: f1fe 25bc 5c87 9b3d abbe 2c3d 0dfe f33c
00000150: d0d5 c23d ed9f 59bd e727 bf3c 4a13 7b3d
00000160: 1c56 ee3c 2a4a 933d 58e5 aeba 4c26 46bd
00000170: a958 0b3d 28ef 4e3d 4282 da3d 8aaa b53d
00000180: 02db 11bc f083 853c cbe9 aa3d 2dc2 0d3d
00000190: 491a ecbb 6aa5 763d 5c33 cb3d a50e ae3d
000001a0: 99fe 443d 00e2 59bc 44d2 cc3d b3c3 bb3d
000001b0: 1f77 633d 6f9b 9f3c 3316 893c 1b1c 943d
000001c0: 4a27 ecbb 4ec4 313d d6e4 863b dc7f 5ebc
000001d0: 95ea 853d 1945 603d 00c0 9f3c 9a35 273d
000001e0: 8a20 9a3d 29df c33d 03d2 4c3d 82ea a23d
000001f0: 8bce 4e3d f6b3 8a3c 4dfc b73d ab14 87bc
0.038369723 -0.013524675 0.055067725 0.045482755 0.10079796 -0.0036384526 0.07409028 -0.0123749245
0.06251948 0.053314712 0.04955439 -0.026594704 -0.032889884 0.0019371697 -0.019926133 -0.02446019
-0.014731604 0.0884957 0.04678253 -0.019300776 0.0057261055 0.039563816 0.1152953 -0.017579813
0.04085499 0.09577275 0.044748668 0.11631867 -0.017347666 0.0029006333 -0.012062399 0.021132005
0.01032511 -0.030832995 -0.017972058 0.091252774 0.06198035 -0.037917726 -0.01696864 -0.039804462
0.032771975 -0.033216964 0.1165546 0.0050884094 0.05447386 0.021435097 0.046109065 0.08591777
0.033660576 0.051383045 -0.0278696 -0.03346355 0.009524495 0.0751736 0.04395532 0.02084501
0.043865826 0.11216343 0.075550936 0.024452085 0.09053847 0.02234284 -0.025227904 -0.0067128767
-0.050984394 0.025375808 -0.06947032 -0.04072014 0.07574789 0.023760786 -0.024970554 -0.039941188
0.07083401 0.08978949 0.039073806 -0.044000335 0.034503542 0.06467757 0.023794506 -0.04319735
-0.010131584 0.07594177 0.042174023 0.029784227 0.09513438 -0.053131033 0.023334457 0.061297692
0.029093795 0.0719188 -0.0013343496 -0.048376366 0.0340201 0.050521046 0.10669376 0.08870418
-0.008902313 0.016298264 0.08345374 0.03460901 -0.007205282 0.060216345 0.099219054 0.08498887
0.048094366 -0.0132985115 0.100010425 0.09168186 0.055533525 0.019483296 0.016734218 0.07231923
-0.007206832 0.0434001 0.004116635 -0.013580289 0.065388836 0.054753397 0.019500732 0.040822603
0.075257376 0.09564049 0.05000497 0.07954885 0.050489943 0.016931515 0.089836694 -0.016489347

fc2.weight f4 [128, 128]
00000000: 6221 523d 3823 e3bc a60c a8bd 3a83 ccbc
00000010: 925d 343d 4fa4 a9bc f24e 953c eecb ba3c
00000020: d750 1f3d 4314 6d3c 4065 a2bc f862 b53c
00000030: 7c3b 063c 3045 c7bd 5fbe 4fbd 907b 91bd
00000040: ceb0 74bd 5351 d0bd 2061 6a3d ba3d 633d
00000050: 0af9 533b b0d0 513d b719 823d b095 483d
00000060: 2f65 80bc 07a0 b2bd 88dd 52bd 0a72 c2bd
00000070: 72b9 c4bc 398b adbc d84a 893d dbca bdbd
00000080: 7e64 6e3d 2865 10bd 2263 a4bd 620f 203d
00000090: 6449 bbbc aa94 76bd 17ce 35bd 6656 c5bd
000000a0: b3a4 3a3c 9489 0e3d 13d8 48bd 3b85 9cbd
000000b0: c285 52bd 8843 7a3d ab00 b0bd 5a56 6c3d
000000c0: 6b6a 16bb c39d a0bc ed45 06bd b99e 503d
000000d0: d9dd 973b 762b ccbd be43 9bbd 85de a4bc
000000e0: 32a3 5a3c 698c 913d 8305 ecbc 4685 a8bd
000000f0: bbc3 913d 058d 8a3d e6e5 c0bc e44f 43bd
00000100: 4b64 96bd dfc4 453d deb3 91bb 5c20 c8bd
00000110: 7178 a3bd 531e 8e3d 7390 4cbd a3b2 1fbd
00000120: 5b59 003c 4b99 debc eca8 de3b 067e 753d
00000130: 35c7 8ebd 2ac5 8f3d 967d 52bc a8ef 2ebd
00000140: 66c0 c3bd 724c 2abc a683 d2bd d634 40bc
00000150: f41b 343d a3a0 193c 23fe 0ebc 52bb 603c
00000160: 648f 3dbc ccb4 c33a 4e4c 22bc 4377 15bd
00000170: 527b 4ebc eb19 60bb cca4 9e3b 8186 383d
00000180: 5c08 1c3d 57b4 78bd c697 5abd 8c5f 22bd
00000190: c976 65bd eb85 263d bf4c b5bd 442d 433d
000001a0: 7bdf f23c 54bc 903d ee39 453d 4ef9 aebd
000001b0: 5266 c8bb fd10 703d 69be cdbd c05a 73bd
000001c0: 6941 2a3d e846 923d ce0e 573d f6cc 8bbd
000001d0: 7d32 5bbd b47f 0dbd f9bc d3bd b9ab 49bd
000001e0: 5f00 863c a694 1cbc 66f4 cebd d798 0d3b
000001f0: deac 1ebd 026f 573c 74a1 5dbd 1090 7cbd
00000200: ff7f 013d a45f 04bd 7fcf a63c 9ff7 7bbd
00000210: 5c62 b5bc 2003 8cbd bd05 5bbd 7936 1a3d
00000220: 744b 303d e289 9fbd ca63 be3b b4eb 093d
00000230: 6c0b 4b3d 5fa9 80bd f8de 46bd 9f1a 82bd
00000240: 4d1d 3f3d a8cb 69bd b227 a3bd f177 133d
00000250: 83e3 2a3d 2e49 523d 3a0a 51bc c6f2 6b3d
00000260: 528b 6abd 6944 0ebd cdf7 55bd 0b93 8b3d
00000270: 4df0 9e3d 2984 17bd d506 59bb ea80 afbb
00000280: 379b 863c c1ae 25bc 3f5a 873d 8e16 80bc
00000290: fac6 a0bb dc35 edbc 1c42 c13c 241b 90bc
000002a0: 72e4 75bd b493 adbd 1c3e 943d b70b b2bc
000002b0: 0c99 913d bf08 0bbd 30bb 8c3d b17b 3b3d
000002c0: 0bbe 83bd 9821 723d 0505 d9bc 018e 02bd
000002d0: d5b6 373c 4e94 34bd f2c8 85bc 35bc 3bbd
000002e0: 6fbc a5bc 50d5 783d b997 87bc cd02 e23c
000002f0: 928e a13d 46ef 34bd 0456 4bbc ef3f dd3c
00000300: 4436 8fbd a97c c03c 3d12 293d 95e8 bf3c
00000310: ffff 613d d96f 54bd fd2a 5d3c 496f 59bd
00000320: 04ad 953c d4c5 a53d 7f34 08bc 4cad 1dbd
00000330: dea0 2fbd 1b0e 06bd c43e 843d 3d58 d1bc
00000340: c2a0 12bd d67b a7bc 0e53 80bd c9f8 6bbd
00000350: 2c74 bc3b 1f1b 99bd 6062 a1bd 74e5 4b3d
00000360: 9829 9b3d dfdd 05bd 66d9 19bd 556d d03c
00000370: 8d50 093c b8ab 733d 1d5d a23d 8f1e 2cbd
00000380: 9b80 b53b 2c59 74bd 1321 a7bd 1e64 333d
00000390: 1755 78bd 89a4 9cbd ce0e 6b3d ac0d ac3b
000003a0: a266 3fbd 91ba 913d e160 9dbd a1b9 a9bd
000003b0: 9c54 bcbd dd1b b9bc 652f e7bb 4736 c8bc
000003c0: 665d a93b 508c 16bc fc22 bb3c 4e5d 83bd
000003d0: f4a1 6fbc d848 6abd 13d4 383d 331d 113d
000003e0: 7270 bcbc d54d d4bc e01d 80bc fb3d 613d
000003f0: 69f1 5dbd 9057 953d 605d 983d ac2d 6c3d
0.051301368 -0.027726755 -0.082055375 -0.024964917 0.044034548 -0.020708231 0.01822612 0.02280232
0.038895454 0.014470163 -0.01982367 0.022141919 0.008192893 -0.09729993 -0.05071866 -0.07103646
-0.059738927 -0.10171761 0.057221532 0.05547879 0.0032344484 0.05122441 0.06352561 0.048970878
-0.015673248 -0.08721929 -0.0514808 -0.094944075 -0.024014208 -0.02118455 0.067037284 -0.09267207
0.058201306 -0.03525272 -0.080267206 0.03907717 -0.022862144 -0.06020037 -0.044385996 -0.0963562
0.011391806 0.034799173 -0.04903419 -0.07642599 -0.051397093 0.06109956 -0.085938774 0.05769954
-0.0022951614 -0.019606477 -0.03278153 0.05093262 0.0046346006 -0.09969227 -0.0758128 -0.020125637
0.013344573 0.07106859 -0.028811222 -0.08228545 0.07117411 0.067651786 -0.023547124 -0.04768361
-0.07343348 0.048283454 -0.0044464907 -0.09771797 -0.07981957 0.06939378 -0.049942445 -0.03898872
0.007833804 -0.027172705 0.0067950394 0.05993464 -0.069715895 0.07020028 -0.012847325 -0.042709023
-0.095581815 -0.010394203 -0.10279016 -0.011731347 0.04397197 0.009376678 -0.008727583 0.013716536
-0.0115698315 0.0014931201 -0.009905888 -0.03649069 -0.012602644 -0.0034195136 0.0048414227 0.045050148
0.03809391 -0.06071886 -0.0533674 -0.0396419 -0.056021485 0.040655058 -0.08852529 0.04765059
0.02964758 0.07067171 0.04815095 -0.08543645 -0.006115713 0.05860995 -0.100460835 -0.059412718
0.041566286 0.071424305 0.052504353 -0.068262026 -0.053514946 -0.034545615 -0.10338778 -0.049236033
0.016357599 -0.009556925 -0.10105209 0.0021605992 -0.038739078 0.013149025 -0.05410905 -0.061660826
0.031616207 -0.032317773 0.020362614 -0.061515447 -0.022141628 -0.068365335 -0.05347227 0.037649605
0.043040708 -0.07789971 0.0058102356 0.03367205 0.04957144 -0.06282305 -0.048552483 -0.06352734
0.046658803 -0.057078987 -0.07966556 0.036003057 0.04172088 0.05133932 -0.012758786 0.057604574
-0.057261772 -0.03473321 -0.052238274 0.068151556 0.077606775 -0.036991272 -0.0033115644 -0.005355944
0.016431434 -0.010112465 0.0660901 -0.015635755 -0.0049065324 -0.028956346 0.023591094 -0.017591067
-0.060032316 -0.08475438 0.07238409 -0.021734102 0.071092695 -0.033943888 0.06871641 0.04577226
-0.06432732 0.05911407 -0.026491651 -0.031873707 0.011213024 -0.044086747 -0.01633117 -0.045833785
-0.020231454 0.060750306 -0.01655184 0.027589226 0.07888521 -0.0441735 -0.012410644 0.027008025
-0.06992772 0.023496943 0.04127716 0.023426333 0.055175778 -0.05186448 0.013499019 -0.053084645
0.018270977 0.08094373 -0.008313297 -0.038495347 -0.042878024 -0.032728296 0.06457284 -0.02555477
-0.03579784 -0.020444792 -0.062658414 -0.057610307 0.0057511535 -0.07475876 -0.07880092 0.04977937
0.07576293 -0.032682296 -0.037560843 0.025442759 0.008381021 0.059489936 0.07927916 -0.04202133
0.0055390126 -0.059655353 -0.08160605 0.04379665 -0.060628023 -0.0764857 0.057387166 0.0052506533
-0.046728738 0.07115663 -0.07684494 -0.08287359 -0.091958255 -0.022596294 -0.0070552104 -0.024439944
0.0051686047 -0.009188727 0.02284383 -0.06414281 -0.014626015 -0.057198375 0.045124125 0.035428237
-0.023002837 -0.02591602 -0.015639246 0.05499075 -0.054185305 0.07292092 0.07439685 0.057660744

fc2.bias f4 [128]
00000000: bade 0a3d 7313 50bd a63b ab3a bbe0 723d
00000010: a3e5 a1bd a735 923d cb75 1bbc ca4f 17bd
00000020: 2df5 8c3d 9b23 8f3d 0f8a d63d 9a84 723d
00000030: 2ed6 86bd cb63 013d 4120 c93b cd2d 7f3c
00000040: 604c 383d a21c 853d 5a6e fcbb aad3 95bb
00000050: 8654 8cbd 37c6 633d 5c3f 0ebd 90f6 13bd
00000060: dc53 8b3d 23f5 01bd 4555 343d 6e23 94bb
00000070: c8dc ffbc a0fb bb3c 1537 51bd 1cd9 063d
00000080: fee1 a73c d67d d63d a7d3 afbd 8a88 853d
00000090: 3001 e03d a234 2b3d 901d 0d3d ca23 07bd
000000a0: f876 80bd 3a6d aabd cb1a b6bd 2fe3 39bd
000000b0: 81b3 653d 1adc 2abd 4105 8c3b 1bf5 f53c
000000c0: b3dc a23d 767c 59bd 2e19 09ba 9678 093d
000000d0: 09ad f7b9 2ba0 fdbc 0874 42bd 8b1f 543d
000000e0: 43e2 6e3d f866 2ebd 8551 95ba 3979 47bd
000000f0: 6ea4 a1bd afe3 0a3a 5db8 14bd 72d8 813d
00000100: 5a02 d2bc 3bf0 55bd d711 aabd b6b1 4d3d
00000110: 6c88 713d 2366 863d 38b9 2cbc 7e8c 733d
00000120: f4b6 dc3d 9303 fa39 9063 12bd fe75 aabc
00000130: 9703 cbbc dc47 5d3d fdf3 a73c 0ffc 2a3d
00000140: df18 46bd 23a8 263d 3b14 e53d bfa7 b93d
00000150: e3b6 bf3d ba10 0c3d 572a bf3c 3974 00bc
00000160: 5981 adbb e703 ab3d a26b c83d 2e3a debc
00000170: b9a3 a03d 6430 56bd 60fa 0ebd 6ab4 a53c
00000180: e786 92bd b8df e9ba a6d7 25bd f0c0 a0bd
00000190: c1b5 8e3d 011e 84bd 3104 cb3d 9a70 4d3d
000001a0: 9b80 1dbd f44a f03d b96d 0bbd 8f7e 40bc
000001b0: 9a0f a13d fd8e 4e3a 70c1 a53d c9ce 82bc
000001c0: 88d3 8c3d b8ad f8bc 7bbf bb3d 7530 5bbd
000001d0: 880f 373d 84b5 043d 8941 e93d fe46 72bc
000001e0: 35c1 453d f9e8 a73d 3757 e0bc e30f 71bc
000001f0: e194 943d b0a0 6fbd 9b9a ea3d a602 5cbb
0.033903815 -0.0507998 0.0013064041 0.05929635 -0.07905128 0.071391396 -0.009488533 -0.036941327
0.06882701 0.06989213 0.10475551 0.05920849 -0.0658382 0.03158931 0.006137878 0.015574885
0.044994712 0.06499602 -0.0077035846 -0.0045723515 -0.06852059 0.055608954 -0.034728393 -0.036123812
0.06803104 -0.03172792 0.04402663 -0.004520825 -0.031233206 0.022947133 -0.05107792 0.032921895
0.020493504 0.1047322 -0.08585291 0.065201834 0.109377265 0.04179824 0.03445202 -0.032993115
-0.062726915 -0.083216146 -0.08891829 -0.045382675 0.05607939 -0.04171381 0.0042730873 0.030024102
0.07952251 -0.05309721 -0.00052298873 0.033562265 -0.00047240432 -0.030960163 -0.047473937 0.051787894
0.05832125 -0.042578667 -0.0011392093 -0.04869959 -0.078926906 0.000529821 -0.036308635 0.06340112
-0.025635887 -0.052231055 -0.08304184 0.050218306 0.058967993 0.0656245 -0.0105422065 0.059460156
0.10777083 0.0004768638 -0.03573948 -0.020808216 -0.024781985 0.05402361 0.020502085 0.041744288
-0.048363563 0.04068769 0.11185499 0.09065198 0.09361055 0.03419564 0.023335619 -0.00784021
-0.0052949605 0.08350354 0.09786154 -0.027127352 0.078437276 -0.052292243 -0.034906745 0.02022763
-0.07154637 -0.0017843163 -0.04048886 -0.078493 0.069682606 -0.06451035 0.09912909 0.050156213
-0.038452726 0.11733046 -0.034040187 -0.011748924 0.07864304 0.0007879583 0.08093536 -0.015967743
0.06876284 -0.030356273 0.091673814 -0.05351301 0.044692546 0.03239967 0.11389453 -0.014787434
0.04827996 0.08198733 -0.027385337 -0.01471326 0.07254959 -0.058502853 0.1145527 -0.0033570915

fc3.weight f4 [5, 128]
00000000: 8e2d 643d 0890 b1bb 1db4 d4bd 1ebe 9bbd
00000010: 913c 0fbd a65c eebc 2e39 5dbd 1c63 0bbd
00000020: 1323 223d 81a1 c9bd 4d04 6fbc af1f 2a3d
00000030: 9274 a33d c819 953c 8750 eabd 97e2 edbc
00000040: ba51 bdbd 69f0 253d 7313 963d 1987 263d
00000050: c477 503d 8216 b73c d3da b7bd 7bec bcbd
00000060: b72d dbbd 1eeb 83bc 3599 db3b 828b d9bd
00000070: 003e 04be 30ea 773d f702 efbd a6c4 eebd
00000080: df69 833c 7262 c0bd 0ed0 c03c 74e0 a93c
00000090: f79a 553d aed1 0f3d 3a9e 79bc b21f 9cbd
000000a0: da36 de3c cec8 2dbd e5e5 983d 419d 98bc
000000b0: b892 98bc 9646 22bd 8c23 8f3d 04ba 413c
000000c0: 8ffb 293d 80ac 4f3b 93f1 00be d22f 94bd
000000d0: a7e1 1dbd 9070 fdbd 84a4 ffbd f667 89bd
000000e0: 8e29 9d3c 6b1b 79bc 7ef8 963d e37f a2bd
000000f0: 1e51 863d 6f06 8c3d 6fd7 7cbd 93b8 0dbc
00000100: eeec 7bbd 20b3 a8bd dca9 233d 89a3 053d
00000110: a1be 823d 17aa 853c f268 a3bd 09de f43c
00000120: d02f bcbd ffd7 57bd 9086 c6bd b34c c4bd
00000130: 309a a23d 8f7e 01bd f7c7 343a ecc7 143d
00000140: 5434 3b3d 876d 223d c27e 5f3d 1fe3 923c
00000150: a5ce 7b3c f426 4dbd 9734 403c 81a4 1ebc
00000160: 0182 8ebd 9654 e8ba a8b4 25bd 5b91 14bd
00000170: b6a9 f7ba 10f2 efbd 2994 273d fa47 043d
00000180: ec02 a83d 51cb ebbd 22f1 0e3d b98e 56bd
00000190: 6e31 8a3c 79f3 193c 9e04 49bd 9d3d a6bd
000001a0: 625f e8bd 6b2e f3bb 9b3d 193d dc85 f63c
000001b0: 1419 11bc 3f86 8e3c 4d76 33bd eb81 313d
000001c0: 9b2e dfbd 517a 3e3d 14af 5e3d bc77 cabd
000001d0: c7d2 053b 02c4 3dbd 9480 4ebd d21d 203d
000001e0: a6af e73c 5478 d33c 5759 44ba 2c15 b7bd
000001f0: 347a 2e3d 7bff 593d 4730 25bd 7ca1 d9bd
00000200: ba18 88bd 95c8 32bd 19a6 893d 036d 9f3d
00000210: 09a2 01bd caab bc3d 40da 3a3c b5e8 bcbc
00000220: acb3 f03c 852f de3c e130 bf3d 83bc 79bd
00000230: ffd0 8ebc 90f3 d1bc a424 bc3d e08d 06bd
00000240: 7427 90bc 9574 81bc e26b 94bd b90c eb3c
00000250: 7aa1 5a3b 0780 6d3d d0cc febc c4fb 2c3d
00000260: 0abd 053d 6c14 84bd 19c8 b63c 15f2 1a3d
00000270: 8ccd 863d 863a 75bd c481 803d c6ff ab3d
00000280: 1e04 2fbd 9963 273d 465a 80bc 4460 f53c
00000290: 166e f63d c366 e43d 0133 5ebd 83d3 f13a
000002a0: e8d4 39bd fe25 383d 659a 133c b484 e33c
000002b0: f723 61bd ce6e 36bc 5a97 be3d 5438 f23d
000002c0: ad88 af3d 23b5 3fbd 8cf9 25bd 0ab6 bd3d
000002d0: bdf9 943d 8d1d a1bc 2423 ea3d 73aa 5ebd
000002e0: 9452 743d 8b6c 1e3d c1f6 703d 2430 9fbd
000002f0: 7f1d 56bc 69c4 61bd 4b5c af3d fbed ee3d
00000300: 5487 91bd bef9 9bbd ec08 993c ecf4 46bc
00000310: f96b 4ebd 7838 1bbb a857 6f3d b3b6 ae3d
00000320: 5380 e43d 5c79 733d 82c4 51bc 3e97 673d
00000330: f856 023c a86f bc3c 52b7 87bd b41e ec3d
00000340: 426c 42bd e016 b73c 33b7 ae3d bd28 1a3d
00000350: c9ba 463d c3aa e5ba fefc ca3b e974 9fbd
00000360: 2834 fa3d b9cf e53d 8ecc 32bc 6ce2 e23d
00000370: 6cac 3d3c 5ec7 d5bc 3925 1bbd c77f a1bd
00000380: 0361 5d3d 821c adbc ba49 fb3c da33 8cbd
00000390: bb2f bdbc 8ef1 ed3c 3a5e 9b3d b322 deba
000003a0: c710 49bb 010b ae3d e9ee 70bd c0bc f73d
000003b0: 1585 fd3d c1e1 3c3d 7337 3c3d f62a 06bb
000003c0: f96b f83d 1b2b c639 31c9 183d f3df 8b3c
000003d0: ae84 5f3d 5c28 be3d 44a3 df3c e170 f9bb
000003e0: 348b e3bc 7041 8e3d 6bcd 893d 4100 c93c
000003f0: ca2c b4bc d794 393c 5f9f a6bc 9561 243d
0.055707507 -0.005418781 -0.103859164 -0.07604621 -0.03496987 -0.029096913 -0.05400961 -0.034030065
0.03958423 -0.098452576 -0.014588428 0.041534122 0.079812184 0.01820077 -0.114411406 -0.02903871
-0.09244104 0.040512476 0.073279284 0.040656183 0.050895467 0.0223496 -0.08977284 -0.092247926
-0.10702079 -0.016103324 0.0067016133 -0.10622312 -0.12914276 0.060526073 -0.116704874 -0.116586015
0.016041694 -0.09393777 0.023536708 0.02073691 0.05214974 0.035112076 -0.015235478 -0.07623233
0.027125765 -0.04242783 0.07465724 -0.018629672 -0.018624648 -0.039618097 0.06989202 0.011824135
0.04149967 0.0031688511 -0.12592153 -0.072356835 -0.038545277 -0.12374985 -0.12482551 -0.06709282
0.019184854 -0.015204291 0.07371615 -0.07934549 0.065584406 0.068371646 -0.06172889 -0.008649963
-0.06150525 -0.082372904 0.039956912 0.032626662 0.06384016 0.016316457 -0.07979001 0.02989103
-0.09188807 -0.052696224 -0.096936345 -0.09584942 0.07939565 -0.031614836 0.0006896252 0.036323473
0.0457042 0.039655235 0.054564245 0.017930565 0.015369092 -0.050085977 0.011731288 -0.0096827755
-0.0695839 -0.0017725404 -0.04045549 -0.036271434 -0.0018895182 -0.11716092 0.04091278 0.032295205
0.08203682 -0.11513389 0.03489793 -0.052382205 0.016869273 0.009396427 -0.04907667 -0.081172206
-0.11346318 -0.007421305 0.037412267 0.030093126 -0.008856077 0.017397998 -0.043813992 0.04333679
-0.10897561 0.04650337 0.054366186 -0.09886119 0.0020419823 -0.046329506 -0.05041559 0.03909094
0.028281998 0.025814213 -0.00074901193 -0.08939585 0.04259701 0.05322216 -0.040329244 -0.10626504
-0.06645341 -0.04364832 0.06721134 0.07784464 -0.03164867 0.09212454 0.011404574 -0.023060182
0.02938255 0.027122268 0.09335495 -0.060970794 -0.017433641 -0.025628835 0.09186676 -0.032850146
-0.017596938 -0.015802661 -0.072471395 0.02869259 0.0033360408 0.057983425 -0.031103522 0.04223229
0.032650985 -0.06449208 0.02231221 0.037828524 0.06582174 -0.059870265 0.06274751 0.08398394
-0.042728536 0.040866468 -0.015668046 0.02995313 0.12032716 0.11152413 -0.05424786 0.0018449876
-0.04536906 0.044958107 0.0090089785 0.027773239 -0.05496594 -0.011134816 0.09306212 0.1182715
0.08570991 -0.046803605 -0.04052119 0.09263237 0.07274196 -0.019667411 0.11432484 -0.05436177
0.059649065 0.038677733 0.058829073 -0.07772854 -0.013068556 -0.055118952 0.08562525 0.11666485
-0.0710589 -0.07615994 0.018681012 -0.012143355 -0.05039594 -0.002368478 0.058433205 0.08530941
0.111572884 0.05944191 -0.012803199 0.05654072 0.007955305 0.02300246 -0.066267624 0.11529294
-0.047466524 0.022349775 0.08531036 0.037636507 0.048517976 -0.0017522204 0.00619471 -0.07785971
0.12216979 0.112212606 -0.010913027 0.11078343 0.011576753 -0.026096042 -0.037877295 -0.078857
0.054047596 -0.021131758 0.030674804 -0.068458274 -0.023094049 0.029045846 0.07586332 -0.0016947597
-0.0030680166 0.084981926 -0.058821592 0.12096548 0.12378899 0.046113733 0.045951318 -0.0020472384
0.12129969 0.0003779762 0.037301246 0.01707456 0.054569893 0.09285042 0.02729953 -0.007612333
-0.027776338 0.06946075 0.067286335 0.024536254 -0.021994013 0.01132699 -0.020339666 0.040132124

fc3.bias f4 [5]
00000000: 526a 36bd 3909 bf3d ec76 0c3d bfb5 713d
00000010: 8bad ecbc
-0.04453499 0.09327931 0.0342931 0.059011217 -0.028891345

fc1.weight f4 [128, 147]
00000000: 8924 5dbd 084f 2ebc c539 bb3c 5610 bd3d
00000010: 67ba 573d 55af 8e3c 7aa9 9eba 6fbb 02bd
00000020: 1dd2 6c3d aac5 8a3d 7aba 8fbc fd4f ddbc
00000030: 13b4 e73c 71b4 663d 97da 503d a080 82bd
00000040: 7f3a 55bd b8a3 8b3d fbb7 9b3d 3455 8b3d
00000050: dc30 1abd 625c 9a3c b61c cf3a ff0c 323d
00000060: 232c f1bc 8d35 2c3d c0bd 783d 4709 653c
00000070: 939e 903d 6695 9f3d 3eae 9e3d 4e12 083d
00000080: bc51 c33d fd30 663c bfa8 1fbd 7701 8a3d
00000090: 41d2 8ebd cd9d e3bc 0568 6abd 0691 06bd
000000a0: 6db6 33bd d986 86bb 4fb2 b73d 81c0 48bd
000000b0: 3634 03bd 5216 893d b7fc b83d 893f 30bc
000000c0: e6fa 8b3d 3d8c 91bc 84cc b2ba c3d8 4ebd
000000d0: f0c6 37bc 6d29 52bc de31 0fbd babd c93d
000000e0: a7d5 623c 3219 ad3d 41b3 6fbd 1f7a 93bc
000000f0: 5807 d73c 341f 813d 7e04 2d3d 65d5 8fbd
00000100: 80d2 dd3b 0e99 c3bc 1089 c9bc 5ae5 b33d
00000110: 18df 71bd 319b cb3d a8bf 8dbd a322 28bd
00000120: d096 8f3c 0040 48bc 80c2 f8bc 9e79 a8bc
00000130: 84f2 973b e299 773d 8e91 853d b669 e43c
00000140: a7e6 a73d 45d6 e2bc c867 75bd 295a a53d
00000150: e6bf 7a3c b1ff d0bc 58d6 bf3c 59fd ac3d
00000160: cee6 6f3d 001c 943d e465 90bc 869b 6cbd
00000170: 9cc9 10bd 61c4 b13d fc92 4dbd de36 60bd
00000180: 5051 8bbd c6ea 353d 4e8e 36bd fa55 513c
00000190: 3dcc bb3d d5ee 573c afaa d1bc f702 583d
000001a0: 9ebc cd3d 9b99 f53c 622f 17bd e41c 5a3c
000001b0: 1d03 57bd 800f 16bd 723b 653c 3871 95bb
000001c0: c6ae 1d3d 1e27 d0bc bc95 95bd 70ff 75bd
000001d0: 9f6a 243d f612 90bd 0f6b 5f3d bb8a b8bc
000001e0: 2f77 533d d361 543d e522 ba3b 719f 3ebd
000001f0: c31a e5bc 03c8 14bd a0f8 163c 2665 793d
00000200: 5e9c df3c 7836 32bc 493a c23d d586 c13d
00000210: 36e4 94bb 6124 e33c 112d 33bd a086 f2bc
00000220: a91e 2fbd 271d 163c 6d2c 943d 7f1a 10bd
00000230: 2199 0bbc 7bdb 263c af1f b53d 88a6 d53c
00000240: 6339 5ebc 5efb 47bd 8e46 863d 6dd1 a8bb
00000250: 98aa b23d faa8 e0bc e086 7abd ed2b 173d
00000260: 182e 71bb 9e1f e7bc c436 973c 4ac6 48bc
00000270: af07 5cbd 8acb a03d 5ea4 133c 7356 45bd
00000280: 8c25 a63d 7222 d73d 730a c73d c212 013d
00000290: 97a8 ca3d 43bd 67bc 0720 a23d d859 cbbc
000002a0: 9f62 763c 87f6 28bc ed2c 893d a270 c63d
000002b0: 78b4 903c f66f f03d 4d1c 82bd aab7 853c
000002c0: 0c7c 9c3c d85f 02bb b34f 9a3b 1c19 383c
000002d0: cc93 133d b0a5 a43b 0099 1abc bcab 343d
000002e0: 84e0 4e3d 64e0 273a 90cb c93d 594d 193d
000002f0: 88fb b33d 00d4 fbbc 761e 9d3d de47 c73d
00000300: db3a 8d3d a7a4 053d 9f1e 873c 040a 80bc
00000310: 17d3 b23c c90e 323d 1a50 42bb 8cb6 c03d
00000320: bd30 343d a270 d23d 0828 a33a 6948 a13d
00000330: 74c1 88bc 7026 943c 7da6 f33c ac73 a73d
00000340: bf52 afbc fa71 383d 1979 9e3d 90fb 693d
00000350: 2f18 493c da0d d83d 3209 d7bc f63e 6cbd
00000360: 067a 19bc 152f 8c3c ed22 663c ead8 d3bc
00000370: 5cfa d63d fb5f 383d e825 763b 7db5 1f3d
00000380: f6d5 893c 3bb8 2a3d 91cd af3d d84b ec3d
00000390: 2f80 6bbc f0da c93d b123 e33d 39ba 95bc
000003a0: 1cb8 443c cf90 6b3d d733 5e3d 2b3d cc3b
000003b0: 4cae eebc ab5f d53d e150 85bd 9ef9 c13d
000003c0: 94fb d63d 8ba3 8ebc 112c b0bc 8fc1 8f3d
000003d0: 9bd1 c63d c3cc 5abd 98d0 94bd 0792 43bd
000003e0: aa6a 263d 6c27 5b3d 6ba6 073d 959b 3e3d
000003f0: 9f3d b43d a381 36bd 4900 2d3d b940 97bd
-0.05398992 -0.01063896 0.022854695 0.092316315 0.052668 0.01741759 -0.0012104951 -0.03191703
0.057817567 0.06775983 -0.017544974 -0.02701568 0.028284108 0.056324426 0.050989714 -0.063721895
-0.05205774 0.06818336 0.07603451 0.068033606 -0.037644252 0.01884288 0.0015801403 0.043469425
-0.029439991 0.042043258 0.060727835 0.013979263 0.07061496 0.07792167 0.07748078 0.03322058
0.09537074 0.014049766 -0.03897929 0.06738561 -0.069736965 -0.027785206 -0.057228107 -0.03285315
-0.043875147 -0.0041054306 0.089695565 -0.04901171 -0.032032214 0.066937104 0.090325765 -0.010757335
0.068349645 -0.017767066 -0.0013641273 -0.05049969 -0.011216864 -0.0128272595 -0.034959666 0.098506406
0.013844884 0.08452071 -0.05852056 -0.018002568 0.026248619 0.0630478 0.042240612 -0.07023124
0.0067694783 -0.023876693 -0.02460149 0.0878398 -0.05905065 0.0994171 -0.06921321 -0.041048657
0.017527968 -0.01222229 -0.030366182 -0.020565804 0.0046370644 0.06044949 0.06521903 0.027882438
0.0819829 -0.027690062 -0.059913427 0.08073837 0.015304541 -0.025512548 0.023417637 0.0844676
0.058569722 0.07231903 -0.01762671 -0.057765506 -0.03534852 0.086800344 -0.050189003 -0.054739825
-0.068026185 0.04441335 -0.044569306 0.012776846 0.09169815 0.013179501 -0.025594084 0.052737202
0.100457415 0.029980471 -0.036910422 0.013312552 -0.052493203 -0.036635876 0.013991224 -0.004560616
0.038496755 -0.025409278 -0.0730395 -0.060058057 0.040140744 -0.070348665 0.05454546 -0.02252709
0.051627334 0.051851105 0.0056804293 -0.046538774 -0.027966863 -0.03632356 0.00921455 0.06088748
0.027296241 -0.010877244 0.09483773 0.09449545 -0.0045438064 0.027727308 -0.04374415 -0.02960521
-0.04275385 0.009162224 0.07235036 -0.03518152 -0.0085203955 0.010184164 0.08843934 0.026080385
-0.013563487 -0.048823707 0.06556426 -0.0051519186 0.087239444 -0.027424324 -0.061163783 0.036907125
-0.0036801156 -0.028213318 0.018458731 -0.012254307 -0.053718265 0.07851322 0.009011356 -0.048178148
0.0811263 0.10504617 0.0971879 0.03151203 0.09895437 -0.014144245 0.07916265 -0.024823114
0.015038162 -0.010312683 0.06698022 0.09689452 0.01766418 0.11740105 -0.06353054 0.01632293
0.019102119 -0.0019893553 0.004709208 0.011236455 0.036029622 0.0050246343 -0.009435892 0.04410909
0.050507084 0.0006403981 0.098532796 0.03742728 0.0878821 -0.030740738 0.076718256 0.097305045
0.068959914 0.032627728 0.016494093 -0.015629776 0.021829171 0.04347113 -0.0029649795 0.09409818
0.043991793 0.10275389 0.0012447843 0.07875139 -0.016693808 0.018084735 0.029742474 0.081763595
-0.021401761 0.04503057 0.07737941 0.057124674 0.012273832 0.10549517 -0.026249502 -0.05767723
-0.009367472 0.017112294 0.014046413 -0.025860269 0.10496971 0.04501341 0.0037559215 0.03899144
0.016825657 0.041679602 0.085841306 0.115379035 -0.014373823 0.09856212 0.11090792 -0.018277274
0.012006786 0.057511147 0.054248657 0.0062328777 -0.029135846 0.10418638 -0.06509567 0.09471439
0.104972035 -0.017411968 -0.021505387 0.0701934 0.09707948 -0.053417932 -0.072663486 -0.047746684
0.040629067 0.053504393 0.033117693 0.046535093 0.08800816 -0.044557225 0.0422366 -0.07385392

fc1.bias f4 [128]
00000000: 3b0b 5e3d bcdc 82ba 4874 c63d 4435 c43c
00000010: 09de 833d 2bce 8a3d afb4 07bd f77c 41bd
00000020: 296f 6e3c 46ed a53c c860 3ebd 5a0f 033c
00000030: a086 ba3d aeb5 453d a397 03bb 4575 a43d
00000040: 14f4 863a f428 a03d c729 28bd b0e3 c83d
00000050: 747e 05bd be1d 0fbd dec9 c83d ee5e a0bd
00000060: ef50 263d fe1d 203d b150 d13c e3f8 00bd
00000070: 199e aa3d 7492 e53d 6e88 613c 46c0 cebc
00000080: f67d eebc 23c7 e03d aac0 b53d 725c 49bc
00000090: 20aa 9b3d e180 2bbd 6edc 10bd 5adb debc
000000a0: 85cb 993d d651 c43d 8bb9 bd3d 8234 c73d
000000b0: d544 febc d93b ba3d 820d a43d edaf c23d
000000c0: ee94 f03c 5855 e03d 361b 2c3d 8080 b33d
000000d0: db4f ae3d 5baa 1b3d 7607 a43d b72d 653d
000000e0: 87d6 5c3d 4047 d83d 3144 39bd 6dc2 c23d
000000f0: 7d0a ea3a f3ac e23c 2c80 69bc 6432 a23d
00000100: 309f 88bc 795e 8c3b 2fa4 a83d c74a d43d
00000110: dfb5 0bbd a0a2 a73b 72e2 2c3d b9df c73d
00000120: 0c1d 883d 2413 a93d 1413 7ebb bf88 4e3d
00000130: dc97 a33d 24b5 b23d 023d b13c 550f d7bc
00000140: 8f7f ce3d 0e9d a53d 4cd3 f13c d1cd 483d
00000150: 8a31 18bd 23c7 4dbc 6b55 4c3c 3a2f 9bbc
00000160: 1b2d 753c b9c2 0bbd 70bc 2f3d 4017 ae3d
00000170: 24b6 2b3d 3afd 2439 eb9b b7bc 5abe b33d
00000180: dc53 c5bc dafa 2c3d 0982 453d 56ba 273d
00000190: 4b43 0d3d 5809 813d 7ed5 5e3d e74c 77bc
000001a0: 6888 083d 0764 643d fc43 e43c 7b11 113d
000001b0: c7b0 d43d 72a2 043c 8f65 a43c e424 3c3a
000001c0: 5292 213c c86a 6d3d c543 743d c044 bf3c
000001d0: 3d0c a23d 779c 26bd 9e64 4a3d c0de 04bd
000001e0: cb20 ce3d 9e51 b93d 27ee ae3c 91da dbba
000001f0: 099d 193d d6da 18bd 39ad 023d 9835 dabc
0.05420993 -0.0009983997 0.09690148 0.02395118 0.06438834 0.06777605 -0.033131298 -0.047238316
0.01455287 0.020254742 -0.046479017 0.007999266 0.09107709 0.048268966 -0.0020079396 0.0803018
0.001029613 0.07820311 -0.041055467 0.09809053 -0.0325913 -0.034940474 0.09804128 -0.078306064
0.040604528 0.039091103 0.025551172 -0.031487357 0.08330936 0.11209574 0.0137654375 -0.025238167
-0.029112797 0.10975482 0.088746384 -0.012290107 0.07600808 -0.041870955 -0.035366468 -0.027204204
0.075095214 0.095859215 0.09263905 0.09726812 -0.031038681 0.09093446 0.08010389 0.095062114
0.02936789 0.10953778 0.042018138 0.08764744 0.08511325 0.03800426 0.080092356 0.0559518
0.053915527 0.10560465 -0.045231048 0.0950974 0.0017855909 0.02767036 -0.01425175 0.079197675
-0.016677469 0.004283723 0.082344405 0.10365825 -0.034108993 0.005115822 0.042208143 0.097594686
0.06646165 0.08255604 -0.0038768696 0.05042338 0.07987949 0.08725956 0.021635536 -0.026252428
0.100829236 0.080865964 0.0295197 0.049024407 -0.03715662 -0.012559685 0.012471537 -0.018943418
0.014964367 -0.03412125 0.042904317 0.08500528 0.04192175 0.00015734593 -0.022413215 0.08776541
-0.024087839 0.04223142 0.048219714 0.04094919 0.034488004 0.0630061 0.05440282 -0.015094019
0.033333212 0.055759456 0.027864449 0.03541706 0.1038528 0.008095371 0.020067958 0.0007177128
0.009861546 0.057963163 0.059634943 0.023348212 0.079124905 -0.04067656 0.049412362 -0.032438993
0.100648485 0.0904877 0.021353794 -0.0016773512 0.037503276 -0.037318073 0.03190348 -0.026636884

fc2.weight f4 [128, 128]
00000000: a454 843d 7daa 7a3d b42f 20bd b87e 48bd
00000010: db5f c4bd a4ad 96bd 3a46 01bc bf83 303d
00000020: 0956 85bd 7c8c 0cbd fb7a bcbc fb9d 723d
00000030: 871f 4e3c 35b1 6cbc 358e 233c 002e 963d
00000040: 0387 29bd 1bcf 46bd db7c 4ebd 3a5a 8f3d
00000050: 42cc 643d 99b6 84bd fa0d 6b3d 756b fa3c
00000060: 91a2 3c3d 8293 86bd 7c97 6f3c 28a2 8dbd
00000070: be0d 27bd a27d a3bc e7a2 8cbc 6b2d 903c
00000080: b001 8bbd 7457 5d3d f7c9 813b 9df5 66bd
00000090: 533a 19bd 3c34 b3bc 2122 b0bd 2e21 b3bd
000000a0: 968d b1bd 6842 29bd 35f4 92bd 9cb8 aabd
000000b0: 4f61 bdbd ad31 c3bd 81ba 893d 768b acbd
000000c0: aaaa afbb c605 333d e96d 5d3d 8677 ea3c
000000d0: ce04 813d 7af7 c0ba b4fa 803b 15ab 1cbd
000000e0: 259e 583d cd4b 973b 8716 56bd 2b4e a0bd
000000f0: 73ff 403c 5ffb 903d 5120 0f3d 2956 7cbd
00000100: ae1f cabd 5a76 333d 76a9 3f3d 5015 d6bb
00000110: 0422 babd 25b1 4cbc d2c8 5d3d 4e03 9fbd
00000120: 5a5a 3cbd 9027 14bd b23d 0e3d 5b90 953d
00000130: 7535 3a3c 656a 78bd 365b 2d3d a29e 89bc
00000140: 9af9 dbba a821 a0bd 367e 563c c746 4ebd
00000150: ab1c bbbc 1fe9 0e3d 1855 483d 91b4 823d
00000160: 6a3a b0ba 564f f3bc 2eb8 7e3d 989e 913d
00000170: ee26 6c3c 245b 8ebd ee0b d0bd 2441 81bd
00000180: b543 ffbc 1c6a c4bd ebdd 17bd 6955 8bbd
00000190: e218 283d 3a44 01bd 45b6 4abd 077a 01bd
000001a0: b28a 00bd 9358 f43c faba 97bc d6fb 06bd
000001b0: 9c60 643c 4262 65bd 1063 c4bd e12e 8e3d
000001c0: 05d0 2ebd 6f2d 7e3d 1b8d 19bd 1317 d8bc
000001d0: cbd8 86bd f87f 70bd 6822 75bd 08af 83bd
000001e0: dfd3 78bc f4bb 92bc fcdc ae3c 3883 663d
000001f0: 7487 aabd 22ee 963b 3594 b6bd acf2 ee3c
00000200: 7191 603d c783 e6bc 6570 24bd 0c85 703d
00000210: 048f ccbd cdc7 a4bd 0902 263d b4fb 9a3d
00000220: 10ee 8c3c 1595 643d 54f4 4e3d f0f4 9bbd
00000230: 6092 033d 87a4 aabd 9267 f23c 576c 8f3d
00000240: c760 ff3c 9343 aabc ba38 613d 1f96 47bd
00000250: 9a7c adbc bde1 98bd f5cb 5f3d fce2 a13d
00000260: f741 d3bb 51a6 563b 8c18 04bb 3ffd 813d
00000270: d06f b9bd df32 a8bd 09a5 083c d938 b2bc
00000280: 2a1b 923d 7c16 0b3d d0ca 52bd 7cf9 4abd
00000290: 6353 88bd e165 2dbd 6524 97bc 5b61 53bd
000002a0: 7702 833d bfbf 203d 2898 193d 5b86 a7bd
000002b0: d7fc 6dbd f5bc 633d eb4c 3cbb 4d2a cdbc
000002c0: 42de c3bd 113a 233c eb52 573d b229 713c
000002d0: 429e de3c 6e8d 3ebc a298 16bb d3c1 823c
000002e0: 41e7 73bd 3bc3 92bd ea9a 823d 8c12 f53b
000002f0: ae9f 8b3c 8ff8 543d 365e 6abd 6e54 863c
00000300: fd63 80bd a1a4 4e3d 2448 423d fd22 ac3c
00000310: 0d1e 4ebd b274 20bd ae4a 1ebc 844c a2bd
00000320: eda9 64bc beed 7a3d b00e 123d 3437 a1bd
00000330: 206e 56bd 8fcf 04bd 5439 7a3c dab8 d5bc
00000340: fa3b 9fbd 4fcb 91bc 3a6c 5b3d e2a5 d1bc
00000350: 87a2 10bd 9e05 c23c 74fb d239 86db 8abd
00000360: aecb 10bd a913 803d 4aa1 51bd 49b7 d93a
00000370: e4ce 64bc d009 98bd 0119 b0bc e324 12bd
00000380: e5e7 b4bc 8814 a5bd c9cc 6dba b43f 133d
00000390: def0 b6bd 3134 eabc 51fa d63c 80ec be3c
000003a0: 80e4 023d 7b97 94bd 4af4 663d 2731 60bc
000003b0: b562 303d 2771 d8bc f56a 003d 75be c6bd
000003c0: 2024 f53c 2fbd 7ebd ef7e e43c 4582 d0bc
000003d0: 141b 3c3d 66e2 d43b daa5 2fbb b93a 31bd
000003e0: a6ce 433d a330 003d 60ec 1bbd b693 9b3b
000003f0: 25c6 4d3d 6974 f43c 069d 403d 5557 9cbd
0.064614564 0.061197747 -0.039107993 -0.048948973 -0.095885955 -0.07357338 -0.0078902785 0.043094393
-0.065105505 -0.034313664 -0.02300786 0.059232693 0.012580759 -0.014446546 0.009982635 0.073329926
-0.041388523 -0.048537355 -0.05041204 0.06999631 0.055858858 -0.0648014 0.057386376 0.030568818
0.046053473 -0.06571104 0.014623519 -0.069156945 -0.04078459 -0.019957367 -0.017167522 0.017599782
-0.06787431 0.05403848 0.0039608437 -0.05638658 -0.037409138 -0.021875493 -0.086002596 -0.08746563
-0.086695835 -0.041323096 -0.07175485 -0.08335993 -0.09247076 -0.09530959 0.06725026 -0.084250376
-0.005360921 0.043706678 0.054059897 0.028621446 0.062997445 -0.0014722191 0.003936136 -0.038249094
0.052885193 0.0046171905 -0.052267577 -0.07827409 0.011779654 0.07079195 0.03494293 -0.061605606
-0.09869324 0.04381404 0.04679247 -0.0065333024 -0.09088519 -0.012493406 0.054146595 -0.07764302
-0.045984603 -0.036170542 0.034726806 0.07302924 0.011365284 -0.06064834 0.042323314 -0.016799275
-0.0016782761 -0.078189194 0.0130916145 -0.050360467 -0.022840818 0.03489029 0.048909277 0.063820966
-0.0013445143 -0.029700916 0.062187366 0.071103275 0.014413578 -0.069509774 -0.101585254 -0.06311253
-0.031160215 -0.09590551 -0.03707687 -0.068034 0.041039355 -0.031559207 -0.049490232 -0.031610515
-0.03138227 0.029827392 -0.018521775 -0.032955013 0.013939049 -0.05600191 -0.09589207 0.06942535
-0.04267885 0.062055048 -0.037488084 -0.02637819 -0.06584319 -0.05871579 -0.059847265 -0.06429869
-0.015187233 -0.017911889 0.021345608 0.056277484 -0.08326617 0.0046060244 -0.08914987 0.02916845
0.054826204 -0.028139008 -0.04014625 0.058720633 -0.099882156 -0.080459215 0.040529285 0.0756754
0.01720336 0.05580624 0.05052598 -0.076150775 0.032122016 -0.08332162 0.029590402 0.07003086
0.031174077 -0.020784175 0.05498574 -0.04872715 -0.021177579 -0.07464931 0.054637868 0.07904622
-0.0064470726 0.003275294 -0.0020156233 0.06347131 -0.0905453 -0.08212828 0.008340129 -0.021755623
0.071340874 0.03395699 -0.05146295 -0.049554333 -0.0665653 -0.042333487 -0.018449971 -0.051606517
0.063969545 0.039245363 0.037498623 -0.08179923 -0.058102455 0.055600125 -0.002873237 -0.025044585
-0.09563877 0.009962575 0.05256931 0.014719414 0.027175073 -0.011630399 -0.002297916 0.015961563
-0.059546713 -0.071661435 0.06377204 0.0074790176 0.017043915 0.051994856 -0.057218753 0.016397681
-0.06269071 0.05044997 0.04743208 0.021012777 -0.050321627 -0.03917379 -0.00966136 -0.079247504
-0.013956529 0.061261885 0.03565854 -0.07871857 -0.052351117 -0.032424506 0.015272457 -0.02608912
-0.077751115 -0.01779714 0.05357001 -0.025591794 -0.03531125 0.02368432 0.00040241668 -0.06780152
-0.035350494 0.0625375 -0.051179208 0.0016610409 -0.013965342 -0.074237466 -0.021496298 -0.03567971
-0.022083232 -0.08060557 -0.0009071348 0.035949424 -0.089326605 -0.02858934 0.026242407 0.023306131
0.031956196 -0.07255455 0.056385316 -0.013683594 0.043062884 -0.026421143 0.031352002 -0.097042955
0.029924452 -0.06219214 0.027892558 -0.025452742 0.04592426 0.0064967154 -0.0026801736 -0.043268893
0.047804497 0.031296384 -0.03806722 0.004747833 0.050237793 0.029840665 0.04702475 -0.07633845

fc2.bias f4 [128]
00000000: 009d 473d 3fe0 bf3a 70b8 a2bd 1089 543c
00000010: 55b7 c9bc 88b2 813d 64b2 eebc 1e19 be3c
00000020: f478 303c e076 703d e39b b0bd 5cf9 3d3d
00000030: 4f90 eabc 6499 a53d d950 71bd 6315 c73d
00000040: 8234 6c3c f0dd b73d 3f89 6f3d d29b b6bb
00000050: 8c80 313b 104c e6bc 2d6e 9dbd ef46 ac3d
00000060: 8911 db3d f2a6 44bd 7486 823d b79e e8b9
00000070: 8bcd 403d 108b ecbc 0b0d a53d d401 24bd
00000080: aa92 58bd 2b77 c53c a5d8 49bd cebd 4cbc
00000090: 2f0d 913d f4b8 b43d cc07 a0bd d9bc 9bbd
000000a0: e143 b23d b6f8 11bd 1001 2c3d 8749 743d
000000b0: f880 4a3d 7a5e 88bd 7362 f83c 8400 99bd
000000c0: 6be0 533d 7a52 1a3d afbd 133d 78a1 07bd
000000d0: 1dbd 8a3d 372d b7bc 897f ea3c 9e8e d43d
000000e0: c658 a8bc 9789 cd3d f667 b5bd 1b59 093d
000000f0: f5b8 ed3c 4c89 8d3b 5a66 443d 9e8d 60bd
00000100: 2f89 103d 177a 863d e84b c23c 7547 163c
00000110: d8ba df3d d65f de3c e7fd 923d db9a a4bd
00000120: 7e5e faba 9b28 d93d 89a1 15bd f84a 4d3c
00000130: 2640 96bd 25ed 7e3d 8020 2cbd dee4 ea3c
00000140: 705e 17bd dbe8 063d 572c 91bd be07 46bd
00000150: cfd0 3c3d d6f5 9e3d 0550 b33d 0829 003d
00000160: 3efe 543d 6487 82bd 81e0 963d bcf5 b63c
00000170: 9828 923d b625 2cbd 6aa1 c1bd 76e0 39bc
00000180: 153c 413d ae3f 4ebd 4456 f03c 4526 35bd
00000190: f04f 90bd 2d67 eb3c 24fe 373d 3774 bcbc
000001a0: 31a9 8e3c 6208 963d fcd4 5cbd 4b96 cb3d
000001b0: a3cd a3bd 0f9a ec3c e05a 56bc 95b1 163d
000001c0: 87ba f0bc f92d c4bc fca3 a63d ad81 b0bd
000001d0: 1268 6a3d 7a25 15bd 03c8 53bd 06dd c1bc
000001e0: fb83 a33d 6c90 c33d 0931 bc3d 39f3 40bd
000001f0: c612 5ebd 66b3 e3bc eb7a b13b 9f67 03bc
0.04873371 0.0014638974 -0.07945335 0.012972131 -0.024623552 0.0633288 -0.029137798 0.023205336
0.010771025 0.058707118 -0.08623483 0.046380386 -0.028633265 0.080858976 -0.058914993 0.09720876
0.014416816 0.08977878 0.058480497 -0.0055727744 0.0027084677 -0.028112441 -0.0768703 0.08411967
0.10696704 -0.048010774 0.06373301 -0.0004436874 0.04707102 -0.028874904 0.080591284 -0.040040806
-0.052874245 0.024104675 -0.049278874 -0.012496425 0.07082593 0.088243395 -0.07813987 -0.07604379
0.08704353 -0.03563758 0.0419932 0.059640434 0.0494394 -0.06658645 0.030320382 -0.074708015
0.051727694 0.037676312 0.03606957 -0.033112973 0.06774352 -0.022360427 0.028625267 0.103787646
-0.020550143 0.10036009 -0.088577196 0.033532243 0.029018858 0.0043193456 0.047949173 -0.054822557
0.03528708 0.065662555 0.023717836 0.00917231 0.109243095 0.027145308 0.07177334 -0.08037349
-0.0019101647 0.10603448 -0.036531005 0.012530081 -0.07336454 0.062237877 -0.042023182 0.028673586
-0.036955297 0.032936912 -0.07088535 -0.048347227 0.046097573 0.07761733 0.08755497 0.03128913
0.052000277 -0.0637348 0.073670395 0.022333972 0.07136649 -0.04202815 -0.094546154 -0.01134502
0.04717644 -0.0503537 0.02933801 -0.04422595 -0.07046497 0.028735721 0.0449201 -0.023004634
0.017414661 0.07325818 -0.053914055 0.099407755 -0.079982065 0.028882055 -0.01308319 0.03679045
-0.029385818 -0.023947703 0.08136746 -0.08618484 0.057228155 -0.036412694 -0.051704418 -0.023664963
0.07984158 0.09549031 0.0918904 -0.047106955 -0.054217122 -0.027795505 0.0054162643 -0.008020311
