logs/maddpg_checkpoint_ep400.pth (torch, 585614 bytes, 24 tensors)

fc1.weight f4 [128, 147]
00000000: 61a9 94bc 8240 d9bc 34e1 3c3d 6b08 b13d
00000010: c93b 8d3d eed8 663d cc8d 653d 1ff4 9e3d
00000020: 33ec 08bd a14e 6abd 1654 18bc 165d 0a3c
00000030: 6a83 383c c022 c2bc 0e1d c53d 11ff 293d
00000040: 0d13 193b d291 693c 3094 2cbd 6cc8 93bd
00000050: 06dc 9d3d 5bfe ae3d 4736 b83c 912f 293d
00000060: 0df0 a73d 4579 d33c 92ba 5fbd 0b83 4abd
00000070: 8098 33bd 0be7 5a3d 925d cd3d e679 103d
00000080: 5481 53bd dd50 f23a 1b46 3dbc 54bd 91ba
00000090: 7f11 553d b94a e83a fcb8 943d e66b 40bc
000000a0: 43dd 973d 4e21 953d 6598 033d dfe4 90bb
000000b0: 0682 513d c0b8 ac3d b310 0d3d 05ab 1dbd
000000c0: 069f ae3b b1d9 07bd e53c 903d cd2d 9b39
000000d0: e824 82bd aea3 a63d 3851 bb3d cdc7 30bd
000000e0: 855c 7e3d 721b 673c cc89 183d 0c73 d03d
000000f0: 22c6 93bc 363d dabc b40d cd3d 7b12 303d
00000100: 8991 d23c 3128 62bc 52fe 5dbd 99a4 a53c
00000110: 5321 923d 2840 113d 57dc ad3c 0b1c 3d3d
00000120: 5dd5 55ba 3ecf 963c 6f9f d53d 6f2f 883a
00000130: ed9d a73d 6470 bd3d 8554 943d 4ca1 993d
00000140: 00c3 c23d d5b4 ae3d 3f7e c7bc c0c9 b63d
00000150: 64e1 50ba f991 50bd be1c e33c b225 5d3c
00000160: 6ba1 4ebd 4090 ab3d 242e 7f3d 7aa1 ce3c
00000170: 4923 d3bc b6b1 f2bc 9657 b0bc 464a 463d
00000180: aad4 f4bc a850 933d ebc9 9e3d d124 19bd
00000190: af30 3a3b 0934 953d 754a 793d 8226 763b
000001a0: fb2b 4f3d 3a65 a33d 69e9 8cbd c6f1 123d
000001b0: 5bd0 293d 7914 6f39 e9bc 03bd 2719 6c3d
000001c0: 875e a73d ae34 d23d 7efb 53bd 721f cb3d
000001d0: ad0d a23c 4970 873d 86f3 473d 41df d0bc
000001e0: 395c 5dbd f29c c6bc 49f3 c33d 6cf6 443d
000001f0: ed80 b93d e4f9 9fbc 555d cb3d a391 a43d
00000200: 9ae4 09bd 8115 a13c 4e19 10bd 83ce d0bc
00000210: 18ac 313d c94f 153c 08f0 26bd 2001 cdbb
00000220: b613 903d 0e93 33bd c61a 8dbd 2b6c 8dbd
00000230: c65e 913d 1d07 913d 008a debc b09d debc
00000240: ee21 1c3b 8768 833b 81b2 f73c dd46 873d
00000250: 7abd 0b3d 1bbc e83b caec ce3d 93e6 923d
00000260: 24db 25bc 1ce4 e93c 6316 3a3d 822a 513d
00000270: 7965 8b3c ea1b cabc 8476 0ebd ae48 803d
00000280: 58fa 9c3d 2b19 b93c 41dd 35bd d50a 30ba
00000290: 4635 4a3d b814 883d 9bd7 2ebd 0912 c63d
000002a0: b401 c13d 57f3 2c3d f995 9b3d 9c92 ae3c
000002b0: d111 e43d ccd4 2d3d a1f3 0dbd d6c0 82bc
000002c0: 7bdc b8bc b543 4b3b c4dc ebbc 5c39 b23d
000002d0: 9b2b 6bbc 5203 a73c ef9b 8539 80f8 5c3c
000002e0: 01d1 ca3d 9cf2 dbbb 00ce 21bd 3ba7 2ebd
000002f0: 430b 3e3d b85a b6bc 923a e13c 8953 423d
00000300: 65fc a9bc 93f9 e33d 9d57 10bd 1a38 3cbd
00000310: 0eb2 3a3d 1419 193c ec87 e33d 1584 a8bc
00000320: 8aca 5dbb 676e a4bc 978a 2b3d 4073 02bd
00000330: b4c3 07bd 3f9f fd3c f95b 4f3d af42 24bd
00000340: 464b 803c 5b47 53bc f67b 373c 1f00 cf3c
00000350: cabe 5d3d 685a 993c 3726 c03d 604e c03d
00000360: ce7d 063d 1af4 103d 23e8 5f3d 1d70 dd3d
00000370: e3dd b8bc ef5b cb3d 2c11 903d c122 9c3c
00000380: b785 b5bc 1dfa b83d a3d6 e13a a843 f13d
00000390: ed79 afbc c0d2 aa3d d145 923d 47ef 89bb
000003a0: 28ed 7cbc d4cf b03c 32c2 8e3d 2e70 6cbd
000003b0: 79d5 2cbd 19b9 8c3d dc3b 63bd 26db 8e3c
000003c0: 87a3 bc3d 2f96 a93d f9c8 8b3d f68c 173d
000003d0: 5473 dcbc 07b0 ca3c 4bf1 f83c 6759 19bd
000003e0: 9e3c a03d 435d c53d e9e1 483b 1101 c2bc
000003f0: 832f 09bd 652b b0ba 64be c9bc e96c de3d
-0.018147172 -0.026520018 0.046113208 0.08644184 0.06896169 0.056359224 0.05604343 0.07761406
-0.033428382 -0.057203893 -0.009297391 0.008445045 0.0112618 -0.02369821 0.09624682 0.041503016
0.0023357302 0.014255958 -0.04213351 -0.07215962 0.07707982 0.08544608 0.022486819 0.04130513
0.08200083 0.025814662 -0.054621287 -0.04944138 -0.043846607 0.053442996 0.10027613 0.0352725
-0.05163701 0.0018487234 -0.011552359 -0.0011119046 0.05201864 0.0017722464 0.072618455 -0.011744475
0.07415249 0.07281743 0.032127757 -0.004421815 0.05114939 0.08433676 0.034439754 -0.038493175
0.0053290157 -0.03316659 0.07042865 0.00029598028 -0.063546956 0.08136688 0.091463506 -0.043159295
0.062099952 0.014105665 0.03724079 0.101781934 -0.018038813 -0.026640516 0.10012379 0.042986374
0.025704162 -0.013803528 -0.054197617 0.020220088 0.07135262 0.035461575 0.02122323 0.046169322
-0.0008157099 0.018409368 0.104308 0.0010390113 0.08184419 0.092499524 0.07242683 0.07501468
0.095098495 0.08530585 -0.024352191 0.089251995 -0.0007968156 -0.05092046 0.027723666 0.013497757
-0.05044691 0.08377123 0.062299863 0.025223482 -0.025773661 -0.029625755 -0.02152614 0.048410676
-0.029886562 0.07193118 0.077533565 -0.037388626 0.0028410365 0.072853155 0.060862023 0.0037559574
0.050579052 0.07978292 -0.06880457 0.035875104 0.04145847 0.00022800443 -0.03216258 0.057641175
0.081723265 0.10263954 -0.051753514 0.09918107 0.019781912 0.066132136 0.048816226 -0.02549708
-0.05404303 -0.02424476 0.09567887 0.04808657 0.09057794 -0.019528337 0.09929911 0.080355905
-0.033665277 0.019663574 -0.035180382 -0.025489097 0.043377012 0.009113261 -0.040756255 -0.0062562376
0.070350096 -0.043841414 -0.06889872 -0.06905397 0.07098155 0.07081435 -0.027165413 -0.0271748
0.0023823935 0.0040102634 0.030236484 0.06605313 0.034116246 0.007102502 0.10103758 0.07172885
-0.010123048 0.028551154 0.045431506 0.05106593 0.01701616 -0.024671514 -0.034780994 0.062638626
0.07664937 0.022595009 -0.044400457 -0.0006715481 0.04936721 0.06644577 -0.042686086 0.09671409
0.09424153 0.042224254 0.075969644 0.021310143 0.11136211 0.042439267 -0.03465617 -0.015961092
-0.02256607 0.0031015698 -0.028791793 0.08702347 -0.014353658 0.020387325 0.00025483916 0.013486981
0.099031456 -0.006712271 -0.039503098 -0.042639952 0.04639746 -0.022260055 0.027493749 0.047442947
-0.020750234 0.11131587 -0.035239805 -0.04595194 0.045579962 0.009344358 0.111099094 -0.020570794
-0.0033842647 -0.020072175 0.041880216 -0.031848192 -0.03314562 0.030959724 0.05062482 -0.040102657
0.015660893 -0.01289543 0.011198988 0.025268612 0.05413703 0.018719867 0.09382289 0.09389949
0.03283482 0.035389043 0.054664742 0.108123995 -0.022566741 0.09929644 0.07034525 0.01905954
-0.022158487 0.0903208 0.0017230104 0.117804825 -0.021420443 0.083409786 0.07142223 -0.0042094323
-0.015437402 0.021583475 0.069706336 -0.05772417 -0.04219577 0.06871242 -0.05547701 0.017438482
0.09210878 0.08280598 0.06825442 0.036999665 -0.026910461 0.02474214 0.030388495 -0.037438776
0.07824062 0.09636929 0.003065223 -0.02368215 -0.033492576 -0.0013440667 -0.024626918 0.10860617

fc1.bias f4 [128]
00000000: 2e7a 2b3d 6ede 25bc c3ce 6a3d 63c3 433d
00000010: 8588 d43d a0df 2cba 9700 9d3d f2dc 20bc
00000020: db08 853d bb4e 643d f7d3 5a3d 93a5 bfbc
00000030: 9db5 f4bc d2d5 af3b d860 a1bc a085 b1bc
00000040: a740 3cbc ad57 bc3d a02f 4c3d 6f71 84bc
00000050: 7961 0b3c 7605 333d 7432 f13d 8462 18bc
00000060: c7d5 3a3d c142 c93d 0d2c 493d 36ed f23d
00000070: 5e84 6dbc 4bda b23b 2fa2 1cbc 8c4d c63c
00000080: 8569 5f3c f793 d8bc 627e 6dbc c133 c03d
00000090: a25c 863d d41f 0abd 4bf5 63bc 13f0 17bd
000000a0: ea11 173d b7a4 f7bc 6977 f43d adea fd3b
000000b0: 6398 6e3d d663 ce3c 5a42 533d 9054 b53d
000000c0: fbd8 163d 7610 5d3d 49d6 cdbc 5ed4 f3bc
000000d0: 2f5f a93c c085 9e3d b4b4 403d 321d bf3c
000000e0: bdbe 413d 7a38 eb3d 8e80 a13d 5835 dd3c
000000f0: 7180 bf3d f093 cf3c 61e0 cebc 3ed2 91bb
00000100: 20c1 43bd b5d1 f03c 0e30 83bd c39b 1abd
00000110: 6044 a43d 1e29 e23c 6623 afbc 7d40 18bd
00000120: f2d6 973d 185f be3d d8f7 2c3d 1db3 10bd
00000130: 2c40 2a3d 21f3 893d 6482 f23c 1705 20bd
00000140: d4ad eebb 5fa7 a53d 1f73 373d ae11 053d
00000150: 9741 c93d eb76 48bd ea72 d73c 2099 843d
00000160: 9eb9 0b3d 6d3e 9b3d 37de cc3a 52ea 43bd
00000170: a2be 183d add6 5a3d 5c21 df3d f9ea ba3d
00000180: 20c2 bfbb 483c 9e3c 8e7f b33d f027 183d
00000190: 0917 c2ba 046d 813d 64cb cf3d 63f4 b43d
000001a0: 5a2f 523d 5c01 d9bb 9e0f d23d a39f c33d
000001b0: 0623 6d3d 6617 b73c 520b 9e3c 2bc8 9a3d
000001c0: ae4e 95bb 9399 3b3d b91a 0c3c 6851 35bc
000001d0: 08ec 8e3d 1f28 6b3d c2b2 c23c 00c4 393d
000001e0: c818 a03d 7314 c93d d059 653d 90eb b03d
000001f0: 6298 5b3d abae a73c 734c bd3d 6794 43bc
0.041864567 -0.010123832 0.05732609 0.047793757 0.103776015 -0.0006594602 0.07666128 -0.0098183025
0.0649583 0.055739146 0.0534248 -0.023394382 -0.029871756 0.0053660655 -0.019699499 -0.021670163
-0.011490024 0.0919641 0.049850106 -0.01616737 0.008507126 0.04370638 0.11777201 -0.009300832
0.04561403 0.098271854 0.049114276 0.11861651 -0.014496891 0.0054581515 -0.009560152 0.0242069
0.013635998 -0.026437743 -0.014495464 0.09384871 0.06560637 -0.03372176 -0.013913463 -0.037094187
0.03688232 -0.03022991 0.11936838 0.007748923 0.058250796 0.02519409 0.05157695 0.0885402
0.036828022 0.053970776 -0.025126593 -0.02976435 0.02067527 0.077403545 0.047047332 0.023329351
0.047301043 0.114853814 0.07885848 0.027002975 0.0935067 0.025339097 -0.025253477 -0.0044501116
-0.0477916 0.029396871 -0.0640565 -0.037746202 0.08020854 0.027607497 -0.021379184 -0.037170876
0.074140444 0.092954814 0.04222855 -0.035327066 0.041565105 0.06735826 0.02960319 -0.039067354
-0.0072839055 0.08088564 0.044787522 0.032487564 0.098269634 -0.048941534 0.026299912 0.06474519
0.034112565 0.07580266 0.001563019 -0.047830887 0.037291177 0.053427387 0.10895035 0.09126849
-0.005851999 0.019315854 0.087645635 0.037147462 -0.001480789 0.06319621 0.101462156 0.088356756
0.05131469 -0.0066224765 0.10256885 0.09551933 0.05789473 0.022350024 0.019292507 0.0755771
-0.0045564985 0.045800757 0.008551293 -0.011066772 0.06978613 0.05741131 0.023766879 0.045352936
0.07817227 0.098183535 0.055993855 0.0863868 0.05361212 0.02046903 0.09243097 -0.011937237

fc2.weight f4 [128, 128]
00000000: 6221 523d 3823 e3bc a60c a8bd 3a83 ccbc
00000010: 925d 343d 4fa4 a9bc f24e 953c eecb ba3c
00000020: d750 1f3d 4314 6d3c 4065 a2bc f862 b53c
00000030: 7c3b 063c 3045 c7bd 5fbe 4fbd 907b 91bd
00000040: ceb0 74bd 5351 d0bd 2061 6a3d ba3d 633d
00000050: 0af9 533b b0d0 513d b719 823d b095 483d
00000060: 2f65 80bc 07a0 b2bd 88dd 52bd 0a72 c2bd
00000070: 72b9 c4bc 398b adbc d84a 893d dbca bdbd
00000080: 7e64 6e3d 2865 10bd 2263 a4bd 620f 203d
00000090: 6449 bbbc aa94 76bd 17ce 35bd 6656 c5bd
000000a0: b3a4 3a3c 9489 0e3d 13d8 48bd 3b85 9cbd
000000b0: c285 52bd 8843 7a3d ab00 b0bd 5a56 6c3d
000000c0: 6b6a 16bb c39d a0bc ed45 06bd b99e 503d
000000d0: d9dd 973b 762b ccbd be43 9bbd 85de a4bc
000000e0: 32a3 5a3c 698c 913d 8305 ecbc 4685 a8bd
000000f0: bbc3 913d 058d 8a3d e6e5 c0bc e44f 43bd
00000100: 4b64 96bd dfc4 453d deb3 91bb 5c20 c8bd
00000110: 7178 a3bd 531e 8e3d 7390 4cbd a3b2 1fbd
00000120: 5b59 003c 4b99 debc eca8 de3b 067e 753d
00000130: 35c7 8ebd 2ac5 8f3d 967d 52bc a8ef 2ebd
00000140: 66c0 c3bd 724c 2abc a683 d2bd d634 40bc
00000150: f41b 343d a3a0 193c 23fe 0ebc 52bb 603c
00000160: 648f 3dbc ccb4 c33a 4e4c 22bc 4377 15bd
00000170: 527b 4ebc eb19 60bb cca4 9e3b 8186 383d
00000180: 5c08 1c3d 57b4 78bd c697 5abd 8c5f 22bd
00000190: c976 65bd eb85 263d bf4c b5bd 442d 433d
000001a0: 7bdf f23c 54bc 903d ee39 453d 4ef9 aebd
000001b0: 5266 c8bb fd10 703d 69be cdbd c05a 73bd
000001c0: 6941 2a3d e846 923d ce0e 573d f6cc 8bbd
000001d0: 7d32 5bbd b47f 0dbd f9bc d3bd b9ab 49bd
000001e0: 5f00 863c a694 1cbc 66f4 cebd d798 0d3b
000001f0: deac 1ebd 026f 573c 74a1 5dbd 1090 7cbd
00000200: ff7f 013d a45f 04bd 7fcf a63c 9ff7 7bbd
00000210: 5c62 b5bc 2003 8cbd bd05 5bbd 7936 1a3d
00000220: 744b 303d e289 9fbd ca63 be3b b4eb 093d
00000230: 6c0b 4b3d 5fa9 80bd f8de 46bd 9f1a 82bd
00000240: 4d1d 3f3d a8cb 69bd b227 a3bd f177 133d
00000250: 83e3 2a3d 2e49 523d 3a0a 51bc c6f2 6b3d
00000260: 528b 6abd 6944 0ebd cdf7 55bd 0b93 8b3d
00000270: 4df0 9e3d 2984 17bd d506 59bb ea80 afbb
00000280: 379b 863c c1ae 25bc 3f5a 873d 8e16 80bc
00000290: fac6 a0bb dc35 edbc 1c42 c13c 241b 90bc
000002a0: 72e4 75bd b493 adbd 1c3e 943d b70b b2bc
000002b0: 0c99 913d bf08 0bbd 30bb 8c3d b17b 3b3d
000002c0: 0bbe 83bd 9821 723d 0505 d9bc 018e 02bd
000002d0: d5b6 373c 4e94 34bd f2c8 85bc 35bc 3bbd
000002e0: 6fbc a5bc 50d5 783d b997 87bc cd02 e23c
000002f0: 928e a13d 46ef 34bd 0456 4bbc ef3f dd3c
00000300: 4436 8fbd a97c c03c 3d12 293d 95e8 bf3c
00000310: ffff 613d d96f 54bd fd2a 5d3c 496f 59bd
00000320: 04ad 953c d4c5 a53d 7f34 08bc 4cad 1dbd
00000330: dea0 2fbd 1b0e 06bd c43e 843d 3d58 d1bc
00000340: c2a0 12bd d67b a7bc 0e53 80bd c9f8 6bbd
00000350: 2c74 bc3b 1f1b 99bd 6062 a1bd 74e5 4b3d
00000360: 9829 9b3d dfdd 05bd 66d9 19bd 556d d03c
00000370: 8d50 093c b8ab 733d 1d5d a23d 8f1e 2cbd
00000380: 9b80 b53b 2c59 74bd 1321 a7bd 1e64 333d
00000390: 1755 78bd 89a4 9cbd ce0e 6b3d ac0d ac3b
000003a0: a266 3fbd 91ba 913d e160 9dbd a1b9 a9bd
000003b0: 9c54 bcbd dd1b b9bc 652f e7bb 4736 c8bc
000003c0: 665d a93b 508c 16bc fc22 bb3c 4e5d 83bd
000003d0: f4a1 6fbc d848 6abd 13d4 383d 331d 113d
000003e0: 7270 bcbc d54d d4bc e01d 80bc fb3d 613d
000003f0: 69f1 5dbd 9057 953d 605d 983d ac2d 6c3d
0.051301368 -0.027726755 -0.082055375 -0.024964917 0.044034548 -0.020708231 0.01822612 0.02280232
0.038895454 0.014470163 -0.01982367 0.022141919 0.008192893 -0.09729993 -0.05071866 -0.07103646
-0.059738927 -0.10171761 0.057221532 0.05547879 0.0032344484 0.05122441 0.06352561 0.048970878
-0.015673248 -0.08721929 -0.0514808 -0.094944075 -0.024014208 -0.02118455 0.067037284 -0.09267207
0.058201306 -0.03525272 -0.080267206 0.03907717 -0.022862144 -0.06020037 -0.044385996 -0.0963562
0.011391806 0.034799173 -0.04903419 -0.07642599 -0.051397093 0.06109956 -0.085938774 0.05769954
-0.0022951614 -0.019606477 -0.03278153 0.05093262 0.0046346006 -0.09969227 -0.0758128 -0.020125637
0.013344573 0.07106859 -0.028811222 -0.08228545 0.07117411 0.067651786 -0.023547124 -0.04768361
-0.07343348 0.048283454 -0.0044464907 -0.09771797 -0.07981957 0.06939378 -0.049942445 -0.03898872
0.007833804 -0.027172705 0.0067950394 0.05993464 -0.069715895 0.07020028 -0.012847325 -0.042709023
-0.095581815 -0.010394203 -0.10279016 -0.011731347 0.04397197 0.009376678 -0.008727583 0.013716536
-0.0115698315 0.0014931201 -0.009905888 -0.03649069 -0.012602644 -0.0034195136 0.0048414227 0.045050148
0.03809391 -0.06071886 -0.0533674 -0.0396419 -0.056021485 0.040655058 -0.08852529 0.04765059
0.02964758 0.07067171 0.04815095 -0.08543645 -0.006115713 0.05860995 -0.100460835 -0.059412718
0.041566286 0.071424305 0.052504353 -0.068262026 -0.053514946 -0.034545615 -0.10338778 -0.049236033
0.016357599 -0.009556925 -0.10105209 0.0021605992 -0.038739078 0.013149025 -0.05410905 -0.061660826
0.031616207 -0.032317773 0.020362614 -0.061515447 -0.022141628 -0.068365335 -0.05347227 0.037649605
0.043040708 -0.07789971 0.0058102356 0.03367205 0.04957144 -0.06282305 -0.048552483 -0.06352734
0.046658803 -0.057078987 -0.07966556 0.036003057 0.04172088 0.05133932 -0.012758786 0.057604574
-0.057261772 -0.03473321 -0.052238274 0.068151556 0.077606775 -0.036991272 -0.0033115644 -0.005355944
0.016431434 -0.010112465 0.0660901 -0.015635755 -0.0049065324 -0.028956346 0.023591094 -0.017591067
-0.060032316 -0.08475438 0.07238409 -0.021734102 0.071092695 -0.033943888 0.06871641 0.04577226
-0.06432732 0.05911407 -0.026491651 -0.031873707 0.011213024 -0.044086747 -0.01633117 -0.045833785
-0.020231454 0.060750306 -0.01655184 0.027589226 0.07888521 -0.0441735 -0.012410644 0.027008025
-0.06992772 0.023496943 0.04127716 0.023426333 0.055175778 -0.05186448 0.013499019 -0.053084645
0.018270977 0.08094373 -0.008313297 -0.038495347 -0.042878024 -0.032728296 0.06457284 -0.02555477
-0.03579784 -0.020444792 -0.062658414 -0.057610307 0.0057511535 -0.07475876 -0.07880092 0.04977937
0.07576293 -0.032682296 -0.037560843 0.025442759 0.008381021 0.059489936 0.07927916 -0.04202133
0.0055390126 -0.059655353 -0.08160605 0.04379665 -0.060628023 -0.0764857 0.057387166 0.0052506533
-0.046728738 0.07115663 -0.07684494 -0.08287359 -0.091958255 -0.022596294 -0.0070552104 -0.024439944
0.0051686047 -0.009188727 0.02284383 -0.06414281 -0.014626015 -0.057198375 0.045124125 0.035428237
-0.023002837 -0.02591602 -0.015639246 0.05499075 -0.054185305 0.07292092 0.07439685 0.057660744

fc2.bias f4 [128]
00000000: bade 0a3d 7313 50bd b2ab 243b ff08 7b3d
00000010: a3e5 a1bd 0589 943d 8a09 e6bb dcc6 07bd
00000020: e1ab 923d f3a1 923d 72ed d83d 9a84 723d
00000030: 2ed6 86bd 245c 0b3d 75fa f93b eab6 a23c
00000040: cafb 3f3d 1b4c 8b3d 60af fdbb 6270 25bb
00000050: 8654 8cbd 64ca 6e3d 2676 06bd b5c2 0cbd
00000060: 12a7 8f3d 23f5 01bd 3c57 343d 28da 55bb
00000070: e95f edbc a0fb bb3c 5540 43bd a278 0b3d
00000080: 4bbf b93c e2f4 d83d 7802 b3bd 8a88 853d
00000090: 5779 e23d aa76 313d 901d 0d3d d1cc f3bc
000000a0: f876 80bd 3a6d aabd cb1a b6bd 12f6 2dbd
000000b0: 81b3 653d 1adc 2abd 4105 8c3b 94b4 fe3c
000000c0: 07b2 a53d e174 59bd 9dea 0b3b af9a 0d3d
000000d0: 7794 a93a 87ec e8bc 574e 3bbd 8b1f 543d
000000e0: fc84 743d f866 2ebd 8551 95ba 3979 47bd
000000f0: 8ba4 a1bd 99e3 0a3a 0e52 0dbd efb2 833d
00000100: 5a02 d2bc 3bf0 55bd d711 aabd b6b1 4d3d
00000110: 6c88 713d 2366 863d 5e1b 13bc 937d 7c3d
00000120: f228 df3d fba3 033b 9764 0abd 3f84 a0bc
00000130: 9703 cbbc dc47 5d3d e0e3 a73c 1e6c 2f3d
00000140: df18 46bd 6823 303d e1ae e73d 671a be3d
00000150: 5382 c23d 7abc 123d fd24 bf3c 3974 00bc
00000160: 1016 86bb 494c ad3d c477 cf3d 5385 d0bc
00000170: 985b a83d 417e 4bbd 60fa 0ebd 6ab4 a53c
00000180: e786 92bd 5472 543a 7310 1ebd f0c0 a0bd
00000190: c1b5 8e3d 7f23 8dbd 8280 cd3d 529d 563d
000001a0: 3e94 ffbc 52d4 f23d a8b8 0bbd 3e36 22bc
000001b0: ce5b a33d fd8e 4e3a e5ec a83d c9ce 82bc
000001c0: ab34 8f3d b8ad f8bc 0bfb be3d 06cd 54bd
000001d0: f188 3d3d b7aa 083d 0065 ec3d fe46 72bc
000001e0: 35c1 453d c3d7 b03d 3757 e0bc b179 56bc
000001f0: e194 943d ea39 71bd bee3 ed3d 6ea9 feba
0.033903815 -0.0507998 0.0025126752 0.061287876 -0.07905128 0.07252697 -0.00702018 -0.03314863
0.071616895 0.071597956 0.10592164 0.05920849 -0.0658382 0.03402342 0.0076287338 0.01986261
0.046870984 0.06801625 -0.0077418536 -0.0025243987 -0.06852059 0.058298483 -0.03282752 -0.034365375
0.07014288 -0.03172792 0.044028506 -0.0032631252 -0.028976398 0.022947133 -0.047668774 0.03405059
0.022674223 0.10593583 -0.08740705 0.065201834 0.110583 0.043326057 0.03445202 -0.02976075
-0.062726915 -0.083216146 -0.08891829 -0.042471 0.05607939 -0.04171381 0.0042730873 0.031091966
0.08090597 -0.05308998 0.0021349557 0.034571346 0.0012937923 -0.028433098 -0.045729008 0.051787894
0.059697136 -0.042578667 -0.0011392093 -0.04869959 -0.07892712 0.0005298197 -0.03450208 0.06430613
-0.025635887 -0.052231055 -0.08304184 0.050218306 0.058967993 0.0656245 -0.008978693 0.061643194
0.108964816 0.0020086754 -0.033787336 -0.01959431 -0.024781985 0.05402361 0.020494401 0.042827718
-0.048363563 0.043002516 0.113126524 0.092823796 0.094975136 0.035824277 0.023333067 -0.00784021
-0.0040919855 0.08461816 0.10130265 -0.025454199 0.08220595 -0.049680952 -0.034906745 0.02022763
-0.07154637 0.00081041944 -0.038589906 -0.078493 0.069682606 -0.06891536 0.100342765 0.052396126
-0.031198617 0.11856903 -0.03411165 -0.009900628 0.07976495 0.0007879583 0.08248309 -0.015967743
0.069924675 -0.030356273 0.093252264 -0.051953338 0.046273176 0.03336593 0.11542702 -0.014787434
0.04827996 0.08634903 -0.027385337 -0.013090537 0.07254959 -0.05889312 0.11615704 -0.0019429156

fc3.weight f4 [5, 128]
00000000: 8e2d 643d 0890 b1bb c5ac d9bd 5d8a a3bd
00000010: 913c 0fbd 3ec4 febc b7b8 69bd ca92 18bd
00000020: 88b0 103d de0d d0bd f91a 8abc af1f 2a3d
00000030: 9274 a33d b6ff 823c 77a4 f0bd c386 03bd
00000040: d91a c2bd 5ca2 1d3d 160f 963d 2f26 1b3d
00000050: c477 503d f756 9d3c e096 bcbd a9dc c3bd
00000060: ff64 e2bd 1eeb 83bc 8398 db3b dd4f debd
00000070: 65ae 08be 30ea 773d 31c5 04be cdf7 f4bd
00000080: a638 653c b090 c4bd 09d3 be3c 74e0 a93c
00000090: 7da1 4c3d 0422 053d 3a9e 79bc 5756 a4bd
000000a0: da36 de3c cec8 2dbd e5e5 983d 9860 b7bc
000000b0: b892 98bc 9646 22bd 8c23 8f3d 217a 093c
000000c0: 4a3e 213d 9994 4f3b d58e 03be c6d8 98bd
000000d0: dc2d 2abd 1093 01be 87b0 03be f667 89bd
000000e0: de2b 8a3c 6b1b 79bc 7ef8 963d e37f a2bd
000000f0: 1e51 863d 6f06 8c3d e62d 85bd 1646 33bc
00000100: eeec 7bbd 20b3 a8bd dca9 233d 89a3 053d
00000110: a1be 823d 17aa 853c c946 a9bd 6fb8 e03c
00000120: ff20 c0bd f4b5 62bd 1393 ccbd 2ad3 c8bd
00000130: 309a a23d 8f7e 01bd 4bb0 343a c804 0c3d
00000140: 5434 3b3d 9556 1a3d 4843 573d 9e1e 7b3c
00000150: 0ed2 593c 087b 55bd 9933 403c 81a4 1ebc
00000160: bc43 93bd c1f5 7abb 0f88 33bd 5ea4 22bd
00000170: 1a51 c3bb ecb7 f6bd 2994 273d fa47 043d
00000180: ec02 a83d 193e f2bd 8417 043d b98e 56bd
00000190: 6e31 8a3c 56cd 37bc b83e 52bd 50d6 aabd
000001a0: dcc4 fbbd bc04 1abc 143d 193d 1b3f 8a3c
000001b0: 0410 3fbc 3f86 8e3c 342e 3dbd eb81 313d
000001c0: ff92 e3bd 517a 3e3d 2bb5 553d 8fe2 cfbd
000001d0: 8e5b aab7 8d0c 4bbd 9625 57bd d21d 203d
000001e0: a6af e73c 90e7 ac3c 5759 44ba 7b9f bdbd
000001f0: 347a 2e3d 70ff 593d e8fa 2cbd b5d8 dfbd
00000200: ba18 88bd 95c8 32bd b61f 8b3d 43a5 a13d
00000210: 09a2 01bd 8b0d be3d f6e0 493c 9e63 b4bc
00000220: bd95 f83c 0f42 e53c e3b6 c03d 83bc 79bd
00000230: f8d0 8ebc 23ef cbbc a8d3 bd3d 31e4 02bd
00000240: da3f 8abc 703f 77bc 925c 94bd efc4 f03c
00000250: 7aa1 5a3b fbf2 703d e04d f9bc bc49 303d
00000260: 4a5f 093d 6c14 84bd 9ec8 b63c 0bea 1d3d
00000270: 9d0d 893d 863a 75bd 4e52 833d 13b3 ad3d
00000280: fed3 2bbd 546e 2a3d 8b8c 68bc 4460 f53c
00000290: 97e4 f73d 3622 e63d 0133 5ebd d7fe 363b
000002a0: e8d4 39bd fe25 383d 659a 133c 03b4 ea3c
000002b0: f723 61bd ce6e 36bc 5a97 be3d 493e f43d
000002c0: 25f9 b03d acb2 3fbd c08b 23bd f751 bf3d
000002d0: 55ca 963d a104 9bbc 0606 ec3d 73aa 5ebd
000002e0: 951a 773d 8b6c 1e3d c1f6 703d 2430 9fbd
000002f0: 6d1d 56bc 69c4 61bd f52b b13d b367 f03d
00000300: 5487 91bd bef9 9bbd ec08 993c ecf4 46bc
00000310: f96b 4ebd 7838 1bbb 79b2 723d 8739 b03d
00000320: 23ea e53d 75de 763d c541 43bc 3a67 6a3d
00000330: f856 023c a86f bc3c bdb5 87bd 6a87 ed3d
00000340: 426c 42bd 37a7 bc3c 8420 b03d 1ec0 1d3d
00000350: a365 493d 6fe6 91ba 0a00 cb3b e974 9fbd
00000360: 799d fb3d 3e35 e73d 0b3c 21bc 5572 e43d
00000370: ff27 513c b398 cdbc 3925 1bbd c77f a1bd
00000380: 0361 5d3d 613b a6bc 7ed4 003d da33 8cbd
00000390: bb2f bdbc 8f3e 143d 52d5 9c3d db5d 83ba
000003a0: 2cde 0ebb fa81 af3d dfeb 70bd 545e fc3d
000003b0: 724c ff3d c1e1 3c3d d342 3f3d f62a 06bb
000003c0: d9d4 f93d 1b2b c639 f085 1b3d f932 923c
000003d0: 343b 623d 932b c03d 6218 e63c e170 f9bb
000003e0: 348b e3bc 0362 903d 6bcd 893d 7676 cf3c
000003f0: ca2c b4bc d4a9 393c 3a5e a1bc a8e1 273d
0.055707507 -0.005418781 -0.10628656 -0.07985375 -0.03496987 -0.031099435 -0.057060923 -0.037249364
0.035324603 -0.10158895 -0.016858565 0.041534122 0.079812184 0.015991073 -0.11750119 -0.03211094
-0.09477777 0.038484916 0.07327096 0.03787821 0.050895467 0.019206507 -0.092084646 -0.09563572
-0.1105442 -0.016103324 0.0067015304 -0.108550765 -0.13347776 0.060526073 -0.12965848 -0.11961327
0.013990557 -0.095979095 0.023293989 0.02073691 0.049958695 0.032503143 -0.015235478 -0.080242805
0.027125765 -0.04242783 0.07465724 -0.022384927 -0.018624648 -0.039618097 0.06989202 0.008390934
0.039366044 0.0031674264 -0.12847455 -0.07463221 -0.04154764 -0.12653756 -0.12860309 -0.06709282
0.01686662 -0.015204291 0.07371615 -0.07934549 0.065584406 0.068371646 -0.06502895 -0.010942003
-0.06150525 -0.082372904 0.039956912 0.032626662 0.06384016 0.016316457 -0.08265454 0.027431695
-0.093812935 -0.055349305 -0.0998899 -0.09805901 0.07939565 -0.031614836 0.0006892725 0.034184247
0.0457042 0.037680227 0.0525544 0.015327124 0.01329471 -0.052119285 0.011731052 -0.0096827755
-0.07190654 -0.0038293453 -0.043830927 -0.039707534 -0.005960596 -0.12046799 0.04091278 0.032295205
0.08203682 -0.118282504 0.03224899 -0.052382205 0.016869273 -0.0112183895 -0.051329345 -0.08341658
-0.12293407 -0.009400543 0.037411764 0.016875794 -0.011661533 0.017397998 -0.04618664 0.04333679
-0.11112022 0.04650337 0.05217473 -0.101506345 -2.0308213e-05 -0.049572516 -0.05252608 0.03909094
0.028281998 0.021106511 -0.00074901193 -0.09258934 0.04259701 0.05322212 -0.04223147 -0.109300055
-0.06645341 -0.04364832 0.06793158 0.07892849 -0.03164867 0.09279927 0.012321701 -0.022020157
0.030344838 0.0279856 0.09409883 -0.060970794 -0.017433628 -0.024894303 0.09268886 -0.0319559
-0.01687615 -0.015090808 -0.07244219 0.02939078 0.0033360408 0.058825474 -0.030432642 0.04303907
0.03353814 -0.06449208 0.022312459 0.03855328 0.0669205 -0.059870265 0.06412183 0.08481421
-0.04195022 0.041609123 -0.014193664 0.02995313 0.12104147 0.11236994 -0.05424786 0.0027922892
-0.04536906 0.044958107 0.0090089785 0.02865029 -0.05496594 -0.011134816 0.09306212 0.119259425
0.086412705 -0.046801254 -0.039928198 0.093418054 0.073628105 -0.018923106 0.115245864 -0.05436177
0.060328085 0.038677733 0.058829073 -0.07772854 -0.013068539 -0.055118952 0.08650962 0.11738529
-0.0710589 -0.07615994 0.018681012 -0.012143355 -0.05039594 -0.002368478 0.059252236 0.086047225
0.11226299 0.060270745 -0.011917536 0.05722735 0.007955305 0.02300246 -0.06626461 0.11598094
-0.047466524 0.023028953 0.08599952 0.038513295 0.049169194 -0.0011131297 0.006195073 -0.07785971
0.12285895 0.11289452 -0.0098409755 0.111546196 0.0127658835 -0.025097227 -0.037877295 -0.078857
0.054047596 -0.020291986 0.03145265 -0.068458274 -0.023094049 0.036192473 0.07657875 -0.0010022478
-0.0021799905 0.08569713 -0.058818694 0.12322679 0.12465753 0.046113733 0.046694588 -0.0020472384
0.121988006 0.0003779762 0.03796953 0.017846571 0.05523224 0.09383311 0.028087799 -0.007612333
-0.027776338 0.07049944 0.067286335 0.025325041 -0.021994013 0.011331994 -0.019698251 0.040986687

fc3.bias f4 [5]
00000000: 7f51 3abd d733 c03d 2f66 093d 410a 773d
00000010: 62e6 f5bc
-0.045487877 0.09384888 0.033544715 0.060312513 -0.030017082

fc1.weight f4 [128, 147]
00000000: f732 4abd 1d16 4ebb afb0 d43c ac86 bf3d
00000010: 9630 5f3d 99af 9c3c 5c53 c8b9 a437 f4bc
00000020: 90e3 763d c572 8f3d f2a1 6cbc bb86 c5bc
00000030: c44f fb3c 4caa 6b3d aa5c 573d 6552 7dbd
00000040: 8250 3bbd 1641 8e3d 9c6d 9f3d 7f48 943d
00000050: f41c 13bd 8772 a33c 1089 8c3b 104c 383d
00000060: 70d6 e5bc 1993 3f3d 8d75 7d3d fbb2 8f3c
00000070: 31ff a73d d479 a33d b72e a13d 0161 0b3d
00000080: d885 c63d bc78 883c 80ba 1abd bb2e 8d3d
00000090: 752b 8abd be2f d5bc c31b 60bd 1b61 f6bc
000000a0: fa4c 12bd fbe9 2cbb da48 ba3d 0288 42bd
000000b0: 1e8d f4bc 9ddd 8b3d 43fe bb3d 67a7 19bc
000000c0: f5c1 8f3d 98f1 7abc 4e73 4d3a 43cc 3fbd
000000d0: b300 82bb d48b 30bc 4725 09bd 3e6d cc3d
000000e0: e3ae 7e3c 2516 af3d 0cbd 68bd 3379 87bc
000000f0: 3999 e43c 677d 833d dc85 323d 74c3 87bd
00000100: 2d4b 053c 721f aabc 2e1a bebc 42c5 b53d
00000110: c8d5 5abd a511 ce3d 248a 86bd e158 18bd
00000120: 2d19 ac3c 6e6b a2bb f233 dfbc 191a 99bc
00000130: 068b ca3b 3731 7c3d de1b 873d f914 ee3c
00000140: 34d8 a93d e64d d4bc 9341 6dbd 6e64 a73d
00000150: 1e69 8f3c e79d c1bc e1d4 d03c 3c65 b03d
00000160: 6b2e 763d 9853 983d cf84 86bc d01c 65bd
00000170: c7a2 02bd 7e6d b53d 3c1e 43bd fc89 51bd
00000180: 5ef9 87bd 4122 3a3d 689c 2ebd de62 653c
00000190: 8741 be3d 40e6 6c3c 4f27 c6bc ca6a 5d3d
000001a0: a9df cf3d a3e8 063d 2c1c 0ebd 7c91 833c
000001b0: 9031 4abd 68e5 0bbd fece 893c 9e70 57bb
000001c0: 887f 243d 480e b6bc 60f7 90bd 8ae7 6fbd
000001d0: 1250 2b3d 2b3f 89bd db24 673d 8ee0 a1bc
000001e0: cfd9 573d 206a 5c3d cc6e fd3b 3e3f 3cbd
000001f0: fc39 d1bc e43e 0dbd 3aa8 253c be37 7f3d
00000200: f6ba f73c d047 18bc 042d c53d 41ea c73d
00000210: f6cf 4abb 32c9 f03c 92c4 24bd f703 e7bc
00000220: dae1 28bd cdb8 433c 6a94 953d 6330 06bd
00000230: 3ac5 e9bb 6f14 303c b0ac b83d e2dc df3c
00000240: 65aa 3ebc 5cd5 38bd a764 893d a34a 98bb
00000250: c21a b93d f1fa e9bc 4e37 78bd cea4 183d
00000260: fb38 9abb 992e debc 29e6 a33c 4b1d 4ebc
00000270: 24ae 5bbd eb7d a43d a217 143c 5745 43bd
00000280: 3413 a73d 7236 d83d 653c c63d c350 e83c
00000290: f5c3 ca3d 3b22 56bc c5eb a63d 5188 cbbc
000002a0: c9fe 7c3c 9172 15bc beda 8c3d 957f c83d
000002b0: 0774 9c3c 4f55 f43d d88f 84bd 74cd c83c
000002c0: 0764 9d3c cc5d 34ba fc50 ad3b c27b 393c
000002d0: b407 223d 89d4 d13b 6316 0fbc e908 3b3d
000002e0: 8b08 513d 1963 ad39 cb7a cd3d cc67 1e3d
000002f0: 9343 b63d 134c f2bc 9178 9f3d 956c cc3d
00000300: 232c 913d a33d 0b3d 7a16 8c3c 552e 5bbc
00000310: e92f b73c 0bff 393d 4400 0e38 d201 c43d
00000320: 381a 363d e8a8 d73d 4a0a b93a 5068 a33d
00000330: dd20 44bc 2d9f 9e3c 348b f53c 32f0 ac3d
00000340: 6348 aabc e63d 3b3d b282 a33d c966 6b3d
00000350: cce8 313c 4f8c db3d ba2d d0bc e161 78bd
00000360: a1fc 4dbb 4e55 933c f386 693c 2edd bdbc
00000370: 25e5 dc3d 7e33 433d 270d d03b db1c 233d
00000380: b54f 993c 0784 333d 0ba2 b23d 5eda ed3d
00000390: c7f7 4ebc 71ef cb3d 2a3a e53d 95c8 93bc
000003a0: e2cb 3f3c 8ff1 6e3d 3fd2 723d f390 ff3b
000003b0: 52b9 f2bc 5aa0 d73d 8007 86bd 6d23 c43d
000003c0: 3279 da3d d320 82bc 3a90 b1bc a5c9 923d
000003d0: 51e4 c63d 80eb 5dbd 0dce 91bd 4bbf 3ebd
000003e0: d124 293d c95f 603d bf57 103d c81e 423d
000003f0: 979b bb3d 19e4 36bd bb15 323d 8b4a 95bd
-0.04936501 -0.0031446286 0.025963156 0.093518585 0.054489695 0.0191267 -0.0003820908 -0.029811688
0.060275614 0.070043124 -0.014442908 -0.024112096 0.030677684 0.057535455 0.052578606 -0.061846156
-0.045731075 0.06946008 0.07784578 0.0724039 -0.035916284 0.019952072 0.0042888 0.044994414
-0.028056353 0.046771143 0.061879683 0.0175414 0.08202971 0.07982221 0.07870238 0.034028057
0.096934974 0.016659133 -0.037775517 0.06893679 -0.0674657 -0.026023742 -0.054713976 -0.0300756
-0.03571794 -0.002638458 0.090959266 -0.04749299 -0.029852446 0.06829379 0.09179356 -0.009378291
0.07019416 -0.0153163895 0.0007837311 -0.04682566 -0.0039673685 -0.010775525 -0.033482816 0.09981774
0.015544626 0.085491456 -0.056820914 -0.016537284 0.027905094 0.06420403 0.04358469 -0.066290766
0.008135599 -0.020766947 -0.023205843 0.088755146 -0.053426534 0.10061959 -0.06569317 -0.037194137
0.021008098 -0.0049566543 -0.02724645 -0.018689202 0.0061811237 0.061570372 0.06597112 0.029062735
0.082931906 -0.025916051 -0.057923865 0.08173452 0.017506178 -0.023634864 0.025492134 0.08613059
0.06010286 0.07437819 -0.01642075 -0.05593568 -0.031893518 0.088587746 -0.047636256 -0.051156983
-0.0663936 0.045442823 -0.04262963 0.014000623 0.09289842 0.014459193 -0.024188666 0.05405692
0.10150082 0.032936703 -0.034694836 0.016060583 -0.049363673 -0.034154326 0.016822334 -0.0032873522
0.040160686 -0.022223607 -0.07078433 -0.058570422 0.041824408 -0.067015015 0.056431632 -0.019760396
0.052697953 0.053812146 0.0077341553 -0.04595875 -0.025540344 -0.034483805 0.010110909 0.06230902
0.030240517 -0.009294465 0.09627727 0.09761477 -0.0030946708 0.029392812 -0.040226527 -0.028200133
-0.041231014 0.011945915 0.07303698 -0.03276099 -0.007134107 0.010747059 0.090173125 0.027327005
-0.011637305 -0.04512535 0.06708651 -0.0046475693 0.09038307 -0.028562041 -0.060599618 0.037266545
-0.0047064996 -0.027121829 0.02000721 -0.012580226 -0.05363287 0.080318294 0.009038838 -0.04767355
0.081579596 0.105572596 0.09679488 0.028358823 0.09900657 -0.013069685 0.08150438 -0.024845274
0.015441605 -0.009121553 0.06877659 0.09789959 0.019098295 0.11930334 -0.064727485 0.02451203
0.019212736 -0.0006880432 0.005289195 0.01132101 0.039558128 0.00640351 -0.008733365 0.045662794
0.051033538 0.00033070965 0.100331865 0.038673207 0.088996075 -0.02957729 0.07786668 0.09981648
0.070884965 0.03399433 0.017100561 -0.013377746 0.022361713 0.045409244 3.3855686e-05 0.0957066
0.044458598 0.10530263 0.0014117446 0.079788804 -0.011970726 0.01936301 0.029973604 0.08444251
-0.02078647 0.045713328 0.079839125 0.05747107 0.010858726 0.10720121 -0.02541243 -0.06064022
-0.0031431096 0.017985012 0.014253366 -0.023176756 0.10785893 0.04765653 0.006349224 0.03982244
0.018714765 0.043827083 0.087223135 0.11613916 -0.012632317 0.09957779 0.111927345 -0.01803998
0.011706324 0.058335837 0.059282538 0.0077992617 -0.029629383 0.105286315 -0.06544399 0.095770694
0.106676474 -0.015884792 -0.021675218 0.07167367 0.09711517 -0.05417967 -0.07119379 -0.04656915
0.041294876 0.054778848 0.03523993 0.047392637 0.09160536 -0.044651125 0.043477755 -0.072896086

fc1.bias f4 [128]
00000000: 674c 6c3d f8de dc3a 1543 cc3d ed44 e03c
00000010: 2551 883d d029 8e3d cc6f f6bc 2a3d 27bd
00000020: 2a80 8b3c 1327 b83c 3d0b 2bbd c195 2e3c
00000030: 9f94 c03d 0664 513d 7ddf 303a 456a a83d
00000040: 901d 3c3b ef54 a43d a8a9 1bbd 15e1 cc3d
00000050: e810 f3bc e976 03bd 2258 cd3d 9585 9fbd
00000060: 2c53 2e3d ee5b 323d 098f e93c d121 f2bc
00000070: 52a0 ae3d f0e0 e83d 400c ac3c 9fd0 8bbc
00000080: 9e61 d8bc c68d e43d e1c8 bb3d 71be 1cbc
00000090: bd06 a03d 77f9 ddbc 2694 e7bc e53d c5bc
000000a0: a6e4 9f3d ae4e c93d fd21 c23d 14ce ca3d
000000b0: 86ac e9bc c256 be3d 7701 a83d e2d4 c83d
000000c0: 74ed 043d 4064 e43d 183c 383d 7c4c b83d
000000d0: 0502 b23d 889f 333d 84e7 a73d 8e13 713d
000000e0: 988d 663d 9702 dc3d 5f7f 26bd c81c c93d
000000f0: a997 f83b daa7 f73c 8cff 43bc d9c8 a63d
00000100: 6e5f 74bc 5864 d13b a01e ae3d add0 db3d
00000110: c81c ffbc fe05 143c 28f9 393d 7243 cc3d
00000120: f860 8b3d 80ef ad3d 6315 90ba 3cce 573d
00000130: 204f a93d 8aec bd3d 91b2 c13c 9206 bbbc
00000140: 7656 d33d 0c92 a93d 5933 023d 632a 533d
00000150: 1b3d 10bd b398 06bc a637 6c3c 39f0 8bbc
00000160: 10ad 8a3c d95f 03bd 6e15 373d 6f8f b23d
00000170: a4cb 353d 8b77 853b a0ab a6bc 0879 b93d
00000180: a524 acbc 48c5 353d 3824 4f3d 02eb 2f3d
00000190: 3e40 163d 55dc 843d ca28 673d bdb9 3dbb
000001a0: ecf3 133d 3085 6b3d adf6 f33c 0e92 1c3d
000001b0: ff88 d83d 3046 243c d83c c63c c6e5 e13b
000001c0: cd4f 723c bff1 753d 85d7 7d3d bc55 d73c
000001d0: e608 a63d 0066 15bd 38bb 563d 6c0f dfbc
000001e0: b390 d13d 4682 bd3d e229 cb3c 36de 6639
000001f0: a112 233d 4147 0dbd 5c2b 0b3d 9efb bebc
0.05769005 0.0016851118 0.099737324 0.027376616 0.06656102 0.06941569 -0.030082606 -0.040829815
0.017028887 0.02247957 -0.041758765 0.010655821 0.09403347 0.05112078 0.00067471695 0.08223394
0.0028704144 0.08024012 -0.038003594 0.100038685 -0.029671147 -0.032095823 0.100265756 -0.077891506
0.042559788 0.043544702 0.028510587 -0.02955714 0.085266724 0.113710284 0.021001935 -0.017067252
-0.026413735 0.11159854 0.09169174 -0.009566889 0.07813785 -0.027096493 -0.028268885 -0.024077365
0.07807283 0.0982946 0.09479139 0.099025875 -0.028524648 0.092938915 0.082034044 0.09806229
0.032453015 0.11151934 0.044979185 0.08998963 0.086917914 0.043853313 0.08198455 0.05885654
0.056287378 0.107426815 -0.040648814 0.09819943 0.0075864387 0.030231405 -0.011962783 0.081437774
-0.01491533 0.0063901357 0.08501935 0.10733161 -0.031141654 0.009034632 0.04540363 0.09973802
0.06805605 0.084929466 -0.0010992702 0.052686915 0.08267045 0.09273632 0.023644717 -0.022830281
0.103192255 0.08279809 0.03178725 0.051554095 -0.035214525 -0.008215117 0.0144175645 -0.01708232
0.016928226 -0.03207383 0.04469817 0.08718764 0.04438366 0.0040730885 -0.020345509 0.09056288
-0.021013567 0.044377595 0.05057165 0.04294873 0.03668236 0.064873375 0.056435384 -0.002894982
0.036121294 0.057500064 0.02978071 0.038225226 0.10573005 0.0100265 0.024198934 0.006893846
0.014789534 0.060045 0.061973114 0.026285999 0.08107166 -0.036474228 0.05242464 -0.027229033
0.10232677 0.09253363 0.024800245 0.0002201729 0.039812688 -0.03449178 0.033976898 -0.02331334

fc2.weight f4 [128, 128]
00000000: a454 843d 7daa 7a3d b42f 20bd b87e 48bd
00000010: db5f c4bd a4ad 96bd 3a46 01bc bf83 303d
00000020: 0956 85bd 7c8c 0cbd fb7a bcbc fb9d 723d
00000030: 871f 4e3c 35b1 6cbc 358e 233c 002e 963d
00000040: 0387 29bd 1bcf 46bd db7c 4ebd 3a5a 8f3d
00000050: 42cc 643d 99b6 84bd fa0d 6b3d 756b fa3c
00000060: 91a2 3c3d 8293 86bd 7c97 6f3c 28a2 8dbd
00000070: be0d 27bd a27d a3bc e7a2 8cbc 6b2d 903c
00000080: b001 8bbd 7457 5d3d f7c9 813b 9df5 66bd
00000090: 533a 19bd 3c34 b3bc 2122 b0bd 2e21 b3bd
000000a0: 968d b1bd 6842 29bd 35f4 92bd 9cb8 aabd
000000b0: 4f61 bdbd ad31 c3bd 81ba 893d 768b acbd
000000c0: aaaa afbb c605 333d e96d 5d3d 8677 ea3c
000000d0: ce04 813d 7af7 c0ba b4fa 803b 15ab 1cbd
000000e0: 259e 583d cd4b 973b 8716 56bd 2b4e a0bd
000000f0: 73ff 403c 5ffb 903d 5120 0f3d 2956 7cbd
00000100: ae1f cabd 5a76 333d 76a9 3f3d 5015 d6bb
00000110: 0422 babd 25b1 4cbc d2c8 5d3d 4e03 9fbd
00000120: 5a5a 3cbd 9027 14bd b23d 0e3d 5b90 953d
00000130: 7535 3a3c 656a 78bd 365b 2d3d a29e 89bc
00000140: 9af9 dbba a821 a0bd 367e 563c c746 4ebd
00000150: ab1c bbbc 1fe9 0e3d 1855 483d 91b4 823d
00000160: 6a3a b0ba 564f f3bc 2eb8 7e3d 989e 913d
00000170: ee26 6c3c 245b 8ebd ee0b d0bd 2441 81bd
00000180: b543 ffbc 1c6a c4bd ebdd 17bd 6955 8bbd
00000190: e218 283d 3a44 01bd 45b6 4abd 077a 01bd
000001a0: b28a 00bd 9358 f43c faba 97bc d6fb 06bd
000001b0: 9c60 643c 4262 65bd 1063 c4bd e12e 8e3d
000001c0: 05d0 2ebd 6f2d 7e3d 1b8d 19bd 1317 d8bc
000001d0: cbd8 86bd f87f 70bd 6822 75bd 08af 83bd
000001e0: dfd3 78bc f4bb 92bc fcdc ae3c 3883 663d
000001f0: 7487 aabd 22ee 963b 3594 b6bd acf2 ee3c
00000200: 4991 603d 5484 e6bc 8f70 24bd 0684 703d
00000210: 098f ccbd cdc7 a4bd 9800 263d 96fb 9a3d
00000220: 06ee 8c3c f494 643d 42f4 4e3d 0af5 9bbd
00000230: 5d92 033d 8ca4 aabd f166 f23c 556c 8f3d
00000240: a160 ff3c d443 aabc 7838 613d 2996 47bd
00000250: f27c adbc cce1 98bd eccb 5f3d fce2 a13d
00000260: 7842 d3bb bea5 563b cf1c 04bb 2efd 813d
00000270: d36f b9bd e432 a8bd 05a4 083c 3539 b2bc
00000280: 1d1b 923d 7416 0b3d d5ca 52bd 7cf9 4abd
00000290: 6953 88bd e165 2dbd 6524 97bc 5b62 53bd
000002a0: 6a02 833d aebf 203d 1098 193d 5b86 a7bd
000002b0: f2fc 6dbd e9bc 633d 764d 3cbb 022b cdbc
000002c0: 42de c3bd c639 233c d052 573d 7829 713c
000002d0: 129e de3c 6e8d 3ebc 0b9a 16bb 1ec1 823c
000002e0: 50e7 73bd 43c3 92bd ea9a 823d fb11 f53b
000002f0: ab9f 8b3c 66f8 543d 475e 6abd 4a54 863c
00000300: 0264 80bd 97a4 4e3d 1048 423d 8d22 ac3c
00000310: 381e 4ebd ee74 20bd ae4a 1ebc 854c a2bd
00000320: 20aa 64bc a6ed 7a3d a90e 123d 3a37 a1bd
00000330: 206e 56bd bdcf 04bd 0d39 7a3c 9eb9 d5bc
00000340: 023c 9fbd 75cb 91bc 306c 5b3d 25a6 d1bc
00000350: a5a2 10bd b304 c23c 49f2 d239 8edb 8abd
00000360: b8cb 10bd 9813 803d 5ba1 51bd 57b0 d93a
00000370: f8cf 64bc d009 98bd 3a19 b0bc 0125 12bd
00000380: d9e9 b4bc 8814 a5bd 2dd6 6dba a43f 133d
00000390: e3f0 b6bd 5334 eabc 30fa d63c 61ec be3c
000003a0: 72e4 023d 7f97 94bd 36f4 663d 8631 60bc
000003b0: aa62 303d 3f71 d8bc f56a 003d 7dbe c6bd
000003c0: 0f24 f53c 43bd 7ebd d17e e43c 8282 d0bc
000003d0: 021b 3c3d 13e1 d43b 5fab 2fbb 163b 31bd
000003e0: 9dce 433d 8f30 003d 3ced 1bbd 0193 9b3b
000003f0: 1ac6 4d3d c273 f43c f39c 403d 8857 9cbd
0.064614564 0.061197747 -0.039107993 -0.048948973 -0.095885955 -0.07357338 -0.0078902785 0.043094393
-0.065105505 -0.034313664 -0.02300786 0.059232693 0.012580759 -0.014446546 0.009982635 0.073329926
-0.041388523 -0.048537355 -0.05041204 0.06999631 0.055858858 -0.0648014 0.057386376 0.030568818
0.046053473 -0.06571104 0.014623519 -0.069156945 -0.04078459 -0.019957367 -0.017167522 0.017599782
-0.06787431 0.05403848 0.0039608437 -0.05638658 -0.037409138 -0.021875493 -0.086002596 -0.08746563
-0.086695835 -0.041323096 -0.07175485 -0.08335993 -0.09247076 -0.09530959 0.06725026 -0.084250376
-0.005360921 0.043706678 0.054059897 0.028621446 0.062997445 -0.0014722191 0.003936136 -0.038249094
0.052885193 0.0046171905 -0.052267577 -0.07827409 0.011779654 0.07079195 0.03494293 -0.061605606
-0.09869324 0.04381404 0.04679247 -0.0065333024 -0.09088519 -0.012493406 0.054146595 -0.07764302
-0.045984603 -0.036170542 0.034726806 0.07302924 0.011365284 -0.06064834 0.042323314 -0.016799275
-0.0016782761 -0.078189194 0.0130916145 -0.050360467 -0.022840818 0.03489029 0.048909277 0.063820966
-0.0013445143 -0.029700916 0.062187366 0.071103275 0.014413578 -0.069509774 -0.101585254 -0.06311253
-0.031160215 -0.09590551 -0.03707687 -0.068034 0.041039355 -0.031559207 -0.049490232 -0.031610515
-0.03138227 0.029827392 -0.018521775 -0.032955013 0.013939049 -0.05600191 -0.09589207 0.06942535
-0.04267885 0.062055048 -0.037488084 -0.02637819 -0.06584319 -0.05871579 -0.059847265 -0.06429869
-0.015187233 -0.017911889 0.021345608 0.056277484 -0.08326617 0.0046060244 -0.08914987 0.02916845
0.054826055 -0.02813927 -0.040146407 0.058719657 -0.09988219 -0.080459215 0.04052791 0.075675175
0.017203342 0.055806115 0.05052591 -0.07615097 0.032122005 -0.08332166 0.029590102 0.070030846
0.031174006 -0.020784296 0.054985493 -0.04872719 -0.021177743 -0.07464942 0.054637834 0.07904622
-0.0064471327 0.0032752599 -0.0020158773 0.06347118 -0.09054532 -0.082128316 0.008339887 -0.021755794
0.07134078 0.03395696 -0.051462967 -0.049554333 -0.06656534 -0.042333487 -0.018449971 -0.05160747
0.06396945 0.0392453 0.037498534 -0.08179923 -0.058102556 0.05560008 -0.0028732694 -0.025044922
-0.09563877 0.009962505 0.05256921 0.01471936 0.027174983 -0.011630399 -0.002298 0.015961226
-0.05954677 -0.071661495 0.06377204 0.00747895 0.017043909 0.051994704 -0.057218816 0.016397614
-0.06269075 0.050449934 0.047432005 0.021012569 -0.050321788 -0.039174013 -0.00966136 -0.07924751
-0.013956577 0.061261795 0.035658512 -0.07871862 -0.052351117 -0.032424677 0.015272391 -0.026089486
-0.077751175 -0.017797211 0.053569973 -0.02559192 -0.03531136 0.023683881 0.00040234838 -0.06780158
-0.03535053 0.06253737 -0.05117927 0.001660834 -0.013965599 -0.074237466 -0.021496404 -0.03567982
-0.022084164 -0.08060557 -0.0009072747 0.035949364 -0.08932664 -0.028589403 0.026242346 0.023306074
0.031956144 -0.07255458 0.05638524 -0.013683682 0.043062843 -0.026421187 0.031352002 -0.097043015
0.02992442 -0.062192213 0.027892502 -0.025452856 0.045924194 0.0064965575 -0.0026805026 -0.04326924
0.047804464 0.03129631 -0.03806804 0.004747749 0.050237752 0.029840354 0.04702468 -0.07633883

fc2.bias f4 [128]
00000000: 009d 473d 4bdf bf3a 70b8 a2bd 1089 543c
00000010: 55b7 c9bc 88b2 813d a230 e6bc 5bc9 c73c
00000020: 3f37 693c d8a0 743d e39b b0bd 794d 443d
00000030: 4f90 eabc 2318 a83d bc6e 65bd b8fb c83d
00000040: 8234 6c3c 9c35 bc3d f265 733d 010a 94bb
00000050: 8c80 313b 6573 dbbc 2d6e 9dbd 1f40 ae3d
00000060: 98c4 dc3d f2a6 44bd 321e 863d 29a5 4b3a
00000070: 8bcd 403d 108b ecbc faf6 a63d daec 16bd
00000080: 8dc7 52bd 2b77 c53c a5d8 49bd 94d9 edbb
00000090: 7ba5 943d 8a70 b63d cc07 a0bd 280f 8fbd
000000a0: 18f9 b33d 3f18 0abd 1001 2c3d 8749 743d
000000b0: 7c29 4e3d 7a5e 88bd 603a 003d 8400 99bd
000000c0: 419a 573d e786 1e3d 42a8 173d 5cf5 02bd
000000d0: 1dbd 8a3d 6091 acbc 20f2 f33c 05a8 d63d
000000e0: bd15 94bc 2da1 cf3d f667 b5bd e559 0e3d
000000f0: 0ed4 fa3c 01ec b73b 5a66 443d 9e8d 60bd
00000100: ebdb 143d b8fb 883d 4901 d73c 6288 243c
00000110: f5da e13d 5c03 e63c e7fd 923d db9a a4bd
00000120: 606f c9b8 bb92 db3d 8741 0fbd f84a 4d3c
00000130: 2640 96bd 7ab2 823d 077d 25bd 27f9 f33c
00000140: 71bb 05bd d83f 0c3d 572c 91bd 6faa 41bd
00000150: 9c43 413d 84f4 a03d d56f b53d 0829 003d
00000160: 5209 5a3d 6487 82bd 12d3 993d 2d1e c13c
00000170: 1ad1 933d b23a 25bd 14e1 c1bd 47a8 12bc
00000180: a849 453d 678a 49bd e912 fb3c 4526 35bd
00000190: f04f 90bd 55c2 f43c 034c 453d 85f4 41bc
000001a0: 31a9 8e3c 93d7 973d d258 5dbd 39de ce3d
000001b0: a3cd a3bd 179a ec3c e05a 56bc 742c 1c3d
000001c0: 01b9 e4bc e52d c4bc a2c9 a83d ad81 b0bd
000001d0: 1268 6a3d 18ca 10bd 392e 4bbd 44c5 b9bc
000001e0: 03e0 a53d d87c c63d 5e30 bf3d 39f3 40bd
000001f0: 7f2d 5abd 66b3 e3bc 2d67 d63b 7285 03bc
0.04873371 0.001463869 -0.07945335 0.012972131 -0.024623552 0.0633288 -0.028099362 0.024388006
0.014234363 0.059723705 -0.08623483 0.047925446 -0.028633265 0.08207729 -0.056013808 0.098136365
0.014416816 0.09189913 0.059423395 -0.004517794 0.0027084677 -0.026788423 -0.0768703 0.08508324
0.10779685 -0.048010774 0.06548728 0.0007768446 0.04707102 -0.028874904 0.08152576 -0.036846973
-0.051459838 0.024104675 -0.049278874 -0.0072586033 0.072581254 0.08908184 -0.07813987 -0.06985313
0.08787745 -0.03371453 0.0419932 0.059640434 0.05033253 -0.06658645 0.03130567 -0.074708015
0.052637342 0.03870287 0.037025698 -0.031972274 0.06774352 -0.021065414 0.02977854 0.10481266
-0.018076772 0.10138164 -0.088577196 0.0347537 0.030618694 0.0056128507 0.047949173 -0.054822557
0.036342543 0.066886365 0.02624573 0.010042282 0.11028091 0.028077774 0.07177334 -0.08037349
-9.605172e-05 0.10721346 -0.0349746 0.012530081 -0.07336454 0.06381698 -0.04040244 0.029781891
-0.03264946 0.034240574 -0.07088535 -0.04728168 0.047183618 0.07859138 0.08859221 0.03128913
0.053231545 -0.0637348 0.075109616 0.02357396 0.07217617 -0.04033918 -0.09466758 -0.008951253
0.048165947 -0.049204256 0.030648666 -0.04422595 -0.07046497 0.029877821 0.048168194 -0.011838083
0.017414661 0.074141644 -0.054039784 0.10100979 -0.079982065 0.02888207 -0.01308319 0.03812833
-0.027920248 -0.023947665 0.082415834 -0.08618484 0.057228155 -0.03534898 -0.04960463 -0.022677071
0.080993675 0.09691781 0.09335397 -0.047106955 -0.053266045 -0.027795505 0.006543061 -0.008027421
