logs/maddpg_checkpoint_ep450.pth (torch, 585614 bytes, 24 tensors)

fc1.weight f4 [128, 147]
00000000: bdde 91bc 80a3 d4bc d604 3e3d b01d b13d
00000010: 3564 8d3d be9e 683d 9923 663d 6518 9f3d
00000020: 8abe 06bd 46c1 69bd a0b5 11bc d6eb 143c
00000030: cd24 3d3c 2ea0 c1bc feec c53d e69d 2c3d
00000040: ef0f 343b b1e7 6f3c a1d8 2bbd df07 93bd
00000050: de35 9f3d 5101 af3d 2fe0 b73c 245c 2a3d
00000060: 5813 a83d 139f d73c 65bd 5cbd adff 49bd
00000070: ca80 2abd da02 5d3d 577b cd3d 3491 103d
00000080: ac48 50bd 4c09 083b 5cc3 38bc 8078 17ba
00000090: 920a 573d 26d4 fd3a b04c 953d 094e 3fbc
000000a0: 9bfe 973d 320d 963d 3439 053d 47a1 70bb
000000b0: 4cda 533d ade4 ac3d 3a7f 0d3d 7ba4 19bd
000000c0: 2733 bb3b cd3d 05bd 9b33 913d b857 043a
000000d0: 4151 81bd 1dac a73d a7c2 bb3d 16b0 30bd
000000e0: b3b6 7f3d 7654 783c 9629 193d a653 d13d
000000f0: 74a0 8dbc 5628 dabc bae2 cd3d b69c 313d
00000100: f251 d43c 12a9 59bc 84e7 5bbd 6a05 a73c
00000110: 08cd 923d d1d3 133d 91d5 b03c bbdd 3d3d
00000120: f62a 1139 6678 9e3c fe55 d63d aa21 283b
00000130: fd5c a83d 6b91 be3d 6039 953d 3bd5 993d
00000140: 188b c33d 2536 af3d f26a c6bc 2543 b73d
00000150: 2380 72b9 c957 50bd 43b6 e53c ef97 653c
00000160: 4239 4ebd ddf8 ab3d 8fd8 803d f87a d03c
00000170: 374a d2bc 0b24 ecbc 95d0 adbc a34d 473d
00000180: 9344 f0bc b8fe 933d 9262 9f3d 5dc0 17bd
00000190: cf5f 553b 64b6 953d 50f9 793d d45c 763b
000001a0: 3b93 503d 2b23 a43d 178e 8cbd bdcd 133d
000001b0: 2393 2b3d b3a8 e639 d667 01bd dff7 6c3d
000001c0: a19c a73d aad2 d23d 0cba 53bd e35f cb3d
000001d0: 0a2e a43c 2c51 883d 479e 483d 60e9 cdbc
000001e0: 2db7 5cbd def6 c2bc b875 c43d 2fad 453d
000001f0: 0b6b ba3d a4f9 9cbc 36b1 cb3d 45d8 a43d
00000200: 42d6 07bd 0fb0 a53c c0aa 0fbd ab2b cdbc
00000210: 8357 323d 94e7 1c3c 759e 24bd 0fc0 c6bb
00000220: 2c5f 903d 3769 32bd dce4 8cbd 3eb9 8cbd
00000230: e7d2 913d 7b21 913d 91b4 dcbc 90df dbbc
00000240: d417 2f3b 7814 983b 729f f93c eba4 873d
00000250: d72b 0e3d 5c39 f03b 20c5 ce3d b6c7 923d
00000260: e7f9 17bc c61b ea3c 741f 3a3d b023 523d
00000270: b1b8 8c3c f377 c6bc e1c8 09bd 447b 803d
00000280: c6ee 9c3d 8d3a bf3c bb23 33bd 3212 f4b9
00000290: 0759 4d3d 13ab 883d 4741 2dbd fc0e c83d
000002a0: 57c3 c03d e494 2b3d 1357 9c3d 94ba af3c
000002b0: 9be1 e43d ea2c 313d c634 0ebd 80bf 47bc
000002c0: 47c1 afbc c954 453b d0c7 edbc 10ae b33d
000002d0: 835c 6bbc 6257 a73c e560 7b3a 9582 643c
000002e0: 3428 ca3d cec3 c6bb 0443 21bd 215a 35bd
000002f0: 5d60 413d ae83 b2bc 5c73 e43c fb38 463d
00000300: 49a1 a8bc 789f e23d 23a7 0cbd 52b0 3abd
00000310: b84d 3a3d ba41 253c b4d1 e33d a1a5 a4bc
00000320: 29f2 10bb 2098 a2bc cf4d 2a3d 4d55 00bd
00000330: d873 03bd 5651 fe3c 2ac0 523d db78 21bd
00000340: a2e8 7a3c 5553 49bc daba 3f3c 4598 cf3c
00000350: 23ee 5d3d 14de 9d3c c816 c03d a72d c13d
00000360: 6cd2 093d e7b1 103d 42a8 5f3d 2538 df3d
00000370: 4005 b4bc 6419 cc3d b998 933d 9e47 9e3c
00000380: 9397 abbc c54a ba3d 6792 dc3a 4227 f33d
00000390: 9928 abbc 61b0 aa3d 8cc3 923d 9e88 7abb
000003a0: 1f86 7dbc 3edd b43c bfbc 8f3d c3b3 6cbd
000003b0: 1a3e 2cbd 2f49 8e3d 964e 63bd b3c6 8b3c
000003c0: d386 bd3d 89a0 a93d b396 8b3d 8b96 193d
000003d0: b447 dcbc 1d5c cc3c e441 fb3c 2100 18bd
000003e0: f9e1 a03d 74f7 c53d 15c8 3a3b ac97 bebc
000003f0: a12d 08bd 1d55 7bba 433d cabc ae01 df3d
-0.017806405 -0.02595687 0.04639133 0.086482406 0.069038786 0.056792013 0.056186292 0.07768325
-0.032896556 -0.057069086 -0.0088934 0.009089431 0.0115444185 -0.02363595 0.09664343 0.04214277
0.0027475317 0.014642642 -0.04195464 -0.07179236 0.07773946 0.08545173 0.022445766 0.04159178
0.082068145 0.02632097 -0.05389156 -0.049316097 -0.04162673 0.053957798 0.10033291 0.035294726
-0.050850555 0.0020757494 -0.011277046 -0.0005778149 0.052500315 0.0019365593 0.072900176 -0.01167632
0.07421609 0.073267356 0.032525256 -0.0036717223 0.051721856 0.08442054 0.03454516 -0.037510376
0.005712885 -0.03252964 0.07089921 0.00050484715 -0.06314326 0.08187125 0.09167986 -0.04313668
0.062430095 0.015156856 0.037393175 0.10221033 -0.017288424 -0.026630562 0.1005301 0.04336234
0.02591798 -0.013284938 -0.053687587 0.020388324 0.07168013 0.036090676 0.021586211 0.046354037
0.00013844282 0.01934452 0.104656205 0.002565483 0.08220861 0.0930508 0.07286334 0.075113736
0.095480144 0.08555249 -0.024220917 0.08948354 -0.00023126653 -0.05086497 0.02804101 0.014013275
-0.050347574 0.08397076 0.06291305 0.025449261 -0.025670154 -0.02882578 -0.021217624 0.048658025
-0.029329574 0.07226318 0.07782473 -0.037048686 0.0032558327 0.07310179 0.06102878 0.003759195
0.05092166 0.0801452 -0.06863039 0.03608488 0.041888367 0.0004399471 -0.031593166 0.057853576
0.081841715 0.10294087 -0.0516911 0.09930398 0.020041484 0.06656107 0.04897907 -0.025135696
-0.053885628 -0.023799356 0.095927656 0.048260864 0.09102448 -0.019162007 0.0994591 0.08049063
-0.033163317 0.020225553 -0.03507495 -0.025045237 0.04354049 0.009576697 -0.04019018 -0.0060653756
0.070494026 -0.043557372 -0.06879589 -0.0687127 0.071203046 0.07086464 -0.02694157 -0.026840001
0.0026717084 0.004641112 0.030471537 0.066232525 0.034709778 0.0073310565 0.10096192 0.07166998
-0.00927589 0.028577697 0.045440152 0.051303566 0.017177911 -0.024227118 -0.03363884 0.06273511
0.0766273 0.023343349 -0.043735247 -0.00046552863 0.05013373 0.06673255 -0.04229858 0.09768483
0.09412258 0.04189004 0.076337956 0.021451272 0.11175843 0.043255724 -0.034718297 -0.012191653
-0.021454467 0.003011035 -0.029025942 0.08773434 -0.014365318 0.02042741 0.00095893285 0.013947149
0.098709494 -0.006065822 -0.03937055 -0.044275407 0.04721104 -0.021791305 0.027887039 0.048394185
-0.02058472 0.110655725 -0.03433908 -0.04557831 0.045484275 0.010086471 0.11123982 -0.02009851
-0.0022116995 -0.01984793 0.04157811 -0.03133135 -0.0320929 0.031044643 0.051452793 -0.039421897
0.015314253 -0.012287934 0.011702264 0.025341162 0.054182183 0.019270934 0.09379345 0.094325356
0.03364794 0.03532591 0.054603823 0.108993806 -0.02197516 0.099657804 0.07206864 0.01932126
-0.0209463 0.090962924 0.0016828299 0.11872722 -0.020893382 0.08334423 0.07166204 -0.0038228403
-0.0154738715 0.022078153 0.07018422 -0.05778862 -0.042051412 0.069475524 -0.055494867 0.01706252
0.09254231 0.08282573 0.06815853 0.037497085 -0.02688966 0.024946267 0.030671068 -0.037109498
0.07855601 0.096663386 0.0028500606 -0.023265682 -0.03324664 -0.0009587573 -0.024687415 0.10888992

fc1.bias f4 [128]
00000000: ad62 2f3d 1f9e 17bc 903f 6d3d d064 463d
00000010: 8124 d63d da22 0a39 6154 9e3d 210c 16bc
00000020: 3158 863d ede9 663d 2913 5f3d eead b8bc
00000030: fde1 edbc f831 d23b bc91 a3bc aca4 abbc
00000040: 422e 2dbc 5d42 be3d 2b6b 4f3d dbce 7abc
00000050: 35c3 173c cace 373d b875 f23d ad28 dcbb
00000060: a591 403d 65a8 ca3d 440b 4e3d 1425 f43d
00000070: f04e 61bc 3b99 c73b a7ae 12bc bc19 cd3c
00000080: f02a 6e3c ec92 cfbc 2081 5ebc dfa6 c13d
00000090: 0d44 883d 39a6 05bd c2ff 57bc 3f4a 15bd
000000a0: a8ea 1c3d 3d2e f1bc 48fd f53d 13e4 0a3c
000000b0: aecd 723d 33fa d63c cbd2 593d 01d1 b63d
000000c0: 245a 1a3d d3b6 5f3d a71a c8bc 5e87 e7bc
000000d0: ecc6 c73c d4b5 9f3d 5322 443d 2987 c43c
000000e0: dd87 453d e1a7 ec3d 3033 a33d 6dec e23c
000000f0: d139 c13d be43 d63c 1a51 cebc 474f 66bb
00000100: 02dc 39bd 7671 f93c 9f7e 7ebd 1537 17bd
00000110: f2bd a63d b145 eb3c f3f4 a7bc 0ca2 15bd
00000120: 93b0 993d e900 c03d 1fa4 303d 0c1f 06bd
00000130: bfd4 343d 6066 8b3d 508a 023d 0153 1bbd
00000140: d86e d3bb 6d4f a83d 716a 3a3d 3b0f 083d
00000150: 17e4 ca3d 99a9 38bd 7ccf dd3c b699 863d
00000160: d388 113d a674 9d3d 1e90 193b 0758 42bd
00000170: 3182 1c3d 3027 5e3d 236a e03d fc3b bc3d
00000180: 09d0 a5bb 146b a43c b4e8 b53d cbc8 1a3d
00000190: 710d 2739 6407 833d a6fb d03d 3dca b63d
000001a0: 84b4 553d 50b7 9abb 0973 d33d e5a8 c53d
000001b0: 9fa9 6f3d e76c bd3c 1f6d a33c 9095 9c3d
000001c0: d402 7ebb da09 3e3d 918f 1f3c 42c8 2bbc
000001d0: d26e 913d baff 6d3d 918a cb3c 0ac0 3e3d
000001e0: 73ac a13d 1375 ca3d 96ba 6c3d 33aa b53d
000001f0: d61c 5f3d c7d1 af3c cb9a be3d ca0d 30bc
0.042818714 -0.009254008 0.057921946 0.048435986 0.10456181 0.00013173689 0.07730938 -0.009158165
0.0655979 0.056375433 0.054461632 -0.022543874 -0.029038424 0.006414648 -0.019966953 -0.020952545
-0.010570111 0.092900015 0.050639313 -0.015308107 0.00926285 0.044874944 0.11838859 -0.006718716
0.047013897 0.098954 0.050303712 0.119211346 -0.01375173 0.0060912645 -0.008952773 0.025036685
0.014536604 -0.025338612 -0.0135805905 0.09455656 0.06653605 -0.032629225 -0.013183536 -0.03644776
0.038309723 -0.029440993 0.120112 0.008477229 0.059278183 0.026242351 0.053179543 0.08926583
0.03768362 0.054617714 -0.024426771 -0.02826279 0.024386846 0.07798353 0.047884297 0.02399023
0.048225272 0.11555458 0.079687476 0.027700627 0.09434856 0.026155349 -0.025185157 -0.0035142468
-0.04537583 0.03044961 -0.062132474 -0.036917765 0.08141698 0.028719755 -0.020502543 -0.036531493
0.07504382 0.093751736 0.043125268 -0.032744452 0.044148203 0.06806636 0.031870186 -0.037920956
-0.0064524226 0.08218274 0.045511667 0.03321765 0.09906786 -0.045083616 0.027076475 0.06572287
0.035530876 0.076882645 0.0023431848 -0.04744723 0.038210098 0.05423659 0.10957744 0.091911286
-0.0050602 0.02007059 0.08882275 0.037789147 0.00015931368 0.06397894 0.10204248 0.08925293
0.052174106 -0.0047215596 0.103246756 0.09651355 0.058511373 0.023123218 0.019949494 0.07645714
-0.003875901 0.046396114 0.009738819 -0.010484757 0.071012154 0.058105208 0.024846347 0.04656986
0.0789422 0.098856114 0.05779513 0.088703535 0.05447086 0.021462334 0.09306868 -0.010745475

fc2.weight f4 [128, 128]
00000000: 6221 523d 3823 e3bc a60c a8bd 3a83 ccbc
00000010: 925d 343d 4fa4 a9bc f24e 953c eecb ba3c
00000020: d750 1f3d 4314 6d3c 4065 a2bc f862 b53c
00000030: 7c3b 063c 3045 c7bd 5fbe 4fbd 907b 91bd
00000040: ceb0 74bd 5351 d0bd 2061 6a3d ba3d 633d
00000050: 0af9 533b b0d0 513d b719 823d b095 483d
00000060: 2f65 80bc 07a0 b2bd 88dd 52bd 0a72 c2bd
00000070: 72b9 c4bc 398b adbc d84a 893d dbca bdbd
00000080: 7e64 6e3d 2865 10bd 2263 a4bd 620f 203d
00000090: 6449 bbbc aa94 76bd 17ce 35bd 6656 c5bd
000000a0: b3a4 3a3c 9489 0e3d 13d8 48bd 3b85 9cbd
000000b0: c285 52bd 8843 7a3d ab00 b0bd 5a56 6c3d
000000c0: 6b6a 16bb c39d a0bc ed45 06bd b99e 503d
000000d0: d9dd 973b 762b ccbd be43 9bbd 85de a4bc
000000e0: 32a3 5a3c 698c 913d 8305 ecbc 4685 a8bd
000000f0: bbc3 913d 058d 8a3d e6e5 c0bc e44f 43bd
00000100: 4b64 96bd dfc4 453d deb3 91bb 5c20 c8bd
00000110: 7178 a3bd 531e 8e3d 7390 4cbd a3b2 1fbd
00000120: 5b59 003c 4b99 debc eca8 de3b 067e 753d
00000130: 35c7 8ebd 2ac5 8f3d 967d 52bc a8ef 2ebd
00000140: 66c0 c3bd 724c 2abc a683 d2bd d634 40bc
00000150: f41b 343d a3a0 193c 23fe 0ebc 52bb 603c
00000160: 648f 3dbc ccb4 c33a 4e4c 22bc 4377 15bd
00000170: 527b 4ebc eb19 60bb cca4 9e3b 8186 383d
00000180: 5c08 1c3d 57b4 78bd c697 5abd 8c5f 22bd
00000190: c976 65bd eb85 263d bf4c b5bd 442d 433d
000001a0: 7bdf f23c 54bc 903d ee39 453d 4ef9 aebd
000001b0: 5266 c8bb fd10 703d 69be cdbd c05a 73bd
000001c0: 6941 2a3d e846 923d ce0e 573d f6cc 8bbd
000001d0: 7d32 5bbd b47f 0dbd f9bc d3bd b9ab 49bd
000001e0: 5f00 863c a694 1cbc 66f4 cebd d798 0d3b
000001f0: deac 1ebd 026f 573c 74a1 5dbd 1090 7cbd
00000200: ff7f 013d a45f 04bd 7fcf a63c 9ff7 7bbd
00000210: 5c62 b5bc 2003 8cbd bd05 5bbd 7936 1a3d
00000220: 744b 303d e289 9fbd ca63 be3b b4eb 093d
00000230: 6c0b 4b3d 5fa9 80bd f8de 46bd 9f1a 82bd
00000240: 4d1d 3f3d a8cb 69bd b227 a3bd f177 133d
00000250: 83e3 2a3d 2e49 523d 3a0a 51bc c6f2 6b3d
00000260: 528b 6abd 6944 0ebd cdf7 55bd 0b93 8b3d
00000270: 4df0 9e3d 2984 17bd d506 59bb ea80 afbb
00000280: 379b 863c c1ae 25bc 3f5a 873d 8e16 80bc
00000290: fac6 a0bb dc35 edbc 1c42 c13c 241b 90bc
000002a0: 72e4 75bd b493 adbd 1c3e 943d b70b b2bc
000002b0: 0c99 913d bf08 0bbd 30bb 8c3d b17b 3b3d
000002c0: 0bbe 83bd 9821 723d 0505 d9bc 018e 02bd
000002d0: d5b6 373c 4e94 34bd f2c8 85bc 35bc 3bbd
000002e0: 6fbc a5bc 50d5 783d b997 87bc cd02 e23c
000002f0: 928e a13d 46ef 34bd 0456 4bbc ef3f dd3c
00000300: 4436 8fbd a97c c03c 3d12 293d 95e8 bf3c
00000310: ffff 613d d96f 54bd fd2a 5d3c 496f 59bd
00000320: 04ad 953c d4c5 a53d 7f34 08bc 4cad 1dbd
00000330: dea0 2fbd 1b0e 06bd c43e 843d 3d58 d1bc
00000340: c2a0 12bd d67b a7bc 0e53 80bd c9f8 6bbd
00000350: 2c74 bc3b 1f1b 99bd 6062 a1bd 74e5 4b3d
00000360: 9829 9b3d dfdd 05bd 66d9 19bd 556d d03c
00000370: 8d50 093c b8ab 733d 1d5d a23d 8f1e 2cbd
00000380: 9b80 b53b 2c59 74bd 1321 a7bd 1e64 333d
00000390: 1755 78bd 89a4 9cbd ce0e 6b3d ac0d ac3b
000003a0: a266 3fbd 91ba 913d e160 9dbd a1b9 a9bd
000003b0: 9c54 bcbd dd1b b9bc 652f e7bb 4736 c8bc
000003c0: 665d a93b 508c 16bc fc22 bb3c 4e5d 83bd
000003d0: f4a1 6fbc d848 6abd 13d4 383d 331d 113d
000003e0: 7270 bcbc d54d d4bc e01d 80bc fb3d 613d
000003f0: 69f1 5dbd 9057 953d 605d 983d ac2d 6c3d
0.051301368 -0.027726755 -0.082055375 -0.024964917 0.044034548 -0.020708231 0.01822612 0.02280232
0.038895454 0.014470163 -0.01982367 0.022141919 0.008192893 -0.09729993 -0.05071866 -0.07103646
-0.059738927 -0.10171761 0.057221532 0.05547879 0.0032344484 0.05122441 0.06352561 0.048970878
-0.015673248 -0.08721929 -0.0514808 -0.094944075 -0.024014208 -0.02118455 0.067037284 -0.09267207
0.058201306 -0.03525272 -0.080267206 0.03907717 -0.022862144 -0.06020037 -0.044385996 -0.0963562
0.011391806 0.034799173 -0.04903419 -0.07642599 -0.051397093 0.06109956 -0.085938774 0.05769954
-0.0022951614 -0.019606477 -0.03278153 0.05093262 0.0046346006 -0.09969227 -0.0758128 -0.020125637
0.013344573 0.07106859 -0.028811222 -0.08228545 0.07117411 0.067651786 -0.023547124 -0.04768361
-0.07343348 0.048283454 -0.0044464907 -0.09771797 -0.07981957 0.06939378 -0.049942445 -0.03898872
0.007833804 -0.027172705 0.0067950394 0.05993464 -0.069715895 0.07020028 -0.012847325 -0.042709023
-0.095581815 -0.010394203 -0.10279016 -0.011731347 0.04397197 0.009376678 -0.008727583 0.013716536
-0.0115698315 0.0014931201 -0.009905888 -0.03649069 -0.012602644 -0.0034195136 0.0048414227 0.045050148
0.03809391 -0.06071886 -0.0533674 -0.0396419 -0.056021485 0.040655058 -0.08852529 0.04765059
0.02964758 0.07067171 0.04815095 -0.08543645 -0.006115713 0.05860995 -0.100460835 -0.059412718
0.041566286 0.071424305 0.052504353 -0.068262026 -0.053514946 -0.034545615 -0.10338778 -0.049236033
0.016357599 -0.009556925 -0.10105209 0.0021605992 -0.038739078 0.013149025 -0.05410905 -0.061660826
0.031616207 -0.032317773 0.020362614 -0.061515447 -0.022141628 -0.068365335 -0.05347227 0.037649605
0.043040708 -0.07789971 0.0058102356 0.03367205 0.04957144 -0.06282305 -0.048552483 -0.06352734
0.046658803 -0.057078987 -0.07966556 0.036003057 0.04172088 0.05133932 -0.012758786 0.057604574
-0.057261772 -0.03473321 -0.052238274 0.068151556 0.077606775 -0.036991272 -0.0033115644 -0.005355944
0.016431434 -0.010112465 0.0660901 -0.015635755 -0.0049065324 -0.028956346 0.023591094 -0.017591067
-0.060032316 -0.08475438 0.07238409 -0.021734102 0.071092695 -0.033943888 0.06871641 0.04577226
-0.06432732 0.05911407 -0.026491651 -0.031873707 0.011213024 -0.044086747 -0.01633117 -0.045833785
-0.020231454 0.060750306 -0.01655184 0.027589226 0.07888521 -0.0441735 -0.012410644 0.027008025
-0.06992772 0.023496943 0.04127716 0.023426333 0.055175778 -0.05186448 0.013499019 -0.053084645
0.018270977 0.08094373 -0.008313297 -0.038495347 -0.042878024 -0.032728296 0.06457284 -0.02555477
-0.03579784 -0.020444792 -0.062658414 -0.057610307 0.0057511535 -0.07475876 -0.07880092 0.04977937
0.07576293 -0.032682296 -0.037560843 0.025442759 0.008381021 0.059489936 0.07927916 -0.04202133
0.0055390126 -0.059655353 -0.08160605 0.04379665 -0.060628023 -0.0764857 0.057387166 0.0052506533
-0.046728738 0.07115663 -0.07684494 -0.08287359 -0.091958255 -0.022596294 -0.0070552104 -0.024439944
0.0051686047 -0.009188727 0.02284383 -0.06414281 -0.014626015 -0.057198375 0.045124125 0.035428237
-0.023002837 -0.02591602 -0.015639246 0.05499075 -0.054185305 0.07292092 0.07439685 0.057660744

fc2.bias f4 [128]
00000000: bade 0a3d 7313 50bd 2ddb 373b 1d82 7d3d
00000010: a3e5 a1bd 611d 953d 7dfe d3bb 56c6 04bd
00000020: 1c8f 943d 899c 933d 61cb d93d 9a84 723d
00000030: 2ed6 86bd b431 0d3d a10a 043c 8c3c a93c
00000040: 43c2 413d 1056 8c3d d324 febb a689 ffba
00000050: 8654 8cbd 9d41 713d e309 05bd d6af 0abd
00000060: efbb 903d 23f5 01bd 035d 343d 740c 43bb
00000070: abd2 e8bc a0fb bb3c 95dd 3dbd f514 0d3d
00000080: aadc bc3c 0e96 d93d 8202 b3bd 8a88 853d
00000090: c675 e33d c61b 333d 901d 0d3d fbbc edbc
000000a0: f876 80bd 3a6d aabd cb1a b6bd 162d 2bbd
000000b0: 81b3 653d 1adc 2abd 4105 8c3b aa85 013d
000000c0: 8666 a63d 537e 59bd 4fe6 283b 5d0e 0f3d
000000d0: dd36 e03a cdf9 e4bc 4d85 39bd 8b1f 543d
000000e0: 75d1 753d f866 2ebd 8551 95ba 3979 47bd
000000f0: 8ba4 a1bd 99e3 0a3a 2963 0bbd 5a5b 843d
00000100: 5a02 d2bc 3bf0 55bd d711 aabd b6b1 4d3d
00000110: 6c88 713d 2366 863d 4bd7 0cbc f0b0 7e3d
00000120: 52c4 df3d 8df1 1c3b 7ac1 08bd 483d 9ebc
00000130: 9703 cbbc dc47 5d3d 46e2 a73c b5b2 303d
00000140: df18 46bd 78d6 313d 9e50 e83d 6365 bf3d
00000150: 575f c33d 8a12 143d f924 bf3c 3974 00bc
00000160: 8985 78bb faea ad3d d73a d13d feb4 ccbc
00000170: a280 aa3d f966 49bd 60fa 0ebd 6ab4 a53c
00000180: e786 92bd 4b85 a93a 6f2a 1cbd f0c0 a0bd
00000190: c1b5 8e3d 3752 8cbd d01d ce3d fa4e 583d
000001a0: e142 f1bc 87a6 f33d b4cf 0bbd d68c 11bc
000001b0: 2508 a43d fd8e 4e3a d407 aa3d c9ce 82bc
000001c0: 09e3 8f3d b8ad f8bc 00bc bf3d 2560 53bd
000001d0: f2f4 3e3d 824c 0a3d cc17 ed3d fe46 72bc
000001e0: 35c1 453d 50e1 b23d 3757 e0bc c021 4fbc
000001f0: e194 943d 0b3a 71bd 9887 ee3d 31ae cfba
0.033903815 -0.0507998 0.0028054223 0.061891664 -0.07905128 0.07280994 -0.0064695464 -0.03241571
0.072538584 0.07207591 0.106344946 0.05920849 -0.0658382 0.03447123 0.008059175 0.020658754
0.047304403 0.068523526 -0.0077558546 -0.0019495978 -0.06852059 0.058900464 -0.03248013 -0.033859096
0.070670955 -0.03172792 0.044034015 -0.0029762061 -0.028420767 0.022947133 -0.046353895 0.034443814
0.02305444 0.10624324 -0.08740713 0.065201834 0.11106448 0.04372766 0.03445202 -0.029020777
-0.062726915 -0.083216146 -0.08891829 -0.041791044 0.05607939 -0.04171381 0.0042730873 0.031621613
0.081250235 -0.053098988 0.002577204 0.034925807 0.0017106194 -0.027951146 -0.04529314 0.051787894
0.060014207 -0.042578667 -0.0011392093 -0.04869959 -0.07892712 0.0005298197 -0.034030113 0.064627364
-0.025635887 -0.052231055 -0.08304184 0.050218306 0.058967993 0.0656245 -0.008596252 0.06218046
0.10926117 0.0023947686 -0.03338764 -0.01931633 -0.024781985 0.05402361 0.020493638 0.04313918
-0.048363563 0.043417424 0.113435015 0.0934551 0.09539669 0.036150493 0.02333306 -0.00784021
-0.003792139 0.08492084 0.10216301 -0.024988648 0.08325316 -0.049170468 -0.034906745 0.02022763
-0.07154637 0.0012933401 -0.038126405 -0.078493 0.069682606 -0.06851619 0.1006428 0.052809693
-0.029450836 0.11896997 -0.034133628 -0.008883676 0.08009366 0.0007879583 0.08302274 -0.015967743
0.070257254 -0.030356273 0.0936203 -0.051605362 0.046620317 0.03376437 0.115768045 -0.014787434
0.04827996 0.08734381 -0.027385337 -0.012642324 0.07254959 -0.058893245 0.11646956 -0.001584476

fc3.weight f4 [5, 128]
00000000: 8e2d 643d 0890 b1bb d4d8 dabd 795f a5bd
00000010: 913c 0fbd 2f4e 01bd e3d5 6cbd 701c 1cbd
00000020: 101b 0c3d b190 d1bd 7b5e 8ebc af1f 2a3d
00000030: 9274 a33d c6cb 7c3c 521f f2bd 721c 07bd
00000040: 9842 c3bd 7274 1b3d 640e 963d 3f71 183d
00000050: c477 503d d5d3 963c b4c2 bdbd 8b7d c5bd
00000060: 9227 e4bd 1eeb 83bc 6e98 db3b 9a72 dfbd
00000070: 33c3 09be 30ea 773d 177a 07be b264 f6bd
00000080: 14c1 5c3c 638b c5bd 05d3 be3c 74e0 a93c
00000090: 9996 4a3d 9b97 023d 3a9e 79bc 226a a6bd
000000a0: da36 de3c cec8 2dbd e5e5 983d 061c bfbc
000000b0: b892 98bc 9646 22bd 8c23 8f3d f67c f93b
000000c0: 8029 1f3d 4091 4f3b 933e 04be 69ea 99bd
000000d0: 4d29 2dbd e84c 02be 0aa0 04be f667 89bd
000000e0: 4398 853c 6b1b 79bc 7ef8 963d e37f a2bd
000000f0: 1e51 863d 6f06 8c3d 2fcb 86bd d2de 3bbc
00000100: eeec 7bbd 20b3 a8bd dca9 233d 89a3 053d
00000110: a1be 823d 17aa 853c 5eac aabd 4bd8 db3c
00000120: c80d c1bd 4c4c 65bd ee10 cebd 0ae5 c9bd
00000130: 309a a23d 8f7e 01bd d0af 343a 18fb 093d
00000140: 5434 3b3d 1252 183d eb4f 553d aef0 703c
00000150: 67ef 513c c180 57bd 8a33 403c 81a4 1ebc
00000160: 3462 94bd 7a3c 8dbb 9223 37bd adf5 25bd
00000170: 9879 e6bb 7a73 f8bd 2994 273d fa47 043d
00000180: ec02 a83d 41ea f3bd 5e78 013d b98e 56bd
00000190: 6e31 8a3c c59a 39bc 996f 54bd 9bfc abbd
000001a0: 4e7d 00be 1687 21bc 7e3c 193d c115 6a3c
000001b0: f9d3 49bc 3f86 8e3c 6b6c 3fbd eb81 313d
000001c0: 7998 e4bd 517a 3e3d 8b8c 533d d630 d1bd
000001d0: fb07 07ba 210f 4ebd ab3b 59bd d21d 203d
000001e0: a6af e73c ad80 a23c 5759 44ba ff2b bfbd
000001f0: 347a 2e3d 70ff 593d cedf 2ebd 8754 e1bd
00000200: ba18 88bd 95c8 32bd a7a0 8b3d 9675 a23d
00000210: 09a2 01bd 6987 be3d c5b0 4f3c 9b01 b1bc
00000220: b322 fc3c 4488 e73c a240 c13d 83bc 79bd
00000230: f8d0 8ebc 0ccb c9bc 0563 be3d 1083 01bd
00000240: 5c12 88bc 1c71 73bc 0b56 94bd 6897 f23c
00000250: 7aa1 5a3b c341 723d ff97 f7bc 3b33 313d
00000260: 3393 0a3d 6c14 84bd 4bc9 b63c 5dd4 1e3d
00000270: 19e0 893d 863a 75bd e891 833d 0936 ae3d
00000280: 51ac 2abd 8190 2b3d 298c 68bc 4460 f53c
00000290: 4861 f83d 90cd e63d 0133 5ebd 98ae 4e3b
000002a0: e8d4 39bd fe25 383d 659a 133c 5c01 ed3c
000002b0: f723 61bd ce6e 36bc 5a97 be3d aced f43d
000002c0: 4c7c b13d 02ba 3fbd a1d9 22bd fced bf3d
000002d0: e46d 973d 6427 99bc bea4 ec3d 73aa 5ebd
000002e0: f9fb 773d 8b6c 1e3d c1f6 703d 2430 9fbd
000002f0: 6d1d 56bc 69c4 61bd 76bd b13d 9ce3 f03d
00000300: 5487 91bd bef9 9bbd ec08 993c ecf4 46bc
00000310: f96b 4ebd 7838 1bbb 08e7 733d a6b7 b03d
00000320: 776d e63d 5d1c 783d b28c 3ebc 2456 6b3d
00000330: f856 023c a86f bc3c a1b5 87bd e503 ee3d
00000340: 426c 42bd 8693 be3c 5ca0 b03d 9a22 1f3d
00000350: b533 4a3d d8ec 6fba bfff ca3b e974 9fbd
00000360: c70d fc3d 19b1 e73d d29c 19bc 61e8 e43d
00000370: f50c 5a3c 533a cabc 3925 1bbd c77f a1bd
00000380: 0361 5d3d 0bf7 a3bc 42e5 013d da33 8cbd
00000390: bb2f bdbc 17b3 143d 8554 9d3d 3d35 4dba
000003a0: e9ca f4ba 1209 b03d 0bea 70bd 418b fd3d
000003b0: 39ec ff3d c1e1 3c3d 8845 403d f62a 06bb
000003c0: ef51 fa3d 1b2b c639 506b 1c3d 9523 943c
000003d0: a52d 633d 8dea c03d 2f9b e83c e170 f9bb
000003e0: 348b e3bc e14d 913d 6bcd 893d 824d d13c
000003f0: ca2c b4bc d4a9 393c b2ca 9fbc 950e 293d
0.055707507 -0.005418781 -0.10685888 -0.080748506 -0.03496987 -0.031568702 -0.057821166 -0.038113058
0.034205496 -0.10232676 -0.017379036 0.041534122 0.079812184 0.015429443 -0.1182238 -0.032986112
-0.09534186 0.037952848 0.073269635 0.037217375 0.050895467 0.018411556 -0.09265652 -0.09643086
-0.1114036 -0.016103324 0.0067015206 -0.109105304 -0.13453369 0.060526073 -0.13230167 -0.12030925
0.013473768 -0.096457265 0.023293981 0.02073691 0.049460027 0.031882863 -0.015235478 -0.08125712
0.027125765 -0.04242783 0.07465724 -0.023328792 -0.018624648 -0.039618097 0.06989202 0.0076137735
0.038857937 0.003167227 -0.12914495 -0.07515413 -0.042275716 -0.1272465 -0.12951675 -0.06709282
0.016307956 -0.015204291 0.07371615 -0.07934549 0.065584406 0.068371646 -0.06581723 -0.011466699
-0.06150525 -0.082372904 0.039956912 0.032626662 0.06384016 0.016316457 -0.08333658 0.026836535
-0.09426457 -0.055980965 -0.10061823 -0.09858139 0.07939565 -0.031614836 0.0006892653 0.033686727
0.0457042 0.037187643 0.05207817 0.01470582 0.012813426 -0.052613024 0.011731038 -0.0096827755
-0.07245293 -0.004310188 -0.044711657 -0.040517498 -0.007033538 -0.121314004 0.04091278 0.032295205
0.08203682 -0.11909915 0.03160893 -0.052382205 0.016869273 -0.011328404 -0.05186424 -0.0839779
-0.125478 -0.009858867 0.037411205 0.014287413 -0.012318605 0.017397998 -0.046734255 0.04333679
-0.11161894 0.04650337 0.051647704 -0.10214393 -0.00051510305 -0.050307397 -0.05303542 0.03909094
0.028281998 0.019836748 -0.00074901193 -0.093345635 0.04259701 0.05322212 -0.042693906 -0.110024504
-0.06645341 -0.04364832 0.068177514 0.07932584 -0.03164867 0.09303171 0.0126764225 -0.02160721
0.030778265 0.028263219 0.09436156 -0.060970794 -0.017433628 -0.024632953 0.0929623 -0.03161913
-0.016610317 -0.01485851 -0.07242974 0.029613212 0.0033360408 0.059144747 -0.030223845 0.043261748
0.033831786 -0.06449208 0.02231278 0.038776744 0.06732196 -0.059870265 0.06424314 0.085064
-0.04166824 0.041885857 -0.014193573 0.02995313 0.1212793 0.11269677 -0.05424786 0.0031537171
-0.04536906 0.044958107 0.0090089785 0.028931312 -0.05496594 -0.011134816 0.09306212 0.11959395
0.08666286 -0.04680825 -0.03975833 0.09371564 0.07394007 -0.01869554 0.115548596 -0.05436177
0.060543034 0.038677733 0.058829073 -0.07772854 -0.013068539 -0.055118952 0.08678715 0.11762163
-0.0710589 -0.07615994 0.018681012 -0.012143355 -0.05039594 -0.002368478 0.0595465 0.08628778
0.112513475 0.060573924 -0.011630224 0.057455197 0.007955305 0.02300246 -0.0662644 0.116218366
-0.047466524 0.023263704 0.08624336 0.038851358 0.049365718 -0.0009152419 0.006195038 -0.07785971
0.12307315 0.113130756 -0.009375768 0.11177135 0.013308753 -0.024686014 -0.037877295 -0.078857
0.054047596 -0.02001526 0.031712778 -0.068458274 -0.023094049 0.036303606 0.076821364 -0.00078280625
-0.0018676195 0.0859548 -0.05881695 0.12380076 0.12496228 0.046113733 0.04694131 -0.0020472384
0.12222659 0.0003779762 0.03818828 0.018083373 0.055463452 0.09419737 0.02839431 -0.007612333
-0.027776338 0.07094932 0.067286335 0.025549654 -0.021994013 0.011331994 -0.019505832 0.041273672

fc3.bias f4 [5]
00000000: e236 3bbd a7ab c03d 46af 083d 8eda 773d
00000010: 8777 f8bc
-0.045706637 0.0940774 0.03337028 0.060511164 -0.030330433

fc1.weight f4 [128, 147]
00000000: 6e92 41bd cb0c 18bb 47de d83c 68f0 bf3d
00000010: 9a79 623d 5065 9f3c 51a5 91b9 dfb5 f0bc
00000020: a7a1 793d 1b37 913d e603 5dbc 0da1 c0bc
00000030: 039a fe3c fc80 6d3d 34e1 583d 7569 77bd
00000040: 65f9 2cbd 30e1 8e3d c4b4 9f3d ebfe 963d
00000050: bf94 11bd c37c a43c ff68 bd3b e166 383d
00000060: ee22 e3bc 420c 453d 343c 7d3d 8070 983c
00000070: 152d a93d 4b59 a43d 2904 a23d bb41 0b3d
00000080: f12f c73d 2113 8b3c 3e84 1abd 1ce3 8d3d
00000090: 569d 87bd eebc d2bc 35ca 5dbd 9da9 f0bc
000000a0: 60fd 01bd 7f8d 18bb 69a4 ba3d 2945 41bd
000000b0: c099 f5bc 1c4d 8c3d 28ae bc3d ff1a 1ebc
000000c0: 4272 903d 2624 73bc b8d0 a23a d21f 3cbd
000000d0: 793e c6ba 5902 2bbc dbb4 09bd 232d cd3d
000000e0: a083 813c 53f2 ae3d 90df 67bd be54 84bc
000000f0: 8b5b e53c 680e 843d bcf0 333d 80b3 86bd
00000100: b817 103c e6d3 a2bc 2c25 bdbc 729e b63d
00000110: 7677 56bd 0fbd cc3d 722f 84bd 141c 16bd
00000120: 0bb0 b23c 77fe fcba 42c6 d6bc 4418 96bc
00000130: 1c07 d93b d934 7d3d e826 873d 0b24 f23c
00000140: 6efe a93d 8f40 cfbc 8b5f 69bd c6bf a73d
00000150: 9fe5 933c 94df bdbc 1cdd d23c 4e72 b03d
00000160: c176 773d 53fd 983d 8d5a 84bc 73f5 62bd
00000170: d4ba ffbc d853 b63d 044a 3ebd 8165 4cbd
00000180: 42e6 85bd b640 3b3d 5d20 2dbd f870 663c
00000190: 7692 be3d ee5d 6f3c 43a4 c1bc bbd0 5e3d
000001a0: e648 d03d 1c85 0a3d 9bc2 0bbd f4ae 863c
000001b0: 77fc 47bd 9455 0abd 16c1 8b3c 2ec3 4cbb
000001c0: d00d 263d 940b b1bc a417 90bd e28e 6ebd
000001d0: 0134 2d3d d4cf 87bd 735f 6a3d ed44 9cbc
000001e0: 7ad6 583d 49a3 5e3d 306b 073c e90d 3cbd
000001f0: ca16 cabc ff5d 0bbd d6ad 293c 98a3 803d
00000200: 6318 fd3c b38c 10bc 27e6 c53d 44e8 c83d
00000210: e9b3 2cbb fd7c f63c 55b9 22bd d273 e4bc
00000220: faa6 26bd 1c90 4a3c 6665 963d 00db 03bd
00000230: 486c debb 9396 313c 8102 ba3d a3af e23c
00000240: efe2 31bc 8550 35bd 5c66 8a3d 60b6 b9bb
00000250: bea8 bc3d 8662 e6bc 2d2b 7abd ff1a 163d
00000260: 6c3f a4bb 2250 dbbc 374a a63c 1ad6 56bc
00000270: b677 5fbd cafe a33d 178b 123c 3667 43bd
00000280: 73fe a63d e891 d83d d1ef c13d 44b4 bc3c
00000290: e651 ca3d 9bce 55bc 79a1 a83d 5777 cbbc
000002a0: b559 773c b1a3 10bc 36c2 8d3d 4d8a c83d
000002b0: 2f57 983c 2bec f63d d39f 88bd 2603 033d
000002c0: cbec 9c3c b306 42ba c1ee c13b 40dc 353c
000002d0: 1733 263d 10d0 d33b 9fcb 0dbc afac 3b3d
000002e0: 4e58 503d f07c 8e39 e0d8 cd3d 9cb7 163d
000002f0: d45e b63d 767a efbc 5c7a 9f3d ef75 cf3d
00000300: 4084 923d d4d2 0b3d 780f 923c b6ec 53bc
00000310: ca9c b63c c0a2 3e3d 81ef d339 f4e1 bf3d
00000320: c57c 363d 268b da3d e202 953a 2cad a33d
00000330: 1ab0 26bc 51f3 a13c 9eb5 f53c 8c66 ae3d
00000340: 7131 abbc beb0 3a3d f50d a63d a4ca 6b3d
00000350: 239d 1d3c 156c dd3d 3c71 d2bc 8011 7dbd
00000360: 26ba 8539 92c3 933c 2669 713c 05ed b6bc
00000370: 0776 da3d 3291 463d 56e6 063c 0396 233d
00000380: 6eb4 9d3c bac2 383d e88e b33d 53f8 ee3d
00000390: f538 41bc 1edc cb3d 3ef5 e53d 8fc7 95bc
000003a0: 5cfe 413c 7397 703d 0523 7d3d 5eb9 023c
000003b0: 50a3 edbc 32d9 d83d 29bd 86bd 171c c53d
000003c0: 1553 db3d 863e 83bc 0d73 b8bc d586 933d
000003d0: 3d9c c63d 9939 5cbd 74ad 91bd 0b5b 3dbd
000003e0: 5cd4 2a3d 1666 623d ae98 123d 6b65 443d
000003f0: b97a bf3d 0fa4 3bbd 5396 353d a9e6 94bd
-0.047258787 -0.0023200985 0.026473178 0.09372026 0.05529175 0.01945749 -0.00027779725 -0.029383598
0.06094518 0.07090589 -0.013489699 -0.023514295 0.031079298 0.057984337 0.052949145 -0.060403306
-0.04223003 0.06976545 0.0779815 0.073728405 -0.035542246 0.020079022 0.005780339 0.045019988
-0.027726617 0.048107393 0.061824992 0.018608332 0.08260552 0.08024844 0.0791095 0.033998232
0.09725941 0.016976895 -0.037723772 0.06928083 -0.06621806 -0.025724854 -0.054147918 -0.029377753
-0.031735778 -0.0023277698 0.0911339 -0.047185097 -0.02998054 0.06850645 0.09212905 -0.009649991
0.07053043 -0.014840161 0.0012421822 -0.045928784 -0.001512482 -0.010437571 -0.033619743 0.10018375
0.015809834 0.085423134 -0.05660969 -0.01615369 0.027997753 0.0644806 0.043930754 -0.06577206
0.0087947175 -0.019876432 -0.023089014 0.0891694 -0.05236002 0.099969976 -0.06454362 -0.03664787
0.02181246 -0.0019301911 -0.026217584 -0.018322118 0.006623162 0.061817978 0.06599218 0.029558202
0.08300482 -0.025299339 -0.056975883 0.08190875 0.018053828 -0.0231779 0.025740199 0.08615552
0.060415987 0.07470193 -0.01615646 -0.05540986 -0.031217016 0.08902711 -0.046457306 -0.04990149
-0.06538059 0.04571601 -0.042267192 0.01406502 0.09305279 0.014609797 -0.023637896 0.05439828
0.10170154 0.03381835 -0.034121137 0.016440846 -0.048824754 -0.03377302 0.017059844 -0.0031244266
0.040540516 -0.021611966 -0.07035759 -0.058241732 0.042285923 -0.06631437 0.057219934 -0.019075835
0.052938916 0.05435494 0.008265302 -0.045911703 -0.02466907 -0.03402519 0.010356387 0.06281203
0.030895418 -0.008822608 0.09663039 0.09809926 -0.0026352352 0.030088896 -0.039727528 -0.027887259
-0.040686585 0.01236346 0.07343559 -0.032191277 -0.0067878105 0.010839122 0.09082509 0.02767164
-0.010857328 -0.044266243 0.06757805 -0.0056674927 0.092118725 -0.028123152 -0.061076332 0.03664684
-0.0050124433 -0.026771609 0.02029906 -0.013112569 -0.054557525 0.080075815 0.008944294 -0.04770585
0.08154001 0.105747044 0.094695695 0.023035176 0.09878902 -0.013049747 0.082339235 -0.02483718
0.015097071 -0.00882809 0.069218084 0.09792004 0.01859626 0.12056764 -0.06671109 0.031985424
0.01915588 -0.0007401511 0.0059183543 0.011099875 0.040576067 0.006464012 -0.008654504 0.04581898
0.050865464 0.00027177436 0.10051131 0.036796197 0.08904806 -0.029233199 0.0778701 0.10129916
0.07154131 0.03413661 0.017829642 -0.012934854 0.02229156 0.04654193 0.000404235 0.09369269
0.044552583 0.10671072 0.0011368657 0.07992014 -0.010173822 0.019769343 0.029993828 0.08515653
-0.020897599 0.04557871 0.08108131 0.0575663 0.009619984 0.10811631 -0.02568876 -0.061784267
0.00025506428 0.018037591 0.014734542 -0.022329817 0.10667043 0.048478313 0.008233627 0.039937984
0.019251075 0.04510758 0.087674916 0.11668458 -0.011793365 0.099540934 0.11228417 -0.018283634
0.011840429 0.058738183 0.061800975 0.007978765 -0.029008538 0.10588302 -0.06579048 0.09624498
0.10709206 -0.016021024 -0.022515798 0.072034515 0.09697769 -0.053765867 -0.07113162 -0.046229403
0.041706428 0.055273138 0.035790138 0.047948282 0.09349579 -0.045810755 0.044332813 -0.072705574

fc1.bias f4 [128]
00000000: d697 6f3d d4f0 253b 57e6 cd3d fb97 ec3c
00000010: 3c31 893d b221 8f3d 854a f0bc 9347 21bd
00000020: e7e4 903c 31fb bb3c cef7 27bd db3f 383c
00000030: 1222 c23d f468 543d 7234 c13a 9b6a a93d
00000040: 39ce 583b 0595 a53d a0da 18bd bd95 cd3d
00000050: b1e2 eabc a990 00bd ef9e ce3d 0368 9fbd
00000060: c72f 303d dd4a 363d 77db ee3c b129 eebc
00000070: a877 af3d 80c9 e93d 7da3 ba3c 77a4 73bc
00000080: 0e49 d3bc 0c94 e53d 78a8 bd3d 3258 0fbc
00000090: 1d39 a13d ff6d 9cbc 680e cdbc 4802 bdbc
000000a0: ec86 a13d 258e ca3d b935 c33d 44ac cb3d
000000b0: 1b65 e4bc 1e40 bf3d b9d0 a83d c307 ca3d
000000c0: 50ca 073d 3159 e53d 3b9d 3a3d b167 b93d
000000d0: bdf6 b23d 2df4 3a3d 62c6 a83d aba6 743d
000000e0: 4adf 683d 11d3 dc3d dcbb 1ebd 78a4 ca3d
000000f0: 2fbc 103c 3c35 fd3c 91ba 3abc d401 a83d
00000100: e6c2 6cbc 05ff e23b 768a af3d 40ae dd3d
00000110: be09 f9bc b2a8 273c 9af7 3d3d ee6f cd3d
00000120: 3a3c 8c3d e31a af3d f3de b5b9 9861 5a3d
00000130: c1c4 aa3d 73ab c03d ce88 c53c bbcf b5bc
00000140: c6b5 d43d a782 aa3d afb6 043d 87e9 553d
00000150: 1913 0ebd f91d e3bb 2ef0 723c c487 87bc
00000160: 10d5 8e3c 0d9c 01bd 9c4a 393d 0c99 b33d
00000170: f7bc 373d 9005 a33b 5b94 a2bc f077 ba3d
00000180: 3ad4 a5bc 24ea 373d bda8 513d e969 323d
00000190: 1bc2 183d cead 853d 2916 693d 92a1 083b
000001a0: 2ae0 163d 2271 6d3d 3d85 f73c e0e6 1e3d
000001b0: 1e6d d93d 0369 2c3c 30da d83c 2a34 053c
000001c0: b978 843c 091f 783d b6ec 7f3d ed1e de3c
000001d0: 8812 a73d fcd3 10bd efca 593d 7137 d2bc
000001e0: e987 d23d f6ae be3d 1fca d03c 065c 2a3a
000001f0: 0149 253d 4d16 0abd 9f41 0d3d cffd b8bc
0.05849441 0.0025320547 0.100536995 0.028881064 0.06698844 0.06988849 -0.029332409 -0.0393749
0.017687274 0.022946926 -0.04100781 0.011245693 0.09479155 0.051857904 0.0014740361 0.082722865
0.0033081903 0.08085064 -0.037317872 0.10038326 -0.028672548 -0.03138796 0.10088908 -0.077835105
0.043014314 0.04450499 0.029157383 -0.029072614 0.085677445 0.11415386 0.022783035 -0.014870754
-0.025791671 0.11209878 0.092606485 -0.008749055 0.078722216 -0.019095419 -0.025031283 -0.023072377
0.078870624 0.09890393 0.09531731 0.099449664 -0.027880242 0.09338401 0.08242936 0.09864762
0.033151925 0.111986525 0.045560103 0.09052981 0.08738468 0.04564302 0.082409635 0.05972926
0.05685357 0.10782445 -0.038753375 0.09894651 0.008833929 0.030909173 -0.01139702 0.08203474
-0.014450764 0.0069273734 0.08571331 0.10824251 -0.030400153 0.010233091 0.04637871 0.100311145
0.06847425 0.0855005 -0.0003468912 0.05331573 0.08338309 0.09407701 0.024113085 -0.02219378
0.10386233 0.08325701 0.032400783 0.052224662 -0.03468618 -0.0069310633 0.014827771 -0.01654423
0.01743558 -0.031642962 0.04523717 0.08769426 0.044857945 0.0049750283 -0.019846132 0.091049075
-0.0202428 0.04490103 0.051186312 0.043558035 0.03729449 0.06527291 0.0569059 0.0020848257
0.036834873 0.05796922 0.0302149 0.0387944 0.106165156 0.010523084 0.026471227 0.008130113
0.016170846 0.060576472 0.062481605 0.027114356 0.081578314 -0.035358414 0.05317205 -0.025661202
0.10279829 0.09310715 0.025487004 0.0006498698 0.040352825 -0.033712674 0.03448641 -0.022581963

fc2.weight f4 [128, 128]
00000000: a454 843d 7daa 7a3d b42f 20bd b87e 48bd
00000010: db5f c4bd a4ad 96bd 3a46 01bc bf83 303d
00000020: 0956 85bd 7c8c 0cbd fb7a bcbc fb9d 723d
00000030: 871f 4e3c 35b1 6cbc 358e 233c 002e 963d
00000040: 0387 29bd 1bcf 46bd db7c 4ebd 3a5a 8f3d
00000050: 42cc 643d 99b6 84bd fa0d 6b3d 756b fa3c
00000060: 91a2 3c3d 8293 86bd 7c97 6f3c 28a2 8dbd
00000070: be0d 27bd a27d a3bc e7a2 8cbc 6b2d 903c
00000080: b001 8bbd 7457 5d3d f7c9 813b 9df5 66bd
00000090: 533a 19bd 3c34 b3bc 2122 b0bd 2e21 b3bd
000000a0: 968d b1bd 6842 29bd 35f4 92bd 9cb8 aabd
000000b0: 4f61 bdbd ad31 c3bd 81ba 893d 768b acbd
000000c0: aaaa afbb c605 333d e96d 5d3d 8677 ea3c
000000d0: ce04 813d 7af7 c0ba b4fa 803b 15ab 1cbd
000000e0: 259e 583d cd4b 973b 8716 56bd 2b4e a0bd
000000f0: 73ff 403c 5ffb 903d 5120 0f3d 2956 7cbd
00000100: ae1f cabd 5a76 333d 76a9 3f3d 5015 d6bb
00000110: 0422 babd 25b1 4cbc d2c8 5d3d 4e03 9fbd
00000120: 5a5a 3cbd 9027 14bd b23d 0e3d 5b90 953d
00000130: 7535 3a3c 656a 78bd 365b 2d3d a29e 89bc
00000140: 9af9 dbba a821 a0bd 367e 563c c746 4ebd
00000150: ab1c bbbc 1fe9 0e3d 1855 483d 91b4 823d
00000160: 6a3a b0ba 564f f3bc 2eb8 7e3d 989e 913d
00000170: ee26 6c3c 245b 8ebd ee0b d0bd 2441 81bd
00000180: b543 ffbc 1c6a c4bd ebdd 17bd 6955 8bbd
00000190: e218 283d 3a44 01bd 45b6 4abd 077a 01bd
000001a0: b28a 00bd 9358 f43c faba 97bc d6fb 06bd
000001b0: 9c60 643c 4262 65bd 1063 c4bd e12e 8e3d
000001c0: 05d0 2ebd 6f2d 7e3d 1b8d 19bd 1317 d8bc
000001d0: cbd8 86bd f87f 70bd 6822 75bd 08af 83bd
000001e0: dfd3 78bc f4bb 92bc fcdc ae3c 3883 663d
000001f0: 7487 aabd 22ee 963b 3594 b6bd acf2 ee3c
00000200: 4991 603d 5484 e6bc 8f70 24bd 0684 703d
00000210: 098f ccbd cdc7 a4bd 9800 263d 96fb 9a3d
00000220: 06ee 8c3c f494 643d 42f4 4e3d 0af5 9bbd
00000230: 5d92 033d 8ca4 aabd f166 f23c 556c 8f3d
00000240: a160 ff3c d443 aabc 7838 613d 2996 47bd
00000250: f27c adbc cce1 98bd eccb 5f3d fce2 a13d
00000260: 7842 d3bb bea5 563b cf1c 04bb 2efd 813d
00000270: d36f b9bd e432 a8bd 05a4 083c 3539 b2bc
00000280: 1d1b 923d 7416 0b3d d5ca 52bd 7cf9 4abd
00000290: 6953 88bd e165 2dbd 6524 97bc 5b62 53bd
000002a0: 6a02 833d aebf 203d 1098 193d 5b86 a7bd
000002b0: f2fc 6dbd e9bc 633d 764d 3cbb 022b cdbc
000002c0: 42de c3bd c639 233c d052 573d 7829 713c
000002d0: 129e de3c 6e8d 3ebc 0b9a 16bb 1ec1 823c
000002e0: 50e7 73bd 43c3 92bd ea9a 823d fb11 f53b
000002f0: ab9f 8b3c 66f8 543d 475e 6abd 4a54 863c
00000300: 0264 80bd 97a4 4e3d 1048 423d 8d22 ac3c
00000310: 381e 4ebd ee74 20bd ae4a 1ebc 854c a2bd
00000320: 20aa 64bc a6ed 7a3d a90e 123d 3a37 a1bd
00000330: 206e 56bd bdcf 04bd 0d39 7a3c 9eb9 d5bc
00000340: 023c 9fbd 75cb 91bc 306c 5b3d 25a6 d1bc
00000350: a5a2 10bd b304 c23c 49f2 d239 8edb 8abd
00000360: b8cb 10bd 9813 803d 5ba1 51bd 57b0 d93a
00000370: f8cf 64bc d009 98bd 3a19 b0bc 0125 12bd
00000380: d9e9 b4bc 8814 a5bd 2dd6 6dba a43f 133d
00000390: e3f0 b6bd 5334 eabc 30fa d63c 61ec be3c
000003a0: 72e4 023d 7f97 94bd 36f4 663d 8631 60bc
000003b0: aa62 303d 3f71 d8bc f56a 003d 7dbe c6bd
000003c0: 0f24 f53c 43bd 7ebd d17e e43c 8282 d0bc
000003d0: 021b 3c3d 13e1 d43b 5fab 2fbb 163b 31bd
000003e0: 9dce 433d 8f30 003d 3ced 1bbd 0193 9b3b
000003f0: 1ac6 4d3d c273 f43c f39c 403d 8857 9cbd
0.064614564 0.061197747 -0.039107993 -0.048948973 -0.095885955 -0.07357338 -0.0078902785 0.043094393
-0.065105505 -0.034313664 -0.02300786 0.059232693 0.012580759 -0.014446546 0.009982635 0.073329926
-0.041388523 -0.048537355 -0.05041204 0.06999631 0.055858858 -0.0648014 0.057386376 0.030568818
0.046053473 -0.06571104 0.014623519 -0.069156945 -0.04078459 -0.019957367 -0.017167522 0.017599782
-0.06787431 0.05403848 0.0039608437 -0.05638658 -0.037409138 -0.021875493 -0.086002596 -0.08746563
-0.086695835 -0.041323096 -0.07175485 -0.08335993 -0.09247076 -0.09530959 0.06725026 -0.084250376
-0.005360921 0.043706678 0.054059897 0.028621446 0.062997445 -0.0014722191 0.003936136 -0.038249094
0.052885193 0.0046171905 -0.052267577 -0.07827409 0.011779654 0.07079195 0.03494293 -0.061605606
-0.09869324 0.04381404 0.04679247 -0.0065333024 -0.09088519 -0.012493406 0.054146595 -0.07764302
-0.045984603 -0.036170542 0.034726806 0.07302924 0.011365284 -0.06064834 0.042323314 -0.016799275
-0.0016782761 -0.078189194 0.0130916145 -0.050360467 -0.022840818 0.03489029 0.048909277 0.063820966
-0.0013445143 -0.029700916 0.062187366 0.071103275 0.014413578 -0.069509774 -0.101585254 -0.06311253
-0.031160215 -0.09590551 -0.03707687 -0.068034 0.041039355 -0.031559207 -0.049490232 -0.031610515
-0.03138227 0.029827392 -0.018521775 -0.032955013 0.013939049 -0.05600191 -0.09589207 0.06942535
-0.04267885 0.062055048 -0.037488084 -0.02637819 -0.06584319 -0.05871579 -0.059847265 -0.06429869
-0.015187233 -0.017911889 0.021345608 0.056277484 -0.08326617 0.0046060244 -0.08914987 0.02916845
0.054826055 -0.02813927 -0.040146407 0.058719657 -0.09988219 -0.080459215 0.04052791 0.075675175
0.017203342 0.055806115 0.05052591 -0.07615097 0.032122005 -0.08332166 0.029590102 0.070030846
0.031174006 -0.020784296 0.054985493 -0.04872719 -0.021177743 -0.07464942 0.054637834 0.07904622
-0.0064471327 0.0032752599 -0.0020158773 0.06347118 -0.09054532 -0.082128316 0.008339887 -0.021755794
0.07134078 0.03395696 -0.051462967 -0.049554333 -0.06656534 -0.042333487 -0.018449971 -0.05160747
0.06396945 0.0392453 0.037498534 -0.08179923 -0.058102556 0.05560008 -0.0028732694 -0.025044922
-0.09563877 0.009962505 0.05256921 0.01471936 0.027174983 -0.011630399 -0.002298 0.015961226
-0.05954677 -0.071661495 0.06377204 0.00747895 0.017043909 0.051994704 -0.057218816 0.016397614
-0.06269075 0.050449934 0.047432005 0.021012569 -0.050321788 -0.039174013 -0.00966136 -0.07924751
-0.013956577 0.061261795 0.035658512 -0.07871862 -0.052351117 -0.032424677 0.015272391 -0.026089486
-0.077751175 -0.017797211 0.053569973 -0.02559192 -0.03531136 0.023683881 0.00040234838 -0.06780158
-0.03535053 0.06253737 -0.05117927 0.001660834 -0.013965599 -0.074237466 -0.021496404 -0.03567982
-0.022084164 -0.08060557 -0.0009072747 0.035949364 -0.08932664 -0.028589403 0.026242346 0.023306074
0.031956144 -0.07255458 0.05638524 -0.013683682 0.043062843 -0.026421187 0.031352002 -0.097043015
0.02992442 -0.062192213 0.027892502 -0.025452856 0.045924194 0.0064965575 -0.0026805026 -0.04326924
0.047804464 0.03129631 -0.03806804 0.004747749 0.050237752 0.029840354 0.04702468 -0.07633883

fc2.bias f4 [128]
00000000: 009d 473d 4bdf bf3a 70b8 a2bd 1089 543c
00000010: 55b7 c9bc 88b2 813d 9266 e4bc 9cb9 ca3c
00000020: d911 643c 8346 773d e39b b0bd ad90 433d
00000030: 4f90 eabc ecea a83d 249f 5dbd 696b c93d
00000040: 8234 6c3c 789e be3d cd39 753d b1f9 8dbb
00000050: 8c80 313b dd98 d7bc 2d6e 9dbd cd16 af3d
00000060: 9d25 dd3d f2a6 44bd 09fc 863d deb9 813a
00000070: b4cd 403d 108b ecbc f97e a73d d9fc 16bd
00000080: 5f65 52bd 2b77 c53c a5d8 49bd f20c dcbb
00000090: acf7 963d 3cf7 b63d cc07 a0bd d0bd 86bd
000000a0: 91c1 b43d 7ee0 09bd 1001 2c3d 8749 743d
000000b0: 7238 4f3d 7a5e 88bd d50c 013d 8400 99bd
000000c0: ffc6 583d 9e5f 1f3d a54d 183d 99e9 01bd
000000d0: 1dbd 8a3d f5e8 a7bc f1fd f73c f50d d73d
000000e0: bd0a 8dbc 2f8c d03d f667 b5bd 4651 0e3d
000000f0: d103 023d d885 c33b 5a66 443d 9e8d 60bd
00000100: 9d3f 163d a8b4 893d 11f5 d33c 3e71 283c
00000110: c3e8 e23d b86e e63c e7fd 923d db9a a4bd
00000120: 12b0 a2b7 7766 dc3d 39c2 0dbd f84a 4d3c
00000130: 2640 96bd 93ca 843d e822 25bd 72d5 f63c
00000140: ba4d fdbc 8a47 0c3d 572c 91bd 64c0 40bd
00000150: b0fe 423d 26a8 a13d 1cdf b53d 0829 003d
00000160: 314e 5b3d 6487 82bd f419 9a3d f5ff c23c
00000170: d630 943d d654 24bd 17dd c1bd 2e76 12bc
00000180: 7d0b 463d f751 49bd b004 003d 4526 35bd
00000190: f04f 90bd d04f f63c 298a 453d 516f 27bc
000001a0: 31a9 8e3c 544f 983d 811f 5fbd 65cc cf3d
000001b0: a3cd a3bd 179a ec3c e05a 56bc fb89 1e3d
000001c0: f74a e1bc e52d c4bc 2312 a93d ad81 b0bd
000001d0: 1268 6a3d 33ae 0ebd 1732 4cbd ccf0 b8bc
000001e0: 9dbe a53d 453a c63d 7cc1 bf3d 39f3 40bd
000001f0: e226 59bd 66b3 e3bc cea0 e93b 7285 03bc
0.04873371 0.001463869 -0.07945335 0.012972131 -0.024623552 0.0633288 -0.02788094 0.024746709
0.013920271 0.06036998 -0.08623483 0.047745395 -0.028633265 0.08247933 -0.054106846 0.0983494
0.014416816 0.09307569 0.059869576 -0.004332744 0.0027084677 -0.026318008 -0.0768703 0.08549271
0.1079819 -0.048010774 0.06591041 0.0009897312 0.047071174 -0.028874904 0.08178515 -0.036862228
-0.051366206 0.024104675 -0.049278874 -0.0067154104 0.073714584 0.08933875 -0.07813987 -0.065791726
0.08825982 -0.033661358 0.0419932 0.059640434 0.05059094 -0.06658645 0.03150638 -0.074708015
0.052924152 0.038909547 0.037183423 -0.031716917 0.06774352 -0.020496825 0.030272456 0.10500709
-0.017217034 0.10182988 -0.088577196 0.034745477 0.03174192 0.005966883 0.047949173 -0.054822557
0.03668176 0.067239106 0.025873693 0.010280905 0.11079552 0.028128967 0.07177334 -0.08037349
-1.9393894e-05 0.10761731 -0.034609053 0.012530081 -0.07336454 0.064839505 -0.040316492 0.030131076
-0.030920852 0.034247912 -0.07088535 -0.047058478 0.04760617 0.078934 0.08880445 0.03128913
0.053541366 -0.0637348 0.075244814 0.02380369 0.07235877 -0.04011997 -0.09465998 -0.008939309
0.0483508 -0.049150433 0.03125447 -0.04422595 -0.07046497 0.030067354 0.048227463 -0.010219411
0.017414661 0.07437006 -0.054473404 0.10146407 -0.079982065 0.02888207 -0.01308319 0.038705807
-0.027501566 -0.023947665 0.082554124 -0.08618484 0.057228155 -0.034834098 -0.049852457 -0.022575758
0.08092997 0.09679083 0.09363076 -0.047106955 -0.053015597 -0.027795505 0.007129765 -0.008027421
