logs/maddpg_checkpoint_ep50.pth (torch, 585586 bytes, 24 tensors)

fc1.weight f4 [128, 147]
0	0xbcfdd4ae	-0.030985203
1	0xbd500911	-0.050789896
2	0x3c6d03b0	0.014466211
3	0x3d8e6f5b	0.06954833
4	0x3d47acac	0.048748657
5	0x3cf1fff3	0.029540991
6	0x3d146e49	0.03623799
7	0x3d70b65c	0.05876766
8	0xbd809b8a	-0.06279667
9	0xbd8c91a4	-0.06863716
10	0xbcd4c374	-0.025972106
11	0xbcbe9203	-0.023262983
12	0xbc24369c	-0.0100227855
13	0xbd0f5e36	-0.035001956
14	0x3d8e288c	0.069413275
15	0x3ca8e9f4	0.02061937
16	0xbc608dc8	-0.013705678
17	0xbc4869c4	-0.012232248
18	0xbd74478b	-0.05963854
19	0xbd9fab13	-0.07796302
20	0x3d4c1e2a	0.049833454
21	0x3d754828	0.059883267
22	0x3b6adb58	0.0035836305
23	0x3bcd25aa	0.0062605934
24	0x3d7fe9ea	0.062478937
25	0xbaf1cb00	-0.001844734
26	0xbdac3017	-0.0840761
27	0xbd781150	-0.060563385
28	0xbd7ece30	-0.062208354
29	0x3caceae7	0.021108104
30	0x3d9ebe08	0.07751089
31	0x3c77bff0	0.015121445
32	0xbda22084	-0.07916358
33	0xbca300fd	-0.019897932
34	0xbc9d88b4	-0.019230224
35	0xbceeef95	-0.029166976
36	0x3cee1d73	0.029066777
37	0xbc843b48	-0.016141549
38	0x3d3ae1ce	0.0456255
39	0xbcda2f90	-0.026634008
40	0x3d5cad4c	0.053876206
41	0x3d3789c0	0.044809103
42	0x3c227103	0.009914639
43	0xbcb82628	-0.022479132
44	0x3c8ec668	0.017428592
45	0x3d80ba57	0.062855415
46	0x3bdf0762	0.0068063
47	0xbd8f926f	-0.07010352
48	0xbc865a85	-0.016400585
49	0xbd505140	-0.050858736
50	0x3d16a934	0.03678246
51	0xbcb058c6	-0.021526705
52	0xbd9f34f6	-0.07773773
53	0x3d52bc1f	0.051448938
54	0x3d85bd6a	0.065302685
55	0xbd69081c	-0.0568925
56	0x3d074dbe	0.033033125
57	0xbc513c35	-0.012770702
58	0x3c6e9fd6	0.014564475
59	0x3d9906b9	0.07471985
60	0xbd026afb	-0.031840306
61	0xbd2c9dcb	-0.04214267
62	0x3d932add	0.0718591
63	0x3ca07b26	0.019589972
64	0x3bbfc408	0.005852226
65	0xbd42cb1e	-0.04755699
66	0xbd8ab9d1	-0.06773723
67	0xba4e30b7	-0.00078655354
68	0x3d23805a	0.039917327
69	0x3c037db5	0.008025576
70	0xbc17c72c	-0.009263795
71	0x3c652eac	0.013988178
72	0xbd2587a3	-0.040412556
73	0xbca1e5fd	-0.019762987
74	0x3d9815e5	0.07426051
75	0xbd0eeef7	-0.034895863
76	0x3d80efea	0.0629576
77	0x3d7ef2b8	0.062243193
78	0x3d4039f5	0.046930272
79	0x3d687370	0.056750715
80	0x3d893ddc	0.06701252
81	0x3d8059e8	0.06267148
82	0xbd1df78b	-0.038566153
83	0x3d75ca2f	0.06000727
84	0xbcc75300	-0.02433157
85	0xbd8e672f	-0.069532745
86	0xbb3ac4ff	-0.0028498766
87	0xbc79b228	-0.01524023
88	0xbd865073	-0.06558313
89	0x3d58d51b	0.05293761
90	0x3cfb2dde	0.03066152
91	0x3bf49b95	0.007464836
92	0xbd655a67	-0.055994418
93	0xbd6e5275	-0.058184106
94	0xbd1d88e1	-0.038460616
95	0x3c8c580e	0.017131831
96	0xbd605c5e	-0.05477559
97	0x3d3871fb	0.045030575
98	0x3d44c8f2	0.0480432
99	0xbd6f680e	-0.058448844
100	0xbc51b290	-0.01279892
101	0x3d33261d	0.04373752
102	0x3d1ab89b	0.03777371
103	0xbc0d5db8	-0.008628301
104	0x3cb96d8e	0.022635248
105	0x3d5f9a82	0.05459071
106	0xbda51801	-0.08061219
107	0x3b56dadd	0.0032784261
108	0x3c86a35c	0.016435318
109	0xbcce7d56	-0.02520625
110	0xbd7c40de	-0.0615853
111	0x3d033df9	0.032041524
112	0x3d71d9c4	0.059045568
113	0x3d966e6a	0.073452786
114	0xbd87e767	-0.06635933
115	0x3d9e1207	0.07718282
116	0xbc398b80	-0.011324763
117	0x3d131d48	0.035916597
118	0x3cf211df	0.029549537
119	0xbd6626b8	-0.05618927
120	0xbd93241d	-0.071846224
121	0xbd49fd9b	-0.049314123
122	0x3d8a4c29	0.06752808
123	0x3cc613bf	0.024179338
124	0x3d922789	0.07136447
125	0xbd52059e	-0.05127489
126	0x3da0a58b	0.07844075
127	0x3d8105bb	0.06299921
128	0xbd83277a	-0.06404014
129	0xbb915232	-0.0044348473
130	0xbd69334c	-0.056933686
131	0xbd69e557	-0.05710348
132	0x3cb4a2ce	0.022050288
133	0xbc8e69d4	-0.017384447
134	0xbd96d144	-0.07364133
135	0xbcc91cab	-0.024549803
136	0x3d4d1c50	0.05007583
137	0xbd9db065	-0.0769966
138	0xbda49ef8	-0.080381334
139	0xbda451b2	-0.08023395
140	0x3d2acfbd	0.04170202
141	0x3d4ee2ba	0.050509192
142	0xbd2cb11d	-0.042161096
143	0xbd61ae32	-0.055097766
144	0xbc900e1a	-0.01758485
145	0xbca898fa	-0.020580757
146	0x3a2e30ae	0.0006644827
147	0x3d461a54	0.048364952
148	0x3b87f23f	0.004148751
149	0xbcc693ce	-0.0242404
150	0x3dab0fad	0.08352599
151	0x3d4d5b3c	0.050135836
152	0xbd2189e0	-0.03943813
153	0x3be8992d	0.007098338
154	0x3cd7e9f5	0.026356677
155	0x3cad26b0	0.021136612
156	0xbbc4c562	-0.006004975
157	0xbd319e2e	-0.043363743
158	0xbd8d1b73	-0.06890001
159	0x3d1ced2d	0.038312126
160	0x3d7c26d0	0.061560452
161	0xbbd2e716	-0.006436239
162	0xbd87edad	-0.0663713
163	0xbcac9f7c	-0.021072142
164	0x3ca74040	0.020416379
165	0x3d3e2c3b	0.0464289
166	0xbd6aec2b	-0.057354134
167	0x3d8b266e	0.06794439
168	0x3d8a748e	0.06760512
169	0x3cb1a008	0.021682754
170	0x3d2a2eea	0.041548647
171	0x3a8df42e	0.0010830218
172	0x3da92b94	0.08260265
173	0x3c08ef03	0.008357766
174	0xbd628400	-0.055301666
175	0xbd54849e	-0.051884286
176	0xbd6c099b	-0.057626348
177	0xbca8d41f	-0.02060896
178	0xbd4c3c12	-0.049861975
179	0x3d6afc11	0.057369296
180	0xbd1f9d70	-0.038968503
181	0x3c1b5368	0.009480335
182	0xbcf2f205	-0.02965642
183	0xbc4d8e77	-0.012546173
184	0x3da1002a	0.078613594
185	0xbd10bd4a	-0.03533677
186	0xbd767854	-0.060173348
187	0xbd66a03c	-0.056305155
188	0x3c82c2f6	0.015962105
189	0xbd384c28	-0.044994503
190	0x3bbf4553	0.0058371215
191	0x3c602910	0.013681665
192	0xbd2f7b88	-0.042842418
193	0x3dab2547	0.083567195
194	0xbd936728	-0.0719741
195	0xbd905ef8	-0.07049364
196	0x3c93a491	0.018022807
197	0xbcd895f2	-0.026438687
198	0x3dadf8a0	0.08494687
199	0xbd451543	-0.04811598
200	0xbd184247	-0.037172582
201	0xbd408570	-0.047002256
202	0x3ca1df50	0.019759804
203	0xbd806f49	-0.06271226
204	0xbd7fe3e2	-0.062473185
205	0x3c04b3db	0.0080995215
206	0x3cac9edb	0.021071842
207	0xbd77dcd1	-0.06051332
208	0xbb139c4c	-0.002252358
209	0xbd32e9a7	-0.04367986
210	0xbc5d1134	-0.013492871
211	0x3b409552	0.0029385877
212	0x3cc1082d	0.023563469
213	0xbbe5b225	-0.007009762
214	0x3d90631b	0.07050153
215	0x3d7ee3bd	0.062228907
216	0x3b801f85	0.0039100074
217	0x3b89ccab	0.0042053065
218	0x3cbfa51c	0.02339416
219	0x3d8d3999	0.068957515
220	0xbd72da59	-0.059290264
221	0x3d88ef5d	0.0668628
222	0x3cf7f9d4	0.030270495
223	0xbab31016	-0.001366141
224	0xbd65633a	-0.056002833
225	0x3d8137b4	0.06309453
226	0xbc8ee636	-0.017443758
227	0x3db363d7	0.08759277
228	0xbd37a0ec	-0.0448312
229	0x3d84cd6a	0.06484492
230	0x3d29645f	0.041355487
231	0xbd0ca408	-0.03433612
232	0xbd29d841	-0.041466
233	0xbc20239a	-0.009774113
234	0x3d200b69	0.03907338
235	0xbd9b7360	-0.075903654
236	0xbd99632b	-0.07489618
237	0x3d1660e5	0.0367135
238	0xbd94790b	-0.072496496
239	0xbc55c3ae	-0.013047142
240	0x3d711ef8	0.058867425
241	0x3d7b1258	0.06129679
242	0x3d1703f8	0.03686902
243	0x3c19016c	0.009338718
244	0xbd5ae552	-0.053441353
245	0xbbddb80d	-0.0067663253
246	0x3be6f749	0.0070485217
247	0xbd5d5f40	-0.054045916
248	0x3d45a1b8	0.04824993
249	0x3d923105	0.07138256
250	0xbc401fd0	-0.011726335
251	0xbd5d89ee	-0.054086618
252	0xbd6d69eb	-0.05796234
253	0xbcd190b2	-0.025581691
254	0xbd666daf	-0.056256946
255	0x3daa6564	0.0832012

fc1.bias f4 [128]
0	0x3b149e33	0.0022677302
1	0xbd49e4ae	-0.04929035
2	0x3cc3b296	0.023888867
3	0x3c677fde	0.014129607
4	0x3d95b4ae	0.073098525
5	0xbd1de6d1	-0.0385502
6	0x3d2b21e1	0.041780356
7	0xbd30f468	-0.043201834
8	0x3cfde2e4	0.030991979
9	0x3cb7c893	0.022434508
10	0x3c963496	0.018335622
11	0xbd7aeffa	-0.061264016
12	0xbd8c02bf	-0.06836461
13	0xbd0dd8d9	-0.03463063
14	0xbc0bf76f	-0.0085428795
15	0xbd6ff53a	-0.058583476
16	0xbd4dddb8	-0.050260276
17	0x3d676bb2	0.05649919
18	0x3c5cecb3	0.013484168
19	0xbd6516f8	-0.055930108
20	0xbce0ff34	-0.02746544
21	0x3c1c6d67	0.009547568
22	0x3dae3e53	0.08507981
23	0xbd4e7f53	-0.050414395
24	0x3c8cdde4	0.01719565
25	0x3d844171	0.064577945
26	0x3bad2b24	0.005284684
27	0x3db1f501	0.08689309
28	0xbd51813a	-0.05114863
29	0xbd09a476	-0.033604108
30	0xbd4110cb	-0.047135156
31	0xbc744dc8	-0.014911123
32	0xbcd1f357	-0.025628729
33	0xbd8ced36	-0.06881182
34	0xbd676bf7	-0.056499448
35	0x3d6ed650	0.058309853
36	0x3cfd8f5f	0.030952154
37	0xbd9ec01c	-0.07751486
38	0xbd55e693	-0.052221846
39	0xbd9d7267	-0.07687836
40	0xbba75211	-0.0051062186
41	0xbd887ef5	-0.0666484
42	0x3dad85dc	0.08472797
43	0xbcea0372	-0.028566096
44	0x3c8ab309	0.016931074
45	0xbc82132f	-0.015878288
46	0x3ca444fb	0.020052424
47	0x3d59008a	0.05297903
48	0xbb094f6c	-0.002095188
49	0x3cae106a	0.021248061
50	0xbd76c6e1	-0.06024826
51	0xbd91478c	-0.070937246
52	0x3b0cdb32	0.0021492955
53	0x3d39c969	0.045358095
54	0x3bfbe935	0.0076877126
55	0xbc57d1db	-0.013172592
56	0x3c1d95cd	0.009618235
57	0x3da358f1	0.079759486
58	0x3d4bfd81	0.049802307
59	0xbbe922be	-0.0071147373
60	0x3d78dd86	0.060758136
61	0xbc4a21a5	-0.012337123
62	0xbc71ac00	-0.014750481
63	0xbd24b094	-0.04020746
64	0xbd3ce643	-0.046118032
65	0xbc341339	-0.010990911
66	0xbd9bb7aa	-0.076033905
67	0xbd9ada05	-0.07561115
68	0x3d350fe9	0.044204626
69	0xbb9b5feb	-0.004741659
70	0xbd7cb17c	-0.0616927
71	0xbd986601	-0.07441331
72	0x3d11d822	0.03560651
73	0x3d6b8af8	0.057505578
74	0x3b44ecfa	0.0030048476
75	0xbd96f672	-0.073712245
76	0x3cc9a3b7	0.024614198
77	0x3cfc9e2f	0.030837147
78	0xbc938297	-0.018006606
79	0xbda61264	-0.081089765
80	0xbd38f6aa	-0.045157112
81	0x3d49f709	0.049307857
82	0x3bfe15fe	0.0077540865
83	0xbb33d55e	-0.002744041
84	0x3d790bef	0.060802396
85	0xbd500686	-0.05078747
86	0xbc2c6e1b	-0.010524298
87	0x3ccedda6	0.025252175
88	0xbc06de9c	-0.008231785
89	0x3d4ce4d7	0.050022926
90	0xbd0ad326	-0.033892773
91	0xbd179f21	-0.03701699
92	0xbb56102f	-0.0032663455
93	0x3c8314aa	0.016001064
94	0x3d9d1ac9	0.076711245
95	0x3d6c48f0	0.057686746
96	0xbd2e4875	-0.04254957
97	0xbc90c2f8	-0.017671093
98	0x3d5b8950	0.05359775
99	0x3b0eb476	0.0021775044
100	0xbd433998	-0.047662348
101	0x3cd8e119	0.026474522
102	0x3d8dc20a	0.06921776
103	0x3d4fcca0	0.050732255
104	0x3c5b89cf	0.013399555
105	0xbd32468e	-0.043524317
106	0x3d891e2b	0.06695207
107	0x3d719526	0.05898013
108	0x3cc0d4d5	0.023538986
109	0xbc6cd825	-0.01445583
110	0xbc78af08	-0.015178449
111	0x3d1c6566	0.03818264
112	0xbd31efbd	-0.043441523
113	0x3c4eb611	0.01261665
114	0xbd072213	-0.03299148
115	0xbd42fa96	-0.04760226
116	0x3d0e3298	0.03471622
117	0x3cbb024e	0.022828247
118	0xbca97745	-0.020686755
119	0x3b660cf0	0.0035102926
120	0x3d22a7a3	0.039710652
121	0x3d822b5d	0.06355927
122	0x3c9f4392	0.0194414
123	0x3d6057f8	0.054771394
124	0x3c7952c2	0.015217485
125	0xbc81d6a9	-0.015849428
126	0x3d736e87	0.05943158
127	0xbd50b0bc	-0.050949797

fc2.weight f4 [128, 128]
0	0x3d808a78	0.06276411
1	0xbc853242	-0.016259316
2	0xbd926678	-0.071484506
3	0xbc5c7936	-0.013456633
4	0x3d5ea719	0.054358575
5	0xbc1635e4	-0.009168122
6	0x3cef25b4	0.029192783
7	0x3d0974b6	0.03355857
8	0x3d498265	0.04919662
9	0x3cd3d690	0.025859147
10	0xbc2ae7b0	-0.010431215
11	0x3d06e0cf	0.032929238
12	0x3c9f13fc	0.019418709
13	0xbdafc2c2	-0.08582069
14	0xbd37f686	-0.044912837
15	0xbd781d05	-0.06057455
16	0xbd4aada2	-0.049481995
17	0xbdbbad66	-0.091639325
18	0x3d8bbd87	0.06823259
19	0x3d89fe62	0.06737973
20	0x3c6772bb	0.014126475
21	0x3d7a9ff5	0.061187703
22	0x3d97dfb6	0.07415716
23	0x3d5faab2	0.054606147
24	0xbbe0fd4e	-0.006866134
25	0xbd9c6d42	-0.07638027
26	0xbd24ec81	-0.04026461
27	0xbdaddf69	-0.08489878
28	0xbc529b7b	-0.012854452
29	0xbc2aa38f	-0.010414972
30	0x3da0d643	0.07853367
31	0xbda80482	-0.08203985
32	0x3d8df78c	0.069319814
33	0xbcd7c36e	-0.026338305
34	0xbd8f44f5	-0.069955744
35	0x3d4d0afa	0.050059296
36	0xbc4735a6	-0.012158787
37	0xbd4d0556	-0.050053917
38	0xbd0abea4	-0.033873215
39	0xbdafe8f8	-0.08589357
40	0x3cb7eee8	0.022452787
41	0x3d3d04ef	0.046147283
42	0xbd1b001f	-0.037841912
43	0xbd87231f	-0.06598496
44	0xbd217165	-0.039414782
45	0x3d93903e	0.072052464
46	0xbd9fcd24	-0.07802799
47	0x3d8de609	0.06928641
48	0x3c123a5d	0.008925048
49	0xbc09f05d	-0.0084191235
50	0xbcafc2e8	-0.021455243
51	0x3d80afa2	0.06283499
52	0x3c53d4a7	0.012929118
53	0xbdb72ccc	-0.08944091
54	0xbd82c59a	-0.06385346
55	0xbc1a9e01	-0.009437085
56	0x3cc8f3e0	0.024530351
57	0x3da80019	0.082031436
58	0xbc98ea99	-0.018666552
59	0xbd93857f	-0.07203197
60	0x3da7bb9a	0.08190079
61	0x3da1ca25	0.07899884
62	0xbc946b34	-0.018117525
63	0xbd185400	-0.037189484
64	0xbd8a8b73	-0.06764879
65	0x3d7a11bc	0.06105207
66	0x3b1ad3bd	0.002362474
67	0xbdb28cd6	-0.087182686
68	0xbd920a9e	-0.07130931
69	0x3da3ef5d	0.08004639
70	0xbd20fa59	-0.03930125
71	0xbcddd3bb	-0.0270785
72	0x3c9f33ff	0.019433973
73	0xbc849328	-0.01618345
74	0x3c967aa5	0.018369028
75	0x3d854a13	0.06508269
76	0xbd7f78eb	-0.062371176
77	0x3da6a515	0.08136956
78	0xbb1cdb27	-0.0023934336
79	0xbd00362a	-0.031301655
80	0xbdac9014	-0.08425918
81	0xba01bfb8	-0.0004949528
82	0xbdbd3060	-0.092377424
83	0xba3de8d0	-0.00072444696
84	0x3d61528f	0.055010375
85	0x3c83a4c4	0.016069777
86	0x3b32edf2	0.002730247
87	0x3ccb80c5	0.024841676
88	0xb9819688	-0.00024716952
89	0x3c3a4f32	0.011371421
90	0x3aae3a2d	0.0013292484
91	0xbd044ca6	-0.03229966
92	0xbad6e105	-0.0016393965
93	0x3bff4fde	0.0077915033
94	0x3c7ce314	0.015434999
95	0x3d66e67d	0.056372155
96	0x3d4781d8	0.048707813
97	0xbd4c4a56	-0.04987558
98	0xbd3619f3	-0.04445834
99	0xbce703f3	-0.028200125
100	0xbd3619f4	-0.044458345
101	0x3d5522bf	0.05203509
102	0xbd9eada3	-0.07747962
103	0x3d74b3d8	0.059741825
104	0x3d26e1e9	0.04074279
105	0x3da35646	0.0797544
106	0x3d731212	0.059343405
107	0xbd99f681	-0.0751772
108	0x3ba566be	0.005047648
109	0x3d8f774e	0.070051774
110	0xbdb6f7d4	-0.08933988
111	0xbd470652	-0.048590012
112	0x3d5be2a7	0.05368295
113	0x3da998cf	0.08281099
114	0x3d832737	0.06403964
115	0xbd6720e8	-0.056427866
116	0xbd36d2ba	-0.04463456
117	0xbcc1d53e	-0.023661252
118	0xbdbebbda	-0.093131736
119	0xbd1cd06a	-0.038284697
120	0x3ce3234d	0.027726794
121	0x3a761a70	0.0009388095
122	0xbdbf1c93	-0.09331622
123	0x3c2e235d	0.010628548
124	0xbce2d2dd	-0.027688438
125	0x3cbb9022	0.022895876
126	0xbd3268fd	-0.043557156
127	0xbd562ff1	-0.052291814
128	0x3d0342cf	0.032046136
129	0xbcffdb68	-0.03123255
130	0x3cbe3729	0.023219662
131	0xbd7149e0	-0.058908343
132	0xbc9f9c4b	-0.019483706
133	0xbd88a927	-0.06672888
134	0xbd4e4fb0	-0.050368965
135	0x3d27ec57	0.040996876
136	0x3d3e168e	0.04640823
137	0xbd9d0b80	-0.07668209
138	0x3be3a1fd	0.0069468007
139	0x3d1482f6	0.036257707
140	0x3d584ce3	0.0528077
141	0xbd7f03e9	-0.06225959
142	0xbd468903	-0.04847051
143	0xbd779cca	-0.06045226
144	0x3d4a3db0	0.049375236
145	0xbd640fa9	-0.055678997
146	0xbda1ffe2	-0.07910134
147	0x3d19a5e8	0.037511736
148	0x3d39303d	0.04521202
149	0x3d56aac6	0.052408956
150	0xbc24ff5a	-0.010070646
151	0x3d6cd74b	0.057822507
152	0xbd659058	-0.05604586
153	0xbd023b60	-0.031794906
154	0xbd4f8968	-0.05066815
155	0x3d927723	0.0715163
156	0x3da55960	0.080736876
157	0xbd10c78c	-0.035346553
158	0xbb05564e	-0.002034563
159	0xbb0e654b	-0.0021727856
160	0x3c8e950a	0.017405052
161	0xbc251a3d	-0.0100770565
162	0x3d8c83c5	0.068610705
163	0xbc6a64b5	-0.014306237
164	0xbb8597e3	-0.004076944
165	0xbcecc9a7	-0.02890475
166	0x3cca5ca0	0.02470237
167	0xbc8ead52	-0.01741663
168	0xbd750153	-0.059815716
169	0xbdab76b3	-0.083722495
170	0x3d9b1971	0.07573212
171	0xbc958937	-0.018253906
172	0x3d96621a	0.0734293
173	0xbd0049ee	-0.031320505
174	0x3d921b1e	0.071340784
175	0x3d3ee582	0.046605594
176	0xbd82910e	-0.06375323
177	0x3d79e0cd	0.061005402
178	0xbccfa027	-0.025344921
179	0xbced6885	-0.028980503
180	0x3c3844c5	0.011246865
181	0xbd273733	-0.040824126
182	0xbc7e04bf	-0.015504061
183	0xbd2e8277	-0.04260489
184	0xbc9a66fe	-0.018847939
185	0x3d81d7fe	0.06340025
186	0xbc6f5595	-0.014607807
187	0x3cfb29ef	0.030659644
188	0x3da6d30a	0.08145721
189	0xbd28ddfb	-0.041227322
190	0xbc49238e	-0.012276543
191	0x3cf60be4	0.030034967
192	0xbd8ed85b	-0.0697486
193	0x3ccf321d	0.02529245
194	0x3d2a610b	0.041596454
195	0x3cd9d973	0.026592946
196	0x3d6d34ce	0.057911687
197	0xbd527a33	-0.05138607
198	0x3c5f6056	0.013633808
199	0xbd4f403d	-0.05059837
200	0x3cadfbb5	0.021238187
201	0x3dac4a74	0.08412638
202	0xbbc94ad3	-0.006142953
203	0xbd1ab3d3	-0.03776915
204	0xbd2b8a1c	-0.04187976
205	0xbcf021ca	-0.029312987
206	0x3d88bbdf	0.066764586
207	0xbcd0c0c6	-0.025482547
208	0xbd03be1d	-0.032163728
209	0xbca6850e	-0.020327117
210	0xbd750774	-0.05982156
211	0xbd612acf	-0.054972466
212	0x3bcf357f	0.006323516
213	0xbd991a87	-0.07475763
214	0xbd9c0d91	-0.07619775
215	0x3d57aefd	0.052657116
216	0x3d9b792e	0.075914726
217	0xbcf32e94	-0.029685296
218	0xbd107937	-0.03527185
219	0x3cd1c5bf	0.025606988
220	0x3c2c4270	0.010513887
221	0x3d7e9c28	0.06216064
222	0x3da8431d	0.08215926
223	0xbd1ef667	-0.038809206
224	0x3c11619d	0.0088733705
225	0xbd69b11b	-0.057053667
226	0xbda50180	-0.08056927
227	0x3d3ebbb0	0.04656571
228	0xbd76022b	-0.06006066
229	0xbd961a9b	-0.07329293
230	0x3d73c4fd	0.059514035
231	0x3bb99dd4	0.0056645665
232	0xbd39e2f9	-0.045382474
233	0x3d91cf69	0.071196385
234	0xbd962e41	-0.07333041
235	0xbda4b882	-0.080430046
236	0xbdb8754a	-0.09006746
237	0xbcac4ef4	-0.021033742
238	0xbb86ef7a	-0.0041179033
239	0xbcb5652d	-0.022142971
240	0x3ba9718d	0.005171007
241	0xbbc98df7	-0.0061509567
242	0x3cd2dac7	0.025739087
243	0xbd819818	-0.06327838
244	0xbc4fe0a7	-0.012687839
245	0xbd632fbd	-0.05546545
246	0x3d442371	0.047885362
247	0x3d15b232	0.036546893
248	0xbca0c3ba	-0.01962458
249	0xbcbad05b	-0.02280443
250	0xbc7855d0	-0.015157178
251	0x3d62f238	0.05540678
252	0xbd57e3d4	-0.05270751
253	0x3d9709d2	0.0737492
254	0x3d9d1af4	0.076711565
255	0x3d733747	0.05937889

fc2.bias f4 [128]
0	0x3d344bf4	0.044017747
1	0xbd4474ae	-0.047962837
2	0xbcb9b172	-0.02266762
3	0x3ce6ae7e	0.028159376
4	0xbda1e5a3	-0.07905128
5	0x3d4497d0	0.047996342
6	0xbd2aaf49	-0.04167107
7	0xbd768642	-0.060186632
8	0x3d893264	0.066990644
9	0x3d238d4e	0.03992968
10	0x3d9a9225	0.07547406
11	0x3d838cd1	0.06423343
12	0xbd81bb79	-0.06334586
13	0x3bbe96bd	0.0058163092
14	0xbcc7e95b	-0.024403265
15	0xbb87899c	-0.0041362774
16	0x3c915642	0.017741326
17	0x3d1c7f26	0.038207196
18	0xb91a79c8	-0.00014731952
19	0xbd180f45	-0.037123937
20	0xbd8331ba	-0.06405969
21	0x3cbc29ed	0.02296921
22	0xbd724372	-0.059146352
23	0xbd8db49e	-0.069192156
24	0x3d112bac	0.03544204
25	0xbcf1284c	-0.02943816
26	0x3d550fe0	0.052017093
27	0xbce6b5c3	-0.028162843
28	0xbd846eb8	-0.064664304
29	0x3cfa4807	0.030551923
30	0xbda6bf9d	-0.08142016
31	0x3b811c5a	0.0039401473
32	0xbb55a585	-0.0032599878
33	0x3da4d660	0.08048701
34	0xbdb2c0f6	-0.08728211
35	0x3d9988bf	0.07496785
36	0x3d9e31e6	0.07724361
37	0x3c71e45d	0.014763919
38	0x3d24b494	0.040211275
39	0xbd870e56	-0.06594531
40	0xbd7d71fe	-0.06187629
41	0xbdaa6d3a	-0.083216146
42	0xbdb59d87	-0.088679366
43	0xbd9fc04e	-0.07800351
44	0x3d7ec4aa	0.062199272
45	0xbd1bee55	-0.038069088
46	0x3c26eab7	0.010187796
47	0xbacdb858	-0.0015695198
48	0x3d60bc31	0.054866973
49	0xbd3f5db2	-0.046720214
50	0xbceb8047	-0.02874769
51	0x3bd2a073	0.0064278184
52	0xbcf17e10	-0.029479057
53	0xbd7a58f0	-0.061119974
54	0xbda27fa2	-0.079345
55	0x3d6c0640	0.057623148
56	0x3d0c5ed9	0.03427014
57	0xbd212623	-0.03934301
58	0x3b2f1a36	0.0026718504
59	0xbd42d7bf	-0.047569033
60	0xbd945451	-0.072426446
61	0x3befdc17	0.007319938
62	0xbd8c80d9	-0.06860513
63	0x3d1940d2	0.037415333
64	0xbcb640eb	-0.022247752
65	0xbd515a29	-0.051111374
66	0xbda6b1e9	-0.081394024
67	0x3d5db1ca	0.05412463
68	0x3d84a80b	0.06477364
69	0x3d9c5845	0.076340236
70	0xbd1faed9	-0.038985107
71	0x3ce9acec	0.028524838
72	0x3dab4754	0.08363214
73	0xbcd70f1c	-0.026252322
74	0xbd854fe6	-0.0650938
75	0xbd34cc6f	-0.044140276
76	0xbcb7c6b6	-0.02243362
77	0x3d7d8753	0.061896633
78	0x3cea605d	0.028610403
79	0x3c8d8420	0.017274916
80	0xbd37b020	-0.0448457
81	0x3c819beb	0.015821418
82	0x3db45968	0.088061154
83	0x3d82f868	0.06395036
84	0x3d8658f3	0.065599345
85	0x3c2bd75f	0.01048836
86	0x3cff0a7a	0.031132925
87	0xbbde15d4	-0.0067775045
88	0xbcf1bc0f	-0.029508619
89	0x3d734952	0.059396096
90	0x3da55e66	0.08074646
91	0xbd765d23	-0.060147416
92	0x3d894ca1	0.06704069
93	0xbdab9c29	-0.083793946
94	0xbd01d116	-0.03169354
95	0x3cc64601	0.024203302
96	0xbd8b5425	-0.06803159
97	0xbd097d78	-0.033566922
98	0xbd8d1aef	-0.06889903
99	0xbd9b7412	-0.07590498
100	0x3da2d7fe	0.079513535
101	0xbd86d87f	-0.06584262
102	0x3d99e85f	0.075150244
103	0x3cc763f8	0.024339661
104	0xbd92c4c2	-0.07166435
105	0x3db6ece8	0.08931905
106	0xbcfd74f5	-0.030939559
107	0xbd09ae30	-0.033613384
108	0x3d59c3fa	0.053165413
109	0x3b76fec9	0.0037688485
110	0x3d45b8f3	0.048272084
111	0xbc3b09ca	-0.011415908
112	0x3d301633	0.04298992
113	0xbce31936	-0.027721982
114	0x3d890780	0.06690884
115	0xbda60591	-0.081065305
116	0x3ca4bd6b	0.020109853
117	0x3b1d5c7d	0.0024011426
118	0x3db76c7f	0.08956241
119	0xbc44da25	-0.0120149
120	0x3d6823bc	0.056674704
121	0x3d63c1a6	0.0556046
122	0xbcb92195	-0.022599021
123	0xbd3d380e	-0.046196036
124	0x3da882c8	0.082280695
125	0xbd5eeed5	-0.054426987
126	0x3dbb7295	0.09152714
127	0xbd00920c	-0.03138928

fc3.weight f4 [5, 128]
0	0x3d832cdf	0.06405043
1	0xbb20d9bf	-0.002454385
2	0xbd912713	-0.07087531
3	0xbd1c62b6	-0.038180076
4	0xbd0f3c91	-0.03496987
5	0x399821c8	0.00029016868
6	0xbc7ef370	-0.01556097
7	0x3ba9c717	0.005181204
8	0x3d805e8a	0.06268032
9	0xbd810058	-0.06298894
10	0x3c763371	0.015026913
11	0x3d3b4aac	0.04572551
12	0x3da927e3	0.08259561
13	0x3d51acb7	0.051190104
14	0xbd9f7be1	-0.077873
15	0x3bfec995	0.0077754953
16	0xbd793afb	-0.060847264
17	0x3d95bc5c	0.07311317
18	0x3da29519	0.07938594
19	0x3d9b32fd	0.075780846
20	0x3d61bf24	0.055113927
21	0x3d797384	0.06090118
22	0xbd64eaa3	-0.05588783
23	0xbd5d4173	-0.054017495
24	0xbd8aae9c	-0.06771585
25	0xbc5aa348	-0.013344593
26	0x3c71af9b	0.01475134
27	0xbd96b607	-0.07358938
28	0xbdb560c8	-0.0885635
29	0x3d8871a2	0.06662299
30	0xbd9f63a7	-0.07782679
31	0xbda8069a	-0.08204384
32	0x3d448136	0.047974788
33	0xbd844494	-0.06458393
34	0x3cc0ee70	0.023551196
35	0x3cec1666	0.028819274
36	0x3da6ff86	0.08154206
37	0x3d8abb1d	0.0677397
38	0xbc23471a	-0.009965682
39	0xbd185c1e	-0.037197225
40	0x3ce64618	0.028109595
41	0xbd2dc8ce	-0.04242783
42	0x3d994bbc	0.07485148
43	0x3caeab6f	0.02132198
44	0xbc57cc83	-0.013171318
45	0xbd14a6da	-0.036291935
46	0x3d99f266	0.07516937
47	0x3d3fbd3e	0.046811335
48	0x3d92c9c2	0.071673885
49	0x3c2cd417	0.010548613
50	0xbdb521c2	-0.088443294
51	0xbd2d441e	-0.04230129
52	0xbab82bf4	-0.0014051185
53	0xbdafa8bc	-0.085771054
54	0xbdaf9c3f	-0.085747235
55	0xbd791a4f	-0.060816105
56	0x3d5272bd	0.051378954
57	0xbc34d387	-0.01103676
58	0x3da02289	0.07819087
59	0xbd9fee31	-0.07809103
60	0x3d9181c4	0.07104829
61	0x3d98ca10	0.07460415
62	0xbcbc1fde	-0.022964414
63	0x3cb1aa5a	0.021687675
64	0xbd6d2184	-0.05789329
65	0xbda4b9ab	-0.08043226
66	0x3d280b10	0.041026175
67	0x3d145b70	0.036220014
68	0x3d8bfe68	0.068356335
69	0x3ccde0c3	0.025131589
70	0xbd310909	-0.043221507
71	0x3d7cb71c	0.061698064
72	0xbd81cccf	-0.06337892
73	0xbc9b7368	-0.018975928
74	0xbd6eacd3	-0.058270287
75	0xbd83650d	-0.06415758
76	0x3da61506	0.08109479
77	0xbccb3fe5	-0.02481074
78	0x3bede9e9	0.0072605503
79	0x3d879d5e	0.06621812
80	0x3d4caa72	0.049967237
81	0x3d90629e	0.0705006
82	0x3dab426d	0.08362279
83	0x3d48c710	0.049017966
84	0x3d35fd11	0.044430796
85	0xbc9db058	-0.019249126
86	0x3ca01adb	0.019544056
87	0xbc0b3d64	-0.008498523
88	0xbd193c29	-0.03741089
89	0x3ce24857	0.027622385
90	0xbc3022a3	-0.010750446
91	0x3b38bf3e	0.002819016
92	0x3cd24fc2	0.025672797
93	0xbd9ef6d3	-0.07761922
94	0x3d302439	0.043003295
95	0x3d115d99	0.035489652
96	0x3dab64b7	0.08368819
97	0xbd9810a1	-0.07425047
98	0x3d8eb810	0.06968701
99	0xbd4a3f9b	-0.049377065
100	0x3ccaa0b9	0.024734842
101	0x3c8edf14	0.017440356
102	0xbc98c57e	-0.01864886
103	0xbd483f4a	-0.048888482
104	0xbd9b8f6e	-0.075957164
105	0x3cab2f58	0.020896599
106	0x3d265265	0.04060592
107	0x3d7ecdd9	0.06220803
108	0x3cca17a4	0.024669476
109	0x3cac214b	0.02101197
110	0xbc597424	-0.013272319
111	0x3d414ec5	0.04719426
112	0xbda27dd9	-0.0793416
113	0x3d479e7e	0.048735134
114	0x3dadf70e	0.084943876
115	0xbd80176b	-0.062544666
116	0x3d0376ab	0.032095592
117	0xbc31d1c9	-0.010853239
118	0xbca9fd4a	-0.02075066
119	0x3d27d07b	0.040970307
120	0x3d0eeaaa	0.03489176
121	0x3d8351ab	0.06412061
122	0x3b87620b	0.0041315607
123	0xbd5232c8	-0.05131796
124	0x3d510eed	0.051039625
125	0x3d683c7a	0.0566983
126	0xbc38bc25	-0.011275326
127	0xbd8db0e0	-0.06918502
128	0xbd9866c5	-0.07441477
129	0xbd3e56c6	-0.046469472
130	0x3cfa6bd2	0.03056899
131	0x3d156574	0.036473706
132	0xbd01a209	-0.03164867
133	0x3d74ab33	0.05973358
134	0xbcfd95b6	-0.030955177
135	0xbd8665b2	-0.065623656
136	0x3b2eb56c	0.0026658429
137	0xbc441081	-0.011966825
138	0x3d780f55	0.060561497
139	0xbd847ba8	-0.06468898
140	0xbca7d460	-0.02048701
141	0xbd7e048e	-0.062016062
142	0x3d522054	0.05130036
143	0xbd95e7fd	-0.07319639
144	0xbd57551e	-0.05257141
145	0xbd530a38	-0.051523417
146	0xbd9fd357	-0.07803982
147	0xbc282a5b	-0.010264005
148	0xb9cbd9bb	-0.000388814
149	0x3c80698b	0.015675327
150	0xbd8c4a71	-0.06850136
151	0xb948cfa0	-0.00019150833
152	0xbc2e038c	-0.010620963
153	0xbd889b63	-0.06670263
154	0x3c6eee96	0.0145832505
155	0x3af30316	0.0018540348
156	0x3ca8c5c0	0.020602107
157	0xbd863bd1	-0.06554378
158	0x3cae3fa5	0.021270582
159	0x3d3acc2a	0.045604862
160	0xbd9f67f0	-0.077834964
161	0x3c0a9af1	0.0084597925
162	0xbc807048	-0.01567854
163	0x3cb5eaa4	0.022206612
164	0x3db41a4d	0.08794079
165	0x3d9a45f9	0.075328775
166	0xbd7190be	-0.058975928
167	0xbd2b0454	-0.041752174
168	0xbd3d23e8	-0.04617682
169	0x3d3825fe	0.044958107
170	0x3c10ee9d	0.008845952
171	0xbc85b746	-0.016322743
172	0xbd75946b	-0.059955996
173	0xbc62950f	-0.013829484
174	0x3db4b6a7	0.08823901
175	0x3da2a46e	0.07941519
176	0x3d56cb52	0.052439995
177	0xbd5b26cc	-0.053503796
178	0xbda7b561	-0.08188892
179	0x3d736418	0.05942163
180	0x3d022769	0.031775866
181	0xbd7c0fc8	-0.061538488
182	0x3d90e275	0.07074443
183	0xbd76ad15	-0.060223658
184	0x3cc6892c	0.02423533
185	0x3d1166bf	0.035498377
186	0x3d60e456	0.054905258
187	0xbda1c106	-0.078981444
188	0xbc93e2de	-0.018052515
189	0xbd7919fd	-0.0608158
190	0x3d2f1604	0.042745605
191	0x3daa205a	0.08306952
192	0xbd96c35c	-0.073614806
193	0xbd9f9ef4	-0.0779399
194	0x3c902b45	0.017598758
195	0xbc793ef3	-0.015212762
196	0xbd5f2484	-0.054478183
197	0xbc3229b8	-0.010874204
198	0x3c928b9b	0.017888835
199	0x3d4d4f11	0.05012423
200	0x3da4367e	0.08018206
201	0x3cb43d8d	0.022002006
202	0xbd635115	-0.055497248
203	0x3caf6e2e	0.021414842
204	0x3bcf85b1	0.006333076
205	0x3c877951	0.01653734
206	0xbd943ea6	-0.07238512
207	0x3da89194	0.08230892
208	0xbd5161cd	-0.05111866
209	0xbc3d9df0	-0.0115733
210	0x3d5a5378	0.05330226
211	0x3b57b9ea	0.003291721
212	0x3c8714ae	0.016489353
213	0xbd126154	-0.03573735
214	0xba9d336b	-0.0011993473
215	0xbda1bd89	-0.07897479
216	0x3db14208	0.086551726
217	0x3da36a78	0.07979292
218	0xbd34986d	-0.044090677
219	0x3d89d3d0	0.06729853
220	0xbca139b5	-0.019680837
221	0xbd8f4de4	-0.06997278
222	0xbd238dbb	-0.039930087
223	0xbda73900	-0.08165169
224	0x3d56ef53	0.05247433
225	0xbd878de2	-0.06618859
226	0xbc006052	-0.007835465
227	0xbd92957d	-0.07157419
228	0xbcfab388	-0.030603185
229	0x3c9a7f8d	0.01885965
230	0x3d2d1eda	0.04226575
231	0xbd18b131	-0.037278358
232	0xbd32b7aa	-0.043632187
233	0x3d5cb896	0.053886972
234	0xbd7b2dc7	-0.061322954
235	0x3db12413	0.08649459
236	0x3db163a3	0.08661582
237	0x3d309307	0.043108966
238	0x3c47a144	0.012184445
239	0xbbb13866	-0.0054083345
240	0x3db57a54	0.08861223
241	0xbab480c8	-0.001377129
242	0x3b67db82	0.003537864
243	0xbcbcbced	-0.023039306
244	0x3caf9af3	0.02143619
245	0x3d5a9e75	0.053373773
246	0xbbaf6242	-0.0053522894
247	0xbc1647f9	-0.009172433
248	0xbd0b3e78	-0.03399512
249	0x3ce1cb42	0.027562741
250	0x3d81137b	0.06302544
251	0xbc90af2f	-0.017661659
252	0xbcf68c5b	-0.030096224
253	0x3c0079ec	0.007841568
254	0xbd55e36a	-0.052218832
255	0xba5c34cc	-0.00084002013

fc3.bias f4 [5]
0	0xbcb7960f	-0.02241042
1	0x3d8f60fb	0.070009194
2	0x3d5ff4e8	0.05467692
3	0x3d20e203	0.03927804
4	0xbbbd8ee8	-0.005784858

fc1.weight f4 [128, 147]
0	0xbd8c1c16	-0.068412945
1	0xbccff314	-0.025384463
2	0xba990b56	-0.0011676352
3	0x3d9b0e82	0.075711265
4	0x3d236d12	0.03989894
5	0xbb7953f4	-0.0038044425
6	0xbc8ddb7e	-0.017316576
7	0xbd328229	-0.04358116
8	0x3d04641e	0.03232204
9	0x3d52a39b	0.051425558
10	0xbcf9c96a	-0.03049155
11	0xbd5e90d5	-0.05433734
12	0x3c35e8d6	0.011102876
13	0x3d275d47	0.04086044
14	0x3ce9bde4	0.02853293
15	0xbd9c9c47	-0.07646995
16	0xbd82c97e	-0.06386088
17	0x3d3d0aff	0.046153065
18	0x3d76bbf0	0.060237825
19	0x3d60d8cf	0.054894265
20	0xbd79916e	-0.06092971
21	0xbb6ec8d0	-0.0036435612
22	0xbc22ed95	-0.009944339
23	0x3c501529	0.0127003575
24	0xbd441c57	-0.04787859
25	0x3c97815b	0.018494299
26	0x3d06740d	0.03282552
27	0xbc424429	-0.011857071
28	0x3d332748	0.043738633
29	0x3d5d4d23	0.05402864
30	0x3d789576	0.060689412
31	0x3c2eacca	0.010661313
32	0x3d913682	0.07090475
33	0xbbdfae61	-0.0068262075
34	0xbd539018	-0.05165109
35	0x3d2ee2cc	0.04269676
36	0xbda6b245	-0.08139471
37	0xbd1c77a8	-0.03820005
38	0xbda86e83	-0.082242034
39	0xbd437964	-0.04772319
40	0xbd58d798	-0.05293998
41	0xbcf01b87	-0.029310001
42	0x3d914197	0.070925884
43	0xbd869dc0	-0.06573057
44	0xbd7c91d9	-0.06166253
45	0x3d48f1da	0.049058773
46	0x3d934b82	0.07192136
47	0xbd22e948	-0.039773256
48	0x3d3d833d	0.046267737
49	0xbd13df1c	-0.036101446
50	0xbce8da44	-0.02842439
51	0xbd98ffc6	-0.0747066
52	0xbcee91c2	-0.029122237
53	0xbd2008f2	-0.03907103
54	0xbd708fa0	-0.05873072
55	0x3d9cef52	0.07662834
56	0xbc5e4805	-0.0135669755
57	0x3d81e687	0.06342798
58	0xbda2e215	-0.07953278
59	0xbd32b289	-0.043627296
60	0x3bc43fbb	0.0059890426
61	0x3d2b4031	0.041809265
62	0x3c9295a8	0.017893627
63	0xbda382da	-0.07983942
64	0xbbfa6fa6	-0.007642704
65	0xbd5223cd	-0.051303674
66	0xbd3d5d1d	-0.046231378
67	0x3d92eb64	0.071738034
68	0xbdabf350	-0.083960176
69	0x3d94bfd5	0.072631516
70	0xbda4a021	-0.08038355
71	0xbd8bd3eb	-0.068275295
72	0xbc58af9e	-0.013225464
73	0xbceeab78	-0.029134497
74	0xbd522a0a	-0.051309623
75	0xbd30c7f1	-0.04315943
76	0xbc22d196	-0.0099376645
77	0x3d0e2c90	0.034710467
78	0x3d3c74b1	0.046009723
79	0x3bf3ec5c	0.0074439477
80	0x3d689f3f	0.056792494
81	0xbd35e20b	-0.044405024
82	0xbd96a12b	-0.07354959
83	0x3d662c25	0.056194443
84	0xbabc1eb4	-0.0014352412
85	0xbd52652b	-0.051366013
86	0xbb450093	-0.0030060157
87	0x3d79b4d6	0.060963474
88	0x3d2b7405	0.04185869
89	0x3d3ba8ed	0.045815397
90	0xbd237acb	-0.039912026
91	0xbd8e810f	-0.0695821
92	0xbd80ec90	-0.06295121
93	0x3d83b520	0.06431031
94	0xbd7ea6ac	-0.06217067
95	0xbda3d0e4	-0.07998827
96	0xbd9ce06a	-0.07659991
97	0x3cb4ab00	0.022054195
98	0xbd908de5	-0.07058314
99	0xbb100fa4	-0.0021981979
100	0x3d951510	0.07279408
101	0xbc51e354	-0.012810547
102	0xbd226e0f	-0.03965574
103	0x3d089b80	0.03335142
104	0x3d9c5bca	0.07634695
105	0x3c573ae7	0.013136602
106	0xbd567b62	-0.05236376
107	0xbc64dd42	-0.013968768
108	0xbd8743d4	-0.06604734
109	0xbd612dd6	-0.054975353
110	0xbc4b9951	-0.01242669
111	0xbcc296fe	-0.02375364
112	0x3ca3bcd0	0.019987494
113	0xbd55d0ca	-0.05220107
114	0xbdab63cf	-0.08368646
115	0xbd9df915	-0.07713524
116	0x3c5de649	0.013543674
117	0xbda25de8	-0.079280674
118	0x3d17474b	0.036933225
119	0xbd447135	-0.047959525
120	0x3d026a31	0.031839553
121	0x3d0c91c1	0.03431869
122	0xbcada97a	-0.021198977
123	0xbd887471	-0.066628344
124	0xbd34f0ce	-0.04417496
125	0xbd82ef6c	-0.06393322
126	0xbc012c34	-0.007884074
127	0x3d38bea6	0.04510369
128	0x3b094a2b	0.0020948749
129	0xbcdcb7a1	-0.02694303
130	0x3d98317a	0.07431312
131	0x3d8e5b0f	0.06950962
132	0xbcbd75cf	-0.023127465
133	0x3c2369fb	0.009973998
134	0xbd95c603	-0.07313158
135	0xbd375fb7	-0.044769015
136	0xbd720f05	-0.059096355
137	0xbca8c41e	-0.020601328
138	0x3d5ec051	0.054382626
139	0xbd533c57	-0.051571216
140	0xbd097514	-0.03355892
141	0xbb576000	-0.0032863617
142	0x3d8ebb8c	0.069693655
143	0x3a9e70fe	0.0012088118
144	0xbccd542c	-0.02506455
145	0xbd75e961	-0.06003702
146	0x3d2ca37e	0.042148106
147	0xbc933069	-0.01796742
148	0x3d93b579	0.072123475
149	0xbd4ecced	-0.0504884
150	0xbd8e7fd3	-0.06957974
151	0x3cdcbcc0	0.026945472
152	0xbccf2278	-0.02528499
153	0xbd13cf22	-0.03608621
154	0x3bfbc4f0	0.007683389
155	0xbd1c0145	-0.03808715
156	0xbd6fbb83	-0.058528434
157	0x3d7c3585	0.061574478
158	0xbc8086ed	-0.015689338
159	0xbd62811e	-0.055298917
160	0x3d84a4bc	0.06476733
161	0x3d9ddbbf	0.07707929
162	0x3d9f8210	0.07788479
163	0x3c83ec80	0.016103983
164	0x3d947fdc	0.0725095
165	0xbcaa22d4	-0.02076856
166	0x3d84bb36	0.0648102
167	0xbd485951	-0.048913304
168	0xbb756ead	-0.003745
169	0xbc9cd514	-0.019144572
170	0x3cdce63e	0.026965257
171	0x3d980e5a	0.07424612
172	0x3b6e93c0	0.0036403984
173	0x3dad14b9	0.08451218
174	0xbd9f5c2a	-0.07781251
175	0x3a9f4c80	0.0012153536
176	0xbc01ad6c	-0.007914882
177	0xbc32fa50	-0.010923937
178	0xbc957770	-0.018245429
179	0xbc8a95d3	-0.016917145
180	0x3c9f2ed0	0.019431502
181	0xbbc3c350	-0.005974211
182	0xbd177a18	-0.036981672
183	0x3ccf0794	0.025272168
184	0x3d1fae0a	0.038984336
185	0xbcbbd9c4	-0.022930987
186	0x3d9e1025	0.07717923
187	0x3ccf1f51	0.025283488
188	0x3d7188fb	0.058968525
189	0xbd29ac37	-0.041424002
190	0x3d6cc382	0.05780364
191	0x3d828afe	0.06374167
192	0x3d3b1439	0.045673583
193	0x3c627030	0.013820693
194	0xbc63997d	-0.013891575
195	0xbce01a4e	-0.027356293
196	0x3b61c7e0	0.003445141
197	0x3c39dc52	0.011344032
198	0xbcdd3418	-0.02700238
199	0x3d9614a4	0.07328156
200	0x3c406421	0.011742623
201	0x3d98184e	0.07426511
202	0xbc8d1f04	-0.017226703
203	0x3d40e65c	0.047094688
204	0xbd1268e4	-0.035744563
205	0xbb2bcd80	-0.0026215017
206	0x3ad77683	0.0016438517
207	0x3d697240	0.056993723
208	0xbd15748f	-0.036488112
209	0x3c70334a	0.014660666
210	0x3d641191	0.055680815
211	0x3d2c71c3	0.04210068
212	0xbc711623	-0.01471475
213	0x3da30b39	0.07961125
214	0xbd16540c	-0.036701247
215	0xbda37be7	-0.07982617
216	0xbd12c888	-0.035835773
217	0x3bc631d5	0.006048421
218	0xbc65fc43	-0.014037195
219	0xbd835770	-0.06413162
220	0x3dad94a1	0.08475614
221	0x3cb65f0e	0.022262122
222	0xbc8a23af	-0.016862718
223	0x3cc3e054	0.023910679
224	0xbc1bb1a5	-0.009502803
225	0x3cbdf4f7	0.023188097
226	0x3d840e6f	0.064480655
227	0x3dae68b2	0.08516063
228	0xbce084ac	-0.027407013
229	0x3d9fc17d	0.07800577
230	0x3da38786	0.079848334
231	0xbcc2ca72	-0.023778174
232	0xbc39f4d0	-0.011349872
233	0x3cde5878	0.027141795
234	0x3cef354d	0.02920022
235	0xbc319efc	-0.0108411275
236	0xbd6b7d11	-0.05749232
237	0x3da0d188	0.07852465
238	0xbd971e58	-0.073788345
239	0x3d853dd2	0.06505932
240	0x3da0f23f	0.07858705
241	0xbcdeca96	-0.02719621
242	0xbd33ea19	-0.043924425
243	0x3d4521b7	0.048127856
244	0x3d92b569	0.071635075
245	0xbda1805b	-0.0788581
246	0xbd9ebf78	-0.077513635
247	0xbd6eaac4	-0.058268324
248	0x3c22d637	0.009938768
249	0x3d1024c3	0.03519131
250	0x3c8d35a4	0.017237492
251	0x3c8756fa	0.016520966
252	0x3d8d8562	0.069102064
253	0xbd4fd584	-0.050740734
254	0x3c6c5774	0.014425147
255	0xbda5c9b9	-0.08095116

fc1.bias f4 [128]
0	0x3cc027e1	0.023456516
1	0xbd20d950	-0.039269745
2	0x3d81548a	0.06314953
3	0xbc666215	-0.0140614705
4	0x3d110591	0.0354057
5	0x3d2161a5	0.03939976
6	0xbd91f213	-0.0712625
7	0xbd9b4e69	-0.07583315
8	0xbc80f415	-0.015741387
9	0xbc24835d	-0.010041085
10	0xbd9ec0cd	-0.077516176
11	0xbccfe7d5	-0.0253791
12	0x3d6ff571	0.05858368
13	0x3cac935c	0.02106636
14	0xbd15c119	-0.036561105
15	0x3d516380	0.05112028
16	0xbceaa30e	-0.028642204
17	0x3d40ad49	0.047040258
18	0xbd99f753	-0.075178765
19	0x3d8d49f4	0.06898871
20	0xbd845714	-0.06461921
21	0xbd8e267a	-0.069409326
22	0x3d87ec84	0.06636909
23	0xbd923a9d	-0.07140086
24	0x3c434173	0.01191746
25	0x3945fe52	0.00018882126
26	0xbc0ac9a3	-0.0084709255
27	0xbd79b04f	-0.060959157
28	0x3d5b5ba0	0.053554177
29	0x3dad88bb	0.08473345
30	0xbc91f4f8	-0.017817006
31	0xbd5eaff2	-0.054367013
32	0xbd79a28d	-0.060946036
33	0x3da69f6d	0.08135877
34	0x3d6f8359	0.058474872
35	0xbd47de0c	-0.048795745
36	0x3d39bdbe	0.045346968
37	0xbd9a015a	-0.07519789
38	0xbd8a978f	-0.06767189
39	0xbd830879	-0.063981004
40	0x3d387fbe	0.0450437
41	0x3d8325da	0.06403704
42	0x3d7da463	0.06192435
43	0x3d8dc262	0.06921841
44	0xbd7e6f85	-0.062118072
45	0x3d7ad241	0.06123567
46	0x3d5215f2	0.05129046
47	0x3d7a2267	0.061067965
48	0x3bea6633	0.0071532964
49	0x3da4b539	0.08042378
50	0x3bfe4c1d	0.0077605383
51	0x3d6a3cb6	0.057186805
52	0x3d661f7e	0.056182377
53	0xb8bd3bde	-9.0233734e-05
54	0x3d54c370	0.051944196
55	0x3cad1166	0.02112646
56	0x3ccaec4c	0.024770878
57	0x3d9d56d3	0.07682576
58	0xbdaa0fe8	-0.08303815
59	0x3d84cc41	0.06484271
60	0xbd20c1b7	-0.03924724
61	0xbb8cd3dd	-0.004297717
62	0xbd39ec71	-0.045391504
63	0x3d452ed4	0.048140362
64	0xbd38379f	-0.04497492
65	0xbcd50628	-0.026003912
66	0x3d5d7e36	0.054075442
67	0x3d947817	0.07249468
68	0xbd8d3f9d	-0.06896899
69	0xbcbe383b	-0.023220172
70	0x3c14d517	0.009084008
71	0x3d89108b	0.066926084
72	0x3d1ec763	0.03876437
73	0x3d604cab	0.054760616
74	0xbd0a1868	-0.033714682
75	0x3ca49eac	0.020095192
76	0x3d4be62a	0.04978005
77	0x3d604c4e	0.05476027
78	0xbbf761c3	-0.007549496
79	0xbd7b8c71	-0.061413232
80	0x3d94bc11	0.07262433
81	0x3d5698e4	0.0523919
82	0xbac3efed	-0.0014948823
83	0x3c807fbd	0.01568591
84	0xbd8a12a1	-0.067418344
85	0xbd350514	-0.044194296
86	0xbc8d01a0	-0.017212689
87	0xbd437327	-0.04771724
88	0xbc81254e	-0.015764859
89	0xbd8572e8	-0.06516057
90	0x3c5d707f	0.013515591
91	0x3d5b7cf4	0.05358596
92	0x3c22e96d	0.009943348
93	0xbd11a453	-0.035557102
94	0xbd5bc8fb	-0.053658467
95	0x3d681a3f	0.056665655
96	0xbd75cf70	-0.06001228
97	0x3c40251a	0.011727596
98	0x3c7c8150	0.01541169
99	0x3c29319b	0.010326768
100	0x3b5ccfb2	0.0033693132
101	0x3d0d4ecf	0.034498986
102	0x3cd1017e	0.025513407
103	0xbd17c1e1	-0.03705013
104	0x38f28a2a	0.00011565194
105	0x3cdf0b06	0.027226936
106	0xbacbd61a	-0.0015551478
107	0x3afa4263	0.0019093271
108	0x3d99e5a2	0.07514502
109	0xbcb160d9	-0.021652626
110	0x3cb29908	0.021801487
111	0xbcaeae44	-0.02132333
112	0xbcb8494d	-0.02249589
113	0x3cd3b363	0.025842374
114	0x3cdfd002	0.027320866
115	0xbc35555c	-0.011067715
116	0x3d4c7b1d	0.049922097
117	0xbd989d9e	-0.07451938
118	0x3c6e4938	0.014543824
119	0xbd94259e	-0.072337374
120	0x3d956bc3	0.072959445
121	0x3d793da9	0.06084982
122	0xbc754285	-0.014969473
123	0xbd024798	-0.03180656
124	0x3bd16dd5	0.006391267
125	0xbd91158e	-0.07084189
126	0x3ad32bfe	0.0016111133
127	0xbd79938f	-0.06093174

fc2.weight f4 [128, 128]
0	0x3d954842	0.07289173
1	0x3d8c5f7e	0.06854151
2	0xbcfb6fbd	-0.03069293
3	0xbd284fdb	-0.04109178
4	0xbdb47085	-0.08810524
5	0xbd86ca0d	-0.06581507
6	0xbaa576d0	-0.001262391
7	0x3d467832	0.04845447
8	0xbd6cdd29	-0.057828102
9	0xbcd3baf6	-0.025845986
10	0xbc8c6f91	-0.017143043
11	0x3d8a65ec	0.06757721
12	0x3ca4ac4b	0.020101687
13	0xbbee4701	-0.007271648
14	0x3c9878d9	0.018612312
15	0x3da64a31	0.0811962
16	0xbd09455b	-0.03351341
17	0xbd27672d	-0.04086988
18	0xbd304756	-0.04303678
19	0x3da0760c	0.07835016
20	0x3d83cbac	0.06435332
21	0xbd6ba336	-0.057528697
22	0x3d859405	0.06522373
23	0x3d110488	0.035404712
24	0x3d5d1667	0.053976443
25	0xbd6cfb5d	-0.057856906
26	0x3cb5d905	0.02219821
27	0xbd79cfa5	-0.06098904
28	0xbd06cd25	-0.032910485
29	0xbc436a1b	-0.011927153
30	0xbc410b3b	-0.011782463
31	0x3cb8d2bf	0.022561429
32	0xbd76b03f	-0.060226675
33	0x3d7dd6a3	0.06197227
34	0x3c412e21	0.011790783
35	0xbd482a5f	-0.048868533
36	0xbcf621aa	-0.03004535
37	0xbc955b46	-0.018232
38	0xbdaa3e49	-0.08312661
39	0xbda3565d	-0.07975457
40	0xbda27708	-0.0793286
41	0xbd07da6c	-0.033167288
42	0xbd82b9af	-0.063830726
43	0xbd9b2483	-0.075753234
44	0xbdacafaa	-0.08431943
45	0xbdb370b6	-0.08761732
46	0x3d99fc1f	0.075187914
47	0xbd9b7b68	-0.07591897
48	0x3acc9bcc	0.0015610396
49	0x3d5456b5	0.051840503
50	0x3d7e18f0	0.0620355
51	0x3d154c07	0.03644946
52	0x3d91293b	0.07087942
53	0x3bb2977c	0.0054501873
54	0x3c45b3bd	0.012066779
55	0xbcf68535	-0.030092815
56	0x3d77eda2	0.06052936
57	0x3c4b375a	0.012403334
58	0xbd48b9f4	-0.049005464
59	0xbd922654	-0.07136217
60	0x3c91e2af	0.017808286
61	0x3da29dcb	0.07940253
62	0x3d3176f5	0.043326337
63	0xbd5c7372	-0.053821035
64	0xbdb99274	-0.09061137
65	0x3d5263e0	0.05136478
66	0x3d5f2ca4	0.054485932
67	0x39c2e818	0.00037175487
68	0xbda9d6fc	-0.08292958
69	0xbbd56264	-0.006511973
70	0x3d818ac6	0.06325297
71	0xbd8f817e	-0.070071205
72	0xbd1d3da0	-0.03838885
73	0xbcea9b7c	-0.028638594
74	0x3d27e939	0.040993903
75	0x3da69666	0.08134155
76	0x3c9920d6	0.018692415
77	0xbd5b7aed	-0.053584028
78	0x3d4d0f74	0.050063565
79	0xbc1d6136	-0.009605696
80	0x3bbdd428	0.0057931133
81	0xbd9089e9	-0.07057554
82	0x3cb0f93b	0.021603217
83	0xbd2abf2e	-0.04168623
84	0xbc734828	-0.014848746
85	0x3d2245b0	0.03961724
86	0x3d69f121	0.057114724
87	0x3d925075	0.07144252
88	0x3bdfdd43	0.0068317964
89	0xbcb14f5c	-0.021644287
90	0x3d907d25	0.070551194
91	0x3da32722	0.07966448
92	0x3cb54984	0.022129782
93	0xbd7c1230	-0.061540782
94	0xbdc10a96	-0.09425847
95	0xbd62e0fd	-0.055390347
96	0xbcbab74a	-0.022792477
97	0xbdb4fc8c	-0.08837232
98	0xbcec844a	-0.028871674
99	0xbd778a3c	-0.060434565
100	0x3d4bcae5	0.049754042
101	0xbcc151ae	-0.023598518
102	0xbd2a0dec	-0.041517183
103	0xbce16095	-0.027511874
104	0xbcc1cb24	-0.023656435
105	0x3d1b8fdd	0.037978996
106	0xbc2aa59e	-0.010415463
107	0xbcc81f46	-0.024428975
108	0x3cb302ce	0.021851923
109	0xbd45494b	-0.0481656
110	0xbdbb25da	-0.09138079
111	0x3d9c738f	0.076392286
112	0xbd17d473	-0.03706784
113	0x3d8fdfee	0.07025133
114	0xbcf9796d	-0.030453408
115	0xbc92ce28	-0.017920569
116	0xbd6f1cef	-0.058377203
117	0xbd5315c4	-0.05153443
118	0xbd529b42	-0.051417597
119	0xbd6362e4	-0.05551423
120	0xbbfa85bf	-0.0076453383
121	0xbc23f960	-0.010008186
122	0x3cefc874	0.029270388
123	0x3d83f5f1	0.06443394
124	0xbd9adc03	-0.07561495
125	0x3c5269dd	0.012842623
126	0xbda6395a	-0.08116408
127	0x3d1991b2	0.03749246
128	0x3d7ccd78	0.061719388
129	0xbcb9140d	-0.022592569
130	0xbd158390	-0.03650242
131	0x3d86dc1a	0.0658495
132	0xbdc0ad83	-0.09408095
133	0xbd9b340d	-0.07578287
134	0x3d483931	0.048882667
135	0x3da39da7	0.07989054
136	0x3caeabcf	0.02132216
137	0x3d7ee09b	0.06222592
138	0x3d5b9584	0.053609386
139	0xbd901803	-0.0703583
140	0x3d15d3af	0.03657883
141	0xbda0c3eb	-0.078498684
142	0x3d1a68a7	0.03769746
143	0x3d9a8faa	0.07546933
144	0x3d15a75b	0.036536556
145	0xbc68787f	-0.014188885
146	0x3d8060a3	0.06268432
147	0xbd323b6d	-0.043513704
148	0xbc86180d	-0.01636889
149	0xbd8f127d	-0.06985948
150	0x3d759abb	0.059962016
151	0x3da822de	0.082097754
152	0xba2b2a09	-0.0006529396
153	0x3c0cc47c	0.008591767
154	0x3bc63f15	0.0060500004
155	0x3d8ffd4b	0.07030734
156	0xbdae859d	-0.085215785
157	0xbd9cb03f	-0.07650804
158	0x3c40d664	0.011769865
159	0xbc8cf14a	-0.0172049
160	0x3d9fb97a	0.07799049
161	0x3d1fcd1f	0.039013978
162	0xbd43311b	-0.047654252
163	0xbd33254d	-0.043736745
164	0xbd78da6d	-0.060755182
165	0xbd24b1db	-0.04020868
166	0xbc83f6c9	-0.016108887
167	0xbd440efe	-0.04786586
168	0x3d8f3ea3	0.06994369
169	0x3d37e3be	0.044894926
170	0x3d3394a5	0.04384293
171	0xbd9cf8d0	-0.07664645
172	0xbd545e7f	-0.05184793
173	0x3d7b7a9b	0.061396223
174	0x3b06b838	0.002055658
175	0xbc89f1f0	-0.016838998
176	0xbdbe2de8	-0.092861
177	0x3c83ca21	0.016087594
178	0x3d714fee	0.058914118
179	0x3ca84fc5	0.02054585
180	0x3d08f9b1	0.03344125
181	0xbbf83020	-0.0075740963
182	0x3b52ebf6	0.00321841
183	0x3cb60727	0.022220207
184	0xbd600e57	-0.054701176
185	0xbd881234	-0.06644097
186	0x3d85a4e8	0.06525594
187	0x3c415e80	0.011802316
188	0x3cb644d6	0.02224962
189	0x3d735cba	0.059414603
190	0xbd53ad7f	-0.05167913
191	0x3cb60d71	0.022223206
192	0xbd6a6fb0	-0.05723542
193	0x3d64b539	0.05583689
194	0x3d553895	0.052055914
195	0x3cd60861	0.026127042
196	0xbd3391f2	-0.043840356
197	0xbd0d01cb	-0.034425538
198	0xbb727124	-0.0036993707
199	0xbd992b80	-0.07479
200	0xbc13dc4c	-0.009024691
201	0x3d876c01	0.06612397
202	0x3d218ba9	0.03943983
203	0xbd966c6f	-0.07344901
204	0xbd49a047	-0.049225118
205	0xbceced31	-0.028921695
206	0x3caa8e51	0.020819815
207	0xbcb427d3	-0.021991646
208	0xbd95bbfa	-0.07311244
209	0xbc4674bc	-0.012112793
210	0x3d71e7f6	0.059059106
211	0xbca56eea	-0.02019449
212	0xbcf2f8e7	-0.029659702
213	0x3cdc68fa	0.026905525
214	0x3bd47095	0.0064831474
215	0xbd7e1943	-0.06203581
216	0xbcf39a08	-0.029736534
217	0x3d8fd653	0.07023301
218	0xbd3a59cc	-0.045495793
219	0x3c0bf173	0.008541453
220	0xbbeacc32	-0.0071654553
221	0xbd8d2d77	-0.06893437
222	0xbc76138e	-0.015019311
223	0xbcf8bb6d	-0.03036281
224	0xbc598da5	-0.0132784
225	0xbd9af908	-0.0756703
226	0x3ba72a2e	0.0051014638
227	0x3d27f653	0.041006397
228	0xbdaafdae	-0.08349167
229	0xbcbec96c	-0.023289405
230	0x3cffc5e6	0.031222295
231	0x3cd5a4e8	0.02607961
232	0x3d1d61c3	0.03842331
233	0xbd898602	-0.06715013
234	0x3d80dcbf	0.06292104
235	0xbbf16f65	-0.0073680156
236	0x3d477f06	0.048705123
237	0xbca8832c	-0.02057036
238	0x3d0b655a	0.034032203
239	0xbdbea0b5	-0.09307996
240	0x3d089d48	0.03335312
241	0xbd6410c2	-0.055680044
242	0x3d04b9a6	0.03240361
243	0xbca802c8	-0.020509139
244	0x3d524b77	0.0513415
245	0x3c676432	0.0141230095
246	0x3b8d545a	0.004313034
247	0xbd168f90	-0.036758006
248	0x3d59283c	0.053016886
249	0x3d192265	0.037386317
250	0xbd02d8fc	-0.031945214
251	0x3c2e5f4d	0.010642839
252	0x3d66a463	0.056309115
253	0x3d19b841	0.037529234
254	0x3d5cb6e0	0.05388534
255	0xbd93313c	-0.07187125

fc2.bias f4 [128]
0	0x3d662c58	0.056194633
1	0x3bd10481	0.0063787107
2	0xbda2b870	-0.07945335
3	0x3c5ec6ca	0.0135972
4	0xbcb74777	-0.022372944
5	0x3d8c3f22	0.06847979
6	0xbd5f870a	-0.054572143
7	0xbaf810ae	-0.0018925869
8	0xbc670462	-0.014100166
9	0x3d062932	0.03275413
10	0xbdaaae68	-0.083340466
11	0x3cb59ba5	0.022168944
12	0xbccb9594	-0.024851598
13	0x3d633907	0.055474307
14	0xbdb097f2	-0.08622731
15	0x3d9a345a	0.075295165
16	0x3c947484	0.018121965
17	0x3d896683	0.06709006
18	0x3d0d6dd0	0.034528553
19	0xbcfae0e1	-0.030624809
20	0x3b9801bc	0.0046388786
21	0xbd6eadbb	-0.05827115
22	0xbd9d6e2d	-0.0768703
23	0x3d765976	0.06014391
24	0x3daf9b49	0.0857454
25	0xbd2eab57	-0.04264387
26	0x3d0d7cfe	0.03454303
27	0xbcc75232	-0.024331186
28	0x3d565731	0.052329246
29	0xbcdaf919	-0.026730107
30	0x3d6d31c5	0.057908792
31	0xbd940014	-0.072265774
32	0xbda380f8	-0.07983583
33	0x3cd86cd7	0.026419086
34	0xbd40d043	-0.047073614
35	0xbd34c62a	-0.044134296
36	0x3d3c818c	0.046021983
37	0x3d882893	0.06648364
38	0xbd99542e	-0.07486759
39	0xbd99cc5f	-0.07509684
40	0x3d83b2cf	0.064305894
41	0xbd83f0da	-0.06442423
42	0x3d3e4dfe	0.046461098
43	0x3d84c0b1	0.064820655
44	0x3ce0da9e	0.027447995
45	0xbd885e7a	-0.06658645
46	0x3c025a74	0.007956136
47	0xbd990084	-0.074708015
48	0x3cf02a83	0.029317146
49	0x3c7541b6	0.01496928
50	0x3c60b8a6	0.013715899
51	0xbd6e3ea6	-0.058165215
52	0x3d9acb30	0.07558286
53	0xbd4d3797	-0.050101843
54	0x3b2b46a0	0.0026134625
55	0x3da60ad3	0.08107533
56	0xbd38cf8d	-0.04511981
57	0x3d9b69d2	0.07588543
58	0xbdb07a8c	-0.08617124
59	0x3c2b17d5	0.010442694
60	0x388c0374	6.6763634e-05
61	0xbcd23fec	-0.025665246
62	0x3d55a9dc	0.052163944
63	0xbd5f62ac	-0.05453746
64	0x3c3446f1	0.011003242
65	0x3d22c76f	0.039740976
66	0x3b3b97bd	0.0028624379
67	0xbc4f8688	-0.012666352
68	0x3dac670b	0.084180914
69	0x3bbd34f6	0.0057741357
70	0x3d9bd879	0.07609648
71	0xbda49adb	-0.08037349
72	0xbcf36035	-0.029708961
73	0x3da48a87	0.080342345
74	0xbd86cd29	-0.065821
75	0x3c735c46	0.014853543
76	0xbd92a5dd	-0.07160542
77	0x3d08201b	0.033233743
78	0xbd908766	-0.07057075
79	0x3b4bdf58	0.0031108465
80	0xbd84eef4	-0.06490889
81	0x3c141390	0.009037867
82	0xbd912c57	-0.07088535
83	0xbd96a026	-0.07354765
84	0x3cb155ae	0.0216473
85	0x3d5d4887	0.054024246
86	0x3d84c71a	0.06483288
87	0x3d0d966a	0.034567274
88	0x3cda5a28	0.026654318
89	0xbd72564a	-0.059164323
90	0x3d44c9a9	0.04804388
91	0xbb13f196	-0.0022574416
92	0x3d4dfbc7	0.05028894
93	0xbd92ddfd	-0.07171247
94	0xbdb4e212	-0.08832182
95	0xbd27822a	-0.04089562
96	0x3ccaec00	0.024770737
97	0xbd9c1c69	-0.07622606
98	0x3993e2cf	0.0002820701
99	0xbd33f3fe	-0.04393386
100	0xbd8c53f8	-0.06851953
101	0x3ba31c28	0.0049777217
102	0x3ccaa785	0.024738083
103	0xbd594734	-0.05304642
104	0x3cb5a66d	0.022174085
105	0x3d524d9e	0.051343553
106	0xbd50595d	-0.050866473
107	0x3d902f41	0.07040263
108	0xbda3cda3	-0.079982065
109	0x3d086f09	0.033309016
110	0xbc325f4d	-0.010886979
111	0x3bca503e	0.0061741164
112	0xbd73a927	-0.059487488
113	0xbc9b757c	-0.01897692
114	0x3d713ba9	0.058894787
115	0xbdafdb21	-0.085867174
116	0x3d84e07d	0.0648813
117	0xbd7ee133	-0.062226485
118	0xbda434c4	-0.08017877
119	0xbd3b2d85	-0.045697708
120	0x3d6ee2fd	0.05832194
121	0x3d93f6cd	0.07224808
122	0x3d85dd3b	0.06536337
123	0xbd3b69ca	-0.045755185
124	0xbd9e8992	-0.07741083
125	0xbccc9474	-0.024973132
126	0xbcb08bcd	-0.021551037
127	0xbb8fc1f2	-0.0043871338
