logs/mappo_checkpoint_ep0.pth (torch, 451850 bytes, 28 tensors)

fc1.weight f4 [128, 147]
00000000: 000f b5bc a8bf 9a3d ad96 98bd 1886 0d3d
00000010: 90d6 1e3d a04d 50bc 001d d439 f6d8 3bbd
00000020: 837c 86bd 70ce 6a3d 3a2f d9bc f4e9 723d
00000030: c4b5 a73d 5c6c 1c3d 9827 2a3d 2a6e 3cbd
00000040: 2c3c 573d e347 99bd d4f5 87bd d0d3 bf3c
00000050: f3a1 863d 740b c73c 7e98 9e3d d6e9 67bd
00000060: 5099 b33c e0b5 6dbc 5cc4 fd3c 6232 0fbd
00000070: ae90 803d 4ee2 613d f0a4 a6bd 5ab6 c4bc
00000080: 509d 56bc 1486 593d 6e14 a5bc 3483 7dbd
00000090: 383b 97bd 7307 9ebd e910 e73c d6ec 06bd
000000a0: 40a3 893a 40a5 cc3c 20b1 7cbb 46c3 893d
000000b0: c5f8 2abd f639 77bd c00c 6c3c aca6 753d
000000c0: 0014 3a3d c01a b83c 9032 8abb 9400 d4bc
000000d0: 9ab8 babc dc7f 63bd 1d8c 33bd b593 9dbd
000000e0: e005 ce3c 1c7a 8fbd 90aa a33c c679 1b3d
000000f0: 2897 91bc f29f d7bc 722a 9a3d f04f c23c
00000100: 4031 8c3d f68f 1d3d 0e38 9bbd 901e 87bc
00000110: 3299 f3bc d0fa 753d 9824 9b3d 0e59 56bd
00000120: a0f8 49bd cacc b1bc 20e2 4fbc 4baf a23d
00000130: 10cb 00bc abfa 5cbd 56cb 7bbd d07f c33c
00000140: 00d6 d2ba fa1f f8bc f89b 543c 8d07 2abd
00000150: 9079 2fbc 8ca7 8c3d fe80 7bbd 1552 6fbd
00000160: 147d 2c3d 55c1 96bd a88b f1bc 7a1c b3bc
00000170: 6a25 79bc 10b8 2abc 78f2 10bd fe7f 96bd
00000180: 30dc 5a3c b055 603d b01c cb3b f0e0 4fbc
00000190: 30c9 a33d ac69 fa3c 701c 323d f2ad 76bd
000001a0: 04f3 163d 823e a9bc d05f 9e3d b816 72bd
000001b0: c328 1bbd 60e3 893b 703e 1d3d e050 94bb
000001c0: f319 2bbd bf69 99bb cee7 813d a428 fa3c
000001d0: 68f1 193d 8445 9e3c 5c6c 96bc b006 703c
000001e0: ac28 853d c463 913d 8cdf 233d cd24 85bd
000001f0: c860 36bc 8060 403d 4019 6fbb 2b55 0fbd
00000200: ce3d 59bd d4b6 d03c 1272 8dbd b111 78bd
00000210: d201 ffbc 7ce0 1c3d 71b6 8ebd e0ea 8b3b
00000220: 4492 61bd f59d 16bd 42c8 83bd 84f3 fdbc
00000230: c334 173d a6f6 a23d 3808 82bd f0e4 cabb
00000240: 7e8b 7abd c44e 8abc b31a 943d 4834 41bd
00000250: 40c9 26bd c03a 9d3d e42e e23c 0405 96bd
00000260: ca1d a6bd 683e dc3c 4650 c2bc 83b8 ac3c
00000270: ccbd 86bd ba58 983d d166 2e3c e849 42bb
00000280: a07a 9b3d 8799 7dbd ac6a 9d3d 6931 14bd
00000290: 60b5 643b 54bd 633d 342d 9b3d 195e 3e3c
000002a0: 9027 10bc 8677 8d3d 3420 6d3d 524b 943d
000002b0: a895 913d 5b43 53bd 94f6 823d 10f3 643c
000002c0: 9b0d 563d 35a2 773d aca0 8f3c 75be a13d
000002d0: 88f9 4fbd a1e0 a6bd ba71 9abb 30a7 883d
000002e0: 6cbf a13d 78d5 323d b087 893c 79bb 86bd
000002f0: 6618 663d fb38 273d 8981 54bd 46c5 b5ba
00000300: 8a90 4abd 1903 973d 93f6 a2bd 3a98 81bd
00000310: d349 02bd 808b 803d 5cad 463d 26dc debc
00000320: d633 01bd 9185 34ba c353 91bd a8d2 5bbc
00000330: 413a 09bd 79f8 37bd de07 7f3d 0509 77bd
00000340: 7c1e 943c ebac 9bbd 9f00 4ebd b17e 763b
00000350: f8e0 483c 801b 0cbd fdf7 143d 244a 763d
00000360: 743e 4dbc a1ff 63bd 0378 30bd ac11 173d
00000370: 2e33 81bd 09ff 33bc d931 4f3d 8ae9 8a3d
00000380: 93bf 833d 7d8c 82bd d69d a9bc 4a33 603c
00000390: 9414 593d d8af 623d 6fef 8ebb 9ffa 41bd
000003a0: 9e4a 9d3d d775 603d c3a8 9cbd 66ef 0e3d
000003b0: 1199 9c3d cc79 70bd df3d 19bd 44ac 953d
000003c0: e573 5fbd 5a59 adbc e12b 9d3d d400 6f3d
000003d0: 7cf0 82bd bb15 ec3c f94d 023b 70cd 1abc
000003e0: 826e a73d 8873 563d 507f c23c afd8 2fbd
000003f0: 519d 8a3c 8cb3 973d 3f04 57bd e59c 8f3d
-0.02210188 0.07556087 -0.07450614 0.03455171 0.03877884 -0.01271382 0.00040457398 -0.045861207
-0.065667175 0.05732578 -0.026511777 0.059305146 0.08188966 0.038189277 0.041541666 -0.046003498
0.05254762 -0.074844144 -0.06638685 0.02341643 0.06573858 0.024297453 0.07743929 -0.056619488
0.021923691 -0.014508694 0.03097742 -0.03496016 0.062775955 0.05514746 -0.08136928 -0.024012733
-0.01309903 0.053106382 -0.020151343 -0.061892703 -0.07384342 -0.077162646 0.028206306 -0.032940708
0.0010500923 0.024981141 -0.0038557723 0.067266986 -0.04174115 -0.06035801 0.014407337 0.059973404
0.04542923 0.022473693 -0.0042174533 -0.025879182 -0.022793103 -0.055541858 -0.043834794 -0.076941885
0.025149286 -0.070057124 0.019978791 0.03795793 -0.017772272 -0.026321385 0.07527627 0.023719758
0.06845331 0.03846737 -0.07579051 -0.016494066 -0.029736135 0.060053647 0.07575339 -0.052331023
-0.049309373 -0.021704096 -0.01268819 0.07943591 -0.007860914 -0.053949993 -0.061473213 0.023864657
-0.0016085505 -0.030288685 0.012976639 -0.041511107 -0.010710135 0.068678945 -0.061402313 -0.05842789
0.04211147 -0.07361094 -0.029485539 -0.021864165 -0.015206674 -0.0104198605 -0.035387486 -0.07348631
0.013358161 0.054769218 0.006198488 -0.012687907 0.07997358 0.030567966 0.04348415 -0.06022448
0.03685285 -0.020659689 0.077331185 -0.059103698 -0.03788067 0.0042080134 0.038389623 -0.0045262426
-0.041772794 -0.0046817954 0.06343041 0.030536957 0.03758374 0.019320257 -0.018362217 0.014650032
0.06501898 0.07099107 0.040008113 -0.0650116 -0.011131473 0.04696703 -0.0036483556 -0.034993332
-0.053037457 0.025477804 -0.06906523 -0.060563747 -0.031128798 0.038300022 -0.06968392 0.0042699426
-0.05507113 -0.036771733 -0.064346805 -0.030999906 0.036915552 0.07957201 -0.06349224 -0.0061918423
-0.061168186 -0.016883262 0.07231655 -0.047169 -0.04071927 0.07677221 0.02761025 -0.073251754
-0.081111506 0.026885226 -0.023719918 0.021084076 -0.0657917 0.07438798 0.0106446305 -0.0029646102
0.07591748 -0.061913993 0.07686362 -0.036179934 0.0034898147 0.05560048 0.07576981 0.011619114
-0.008798495 0.06907563 0.05789204 0.07240929 0.07108623 -0.051577907 0.06394687 0.013973966
0.05225907 0.060457427 0.017532669 0.07897655 -0.05077508 -0.08148313 -0.0047132643 0.066725135
0.07897839 0.04366061 0.016788334 -0.06578726 0.056175612 0.040825825 -0.051881347 -0.0013867996
-0.04945425 0.07373638 -0.079571865 -0.06327863 -0.031808686 0.062766075 0.048505172 -0.027204584
-0.031543575 -0.0006886358 -0.070960544 -0.013416924 -0.03350282 -0.044914696 0.062263362 -0.060311336
0.018080942 -0.07601341 -0.05029356 0.0037612135 0.012260668 -0.034205914 0.036369313 0.0601293
-0.012527097 -0.05566371 -0.043083202 0.036882088 -0.0630859 -0.010986098 0.050584648 0.06782825
0.06433024 -0.06374452 -0.020705145 0.013684103 0.05299814 0.05534348 -0.004362039 -0.04735815
0.07680248 0.05479988 -0.07649376 0.034896277 0.076463826 -0.058709905 -0.03741252 0.07308248
-0.054553885 -0.02116077 0.07674385 0.0583504 -0.06393525 0.028818956 0.00198829 -0.009448394
0.081753746 0.052356273 0.023742348 -0.042931255 0.016920717 0.07407293 -0.052494284 0.07012347

fc1.bias f4 [128]
00000000: aae7 7ebd 8366 a13d 12da 8ebd 5c44 093d
00000010: 62fe c9bc 4b5a 10bd 0616 c83a 0e94 a43b
00000020: c206 6b3d 8f60 3c3c 0e7a 473d ad93 993d
00000030: 7662 d6bc cb0b 9b3d b5c0 9b3d 9087 fabc
00000040: 2d88 c9bb 5478 f5bc b713 97bb 14f6 7bbd
00000050: 180d 6b3c bdd5 2ebd 2889 a9bc df82 e3bc
00000060: 1947 73bd 62a8 333d 1e88 733d 8c83 52bc
00000070: b742 7fbd ba93 633c 3070 a0bd 33ad 063d
00000080: 5d08 7d3d 4f85 a93d b3d8 7ebd 16c2 1f3c
00000090: 4137 fbbb 7c84 0a3d 8981 68bd 4e83 7bbd
000000a0: 68e1 a43c 3d85 853d a08e 6b3c d54e 8fbd
000000b0: dea2 93bd 77e5 9e3d ae14 27bc dc0e a73c
000000c0: 6876 10bd 09c3 3ebd 8489 b7bc 0509 80bd
000000d0: adfb 8f3d b2d5 7bbd e381 383d 8397 dc3c
000000e0: 68ae 853c 6975 12bb 6467 9438 b707 543c
000000f0: 75ff 73ba c0a3 b83c 1318 5dbd aea0 56bd
00000100: 315d 803d 7683 6d3d e169 9c3d fc8e 9f3c
00000110: 62f4 d4bc 0a56 8dbd fd41 f03c ebae d5bc
00000120: 2722 a23d 483c a2bd d25e 96bd 0d82 e3bb
00000130: 6013 f7bc e28b a13c df36 a3bc 67db 7bbd
00000140: bb5f 973d e39b 833d 12e9 353d 7b4b 9e3d
00000150: ec55 1a3d 5712 9d3d 73a7 af3c d48e 3f3d
00000160: 2a8f 60bd bafc 183d f356 803d 0264 6c3d
00000170: 6e1d 7f3d db04 803d 1baa 75bb 6c33 bebb
00000180: e6be 013c c94c a93c 3c90 a73d edb7 3abd
00000190: 3c12 6d3d 9e61 723d a99d 9d3d bcc8 753d
000001a0: 1a94 7c3d 2d4c ae3b 08bd 923b c274 3a3d
000001b0: 0965 a33d c3ed 9e3d 9d7b 8abd 12bb 7f3d
000001c0: 36ff 763d 1fc4 86bd 1674 163c acaf eabc
000001d0: a4f2 f5bb f8a8 493d 9402 cf3c 02e4 7f3d
000001e0: e131 bbbc 10af 89bc caf1 a6bd 2903 4a3d
000001f0: f087 87bd 0716 a0bc 000d 71bd 1239 313d
-0.06223265 0.07880881 -0.06975187 0.03351246 -0.024657432 -0.03524236 0.0015265353 0.0050225323
0.05737949 0.011497631 0.048700385 0.0749887 -0.026169997 0.07570609 0.07605115 -0.03058222
-0.0061502666 -0.029964603 -0.0046105045 -0.061513975 0.0143463835 -0.042684305 -0.020695284 -0.027772365
-0.059393976 0.043861754 0.059455983 -0.012848746 -0.062319484 0.013890201 -0.07833898 0.03288002
0.061775554 0.0827738 -0.06221838 0.009750864 -0.007666499 0.033817753 -0.05676416 -0.06140452
0.020127013 0.06519554 0.014377266 -0.06997458 -0.07208799 0.07758611 -0.0101978015 0.020392828
-0.03526917 -0.04657272 -0.02240444 -0.0625172 0.07030425 -0.061483093 0.045045745 0.026927715
0.016318515 -0.0022347814 7.076448e-05 0.0129412925 -0.00093077804 0.02253902 -0.053978037 -0.05239933
0.06267775 0.0579867 0.07637382 0.01947736 -0.025995437 -0.06901176 0.02932834 -0.026084384
0.0791667 -0.07921654 -0.07342304 -0.0069429935 -0.030160606 0.019720022 -0.019923626 -0.061488535
0.07391306 0.064262174 0.044411726 0.077292405 0.037679598 0.07669514 0.02144215 0.04676707
-0.054824032 0.037350394 0.06266584 0.057712562 0.062283926 0.06250926 -0.0037485424 -0.00580447
0.007919049 0.020666497 0.081818074 -0.04558556 0.057878718 0.059175126 0.07696087 0.06000589
0.06166468 0.0053191395 0.0044781007 0.045521505 0.07978255 0.07760193 -0.067618586 0.062434264
0.060301982 -0.06580376 0.0091829505 -0.02864822 -0.0075057317 0.049233407 0.025269784 0.062473305
-0.022850933 -0.01680711 -0.08151586 0.04931942 -0.06617725 -0.019541753 -0.05885029 0.043267317

fc2.weight f4 [64, 128]
00000000: b074 2e3c c46b ac3c 1ac0 e43c fb0f a63d
00000010: 1532 9abd c174 ae3d f75e 9e3d 32fc 433c
00000020: a685 4bbc f104 bc3b e158 09bd 57f1 45bb
00000030: c5cb cfbc 7ac9 4e3d 4e54 94bd 1d48 abbc
00000040: 6784 203d 6739 9cbd 87e0 b1bc 70b0 163b
00000050: 3f45 903d 6df1 be3c 5b2f 583d 09a2 813d
00000060: 8b78 923d 87d8 453d f3df 783c e333 8e3d
00000070: 6647 f8bc 7e3e 803c 9783 1f3d 2cae 493c
00000080: 425f 1abc 32b8 7a3b 7627 433c e947 adbd
00000090: 8c64 6b3d 5857 84bc c28e b23c a786 c7bc
000000a0: df3f 9abc 779c ed3c bf49 fa3c a9b4 1dbd
000000b0: a669 90bd 3593 d43c 45be 843d 75e9 a43c
000000c0: ddb5 f23c 4cc8 833d 4566 33bd 3549 a5bd
000000d0: 6709 3ebd b5aa cabc 204b 60bd 1933 213c
000000e0: 2503 a1bc 633f b63c bf31 debc ece1 8ebc
000000f0: 1a88 7d3d b207 943d 8f9e 8cbc b103 af3c
00000100: c4c8 adbd 7d70 333d ac22 903d 378e 04bd
00000110: b813 813d 2a83 88bd af4f f63c 8853 323d
00000120: b19e 88bd e296 793c e274 62bd ad8c 08bd
00000130: 337e aabd f250 503d f361 833d 5878 a7bd
00000140: 4c31 3abd d400 3bba f965 733c cdaa 98bd
00000150: d6ab 8ebd acf3 b0bd de67 9e3d eefa 1e3c
00000160: d57d 78bc 6210 ccbc f1b9 2bbd ccd1 fc39
00000170: 3fe0 b93b 3565 9ebd 4c6f ce3c 5996 3fbc
00000180: a131 463c 0c91 c43c 5240 1539 800e 8f3d
00000190: 85c3 b4bd fb2d 10bd 1913 853c 1c1f 35bd
000001a0: 8e07 823d 8b83 a9bd 9923 943d 7e85 4abc
000001b0: db40 10bd 5bd5 9bbd f52f c3bb b4ec 9ebd
000001c0: 0568 96bd 0a5c aabd a077 81bd c0ba 1c3c
000001d0: 4d54 d13c e345 48bd 243b 843c fb68 e2bc
000001e0: a8b3 28bc 3fb4 f43c 13e5 72bd ede0 92bd
000001f0: 7a3e abbc 3186 b4bd 049d 95bd 35d0 2fbd
00000200: c7ee 10bd 70b4 dc3b b4ec 483d fc60 bf3c
00000210: 9812 55bd 7356 98bb 472a b13c 2016 59bd
00000220: 727a bdbc 622d e5bc 2e70 b13d 0e03 25bd
00000230: 6b4a 123c e4d2 063d ffe5 8e3d 3579 593d
00000240: 3c86 a8bd f05a 94bd 3249 943d 1bb1 6f3b
00000250: 449a c3bc 57f4 4fbd 7e52 723d fd65 2d3d
00000260: b8e6 2a3d 9674 8b3d 8855 273d a761 a13d
00000270: 9e71 56bd 5ed2 3cbd 07fb 4d3d 2081 88bd
00000280: 7c24 66bd 95d7 8cbd 26ec 253d 4653 87bd
00000290: 1bb9 d93c 79f2 58bd 1c56 313d 55fb 6c3d
000002a0: da1d e8bb 5901 1d3c 73a7 8abd 2c8c 8a3d
000002b0: e9d5 6dbd 38ff 15bd ffba 2c3d 8a4f 21bd
000002c0: 2316 1bbd c9ee 52bc 07e6 163c 2e0b 4f3d
000002d0: 83ec d23c 2969 72bd 8608 8d3d 5e03 3a3d
000002e0: ba48 483d af28 0abd 166e a6bd 196c b33d
000002f0: ae86 83bd 02df 6a3d 180a 9dbd 66ca acbb
00000300: a307 a4bc 817a 98bd f99c 4d3d 888c 9b3d
00000310: 5597 833c 03ed 223c de92 343d 0a74 a23d
00000320: 78d4 51bd 8432 713d fa23 c1bc 1915 05bd
00000330: 6ff7 b33d acd4 a8bd b834 183d d28a 9a3d
00000340: d0cb c63c f772 ac3d 0660 11bd 2b1c 28bd
00000350: 1efc 79bd 378b f63c a509 6dbd 6f20 16bd
00000360: 9534 afbd f8c7 653d 6b3c e03c 5a3e 00bd
00000370: 5247 abbd f646 c83c cb78 913d c3c9 5c3d
00000380: 2c61 abbd 7022 36bc a4df 643d bfb2 70bd
00000390: 5e92 543d 1070 443d 44ac a63c bc65 903d
000003a0: 75af 30bd 016c cc3b 78e3 5e3c 1767 9e3d
000003b0: 3c70 153d 2c8b f7bb 4a15 263d 42c2 93bc
000003c0: 9362 d8bc 3e56 63bd 6c4d 99bb 3b97 6c3d
000003d0: dad4 3b3d dde2 07bd a738 0b3d 9c39 4dbd
000003e0: 7ab3 63bd 492d a13d b13d dd3c 50dc 963d
000003f0: aa01 873b 7a52 85bd 0aa6 70bd 3f65 2d3c
0.010647938 0.02104748 0.027923632 0.08108517 -0.07529084 0.08518363 0.07732957 0.0119619835
-0.012422001 0.0057378937 -0.033532027 -0.0030203664 -0.02536572 0.05048511 -0.07242642 -0.02090841
0.03918877 -0.07628136 -0.021713508 0.0022993349 0.07044458 0.02330848 0.052779537 0.06329734
0.07151898 0.0483022 0.015190112 0.0694349 -0.030307483 0.015654799 0.038943853 0.012309592
-0.009422125 0.0038256762 0.011911264 -0.084609814 0.057468936 -0.01615493 0.021796588 -0.0243562
-0.018829284 0.029005272 0.030552743 -0.03850237 -0.07051401 0.0259491 0.064816035 0.020130852
0.029627735 0.06434688 -0.043798704 -0.08070604 -0.046395686 -0.024739603 -0.054759145 0.009838843
-0.01965482 0.022247022 -0.02712333 -0.017441712 0.061897375 0.0722803 -0.01716545 0.021364065
-0.08485559 0.04380845 0.07037863 -0.03236219 0.06302589 -0.066656426 0.030067293 0.043536693
-0.06670893 0.015233727 -0.05528725 -0.033337284 -0.08324852 0.050858445 0.06415167 -0.081772506
-0.04545717 -0.0007133607 0.014855855 -0.07454453 -0.06966369 -0.08640227 0.07734655 0.009703381
-0.015166719 -0.024910156 -0.041925374 0.00048221496 0.005672484 -0.077341475 0.025199555 -0.0116935605
0.012096793 0.023994945 0.00014233708 0.069851875 -0.08826355 -0.0352001 0.016244458 -0.04421912
0.06349097 -0.08277043 0.07233352 -0.012360929 -0.0352181 -0.07609054 -0.0059566447 -0.07759991
-0.07344059 -0.08318336 -0.06321645 0.009566009 0.025552893 -0.048894774 0.016141482 -0.02763795
-0.01029674 0.029871104 -0.059300493 -0.071718074 -0.020903815 -0.088146575 -0.07305339 -0.04292317
-0.035383966 0.006735377 0.049053863 0.023361675 -0.052019686 -0.0046489774 0.021626605 -0.052999616
-0.023129676 -0.027975742 0.08663975 -0.040286116 0.008928875 0.032915965 0.06977462 0.053094108
-0.08228728 -0.072439075 0.072405234 0.003657407 -0.02387727 -0.05077013 0.059160702 0.04233359
0.041723937 0.068093464 0.040853053 0.07879954 -0.052354448 -0.04609906 0.050288226 -0.06665254
-0.056187138 -0.068770565 0.04050841 -0.0660768 0.026577523 -0.052965615 0.04329501 0.057856876
-0.0070836367 0.009582841 -0.0677022 0.06765017 -0.05806533 -0.03662035 0.04217052 -0.039382495
-0.037862908 -0.012874314 0.009210116 0.05054777 0.025747543 -0.05918232 0.06886391 0.045413367
0.048897482 -0.033730205 -0.08126466 0.08760852 -0.064221725 0.057341583 -0.07667941 -0.005273151
-0.020023173 -0.07445241 0.05019853 0.075951636 0.016063372 0.009944203 0.044085376 0.07932289
-0.051228017 0.058886066 -0.023576725 -0.032490823 0.087874286 -0.08243689 0.03715965 0.07546009
0.024267107 0.08420365 -0.035491966 -0.041042488 -0.061031453 0.03009568 -0.057870526 -0.036652025
-0.08554951 0.05609891 0.02737256 -0.031309463 -0.08363213 0.0244479 0.071031176 0.053903352
-0.083681434 -0.011116609 0.055877343 -0.058764216 0.0518974 0.047958434 0.020345815 0.07050654
-0.04313608 0.006238461 0.013604037 0.077345066 0.03648399 -0.0075544324 0.040547647 -0.018036965
-0.026414191 -0.05550217 -0.004678419 0.057761412 0.045857288 -0.033175338 0.033989575 -0.05010377
-0.055591084 0.078699656 0.027006956 0.0736624 0.0041200714 -0.06509872 -0.058752097 0.010583221

fc2.bias f4 [64]
00000000: 5c6b 373d 833e e53c cbf0 edbc 2792 34bc
00000010: bd75 91bc e8da 433d 8365 3d3d 280d 9ebd
00000020: 0c7b 823d bb6a 14bd a88d 513d 0610 823d
00000030: 534b 513d 8b63 84bd 602b 2aba bcc0 2b3d
00000040: 318c 66bd 210c dabc b303 b93c 22cd 3e3d
00000050: 8d38 953a d4ed 743d 7fdf 343c 3477 3bbc
00000060: 0d4b c3bb a98d a6bd be17 9bbb 0fab 7a3d
00000070: 4c3b 9fbd 36c8 993d 49c4 4c3c 67df acbd
00000080: 7a5c 8e3d df7b 71bc 43a9 3fbd b441 7b3d
00000090: 042b dbbb 98ec 393d 102b a5bd 3e73 8c3b
000000a0: 90d8 ec3a 40a1 6dbc 1fe2 97bd b461 9f3d
000000b0: 94fa 853d 1e54 0fbd 2db9 5dbd fb66 a03c
000000c0: 71a9 2b3c 9297 a23d 37a5 7abd 282e 2d3b
000000d0: afd1 103d 70df f6bb 7d80 ef3c 8563 a3bd
000000e0: 748c acbd dfc8 d0bc 0ab7 4a3c 7a20 6ebd
000000f0: 0df5 aa3c 7279 913d 8027 a83d 619b c33c
0.04478012 0.02798391 -0.029045483 -0.011021174 -0.017756337 0.047816187 0.046239387 -0.07717353
0.063711256 -0.0362346 0.051160485 0.063507125 0.051097225 -0.06464299 -0.0006491449 0.041931853
-0.05628604 -0.026617112 0.022584772 0.04658235 0.0011384651 0.059797123 0.011039614 -0.011441994
-0.0059598745 -0.08132488 -0.004733055 0.06119829 -0.07774982 0.0750889 0.01249797 -0.08441048
0.06951232 -0.014739006 -0.04679228 0.061341956 -0.0066884775 0.04539165 -0.08064854 0.004286199
0.0018069912 -0.014503777 -0.07416176 0.07782307 0.065419346 -0.03499233 -0.054131676 0.019580355
0.01047741 0.07939066 -0.061192717 0.0026425216 0.03535622 -0.00753396 0.029236073 -0.07977966
-0.08425227 -0.025486408 0.0123727415 -0.05813644 0.020868802 0.07103242 0.08210659 0.023877801

action_head.weight f4 [5, 64]
00000000: 8aa8 eb3d 6623 ea3c 9800 06bc 21a4 223d
00000010: f02f f63d e885 ec3b 5162 c6bd a4c3 a93d
00000020: 3914 c43d c974 f2bc 4204 eb3d 4d20 eabd
00000030: 08d2 953b 48d9 9bbd f177 823d 66a2 9dbd
00000040: 3801 143d c5cc 7e3d a67d 603d 3e67 e53c
00000050: bc22 c13d cc29 203d b4ed ccbc 1527 fc3d
00000060: a8f9 843d a820 b0bc 7ce7 fbbd c858 2abd
00000070: cc67 253d 14fb 99bd 6292 12bd cce2 343d
00000080: 9c57 21bd 77da ab3d ccd8 c83d d961 b23d
00000090: c0d5 83bd b726 bc3d aca4 253d 8e1d 853a
000000a0: 7dd0 c3bd 8c8b 6c3d 401e 593c 1bf0 9abd
000000b0: 4675 03bd fe95 fc3d f58b 79bd a0a0 c13d
000000c0: eed8 aabd 2ae9 65bd 18a7 a9bc 48bc cdbd
000000d0: b3b3 f63c 8077 83bb 9aef c4bd c801 213d
000000e0: 50b3 b5bc bef0 97bd e44a 5bbc 2972 e53d
000000f0: 0963 873c d8d2 b43d 3033 f13c f1cf ccbb
00000100: 1424 c4bd 7ed1 51bd 748f 863c 54c0 d7bc
00000110: 0516 ed3c 1c45 9db9 42ef 67bd 1820 f8bd
00000120: be0b c4bb 9339 7b3d bad8 9ebd f37f edbd
00000130: 20a6 92bd 9bb0 c43d 5c04 ca3d 8e07 73bd
00000140: e041 8d3d 247c 97bb be57 4dbd a6ce 1abd
00000150: 2a3d c0bd b098 80bd adcc ae3d dac0 cabb
00000160: 064d d1bc da29 b83d 1ad8 7f3d f7b9 febd
00000170: 68d4 3b3d ee1d 11bd 3d54 85bd eab7 ba3d
00000180: 1f4e 9ebd 30a3 d03d a167 0e3d 3aa4 76bd
00000190: 7b79 6cbd 268c ab3d 2677 b23d 988c 65bd
000001a0: 4473 393d 846b 793d f2cb c83d 4ba6 cfbc
000001b0: aa87 56bd 4943 6b3d 76c6 91bd c660 373d
000001c0: 5ebb 163d 997f 913d 00fc db3d 784b e93d
000001d0: a3d8 da3d 9cb7 823d d5ba 183d 78d3 d8bd
000001e0: e001 80bb 1c67 913d 8e30 1d3d 718d b13d
000001f0: 31d3 babd 2f0c 50bd 5237 023d 9f6e fa3d
00000200: 26c0 5ebc 4e81 063d 0c7b a43d 62fc 91bd
00000210: 1b45 cfbd c790 8f3d f6b3 173d ecf7 9dbd
00000220: 108c 39bc c7a1 903d cf41 4a3c e44a c4bc
00000230: 4c72 c5bc 9c7b c53d 4d84 f83d 752d d9bc
00000240: c283 f3bd 930f e03d 3154 813d 4960 b6bd
00000250: a3ec 50bd de21 543d 7be0 e33d 5b00 4bbd
00000260: c56e edbd e020 76bc a466 363d e712 8abd
00000270: c05a 983d 0abf 08bc c53b 1dbd 5c0f c5bd
00000280: f991 fdbd c00f d93d c69e f83d 0fa8 80bd
00000290: ff8b dcbd 4050 ecbd 2c52 08bd ea5d a93d
000002a0: 0737 3dbd 8c1a 9c3d 00fa b0bb 6735 043c
000002b0: c600 1f3c 264c f53c 32c8 b8bd a9a1 d73d
000002c0: 318b a4bb c383 a03c 0477 9bbd d644 01bc
000002d0: 21f5 4f3b 10ff 6dbd cf6c 4e3d b47f 7a3d
000002e0: e4a0 803d a672 dc3c a767 3d3c 2854 da3b
000002f0: 22fc 51bd 25f6 8a3d 2620 16bd fe12 663d
00000300: 844b 80bd 0f76 ec3d 801b fdbd 18ab 7ebd
00000310: 575d d33d 0d9c 91bd f5f7 d23d f062 423c
00000320: ec35 ebbd 8622 41bc 9afe 7bbd 893b 863d
00000330: daa7 793d 7272 f43d a6d0 2c3d 9d6e a43d
00000340: 8885 3abd 0670 23bd a6e1 81bd 700a 313c
00000350: fa1d d03d a470 6cbb 0700 213d d161 cbbd
00000360: 51a3 543d 6ed9 ebbd f46b 653d 31aa ccbd
00000370: 04d0 a4bd 794b bbbd 149d a0bd ec20 4ebd
00000380: 9f2e bebd 0ad0 3bba 9339 fd3c 586a 5a3c
00000390: 0f31 27bd b4ae 8a3d 4cc5 ea3d fe6c b2bd
000003a0: ba02 a2bd 8c37 fabd a0b8 8cbb 25dd fd3a
000003b0: 15c7 b5bd 37c1 e73d 97de cc3c 136a ba3d
000003c0: 1a59 3cbd bb18 8bbd b799 3dbc 1adc dfbd
000003d0: 3586 4f3d 6a33 e3bd fa33 3fbd 7081 313d
000003e0: 0c2e 9abd f666 ebbd f8c7 773c 2172 ecbd
000003f0: dae5 353d 1ee6 21bd 5638 053d d698 ab3b
0.11506756 0.028581332 -0.0081788525 0.039707307 0.12020862 0.0072181113 -0.09686721 0.082892686
0.0957417 -0.029596703 0.114754215 -0.11431942 0.004572157 -0.076098025 0.06370533 -0.07696991
0.036133975 0.062207002 0.054807328 0.028003331 0.09430453 0.03910236 -0.02501569 0.12312142
0.06492931 -0.021499947 -0.123000115 -0.041588575 0.04038219 -0.075185925 -0.035784133 0.044161603
-0.03939019 0.08391278 0.09806976 0.08710069 -0.06437254 0.09187072 0.040440246 0.0010155903
-0.0956125 0.05775027 0.013251841 -0.07565328 -0.032094263 0.12333296 -0.06092449 0.09454465
-0.08342157 -0.056130566 -0.02070956 -0.100456774 0.030114984 -0.0040120482 -0.09616013 0.03930834
-0.02218023 -0.07418965 -0.013384555 0.11203415 0.016526716 0.08829278 0.029443353 -0.0062503745
-0.09577194 -0.051225178 0.016425826 -0.026336826 0.028941164 -0.00029996864 -0.05662466 -0.121154964
-0.005982845 0.061334204 -0.07756181 -0.1159667 -0.07160592 0.09603997 0.09864113 -0.059333377
0.0689733 -0.004622953 -0.050132506 -0.03779473 -0.09386666 -0.06279123 0.085351326 -0.0061875405
-0.025549423 0.089923576 0.06246195 -0.12437814 0.045856863 -0.035428934 -0.06510208 0.0911711
-0.07729744 0.101873755 0.034766797 -0.060215212 -0.05773304 0.083763406 0.08714132 -0.056042284
0.04527594 0.06089355 0.098045245 -0.02534785 -0.052375473 0.057437215 -0.071179315 0.044770025
0.03679978 0.071044154 0.107414246 0.11391348 0.106858514 0.06382677 0.037287552 -0.105872095
-0.0039064735 0.07099745 0.038376383 0.08669556 -0.09122313 -0.05079287 0.03179104 0.122281305
-0.013595616 0.03283816 0.08031282 -0.07128216 -0.10120603 0.07010036 0.03703686 -0.07713303
-0.011324897 0.070621066 0.012344792 -0.023961492 -0.024102353 0.09642717 0.12134609 -0.026510933
-0.11890365 0.109404705 0.06314886 -0.08905084 -0.051006924 0.05179011 0.111268006 -0.049560886
-0.11593393 -0.015022486 0.04453148 -0.067418866 0.07439184 -0.0083463285 -0.03838708 -0.0962207
-0.12381358 0.10598707 0.12139659 -0.06282055 -0.1076889 -0.11538744 -0.03328149 0.08269866
-0.046195056 0.07622251 -0.005400896 0.008069373 0.009704774 0.029943537 -0.09022559 0.10528881
-0.0050214757 0.019594079 -0.0759106 -0.007889947 0.0031731802 -0.058104575 0.050396737 0.061156943
0.062806875 0.026910137 0.011560357 0.0066628642 -0.051265843 0.067852296 -0.036651753 0.056170456
-0.062644035 0.115459554 -0.12358761 -0.062174886 0.103205375 -0.071098424 0.103012 0.011864409
-0.11484894 -0.011788016 -0.061522104 0.06554324 0.06095109 0.11935891 0.04219117 0.0802891
-0.0455375 -0.039901756 -0.06341867 0.010805711 0.101619676 -0.0036077881 0.039306667 -0.099307664
0.051913563 -0.11516081 0.056011155 -0.09993399 -0.08047488 -0.09145255 -0.0784246 -0.050324365
-0.09286236 -0.0007164484 0.030911243 0.013331018 -0.04081827 0.06771603 0.11463413 -0.08712195
-0.07910676 -0.12217626 -0.00429447 0.0019368274 -0.088758625 0.1131615 0.025008483 0.09102263
-0.04598341 -0.06791826 -0.011572293 -0.10930653 0.0506651 -0.11093791 -0.046680428 0.04333633
-0.07528314 -0.114942476 0.01512336 -0.11545206 0.044408657 -0.039526097 0.03252443 0.0052367253

action_head.bias f4 [5]
00000000: 72e8 193d c6a4 1ebc f573 f5bb 1379 b93d
00000010: 16ab 0b3d
0.037575193 -0.00968284 -0.00749063 0.09056296 0.034098707

value_head.weight f4 [1, 64]
00000000: 5664 4ebd 01c0 a43d b396 593d 668a 4f3d
00000010: 9956 df3d a534 bebd 3906 ff3d 8eca b13d
00000020: 1748 3a3c 8d80 c63d ec2b c1bc 7f3b 933d
00000030: af42 fb3d f877 c4bd 1ddf f9bd 8e3f 593d
00000040: c0d4 033d 3ae3 f6bd 03e2 4abc 0079 9d3d
00000050: 4d71 913d b3c7 ae3c 14c7 92bc dab1 8abd
00000060: 1cef 69bc 8022 c33a 6ec0 9b3b a1c0 c63d
00000070: dc74 49bd 1318 dfbd dead 71bd bc54 ab3d
00000080: 75c4 d9bd 8fde a8bd 3d06 93bd 6ab8 613d
00000090: 0e74 d2bb 9132 ba3d 20dc c53d be8c 48bd
000000a0: 1248 28bd 620b d13d 1e20 853d e6f1 11bd
000000b0: 1a8e 3abc 4bf2 893d d59c 263c 0340 d23d
000000c0: 9482 4cba 6a4b 00be 5df7 f03d b2c2 abbd
000000d0: 83fd 9fbd a840 c23d 12f7 c23d 709e 003d
000000e0: e826 4e3d c669 6dbd efd4 c5bd 6b5a 01bd
000000f0: cd2e b3bc be9b 7ebd e3e8 a0bd a1c0 dfbd
-0.050388657 0.08044434 0.053122234 0.050669096 0.10905189 -0.09287385 0.12452359 0.08681212
0.011369727 0.09692488 -0.023580514 0.07189082 0.12268578 -0.09593195 -0.122007586 0.053039126
0.032185316 -0.12055059 -0.012382987 0.076890945 0.071016885 0.021335458 -0.017917193 -0.06772204
-0.0142781995 0.0014887601 0.004753164 0.0970471 -0.04918371 -0.10893264 -0.059003703 0.08365771
-0.10633174 -0.08245575 -0.07178924 0.05510751 -0.006422526 0.09091676 0.09661126 -0.048962347
-0.041084357 0.10207249 0.065002665 -0.035631083 -0.011386419 0.06735667 0.010169228 0.102661155
-0.000780144 -0.12528768 0.11765931 -0.083867446 -0.078120254 0.094849885 0.09519781 0.031401098
0.050330073 -0.0579622 -0.096597545 -0.03158037 -0.021872902 -0.062160246 -0.078569196 -0.10925413

fc1.weight f4 [128, 147]
00000000: 620d 233d 94a6 fc3c ce7c 37bc 905f 303d
00000010: 4486 8f3d a858 9e3c a0fd b2bc a4ba a63d
00000020: 96e8 353d 36be 103d 932c 30bd 4f5e 88bd
00000030: 6f29 35bd 2909 a7bd 48c8 093d 4841 babc
00000040: c21f 85bd b6cf 073d db5e a03c 8c35 a43d
00000050: ef6e 223d dc44 753d e6c8 e0bc 287c 86bc
00000060: 60a0 78bd 80dc 733a 4deb 933d 61dd d83c
00000070: 725b 56bd f201 743d d7fa 623d d86c 983c
00000080: ee95 313d df88 d43c 7074 f6bb 9a72 843d
00000090: 5450 7dbc bcc0 a83d 36ff 533d 9808 69bd
000000a0: 7020 a0bb 8074 90bc b404 dc3c 9085 28bd
000000b0: 3dcd 0d3d 3bd5 7f3d 344f 753d bdad 82bd
000000c0: b677 8ebc 2868 cb3c 57ee 9f3d 419f 8cbd
000000d0: f02b 6a3d ebea 9c3d 3c3e 38bc b0fe 10bc
000000e0: c8d4 08bc a855 913d 6047 8e3c 6b83 98bd
000000f0: 8fbb a43c c4a0 953c 1826 d6bc 5238 a33d
00000100: de30 243d 1ba2 c43c 1bfe 5bbd e039 a3bc
00000110: 483a 91bc 0452 1b3d c024 69bd 442c 453d
00000120: c273 0dbc 588e 113c 0e26 61bd 6c82 8cbc
00000130: 3d51 6cbd b8af eebc 0c78 1c3d b841 1f3c
00000140: cff1 fb3b 89b4 7abc b07f 813d 5058 483c
00000150: a48c 9abc 14b8 65bd 1043 663d baeb 16bd
00000160: f841 543d f06b 993d d0e8 203d 2009 dcbb
00000170: fa18 983d d2ea f5bc 5aac 103d 344c d8bc
00000180: 6385 6ebd 782e 2abc ae76 85b9 18ed 493d
00000190: baf3 2cbd 846d f7bb 2b41 b13c 58b8 413d
000001a0: 118b 98bc 1905 173d 5878 803d f87e 5cbc
000001b0: 7607 70bd a8d6 2a3d f44e 98bc 765f 4f3d
000001c0: 1098 543d 4c37 96ba f618 f43b a8c0 2e3c
000001d0: 276e b6bc 985f 033d 9462 59bd 6588 10bd
000001e0: cd15 8dbd 5fa2 8abd 2492 8abc 55b1 82bd
000001f0: 38c7 7e3c f4a3 9b3c 2c18 8c3d 884e 6ebd
00000200: 685c b4bc 1185 04bd 2824 0b3c c187 87bd
00000210: 1dcc af3c c06a 273d 452f 86bd 14bd 663d
00000220: 64a8 7e3d bd00 913d 206e f8bb 2ce0 8dbd
00000230: a6cc 323d d288 03bd dcbc d0bc fc26 b63c
00000240: d70b 84bd a2b7 9abd b5c6 85bd aa79 023d
00000250: 8ca9 df3c 28d9 b8bc 844f 96bc 50ed 323d
00000260: 7a3e a13d 88a4 29bc 3831 3dbc 10ee 6d3d
00000270: d085 ec3c 22a8 b7bc 35f6 1bbd 383c 70bc
00000280: 6863 d53c e0da cebc b02d 97bb 5644 a3bd
00000290: 1bb3 153c 8c1e 8a3d d8cc 1fbc 8d33 2fbd
000002a0: 5ef8 903d 34a8 873d 183e 8cbd 006f ec3b
000002b0: cc3b 683d f4e5 92bc 7e2c a1bd 00de 433d
000002c0: 5d65 9abd f2e2 a7bd e95e 84bd ee58 e3bc
000002d0: 70e7 36bc f057 ba3c 8177 843d 9ece e7bc
000002e0: e0fe 9d3c 53d4 113d babb 80bd 4074 66bc
000002f0: b2d7 853d 20e4 8cbd 55b6 84bd 4bf3 23bd
00000300: 4b14 a33d ec51 bd3c d838 653c 94a1 883d
00000310: ac08 9ebc faaf 143d 9f04 583d ad43 85bd
00000320: 66a6 9b3d a42c 88bd d8b5 1c3d 17f8 8d3d
00000330: 9c3a 8fbc fca2 813c b670 84bd 40a1 0e3c
00000340: 6c3a c53c 5f07 b7bc 53d5 68bd 6ccd 8c3c
00000350: b065 c63b 053f 31bd f073 d9bb a8da 69bc
00000360: 4bfe a8bd c846 643d 4678 6abd d289 2cbd
00000370: 3c96 e0bc 1c16 323d 205c 1bbc 446f 273d
00000380: 1030 683c c0e3 413c 1847 0b3c b6d8 4dbd
00000390: 00f0 a4b7 ecaf 663d 74cc 6dbc 3a3c 663d
000003a0: cc5c a53d eb75 7ebd 7d00 883d 3835 90bd
000003b0: 0168 a8bd 3829 5b3d ec5e 76bd 6077 703b
000003c0: f848 7a3c 1087 c2bc 4e60 0d3d 0057 383b
000003d0: 2eeb 7abd bfb3 983d a050 1abb ae3a a33d
000003e0: ac3f e0bc 6f16 25bd c8cf 703d 8440 0ebd
000003f0: 0dcf 51bd c6ae 093d 005d 4c3c e041 753b
0.039807685 0.03084115 -0.011199189 0.043059886 0.07008031 0.019329384 -0.021849453 0.081410676
0.044411264 0.03533765 -0.04301126 -0.06658613 -0.044228967 -0.08156044 0.03363827 -0.022736207
-0.06500198 0.033157073 0.01957648 0.08018026 0.039656576 0.059880123 -0.027439546 -0.016416624
-0.06069982 0.00093025714 0.072226144 0.02647275 -0.052333303 0.059572168 0.055415 0.018606588
0.043355875 0.025944171 -0.0075212047 0.06467171 -0.015461046 0.08239886 0.05175706 -0.05689296
-0.0048866794 -0.017633677 0.026857711 -0.041143 0.03461956 0.06245921 0.059889987 -0.06380794
-0.017391067 0.024829939 0.078091316 -0.06866313 0.05717081 0.076619945 -0.011245307 -0.008849785
-0.008351512 0.07096416 0.017368019 -0.07446941 0.020108966 0.018265136 -0.026141211 0.079697266
0.040085666 0.02400308 -0.05370913 -0.019925058 -0.017727986 0.037920013 -0.056919813 0.048137918
-0.008633556 0.008884035 -0.054967932 -0.017152034 -0.057694662 -0.029136524 0.038200423 0.009720258
0.007688738 -0.015301832 0.063231826 0.012228087 -0.01886589 -0.056083754 0.0562163 -0.0368459
0.051820725 0.074912906 0.039284527 -0.006714955 0.07426639 -0.030019198 0.035320617 -0.026403524
-0.058232676 -0.010387056 -0.0002545616 0.049298376 -0.042224623 -0.007550897 0.02163752 0.047294945
-0.018621 0.036870096 0.06272954 -0.013458006 -0.058600865 0.04170862 -0.018592335 0.050628148
0.05190283 -0.0011460572 0.0074492646 0.01066605 -0.022269322 0.032073587 -0.053072527 -0.035286326
-0.06888924 -0.06769251 -0.016915388 -0.0638148 0.015550427 0.018999077 0.06840548 -0.058180362
-0.022016719 -0.032353465 0.008492507 -0.0661769 0.021459633 0.04087329 -0.06551985 0.056332663
0.06217231 0.07080219 -0.0075814873 -0.06927523 0.0436522 -0.032112904 -0.02548068 0.022235386
-0.06447571 -0.075545564 -0.06532041 0.03185431 0.027302526 -0.022564486 -0.018348463 0.04368335
0.078732446 -0.010354169 -0.011547379 0.058088362 0.0288724 -0.02241904 -0.0380766 -0.014662795
0.026048377 -0.025250852 -0.0046136007 -0.079720184 0.00913694 0.067441076 -0.009753428 -0.042773772
0.07078622 0.06623879 -0.06847781 0.0072153807 0.05669765 -0.017931916 -0.07869814 0.047819138
-0.07538865 -0.08197583 -0.06463415 -0.027752366 -0.011163577 0.02274701 0.06468106 -0.028296765
0.019286573 0.03560288 -0.06285806 -0.014065802 0.06535281 -0.06879449 -0.064800896 -0.040026944
0.07962855 0.023110352 0.013990603 0.066714436 -0.019291244 0.036300637 0.052738782 -0.06507049
0.07600097 -0.066491395 0.038259357 0.06932085 -0.017484002 0.015824787 -0.064668104 0.008705437
0.02407571 -0.022342382 -0.056844067 0.017187797 0.0060546026 -0.04327299 -0.0066361353 -0.014273323
-0.082516275 0.055731565 -0.057243608 -0.042123623 -0.027415387 0.043478116 -0.0094824135 0.040877596
0.014171615 0.011834085 0.008500837 -0.0502555 -1.9662082e-05 0.056320116 -0.014514077 0.05620978
0.0807434 -0.062124174 0.06640718 -0.07041401 -0.08222962 0.053506106 -0.06014912 0.0036692247
0.015276186 -0.023746043 0.03451567 0.0028128028 -0.06125944 0.07456159 -0.0023546591 0.07970177
-0.027374111 -0.040304597 0.058791906 -0.034729496 -0.05122285 0.033613943 0.012473345 0.0037423298

fc1.bias f4 [128]
00000000: 9eee 513d 4ebf 35bc 39b7 9fbd a784 64bd
00000010: ff6d c93c 400b ae3b 10ec 95bd 9245 313d
00000020: e013 88bd e8f2 e03c 22bc 3f3d b352 7abd
00000030: c971 8a3c 4b0f 3ebd 77f4 8ebd e88d 88bd
00000040: 6f5d a73d 1ebf 793d e5bb 95bd a703 8c3d
00000050: 678f a33d ac5d 70bd c328 91bd 6c55 a7bd
00000060: d6ec 233c 020f 503d b116 9c3d 75f8 d03c
00000070: 6a85 81bd d219 25bd 5c72 0e3d dd03 69bd
00000080: 75be 81bd 2329 1d3d 989b 57bd c89c c53c
00000090: a4e4 283d 38c1 22bd f8cc 033a ec5c 2ebd
000000a0: 6456 8b3c 6200 423d 2555 b33c d27a 5cbd
000000b0: aade 09bd 5e98 61bc d96d 743c e102 9b3d
000000c0: 376b 233c f2ac 4b3d 0034 ca3c 79cc 893d
000000d0: b3a6 9e3d 52f3 8abd 4f22 0a3c 916f a93c
000000e0: 890f 03bd 9779 85bd 3f03 24bd ee01 4fbc
000000f0: 54c7 9ebc b07b 5b3c 61d5 eebb d2a7 483d
00000100: 1b47 913d d7dc 873d ddec 823d c1c0 08bd
00000110: a1e9 86bd 28b9 88bc e41e a83b 66ed 2d3a
00000120: 884d 4dbd ef60 23bd fd07 ffbc 6b5a 84bd
00000130: 3cd2 53bd 7e56 393d 5bc9 2cbb 86ff 7e3b
00000140: e7e0 8d3d e005 84bc 4728 b23a 1c91 a5bd
00000150: d6e7 723d 1bc8 253d 4504 85bd fa4f b13b
00000160: e010 993d 1bf8 933d b92b 87bd 5978 85bd
00000170: be27 f1bc 681b 32bd fd72 933d 4af6 42bd
00000180: c2d8 d2bc 7051 a7bc e724 753c 7036 f83a
00000190: 953a 353d e59f 8e3d 1e26 76bc 0d3b 953d
000001a0: 89bf 843d 58f4 a53d ed36 38bd 36fe 403d
000001b0: f27f 023d 7a41 07bd f31d 973d 6d78 24bd
000001c0: d10f 0cbd 9bd1 8d3c b2cc 333d f0bf 1abb
000001d0: b64e 683d fb40 15bc e7c0 8a3d 8ae6 2d3d
000001e0: b558 a6bd 2f13 833d 3d10 8cbc fa93 fdbb
000001f0: caa5 97bd d7b6 573d c139 3e3d 85fd 893d
0.051252954 -0.011092974 -0.07798619 -0.05579057 0.024588583 0.0053113997 -0.07320416 0.043279238
-0.06644416 0.027459577 0.046810277 -0.061114024 0.01689996 -0.046401303 -0.06980222 -0.066676915
0.08172118 0.06097328 -0.07311229 0.06836634 0.07986336 -0.058683082 -0.07087853 -0.0817059
0.010005197 0.050795563 0.076215155 0.025509099 -0.06324275 -0.040307827 0.03477703 -0.05688845
-0.06335155 0.03836931 -0.05263862 0.02412261 0.041233674 -0.03973505 0.0005027796 -0.042569086
0.017008968 0.047363646 0.021891186 -0.053828068 -0.033659615 -0.013769237 0.014918768 0.075689085
0.0099742925 0.04972548 0.024682999 0.06728453 0.07746639 -0.06784691 0.008431031 0.020683082
-0.031997237 -0.06517332 -0.04004216 -0.012634737 -0.019382156 0.013396189 -0.0072886203 0.04898817
0.070936404 0.06633919 0.06392834 -0.03338695 -0.0658753 -0.016689852 0.0051306356 0.00066348014
-0.050122768 -0.039887365 -0.031131739 -0.06462558 -0.051714167 0.0452485 -0.0026365134 0.0038909628
0.06927662 -0.016116083 0.0013592326 -0.08084318 0.059303127 0.04047404 -0.06494955 0.0054111453
0.07473922 0.07225057 -0.06600136 -0.06517095 -0.029437896 -0.043483168 0.07199667 -0.04759816
-0.025738124 -0.020424575 0.0149624115 0.0018937122 0.04424532 0.06964091 -0.015023736 0.07286654
0.06481845 0.081032455 -0.044974256 0.047117434 0.0318603 -0.033021428 0.07378759 -0.04015391
-0.03419477 0.017311862 0.043896385 -0.0023612939 0.05671569 -0.009109731 0.067750745 0.042456187
-0.08122388 0.06400143 -0.017097587 -0.0077385874 -0.07404669 0.052664604 0.046441797 0.06737808

fc2.weight f4 [64, 128]
00000000: 5bf2 b13d f834 d1bc 617e 0abd 52d8 683d
00000010: aeb5 0bbd 98b7 a2bc 427a a5bd 269a 4d3d
00000020: 701f ba3b d0bd babb ee0e 5c3d b290 b0bd
00000030: c464 e2bc aa9d 513d 24f5 8fbc 5aef 2f3d
00000040: 3e2c 5abd f0ac db3b 9045 b53c 6f5f 2fbd
00000050: 9666 aabd d240 583d 0cbe ddbc 31a3 973d
00000060: 0efc b3bd cf19 26bd 7237 1b3d 6446 88bd
00000070: 8079 743c 39be 39bd d8ef 77bc d8f3 31bc
00000080: 6d74 44bd 90a6 a93b 5c34 b2bd 979a 2bbd
00000090: 00e2 c9ba ad72 b13d a22d 423d e0c1 0ebb
000000a0: 9234 9bbd 8f11 58bd 8d86 893d 3e22 4e3d
000000b0: 30ae 633c b0c0 bf3b d7d7 91bd 5257 7ebd
000000c0: e4c4 8ebd cd67 823d d796 a5bd cd71 a1bd
000000d0: ee84 683d 5858 d1bc bb24 823d 382a a6bc
000000e0: 3053 97bb 28ef 7abc 52e2 023d 1df4 833d
000000f0: 9bd0 20bd 52b1 dcbc ab1a a93d 84de d43c
00000100: b0a6 16bd c8fe 83bc b880 bebc 367d 573d
00000110: f6de abbd bcc3 8dbd 006a 9ebd 9266 1c3d
00000120: feb9 95bd 805d b83c 39fe 9b3d c7da 963d
00000130: 7a10 6dbd 1e8b 87bd e327 5fbd d4cd d03c
00000140: f928 913d cfe7 b0bd bf87 5abd 8d8b 99bd
00000150: a5d9 8fbd 02d0 6d3d 68ab 5b3c 9666 473d
00000160: f679 96bd cdb4 86bd f1e2 aebd a094 f03c
00000170: ca27 7f3d 3041 87bc 0d5f 24bd 20b9 a1bc
00000180: 8adb 7e3d 43c3 abbd 496e 1abd 738c 883d
00000190: b1b3 57bd fccd fe3c 0ee2 7ebd 5867 f03c
000001a0: cbd6 943d 62c4 633d 7ced 60bd 5619 4b3d
000001b0: 20e4 46bb e603 83bd 601b 7cbb 1656 643d
000001c0: 48d9 7f3c d0dc c7bc 383a 243c 5849 7a3c
000001d0: ced0 1cbd c64e 453d 74ad 84bc 83a8 853d
000001e0: ce1e 563d d98a ae3d 06a5 623d 6640 91bd
000001f0: 08f8 85bc 9264 313d c8b1 1fbc f08e f6bb
00000200: be9f 5b3d 4036 57bc 287c 943d 263a 783d
00000210: 873a 473d 0078 ab3a 4bff 443d 6c2d afbd
00000220: 0678 5a3c b4ba 9cbd 0c56 39bd 1eec 77bd
00000230: 7224 88bd 3655 a6bc baba 56bd f8bf 643c
00000240: a2eb a9bd 8f94 71bd b76a 033d dc4b 70bc
00000250: 30f9 003d 9ac0 a5bd 642a 27bc 28b8 76bd
00000260: 719f 763d e62f a33c bd4d b1bd 2b10 5dbd
00000270: 4a64 4d3d d322 a03d a8a5 ab3d bcbb a8bd
00000280: da09 c93b d30e 6bbd 3729 a73d 4f28 a3bd
00000290: 25f4 263d d163 18bd bf0d 3cbd 4e6a 3e3d
000002a0: 4346 43bd 08f7 9ebd 866e 9b3c 98ff 0e3d
000002b0: 90a8 b03c bf43 6dbd d9a2 a2bb bd9a 493d
000002c0: 19d3 aa3d 5ab7 803d 0bad e23c 771c a13d
000002d0: c565 8b3d 1fad 83bd 30a2 803d 8a76 a7bd
000002e0: c83b 87bd 2c5d 283d f4d4 88bd af98 82bc
000002f0: d9e8 a7bd b324 f2bc eb3f 903d b937 ac3d
00000300: 8a3d 35bb 3f46 b2bd 24f6 a1bd 7248 77bd
00000310: 7fda 133d 2e48 71bd 28ed 293d 705e a1bd
00000320: f637 163d 48a7 d73b d247 7d3d 3a9a 55bc
00000330: e5d1 dcbc 6a8b 80bd 8a3f 8abd d536 4a3d
00000340: 258a d03c 9cdd 57bc 474f 4e3d 2d54 62bd
00000350: 34aa 463b b67a 243d 8c5d 66bd 00f8 473c
00000360: 7553 a7bd 5a38 2dbb 2ea9 bdbc e02d 4cbc
00000370: d8b0 c5bc eb6c 35bd 56b8 63bb f25a 593d
00000380: d18a 563d eaf4 aebd e87f a9bc 3714 ab3b
00000390: 9cb8 2a3d 4aee 43bd 4437 813c e08b 92bd
000003a0: 18c3 533d 84bb 493c f0ad 6b3d e746 b2bc
000003b0: cf6f a53d a025 283d 22f3 9fbd 3b9e 3f3c
000003c0: e1f1 44bd 9fe6 933c d3ac 563b 11d0 bbbb
000003d0: 6dee 8abd 6f44 7a3b 73b6 813d 9af4 1a3d
000003e0: 95f3 34bd d63a af3d 88f3 75bd 2da8 b03d
000003f0: d290 143c 790c 853d ac04 823d ce41 5abc
0.08688804 -0.025537953 -0.03381193 0.056846924 -0.03410881 -0.019862935 -0.080799595 0.050195836
0.005680017 -0.005698897 0.053725176 -0.086213484 -0.02763594 0.05117575 -0.017572947 0.042952873
-0.05326485 0.0067039654 0.022127897 -0.042815622 -0.08320348 0.052796192 -0.02706816 0.07404173
-0.0878831 -0.040551957 0.037894674 -0.06654051 0.014921546 -0.045347426 -0.015132867 -0.01086136
-0.047962595 0.0051773265 -0.08701393 -0.041895475 -0.0015402436 0.08664451 0.0474068 -0.002178304
-0.07578386 -0.05275112 0.06715117 0.050325625 0.01389651 0.0058518276 -0.07121246 -0.062094994
-0.06971148 0.06367455 -0.08085411 -0.07883034 0.056767397 -0.02555482 0.06354662 -0.020283803
-0.004618071 -0.015315808 0.031954117 0.06443045 -0.03926144 -0.026940022 0.0825704 0.02598501
-0.03678006 -0.0161127 -0.023254737 0.052609645 -0.08392136 -0.06922099 -0.07735062 0.038183756
-0.07310866 0.022505522 0.076168485 0.07365947 -0.05787704 -0.066183314 -0.0544814 0.025488771
0.07087893 -0.08637964 -0.053352114 -0.0749732 -0.07023934 0.0580597 0.013407566 0.048681818
-0.07347481 -0.06577454 -0.085393794 0.029367745 0.062293805 -0.016510576 -0.04012971 -0.019741595
0.062221088 -0.083868526 -0.037702832 0.066674136 -0.0526616 0.03110408 -0.0622273 0.029346153
0.07267531 0.055607207 -0.054913983 0.04958471 -0.0030348375 -0.06397228 -0.0038468465 0.05574616
0.015615769 -0.024397284 0.010023646 0.015276276 -0.03828507 0.048170827 -0.01619599 0.06526282
0.05227547 0.08522577 0.05533316 -0.07092361 -0.016353622 0.043308802 -0.009746976 -0.0075243637
0.05361914 -0.013135493 0.072502434 0.06060233 0.0486398 0.0013082027 0.04809503 -0.085535854
0.01333428 -0.07652798 -0.045248076 -0.060527913 -0.066475764 -0.020304304 -0.05242417 0.013961785
-0.082968965 -0.058979567 0.032084193 -0.014666524 0.031487644 -0.080933765 -0.010202978 -0.06023422
0.06021065 0.0199203 -0.086574055 -0.053970497 0.05014447 0.07819142 0.08381206 -0.082389325
0.0061352076 -0.057387184 0.08162158 -0.07966673 0.040760178 -0.037204567 -0.045911547 0.0464881
-0.04767443 -0.07761961 0.0189736 0.034911722 0.021564752 -0.057925936 -0.0049632606 0.049219836
0.08341045 0.062849715 0.027670404 0.07866757 0.068065204 -0.064295046 0.06280935 -0.081769064
-0.06603199 0.04110448 -0.066812426 -0.015941946 -0.08198709 -0.029558515 0.070434414 0.08409066
-0.0027655088 -0.08704805 -0.07908276 -0.060371824 0.036097046 -0.058906727 0.041485935 -0.07879341
0.036674462 0.006581221 0.06183607 -0.013037259 -0.026955554 -0.06276591 -0.067504 0.0493687
0.025456497 -0.013175394 0.050368574 -0.055256058 0.0030313851 0.04015609 -0.056241557 0.012205124
-0.08170215 -0.0026431293 -0.02315196 -0.012462109 -0.024132177 -0.044293325 -0.0034747324 0.053065248
0.05237848 -0.085428074 -0.020690873 0.0052209157 0.041679963 -0.047834672 0.015773423 -0.07155585
0.051699728 0.012312774 0.057538927 -0.021762324 0.080779664 0.041051507 -0.07810046 0.01169544
-0.048082236 0.018054305 0.003275682 -0.0057315906 -0.06783757 0.0038187762 0.063336276 0.037830926
-0.04417761 0.08556144 -0.060046703 0.08625827 0.009067731 0.064965196 0.06348547 -0.013321353

fc2.bias f4 [64]
00000000: b616 9ebd d489 5d3d fe05 7cbd fc88 7abc
00000010: 4002 71bd 11db ed3c 7f8a ea3c 9066 63bc
00000020: 18c2 a4bd 76c3 653a 2c8f 573d e285 98bd
00000030: 9832 7f3d 1d44 e8bc 9332 af3c 8098 173d
00000040: ee68 953d 5023 82bd 3c45 223d 9f24 303c
00000050: eae8 b1bd f15b 54bc f908 a0bc 200f 683d
00000060: 64e3 8e3d 5a9b 073c 24a7 c43c 9aa0 62bd
00000070: 8cdd af3c 68f9 f8bc d015 3f3d c19f 98bd
00000080: 2e2e 0b3d 186b ac3c b3b1 a73b 60f5 a13d
00000090: ef56 223c 3a10 933d 94d2 a4bd ae4d 6f3b
000000a0: 8a4d 0d3c 5f75 1f3d 6bc0 0abd 99ea 793d
000000b0: a8ad 653d 752e a3bc a839 203b 444a 633d
000000c0: 7575 a43d 958b a9bd d8d8 3e3d e092 9ebd
000000d0: 7455 4cbd 0b48 56bd de47 7fbd b233 7ebd
000000e0: cf11 973c 284d 553c 0915 a9bd d56f 70bd
000000f0: d2fb 1ebc 45cb ac3c 7247 3dbc 7d84 f5bc
-0.077191755 0.05408652 -0.061529152 -0.015291449 -0.058840036 0.029035123 0.028630493 -0.013879433
-0.08044833 0.00087647827 0.052626774 -0.07447411 0.06230411 -0.028352791 0.02138642 0.03701067
0.072954044 -0.063543916 0.03961681 0.010750919 -0.08687003 -0.012961374 -0.019535528 0.05665505
0.06976965 0.008276785 0.02400548 -0.055328943 0.021467946 -0.030392364 0.04665166 -0.07452346
0.033979587 0.02104716 0.005117619 0.0790813 0.009908422 0.07180829 -0.08047977 0.0036514807
0.008624444 0.038930293 -0.03387491 0.061014745 0.056073815 -0.019919613 0.0024448428 0.055490747
0.08030216 -0.08278576 0.046593517 -0.07742858 -0.049886182 -0.0523148 -0.062324397 -0.06206102
0.018441109 0.013018884 -0.08255965 -0.0587004 -0.009703593 0.02109302 -0.011552678 -0.029970402

action_head.weight f4 [5, 64]
00000000: ce31 b5bd d7a7 cfbd 4431 2dbd ba7e cdbd
00000010: bf21 0d3d ca4c c63d b3e8 9cbc 3ef5 2c3d
00000020: b032 573c 6f75 4bbd b326 07bd ed2d dd3d
00000030: 3699 613d b181 84bd 3156 bdbd 34b7 d03d
00000040: 624f 09bd b4b8 fdbd e63c e53d bc63 b73c
00000050: c7c0 4d3d 87c2 c1bd 0635 eebd d098 943d
00000060: 073f a13d fd94 2b3d 3719 e4bd f7d4 f63b
00000070: b77e 8abc f49e 26bc 27cf 90bd 248f 663d
00000080: ff46 d4bd 7142 d7bc 6962 e53c 52fa 03bd
00000090: 6939 833d 2af7 07bd c95c 613d 5f5b b63d
000000a0: a2dc ce3d 4815 703c cc95 853d 9dab dabd
000000b0: b476 94bc 75eb c33c 1332 af3c 4050 e9bc
000000c0: 59d5 99bd 34ce c93d 6d71 fdbd 721c fdbc
000000d0: 3ade a4bb bca1 963c 968b a6bb b32a f23c
000000e0: 9934 ba3d 1497 8cbb c595 9d3d a0cd 7bbd
000000f0: 9b08 d53d b3f4 e53a 610b 8bbd 86e5 4ebd
00000100: 60aa 563d 4281 fd3d 2af4 a03d eea0 45bd
00000110: e277 c53d 6f6c a03c 9ea5 df3d b5de 343c
00000120: 8687 d93d 92c1 9d3d 76a4 163d 4026 0c3d
00000130: 9f76 fb3d 322f 4f3d 77ff dcbd f763 2fbc
00000140: d346 d0bc 809e 523b 872f fb3c 65da df3c
00000150: 7290 5cbd 299a bcbd 56c3 94bd f77d 863d
00000160: 7b57 d0bc 7fb8 843d ffe8 863d 0150 88bd
00000170: aa01 45bd 1d96 373d 429f 54bd 40e5 463d
00000180: b9cb 043d 57a6 e13d 2bec 8abd 11f3 d1bd
00000190: 6b39 94bd 4586 acbd e174 963d 2baf fdbd
000001a0: c3eb a73d fefd 663c c0a4 a1bd 8fab d13b
000001b0: 998d d7bd d620 b4bd 093b bc3d 47eb b93c
000001c0: b724 e53d 7852 d73d 9dfb 20bc 6c29 f3bd
000001d0: 2072 4e3d 5889 b6bd 3db3 373d b9f0 a53c
000001e0: 9570 993d ad73 aabd 3fe5 3abd 63ff 9cb9
000001f0: 50d7 cf3d 38c0 3a3d 32fe 18bd 3536 91bd
00000200: a45f d7bd 3af5 1dbd ca85 82bd dac1 a0bd
00000210: 22ef 8a3d c20d d3bc 213f 3cbd a183 cebd
00000220: 82ae 86bd a526 71bd d5f3 95bd b9b0 eb3d
00000230: 1ac1 a2bd 2498 c03d ed95 95bd efa9 5f3d
00000240: a574 abbc a83d e5bc 7838 84bd a325 82bd
00000250: c65a c7bd d925 9cbd e2cd acba d7aa c6bd
00000260: a100 ccbd 9a89 1c3d 9152 edbd 77c6 553d
00000270: 9467 8e3d bd81 f23d 6a95 3a3d 4ced f5bd
00000280: 54ca a33d 157a dcbd 62b1 0d3d 681c d8bb
00000290: edab e6bd 65f3 24bc 4042 dabb f327 b23b
000002a0: a399 453d 51ea a83d d81c f2bd 7006 323d
000002b0: 2459 78bd cd0a c8bd 1ddb c23d 4053 af3d
000002c0: 8a0b 103d 5a37 ab3d 5252 81bd 5b33 293d
000002d0: 70e1 113d 0409 9ebc 4c2a ddbc b950 f93d
000002e0: ecd8 a53c c116 a73d 691d fc3d 8d6d 7b3c
000002f0: 1898 5d3d b34e 96bd dd40 ac3d 3962 d0bc
00000300: 2815 5ebd 8fff e03d 9cdd 0d3d bb9d 833d
00000310: 9ad5 063d 6a1b 2fbd 4a52 cabd 8bbf cebd
00000320: 472a cbbd 9d5d 98bd 292f dfbd fe51 ccbd
00000330: 82bc 793d 34d2 083d d053 ff3d 8491 973d
00000340: c370 863d 0090 17bc 4b33 dabd 98d9 513d
00000350: 5a57 e7bd b581 763d 8455 323d 8df1 1b3d
00000360: 2307 a6bd 9d3a cdbd b187 553d 7c7c 383d
00000370: 026e e3bd aa41 39bd d8d5 1cbc a023 783c
00000380: 41be 5b3d 9fc8 f1bd c948 7c3d e326 76bd
00000390: 7149 103d d1b4 d23d 6f39 943d 0971 d63d
000003a0: 11bb 4f3d b47c 893c c7e4 f83d 13c0 4b3d
000003b0: 36d2 723d 9946 b13c ba0f 87bd 1953 be3d
000003c0: 43ab c1bd d4c2 51bd 8b0f 8b3d d3f5 dbbd
000003d0: bf24 7c3b e598 333d 4791 d9bc b4cb fd3d
000003e0: 2ea5 56bd ee0e ec3a 1617 48bd 654e bb3d
000003f0: 5b3a bd3d f0f4 b4bd 517b cebd 7bc1 30bc
-0.0884739 -0.10139435 -0.04228331 -0.10033937 0.03445601 0.09682615 -0.019153928 0.04222607
0.013134643 -0.04967254 -0.03299589 0.10799775 0.055077754 -0.06470049 -0.09244955 0.10191193
-0.03352297 -0.12388745 0.11193256 0.022386424 0.050232675 -0.09460931 -0.11631207 0.07255709
0.0787335 0.041890133 -0.11137622 0.0075327116 -0.016906125 -0.010169733 -0.07070761 0.056288853
-0.10365104 -0.026276799 0.028001027 -0.032221146 0.064074345 -0.0331947 0.055020127 0.089041464
0.10100676 0.014653511 0.06522712 -0.10677264 -0.018123008 0.023915986 0.021386182 -0.028480649
-0.07511396 0.09853783 -0.1237515 -0.030897353 -0.0050313743 0.018387668 -0.005082558 0.029561376
0.090920635 -0.004290471 0.07694582 -0.061475396 0.10402032 0.001754424 -0.0678928 -0.05051186
0.052408576 0.123781696 0.078590706 -0.048249178 0.096420065 0.019582955 0.10920261 0.011039426
0.10621552 0.07702936 0.036777936 0.034216166 0.122784846 0.05058212 -0.107909136 -0.010704986
-0.025424397 0.003213793 0.030662311 0.027325818 -0.05384869 -0.09209091 -0.0726382 0.06566995
-0.025432339 0.06480502 0.06587409 -0.066558845 -0.04809729 0.044820894 -0.051909693 0.048558474
0.032420848 0.11018055 -0.06783327 -0.10251439 -0.07237514 -0.084240474 0.07346512 -0.12386926
0.08199265 0.014098642 -0.07892752 0.006398625 -0.105250545 -0.087953255 0.091909476 0.022695197
0.111886434 0.105137765 -0.009825614 -0.11873135 0.050401807 -0.08912915 0.04484867 0.020256387
0.074921764 -0.08322845 -0.045628782 -0.00029944917 0.101484895 0.04559347 -0.037351795 -0.07090417
-0.10516289 -0.038563944 -0.063731745 -0.07849474 0.06783892 -0.025763396 -0.045958642 -0.100837
-0.065762535 -0.058874745 -0.07321898 0.115083165 -0.079469875 0.094040185 -0.07303987 0.05460542
-0.020929644 -0.027983502 -0.06456083 -0.06354835 -0.097341105 -0.07624406 -0.0013183916 -0.09700554
-0.099610575 0.038217165 -0.11588014 0.052191224 0.0695335 0.11841152 0.04555265 -0.120081514
0.079975754 -0.10765473 0.034592994 -0.006595183 -0.11263261 -0.010067795 -0.0066607296 0.005436891
0.048242223 0.08247817 -0.11821908 0.04346317 -0.060631886 -0.09767685 0.09514449 0.085608006
0.035167255 0.08360167 -0.063145295 0.041308742 0.035615385 -0.019291408 -0.026997708 0.121736
0.020245038 0.08158637 0.12310297 0.015345943 0.054100126 -0.073392294 0.08410809 -0.025437461
-0.054219395 0.10986244 0.03463517 0.06426569 0.03291855 -0.042750753 -0.09878977 -0.10095128
-0.09920173 -0.0743973 -0.10897667 -0.09976576 0.06097079 0.03340359 0.12467158 0.07400802
0.06564476 -0.009250641 -0.106543146 0.051232904 -0.11295958 0.060182292 0.043538585 0.038072158
-0.0810683 -0.10020945 0.05213136 0.045040593 -0.11104967 -0.045228638 -0.009572469 0.015145212
0.053648237 -0.118058436 0.06159285 -0.06009568 0.03522629 0.10288394 0.07237517 0.104707785
0.05071551 0.016783096 0.12153011 0.049743723 0.059282504 0.021640109 -0.065947965 0.09293193
-0.09456494 -0.051211193 0.06790074 -0.107402466 0.003847405 0.043846983 -0.026558531 0.12392369
-0.05240362 0.001800982 -0.04885014 0.09145812 0.09239646 -0.088357806 -0.100821145 -0.010788317

action_head.bias f4 [5]
00000000: 3344 93bc ea96 0b3b 13ee b03d 03d7 883d
00000010: 38ed bfb8
-0.017976856 0.0021299669 0.08639159 0.06681635 -9.151775e-05
