logs/mappo_checkpoint_ep100.pth (torch, 451986 bytes, 28 tensors)

fc1.weight f4 [128, 147]
00000000: 35b0 a8bc 96d6 a23d 956f 98bd cfda 223d
00000010: 4a53 283d adcb 10bc ecfc 843b f6d8 3bbd
00000020: b097 76bd c6af 713d 3a2f d9bc 05ed 883d
00000030: f14d a43d dbb2 273d 5807 593d 1534 2dbd
00000040: f300 5e3d d415 95bd 86e6 82bd 389b d43c
00000050: 3f7e 943d c4bf ce3c 86c2 a33d d5c9 66bd
00000060: d1dc 843c e0b5 6dbc da46 fe3c 6232 0fbd
00000070: 2521 8a3d bb4b 673d f0a4 a6bd 5ab6 c4bc
00000080: ed8f ffbb 23a4 3c3d b848 adbc e9a7 79bd
00000090: 383b 97bd 7307 9ebd 2cdf 2b3d 3aa4 04bd
000000a0: 5657 063b 7740 003d 20b1 7cbb dc78 8f3d
000000b0: 51af 25bd f639 77bd c00c 6c3c 3e9a 5f3d
000000c0: cf51 233d c01a b83c 52da eb3a 2770 e2bc
000000d0: 9ab8 babc e5db 5fbd 3eeb 39bd b593 9dbd
000000e0: 8e32 163d 1c7a 8fbd 3b47 c33c 6ee6 473d
000000f0: 2897 91bc f29f d7bc 47a8 b03d da61 ba3c
00000100: c33f 923d 61b2 2d3d 40af 96bd ebf3 64bc
00000110: 5a95 c8bc 6ea4 653d 2070 a93d a31c 45bd
00000120: 8915 1fbd 257d a2bc ed89 6ebc 8113 883d
00000130: 10cb 00bc 037c 42bd 56cb 7bbd 5051 b63c
00000140: 6f08 a53b 5ca6 efbc 7641 623c aebc 10bd
00000150: 4605 38bc 35e9 983d 59e3 63bd 1552 6fbd
00000160: 639e 483d 87e4 88bd abf4 e6bc 7a1c b3bc
00000170: 295a 37bc 6283 66bc 78f2 10bd d1a6 8ebd
00000180: 2b65 153c c3f7 6b3d ae76 573c 852d 58bc
00000190: dd54 a73d bcdd 1a3d 31da 353d e77a 80bd
000001a0: e19f 3b3d af17 97bc 19ba a23d 7269 61bd
000001b0: 5070 25bd e4da 083c be7b 473d 2ec8 fabb
000001c0: 8fc4 20bd aa31 543b 0451 693d 2869 073d
000001d0: 35a0 3d3d a7eb c53c ec70 75bc a7cd dc3c
000001e0: 1e17 8c3d a746 993d 0215 433d cd24 85bd
000001f0: 9007 26bc b293 5e3d 99f4 ecba 5a9a 19bd
00000200: bbfc 49bd f581 e13c 1272 8dbd 11a0 79bd
00000210: 67c7 09bd 77d2 2b3d 6175 81bd 92ab e23a
00000220: 9f73 57bd b1aa 01bd 42c8 83bd 5748 eabc
00000230: ce2d 3e3d 7ae1 9e3d cfbe 79bd b7e1 253b
00000240: 7e8b 7abd c44e 8abc c579 ac3d 8ce3 30bd
00000250: 6f09 20bd 1ba3 943d bda0 f63c 9d1e 99bd
00000260: da83 a6bd 9796 e93c b519 96bc 506b e33c
00000270: 0c86 7dbd 563f 8e3d df85 263c 9dd7 b73b
00000280: 7530 953d 01d6 8cbd d19a a63d 5423 22bd
00000290: 10d5 60ba 96ee 683d 8fa5 973d a891 c73b
000002a0: 7a6a e3bb 8074 993d 7988 6f3d dde2 983d
000002b0: d7ed 8e3d 920a 40bd abe7 903d 7886 6c3c
000002c0: 7455 703d dd5a 6d3d c234 a33c 597b 963d
000002d0: e86c 2abd 40c3 aabd 5962 3ebc a1c4 923d
000002e0: fa2d a13d 4230 183d aa6c aa3c a76f 80bd
000002f0: cc10 4e3d 8171 213d b367 65bd d2c5 a1ba
00000300: 54b6 52bd c4f6 943d 4b11 a0bd 55da 71bd
00000310: 45b8 1bbd 3267 983d d8fe 5c3d 3204 cfbc
00000320: 6e63 bdbc 099e 0e3c 0b9c 94bd 2b04 bbbc
00000330: 8f37 e9bc 7b94 4bbd 7bee 623d 8a71 70bd
00000340: 1eb3 593c 83e8 a4bd 3063 48bd a4c8 d8ba
00000350: 4190 473c c3fc 13bd 275b 0f3d 03ed 613d
00000360: f9a3 c6bb c5f4 6fbd edb4 06bd 853f 3e3d
00000370: 028a 87bd 307f 0ebc 883c 7a3d 08ac 933d
00000380: 89d4 723d bf2c 56bd d915 e1bc e6c1 ca3b
00000390: a2f5 653d 2d92 603d 66c7 28bc b403 42bd
000003a0: ce66 9b3d 1c2f 463d 4533 9abd 69a4 fa3c
000003b0: 3f2f 913d f927 76bd 23bf 18bd 786c 873d
000003c0: 625f 3cbd e05a e2bc 75fd 943d efa2 913d
000003d0: d62e 8bbd 86c5 c13c c95f 3e3c 97fa 50bc
000003e0: 7dcd a43d 7c13 6f3d f6be b33c bbd3 4dbd
000003f0: 5862 3c3c 767d 993d 3d75 7ebd 1c4f 923d
-0.020591835 0.07951085 -0.074431576 0.039759453 0.041095056 -0.008837623 0.004058471 -0.045861207
-0.060203254 0.05900552 -0.026511777 0.06685833 0.08022679 0.040942054 0.05298552 -0.042285997
0.054200124 -0.07279554 -0.06391625 0.02595292 0.07250642 0.025237925 0.07996087 -0.056344826
0.016218575 -0.014508694 0.031039644 -0.03496016 0.06744603 0.056468707 -0.08136928 -0.024012733
-0.0077991397 0.04605497 -0.021152839 -0.060951147 -0.07384342 -0.077162646 0.04196088 -0.03238318
0.0020498834 0.03131148 -0.0038557723 0.07005474 -0.040450398 -0.06035801 0.014407337 0.054590456
0.03987294 0.022473693 0.0017994142 -0.027641369 -0.022793103 -0.054653067 -0.04539036 -0.076941885
0.036669306 -0.070057124 0.023837676 0.04880374 -0.017772272 -0.026321385 0.08625846 0.022751737
0.07141068 0.042406444 -0.07357645 -0.01397417 -0.024485279 0.056065015 0.08273339 -0.048123013
-0.038838897 -0.019835064 -0.014559251 0.06644345 -0.007860914 -0.047481548 -0.061473213 0.02225557
0.0050364058 -0.029254131 0.013809552 -0.03533619 -0.011231726 0.07466356 -0.055636737 -0.05842789
0.048979174 -0.06684213 -0.028192839 -0.021864165 -0.011190929 -0.01406941 -0.035387486 -0.069654115
0.009118359 0.05760933 0.013150854 -0.013194446 0.08170483 0.03780912 0.044397537 -0.06273442
0.04580677 -0.01844391 0.079456516 -0.0550322 -0.040390313 0.008352969 0.048701994 -0.007653258
-0.039249953 0.0032378235 0.05696203 0.03305927 0.046295363 0.02416022 -0.014980536 0.026953531
0.06840347 0.07484179 0.047627456 -0.0650116 -0.010133639 0.054340072 -0.0018078267 -0.037500717
-0.04931329 0.027527789 -0.06906523 -0.060943667 -0.03363743 0.04194876 -0.063212164 0.0017293564
-0.0526005 -0.031656925 -0.064346805 -0.028598947 0.0464304 0.0775785 -0.060972985 0.0025311538
-0.061168186 -0.016883262 0.08421663 -0.043185756 -0.039071497 0.072576724 0.030105943 -0.07476542
-0.081306174 0.02851419 -0.018322805 0.027761132 -0.061895415 0.06945674 0.010163753 0.00561042
0.07284633 -0.068767555 0.08134998 -0.039584473 -0.00085766707 0.05686816 0.07404625 0.0060903616
-0.006940183 0.07492924 0.05847976 0.07465146 0.06978958 -0.04688508 0.07075437 0.014436357
0.058675244 0.057947982 0.019922618 0.073477454 -0.041607767 -0.08338022 -0.011620128 0.0716641
0.078700975 0.037155397 0.020803768 -0.06271296 0.050308987 0.039414886 -0.0560071 -0.001234228
-0.051443413 0.07273629 -0.07815798 -0.05904611 -0.03801753 0.07441558 0.053953975 -0.025270555
-0.0231187 0.008704671 -0.07256325 -0.022829136 -0.028468875 -0.04970215 0.055403214 -0.05870203
0.013287334 -0.080521606 -0.048922718 -0.0016539288 0.012180389 -0.036129724 0.03499904 0.055157673
-0.0060620275 -0.05858304 -0.032887388 0.046447296 -0.0661812 -0.008697316 0.061092883 0.07210547
0.05928472 -0.052288767 -0.027476238 0.0061876653 0.056142457 0.054826904 -0.010301447 -0.047366813
0.07587968 0.04838477 -0.0752931 0.030595975 0.070890896 -0.060096715 -0.037291657 0.06612486
-0.0459894 -0.027631223 0.072749056 0.07111155 -0.067960426 0.023653757 0.011619517 -0.012755058
0.08047006 0.05836819 0.021941643 -0.05025075 0.011498056 0.07494633 -0.062123526 0.07143995

fc1.bias f4 [128]
00000000: 9404 54bd 6cfd b43d 0f27 85bd 9138 013d
00000010: d6a7 bdbb 70f5 10bd bf80 11bc e770 d23b
00000020: 78a0 623d 8336 983b c521 7d3d b0d5 a43d
00000030: a431 0ebd 4033 c73d 6a77 853d 8b9c 13bd
00000040: 41a9 29bb e756 1bbd dfb9 a03c 6a62 83bd
00000050: 935b d83c 44d0 40bd b55c 8bbc 61b1 8dbc
00000060: b815 7abd 08fa 3f3d a539 763d 45e5 04bc
00000070: 7cfa 8dbd 3f61 0f3d fbc6 8dbd 8d6b 233d
00000080: 3478 9e3d 1103 cd3d bf03 58bd ea4c a53c
00000090: efca 54bb 4643 ee3c 47b8 35bd 9253 70bd
000000a0: e392 dc3c 5e1c b03d d254 b23c 1be5 92bd
000000b0: 57e0 75bd ca6b c33d 84b7 0f3c c8fa 063d
000000c0: f7cc d4bc 63f2 3fbd fdea 72bc da67 88bd
000000d0: 9c7f 9d3d 55cb 7fbd b28d 303d e94f a13c
000000e0: 7d5d 1c3d 2e7a 133b 826d cd3c 76a2 fa3b
000000f0: 61e3 313c b1d0 013d b0a4 45bd 04ab 51bd
00000100: ed77 8b3d 1cf8 943d d8ee 8c3d 6174 af3c
00000110: ac74 82bc 7b3d 46bd e2d1 2c3d 3ed5 e4bc
00000120: 0a22 a03d 9626 9cbd 189b 86bd d39e c939
00000130: 3c6a babc ea53 c63c 8ba8 063c fbc3 1dbd
00000140: 907d a43d 9fee 713d 7296 803d f4c5 c03d
00000150: 1cc2 2f3d 08bf b83d fef4 003d 79ed 7a3d
00000160: f7a7 ffbc 84f2 3f3d 60e9 8e3d ec31 983d
00000170: 8657 873d 45e0 783d 6f11 293c 4e91 96bb
00000180: 1f1c 4e3b 887c 013d 35d0 c73d d120 cbbc
00000190: ae09 833d 4ff1 a13d f5ac bd3d b9f9 963d
000001a0: c114 463d 6818 c13c fc69 6d3b c022 453d
000001b0: de41 cc3d ead9 9a3d b9b9 8dbd 97b6 973d
000001c0: 986a 9a3d 9459 59bd a9f2 473c 5672 edbc
000001d0: e6f8 6b3b 8ade 883d 2488 913c 7dc1 873d
000001e0: c17b 01bd 5dc7 0cbc 85ff 8fbd b4c0 433d
000001f0: c8d9 3ebd 5c9b e0bb 2db1 58bd 266b 853d
-0.05176218 0.08837399 -0.065015905 0.031548087 -0.00578783 -0.035390317 -0.008880793 0.0064221504
0.055328816 0.00464517 0.061799783 0.0804857 -0.03471531 0.09726572 0.06516917 -0.036037963
-0.0025888237 -0.037924673 0.01961988 -0.06415255 0.026410853 -0.047073618 -0.01701198 -0.017296495
-0.06105587 0.046869308 0.060113568 -0.008111303 -0.06932542 0.03500485 -0.06922718 0.03989749
0.07737771 0.100103505 -0.052737948 0.020178277 -0.003246959 0.029084813 -0.044365194 -0.05867345
0.02692551 0.085991606 0.021768961 -0.07172605 -0.0600284 0.095420435 0.008771781 0.032954007
-0.025976641 -0.046862017 -0.014826533 -0.06660433 0.07690355 -0.062449772 0.04310388 0.019691424
0.038175095 0.0022503245 0.025076631 0.0076487614 0.010857434 0.031693164 -0.04825276 -0.051188484
0.068099834 0.072738856 0.06881493 0.021417798 -0.015924774 -0.048398476 0.042192347 -0.027933713
0.078189924 -0.07624547 -0.065725505 0.0003845604 -0.022755735 0.024209935 0.008218895 -0.03851698
0.08031762 0.059065457 0.06278695 0.094127566 0.042909727 0.09020811 0.031483643 0.061261628
-0.031208022 0.04686214 0.069781065 0.07431397 0.06608491 0.060760755 0.010319098 -0.0045949584
0.0031449867 0.031612903 0.09756509 -0.024795922 0.06398331 0.07907354 0.092615046 0.073718496
0.048359636 0.023571208 0.0036226502 0.048128843 0.09973501 0.07561095 -0.069201894 0.07407873
0.075398624 -0.053063944 0.012203851 -0.028985184 0.003600651 0.06683071 0.017765112 0.06628702
-0.03161216 -0.008592454 -0.07031158 0.047791198 -0.04659441 -0.006854458 -0.052903343 0.065145776

fc2.weight f4 [64, 128]
00000000: b921 5d3b d97b 9b3c 05f4 d63c 0e5b 9c3d
00000010: 46b4 8abd 3e33 b13d 7c6d a03d 1cf3 173c
00000020: d866 e8bb e4aa 323c a806 c8bc 9c3d 3fbb
00000030: 4598 13bd f537 853d 7ff4 90bd b5c6 ccbc
00000040: a927 1a3d 3381 a5bd 4fe4 bfba c8c2 8bba
00000050: e3d3 7b3d 2642 623c 80f9 263d 4ce3 713d
00000060: 4055 893d 37ad 3d3d d913 a53c 6f3e 893d
00000070: dc19 02bd 91ef 063d af37 563d 84d6 8b3c
00000080: 4064 523b 9058 f63b 2c46 7b3b ac72 c8bd
00000090: fa33 4d3d fc39 a6bc 69ec cd3c b556 39bc
000000a0: c144 c5bc 6df6 203d 7a33 203d cf18 19bd
000000b0: 3909 a0bd 695c 203d 9135 993d 9bf8 983c
000000c0: 84e1 d53c 8f6e 753d bf10 03bd cdf8 b2bd
000000d0: dbee 05bd 58e7 aabc 6795 4fbd d4de 7b3c
000000e0: 16b8 c7bb 7aaf b13c 8a33 44bc 6fe6 4abc
000000f0: 811d 7f3d 848d 8d3d 0d0b 98bc ad65 833c
00000100: 918e b0bd 337e 113d 6362 8b3d 2e21 f5bc
00000110: cd0c 6c3d 2f00 a0bd 7ef7 233d 763c 313d
00000120: 4700 79bd 1159 723c 9fbf 8bbd c34d b9bc
00000130: a52b b2bd 7c2c 343d 692a 4b3d d5dc c4bd
00000140: cca9 3ebd f49c d7ba 9f51 0c3d a0fe b4bd
00000150: 51e5 9ebd 50c0 a6bd ccf1 9b3d a39b 53ba
00000160: 617e edbc 7c0d 29bc cefc 41bd 8d13 893c
00000170: f198 48bb 5af1 9ebd 1929 f93c eab4 26bc
00000180: 0f93 713a 7901 973c 5cb4 223b 9614 ac3d
00000190: ec59 c6bd 0967 b1bc cab4 dc3c aebc 07bd
000001a0: c58e 8a3d 08fb 89bd 3231 9a3d b46d a5bc
000001b0: 9692 acbc 4b75 b1bd ab07 04ba 02dd a1bd
000001c0: 7b80 80bd cce7 90bd 123f 58bd d238 013b
000001d0: 43da 973c 0fbe 1fbd 8312 1c3c babb a9bc
000001e0: e011 b0bc 7b22 c33c 9741 7bbd d2ef 90bd
000001f0: 93f4 aebc 768c cdbd 439b a3bd 6c42 05bd
00000200: 152c a3bc 490a 953c c98a 653d 9ae2 113d
00000210: eba3 82bd fb54 24bb a640 af3c 6b4e 4bbd
00000220: 6cd0 0fbd c222 e1bc be72 9a3d 0d22 24bd
00000230: 69f1 b03c 6e3e 8b3c 51ef 9e3d c85d 583d
00000240: edc6 9dbd d0aa 84bd 0141 4e3d fe15 533c
00000250: dff9 2cbc 894f 29bd 4427 9a3d fb01 593d
00000260: cfb7 453d d59e a03d df81 323d 8451 c03d
00000270: d731 34bd 6900 78bd 8380 463d 7b64 87bd
00000280: 039d 98bd e6a8 92bd 31d3 693d 2ae6 3bbd
00000290: 88bf 0c3d 3011 25bd 39f4 1a3d 9f10 393d
000002a0: c57e d1bb 6671 1a3a 4d05 94bd eef7 8a3d
000002b0: 6dd2 41bd 54bc 66bd 4652 eb3c 9045 d0bc
000002c0: d3a3 c2bc 69c8 babb 79ea efb9 eff9 803d
000002d0: cc06 f53b c0d6 62bd fdb0 843d 2a08 323d
000002e0: 154e 1b3d f4a6 13bd 1df4 b8bd f21e bc3d
000002f0: 154e 84bd 1cb1 833d ac1f 7cbd 6edb 483b
00000300: afde 64bc df47 6cbd 7257 5b3d 931c ac3d
00000310: 808f de3c 0b2b f93c 2258 383d e2a5 a73d
00000320: c705 7ebd 01ae 903d b606 24ba bb42 2bbd
00000330: d1d1 ca3d 94aa 8ebd 6700 763d d2ce c73d
00000340: 9b22 ed3c f43b ba3d c771 47bd 39a0 8abc
00000350: ca89 1bbd dce8 b73c b201 52bd f520 93bc
00000360: e019 84bd 4cdf 2f3d 2dc8 1c3d 52fd 4ebd
00000370: 9699 92bd c273 e43c d29d 803d 2855 653d
00000380: 0661 87bd 5f60 ae3b 760a 813d 8fde 8dbd
00000390: 5480 913d 2f54 123d 6fbe 693b aeef 753d
000003a0: 5752 39bd 8a42 a9bb cb49 033c 34d3 ad3d
000003b0: ffe0 873c 25af 573c 4ed0 383d 3317 55bc
000003c0: 48c4 0dbd 2b0e 81bd 2f1d 7bbc c7df 893d
000003d0: 21e7 7d3d 34d4 34bd 73d3 363d 104c 5ebd
000003e0: 9ba0 24bd 4550 b43d 687f 1f3d 5ea3 a83d
000003f0: a7fd ad3c fc5a 3ebd 0964 43bd eb94 25bb
0.0033742024 0.018979954 0.026239404 0.07634555 -0.06772666 0.08652352 0.078333825 0.00927427
-0.007092338 0.010905001 -0.024417236 -0.002918101 -0.036033887 0.065048136 -0.07077884 -0.024997095
0.03763548 -0.080812834 -0.0014640185 -0.0010662908 0.061481368 0.013809716 0.040765285 0.059054658
0.06705713 0.04630777 0.020151066 0.067013614 -0.031762943 0.032943312 0.052299198 0.017070062
0.003210321 0.0075178817 0.0038341386 -0.09787497 0.050098397 -0.020291321 0.025137143 -0.0113121765
-0.024080636 0.03929751 0.039111592 -0.037377175 -0.07814259 0.03915063 0.0748092 0.018673232
0.02610851 0.05991989 -0.031998392 -0.08738861 -0.032698493 -0.020862266 -0.05067959 0.015372951
-0.006094943 0.021690119 -0.0119751785 -0.012384041 0.062283996 0.069117576 -0.018559957 0.016039694
-0.086209424 0.035520744 0.06805875 -0.029923048 0.057629395 -0.07812535 0.04003095 0.04327055
-0.06079128 0.014791743 -0.06823658 -0.022620087 -0.08699731 0.043987736 0.049600992 -0.09612433
-0.04654865 -0.0016449974 0.034257527 -0.08837628 -0.077585824 -0.081421494 0.076144785 -0.0008072203
-0.028990926 -0.010318156 -0.047360234 0.016732955 -0.0030608738 -0.07760878 0.030415105 -0.010174969
0.0009215334 0.01843332 0.002482674 0.08402364 -0.0968512 -0.021655576 0.026941676 -0.033138923
0.067655124 -0.067373335 0.075289145 -0.020193912 -0.021065991 -0.0866495 -0.0005036543 -0.07903482
-0.06274506 -0.07075462 -0.052794524 0.0019717705 0.018536692 -0.038999613 0.009525898 -0.020719398
-0.021492898 0.023820153 -0.06134185 -0.07076992 -0.021356856 -0.100365564 -0.07988598 -0.032534048
-0.01991848 0.01819338 0.05604056 0.035616495 -0.06378921 -0.0025075066 0.021393131 -0.049635332
-0.035110876 -0.027482394 0.075414166 -0.040071536 0.021599488 0.016997542 0.0776049 0.05282381
-0.07703958 -0.064778924 0.05035496 0.012883661 -0.010557621 -0.041335616 0.075270206 0.052980404
0.048270997 0.07842795 0.043580886 0.09390548 -0.043992843 -0.060547266 0.048462402 -0.06610962
-0.074518226 -0.07161121 0.057086173 -0.0458738 0.034362346 -0.040299594 0.037830565 0.045181867
-0.006393286 0.00058915315 -0.072275735 0.0678557 -0.04731982 -0.056331947 0.028725754 -0.025423795
-0.023759758 -0.0057001603 -0.00045760328 0.06297671 0.007477617 -0.055380583 0.0647907 0.043464817
0.03791626 -0.03604789 -0.09030936 0.0918559 -0.064602055 0.06430265 -0.061553642 0.0030648368
-0.0139691075 -0.05768573 0.05355019 0.084038876 0.027168036 0.030416032 0.045005925 0.081859365
-0.06201723 0.070644386 -0.00062571035 -0.041811686 0.099033006 -0.06966129 0.060058977 0.09756245
0.028947165 0.090934664 -0.04869249 -0.016922103 -0.037973203 0.022449903 -0.051271148 -0.017960051
-0.06450248 0.042937562 0.03827684 -0.050534554 -0.071582004 0.027887229 0.06280102 0.055989414
-0.066103026 0.005321547 0.063008234 -0.06927215 0.07104555 0.035724815 0.0035666486 0.06004303
-0.04524454 -0.005165403 0.008013199 0.084875494 0.016586779 0.013164316 0.04512053 -0.013006019
-0.034611017 -0.063015305 -0.015326782 0.06732135 0.061988 -0.044147685 0.044635247 -0.054271758
-0.040192228 0.08804373 0.038939863 0.08234285 0.021239115 -0.04647349 -0.047702823 -0.0025265764

fc2.bias f4 [64]
00000000: 7c38 4c3d 418c c43c baba 5ebc 007d 1cbb
00000010: 1900 8dbb 264a 693d f30d 3d3d 9285 96bd
00000020: f4b3 763d c633 1abd ef7c 443d b3a8 8c3d
00000030: 8726 5d3d f06a 3ebd fde9 fb3b 20a2 1a3d
00000040: 318c 66bd 31e5 4cbc a099 bb3c 76e5 353d
00000050: 091f 203c 8530 533d f63d 9e3c 94c0 81bc
00000060: e1dd babb a98d a6bd eb83 d2bb 91bd 773d
00000070: b667 a2bd c52c b63d 618c a93c 3d6b 9dbd
00000080: a685 a63d 0048 b0ba e498 0abd 8b51 7c3d
00000090: ac77 d639 464b 603d 102b a5bd 3880 85bb
000000a0: 7612 833c 1f19 49bc ed75 7cbd 0892 b33d
000000b0: cceb 823d abca efbc 3782 30bd 6404 ab3c
000000c0: 6802 763c 78d7 ba3d 6adb 54bd 211d 013c
000000d0: daf4 543d 8982 4d3c 497c 333d 8563 a3bd
000000e0: 99a2 9cbd ca85 5dbc 0792 f93c d428 80bd
000000f0: 96ff c13c 3a99 9b3d fd9f bb3d e90c 313d
0.049858555 0.02399266 -0.013594324 -0.0023878217 -0.00430299 0.05695548 0.04615588 -0.07349695
0.06023021 -0.03764703 0.04797071 0.06868114 0.05399182 -0.046488702 0.0076878057 0.03775227
-0.05628604 -0.012505815 0.022900403 0.044408284 0.009773024 0.051559944 0.019316655 -0.015838899
-0.0057027196 -0.08132488 -0.0064244173 0.06048352 -0.079299375 0.08895258 0.02069682 -0.0768647
0.0813096 -0.0013449192 -0.033837214 0.061601203 0.00040906423 0.054759286 -0.08064854 -0.0040741228
0.016000014 -0.012274056 -0.0616359 0.087680876 0.06392631 -0.029271444 -0.043092933 0.020876117
0.015015222 0.09123129 -0.051967062 0.00788048 0.05199132 0.012543329 0.0438197 -0.07977966
-0.076482005 -0.013520667 0.03046514 -0.06257787 0.023681443 0.07597585 0.09161375 0.043225203

action_head.weight f4 [5, 64]
00000000: 2219 dd3d fb15 cb3c a11c 5bbc 1167 0b3d
00000010: 22cd ee3d a797 823b e20a c5bd ba2d ae3d
00000020: 85c7 c03d 3117 fcbc 474f e63d e824 efbd
00000030: 9680 173b 0e07 a8bd f832 763d 3fbc a3bd
00000040: 3801 143d ce06 663d 4411 5c3d d954 e73c
00000050: 4c9d b63d fbd2 253d c59e d4bc baf1 f63d
00000060: fca4 893d a820 b0bc 8a02 fbbd 97aa 36bd
00000070: 499c 0f3d 8fb0 a3bd 0c4a 2fbd 2227 1d3d
00000080: a7b7 33bd 1abe a13d 3990 b93d 1cc0 a93d
00000090: ad13 89bd f440 b43d aca4 253d 4f04 bd3b
000000a0: a5d2 c8bd c1dd 693d 2a47 f33b 36dd 9fbd
000000b0: f6cd 08bd 045f f33d 60ef 86bd b288 ba3d
000000c0: 9d53 abbd b2c0 74bd 01fb efbc cd50 d1bd
000000d0: 8a53 dc3c 54fa daba fdea ccbd c801 213d
000000e0: f5cc 1abd 11f5 98bd 5139 8fbc c044 de3d
000000f0: ec45 643c 4269 b23d d380 cf3c af8d 2abc
00000100: 1e7d bbbd 8171 47bd 5ca0 6f3c fada c2bc
00000110: e9d2 e13c b5c8 a93b f6de 4abd 53a6 ffbd
00000120: 6a57 22bb 34e2 813d ac69 9ebd aa42 e1bd
00000130: 5051 8abd cb3a cd3d 1953 d83d 6763 5dbd
00000140: e041 8d3d 781b 163b 7f01 3dbd 5390 24bd
00000150: e6d5 aebd 63e0 70bd c70a bc3d 8c7b a0bb
00000160: da51 c7bc da29 b83d 055c 7f3d c57c f2bd
00000170: 0540 3a3d 074a f1bc 3c1a 73bd b9da b03d
00000180: b153 92bd 51c1 df3d 5116 153d 2066 5abd
00000190: 7acd 59bd 9a83 ac3d 2677 b23d c531 6dbd
000001a0: c9c8 423d b386 6b3d e426 be3d 8977 93bc
000001b0: d3c9 3fbd 9514 753d 9cb3 9cbd ae96 553d
000001c0: 595d 2c3d bd44 9c3d 0026 e83d 583c e73d
000001d0: 7342 e93d 730b 833d 7948 3d3d 78d3 d8bd
000001e0: 9a9b 8eba 4214 963d 9fd8 2e3d ebab ab3d
000001f0: 1471 aebd d1e9 3dbd 0bf8 1b3d 5a1f 033e
00000200: 1b35 80bc 8e68 f03c fbd3 ac3d a5e4 92bd
00000210: 8859 d7bd a112 843d 7f94 043d be50 a3bd
00000220: 2966 35bc 9b0e 983d 186e 6b3c 4ea3 e8bc
00000230: db82 efbc 0d5d bf3d 8a78 ef3d 19d7 f9bc
00000240: c283 f3bd d1ea d23d 5b88 773d 1d6f b5bd
00000250: 4e46 4fbd 2972 433d 30c8 da3d ccf1 3dbd
00000260: 5000 f9bd e020 76bc 04cc 363d b35e 95bd
00000270: 5792 a23d b190 52bc ac6d 28bd 075a c5bd
00000280: 8917 02be 6ce2 d63d 5326 f43d 04c1 86bd
00000290: 1b62 debd 1c14 f5bd 2c52 08bd 1730 af3d
000002a0: b86b 41bd 3eeb 953d 90b7 80bb a76a 973b
000002b0: bcfa 9c3b a83c f33c 8079 bcbd 43a9 d13d
000002c0: 6b8d debb d0af 803c 01a5 98bd 8ed9 30bc
000002d0: 7175 02bb 5a92 61bd 98d7 433d b47f 7a3d
000002e0: 635d 823d 695d c73c 2fd9 ee3b 6438 603b
000002f0: 6459 65bd 4c0c 813d ef05 28bd 9060 5c3d
00000300: 0a99 71bd 27cf f13d f600 fabd 4ee3 7bbd
00000310: 73ff df3d 49f2 8ebd 396d d33d 3543 503c
00000320: af43 f3bd 8333 79bc 74f6 77bd 8a20 8e3d
00000330: c082 7d3d 76be f53d 4e0b 2e3d b9d5 aa3d
00000340: 8885 3abd 4df4 08bd f5ff 74bd 6b51 5f3c
00000350: 66d5 d13d 9c7d 23bb 2da1 1b3d 03b4 c7bd
00000360: 5f1d 583d 6ed9 ebbd 3015 663d f19f c3bd
00000370: 16be 9dbd 85ec b5bd b7f2 9cbd d9a4 5abd
00000380: 5836 bcbd 8f5a 12bb e170 093d 0fb2 523c
00000390: 6d28 25bd 5172 8f3d 4cc5 ea3d 8251 b5bd
000003a0: ffbc a2bd 2de6 f5bd 98bb 563a 4a3d 2c3a
000003b0: 1fab aebd 0bba ee3d d23e 093d 8c8b b93d
000003c0: 41a9 38bd 5be3 86bd 2671 a6bb 8e4c dcbd
000003d0: 4077 5f3d fa30 e0bd fa20 39bd 7081 313d
000003e0: c100 9cbd a318 f8bd e50c 983c 1869 e7bd
000003f0: 98ca 3d3d 0357 12bd 679d 0f3d 68cd c93b
0.10795809 0.024790755 -0.013373525 0.03403384 0.1166022 0.0039853635 -0.09621216 0.085048154
0.09413055 -0.030772777 0.1124559 -0.11676961 0.0023117415 -0.082044706 0.0601072 -0.079948895
0.036133975 0.056158833 0.053727403 0.0282387 0.08916721 0.04048441 -0.025954613 0.120578244
0.067209214 -0.021499947 -0.12256344 -0.04459628 0.035061155 -0.0799266 -0.042795226 0.038367398
-0.043876316 0.07897587 0.090607114 0.08288595 -0.06693206 0.08801451 0.040440246 0.005768336
-0.09805802 0.057096247 0.007424255 -0.078058645 -0.033399545 0.11883357 -0.06588626 0.09108104
-0.08365557 -0.05975408 -0.029294493 -0.1022049 0.026895303 -0.0016706684 -0.10005758 0.03930834
-0.03779312 -0.07468618 -0.017483385 0.10852957 0.013932686 0.087114826 0.025329983 -0.010409757
-0.091547236 -0.04869223 0.014625635 -0.023786057 0.02756639 0.005181397 -0.04952904 -0.12482896
-0.002477134 0.06341973 -0.07734999 -0.10999043 -0.067537904 0.100209795 0.105627246 -0.054049876
0.0689733 0.0022904556 -0.046144005 -0.0401767 -0.08536892 -0.05880774 0.09181743 -0.0048975404
-0.024331022 0.089923576 0.062343616 -0.11840204 0.04547121 -0.029454244 -0.05935119 0.08635468
-0.07144869 0.10925544 0.036398236 -0.05332005 -0.053174473 0.084235385 0.08714132 -0.057908792
0.047554765 0.057501506 0.092847615 -0.018001335 -0.046823334 0.05983408 -0.07651445 0.052145652
0.04208121 0.07630298 0.11335373 0.112908065 0.11389627 0.06398668 0.046211693 -0.105872095
-0.0010880113 0.073280826 0.042687055 0.083824 -0.08517662 -0.046365563 0.03807835 0.12804928
-0.015650323 0.02934673 0.084388696 -0.07172517 -0.105151236 0.06448866 0.03236818 -0.07974385
-0.01107172 0.07424661 0.01436951 -0.028398182 -0.029237201 0.0934392 0.11692913 -0.030498074
-0.11890365 0.10298694 0.060432773 -0.08859084 -0.050604157 0.047716293 0.10682714 -0.046373174
-0.12158263 -0.015022486 0.04462816 -0.07293453 0.07938068 -0.01285188 -0.041120216 -0.09636312
-0.1270429 0.10492405 0.11921372 -0.065797836 -0.10858556 -0.11966726 -0.03328149 0.08554094
-0.04722187 0.073202595 -0.0039281324 0.0046208682 0.004790632 0.02969201 -0.09202862 0.10237362
-0.0067917607 0.015708834 -0.07453347 -0.010794057 -0.0019906426 -0.055071212 0.047813028 0.061156943
0.06365468 0.024336534 0.007289074 0.00342133 -0.055993453 0.063011736 -0.041021284 0.053803027
-0.05898384 0.11807089 -0.122072145 -0.06149607 0.10937395 -0.06979806 0.10323567 0.012711336
-0.11878144 -0.015210035 -0.06053777 0.069398 0.06189227 0.11999218 0.04249125 0.083415456
-0.0455375 -0.03343611 -0.059814412 0.013630251 0.10245781 -0.0024946695 0.037995506 -0.097511314
0.052762385 -0.11516081 0.05617255 -0.09551991 -0.07702272 -0.08883003 -0.07663482 -0.053379867
-0.09190053 -0.002233181 0.033554915 0.012859835 -0.040321756 0.07004226 0.11463413 -0.08853437
-0.079462044 -0.12006793 0.0008191406 0.0006570412 -0.085287325 0.11656579 0.033507176 0.090598196
-0.045083288 -0.06586333 -0.0050794063 -0.10756789 0.054557085 -0.109468415 -0.045197465 0.04333633
-0.07617331 -0.12114074 0.018560836 -0.11299342 0.046335787 -0.035727512 0.03506222 0.0061585195

action_head.bias f4 [5]
00000000: 2571 0f3d 9d36 6dbb 1c58 47bc acc9 be3d
00000010: 7020 123d
0.035020012 -0.0036195882 -0.012167003 0.093158096 0.035675466

value_head.weight f4 [1, 64]
00000000: b045 6fbd 2d53 b43d 2b37 9a3d ded2 9c3d
00000010: d5d5 033e 4806 e3bd cc9a 123e fa52 b93d
00000020: c6cb f03b 9cfb d33d 8abe 9dbc 21b0 bf3d
00000030: ce97 193e 0409 fabd 7ce8 05be 908b 8c3d
00000040: c0d4 033d ea45 14be 4e05 c7bc d5cd 983d
00000050: 22d5 c13d 06a7 da3c 976f 18bd 514a 83bd
00000060: a6e4 2abc 8022 c33a 2c98 b93b 5fcd de3d
00000070: c493 46bd eb3f 0cbe d285 8bbd 2bc9 be3d
00000080: ae67 f6bd 8f1e d7bd 056b bebd 14ff 9d3d
00000090: ae0b 58bc e41d e83d 20dc c53d 3904 2abd
000000a0: 34aa 5ebd b171 d53d 0515 ab3d 63ad 7bbd
000000b0: c9f8 00bd aa5b af3d bb4b 083d 6114 013e
000000c0: 54b9 a53c 16f9 1cbe dec5 113e 179c a3bd
000000d0: 4d0c d5bd 3cdf fc3d 5c02 fc3d 709e 003d
000000e0: 1c72 803d 70f4 8ebd 06ef 01be 3e95 eebc
000000f0: 9c6e 53bd c00d b7bd d41b cabd 48de 0fbe
-0.05841607 0.08804927 0.07530054 0.07657407 0.12874539 -0.110851824 0.14316863 0.0904903
0.0073485104 0.10350725 -0.019255895 0.09359766 0.14999315 -0.12208751 -0.13076967 0.06862557
0.032185316 -0.14479795 -0.024294522 0.07461134 0.0946448 0.026690971 -0.037215795 -0.06410659
-0.010430491 0.0014887601 0.0056638923 0.10879015 -0.048480764 -0.13696258 -0.068126336 0.093157135
-0.12031494 -0.105038755 -0.09297756 0.07714668 -0.013186378 0.11333826 0.09661126 -0.041507933
-0.054361537 0.104220755 0.083536185 -0.06144465 -0.03148726 0.085624054 0.033275347 0.1260543
0.020229973 -0.15329394 0.14235637 -0.07988756 -0.10402737 0.12347266 0.123051375 0.031401098
0.06271765 -0.069802165 -0.12688836 -0.029123899 -0.051619157 -0.089381695 -0.09868589 -0.14049637

fc1.weight f4 [128, 147]
00000000: 73bc 393d c762 193d 02df d63a 16e8 283d
00000010: b1cc 993d 569d 063d 7dcb febc 6f6e b63d
00000020: 5406 473d c529 e33c eead 14bd f0a2 64bd
00000030: ac5b 2abd da2e 9ebd ac70 493d a4bf b6bc
00000040: d625 66bd 3675 4b3d 2a19 de3c 0706 b13d
00000050: 322b 6e3d 80bb 503d e6b3 b6bc 0b69 aabc
00000060: d7eb 87bd fde1 053c 79f6 833d 4f4e 4b3c
00000070: 306d 46bd 5d3b 583d cf93 353d ae13 ea3c
00000080: 9094 6b3d 3e56 a13c 4101 9639 af51 a03d
00000090: c2ae a2bc 4fa9 b53d f8df 8b3d deda 6ebd
000000a0: 855f 503b 992a 9a3a 15d8 3c3c 4b1b 15bd
000000b0: ebe3 cc3c 125c 363d 7a1f 863d 6d65 81bd
000000c0: bf92 07bd 787f 073d bb38 963d ebdf a6bd
000000d0: c335 803d 906e 973d 88aa b3bc 501a 90bb
000000e0: 7615 233b efba 803d 022a c13c 643d 83bd
000000f0: 983d 9c3c c3b5 e43c 783d 09bc ab30 8a3d
00000100: 8ec5 313d 1a71 a93c 9c56 80bd a275 7abc
00000110: 3abc a2bb 0825 9d3c f18f 53bd 5da4 4b3d
00000120: d474 fbbb 380b 793c 287c 70bd 89a1 0abd
00000130: a67f 5cbd 91ab 82bc 26de e33c 7c93 943c
00000140: 76ee ae3c 5d5c acbc 930c 993d 80ca db3c
00000150: a8bf e0bc dd55 56bd 2ebd 8b3d e7f9 43bd
00000160: 5507 673d 9c63 ba3d 03f2 d53c 0603 a3bb
00000170: 0ddc b73d 7254 2ebd 861d 2b3d 2d4b 47bc
00000180: 6a0c 8fbd 9f6c e1bb e8fb 683c 715e 273d
00000190: ccd8 1fbd 788f 183c 3ae7 873c dffc 6a3d
000001a0: 7384 4cbb 5c56 083d 5960 893d 4da4 a3ba
000001b0: 5cdb 88bd 0af3 403d 26bf 86bb 2737 323d
000001c0: e41c 693d d2c8 753c c8f0 25bb 51ca 583c
000001d0: 548f 04bc 0327 dc3c cacb 3dbd 181b 9ebc
000001e0: 235a 9dbd 11a4 69bd 1b6e cc3a ff8e 71bd
000001f0: bf8a dc3c 1fde 133d 7e7f 843d 98f5 65bd
00000200: c6fb 17bc b79b 1abd 8f02 833c 820a 47bd
00000210: 38f8 993c d57e 3d3d 2b67 4bbd fbf5 5d3d
00000220: 5e5d 8a3d f6e8 b23d 8a7b d4bb 23ba 7bbd
00000230: 4ddb 803d 363d e4bc 3f67 6bbc 5722 243d
00000240: e058 83bd 56e5 81bd 1843 47bd 93a3 f23c
00000250: 6d70 c93c bcf7 f8bc 6d8e a3bc 923e 293d
00000260: a232 883d ab51 89bb 1928 53bc 03b7 5d3d
00000270: a94f 133d 71b7 c4bc 4907 36bd 4d71 4dbc
00000280: 886a b23c 343a edbc 24ca faba 219f 9ebd
00000290: 3fc4 47bb 44c5 813d ab07 65bc 9aa0 58bd
000002a0: 6a11 9a3d bde8 7a3d cf61 96bd 5012 303c
000002b0: 9e17 503d 97d2 55bc bbc9 a2bd c994 373d
000002c0: 51c8 a4bd c882 a9bd bba2 87bd ed7f 05bd
000002d0: 0209 15bc 1201 993c 3248 703d 3cc9 d8bc
000002e0: e07b 993c ebdf d83c babb 80bd e1e0 97bc
000002f0: d45a 683d b206 88bd 55b6 84bd d97f 32bd
00000300: dd42 be3d 1e28 b03c bbc2 af3c a264 a73d
00000310: 2aa8 b0bc f379 3c3d dd80 773d 2a22 8abd
00000320: b66d a43d 6cd6 82bd aa33 0d3d 12e8 7c3d
00000330: 701a 77bc c4b7 153c a40a 8bbd aa5e 153c
00000340: d70d 843c 43b5 e0bc bda1 6fbd 3490 713c
00000350: 82f8 093c 4708 24bd a848 3ebc b350 adbc
00000360: 5711 acbd 30b7 563d fab2 79bd 06c3 1cbd
00000370: fdf4 ecbc d266 533d c73a 3e3a b44d 153d
00000380: 257f f73b 10db ab3c 8f54 a83b 53ae 6abd
00000390: 44c9 433b ce3b 3d3d 9d2b afbc 05b9 7f3d
000003a0: fa11 a13d bc78 85bd 009d 9a3d 5443 95bd
000003b0: 4e94 afbd e553 753d ec5e 76bd 2ce6 76bb
000003c0: 53c1 d33c 14de adbc 041f c73c c8ee 623c
000003d0: 2eeb 7abd 1a9f 843d b1eb 143c ec50 943d
000003e0: 94f3 18bd 5902 37bd cbe8 553d 6305 21bd
000003f0: 0dcf 51bd 8124 033d 5732 473b 1150 f83b
0.045345735 0.037447717 0.0016393366 0.04123696 0.07509745 0.03286489 -0.03110289 0.08907782
0.04859002 0.027729878 -0.036298685 -0.05581945 -0.04159133 -0.0772378 0.049179718 -0.022308178
-0.056188427 0.049672328 0.027111609 0.08643728 0.058146663 0.050960064 -0.02230258 -0.020802042
-0.0663678 0.008171556 0.06443495 0.012408807 -0.048443973 0.05279099 0.044330414 0.028573837
0.057514727 0.019694444 0.00028611164 0.0782808 -0.019858722 0.08870184 0.06829828 -0.058314197
0.0031795215 0.0011761963 0.011526127 -0.03640298 0.025011024 0.0445214 0.065489724 -0.063181736
-0.033098932 0.033080548 0.07335039 -0.08148178 0.06260254 0.07394135 -0.021931902 -0.004397668
0.0024884618 0.06285655 0.023579601 -0.06408194 0.019072339 0.027918702 -0.008376472 0.06747564
0.043401293 0.020683814 -0.062665194 -0.015286835 -0.004966286 0.019182697 -0.051650945 0.049717296
-0.007673839 0.015200429 -0.058712155 -0.03384546 -0.053832673 -0.01595095 0.02781589 0.018136732
0.021353941 -0.021040136 0.074731015 0.026829958 -0.027435139 -0.05232798 0.068231925 -0.047845747
0.056403477 0.0910103 0.026116377 -0.0049747257 0.08977518 -0.042561002 0.041776203 -0.012163919
-0.0698479 -0.0068794037 0.014220215 0.04086155 -0.039025113 0.009311549 0.01658975 0.057370063
-0.0031206876 0.033285484 0.0670783 -0.0012484879 -0.066824645 0.04710678 -0.004112142 0.04350963
0.056912318 0.015001493 -0.0025320519 0.01323183 -0.008090813 0.026874071 -0.046336927 -0.019300029
-0.07683208 -0.05704123 0.0015596779 -0.058974262 0.026921628 0.036100503 0.0646963 -0.05614242
-0.009276336 -0.037746157 0.015992431 -0.048594005 0.018795118 0.046263535 -0.049658936 0.054189663
0.0675609 0.0873584 -0.0064844536 -0.06145681 0.06291828 -0.027861219 -0.0143678775 0.04007181
-0.06413436 -0.063425705 -0.04864797 0.029619014 0.024589742 -0.030391566 -0.019965375 0.041319437
0.066502824 -0.004190644 -0.012887978 0.05412961 0.03596464 -0.024013253 -0.04444054 -0.01253922
0.021779314 -0.028958417 -0.0019133729 -0.07745195 -0.0030481962 0.063364536 -0.013978879 -0.052887537
0.07522853 0.061257113 -0.07342874 0.010746554 0.050803773 -0.013050697 -0.07948633 0.044819627
-0.0804602 -0.08276898 -0.06622835 -0.032592703 -0.009096386 0.018677268 0.0586626 -0.026463144
0.018735826 0.02647396 -0.06285806 -0.018539848 0.056727245 -0.06641902 -0.064800896 -0.043578956
0.09290097 0.021503504 0.02145516 0.08173491 -0.021564562 0.046014737 0.060425628 -0.067447975
0.08028738 -0.06388554 0.0344731 0.061744757 -0.015081987 0.009138051 -0.06789139 0.009116808
0.01611988 -0.027430182 -0.058503855 0.014743853 0.008421065 -0.040046956 -0.011614002 -0.021156644
-0.08401745 0.052420795 -0.0609617 -0.038271926 -0.028925413 0.05161173 0.00072566833 0.036451057
0.0075529986 0.02097848 0.0051370333 -0.057295155 0.0029874602 0.046199612 -0.021383101 0.062432308
0.07864757 -0.06517169 0.075494766 -0.072882324 -0.08573209 0.05989446 -0.06014912 -0.0037673814
0.02584902 -0.02122406 0.024306782 0.013850875 -0.06125944 0.06475659 0.009089396 0.07241997
-0.03734167 -0.044679973 0.05222396 -0.039311778 -0.05122285 0.032017235 0.0030394995 0.007577904

fc1.bias f4 [128]
00000000: f3dc 553d 3848 edbb aefc 91bd 6ab0 75bd
00000010: c784 0a3d b6ba 8e3c 354e 7ebd 3030 6d3d
00000020: 2c25 82bd f37d 833c 5ac5 5c3d 9047 1dbd
00000030: 1390 653c 200d 32bd dc6a 32bd e6a4 8cbd
00000040: 87ea 943d 5b9f 8c3d 8541 a0bd 05af 983d
00000050: c4d3 cb3d 71ca 81bd 4ae5 6fbd a0ac 96bd
00000060: b32c bd3b aa84 953d 8d98 b53d b958 3d3d
00000070: 1a2d 17bd a011 eebc c212 763d 9e75 78bd
00000080: bab7 76bd 7cbb 453d 153e 46bd 2b62 c13c
00000090: b17a 483d e7f5 30bd e210 51bc ac9a efbc
000000a0: 076b e63c 3cc7 753d 2e57 1d3d 1832 3fbd
000000b0: 591e 81bc 1c94 703a 71bd b23c 8a2e b03d
000000c0: 9426 793c 906e 433d 63ad 1b3d 48bb a83d
000000d0: bb45 a63d 69ae 48bd 72b5 293c 1128 2a3d
000000e0: 40f2 67bc 3dab 8abd 4b49 0fbd 3277 a93b
000000f0: fcf0 0ebb 5939 a43c 00f3 613a a31e 4f3d
00000100: 0c2c 953d ad7d 813d b13f 873d 5f4d d5bc
00000110: c89e 2abd 3adf fabb 0ae6 e23c 3131 453b
00000120: 1933 53bd b8c2 09bd 6a70 88bc bbc8 59bd
00000130: bdd8 2cbd 34ff 633d fccd 57bc 6ea7 933c
00000140: feca af3d 78b1 1fbc 0f34 3c3c eb2b 80bd
00000150: cc4d 7b3d c73d 2d3d 7ef1 41bd 237d 303c
00000160: 9295 863d 68f2 bb3d becc 82bd 1790 3abd
00000170: 3a64 6bbc 5835 d8bc a71c 8e3d 10cc 25bd
00000180: 9944 95bb d9bd 98bc edcd 833c c8b2 813c
00000190: ddf9 743d b01e ae3d 7e95 413c 7668 8c3d
000001a0: 9e31 a23d 03a0 af3d 2667 41bd 8450 833d
000001b0: 4ecb 3d3d c8d4 d8bc 0530 853d c15a 33bd
000001c0: b63d bfbc 7a4d d43b cdf8 5a3d a1e2 84bc
000001d0: 6649 4e3d cd66 8d3a 839c b03d 8e17 3b3d
000001e0: 149b 82bd ce2d 823d 456d 21bc fd5e f93b
000001f0: 9e25 94bd c67c 703d 5ae7 523d 94da 873d
0.052212667 -0.007241275 -0.07128273 -0.059982695 0.033818033 0.017423015 -0.062086303 0.057907283
-0.06354746 0.016051268 0.053899147 -0.038398325 0.014011401 -0.04346955 -0.04355894 -0.068673894
0.07271295 0.06866332 -0.07824997 0.07455257 0.099525005 -0.06337441 -0.058568276 -0.07357144
0.005773151 0.07300694 0.088669874 0.04622719 -0.036908247 -0.029061139 0.060076483 -0.060659043
-0.06023381 0.048274502 -0.04839905 0.02360638 0.048945133 -0.04320326 -0.012760373 -0.029248558
0.028127206 0.060004458 0.03841322 -0.046678632 -0.015761541 0.00091773435 0.021818848 0.086026266
0.015206952 0.047712862 0.03800715 0.08238846 0.08118769 -0.048994455 0.010358201 0.041542117
-0.014156878 -0.06770942 -0.034982007 0.00517168 -0.0021811118 0.020046877 0.00086192787 0.050566327
0.07283792 0.06322799 0.06603945 -0.02603787 -0.04165533 -0.007656005 0.027697582 0.0030089135
-0.051562402 -0.033632964 -0.016655166 -0.053169947 -0.042198885 0.055663303 -0.013171669 0.018024173
0.085836396 -0.009746902 0.011487021 -0.06258377 0.06135349 0.042295244 -0.047349446 0.010772022
0.06571497 0.09177095 -0.06386708 -0.04554757 -0.014367158 -0.026392624 0.06939059 -0.040477812
-0.0045552966 -0.018645214 0.016089404 0.01583232 0.0598086 0.08501947 0.011815427 0.06855862
0.0791962 0.08575442 -0.04721751 0.064118415 0.046336465 -0.02646865 0.065032996 -0.04378772
-0.023344856 0.0064789625 0.05345993 -0.016221346 0.050362967 0.0010788083 0.08623602 0.04567676
-0.06377235 0.06356393 -0.009852712 0.0076102004 -0.072337374 0.058712743 0.051490165 0.06633487

fc2.weight f4 [64, 128]
00000000: 5bf2 b13d f834 d1bc 617e 0abd 52d8 683d
00000010: aeb5 0bbd 98b7 a2bc 427a a5bd 269a 4d3d
00000020: 701f ba3b d0bd babb ee0e 5c3d b290 b0bd
00000030: c464 e2bc aa9d 513d 24f5 8fbc 5aef 2f3d
00000040: 3e2c 5abd f0ac db3b 9045 b53c 6f5f 2fbd
00000050: 9666 aabd d240 583d 0cbe ddbc 31a3 973d
00000060: 0efc b3bd cf19 26bd 7237 1b3d 6446 88bd
00000070: 8079 743c 39be 39bd d8ef 77bc d8f3 31bc
00000080: 6d74 44bd 90a6 a93b 5c34 b2bd 979a 2bbd
00000090: 00e2 c9ba ad72 b13d a22d 423d e0c1 0ebb
000000a0: 9234 9bbd 8f11 58bd 8d86 893d 3e22 4e3d
000000b0: 30ae 633c b0c0 bf3b d7d7 91bd 5257 7ebd
000000c0: e4c4 8ebd cd67 823d d796 a5bd cd71 a1bd
000000d0: ee84 683d 5858 d1bc bb24 823d 382a a6bc
000000e0: 3053 97bb 28ef 7abc 52e2 023d 1df4 833d
000000f0: 9bd0 20bd 52b1 dcbc ab1a a93d 84de d43c
00000100: b0a6 16bd c8fe 83bc b880 bebc 367d 573d
00000110: f6de abbd bcc3 8dbd 006a 9ebd 9266 1c3d
00000120: feb9 95bd 805d b83c 39fe 9b3d c7da 963d
00000130: 7a10 6dbd 1e8b 87bd e327 5fbd d4cd d03c
00000140: f928 913d cfe7 b0bd bf87 5abd 8d8b 99bd
00000150: a5d9 8fbd 02d0 6d3d 68ab 5b3c 9666 473d
00000160: f679 96bd cdb4 86bd f1e2 aebd a094 f03c
00000170: ca27 7f3d 3041 87bc 0d5f 24bd 20b9 a1bc
00000180: 8adb 7e3d 43c3 abbd 496e 1abd 738c 883d
00000190: b1b3 57bd fccd fe3c 0ee2 7ebd 5867 f03c
000001a0: cbd6 943d 62c4 633d 7ced 60bd 5619 4b3d
000001b0: 20e4 46bb e603 83bd 601b 7cbb 1656 643d
000001c0: 48d9 7f3c d0dc c7bc 383a 243c 5849 7a3c
000001d0: ced0 1cbd c64e 453d 74ad 84bc 83a8 853d
000001e0: ce1e 563d d98a ae3d 06a5 623d 6640 91bd
000001f0: 08f8 85bc 9264 313d c8b1 1fbc f08e f6bb
00000200: a1c8 813d 05b1 abbb 9818 a43d 65b4 823d
00000210: 7869 693d 5626 3e3c 014a 7f3d 78d9 c7bd
00000220: 3b87 d53c 06dc 86bd bd83 26bd 3356 1fbd
00000230: ab9c 81bd ec66 27bc 7e82 10bd 7efd bd3c
00000240: 5e65 b2bd 89c7 61bd ce7d 063d 3af1 75bc
00000250: 8b56 b93c 1ab2 94bd 363c 883b fe83 65bd
00000260: 1eae 7f3d cd09 db3c 6d0f b9bd 6b7c 88bd
00000270: 119d 8e3d 7fdd c33d b994 923d f141 8fbd
00000280: 4e10 9b3c 8600 88bd d705 c53d 66ea a1bd
00000290: 94dd 723d 3eb8 c7bc d52a 19bd 5e84 743d
000002a0: d4ae 2bbd bb84 b5bd 4978 853c ad9f 3b3d
000002b0: 8bb0 b83c cb91 33bd e524 353c f885 373d
000002c0: d4e7 be3d 08dd 923d d75f 383d f3e5 9b3d
000002d0: fdee 8d3d 93cb 38bd c69d a23d f391 abbd
000002e0: 26d7 4dbd f251 253d 7ee6 5cbd 4aed a9bc
000002f0: 67da b4bd e7b9 abbc 9731 a53d b278 b23d
00000300: b413 f03b 88f2 97bd f1c6 91bd 24de 65bd
00000310: b3ab 643d f6b3 59bd ef6b 003d cfb4 a0bd
00000320: e29a 1e3d 7997 9d3c 308e 9c3d c724 e73a
00000330: 317d 2fbc 5468 30bd d55f 5fbd f12b 6d3d
00000340: 420a a63c d1e8 5fbc 7b0a 383d 132a 81bd
00000350: 7e29 8f3b 9b35 243d 1d13 20bd 8de3 f83c
00000360: 5d6f 9ebd 8af9 88bb 1b08 e3bc 908b af3b
00000370: ea64 09bd e7aa 14bd 62d2 783b c42a 833d
00000380: 6fb9 943d 8fa7 b3bd a0f7 a3bc 4246 813b
00000390: b3af 833d 7e1c 54bd b363 213d ad75 7dbd
000003a0: c432 383d fbd2 8e3c 158b 823d 9766 dcbc
000003b0: 6b68 883d 82c6 283d 972e 85bd 721e 8e3c
000003c0: 18fc 0fbd 9da3 c23c ea0d ae3c 8168 89bb
000003d0: da14 81bd 34ae 6b3b 4247 863d 911e 2e3d
000003e0: 46a0 fbbc d4f1 b03d 75f4 48bd d584 da3d
000003f0: df72 163c dea4 963d be54 843d 8e7a 68bc
0.08688804 -0.025537953 -0.03381193 0.056846924 -0.03410881 -0.019862935 -0.080799595 0.050195836
0.005680017 -0.005698897 0.053725176 -0.086213484 -0.02763594 0.05117575 -0.017572947 0.042952873
-0.05326485 0.0067039654 0.022127897 -0.042815622 -0.08320348 0.052796192 -0.02706816 0.07404173
-0.0878831 -0.040551957 0.037894674 -0.06654051 0.014921546 -0.045347426 -0.015132867 -0.01086136
-0.047962595 0.0051773265 -0.08701393 -0.041895475 -0.0015402436 0.08664451 0.0474068 -0.002178304
-0.07578386 -0.05275112 0.06715117 0.050325625 0.01389651 0.0058518276 -0.07121246 -0.062094994
-0.06971148 0.06367455 -0.08085411 -0.07883034 0.056767397 -0.02555482 0.06354662 -0.020283803
-0.004618071 -0.015315808 0.031954117 0.06443045 -0.03926144 -0.026940022 0.0825704 0.02598501
-0.03678006 -0.0161127 -0.023254737 0.052609645 -0.08392136 -0.06922099 -0.07735062 0.038183756
-0.07310866 0.022505522 0.076168485 0.07365947 -0.05787704 -0.066183314 -0.0544814 0.025488771
0.07087893 -0.08637964 -0.053352114 -0.0749732 -0.07023934 0.0580597 0.013407566 0.048681818
-0.07347481 -0.06577454 -0.085393794 0.029367745 0.062293805 -0.016510576 -0.04012971 -0.019741595
0.062221088 -0.083868526 -0.037702832 0.066674136 -0.0526616 0.03110408 -0.0622273 0.029346153
0.07267531 0.055607207 -0.054913983 0.04958471 -0.0030348375 -0.06397228 -0.0038468465 0.05574616
0.015615769 -0.024397284 0.010023646 0.015276276 -0.03828507 0.048170827 -0.01619599 0.06526282
0.05227547 0.08522577 0.05533316 -0.07092361 -0.016353622 0.043308802 -0.009746976 -0.0075243637
0.06337095 -0.005239608 0.080125034 0.06382064 0.05698535 0.01160582 0.062326435 -0.09758276
0.02606546 -0.06584935 -0.04065298 -0.038900565 -0.0632871 -0.01021741 -0.035280697 0.023192164
-0.087107405 -0.055121932 0.03283482 -0.015011126 0.022624275 -0.07260533 0.0041575683 -0.05603408
0.06242191 0.026738072 -0.09036145 -0.06664356 0.06963552 0.095637314 0.07157273 -0.06994999
0.018928673 -0.06640725 0.096202545 -0.07906036 0.059293345 -0.024379846 -0.037394363 0.059696548
-0.041914776 -0.08863207 0.016292708 0.045806576 0.02254512 -0.04384021 0.01105616 0.044805497
0.093215615 0.071710646 0.045013275 0.07612219 0.06930349 -0.04511602 0.07940249 -0.08377447
-0.05025401 0.040361352 -0.053930752 -0.020743031 -0.088307194 -0.020962669 0.08066099 0.08714427
0.0073265675 -0.07419306 -0.07118023 -0.056120053 0.055827808 -0.05315014 0.031352933 -0.078469865
0.038721927 0.019237267 0.076443076 0.0017634862 -0.010711 -0.043068245 -0.054534752 0.057903234
0.020268563 -0.013666348 0.04493187 -0.06306853 0.00436896 0.040090185 -0.039080728 0.030381942
-0.077360846 -0.004180138 -0.027713826 0.0053572133 -0.033543505 -0.036295798 0.0037967195 0.06404641
0.07261931 -0.08772194 -0.020015538 0.003945143 0.06429996 -0.051784985 0.03940172 -0.061879802
0.04497029 0.017434588 0.06374184 -0.026904387 0.06660541 0.041204937 -0.06503027 0.017348502
-0.035152525 0.023759658 0.02124687 -0.004193366 -0.06302805 0.0035961987 0.0655656 0.04250962
-0.030716073 0.08639875 -0.049061257 0.10669867 0.009182661 0.07355665 0.06461476 -0.014189376

fc2.bias f4 [64]
00000000: b616 9ebd d086 703d 6e66 89bd 4015 05bc
00000010: 5a4b 6bbd 8390 043d ed17 243d 8c9a ac39
00000020: 3c92 8fbd 8caf 493c 6c50 643d f52c a8bd
00000030: ea87 953d 2d75 11bd 2a40 003d 26e8 343d
00000040: 60f6 913d f9f6 39bd e332 143d 5469 8b3c
00000050: b2dc a6bd 7875 85bb f43e a0bc 5e72 873d
00000060: f1e5 853d 8d02 ad3c dc17 153d a664 2abd
00000070: 7ff1 883c 6b71 80bc 4e33 653d bfbe 99bd
00000080: df23 363d 7761 113d 183c d13a 9fdc 893d
00000090: 992c c63c 7e47 8c3d cb80 a6bd c3f3 8e3c
000000a0: ea26 a13c 62df 273d 3e01 05bd 399e 803d
000000b0: 39c6 563d e9a9 63bb e4b6 863c 502a 803d
000000c0: 6293 a53d 07d7 a9bd e32b 493d 004e 9fbd
000000d0: e172 23bd 0e8f 53bd 6c3e 6cbd e1af 98bd
000000e0: 1487 ad3c 745b 2c3c 863b b2bd 36f9 5abd
000000f0: 5a31 c1bb be4c b63c c30f 57bc c33b 0ebd
-0.077191755 0.058722317 -0.0670899 -0.008122742 -0.057444908 0.03236438 0.04006188 0.00032921543
-0.07010314 0.01230992 0.05574076 -0.082117 0.07301314 -0.03551214 0.03131119 0.044166707
0.071270704 -0.045401547 0.03618134 0.017017998 -0.08147563 -0.0040728413 -0.019561268 0.06613611
0.065379985 0.02111938 0.036399707 -0.041599892 0.016716717 -0.015679082 0.05595713 -0.07507085
0.044467803 0.03549334 0.0015963344 0.06731533 0.024191188 0.068495736 -0.08130034 0.017450219
0.019671876 0.04098452 -0.032471888 0.062801786 0.052435134 -0.0034738726 0.01644463 0.062580705
0.08084752 -0.08292966 0.04911412 -0.07778549 -0.03990448 -0.0516501 -0.057676718 -0.07455421
0.021182574 0.010519851 -0.087027594 -0.053460322 -0.0058957757 0.02225339 -0.0131263165 -0.034724962

action_head.weight f4 [5, 64]
00000000: ce31 b5bd 778f cfbd e330 37bd 9fca cabd
00000010: d44a 143d 1597 cb3d 5e33 acbc b0f3 333d
00000020: f5f9 853c 7c59 3ebd 071f 0abd 2259 dc3d
00000030: d78c 633d a0f7 81bd 0e5a bcbd 5f94 ce3d
00000040: 2e01 0cbd f6f7 01be 8088 e93d 8240 af3c
00000050: 1fff 423d 5e81 c3bd 85b1 efbd 6799 903d
00000060: 2e65 a03d 30a1 253d 7b76 e5bd bddb eb3b
00000070: 5b86 8ebc 60a1 4ebc dcf7 91bd 0a82 5a3d
00000080: 7290 d1bd 71f2 e7bc b932 ea3c a291 02bd
00000090: 5d1a 813d ec51 0fbd c25a 693d abce b23d
000000a0: f82e ce3d e921 713c 9bca 7c3d 6ca0 d9bd
000000b0: 78ad a2bc 56ad b23c bf7c b63c 85be 05bd
000000c0: 1bd6 9abd 38ad c83d 0878 f3bd 1f6f ddbc
000000d0: 3ec4 03bc 25c2 9e3c e9ca 82bb 475a f83c
000000e0: 2711 c03d e0da 11bb 4bfb 973d 8608 84bd
000000f0: 3bc0 d83d de35 813b 863e 8ebd 708a 3bbd
00000100: 60aa 563d 0dea 043e 1ed1 a43d dfca 52bd
00000110: f1ae c53d dd8c c33c 352d ec3d 50fa 2d3c
00000120: b96c db3d e17d a73d 930c 273d 4c2e 1d3d
00000130: d981 043e 3ffc 5b3d 9e9e d1bd 7a55 35bb
00000140: bf7e 99bc d2b9 fb3b 2c2c 003d b16b 0c3d
00000150: 2560 52bd 0a0d adbd 60c4 86bd 5a8e 943d
00000160: 4486 9cbc c2f0 933d 026d 933d 5c7b 82bd
00000170: 3371 36bd 8b06 513d b079 36bd c99f 503d
00000180: b8e3 123d bbf6 ef3d ae86 85bd 02d9 c6bd
00000190: 749d 87bd 91ff 9ebd 49cc 943d 8fc7 f3bd
000001a0: cc91 ba3d 2745 963c 94f0 a0bd 508a 3c3c
000001b0: 247a cebd 1f40 a3bd e23a cb3d 3d0a dd3c
000001c0: 925a f13d 4567 d93d 76fb 0ebc df43 f6bd
000001d0: 3284 7b3d 8146 bbbd 1348 353d 2c6b d13c
000001e0: 5abe a33d cad1 9ebd 733d 27bd a2e1 fe3a
000001f0: dd7b dd3d fffb 503d 9e1b f9bc ba00 96bd
00000200: a45f d7bd 6ff1 1fbd 0858 85bd afa9 98bd
00000210: 0126 7f3d 89c6 f4bc 6a5f 4bbd 90ef d5bd
00000220: 59fe 79bd f9b4 81bd fb1f 9cbd 7f44 e73d
00000230: 29f2 a8bd 29dc b83d 09f7 9ebd 8189 493d
00000240: 1f56 d4bc 2fee f2bc ad66 8abd b14e 8bbd
00000250: 10d4 cebd 95e9 9fbd 3a2f 4fbb 5e99 cabd
00000260: 936a d4bd 8180 0c3d b0b9 f0bd 66a1 583d
00000270: 4026 843d f00c eb3d 8634 273d 2858 03be
00000280: 84ce 9d3d 757c e8bd 4667 d93c c19a 44bc
00000290: ead2 f0bd 224c 7fbc 44d2 fbbb 3473 af3a
000002a0: e3e8 3c3d f085 a23d 8e57 efbd eb2d 163d
000002b0: 4b57 85bd 5265 cdbd 4cb4 b93d 597c ac3d
000002c0: 6aec fc3c 4990 aa3d e7d4 88bd 9731 173d
000002d0: c1f5 033d 5d73 b6bc 543e d3bc 6a31 f23d
000002e0: 1aaa 823c 7789 973d 9017 fc3d 22c7 753c
000002f0: c6e1 4f3d eb34 9bbd f2ca a03d 1391 eebc
00000300: 2815 5ebd 3aad e53d 12b3 053d ae4f 833d
00000310: b443 0e3d 542a 28bd ba81 c3bd 0139 c4bd
00000320: e863 d6bd 4ec1 99bd 6261 d9bd 9a6b cebd
00000330: 1585 7d3d 4f57 0e3d 0fa7 fe3d c65f 9c3d
00000340: f3cf 8f3d eadc 8abb 0e69 dabd 3f05 583d
00000350: dc16 debd 7e6c 863d 195c 2e3d bd3b 2f3d
00000360: 6fce a0bd 5951 c9bd 226d 583d 4ec2 2c3d
00000370: 81f0 dcbd c1e7 2fbd 0917 f7bb 914f 023c
00000380: a8a1 663d d45f ebbd 1287 823d c2f7 66bd
00000390: 34ca 153d 1f99 d63d c898 8c3d cfcc dd3d
000003a0: cdb7 3c3d 0275 be3c 2ce7 fe3d 4a3b 563d
000003b0: f630 823d b9c4 c03c 3505 82bd 7397 c23d
000003c0: 349c b8bd f409 5abd ea38 893d 613e e2bd
000003d0: d216 a83b 84f5 453d 8faa f0bc 623a 003e
000003e0: 6c95 47bd ac30 283b 026d 54bd 85e2 be3d
000003f0: 2324 bc3d 6cba b4bd af85 cdbd 0d96 3ebc
-0.0884739 -0.101347856 -0.044724356 -0.09901928 0.036204174 0.09940926 -0.021020588 0.04393357
0.01635454 -0.046472058 -0.033720996 0.10759188 0.055554237 -0.06346059 -0.09196864 0.10086893
-0.034180813 -0.12692246 0.114029884 0.021393064 0.047606584 -0.09546159 -0.11703781 0.07060509
0.078317985 0.040436924 -0.11204239 0.0071978257 -0.01739805 -0.012611717 -0.071273535 0.05334667
-0.10232629 -0.028313847 0.02858864 -0.031877168 0.063038565 -0.034990236 0.05697132 0.08730825
0.10067552 0.0147175575 0.061716657 -0.10626301 -0.019858107 0.021811169 0.02227628 -0.032652397
-0.075603686 0.09798664 -0.118881285 -0.027030526 -0.008042393 0.019379685 -0.003991474 0.030316485
0.093782715 -0.0022255704 0.07420977 -0.06446938 0.1058354 0.003943189 -0.06945519 -0.04578632
0.052408576 0.12979908 0.080476984 -0.051463004 0.09652508 0.02387088 0.1153206 0.010618761
0.107140966 0.08178306 0.040783476 0.03837423 0.12940158 0.053707357 -0.10235332 -0.0027669356
-0.018737195 0.0076820636 0.031292126 0.03428239 -0.05136122 -0.08449753 -0.06580424 0.07253714
-0.019106992 0.07223655 0.07198526 -0.06371185 -0.04454155 0.05103163 -0.044549644 0.050933633
0.0358617 0.11716982 -0.06519829 -0.0970936 -0.06621829 -0.07763589 0.07265527 -0.11903297
0.0910984 0.018343521 -0.07858387 0.011507586 -0.1008189 -0.079712145 0.099233404 0.026982421
0.11784853 0.106154 -0.008726945 -0.12024664 0.06140537 -0.09144307 0.04425819 0.025563799
0.07995291 -0.07754858 -0.040830087 0.0019445906 0.10814641 0.051021572 -0.030408677 -0.07324357
-0.10516289 -0.03904861 -0.06510931 -0.074542396 0.062292103 -0.029879825 -0.04965154 -0.104460835
-0.06103358 -0.06333346 -0.07623287 0.112923615 -0.082493134 0.09026367 -0.07761962 0.0492034
-0.025919972 -0.02965459 -0.06757865 -0.068021186 -0.100990415 -0.07808224 -0.0031613843 -0.09892534
-0.1037189 0.03430224 -0.11754167 0.052888297 0.06452608 0.11477077 0.040821575 -0.12826598
0.07705405 -0.11351863 0.026538502 -0.011999787 -0.11758979 -0.015582116 -0.0076849777 0.0013385774
0.046120536 0.07935703 -0.116866216 0.036664885 -0.065107904 -0.10029091 0.09067592 0.08422155
0.03087445 0.083283015 -0.06681233 0.036912527 0.03221679 -0.022271806 -0.025786556 0.11825831
0.015950251 0.07399266 0.12309182 0.01500109 0.050752424 -0.07578453 0.07851209 -0.029121911
-0.054219395 0.11214681 0.032641478 0.06411682 0.034732535 -0.041055992 -0.09546228 -0.09581185
-0.10468274 -0.07507573 -0.106142774 -0.10079117 0.061894495 0.034751233 0.12434208 0.07635455
0.07022085 -0.004237761 -0.10664569 0.052739378 -0.10844204 0.06563662 0.0425683 0.04278158
-0.07851874 -0.09829969 0.052838452 0.04217749 -0.1078806 -0.042945627 -0.007540588 0.00795354
0.05630651 -0.11492887 0.06373419 -0.056388624 0.03656979 0.10478424 0.06865078 0.1083008
0.046073724 0.023249153 0.12446436 0.052302636 0.06356995 0.023531305 -0.063486494 0.09501543
-0.090141684 -0.05323215 0.067003086 -0.11047054 0.0051296735 0.048329845 -0.029378204 0.12522271
-0.048726484 0.0025663776 -0.05186177 0.09320549 0.0918658 -0.0882462 -0.10035264 -0.011632455

action_head.bias f4 [5]
00000000: 623f 97bc 44ae 0d3c e683 a73d 0b82 8e3d
00000010: dec6 8abb
-0.01846284 0.008647505 0.081794545 0.069583975 -0.0042351326
