logs/mappo_checkpoint_ep250.pth (torch, 451986 bytes, 28 tensors)

fc1.weight f4 [128, 147]
000000 a2 39 9a bc c0 c7 ad 3d 24 71 8c bd 3a 17 ff 3c
       -0.01882631 0.08485365 -0.06857517 0.031139005
000010 0c 21 28 3d a8 85 68 3b c9 72 77 bb 27 e9 32 bd
       0.04104714 0.0035480056 -0.0037757626 -0.043679383
000020 c9 ce 31 bd 6c 6c 44 3d a4 60 d4 bc 56 02 8d 3d
       -0.043410096 0.04795496 -0.025924988 0.06885211
000030 e6 f1 92 3d b1 ec 63 3d 22 76 52 3d 48 5f 23 bd
       0.07175045 0.05564565 0.05138219 -0.03988579
000040 24 4a 84 3d a4 01 8f bd 52 4b 83 bd e6 69 f7 3c
       0.06459454 -0.06982735 -0.064108506 0.030201863
000050 c1 0a a2 3d 49 4e d2 3c f2 5d b6 3d dc 80 3f bd
       0.079122074 0.025672095 0.089046374 -0.04675375
000060 53 7a cf 3a f7 8d 51 bc 21 d4 0b 3d 6a f1 fc bc
       0.0015829302 -0.012790195 0.03413785 -0.030876834
000070 8e 5a 98 3d 0b 49 87 3d 05 41 9a bd c2 d0 65 bc
       0.07439147 0.06605729 -0.07531933 -0.0140268225
000080 f8 ca dd bb 88 8c fc 3c 76 68 a0 bc 55 07 71 bd
       -0.0067685805 0.03082873 -0.01958106 -0.058844883
000090 1e 68 8c bd 08 a3 a3 bd dd bd 4a 3d 3f 70 ed bc
       -0.06855796 -0.0799008 0.049497474 -0.028984187
0000a0 47 8c 5b 3b 52 f5 2c 3d 3f dc 1a 3b e4 74 a2 3d
       0.003350036 0.042226143 0.0023629812 0.07932451
0000b0 35 a0 f9 bc b6 56 89 bd aa a6 57 3c d5 0b 68 3d
       -0.0304719 -0.06705992 0.013162294 0.05665191
0000c0 7d 54 dd 3c 1f 32 f0 3c 54 1a 84 3c 51 3f b9 bc
       0.027017826 0.029320775 0.016125835 -0.0226132
0000d0 9f 97 bf bc 3d 41 26 bd 7b 68 30 bd b8 06 9f bd
       -0.023387728 -0.04058956 -0.04306839 -0.077649534
0000e0 11 0e 22 3d 2e 45 98 bd f6 9d 29 3d 42 4b 5c 3d
       0.039564196 -0.0743507 0.04141041 0.05378271
0000f0 ee 14 6a bc 0e 96 af bc 01 04 ba 3d 5e 2d be 3c
       -0.014287217 -0.021433856 0.09082795 0.023214992
000100 c9 58 b0 3d 91 c9 54 3d 8b d2 8e bd b9 ac 7a bc
       0.086106844 0.05195004 -0.06973752 -0.015299969
000110 c6 4d b5 bc 1d c5 37 3d dd dd c9 3d e7 dc 02 bd
       -0.022131812 0.044865716 0.0985677 -0.03194895
000120 45 26 ef bc 9e 59 82 ba b8 b9 5a bb 06 bb 45 3d
       -0.029193053 -0.0009944921 -0.0033374857 0.048274063
000130 df 4a 80 b9 ea fe 3f bd f6 96 80 bd 7c d3 ea 3c
       -0.00024469846 -0.046873964 -0.062787935 0.028665297
000140 36 e2 5c 3c 31 7a de bc 79 97 b8 3c 7b b8 fd bc
       0.013481667 -0.027157875 0.022533165 -0.030971756
000150 0e aa 59 bc cc 50 bb 3d 39 c1 7a bd ab 61 35 bd
       -0.013285173 0.0914627 -0.061219428 -0.044282597
000160 5f de 73 3d 1a 48 80 bd 14 a3 fc bc 5e 41 28 bc
       0.05953824 -0.06263752 -0.03083948 -0.010269491
000170 76 d3 79 bc be cb 4d bc 3f ed 9d bc a7 aa 8b bd
       -0.01524817 -0.012560783 -0.019278167 -0.06819659
000180 68 a5 ec 3b 88 16 98 3d 27 cc 79 3c e3 6d 85 bc
       0.0072218664 0.074261725 0.015246428 -0.01628775
000190 2a 6f c7 3d dd 04 46 3d 2e f2 3f 3d c0 78 65 bd
       0.09738 0.04834448 0.04686182 -0.05602336
0001a0 5d f5 7e 3d 5c 4c 6f bc f0 6d c0 3d 24 31 5b bd
       0.062245715 -0.014605608 0.09395969 -0.05351366
0001b0 0e 99 38 bd 93 b0 8a 3c 6e e7 51 3d 13 99 82 bc
       -0.04506784 0.0169299 0.0512461 -0.015942132
0001c0 4a c4 11 bd 3f 14 18 3c 99 2b 3f 3d 8a d8 7a 3d
       -0.035587586 0.009282171 0.046672437 0.061241664
0001d0 19 45 3d 3d 18 be ef 3c 6a 96 7a bb 0c d2 01 3d
       0.046208475 0.029265448 -0.0038236626 0.031694457
0001e0 6c c8 8c 3d 0b 5a b9 3d 7b cb 57 3d 5f e5 89 bd
       0.06874165 0.090503775 0.05268429 -0.06733202
0001f0 6c e2 4a 3c af 2e 62 3d 5d 19 db bb 33 5f 0e bd
       0.012383085 0.055220302 -0.006686373 -0.034758758
000200 90 b3 45 bd 93 33 b7 3c 42 9f 86 bd 9a 6e 71 bd
       -0.048266947 0.02236346 -0.06573345 -0.05894337
000210 7a 08 13 bd d9 a5 64 3d 08 55 6d bd 1f c4 29 3b
       -0.035896756 0.055822227 -0.05794242 0.002590425
000220 9d 32 65 bd 43 65 0a bd e4 e3 74 bd f9 fc fc bc
       -0.05595647 -0.033787977 -0.059787646 -0.030882346
000230 9b a2 5a 3d 7a 5e 93 3d 24 11 54 bd 53 61 80 3c
       0.05337773 0.07195754 -0.05177416 0.015671408
000240 7e 8b 7a bd c6 f6 2e bc 4f 68 b9 3d 1b 60 35 bd
       -0.061168186 -0.010678953 0.090530984 -0.044281106
000250 1a 23 15 bd 83 da a8 3d 39 ad df 3c 65 7d 93 bd
       -0.03641043 0.08244803 0.027304279 -0.072016515
000260 86 ff 92 bd 88 a5 a7 3c 8a 37 8f bc e5 5f c7 3c
       -0.071776435 0.020464674 -0.017482538 0.024337718
000270 cc d3 98 bd 36 66 a2 3d 63 5e 6b 3c 10 e2 e6 ba
       -0.07462272 0.079296514 0.014365765 -0.0017614979
000280 a4 00 a9 3d 6a 82 8a bd d6 3a ac 3d 12 62 f6 bc
       0.08252075 -0.06763156 0.084096596 -0.03007606
000290 34 ca f7 3b 4a 5c 58 3d bf 2c ad 3d 05 35 ad 3b
       0.0075619463 0.05282239 0.084558 0.0052858614
0002a0 1c f2 84 bc fb 3d a5 3d 8a 26 79 3d e6 db 90 3d
       -0.016228728 0.080684625 0.06082777 0.07073192
0002b0 c6 ed 92 3d 56 ea eb bc b2 d1 71 3d 4e d2 a6 3c
       0.07174258 -0.028798264 0.05903787 0.020363953
0002c0 c0 6c 7d 3d 50 c5 4e 3d b3 b5 13 3d ad 4a a3 3d
       0.06187129 0.05048114 0.036061954 0.07973228
0002d0 11 ae 52 bd d2 32 8e bd 1d a9 47 bb da 30 86 3d
       -0.051435534 -0.06943287 -0.003046579 0.065522864
0002e0 7c 40 b5 3d d9 70 38 3d b0 6b 52 3c 96 c8 5c bd
       0.0885019 0.045029495 0.0128430575 -0.05390223
0002f0 82 f5 76 3d 6d c0 1b 3d b7 ec 37 bd 73 30 87 3b
       0.06029273 0.03802531 -0.044903483 0.0041256486
000300 b6 9c 6e bd f7 23 9b 3d 34 13 94 bd 3c 5b 5e bd
       -0.05825492 0.07575219 -0.07230225 -0.054286227
000310 da 52 05 bd 07 99 c4 3d 00 3e 56 3d 7d 3d a7 bc
       -0.032549717 0.095995 0.05230522 -0.020415062
000320 ee 6c 44 bc 5c 37 f7 38 03 66 80 bd bf 38 b7 bc
       -0.0119888615 0.00011788189 -0.06269457 -0.022365926
000330 9b 51 0d bd 09 2d 13 bd 3e 7d 5c 3d a8 36 8d bd
       -0.034501653 -0.03593162 0.053830378 -0.068951905
000340 96 3c a3 3c 18 45 95 bd c1 50 64 bd 65 f1 2c 3c
       0.01992635 -0.07288569 -0.055741075 0.0105556
000350 89 e8 72 3c a0 d7 29 bd 8e 6d 22 3d 5a 9a 6d 3d
       0.0148259485 -0.0414654 0.03965526 0.05800853
000360 36 9f 4d bc 72 39 53 bd 1c 2a e9 bc 4f 33 7a 3d
       -0.012550166 -0.051568456 -0.028462462 0.061084088
000370 11 11 44 bd 29 92 c2 bb 5f cf 97 3d d0 11 b0 3d
       -0.04786784 -0.005937834 0.074126 0.085971475
000380 1c 1f 80 3d 92 a0 3c bd bc 45 a0 bc 01 54 48 3c
       0.06255934 -0.04605157 -0.019564502 0.012227059
000390 f4 e4 66 3d 07 99 85 3d 75 82 3c bb 2a 33 51 bd
       0.05637069 0.06523328 -0.0028764282 -0.051074184
0003a0 81 6e a5 3d f4 55 48 3d a3 22 a0 bd 83 5a 1e 3d
       0.080777176 0.048910096 -0.078191064 0.038660537
0003b0 5b 46 93 3d fd 2f 8c bd f6 d0 08 bd 1a 94 88 3d
       0.071911536 -0.068450905 -0.033402406 0.06668873
0003c0 2d f5 44 bd 93 13 96 bc a2 81 91 3d ff 3a 9f 3d
       -0.04808538 -0.01831988 0.071048036 0.077749245
0003d0 88 64 75 bd e5 86 d6 3c 3f 83 17 3c 9a 81 8c ba
       -0.059910327 0.02618737 0.0092476 -0.0010719777
0003e0 c3 76 ad 3d 80 68 5f 3d ea 1d 18 3d 92 1f 2e bd
       0.084699176 0.05454302 0.037137903 -0.042510577
0003f0 55 93 99 3c 9f fc b4 3d ae 6f 79 bd 04 cf 8d 3d
       0.018747011 0.08837246 -0.06089752 0.06924251

fc1.bias f4 [128]
000000 28 82 2c bd 54 f7 d2 3d 46 df 53 bd 4d 54 0f 3d
       -0.042116314 0.1030108 -0.051726602 0.034992505
000010 a7 8b 87 3b 3f 95 9f bc 44 d1 26 bc b2 91 82 3c
       0.004136521 -0.019480346 -0.010181729 0.015938614
000020 a9 74 89 3d b0 40 21 3c f7 ef 96 3d 9d 8a cd 3d
       0.06711704 0.009842083 0.073699884 0.10036204
000030 9c 3d 16 bd 25 ea e7 3d cc 30 8b 3d e9 88 ae bc
       -0.03667985 0.113239564 0.06796417 -0.021305518
000040 c7 59 5f 3b 00 e6 03 bd 60 0a 1c 3d 3d 8f 97 bd
       0.003408061 -0.032201767 0.038095832 -0.074003674
000050 fc c8 21 3d c4 3f 30 bd f3 8e b2 bb 69 10 0e bc
       0.039498314 -0.04302956 -0.00544917 -0.008670905
000060 53 85 66 bd 87 06 5d 3d 31 04 73 3d 77 67 23 3a
       -0.05627949 0.053961303 0.05933017 0.0006233374
000070 64 00 8f bd 2a fd 4e 3d db 5a 56 bd c8 0e 3e 3d
       -0.069824964 0.050534405 -0.05233274 0.046400815
000080 aa e1 b6 3d 03 08 ed 3d 8c fa 23 bd f7 94 d9 3c
       0.08929761 0.11573794 -0.040033862 0.02656029
000090 ac bd 43 3c 2b 5c 01 3d 29 ed d1 bc 59 27 2f bd
       0.011947077 0.03158204 -0.025625782 -0.042762134
0000a0 59 19 ff 3c ad 1e ce 3d ae 77 ec 3c bf c1 8d bd
       0.031140016 0.10064445 0.028865661 -0.0692172
0000b0 4f f0 40 bd 47 cd e2 3d 15 28 cc 3c 19 8e 0a 3d
       -0.047104176 0.1107431 0.024921456 0.03382692
0000c0 51 1a 77 bc 60 ec 45 bd f6 bb d2 bb 17 d8 88 bd
       -0.015081958 -0.048321128 -0.006431098 -0.06681841
0000d0 7a 3c b4 3d b0 32 3b bd c2 e0 27 3d c9 9c a6 3c
       0.088005975 -0.045702636 0.04098583 0.020338433
0000e0 88 a7 69 3d 0c 62 2f 3c c4 17 39 3d 80 01 9d 3c
       0.057044536 0.010704529 0.04518868 0.019165754
0000f0 fd 7f bc 3c e1 64 1b 3d 1c c4 13 bd fe d8 48 bd
       0.023010248 0.037938002 -0.036075696 -0.049035065
000100 4a 57 a8 3d 94 21 9c 3d 7b 69 97 3d df dd b9 3c
       0.08219774 0.07623592 0.07393166 0.022688804
000110 a3 a3 3f bb 5d 6a 12 bd 07 69 51 3d d4 69 9e bc
       -0.0029241822 -0.035745967 0.051125553 -0.019337572
000120 1d 19 a9 3d 9d 7d 88 bd 60 85 6c bd f3 ae 37 3c
       0.08256743 -0.06664584 -0.057744384 0.011211145
000130 df 41 e3 bb 08 69 d4 3c a4 55 ce 3c a0 15 a6 bc
       -0.0069353427 0.025928989 0.025187321 -0.020273983
000140 25 09 ab 3d 46 75 85 3d fb fb 9c 3d 94 2f cb 3d
       0.083513536 0.06516509 0.07665249 0.09921184
000150 5d 5c 26 3d 47 67 d8 3d 14 07 2c 3d ca 05 86 3d
       0.04061543 0.105665736 0.041998938 0.06544073
000160 fd b1 2e bc f7 20 78 3d 85 12 93 3d 88 d2 b8 3d
       -0.010662553 0.060578313 0.07181267 0.09024531
000170 67 54 8f 3d 14 59 68 3d 64 5d df 3c ce f7 8e 3b
       0.0699852 0.056725577 0.027266212 0.0043630367
000180 5d 5e 01 3c 50 76 4c 3d cd 0e f8 3d 91 2e 62 3a
       0.007896033 0.04991752 0.12112198 0.0008628155
000190 3a 35 91 3d a9 b7 b4 3d 83 a2 d4 3d 32 b7 b8 3d
       0.0709023 0.08824093 0.10382559 0.09019317
0001a0 b9 20 29 3d ad 42 16 3d da 6c 87 3c 56 a5 45 3d
       0.041290972 0.03668468 0.016531397 0.04825338
0001b0 01 b3 e1 3d fd fe a3 3d 63 76 84 bd 5b 2d af 3d
       0.110204704 0.080076195 -0.06467893 0.08553573
0001c0 b9 41 b9 3d c4 e6 03 bd 06 9a c9 3c a0 97 ab bc
       0.09045739 -0.032202497 0.024609577 -0.020946324
0001d0 21 d3 60 3c ef e7 aa 3d fd 4e b1 3c 68 2b 96 3d
       0.013722212 0.08345019 0.02164411 0.07332498
0001e0 f7 c3 17 bd f8 d3 b6 bb 38 8f 61 bd 39 39 57 3d
       -0.03705212 -0.005579468 -0.055068225 0.052544806
0001f0 d3 4e b0 bc 8d 36 3f 3c ac 2c 37 bd 0a a9 a4 3d
       -0.021521961 0.011670721 -0.044720337 0.08040054

fc2.weight f4 [64, 128]
000000 7a 7b f9 bb 6e b2 df 3c d5 7e 99 3b 81 83 93 3d
       -0.0076135965 0.027306762 0.004684309 0.07202817
000010 c5 6d 2c bd e4 07 a7 3d 50 d3 a0 3d 01 c7 9f 3c
       -0.042096872 0.08155802 0.07852805 0.019504072
000020 ec da 69 3c 25 af b0 3b f8 c0 55 bb be 94 31 3c
       0.014273386 0.0053919726 -0.003261624 0.010838686
000030 24 01 17 bd 77 7c b7 3d 54 cf 97 bd c3 52 be bb
       -0.036866322 0.08959287 -0.074125916 -0.005808206
000040 5d 6c f9 3c b1 9d b8 bd 23 dc e5 3c a9 8a 9c 3b
       0.03044718 -0.09014452 0.02805907 0.0047772718
000050 1c 5a 2d 3d 00 6a 04 3c 85 56 f9 3c 10 bc 3a 3d
       0.042322263 0.008081913 0.030436764 0.045589507
000060 10 d8 71 3d 88 fb 4d 3d bc 98 cf 3c f1 44 75 3d
       0.059043944 0.050288707 0.025341384 0.0598802
000070 02 25 08 bd c8 bd 66 3d 06 c7 96 3d 3a da e1 3c
       -0.03323842 0.056333333 0.073621795 0.027569879
000080 4d 29 e8 3c d6 1b d9 3c 9c 8f b7 ba 2b f1 eb bd
       0.028340006 0.026502531 -0.0014004591 -0.115206085
000090 7d 71 00 3d 6a 79 f9 bc 7e 52 2e 3d e5 93 63 3c
       0.03135823 -0.030453403 0.04255914 0.013890241
0000a0 e2 5a dd bb 30 55 71 3d ed a6 85 3d 06 00 0f bd
       -0.006755219 0.05891913 0.06525979 -0.03491213
0000b0 b0 59 b7 bd a7 28 87 3d 25 59 cc 3d 38 6f 5a 3c
       -0.089526534 0.06599551 0.099779405 0.013332181
0000c0 5f 5e 64 3c 4c 8e 6f 3d 41 ba 83 bc 3e 1b c1 bd
       0.013938515 0.058485314 -0.016080024 -0.09429024
0000d0 c9 74 36 bc 33 f8 29 3c 08 df 31 bd 64 db 3c 3c
       -0.011136242 0.010374117 -0.04342559 0.011526916
0000e0 e2 5e b9 3c 3b 5a 14 3d cc cc 6b 3c 3a af d3 bc
       0.022628251 0.036218863 0.014392089 -0.02584039
0000f0 8f 33 91 3d a9 e7 8a 3d de c2 01 bd 44 92 ea 3b
       0.07089912 0.06782467 -0.03167998 0.0071585495
000100 a3 d3 8c bd 73 e8 06 3d 6f b0 94 3d a8 6a 0e bd
       -0.06876304 0.032936525 0.072602145 -0.034769684
000110 b4 b7 23 3d 1a ad c2 bd 7a ac 64 3d b3 cf ea 3c
       0.039970115 -0.09505673 0.05582855 0.028663492
000120 c1 15 23 bd 39 a4 4e bb a6 8d ab bd 33 72 83 3b
       -0.039815668 -0.003153099 -0.08376627 0.0040114163
000130 aa 97 d6 bd 84 81 16 3d 67 46 df 3c 29 90 f2 bd
       -0.104781464 0.03674461 0.02725525 -0.118439026
000140 da e0 3a bd a2 b3 49 bc 44 83 7c 3d d9 13 ce bd
       -0.04562459 -0.012310894 0.061648622 -0.100623794
000150 81 f8 af bd 33 e6 59 bd c7 9f 97 3d 65 b8 42 bc
       -0.0859232 -0.05319805 0.07403522 -0.011884783
000160 be 8c 34 bd 5e c2 5e 3c 2d 2e 4d bd 2b 9a 36 3d
       -0.044079535 0.013596145 -0.050092865 0.04458062
000170 36 32 2f bc 76 8a 84 bd b6 1e 5a 3d 23 c3 55 bc
       -0.010693124 -0.06471722 0.053251944 -0.0130470125
000180 87 b5 75 bc 27 42 1d 3b 0d 97 5b 3c 49 84 f6 3d
       -0.014996893 0.0023995729 0.0134027125 0.1203695
000190 68 15 db bd da 2f 83 3a 29 57 43 3d 62 89 55 bc
       -0.10697442 0.0010008768 0.047690544 -0.013033243
0001a0 95 5f 8a 3d a4 b1 38 bd 90 5d c0 3d b1 e9 b1 bc
       0.06756512 -0.045091286 0.09392846 -0.021717878
0001b0 7a 45 89 3b 4a b0 cd bd 3d 47 d2 bb 2a b2 90 bd
       0.0041891905 -0.1004339 -0.0064171837 -0.07065232
0001c0 19 09 08 bd 62 52 1e bd 53 84 bf bc 4f 37 82 bc
       -0.0332118 -0.038652785 -0.023378527 -0.015895514
0001d0 c7 e1 fd 3b 18 c8 99 bc ed 0b 68 ba 58 20 15 bc
       0.007747862 -0.01877217 -0.0008851875 -0.00910195
0001e0 4b f7 c6 bc 22 c2 9e 3c 63 21 94 bd 0b 22 95 bd
       -0.02428784 0.01937968 -0.072329305 -0.07281884
0001f0 cd 93 23 bd 14 f3 f3 bd 97 94 aa bd 30 6e 14 bc
       -0.039935876 -0.11911598 -0.083291225 -0.009059474
000200 9d 7d de bb 19 22 cb 3c 35 0d a1 3d 3a 4c 3d 3d
       -0.0067898766 0.024796532 0.07863847 0.046215273
000210 51 e2 8e bd 0b 6d 84 3a b0 43 f6 3c 97 2b 41 bd
       -0.0697676 0.0010103298 0.030061573 -0.04716071
000220 15 e7 31 bd 9a 8c 9d bc bf 63 82 3d 2f 09 24 bd
       -0.043433268 -0.019232083 0.06366681 -0.04004782
000230 f2 a3 b3 3c 5b ed d3 3b fa ca b2 3d 6c ac 3f 3d
       0.021928761 0.006467504 0.08730121 0.046795294
000240 ff ef 81 bd 91 af 7b bd 17 5c 06 3d fd b5 a4 3c
       -0.06344604 -0.06144673 0.032802667 0.02010631
000250 ec 31 e0 3b b0 e7 08 bd 28 92 b8 3d ab 58 83 3d
       0.0068418887 -0.03342408 0.09012252 0.064133964
000260 63 b8 78 3d d2 e8 b3 3d f2 27 54 3d b5 e2 e2 3d
       0.06072272 0.08784641 0.051795907 0.11078397
000270 e0 5d 26 bd f1 f7 8d bd e3 01 4b 3d f4 ec 82 bd
       -0.04061687 -0.06932057 0.049562346 -0.063928515
000280 94 e0 b0 bd f6 3a 9f bd 84 8b 8a 3d 45 2f da bc
       -0.08636585 -0.07774918 0.06764892 -0.026633868
000290 f1 3b 53 3d 0f 43 d1 bc 2e 9b f1 3c 00 fa 06 3d
       0.051570836 -0.025544671 0.02949294 0.032953262
0002a0 9f 21 cc bb e9 06 a5 bb 47 8e a8 bd 09 4e 83 3d
       -0.006229594 -0.005036224 -0.08230262 0.064113684
0002b0 89 fd 0e bd 09 70 8b bd ba a9 90 3c 66 c5 5e bc
       -0.03490976 -0.068084784 0.017659057 -0.013596868
0002c0 e8 33 01 bc fd 74 b5 bb f7 3b b7 bb e6 6d 8e 3d
       -0.007885911 -0.0055376277 -0.005591865 0.06954555
0002d0 d6 d1 ff ba 38 15 6d bd 5a 15 86 3d df 5e 53 3d
       -0.0019517492 -0.057881564 0.06547041 0.051604148
0002e0 a6 de d3 3c c9 32 23 bd a0 ac c3 bd fe 48 dc 3d
       0.025863003 -0.039843354 -0.0955441 0.1075611
0002f0 e1 31 80 bd 41 c0 9a 3d 66 fe 35 bd e1 ce 28 3c
       -0.06259514 0.07556201 -0.044432066 0.01030323
000300 3b 99 ab bc bc 8c 2c bd f7 ae 7b 3d c9 ae c1 3d
       -0.02094709 -0.042126402 0.061446156 0.09457166
000310 fc cf 19 3d 32 c7 3f 3d 6a 9f 3d 3d 38 f8 c5 3d
       0.037551865 0.046820827 0.046294607 0.096664846
000320 55 34 93 bd 86 84 b5 3d cf 05 66 3c 05 0f 51 bd
       -0.07187716 0.088631675 0.014039471 -0.051039714
000330 93 44 ef 3d 2b d3 66 bd 43 fe a0 3d 7d bf ec 3d
       0.11683001 -0.05635373 0.078609966 0.11559961
000340 99 36 22 3d 0d 2b d5 3d 2d bc 71 bd b8 ed a7 b9
       0.03960285 0.10408602 -0.05901735 -0.00032029836
000350 7f 2f c5 bc 94 f8 0c 3c 66 03 34 bd d2 c9 6a bb
       -0.0240705 0.0086041875 -0.043948554 -0.003582586
000360 a0 4e 5b bd 8c d9 02 3d ba e6 49 3d 36 c8 75 bd
       -0.05354178 0.03194575 0.049292304 -0.06000539
000370 7e 16 75 bd 3e de e9 3c 78 bf 52 3d 2f e2 88 3d
       -0.059835903 0.028548356 0.05145213 0.06683766
000380 92 97 42 bd b6 3f de 3c 50 ff 86 3d b9 c0 b4 bd
       -0.04750783 0.02712999 0.06591666 -0.088258214
000390 cd fd ae 3d d2 da d0 3c 07 12 88 bb 10 32 6f 3d
       0.085445024 0.025494967 -0.0041525397 0.058397353
0003a0 d5 0a 0f bd e7 2f 2e bc 9a c4 23 3b b9 0e bb 3d
       -0.03492244 -0.010631538 0.002498901 0.091336675
0003b0 7c 7f 83 3b cd 84 e7 3c 19 d6 4b 3d 8e ed f9 ba
       0.004013 0.028261567 0.049764726 -0.0019067989
0003c0 30 72 3c bd 86 8d 9c bd e6 ca ed bc 21 13 a9 3d
       -0.046007335 -0.07644181 -0.029027414 0.08255602
0003d0 fa 29 9e 3d ba 56 49 bd 83 59 6e 3d 02 a0 4a bd
       0.0772285 -0.049154975 0.058190834 -0.049469
0003e0 05 1c 04 bd 49 c4 cb 3d 62 d4 56 3d f6 3e c4 3d
       -0.032253284 0.09949548 0.052448638 0.09582321
0003f0 f9 97 1a 3d 49 40 de bc f5 c9 25 bd 6e f6 33 bc
       0.03774259 -0.027130263 -0.040475804 -0.010984046

fc2.bias f4 [64]
000000 b3 ad 7b 3d 85 7e df 3c 84 bb 25 bc c4 1d 11 3b
       0.06144495 0.027282009 -0.010115508 0.0022142986
000010 7b 21 85 3b 7e de 8d 3d da bb 4e 3d 88 b9 75 bd
       0.004062829 0.06927203 0.050472118 -0.05999139
000020 55 55 6f 3d 4a b9 04 bd d8 d0 41 3d ba 41 9b 3d
       0.05843099 -0.032403268 0.04731831 0.07580896
000030 88 2c 76 3d f3 e6 03 bd ef e3 85 3c 95 a3 13 3d
       0.060101062 -0.032202672 0.016344039 0.036044676
000040 31 8c 66 bd f1 de a4 ba 04 f8 f6 3c 5f da 34 3d
       -0.05628604 -0.0012578649 0.03014756 0.044153567
000050 7a 17 7a 3c 6c af 65 3d 43 46 ff 3c ca d9 85 bc
       0.015264386 0.0560755 0.031161433 -0.016339201
000060 73 94 2a 3c a9 8d a6 bd 46 04 a5 bb 09 cd 86 3d
       0.01041137 -0.08132488 -0.00503591 0.06582076
000070 ce c6 a3 bd 08 42 d0 3d 4c 2a 02 3d ba 92 7b bd
       -0.07996903 0.101688445 0.03177862 -0.061419226
000080 87 a8 c6 3d 92 30 f9 3b 50 c7 af bc 01 88 84 3d
       0.09700113 0.007604667 -0.021457344 0.06471253
000090 a8 13 82 3c 7e 09 72 3d 10 2b a5 bd ce 68 db ba
       0.015878513 0.059091084 -0.08064854 -0.0016739608
0000a0 44 1e f7 3c 50 0c 79 bc 1d f1 59 bd 37 69 ce 3d
       0.030165799 -0.015200689 -0.05320846 0.10078662
0000b0 8c cf 90 3d 93 b8 cc bc 51 fa 1d bd 7a 89 cd 3c
       0.070708364 -0.024990356 -0.0385688 0.025089968
0000c0 d1 9b 87 3c cc 1a d5 3d 20 5b 4a bd e4 b4 c9 3c
       0.016553791 0.10405502 -0.04940331 0.024622388
0000d0 da 9d 89 3d 01 bd 8f 3c 84 99 48 3d b0 ff a9 bd
       0.06719561 0.017546179 0.04897453 -0.08300722
0000e0 8d fc 94 bd c3 b1 57 bb ba b3 35 3d 3c 9b 7e bd
       -0.07274733 -0.003291235 0.044360854 -0.06215976
0000f0 f2 89 13 3d d5 d9 b4 3d f4 55 d3 3d e8 3a 6b 3d
       0.036020227 0.08830611 0.10319129 0.057429224

action_head.weight f4 [5, 64]
000000 88 6c da 3d 9c 81 6b 3c 62 3b b9 bc 5c ee c0 3c
       0.10665232 0.014374163 -0.022611324 0.023551159
000010 0b 0d d7 3d dc a8 e8 3a 53 fa d7 bd 6e cd 8c 3d
       0.105005346 0.0017750519 -0.105457924 0.0687512
000020 58 e0 bf 3d 63 ff 2a bd 59 d1 e6 3d 36 79 01 be
       0.09368962 -0.041747462 0.11270399 -0.12643895
000030 2d fc e9 bb 43 d5 ac bd 8a da 6f 3d ca 07 b1 bd
       -0.0071406574 -0.08439114 0.058558024 -0.08644064
000040 38 01 14 3d 05 d0 5d 3d b8 0a 4f 3d e0 bc e7 3c
       0.036133975 0.05415346 0.05054733 0.028288305
000050 45 e1 a1 3d e0 3e 03 3d 4b 13 e3 bc eb ae f6 3d
       0.07904295 0.032042384 -0.02771916 0.12045082
000060 3c 4b 6a 3d a8 20 b0 bc ee 06 ff bd 0e ef 66 bd
       0.057200655 -0.021499947 -0.124524936 -0.056380324
000070 b8 03 0d 3d f6 fb a8 bd 35 6f 35 bd 89 39 c9 3c
       0.034427375 -0.08251183 -0.04429551 0.024563568
000080 ab c1 3b bd f3 82 9b 3d ab 38 b5 3d 41 32 94 3d
       -0.045838993 0.07593336 0.08848699 0.07236148
000090 4b 5a 91 bd 5d dd a1 3d ac a4 25 3d 1d 36 c7 3b
       -0.070973 0.0790355 0.040440246 0.006079449
0000a0 f1 5d ce bd 53 38 74 3d eb 74 76 bb 62 74 a1 bd
       -0.10076512 0.059624027 -0.003760631 -0.078835264
0000b0 68 4e 0b bd d9 42 e2 3d 6a 2b 9e bd f8 fd a5 3d
       -0.03401032 0.110479064 -0.07723124 0.08105081
0000c0 97 eb bc bd 93 0c 7e bd 01 42 21 bd f3 89 d2 bd
       -0.09224623 -0.06202371 -0.039369587 -0.10280218
0000d0 5b 31 d8 3c a7 5d 4d bc 02 bc df bd 72 b2 14 3d
       0.026390722 -0.0125345355 -0.109245315 0.03630299
0000e0 00 ea 46 bd 6d 18 9c bd e3 d8 a0 bc e8 a6 d7 3d
       -0.048563004 -0.07621846 -0.01963467 0.10529882
0000f0 5b 5b 51 3c 85 30 b0 3d d8 e7 bb 3c b2 92 57 bc
       0.0127781285 0.08603004 0.0229377 -0.0131575335
000100 ef 24 aa bd 69 29 30 bd a3 2b a8 3c 67 37 71 bc
       -0.08307826 -0.04300824 0.02052862 -0.014722682
000110 c8 1f 18 3d 0d 33 51 3c f7 d9 32 bd c9 c8 f3 bd
       0.037139684 0.012768519 -0.0436649 -0.11903531
000120 df 10 48 bb c7 b0 92 3d b2 d5 9e bd 4c bc d1 bd
       -0.0030527634 0.07162624 -0.07755603 -0.10240993
000130 01 58 72 bd 33 6e db 3d 2d c4 e7 3d 6b 7e 48 bd
       -0.05916596 0.10714378 0.113167144 -0.048948687
000140 e0 41 8d 3d cb e8 32 3c 22 41 12 bd 32 69 22 bd
       0.0689733 0.01091976 -0.035706647 -0.039651103
000150 cc 02 9d bd 5c ae 66 bd b7 44 cb 3d 70 fd a7 bb
       -0.07666549 -0.056318626 0.09925216 -0.0051266477
000160 cc 72 88 bc da 29 b8 3d c6 cf 80 3d 9a a0 e1 bd
       -0.016656302 0.089923576 0.0628963 -0.110169604
000170 7e db 36 3d 94 98 c1 bc 76 d3 50 bd b4 9a b8 3d
       0.044642918 -0.023632325 -0.050982915 0.09013882
000180 72 81 85 bd 86 cb ec 3d 98 91 34 3d 20 96 3a bd
       -0.0651883 0.115622565 0.04408416 -0.045553327
000190 2b 43 34 bd e2 59 bb 3d 26 77 b2 3d f5 c7 74 bd
       -0.04400937 0.09148003 0.08714132 -0.059761006
0001a0 68 99 5e 3d 26 47 5c 3d fd 9c c7 3d 4f f0 38 bc
       0.05434552 0.05377879 0.0974674 -0.011287763
0001b0 9b 95 26 bd e6 34 8a 3d 07 84 8e bd e6 09 75 3d
       -0.04067002 0.06748371 -0.06958776 0.059823893
0001c0 e2 c8 3e 3d 1b 13 a7 3d f2 4c f5 3d 83 d5 f6 3d
       0.046578296 0.08157941 0.11977567 0.12052443
0001d0 4c 26 f6 3d 27 09 93 3d 9b a5 5c 3d be 55 d2 bd
       0.12019023 0.0717948 0.05386887 -0.1027026
0001e0 78 91 2e 3c 77 12 a3 3d 37 35 4b 3d 29 72 b1 3d
       0.0106548 0.07962506 0.049611297 0.086643524
0001f0 df 1c a2 bd de 9e 26 bd ec c2 35 3d 7f 3f 0a 3e
       -0.07915663 -0.04067885 0.044375345 0.13500784
000200 a6 25 06 bd ac 8d 9b 3c c0 e0 97 3d 24 63 a9 bd
       -0.032750748 0.018988453 0.074159145 -0.08270863
000210 b5 fd ec bd 7d f8 4d 3d 0f ab b4 3c d4 0a be bd
       -0.11571828 0.050285805 0.022054223 -0.09279409
000220 e0 25 3f bc af 4a 7f 3d bc 3d 67 3c 41 22 1e bd
       -0.011666745 0.062327083 0.01411384 -0.038606886
000230 88 d1 23 bd 99 40 a5 3d 50 24 d6 3d e5 1c 1a bd
       -0.039994746 0.08068962 0.10456145 -0.037625212
000240 c2 83 f3 bd f2 8b b4 3d 23 87 3c 3d ab 29 b6 bd
       -0.11890365 0.08815755 0.046027314 -0.08894666
000250 bb 9a 77 bd 13 dc 22 3d 19 9e c0 3d 1b e7 3e bd
       -0.060450297 0.03976066 0.09405155 -0.046607118
000260 83 b3 0b be e0 20 76 bc 7a 70 26 3d 46 98 ab bd
       -0.13642697 -0.015022486 0.04063461 -0.08378653
000270 71 6f a4 3d ab 43 c8 bc 58 05 64 bd 64 4a d6 bd
       0.08029068 -0.02444633 -0.05566916 -0.10463408
000280 64 7c 0e be 28 97 b9 3d 78 65 d9 3d b5 01 9c bd
       -0.13914639 0.09062034 0.10615057 -0.07617513
000290 fe a0 ff bd 8d 9b 06 be 2c 52 08 bd d2 b1 b2 3d
       -0.12481879 -0.13145275 -0.03328149 0.08725323
0002a0 2b 56 72 bd 27 4b 8d 3d 78 84 57 bc 71 6c 14 bc
       -0.059164207 0.068991 -0.013154142 -0.009059058
0002b0 dc 0c c4 bb bd 92 96 3c 20 0c d2 bd 45 4e bf 3d
       -0.0059829783 0.018380517 -0.10256219 0.093411006
0002c0 fb fe 64 bc 7d bc a8 3b 03 14 ab bd d4 57 eb bc
       -0.013976808 0.0051494227 -0.08353426 -0.028728403
0002d0 80 53 65 bc a8 4d 87 bd 59 1f 17 3d 61 40 6e 3d
       -0.013996959 -0.06606609 0.03689513 0.058166865
0002e0 4f 4c 51 3d 9d 79 3d 3c 04 3d a0 bb 96 f6 f0 3a
       0.051098164 0.011564639 -0.004890086 0.0018384035
0002f0 9b cf 8a bd df d6 51 3d 28 0c 54 bd 30 70 2c 3d
       -0.06777879 0.051230308 -0.051769406 0.042099178
000300 56 77 42 bd f0 76 ff 3d 21 bf f4 bd d5 a9 74 bd
       -0.04747709 0.124738574 -0.119505174 -0.059732277
000310 eb ab ea 3d 13 2e 77 bd c4 69 db 3d 01 95 a4 3c
       0.11458572 -0.060346674 0.107135326 0.020090582
000320 0c ae f0 bd d4 82 52 bc 0a bb 77 bd 46 8a 94 3d
       -0.11751947 -0.012848575 -0.06048111 0.07252936
000330 a0 0d 88 3d 5e cd 03 3e b6 e7 4a 3d 00 e1 b0 3d
       0.06643224 0.1287131 0.049537383 0.08636665
000340 88 85 3a bd c6 8f c7 bc 22 4f 46 bd b5 ed 5d 3c
       -0.0455375 -0.024360549 -0.04841531 0.013545443
000350 c8 f9 d8 3d 44 e6 65 3b a5 bf 38 3d ec e4 c6 bd
       0.10594517 0.0035079876 0.04510464 -0.09711632
000360 79 4e 94 3d 6e d9 eb bd a3 ac 86 3d d5 39 bc bd
       0.0724153 -0.11516081 0.065758966 -0.09190718
000370 09 64 9c bd 75 69 a4 bd 97 27 8d bd 69 b2 2d bd
       -0.07636268 -0.08027927 -0.06892317 -0.042406473
000380 e2 e8 ac bd 9b d8 ae 3b 6c 06 2c 3d 2e a4 8b 3c
       -0.08442856 0.00533588 0.041998312 0.01704606
000390 ca 42 03 bd 62 8e 96 3d 4c c5 ea 3d b8 17 b6 bd
       -0.032046117 0.07351376 0.11463413 -0.08891243
0003a0 f3 de 92 bd 46 c8 f0 bd 32 a1 77 3b a0 ad 06 3c
       -0.071714304 -0.11756949 0.003778529 0.008220106
0003b0 bb 18 9f bd ff 5e f6 3d be 6b 1c 3d 62 e2 bf 3d
       -0.07768389 0.12029838 0.03818869 0.09369351
0003c0 82 95 2b bd 55 29 72 bd de 1f 45 bb 4b af c6 bd
       -0.04189063 -0.05912145 -0.0030078809 -0.09701403
0003d0 3a 7e 7c 3d fe 65 da bd 0d fa 28 bd 32 1e 25 3d
       0.061643817 -0.10663985 -0.041254092 0.040312
0003e0 3e 84 95 bd 4b 56 e9 bd 88 17 de 3c 6e ca e4 bd
       -0.07300614 -0.11393412 0.02711083 -0.11171423
0003f0 fd 7f 5c 3d 9e cb e7 bc 4c 0b 2a 3d 59 c2 64 3c
       0.053832997 -0.028295334 0.04151468 0.013962352

action_head.bias f4 [5]
000000 07 8a fb 3c ff 32 0b 3b 39 f5 ab bc c8 9e c8 3d
       0.030705465 0.0021240113 -0.020990955 0.0979591
000010 a1 66 1f 3d
       0.038916234

value_head.weight f4 [1, 64]
000000 ea c7 b8 bd a4 9e e1 3d 54 d7 c4 3d e8 b0 c9 3d
       -0.090225056 0.110165864 0.09611383 0.09848195
000010 3f 98 1e 3e 6c 5c 14 be 40 c5 27 3e 88 f9 e9 3d
       0.15487765 -0.14488381 0.16383839 0.114245474
000020 3b bc af 3b 6c 7f f3 3d d2 a2 9c bc f8 75 ef 3d
       0.005363015 0.11889538 -0.019120608 0.11692423
000030 aa d6 2d 3e 8d 08 21 be 5d ff 29 be f0 01 b6 3d
       0.16976419 -0.15725918 -0.1660132 0.08887088
000040 c0 d4 03 3d a8 23 3a be 7b ef 82 bd 5b a7 98 3d
       0.032185316 -0.18177664 -0.063933335 0.074537955
000050 af 7b eb 3d 45 04 3b 3d 29 a9 93 bd fb 0b 83 bd
       0.114982 0.04565837 -0.07209999 -0.063987695
000060 02 c9 2f bd 80 22 c3 3a 6a 2c b8 3a 96 80 05 3e
       -0.042916305 0.0014887601 0.0014051322 0.13037333
000070 cc f6 45 bd db f4 2c be d4 65 d8 bd b1 b7 e6 3d
       -0.048331067 -0.1689028 -0.10566297 0.11265505
000080 81 05 20 be ea ac 0f be 96 de 06 be 2b 32 c5 3d
       -0.156271 -0.14030805 -0.13170847 0.096287094
000090 05 49 41 bd fe 49 09 3e 20 dc c5 3d dd 02 3b bd
       -0.047188777 0.13407132 0.09661126 -0.045657028
0000a0 38 ba b6 bd 4b a5 d1 3d b2 51 de 3d 43 3a c5 bd
       -0.08922237 0.10236605 0.10855426 -0.09630253
0000b0 ff 23 87 bd 5d df dc 3d a9 87 5e 3d 01 56 15 3e
       -0.065986626 0.10784791 0.054328594 0.14583589
0000c0 d1 a6 1f 3d 78 f8 3e be 78 3f 27 3e 70 97 eb bd
       0.038977448 -0.18649471 0.16332805 -0.11503494
0000d0 27 55 0d be 13 a0 15 3e c0 08 14 3e 7f a5 0d 3d
       -0.13802014 0.14611845 0.14456463 0.034581657
0000e0 17 a6 a9 3d 6b dd dc bd a9 c4 24 be bf 6c 07 bd
       0.08283632 -0.107844196 -0.16090645 -0.033062693
0000f0 3b ad ae bd e2 9c fb bd 56 b9 04 be 65 91 32 be
       -0.08529135 -0.122857824 -0.12961325 -0.17438276

fc1.weight f4 [128, 147]
000000 05 f3 08 3d c9 92 48 3d 41 ab a4 3c 22 59 10 3d
       0.033434886 0.04896811 0.020101191 0.035241254
000010 14 f7 b8 3d bc 42 6f 3d 58 ff 2d bd e0 c3 da 3d
       0.090315014 0.058413252 -0.042479843 0.106818914
000020 2e c4 5a 3d 73 96 92 3c b1 1a bb bc 70 13 68 bd
       0.053409748 0.017894005 -0.022839876 -0.056659162
000030 02 4b 5a bd 32 b1 98 bd 38 a2 80 3d 3c c8 ff bc
       -0.05329419 -0.07455672 0.06280941 -0.031223409
000040 0e 1a 5e bd c2 4a 65 3d 16 bd c2 3c 94 64 b0 3d
       -0.054224066 0.055979498 0.023771804 0.08612934
000050 dc 4f 8d 3d 05 54 21 3d 47 93 c8 bb 17 b3 8e bc
       0.068999976 0.039386768 -0.0061210725 -0.017419381
000060 b9 32 96 bd a2 9d 92 3c ef 4f 86 3d 98 af 97 ba
       -0.07333893 0.01789743 0.06558215 -0.0011572717
000070 8d f4 26 bd 95 b8 86 3d 43 93 d7 3c 68 8a 32 3d
       -0.040760566 0.06578175 0.026315337 0.043589026
000080 e2 19 94 3d a1 c6 b0 3b 4c 42 07 3c 04 79 b8 3d
       0.07231499 0.005394772 0.0082555525 0.09007457
000090 13 35 9d bc 6a d7 ce 3d 53 d1 a0 3d 27 8a 58 bd
       -0.019190347 0.10099681 0.078524254 -0.052866127
0000a0 bd 32 83 3c 0b 16 37 3c 99 2e 6c bb 65 67 9c bc
       0.016015405 0.011174689 -0.0036038517 -0.019092271
0000b0 d3 22 db 3c 19 1a ee 3c ad 75 a9 3d 47 b6 35 bd
       0.026750004 0.029065179 0.08274398 -0.044363286
0000c0 0f d8 49 bd 25 4d 41 3d 71 8f 96 3d 85 59 c2 bd
       -0.049278315 0.04719271 0.07351578 -0.09489731
0000d0 4a 3d 9e 3d 75 2e 97 3d 01 f7 ff bc f8 21 ad 3c
       0.07726534 0.07381908 -0.03124571 0.021134362
0000e0 d5 00 39 3c ec f5 61 3d 4c e0 e1 3c 8d 46 6f bd
       0.011291702 0.05516617 0.027572773 -0.05841689
0000f0 0b a6 47 3c 12 9f 27 3d 1d 06 8f bb f5 36 4e 3d
       0.012185584 0.040923186 -0.0043647424 0.05034538
000100 d5 c9 75 3d 8d 85 d7 3c 56 63 9b bd a9 c0 9c 3b
       0.060006935 0.0263088 -0.07587306 0.004783709
000110 27 e3 2d 3c 60 9d fe 38 d3 a4 0b bd 75 b1 42 3d
       0.010613239 0.00012140977 -0.034092735 0.047532517
000120 96 93 c0 bb fe 63 19 3d 40 04 6b bd f6 7e 2e bd
       -0.0058769686 0.037448876 -0.0573771 -0.042601548
000130 d2 42 d9 bc 60 bf 9f bb e0 92 ce 3c d9 ca 16 3d
       -0.02652112 -0.0048751086 0.02521652 0.036814544
000140 45 a2 82 3c ce 0f 96 bc 5f 01 ad 3d c8 a1 0b 3d
       0.015946517 -0.018318083 0.08447527 0.034089833
000150 3d 30 41 bd 83 66 ff bc 76 79 a7 3d bb 22 6f bd
       -0.047165144 -0.031176811 0.08177464 -0.05838273
000160 93 70 8f 3d c7 c0 c5 3d 20 d9 2e 3c 81 f1 6d 3c
       0.07003894 0.0965591 0.010671884 0.014522911
000170 6c d3 c6 3d c0 53 67 bd 4a c3 76 3d 37 84 95 3b
       0.09708294 -0.056476355 0.060244836 0.0045628804
000180 70 e1 9c bd cc 70 39 3c e6 ce c9 3c b0 0e 01 3d
       -0.07660186 0.011318397 0.02463479 0.031508148
000190 5c 44 eb bc 90 fb 67 3c 5d 7e b3 3c 2f b4 8d 3d
       -0.02871912 0.014159098 0.02191084 0.06919133
0001a0 53 b0 13 3c a3 aa b6 3c da ca b2 3d 6f a7 3b 3c
       0.009014207 0.022298163 0.08730097 0.0114534935
0001b0 58 a8 92 bd 70 a2 86 3d a7 fe 1d 3b 41 9d 0c 3d
       -0.07161015 0.06573951 0.0024108083 0.034329657
0001c0 ef 3f 91 3d a7 a8 7c 3c 61 24 40 bc 8f a0 fb 3c
       0.070922725 0.015421069 -0.011727423 0.030716209
0001d0 1a bf cc 39 4d fe 99 3c a2 a0 d0 bc 98 49 c9 bb
       0.00039052294 0.018798018 -0.02546722 -0.0061428063
0001e0 1a c3 a5 bd 1e 5c 0f bd fa 88 2b 3c d1 b6 4b bd
       -0.08093853 -0.03499996 0.0104696695 -0.049734894
0001f0 dd 36 0d 3d 68 77 0a 3d ac b0 66 3d fe be 24 bd
       0.03447615 0.03380528 0.05632083 -0.040221207
000200 c9 ad 79 3b d1 eb 3d bd f2 76 df 3c c3 5d 27 bd
       0.0038097969 -0.04636747 0.027278397 -0.040860903
000210 13 cc 79 3c 4f a1 7c 3d 31 83 40 bd 24 be 3d 3d
       0.015246409 0.061677273 -0.047000114 0.04632391
000220 68 0b b0 3d 73 62 c1 3d 5c 33 2d bc ed c0 33 bd
       0.085959256 0.09442606 -0.010571327 -0.04388516
000230 77 eb 8d 3d 1b f7 ea bc 50 a3 66 bb 4f ac 42 3d
       0.06929677 -0.028682282 -0.0035192557 0.047527608
000240 3e f3 7f bd a2 14 6c bd d8 36 25 bd c6 78 10 3d
       -0.062487833 -0.057636864 -0.040335506 0.03527143
000250 29 0e 71 3c c4 01 28 bd 54 bd a1 bc d7 fe 06 3d
       0.014712849 -0.04101731 -0.019743599 0.032957878
000260 23 9f 5b 3d fa f3 ca 3b 3c fc 86 bc 47 32 65 3d
       0.05361856 0.006193635 -0.016477697 0.05595615
000270 27 ca 2c 3d 0f e2 13 bd 94 30 42 bd df 99 6a bc
       0.042184975 -0.03610426 -0.04740961 -0.014318912
000280 64 33 9b 3c f2 9e 1a bd bd 7d 14 bb ad 4f 8d bd
       0.018945403 -0.03774924 -0.0022657954 -0.068999626
000290 03 f9 b7 bb 95 43 83 3d 00 c1 82 bc 66 bf 64 bd
       -0.0056144013 0.064093746 -0.01596117 -0.055846594
0002a0 43 e3 9e 3d 76 7a 4b 3d a1 53 96 bd 96 2e 09 3c
       0.077581905 0.049677335 -0.0734017 0.008372923
0002b0 5b a0 41 3d 22 d6 89 3b 41 5f a7 bd 2f 8e 14 3d
       0.047272068 0.004206435 -0.08172465 0.03626841
0002c0 85 a5 c8 bd 27 20 ae bd 53 1b 98 bd 98 d0 22 bd
       -0.09797195 -0.08502226 -0.07427087 -0.03974971
0002d0 26 2c 88 bb ac 21 99 3c 10 18 4c 3d b9 50 d8 bc
       -0.0041556535 0.018692814 0.049827635 -0.026405679
0002e0 7d 88 58 3c af 33 b5 3c 32 6e 92 bd a9 ea c5 bc
       0.013216135 0.022119371 -0.07149924 -0.024159746
0002f0 65 6c 4f 3d ed ed 80 bd 77 36 91 bd 58 6e 24 bd
       0.050640482 -0.06295381 -0.070904665 -0.040144295
000300 da 8e d9 3d 3d 1a 86 3c 8d 1e f7 3c a4 fb c7 3d
       0.1062295 0.016369933 0.030165935 0.097647935
000310 a9 36 d9 bc f3 a7 78 3d b6 c8 89 3d eb 62 8c bd
       -0.026515322 0.060707044 0.06727736 -0.068548046
000320 e6 4a a7 3d eb 7a 4b bd f2 35 a4 3c ca 4f 69 3d
       0.081685826 -0.04967777 0.020045254 0.05696086
000330 62 98 83 bc f9 ab db 3a a5 9c 90 bd 23 ed 52 3c
       -0.016063873 0.0016759626 -0.070611276 0.012873921
000340 69 00 e7 3b 3d 6e 08 bd 3a 9e 7b bd 40 ad e6 3b
       0.0070496094 -0.033308256 -0.061430193 0.007039696
000350 d5 c1 4e 3c 9c c7 30 bd 05 c7 88 bc 72 4a e0 bc
       0.012619455 -0.043159112 -0.016696462 -0.027379248
000360 35 09 ae bd 57 09 3a 3d 0d 11 8c bd f3 ce d2 bc
       -0.0849785 0.045419063 -0.0683919 -0.025733447
000370 99 ec df bc a7 c6 55 3d a8 be 67 3c 74 26 ab 3c
       -0.027334498 0.052191403 0.014144577 0.02089236
000380 0b 88 ba ba 7f ef be 3c 91 98 8b bb 97 42 68 bd
       -0.0014231218 0.02330756 -0.0042601307 -0.05670413
000390 5f 44 bd 3b fb a2 1f 3d 08 70 f6 bc 94 8e a0 3d
       0.0057759727 0.03897379 -0.030082718 0.078396946
0003a0 8c 3b 76 3d 79 85 8f bd 98 4e ad 3d 6d d5 98 bd
       0.060115382 -0.0700788 0.08462256 -0.07462583
0003b0 7d 0a ba bd 5c 57 90 3d 7c 9e 85 bd 99 9c b4 ba
       -0.09084032 0.070479125 -0.06524369 -0.001377958
0003c0 8a a1 2d 3d bc 5f 06 bd 7c 2a 9e 3c 8b 79 e2 3c
       0.042390384 -0.032806143 0.019307368 0.027645847
0003d0 2e f3 78 bd 81 ce 68 3d 65 f2 aa 3c e5 ea 7c 3d
       -0.06077879 0.056837562 0.020867536 0.06174745
0003e0 b7 5f 35 bd 9e 4d 23 bd f0 59 2b 3d b0 84 26 bd
       -0.044280734 -0.039868943 0.041833818 -0.040653884
0003f0 1c 20 3e bd a8 07 8d 3c 0f 87 d1 3a 45 22 b3 3b
       -0.04641734 0.017215565 0.0015985685 0.0054667317

fc1.bias f4 [128]
000000 19 39 5d 3d 26 94 ad 3b 7f 26 52 bd 93 90 85 bd
       0.05400953 0.0052972017 -0.051306244 -0.06521716
000010 56 4f 3f 3d 7a f9 07 3d d2 b2 48 bd d1 51 9b 3d
       0.04670652 0.033196904 -0.04899866 0.075839646
000020 68 7f 42 bd 11 57 a1 3c 9a 15 8d 3d f6 5a e4 bc
       -0.047484785 0.019694837 0.06888886 -0.027875405
000030 21 17 27 3c 69 7a bf bc 61 8c 82 bc 0d 88 75 bd
       0.010198385 -0.0233738 -0.015936079 -0.0599442
000040 a5 73 a7 3d 20 6f a1 3d 5a cc 8d bd e7 5b c5 3d
       0.08176354 0.078825235 -0.069237426 0.096366696
000050 39 bb f1 3d 68 4b 68 bd 19 3d 3d bd a3 e0 72 bd
       0.11803288 -0.056712538 -0.046200845 -0.05929626
000060 c0 38 a6 3c bb 6e b9 3d 7a d7 df 3d 17 83 84 3d
       0.020290732 0.09054323 0.10929771 0.06470316
000070 a4 8f 8c bc 12 27 9c bc 2f 38 99 3d c0 28 5c bd
       -0.017158337 -0.019061599 0.07481419 -0.0537498
000080 ac cd 48 bd a2 29 76 3d 14 0f 0f bd 72 5d 0b 3d
       -0.04902427 0.060098298 -0.03492649 0.034024663
000090 8e 88 56 3d c2 7a 37 bd e5 b3 3a bc ff ab 76 bc
       0.052376322 -0.044794805 -0.011395429 -0.0150556555
0000a0 ac 6a 49 3d 25 bf a0 3d 27 f9 50 3d 4c 8c 03 bd
       0.049173996 0.07848958 0.05101886 -0.03211622
0000b0 c3 e1 ce 3a 3b d8 28 3c 7f 95 e7 3c 89 88 cc 3d
       0.0015783835 0.01030546 0.028269527 0.099869795
0000c0 77 32 b0 3c fa cf 5c 3d 4e 02 51 3d 27 46 c4 3d
       0.021508439 0.05390928 0.05102759 0.09583693
0000d0 88 b8 c8 3d fe 24 22 bd 6a 2b 8f 3c 89 79 68 3d
       0.098008215 -0.03958606 0.017476756 0.05675653
0000e0 f6 c4 7b 3b 69 8c 8b bd 3b 7a b0 bc d2 68 a5 3c
       0.0038416958 -0.068138905 -0.021542659 0.020191584
0000f0 2c 71 9e 3c 46 d4 ec 3c 7d ee 3b 3c 28 28 68 3d
       0.019341074 0.028909814 0.011470434 0.05667892
000100 18 e7 97 3d 28 71 86 3d a5 88 a4 3d 96 db 16 bc
       0.074171245 0.065645516 0.080338754 -0.009207627
000110 44 f5 b4 bc f1 a4 67 bb e6 6d 3a 3d 94 4e 4e 3c
       -0.022089608 -0.0035346115 0.045514964 0.012591977
000120 db 36 35 bd 11 9c ce bc 2b 11 89 bb 56 7c 42 bd
       -0.044241767 -0.025220903 -0.004182955 -0.047481857
000130 57 df b1 bc e4 50 69 3d 3a 86 c4 bc ac e0 0a 3d
       -0.021712942 0.05696191 -0.023989785 0.03390567
000140 15 a5 d9 3d 93 b1 4c 3c 6d f2 0b 3d 74 e3 38 bd
       0.1062719 0.012493509 0.034166742 -0.04513879
000150 5d 8a 8b 3d df 3f 84 3d 34 8f e2 bc 13 5c 98 3c
       0.068135 0.06457495 -0.027656175 0.018598592
000160 05 2c a1 3d 71 0c de 3d f3 1f 67 bd d7 04 90 bc
       0.07869724 0.10842217 -0.056426954 -0.017580433
000170 21 96 6c b9 37 c0 c4 b9 f8 4a 93 3d 87 34 01 bd
       -0.00022562641 -0.00037527244 0.071920335 -0.031544235
000180 44 0d ab 3b 9b b9 82 bc f4 e8 07 3d 36 de 05 3d
       0.0052200872 -0.015957644 0.033181146 0.03268262
000190 72 07 8b 3d 5c a3 c8 3d 66 a8 c4 3c db b0 88 3d
       0.067885295 0.09796783 0.02400608 0.066743575
0001a0 a5 1d be 3d 70 27 cd 3d f6 9f 21 bd f7 95 9d 3d
       0.09282998 0.10017288 -0.03945919 0.07694619
0001b0 37 e2 84 3d ee 43 9a bc 46 8b 7f 3d 10 0b 34 bd
       0.064884596 -0.01883122 0.06238868 -0.043955863
0001c0 ef a3 86 bc a1 9d 7b 3b 01 56 7e 3d 59 8f a8 bc
       -0.016435592 0.0038393515 0.06209374 -0.020576166
0001d0 8e 49 79 3d ca 17 bf 3c 58 ea d0 3d 59 6f 67 3d
       0.060861163 0.023326773 0.102009475 0.056502674
0001e0 31 60 1d bd 10 29 96 3d 72 cb ec 39 89 f6 5e 3c
       -0.038421813 0.07332051 0.00045165006 0.013608583
0001f0 56 18 7d bd 20 b7 87 3d d4 16 8f 3d 52 0c 94 3d
       -0.061790787 0.06626725 0.06986776 0.072289124

fc2.weight f4 [64, 128]
000000 5b f2 b1 3d f8 34 d1 bc 61 7e 0a bd 52 d8 68 3d
       0.08688804 -0.025537953 -0.03381193 0.056846924
000010 ae b5 0b bd 98 b7 a2 bc 42 7a a5 bd 26 9a 4d 3d
       -0.03410881 -0.019862935 -0.080799595 0.050195836
000020 70 1f ba 3b d0 bd ba bb ee 0e 5c 3d b2 90 b0 bd
       0.005680017 -0.005698897 0.053725176 -0.086213484
000030 c4 64 e2 bc aa 9d 51 3d 24 f5 8f bc 5a ef 2f 3d
       -0.02763594 0.05117575 -0.017572947 0.042952873
000040 3e 2c 5a bd f0 ac db 3b 90 45 b5 3c 6f 5f 2f bd
       -0.05326485 0.0067039654 0.022127897 -0.042815622
000050 96 66 aa bd d2 40 58 3d 0c be dd bc 31 a3 97 3d
       -0.08320348 0.052796192 -0.02706816 0.07404173
000060 0e fc b3 bd cf 19 26 bd 72 37 1b 3d 64 46 88 bd
       -0.0878831 -0.040551957 0.037894674 -0.06654051
000070 80 79 74 3c 39 be 39 bd d8 ef 77 bc d8 f3 31 bc
       0.014921546 -0.045347426 -0.015132867 -0.01086136
000080 6d 74 44 bd 90 a6 a9 3b 5c 34 b2 bd 97 9a 2b bd
       -0.047962595 0.0051773265 -0.08701393 -0.041895475
000090 00 e2 c9 ba ad 72 b1 3d a2 2d 42 3d e0 c1 0e bb
       -0.0015402436 0.08664451 0.0474068 -0.002178304
0000a0 92 34 9b bd 8f 11 58 bd 8d 86 89 3d 3e 22 4e 3d
       -0.07578386 -0.05275112 0.06715117 0.050325625
0000b0 30 ae 63 3c b0 c0 bf 3b d7 d7 91 bd 52 57 7e bd
       0.01389651 0.0058518276 -0.07121246 -0.062094994
0000c0 e4 c4 8e bd cd 67 82 3d d7 96 a5 bd cd 71 a1 bd
       -0.06971148 0.06367455 -0.08085411 -0.07883034
0000d0 ee 84 68 3d 58 58 d1 bc bb 24 82 3d 38 2a a6 bc
       0.056767397 -0.02555482 0.06354662 -0.020283803
0000e0 30 53 97 bb 28 ef 7a bc 52 e2 02 3d 1d f4 83 3d
       -0.004618071 -0.015315808 0.031954117 0.06443045
0000f0 9b d0 20 bd 52 b1 dc bc ab 1a a9 3d 84 de d4 3c
       -0.03926144 -0.026940022 0.0825704 0.02598501
000100 b0 a6 16 bd c8 fe 83 bc b8 80 be bc 36 7d 57 3d
       -0.03678006 -0.0161127 -0.023254737 0.052609645
000110 f6 de ab bd bc c3 8d bd 00 6a 9e bd 92 66 1c 3d
       -0.08392136 -0.06922099 -0.07735062 0.038183756
000120 fe b9 95 bd 80 5d b8 3c 39 fe 9b 3d c7 da 96 3d
       -0.07310866 0.022505522 0.076168485 0.07365947
000130 7a 10 6d bd 1e 8b 87 bd e3 27 5f bd d4 cd d0 3c
       -0.05787704 -0.066183314 -0.0544814 0.025488771
000140 f9 28 91 3d cf e7 b0 bd bf 87 5a bd 8d 8b 99 bd
       0.07087893 -0.08637964 -0.053352114 -0.0749732
000150 a5 d9 8f bd 02 d0 6d 3d 68 ab 5b 3c 96 66 47 3d
       -0.07023934 0.0580597 0.013407566 0.048681818
000160 f6 79 96 bd cd b4 86 bd f1 e2 ae bd a0 94 f0 3c
       -0.07347481 -0.06577454 -0.085393794 0.029367745
000170 ca 27 7f 3d 30 41 87 bc 0d 5f 24 bd 20 b9 a1 bc
       0.062293805 -0.016510576 -0.04012971 -0.019741595
000180 8a db 7e 3d 43 c3 ab bd 49 6e 1a bd 73 8c 88 3d
       0.062221088 -0.083868526 -0.037702832 0.066674136
000190 b1 b3 57 bd fc cd fe 3c 0e e2 7e bd 58 67 f0 3c
       -0.0526616 0.03110408 -0.0622273 0.029346153
0001a0 cb d6 94 3d 62 c4 63 3d 7c ed 60 bd 56 19 4b 3d
       0.07267531 0.055607207 -0.054913983 0.04958471
0001b0 20 e4 46 bb e6 03 83 bd 60 1b 7c bb 16 56 64 3d
       -0.0030348375 -0.06397228 -0.0038468465 0.05574616
0001c0 48 d9 7f 3c d0 dc c7 bc 38 3a 24 3c 58 49 7a 3c
       0.015615769 -0.024397284 0.010023646 0.015276276
0001d0 ce d0 1c bd c6 4e 45 3d 74 ad 84 bc 83 a8 85 3d
       -0.03828507 0.048170827 -0.01619599 0.06526282
0001e0 ce 1e 56 3d d9 8a ae 3d 06 a5 62 3d 66 40 91 bd
       0.05227547 0.08522577 0.05533316 -0.07092361
0001f0 08 f8 85 bc 92 64 31 3d c8 b1 1f bc f0 8e f6 bb
       -0.016353622 0.043308802 -0.009746976 -0.0075243637
000200 0a 00 a2 3d 07 fa 21 bb ec a6 c2 3d 3c c4 89 3d
       0.07910164 -0.0024715678 0.09504494 0.06726882
000210 97 b4 86 3d 61 24 9c 3c 68 9a a0 3d a4 59 e8 bd
       0.065774135 0.019060316 0.07841951 -0.113452226
000220 3e bc 31 3d 93 ed 5e bd a3 86 53 bd 21 9e a8 bc
       0.043392412 -0.054425787 -0.05164207 -0.020583214
000230 0c 65 5d bd 74 93 6a bb 04 49 7c bc 18 98 0e 3d
       -0.054051444 -0.0035793455 -0.015398268 0.034813017
000240 3f 95 cb bd 7f e1 76 bd 2a 3b 2f 3d 1c 37 f1 bc
       -0.09940576 -0.060273644 0.042781033 -0.029445224
000250 08 8a 21 3c e9 79 91 bd c4 fe 9e 3c 4d 04 38 bd
       0.009859569 -0.07103331 0.019408591 -0.044925977
000260 55 54 78 3d 24 a4 bb 3c 1e 3c d2 bd e2 78 9f bd
       0.0606273 0.022905417 -0.10265373 -0.077867284
000270 3e 28 b5 3d 88 51 e8 3d ea 41 82 3d 58 87 87 bd
       0.08845566 0.11343676 0.06360228 -0.06617612
000280 b1 e4 e1 3c 9a 36 98 bd dd 36 e4 3d 84 f1 a8 bd
       0.027574869 -0.074322894 0.11143277 -0.082491904
000290 9a c6 98 3d 11 2c 3a bc 97 2e ae bc 97 59 99 3d
       0.07459755 -0.011363045 -0.02126245 0.07487791
0002a0 04 9b 2b bd ac ae cc bd 4c 48 0f 3c 82 94 75 3d
       -0.04189588 -0.099942535 0.008745264 0.05995608
0002b0 c8 8e 70 3c 9e 32 d9 bc 01 a4 01 3d 0e 4e 17 3d
       0.014682479 -0.026513394 0.031650547 0.036939673
0002c0 05 1d d8 3d 03 02 a8 3d 66 b6 6f 3d f4 14 80 3d
       0.1055241 0.08203509 0.058523558 0.062539965
0002d0 8e 69 84 3d c4 20 f5 bc 8c 2c b5 3d 7d 3d c9 bd
       0.064654455 -0.02992285 0.08846387 -0.09826181
0002e0 8f 0d 0d bd bb 96 1f 3d b8 34 1c bd 4e 89 fa bc
       -0.03443676 0.038962107 -0.038136214 -0.03058305
0002f0 5e 5b d1 bd f2 97 92 bb fc 1a c1 3d 77 b6 bc 3d
       -0.10222505 -0.0044736797 0.09428975 0.0921449
000300 e7 60 ae 3c 06 d8 6f bd c5 7c 9b bd 03 ec 84 bd
       0.021286441 -0.058555625 -0.07592157 -0.06490328
000310 e5 bf 8f 3d 12 0c 3f bd e1 e5 84 3c 7c ea ab bd
       0.07019023 -0.04664237 0.016222896 -0.08394334
000320 76 fe f7 3c 3c 99 08 3d 07 15 be 3d 34 ef 45 3c
       0.030272704 0.03334926 0.092813544 0.012080956
000330 22 ce 3b 3c 96 52 dc bc 59 37 51 bd 47 33 8b 3d
       0.01146272 -0.026894849 -0.051078174 0.0679689
000340 fd 43 9d 3b 1c 1c e0 bc a1 9d e7 3c 82 2b 91 bd
       0.0047993646 -0.027357154 0.028273406 -0.070883766
000350 fa c3 d9 3a fc fd ec 3c fa 3c b4 bc 1e 56 34 3d
       0.0016614192 0.028929703 -0.022001732 0.04402744
000360 f3 a4 a1 bd d1 d7 4a bc fa 7f 06 bd 22 5d f8 3c
       -0.0789279 -0.012380556 -0.03283689 0.030317847
000370 80 32 4c bd 55 28 e4 bc a3 ee 98 3c 38 92 9c 3d
       -0.049852848 -0.027851263 0.018668478 0.076450765
000380 66 0a ba 3d c0 b0 b8 bd 10 4e 67 bc fc 15 06 bc
       0.090840146 -0.090180874 -0.014117733 -0.008183952
000390 4c 7e a0 3d 0e 95 60 bd 9a 59 77 3d 29 f6 4d bd
       0.07836589 -0.05482965 0.060388185 -0.050283585
0003a0 72 cc 07 3d 6f 85 a3 3c 58 38 91 3d 67 81 19 bd
       0.03315396 0.019961087 0.07090825 -0.037476923
0003b0 05 52 69 3d 2b c4 00 3d e4 97 64 bd b6 97 b5 3c
       0.056962986 0.03143708 -0.055808917 0.022167068
0003c0 85 02 aa bc 9f b1 e1 3c 6f 52 1f 3d 07 cd a5 bb
       -0.020753155 0.027550517 0.038896974 -0.0050598416
0003d0 a4 db 8c bd af 62 c2 3a 2f cf 69 3d 5c 47 41 3d
       -0.068778306 0.0014830435 0.05708235 0.047187194
0003e0 1f 8b 3b bc e7 ab a4 3d bf 80 13 bd 8c 60 f3 3d
       -0.011446743 0.080406 -0.036011454 0.11883649
0003f0 e0 af 26 3b f6 69 a8 3d 5f 27 74 3d ad 32 9a bc
       0.002543442 0.082233354 0.05960786 -0.018822992

fc2.bias f4 [64]
000000 b6 16 9e bd ea c1 7e 3d 67 2b 8b bd f0 bc a9 b7
       -0.077191755 0.06219665 -0.06795388 -2.023435e-05
000010 70 35 22 bd 29 44 41 3d fb a1 3f 3d 26 0c ac 3b
       -0.039601743 0.047184143 0.046785336 0.0052504716
000020 74 3e 78 bd a1 6d a3 3c ae c8 80 3d 89 9a af bd
       -0.060606435 0.019949736 0.062882766 -0.08574397
000030 9e b6 a4 3d 9c fd 16 bd 9b 57 49 3d 17 22 70 3d
       0.08042644 -0.036862954 0.049155813 0.05862626
000040 af 65 92 3d 09 a7 2b bd 09 29 0d 3d dd 8b 0c 3d
       0.07148301 -0.041907344 0.034462962 0.03431307
000050 98 41 92 bd 02 74 79 3c 8b 75 31 bc 5d be 97 3d
       -0.07141417 0.015225412 -0.010831247 0.07409356
000060 4f a4 72 3d 54 27 0c 3d 21 b3 50 3d 08 63 ed bc
       0.059238728 0.034217194 0.05095208 -0.028977886
000070 dd 2f 95 3c 7c c7 86 bc e9 b6 94 3d 66 bd 9e bd
       0.0182113 -0.016452543 0.0726145 -0.07750969
000080 fa 1a 4e 3d 5a d4 4d 3d d3 52 aa 3b a9 fb 8e 3d
       0.050318696 0.050251342 0.0051978617 0.06981594
000090 c8 56 1d 3d 6d e6 97 3d aa 82 aa bd 26 fa 05 3d
       0.03841284 0.07416997 -0.083257034 0.032709263
0000a0 68 46 04 3d 9a 7a 36 3d 4a b1 0b bd a6 2a 93 3d
       0.032293707 0.044550516 -0.034104623 0.07185869
0000b0 d8 cc 66 3d 98 57 3b 3c e9 32 f8 3c 7a 91 9b 3d
       0.056347698 0.011434458 0.030297713 0.07596107
0000c0 bb 8d b1 3d 8e b5 b2 bd 05 4e 77 3d 36 c2 72 bd
       0.08669611 -0.08726035 0.06037714 -0.059267245
0000d0 bf c2 24 bd 5f 22 62 bd 13 24 38 bd 81 95 a1 bd
       -0.040224787 -0.05520856 -0.044956278 -0.07889844
0000e0 ff 6b dd 3c 66 4c ad 3c 50 a1 98 bd d2 29 15 bd
       0.027029036 0.021154594 -0.07452643 -0.036416836
0000f0 40 0a fb 39 e6 1e d3 3c 12 19 14 bc 41 53 10 bd
       0.00047882088 0.02577157 -0.00903918 -0.035235647
