logs/mappo_checkpoint_ep450.pth (torch, 451986 bytes, 28 tensors)

fc1.weight f4 [128, 147]
00000000: 03c3 95bc 7a31 d53d 07c0 77bd 78eb f03c
00000010: b24f 413d 3aa6 b23b 020c 27bb fbba f2bc
00000020: 0074 13bd 508f 303d ea83 d3bc a5f6 823d
00000030: b8d1 693d 1278 823d 3d88 6f3d 2cd8 1dbd
00000040: cfe3 8d3d 1f22 95bd d0ec 7dbd 21a1 1d3d
00000050: aa23 963d 4032 043d 5e5e d03d 5507 1bbd
00000060: 59d1 85ba 9988 babb 0362 1d3d 72e3 07bd
00000070: 6812 bb3d e674 8d3d 209d 99bd b5c5 40bc
00000080: 0635 26bc ce81 d73c 5d27 92bc 6780 83bd
00000090: 3298 8dbd 1f04 99bd 2d12 403d 3160 dbbc
000000a0: e526 1abc a3d7 ff3c 500b 053c 13f2 c53d
000000b0: 5a22 e1bc a40e 83bd f127 e03c 3e74 613d
000000c0: 6622 c43c c247 233d d300 ad3c 3dd0 e6bb
000000d0: 62f3 95bc 46e4 11bd 4c6d 24bd 913b abbd
000000e0: 46a5 153d 907b 95bd 5c18 4a3d 27f4 453d
000000f0: b05b 51bc 1bf1 c0bc 5f14 b23d 709f 8e3c
00000100: 9e83 c73d 8b1d 5e3d 3520 4bbd a02a 4fbb
00000110: f9e1 62bc 5ab1 293d aa39 e83d 3d95 11bc
00000120: d224 d8bc c835 de3b 084f ba3a 16ce 253d
00000130: 57ef 4e3c cd94 57bd 6dfe 82bd 2632 043d
00000140: cc83 523c f25a 71bc 289c b63c c86b 29bd
00000150: 6011 46bc e594 e53d b2c9 85bd 8d8d 3abd
00000160: 5d37 9e3d fbfb 8bbd 58ac 1abd bfa9 b9bb
00000170: 805e 80bc f8c6 6ebc 750f 11bc 98ed 95bd
00000180: e402 0c3b 8776 bd3d 2de0 aa3c 9c4d 68bc
00000190: 5516 d53d b5b6 673d a15c 543d eb2a 87bd
000001a0: 7338 783d dba7 6fbc 2efc ca3d 7adb 58bd
000001b0: 7b81 3dbd 4aa4 4c3c 53d4 4c3d bddf 59bc
000001c0: bfaf 06bd 253a abba 88af 063d d832 8a3d
000001d0: db93 3e3d 07e9 e03c b768 e2b9 5851 133d
000001e0: 1617 983d 16ee c73d 1f13 6d3d a36c 8cbd
000001f0: 700a f13b 7873 5b3d 6515 05bc 68f5 00bd
00000200: 8cc6 4ebd b120 183c 9c29 85bd 1025 99bd
00000210: f2e5 27bd 2f36 8e3d fbd8 85bd 48d2 983b
00000220: e522 5cbd 9155 16bd ba76 77bd 4164 bdbc
00000230: 9ea3 303d 88bd 8b3d 67e0 4dbd de9f 683c
00000240: c5ad 85bd 4acd f9bb 138c bc3d 3d72 14bd
00000250: c60e 04bd 58bc a23d 002d d53c 3f48 94bd
00000260: b0cb 9dbd 9e62 6b3c 9467 cfb9 2226 a43c
00000270: 1a33 aabd 4f49 b33d 84a7 4b3c 38fb 1dbc
00000280: 0adf ad3d 7cf8 93bd 3490 a13d 555b f4bc
00000290: ab6f 613b 9cc9 4d3d 302b b03d a84e 32bb
000002a0: 4e3b 50bc fc14 a03d 8130 6c3d 2954 7d3d
000002b0: 20f1 9c3d 36b8 c0bc 0a70 5f3d 9a10 183d
000002c0: 3229 933d e806 313d 8e33 2d3d 4625 8d3d
000002d0: 670b 4ebd c4f0 93bd 5e05 7ebc 2c0e 5e3d
000002e0: b4a5 ad3d 2441 1a3d b632 4f3c fe59 7cbd
000002f0: 155c 523d bb39 113d 07ee 2abd 46c9 763a
00000300: 2718 65bd 7c9e ac3d 8c10 9bbd f151 47bd
00000310: e7e3 c3bc a258 e83d bf4c 803d f025 96bc
00000320: 4b79 9fbb 52ab d23b 2aed 6fbd 7c76 10bd
00000330: 6275 fdbc 3270 f9bc bf7b 203d 8233 88bd
00000340: 41bc 853c 7fbf a8bd 5868 74bd 6f4a 1a3c
00000350: 4c2d 6b3c a3e8 43bd af61 2d3d 7a85 5a3d
00000360: 1287 4ebc b916 48bd fbcc 5ebc 659d 7f3d
00000370: e325 25bd 3e44 e2bb 3f3f b23d 0feb ad3d
00000380: bcb9 843d 2917 23bd 8928 90bc 94a2 063c
00000390: 1a76 773d 436d 6c3d 1cfb 50bc 9a7a 83bd
000003a0: f11e b63d 25da 263d 333f abbd b780 273d
000003b0: ab93 8a3d 8c72 95bd 2e15 cbbc 3e52 823d
000003c0: 39c5 4fbd 7145 58bc 7219 963d 2800 a13d
000003d0: 7ead 52bd e135 d33c 9830 353c 71ce 1d3a
000003e0: 093a a73d c9e7 773d d4e4 e93c 8038 39bd
000003f0: 1465 ae3c 3089 b23d 6770 98bd 0443 913d
-0.018281465 0.104098275 -0.060485866 0.029409155 0.047195144 0.0054519447 -0.0025489335 -0.029630175
-0.035999298 0.043105423 -0.025819737 0.063947 0.05708477 0.06370558 0.058479536 -0.038536236
0.06928217 -0.07281899 -0.06199342 0.038483743 0.07331021 0.032274485 0.10174249 -0.03784879
-0.0010209485 -0.0056925532 0.03842355 -0.033175893 0.0913437 0.06907062 -0.07500672 -0.011765887
-0.010144478 0.026307013 -0.017841036 -0.06420975 -0.069137946 -0.07471489 0.046892334 -0.026779266
-0.009408687 0.031230753 0.008120373 0.096653126 -0.0274822 -0.06399277 0.027362796 0.055042498
0.023942184 0.039863355 0.021118557 -0.007043867 -0.01830453 -0.03561809 -0.040143296 -0.08360971
0.03653457 -0.07298958 0.049339637 0.048328545 -0.012778208 -0.023552468 0.08695292 0.01741001
0.09741901 0.054227393 -0.049591262 -0.00316111 -0.013847821 0.0414289 0.113391235 -0.008885679
-0.026384745 0.0067813136 0.0014214227 0.040479742 0.012630305 -0.05263214 -0.06396184 0.032274388
0.012848806 -0.014731156 0.022291258 -0.041362554 -0.012089103 0.1121004 -0.06532611 -0.04554515
0.077254035 -0.06835171 -0.037762016 -0.0056659873 -0.015670061 -0.014573805 -0.008853783 -0.07320708
0.0021364028 0.09251123 0.020858848 -0.01417866 0.1040465 0.056570727 0.05184615 -0.06599983
0.06060071 -0.014627422 0.09911381 -0.052943684 -0.04626606 0.012490341 0.050007176 -0.013297972
-0.03288245 -0.0013063593 0.032882243 0.06747979 0.046527725 0.027454866 -0.00043184098 0.035966247
0.07426278 0.09762208 0.057879563 -0.06856658 0.0073559806 0.053576916 -0.008122777 -0.031484038
-0.050482318 0.009285138 -0.06502077 -0.07477772 -0.040990777 0.069439285 -0.06535526 0.0046637394
-0.053744216 -0.036702696 -0.06041596 -0.023119094 0.043124788 0.068232596 -0.050262835 0.014198272
-0.065272845 -0.0076233493 0.092064045 -0.03624176 -0.03224065 0.0794608 0.026022434 -0.07240342
-0.07704866 0.014366774 -0.00039559288 0.020037714 -0.08310528 0.08754217 0.012430076 -0.009642415
0.08489807 -0.07225129 0.07888833 -0.029828707 0.0034398835 0.050241098 0.08601987 -0.0027207527
-0.012709452 0.078165025 0.057663444 0.06184784 0.076631784 -0.023525339 0.05455021 0.037125207
0.07185592 0.043219477 0.042285495 0.06891875 -0.050303843 -0.07223657 -0.015504209 0.054212734
0.08478871 0.03765978 0.012646368 -0.06160926 0.051357348 0.035455447 -0.041730907 0.00094141474
-0.055931237 0.08428666 -0.075715154 -0.04866213 -0.023912383 0.1134503 0.06264638 -0.018328637
-0.004866754 0.0064291144 -0.058575787 -0.035269246 -0.030939762 -0.030449007 0.039180513 -0.06650449
0.016325118 -0.0823965 -0.059669822 0.00941716 0.014354061 -0.04782928 0.042329486 0.05334995
-0.012605445 -0.048849795 -0.013598676 0.062405962 -0.040319335 -0.0069051078 0.087034695 0.084920995
0.064807385 -0.03981701 -0.017597454 0.008217473 0.060415365 0.057721388 -0.012755182 -0.06419869
0.0889262 0.040735383 -0.08361664 0.040894236 0.06766447 -0.07297239 -0.024790373 0.06363343
-0.050725196 -0.01320015 0.07329072 0.07861358 -0.051434986 0.025782527 0.011058949 0.0006019837
0.08165366 0.060523782 0.028551497 -0.0452199 0.021288432 0.08717573 -0.07443314 0.0709286

fc1.bias f4 [128]
00000000: 7001 21bd 6aac d53d 1dbd 18bd 3c3b 183d
00000010: 7ccf 6e3a 4f4e 5abc 42af adbb 5ffe 833c
00000020: 6d2d 833d 86c8 4b3c c564 8f3d f665 c93d
00000030: 3831 14bd 70dc e03d 434f 9a3d 9302 7abc
00000040: b27b 0f3c 69f7 e5bc 0304 0d3d a908 98bd
00000050: f1ae 393d 54e5 15bd eab8 3638 b143 36bc
00000060: f4ff 53bd 6cde 5f3d 3b4c 753d 1e8e 7a3b
00000070: 68a7 87bd 8d22 413d 2160 55bd 8829 1e3d
00000080: f1c1 ad3d a8e6 e73d f4b1 0fbd 52a5 013d
00000090: 9a72 753c 7025 123d a9fc d5bc 6242 43bd
000000a0: d75b 043d fb54 c73d c700 c73c 25ef 89bd
000000b0: 7b8a 32bd 4746 db3d 802a a13c 980a 153d
000000c0: 52cc 2fbc 5e8a 54bd 9eb3 3ebc ad66 82bd
000000d0: 4347 ab3d 778a 12bd 5fe7 ee3c 48a5 d33c
000000e0: 29bd 5a3d 645d e73b e22f 293d cbe1 c53c
000000f0: 42ee 853c fd25 283d 127d 1cbd c308 46bd
00000100: 0e5a 993d da57 a23d 2069 9b3d 55c1 dc3c
00000110: 276e bdbb debc f6bc b829 3f3d 5884 46bc
00000120: 3144 9e3d baac 8dbd 0f16 58bd 9ac8 083c
00000130: d1e4 f1bb e674 f13c 5e28 e13c 52d8 42bc
00000140: 9492 b03d b54b 913d d547 933d 74e8 d43d
00000150: d2af 3b3d 2d17 d73d d8da 363d a655 8e3d
00000160: aef6 07bc 4399 663d 1e83 973d 1e9e af3d
00000170: 735c 8d3d 80a5 613d 1b3d ab3c 6bbc d53b
00000180: fafd 463c ea19 663d f6fb eb3d 4984 ceba
00000190: 9417 993d e533 ad3d c9d7 cc3d a2ff b33d
000001a0: 0a05 3b3d 4d20 073d e5eb 2e3c f519 603d
000001b0: 5a4a d83d 0274 ad3d 2e4f 84bd 5fad b03d
000001c0: d56f ae3d bf0f d5bc 8c0b 9f3c 4e44 8abc
000001d0: 0f29 a73c 36a6 a23d 2c3a f03c 2577 883d
000001e0: 62d6 b4bc 2403 ea38 6869 53bd 438b 643d
000001f0: 50d2 a5bc 72ec 993c 68d5 43bd ea42 9b3d
-0.03930801 0.10433276 -0.037289727 0.037165865 0.0009109897 -0.013324334 -0.0053004334 0.016112505
0.06405149 0.012437945 0.07001642 0.09833901 -0.03617975 0.10979545 0.07534649 -0.015259403
0.008757519 -0.028072076 0.034427654 -0.07423527 0.045332853 -0.036595657 4.3564396e-05 -0.011124537
-0.051757768 0.054655477 0.059887152 0.003823168 -0.06623727 0.04715209 -0.05209363 0.038613826
0.08484257 0.11323291 -0.03508182 0.031651802 0.014980936 0.035680234 -0.026121454 -0.04767073
0.032314148 0.097330056 0.024292363 -0.06735066 -0.043589097 0.10706764 0.019673586 0.036387056
-0.010729866 -0.05188977 -0.011639504 -0.0636724 0.083632015 -0.03577658 0.02916306 0.025835648
0.053403053 0.0070606936 0.04130543 0.024155518 0.016348962 0.041051853 -0.038205214 -0.0483482
0.0748788 0.079269126 0.075884104 0.026947657 -0.0057809534 -0.030119356 0.046670645 -0.012116514
0.0772785 -0.069177106 -0.05275541 0.008348608 -0.0073820134 0.029474687 0.027485069 -0.011892395
0.086217076 0.07094518 0.07191435 0.103958994 0.045821972 0.10502467 0.0446423 0.0694993
-0.008298559 0.056298506 0.073980555 0.0857508 0.06902399 0.055089474 0.02090316 0.0065227053
0.012145514 0.056177057 0.11522667 -0.0015755977 0.074752 0.08457164 0.10002095 0.087889925
0.045659102 0.03298979 0.010676359 0.054712255 0.105610564 0.08469392 -0.06460415 0.08626818
0.08517424 -0.026008485 0.019414686 -0.016878273 0.02040532 0.079418585 0.029324614 0.0666335
-0.022074882 0.000111585745 -0.051614195 0.055796873 -0.020241886 0.018789504 -0.047810942 0.07581122

fc2.weight f4 [64, 128]
00000000: 2c79 80bc d163 a93c 1357 acbc e2a4 823d
00000010: 9dc8 22bd 34b2 8b3d c905 8a3d 3941 b53c
00000020: 11f0 6e3c 76be afba 848c daba 85f0 4b3c
00000030: f2a6 02bd 465c b83d 2298 aebd 41ff 063c
00000040: 7ea2 903c 9f34 cdbd 0d40 023d 10cf 383c
00000050: b007 fe3c d76b afbb 1afc 9b3c 515b 113d
00000060: e0f5 4e3d 8a14 233d e307 943c e2b6 4b3d
00000070: 56d6 e7bc 2ad7 5e3d 8624 9f3d 1ba3 c13c
00000080: 5ef8 fd3c 6888 e73c 62bc 05bc 970f 04be
00000090: 1e98 9a3c d866 3abd fca2 493d 2316 de3c
000000a0: 8abc 31bb f1d7 703d 8f76 9c3d e4f3 26bd
000000b0: 8fc1 cbbd b570 8b3d 5c40 d03d 1e8a 353b
000000c0: faa6 a23b 6a36 6f3d 8012 0fbc 3965 d9bd
000000d0: 4edd 43bc 37b1 093d 8852 39bd f9c3 1b3b
000000e0: 5db1 c73c 24a0 343d c3a8 a93c 58cc 1fbd
000000f0: bb84 8a3d d7e7 653d b2d2 20bd 0efd a83b
00000100: 5b37 86bd 91b6 cb3c bbdc 863d 5b7a 2bbd
00000110: 1d97 093d da18 ddbd fd36 703d e427 343c
00000120: 1bcf 22bd 56e9 28bc 9b3b c2bd 489d 9d3b
00000130: 99ef ebbd f18e d33c 8355 883c 0952 06be
00000140: 4b2d 6dbd 4935 d5bc 0d5b 7c3d 86b3 e6bd
00000150: f25d cbbd 2645 3fbd 32de 883d 0980 bcbc
00000160: d917 53bd 7310 803c d615 7bbd d686 363d
00000170: 18f4 31bc dc25 92bd 539d 593d c806 cfbc
00000180: 1461 f7bc 2512 1fbc 069b 233c 2fb2 023e
00000190: 7ac3 f1bd 63ba 443b 5c4a 3e3d d583 20bc
000001a0: b313 7a3d 7dc7 34bd d58c c03d 9fd9 06bd
000001b0: dbd0 833b 0ca2 e9bd 1e4e 8cbc ab57 9fbd
000001c0: 3088 06bd 73e8 b6bc e033 b0bc dfb9 e8bc
000001d0: 1a03 80bb 402b 9ebc 456c 51bc e96e 5dbc
000001e0: 2456 2fbd 4ba8 fc3b 1a44 a8bd baed a4bd
000001f0: 6b87 52bd cb5c 09be 39b5 abbd 208c 14bc
00000200: 43ea a5bb 566c f03c b695 ce3d 396c 293d
00000210: 9274 81bd a1df a43b 4972 083d 58c6 3dbd
00000220: 3bac 27bd f06e 86bc 2812 853d 4bab 1bbd
00000230: 9264 663c d943 303c 8b09 b33d 4b2e 3c3d
00000240: 7302 75bd f5e2 7ebd 36e2 0b3d b81f 9d3c
00000250: dc2a f93a 75e1 0abd 91e7 b43d 81fc 823d
00000260: 5c8b 783d d575 bf3d 45e7 5a3d 6cbf e03d
00000270: 8949 34bd e32b 7ebd 54f3 6e3d e411 7cbd
00000280: dbd2 a8bd abf7 96bd 71d5 693d c460 e4bc
00000290: 4061 603d 458a bcbc dd7a 053d 6e7c f73c
000002a0: 4e94 4bbb f77e 59ba 5572 a4bd 64df 7a3d
000002b0: 6db8 1dbd f4c2 82bd 957d ae3c bc1e 76bc
000002c0: f5a9 56bc 5606 40bc 45cf a9bb 386f 943d
000002d0: 6a38 763b 881b 7bbd 6e10 853d 3275 523d
000002e0: c83b 043d 77b2 33bd fdb4 bebd 6760 de3d
000002f0: c52e 83bd 6770 9c3d 40e9 44bd f891 ab3b
00000300: 56ba a0bc 1efa 30bd 97f7 853d 2bea bd3d
00000310: f01c 0a3d 36bb 313d ef60 4d3d 3fb8 d73d
00000320: 49c7 87bd 3a10 ba3d 46d7 2f3c 9da6 3bbd
00000330: 4678 ef3d 7438 65bd 69a4 973d 80d7 e43d
00000340: 9f04 2f3d b02c dd3d da8d 4ebd 2b8b 1cba
00000350: 86ad c4bc a152 fb3b d69e 45bd e929 bfbb
00000360: 4d09 87bd 7484 143d ea4e 493d 91d6 55bd
00000370: 9eae 86bd e0f5 033d c66c 663d 148b 8a3d
00000380: 79cd 35bd cf5e f13c 13e3 8f3d a8cb b3bd
00000390: c410 ac3d 6222 ef3c 8696 9b3a b7cf 783d
000003a0: 9f4a 13bd 1221 a8bb 9bd3 b43b 6369 bf3d
000003b0: 77b3 1c3c c1d0 e73c 0c73 3c3d ed4e 053b
000003c0: 4738 20bd eb4b afbd ff1d d0bc acef a33d
000003d0: 815c 9b3d a01f 33bd 252a 603d 2aa8 2fbd
000003e0: 59e9 c8bc b6eb c73d 079e 5e3d 7e7a c53d
000003f0: 3759 093d 10a5 d8bc d2e4 40bd eacf c5bb
-0.01568278 0.020677479 -0.021037614 0.06379105 -0.0397421 0.06821099 0.06739385 0.022125827
0.0145836035 -0.0013408202 -0.0016673957 0.012447481 -0.031897493 0.09001975 -0.08525111 0.008239568
0.017655607 -0.10019802 0.031799365 0.011279836 0.031009525 -0.0053534317 0.01904111 0.035487477
0.050527453 0.03981451 0.018070167 0.049734958 -0.028300446 0.054404415 0.07770638 0.023637345
0.03100222 0.028263286 -0.00816259 -0.12896572 0.018871363 -0.045508236 0.0492277 0.027110165
-0.0027120435 0.058799688 0.07639801 -0.040759936 -0.09949028 0.068086065 0.101685256 0.0027700732
0.004963753 0.058401503 -0.008732438 -0.1061501 -0.011954619 0.03361627 -0.045244724 0.0023767932
0.024376566 0.044098035 0.020710355 -0.039013237 0.067635976 0.056129303 -0.039263435 0.0051571196
-0.06553527 0.024867328 0.0658507 -0.041864734 0.03359138 -0.10795756 0.05864619 0.010995839
-0.039748292 -0.010309538 -0.09484025 0.004810009 -0.11520309 0.025824996 0.016642338 -0.13117231
-0.057904523 -0.026026385 0.06161027 -0.1126471 -0.09930028 -0.046696804 0.066830054 -0.02301027
-0.051536415 0.015632844 -0.06130012 0.044562183 -0.010861419 -0.07136127 0.05312855 -0.025271788
-0.030197658 -0.009708916 0.009985691 0.12763284 -0.11804862 0.0030018322 0.046457633 -0.009797056
0.061053943 -0.04413556 0.094018616 -0.032922383 0.0040227002 -0.11407861 -0.017127093 -0.07780393
-0.032844722 -0.022327637 -0.02150911 -0.028408943 -0.0039066197 -0.019307733 -0.012782161 -0.013515213
-0.04280676 0.007710492 -0.08216114 -0.08053155 -0.051398676 -0.13414304 -0.08384175 -0.0090666115
-0.0050633266 0.029348534 0.10087149 0.041362975 -0.06321062 0.0050315415 0.033312116 -0.046331733
-0.040935736 -0.016410321 0.06497604 -0.038005155 0.014062064 0.010758364 0.087420546 0.045942586
-0.05981679 -0.06222816 0.03415128 0.019180164 0.0019009965 -0.03390642 0.0883323 0.063958175
0.06067978 0.093486466 0.053443212 0.10974011 -0.04401544 -0.062053572 0.058337525 -0.0615405
-0.082433425 -0.07371458 0.05708832 -0.027878173 0.054780245 -0.02301515 0.032587875 0.0302107
-0.0031063738 -0.00082968123 -0.080296196 0.0612482 -0.03850596 -0.063848406 0.021300117 -0.015021976
-0.013102044 -0.011720261 -0.005182179 0.07247776 0.0037570246 -0.061305553 0.06497274 0.051381297
0.032283574 -0.04387137 -0.093118645 0.10858231 -0.06405405 0.076386265 -0.048074007 0.0052359067
-0.019620102 -0.04320728 0.06541365 0.092731796 0.033719003 0.04339143 0.05014127 0.10533189
-0.066298075 0.09085126 0.0107324775 -0.04581319 0.11692862 -0.05596204 0.074044056 0.11173916
0.042729016 0.10799539 -0.05042825 -0.00059716654 -0.024008524 0.0076697622 -0.04824718 -0.0058338535
-0.06593571 0.03625913 0.049147524 -0.05220658 -0.06576274 0.032216907 0.05625608 0.06764808
-0.044385407 0.029464154 0.07025733 -0.08779079 0.08401635 0.0291912 0.0011870421 0.060744967
-0.035959836 -0.0051308954 0.0055183894 0.09346273 0.009564272 0.028297784 0.046008155 0.0020341233
-0.03911617 -0.08559402 -0.025404928 0.08004698 0.07586003 -0.04373133 0.054727692 -0.042884983
-0.024525331 0.09761755 0.054349925 0.09642504 0.033532348 -0.026445895 -0.04709322 -0.006036748

fc2.bias f4 [64]
00000000: 6e08 643d 8e4c f73c f228 19bc 3741 5b3b
00000010: 6f1e c53b dd9f 833d 11f4 573d 3790 74bd
00000020: a084 763d 6734 f8bc a4cf 403d 965a a13d
00000030: f599 7d3d 5bc2 08bd 6599 643c 35bc 213d
00000040: 318c 66bd 4344 c5bb 1862 da3c a31b 333d
00000050: 0f43 8c3c 8793 663d c490 003d cad9 85bc
00000060: cba1 833c a98d a6bd 76f9 48bb d847 8b3d
00000070: bde8 a4bd 72d5 c73d 1367 e73c fac7 71bd
00000080: 3715 be3d 999a 773b 6d7f debc b81d 893d
00000090: 658f b23c 030b 7d3d 102b a5bd ffa9 c63b
000000a0: c1c4 d03c bec4 8dbc e7b9 50bd ccab c93d
000000b0: 5db1 843d 0e52 bdbc 7c33 0ebd 6e91 dc3c
000000c0: c9c2 9a3c cf0e cd3d e370 3fbd 8f73 cb3c
000000d0: 5d87 863d 3620 a03c ef10 503d b0ff a9bd
000000e0: 4e71 91bd 0739 c0bb a1a7 243d 90e3 67bd
000000f0: 14a0 063d 3e14 aa3d 18e6 d23d 1d29 593d
0.0556721 0.030187871 -0.009348141 0.003345562 0.006015591 0.06426976 0.052722994 -0.059707846
0.060185075 -0.030298425 0.04707302 0.07878606 0.061914403 -0.033388477 0.013952588 0.03948613
-0.05628604 -0.0060201003 0.026658103 0.04372753 0.01712182 0.056293037 0.03138806 -0.016339201
0.01606836 -0.08132488 -0.0030666268 0.068008125 -0.08052204 0.09757508 0.028247392 -0.059028603
0.0928139 0.0037781356 -0.02716037 0.066951215 0.021796891 0.06177808 -0.08064854 0.0060627456
0.025484445 -0.017305728 -0.05095854 0.09847221 0.06479142 -0.023110416 -0.034717068 0.026924815
0.018891709 0.1001259 -0.046738517 0.024835376 0.06568787 0.01954661 0.0507974 -0.08300722
-0.07101689 -0.005866173 0.040198926 -0.056613505 0.032867506 0.08304642 0.10297793 0.053017724

action_head.weight f4 [5, 64]
00000000: 4810 d33d 2be1 a73b 58e3 07bd 50a2 6f3c
00000010: 2ac2 c43d ac16 dbba ba5a ecbd c849 803d
00000020: 4c02 c13d 7081 55bd 4e66 e63d c301 0dbe
00000030: 3b00 84bc beab b4bd 39d3 5f3d a5eb c4bd
00000040: 3801 143d 31a1 543d ed35 473d 2c1c a33c
00000050: 5388 8b3d 6c91 be3c b209 06bd ebae f63d
00000060: 6993 4f3d a820 b0bc 30a8 f2bd 23ad 8abd
00000070: cd9c 0d3d 5e17 b0bd 10ac 43bd 5527 773c
00000080: 8480 49bd f9de 923d 08b2 af3d f4dd 7f3d
00000090: b17d a5bd 31c0 913d aca4 253d ce00 5ebc
000000a0: ff9f d5bd 9ca2 763d 5128 60bc fc76 a9bd
000000b0: e473 15bd 9255 cd3d 2400 b2bd 6e0c 913d
000000c0: 0df6 d0bd a970 86bd 88c7 49bd 51d0 dcbd
000000d0: 999b af3c 09c5 b4bc ef75 f4bd 72b2 143d
000000e0: 766c 66bd bce7 a1bd d371 b5bc 133e c33d
000000f0: 0426 093c 9826 a83d 0ac5 953c bd35 84bc
00000100: 648f a7bd b9d3 f8bc b0fa 093d 75e9 59bb
00000110: bf54 4b3d 4364 683c 3fa7 02bd 0e80 ddbd
00000120: 04c0 47bb 4508 ab3d 3b0a 9fbd 623d b3bd
00000130: 6e2d 3fbd ef42 e13d 6c56 ee3d 99fd 16bd
00000140: e041 8d3d 787c 3a3c b980 12bd 26c3 3bbd
00000150: cc3e 82bd 6648 38bd a82a d33d 70fd a7bb
00000160: 8281 2abc da29 b83d 33d4 773d 00e6 c7bd
00000170: 91df 303d 180b a8bc 06d0 49bd e456 ce3d
00000180: 746a 7cbd 81ad f33d 0f16 393d c77c 05bd
00000190: fe77 10bd f566 d83d 2677 b23d 5b35 3bbd
000001a0: 7a06 683d 0457 5d3d 5f70 db3d de15 06bc
000001b0: e195 1ebd 82b3 a33d 310e 67bd 05a0 943d
000001c0: 1f36 6f3d 361c ad3d 8cce 073e 3857 013e
000001d0: 0388 ff3d dad5 ad3d 8a41 8a3d be55 d2bd
000001e0: 9cfc a63c 855a a63d 844f 543d 3450 ba3d
000001f0: 766e 9bbd b592 1cbd fcd8 483d 5fd8 0c3e
00000200: e683 11bd d31d 603b 36fd 793d c557 c6bd
00000210: 763f 07be 855c 423d 655e 023c 5ed5 d6bd
00000220: 3351 42bc 4701 433d d921 6d3c d265 5ebd
00000230: f355 64bd d2b0 9a3d 712b cd3d 910b 55bd
00000240: c283 f3bd 9bd7 ad3d 2189 353d 3128 c2bd
00000250: ee6e 98bd 3864 d73c c2ec b33d 1be7 3ebd
00000260: 4210 14be e020 76bc bdb0 353d 8eb2 c8bd
00000270: 1dd7 a43d 3a89 efbc ea6a 72bd cf8b f5bd
00000280: c398 13be db21 b23d 148b d43d f438 b9bd
00000290: 9f1c 0bbe 53cd 16be 2c52 08bd 62cf 9d3d
000002a0: d13a 82bd ec7a 8e3d b157 dfbc aa70 60bc
000002b0: f46d 1bbc adc7 a13b 349a efbd 6ad3 a23d
000002c0: 9030 dfbc ecbf 463a 6008 c8bd c7f1 14bd
000002d0: 38c2 9dbc a33d a5bd b352 af3c 6140 6e3d
000002e0: 29ff 223d c0e6 073c f696 0ebc 18de c2bb
000002f0: ef47 95bd 6cf4 413d b729 6dbd c8a2 1c3d
00000300: 00a2 1dbd 6b16 0d3e 63e3 dfbd 4949 46bd
00000310: 5196 013e b084 4bbd 7937 f63d d5e2 f33c
00000320: 3c5d f1bd d84b 2bba b014 78bd b682 ad3d
00000330: e654 a13d d6a5 0f3e a87a 763d 8ebc c93d
00000340: 8885 3abd b9dc 69bc 549e 1fbd b0e1 ba3c
00000350: b06e f53d f573 733c a3f0 6e3d ece4 c6bd
00000360: e87c b23d 6ed9 ebbd 7da5 883d a26f a2bd
00000370: fca8 9abd 36b0 8fbd fbea 6cbd 2632 edbc
00000380: 012f 96bd 843d 803c 7fc1 553d e55a f33c
00000390: 8a67 68bc aa48 ad3d 4cc5 ea3d 860e 95bd
000003a0: d26c 75bd 6e5e efbd d812 8c3c 0e7e 9d3c
000003b0: a1cd 8cbd 4159 073e 95a0 503d 5ce2 d73d
000003c0: 56d3 f3bc 1508 47bd 6587 1c3c ec75 a9bd
000003d0: 60e3 933d 72b8 c2bd b252 f3bc 321e 253d
000003e0: e881 82bd fb99 d4bd a63c 173d 668c cdbd
000003f0: 9c2e 863d 13a6 9cbc 8610 583d c546 c83c
0.1030584 0.0051232777 -0.033175796 0.014626101 0.09607346 -0.0016715131 -0.11540742 0.06264073
0.09424266 -0.052125394 0.11249982 -0.13770203 -0.016113391 -0.0882182 0.054644797 -0.09615258
0.036133975 0.051911537 0.048635412 0.019910894 0.06813111 0.023262702 -0.03272409 0.12045082
0.05067769 -0.021499947 -0.118484855 -0.067713045 0.034573365 -0.08598207 -0.047771513 0.015085061
-0.049194828 0.07171435 0.08578879 0.06246753 -0.08080614 0.07116736 0.040440246 -0.013549997
-0.104309075 0.06021367 -0.013681487 -0.082746476 -0.036487475 0.10026087 -0.08691433 0.07082449
-0.102031805 -0.06564457 -0.049262553 -0.10781921 0.0214365 -0.02206661 -0.119365565 0.03630299
-0.05625578 -0.07905528 -0.022149002 0.09533324 0.00837088 0.08210486 0.018282432 -0.016138906
-0.081816465 -0.030374395 0.03368634 -0.0033250723 0.049641367 0.0141840605 -0.03189778 -0.1081544
-0.003047944 0.08351187 -0.07765623 -0.08751942 -0.046674185 0.10999095 0.116375774 -0.036862943
0.0689733 0.011382215 -0.03576729 -0.045840405 -0.06359634 -0.04499092 0.103108704 -0.0051266477
-0.010406854 0.089923576 0.060505103 -0.09760666 0.04318196 -0.020513102 -0.049270652 0.10075167
-0.06162496 0.118983276 0.045187052 -0.0325897 -0.035270683 0.105665125 0.08714132 -0.04570518
0.0566468 0.054038063 0.107147925 -0.0081839245 -0.038717154 0.07993223 -0.05641002 0.07257084
0.058401223 0.084526464 0.13262385 0.12630928 0.12477114 0.084880546 0.06750782 -0.1027026
0.020384125 0.08122734 0.051833645 0.09097329 -0.07589428 -0.03822585 0.049035057 0.13754414
-0.03552618 0.0034197464 0.061032496 -0.096847095 -0.13207802 0.047451515 0.007957076 -0.10489915
-0.01186018 0.04760864 0.014473402 -0.054296322 -0.05574603 0.07553257 0.100180514 -0.052012984
-0.11890365 0.08488389 0.04432023 -0.09480322 -0.07443033 0.026292905 0.08785392 -0.046607118
-0.14459327 -0.015022486 0.044358004 -0.097996816 0.08048842 -0.02924024 -0.059183992 -0.11989557
-0.14413743 0.08697864 0.103780895 -0.09044066 -0.13585137 -0.14726762 -0.03328149 0.07705571
-0.063588746 0.06957039 -0.027263494 -0.013698736 -0.009486664 0.0049371333 -0.11699334 0.0795048
-0.027244836 0.0007581699 -0.097672224 -0.03636339 -0.01925765 -0.08068397 0.021401739 0.058166865
0.03979412 0.008294761 -0.008702984 -0.005946886 -0.07289111 0.04735224 -0.05790111 0.038241178
-0.038484573 0.13778083 -0.109320424 -0.048409734 0.12654997 -0.049687088 0.12022299 0.029771248
-0.11785361 -0.0006534434 -0.060566604 0.08472197 0.07877521 0.14028105 0.060175568 0.09850417
-0.0455375 -0.014273816 -0.038969353 0.022812694 0.119840026 0.014859189 0.058334958 -0.09711632
0.0871523 -0.11516081 0.066721894 -0.079314485 -0.075517625 -0.070160314 -0.057841282 -0.028954577
-0.07333184 0.015654333 0.052186485 0.029706428 -0.014184842 0.08461125 0.11463413 -0.07278161
-0.059918232 -0.11687933 0.01709883 0.019225147 -0.06875158 0.13217641 0.050934393 0.105412215
-0.029763859 -0.048591692 0.009553765 -0.08274445 0.07221103 -0.095078364 -0.029702518 0.040312
-0.06372434 -0.10380932 0.036923073 -0.100365445 0.06551859 -0.01912216 0.052750133 0.024447808

action_head.bias f4 [5]
00000000: 6f86 be3c 152c 363c a3de fcbc 902f e23d
00000010: 124d 0f3d
0.023257462 0.011118908 -0.03086788 0.11044228 0.03498561

value_head.weight f4 [1, 64]
00000000: 1106 cabd 9e05 db3d 75d3 b53d 8c11 c03d
00000010: 2b69 1b3e 6941 1dbe 851d 233e 996b de3d
00000020: 3ba5 d03b 6f84 e43d a22e 9cbc 1bb6 e93d
00000030: 38fc 293e ef07 29be e2c9 32be 6f92 ae3d
00000040: c0d4 033d cb84 44be b305 a0bd acbd a33d
00000050: 90f7 e03d 14f1 293d 2a3b a2bd fb0b 83bd
00000060: 6b32 4fbd 8022 c33a 5e4c 8c3a 754d 013e
00000070: 0c0d 45bd 375f 34be 3b57 edbd 89ac db3d
00000080: 901b 29be b518 19be 2f97 11be 53fe b93d
00000090: c4b2 59bd a077 053e 20dc c53d e472 8ebd
000000a0: bd90 c5bd 834d ce3d fd1a d43d 3f5f d6bd
000000b0: 08f6 99bd a700 d33d 857e 4d3d 68d2 103e
000000c0: 9cb4 0d3d b528 46be 8f95 223e d819 f8bd
000000d0: 577f 14be 2491 113e 1116 0e3e 7fa5 0d3d
000000e0: d2e5 9d3d 763b f3bd d7ce 2dbe 6e81 55bd
000000f0: 6337 bebd 26d1 06be 13dc 09be fa47 3bbe
-0.09864438 0.10694431 0.08878223 0.09378347 0.15176837 -0.15356983 0.1592923 0.108603664
0.0063673533 0.11158072 -0.019065205 0.11411687 0.1660012 -0.16506933 -0.17459825 0.08524024
0.032185316 -0.19191281 -0.07813587 0.079951614 0.10984719 0.041489676 -0.07921441 -0.063987695
-0.05058519 0.0014887601 0.0010703912 0.12627204 -0.048108146 -0.17614447 -0.115889035 0.10726268
-0.1651442 -0.14950831 -0.14217828 0.090817116 -0.053149 0.13033915 0.09661126 -0.069555074
-0.09646747 0.10073378 0.1035671 -0.104673855 -0.0751763 0.10302859 0.050169487 0.14142764
0.03459607 -0.19351466 0.15877365 -0.12114304 -0.14501701 0.14215523 0.13875605 0.034581657
0.0770985 -0.11876576 -0.16973434 -0.052125387 -0.09287908 -0.13165721 -0.13462858 -0.18289176

fc1.weight f4 [128, 147]
00000000: 56ff ea3c c8a2 6c3d ef8d 033d 3b6a 0a3d
00000010: 7e4f cd3d 71e0 823d 87f0 34bd c537 023e
00000020: 839d 4b3d e9e6 ba3c 8442 d4bb a6e4 5fbd
00000030: 95e6 31bd f561 79bd 520f 7b3d 8970 15bd
00000040: 9564 1fbd 2a36 553d 33df 203c 7ad0 c63d
00000050: d92b 8b3d cb03 1c3d 3f1e 2f3c 9006 33bc
00000060: 0639 9fbd cc7f f93c 52f9 863d 9c43 45bc
00000070: e7d9 bfbc ed71 8d3d a862 9e3c afc7 723d
00000080: 9ec8 903d 2c6d 633b b7b4 973c 0360 b73d
00000090: 1118 cabc 00f4 f13d 76a1 973d 80ac 59bd
000000a0: 3aa1 ab3c 12e2 143c 9e0e 23bc 1d39 c6ba
000000b0: 7c42 033d c947 ce3c 207b be3d d14c f1bc
000000c0: a968 4abd c08e 853d 51bb a03d 3561 d8bd
000000d0: 5510 c63d e8cf 8e3d 3701 16bd 194e 073d
000000e0: 41bc 653c cfc2 363d 02bb 3d3d 05bf 7cbd
000000f0: c61f ea3b 4e48 623d eb66 71bc b8b0 353d
00000100: 81c2 8a3d 8cd0 be3c f742 a5bd f616 a53c
00000110: b5bf 223c 6ab3 b339 e04b 94bc 1808 4d3d
00000120: daa7 44bb d8b2 4c3d 55fe 67bd 3aa2 37bd
00000130: 1a19 11bc 4ff5 b1bb 1eae c63c 3dc4 543d
00000140: 0328 873b a73a e2bc f93f c83d f43c 033d
00000150: 4620 53bd 74df 8bbc 96a6 a93d 5fda 80bd
00000160: 8978 b73d 89b7 c33d 83e7 c83b afdd 163d
00000170: e3f6 be3d ae9a 74bd ba26 9e3d 6757 133c
00000180: 3f63 a7bd 5437 fd3c 2f9f a93c 84a4 dd3c
00000190: 7723 78bc 9945 c33b d49f 893c 8dd8 a63d
000001a0: 9bf1 bc3a 8e55 bb3c 36b8 d23d ac56 393c
000001b0: 9f8a a0bd e61a a63d 7459 7cbb d75a d83c
000001c0: 9623 b03d ece9 043c 1d39 adbc d88c 383d
000001d0: f783 f1bb 97c7 443c 5821 8dbc 11da 3fbc
000001e0: 51b8 a4bd cf8d d7bc 7b15 c7bb 4613 3fbd
000001f0: 72cd 313d 41d1 bf3c 9cc1 473d 1ef6 ebbc
00000200: 71ed cd3a b80e 4ebd 4c71 1a3d 1bb9 3ebd
00000210: df95 013c 3470 973d b977 3ebd a1bb 2a3d
00000220: 4318 c03d 01d6 bb3d 86d3 89bc 2cee 23bd
00000230: 5dd2 803d 01f5 f5bc b598 34ba 0a9c 323d
00000240: 336e 56bd 58f0 53bd c76a 54bd fc3f 2a3d
00000250: b566 a83b d29c 52bd 4976 93bc 6772 a43c
00000260: 75ef 3c3d 32aa 753c 7459 f8bc 4550 813d
00000270: a78b 1c3d eb4c 36bd 63f2 74bd e9f3 aabc
00000280: a473 983b f946 0bbd dcd1 093c debf 96bd
00000290: 612f 94bc 7f0b 943d ac0a dcbc 8ff6 87bd
000002a0: 9844 913d 22f8 043d 3d51 87bd 42ea c63b
000002b0: 60c2 063d fb62 b73c 51ed 91bd 3166 573c
000002c0: 0fcb d3bd 8fba abbd def9 9fbd 4fd6 26bd
000002d0: 82aa 563a bc26 093b c597 433d a572 32bc
000002e0: c853 c2bb 318e 753c 3b44 89bd 5181 e9bc
000002f0: 2f1e 473d 6504 6abd 5f2d 99bd 9d7c b7bc
00000300: 957d e33d 4cf2 db3b 538c f83c ad7a cc3d
00000310: 78fb 16bd c29b 783d 2161 9c3d ee63 a5bd
00000320: 0ab5 b83d a0d4 2bbd 756e cc3b b1ed 303d
00000330: ec18 a33b 71bb 30bc 8b36 92bd 3546 3c3c
00000340: 0ece a6bb 5616 25bd 8a5d 85bd a575 7dbb
00000350: 9d46 ba3c b9b5 24bd ba73 debc 3a24 e1bc
00000360: 1858 96bd 6a56 b73c a01e 96bd 5240 b8bc
00000370: 16d1 32bd e1bc 473d 92dc f93c 8f6e 9a39
00000380: 8771 b1bb 17f2 ab3c e9a6 88bc 4136 51bd
00000390: f5fb 843c e6e3 b13c 9fe6 e5bc e5c8 ab3d
000003a0: 964e 343d bd31 8fbd bd6b ae3d 44f7 a8bd
000003b0: 83d9 bebd 9180 9f3d 1bbe 96bd 378f 8d3a
000003c0: c897 4d3d 5435 30bd 4151 043c 3831 113d
000003d0: bdd0 9abd cd69 843d ec09 d23c ebd5 3e3d
000003e0: 4d9b 2bbd 2e67 d7bc c670 ea3c fdd7 abbc
000003f0: 9e54 5ebd 05a8 513b aac1 f2ba b4fd 1a3c
0.028686207 0.057772428 0.03211778 0.033792716 0.100249276 0.06390465 -0.044174697 0.12716587
0.04971076 0.022815185 -0.006477656 -0.054661416 -0.04343279 -0.060884435 0.061293907 -0.036484275
-0.038914282 0.052053608 0.00981884 0.097077325 0.06795473 0.038089555 0.010688364 -0.010926858
-0.07774548 0.030456446 0.06590523 -0.012040045 -0.023419334 0.06906495 0.019334152 0.059272464
0.07069515 0.0034702523 0.018518789 0.0895386 -0.024669679 0.118141174 0.07403843 -0.053143024
0.020950902 0.0090871025 -0.0099522155 -0.0015123222 0.032045826 0.025180714 0.09300828 -0.029455574
-0.049416218 0.06521368 0.07848228 -0.10565416 0.09671084 0.06973249 -0.036622252 0.033033464
0.014021934 0.044619378 0.046320923 -0.061705608 0.007144901 0.055244736 -0.01473401 0.044357985
0.0677538 0.023292802 -0.08069413 0.02015255 0.009933402 0.00034275214 -0.018102586 0.050056547
-0.0030007274 0.049975246 -0.056639034 -0.044832446 -0.008856082 -0.0054308544 0.024252947 0.05194496
0.004124643 -0.027615858 0.09777827 0.03204055 -0.05154445 -0.017074324 0.08283727 -0.06291651
0.08958537 0.09556491 0.006131114 0.036832508 0.09324434 -0.059717827 0.0772223 0.008993006
-0.081732266 0.030910172 0.020705787 0.027055986 -0.015145174 0.0059592244 0.016799845 0.081467725
0.0014415266 0.022867944 0.10289042 0.011312168 -0.0783894 0.08110599 -0.0038505467 0.026410503
0.086005375 0.008112412 -0.021145398 0.045056194 -0.0073704678 0.012010477 -0.017227814 -0.011709706
-0.08042968 -0.026312737 -0.0060755587 -0.04664924 0.04340882 0.02341521 0.048768625 -0.028803881
0.0015711022 -0.050307006 0.037705705 -0.04656325 0.007909267 0.07394448 -0.046500895 0.041682843
0.093796276 0.091716774 -0.016824495 -0.04002206 0.062901236 -0.030024054 -0.000688921 0.04360584
-0.052351188 -0.05174288 -0.051859643 0.041564927 0.0051391968 -0.051419087 -0.018000739 0.020074083
0.0461268 0.014994191 -0.030316092 0.06314138 0.03821912 -0.04450695 -0.05980147 -0.020868259
0.0046524573 -0.03400323 0.008411851 -0.073608145 -0.018088998 0.07228755 -0.026860557 -0.06638824
0.07093161 0.0324632 -0.06607292 0.006070406 0.032900214 0.022386065 -0.07125343 0.013146923
-0.10341465 -0.083851926 -0.0781133 -0.040731724 0.000818886 0.0020927629 0.04775216 -0.010891591
-0.0059303977 0.014987514 -0.06702467 -0.028504046 0.04861277 -0.057133097 -0.07479357 -0.022398287
0.11107937 0.0067122336 0.03034035 0.09984336 -0.036860913 0.060695417 0.07635713 -0.08075701
0.090189055 -0.041950822 0.0062387534 0.04319543 0.004977336 -0.010786877 -0.071393095 0.011491348
-0.0050904816 -0.040304504 -0.06511982 -0.0038674858 0.02273875 -0.040212367 -0.027154792 -0.027483094
-0.07341021 0.022380073 -0.0733006 -0.022491608 -0.04365643 0.048764113 0.030500684 0.00029455542
-0.005415145 0.02098946 -0.016681151 -0.05107713 0.016233424 0.021715116 -0.02806407 0.08387927
0.044020258 -0.06991909 0.08516643 -0.08250287 -0.09318831 0.07788194 -0.073604785 0.0010800128
0.050193578 -0.043019608 0.008076013 0.03544733 -0.07559345 0.064654924 0.025639497 0.046590727
-0.041896153 -0.026294317 0.028618228 -0.020977015 -0.054279916 0.0031991017 -0.0018520851 0.009459902

fc1.bias f4 [128]
00000000: 0f01 693d 60e7 0b3c 5a79 38bd 103c 7fbd
00000010: ac45 453d cbcd 193d 7e0e 23bd 4be2 963d
00000020: 56cc 37bd 3dde dc3c aaf4 8e3d 8da6 bbbc
00000030: 65ee a03c 3328 96bc 79b4 cbbb aeb1 80bd
00000040: b117 9d3d a8d2 9a3d 5da9 7abd ccb0 c03d
00000050: 38c0 e93d dd96 65bd eb57 2ebd ee40 73bd
00000060: 7fec 8a3c 969e b13d aeb6 db3d ee0b 713d
00000070: cb60 17bc c9c7 7abc 273c 8f3d f26d 54bd
00000080: a63a 57bd 1d24 5f3d 2127 f5bc 4a41 0f3d
00000090: 407c 683d 8468 33bd 66cd 82bb b106 39bc
000000a0: 7138 423d 9940 983d ada7 433d 4388 f3bc
000000b0: a619 10bb 963e 893c 9092 f53c 6dcb c43d
000000c0: 0f29 c43c 06d9 613d 50a2 6c3d 8367 be3d
000000d0: 50f4 c03d 3dc0 2bbd 8642 933c 271c 5b3d
000000e0: 09b7 a13b f8fd 70bd 458a 94bc 2be6 523c
000000f0: 9fdc 8d3c 1a80 083d 2c32 363c 94cb 623d
00000100: c739 a23d 67ec 8d3d 7f41 9f3d 5ed9 1cbc
00000110: 0efc b0bc 2d1b 19bb c6c2 2d3d 36c2 5b3c
00000120: 7f7e 27bd 90d2 9dbc 5c1a 003b 9544 36bd
00000130: 70b8 9fbc 7d23 733d a250 acbc 3ec7 193d
00000140: b7a3 d13d b8b1 1e3c 3bc5 253d 2116 4abd
00000150: b396 823d 03bb 7c3d c510 d0bc 713b cd3c
00000160: bab7 993d e19f d63d c439 22bd 4ca2 08bc
00000170: dcd2 50bb 2899 46bb b21f 9e3d 199b dcbc
00000180: a7a9 0f3c cab5 98bb 745f e13c dbd4 f03c
00000190: 19ac 903d fe1c bf3d 96f4 f23c fe15 8f3d
000001a0: 9711 ba3d a050 ca3d b6a9 fabc 29e0 953d
000001b0: 1301 7c3d de63 82bc 8353 863d 3b92 3bbd
000001c0: b6bf 4ebc 453d 1b3c 0dfb 833d 6542 7dbc
000001d0: cee9 653d dec4 9c3c 29bb c93d 677e 6f3d
000001e0: 148b 00bd 1aea 903d b0d9 fa3b 0b38 a23c
000001f0: 1cef 69bd c629 883d da0b 8c3d 5976 8b3d
0.056885775 0.008539051 -0.045037605 -0.06231314 0.048162147 0.037549775 -0.039808743 0.07367381
-0.044872604 0.02696144 0.0698026 -0.022906566 0.019644925 -0.018329715 -0.0062165824 -0.0628389
0.076705344 0.07559711 -0.061196674 0.09408721 0.11413616 -0.056052078 -0.042564314 -0.059388094
0.016958473 0.08672826 0.10728203 0.058849268 -0.009239386 -0.015306422 0.06993895 -0.051862665
-0.052546166 0.0544778 -0.029925885 0.034974374 0.05675912 -0.043800846 -0.0039917706 -0.011293099
0.047417108 0.07434196 0.04776733 -0.02972806 -0.0021987944 0.016753476 0.029977113 0.09609113
0.02394536 0.05513861 0.05777198 0.09297087 0.09421599 -0.04193138 0.017976057 0.053493645
0.0049351496 -0.058835953 -0.018132338 0.012872259 0.017317114 0.033325292 0.01112036 0.05536993
0.079211764 0.06929856 0.07776164 -0.009573309 -0.021604564 -0.0023362145 0.04242208 0.013413003
-0.04089212 -0.019265443 0.0019546961 -0.044499 -0.019497126 0.059360016 -0.021034542 0.037543528
0.10236304 0.009685926 0.040471297 -0.04933751 0.063764 0.061701786 -0.025398621 0.025052758
0.07505746 0.10479713 -0.03960587 -0.008339476 -0.0031863963 -0.003030369 0.07720889 -0.026929425
0.008768476 -0.004660343 0.027511336 0.029398372 0.07064075 0.09331702 0.029657643 0.069866166
0.09085386 0.09878659 -0.030598503 0.07318146 0.061524462 -0.015916761 0.06558897 -0.045793753
-0.01261895 0.009475057 0.064443685 -0.015457724 0.056131177 0.019136842 0.09850151 0.058470156
-0.031382635 0.07075901 0.007655345 0.019802114 -0.057112798 0.06648593 0.06838198 0.068096824

fc2.weight f4 [64, 128]
00000000: 5bf2 b13d f834 d1bc 617e 0abd 52d8 683d
00000010: aeb5 0bbd 98b7 a2bc 427a a5bd 269a 4d3d
00000020: 701f ba3b d0bd babb ee0e 5c3d b290 b0bd
00000030: c464 e2bc aa9d 513d 24f5 8fbc 5aef 2f3d
00000040: 3e2c 5abd f0ac db3b 9045 b53c 6f5f 2fbd
00000050: 9666 aabd d240 583d 0cbe ddbc 31a3 973d
00000060: 0efc b3bd cf19 26bd 7237 1b3d 6446 88bd
00000070: 8079 743c 39be 39bd d8ef 77bc d8f3 31bc
00000080: 6d74 44bd 90a6 a93b 5c34 b2bd 979a 2bbd
00000090: 00e2 c9ba ad72 b13d a22d 423d e0c1 0ebb
000000a0: 9234 9bbd 8f11 58bd 8d86 893d 3e22 4e3d
000000b0: 30ae 633c b0c0 bf3b d7d7 91bd 5257 7ebd
000000c0: e4c4 8ebd cd67 823d d796 a5bd cd71 a1bd
000000d0: ee84 683d 5858 d1bc bb24 823d 382a a6bc
000000e0: 3053 97bb 28ef 7abc 52e2 023d 1df4 833d
000000f0: 9bd0 20bd 52b1 dcbc ab1a a93d 84de d43c
00000100: b0a6 16bd c8fe 83bc b880 bebc 367d 573d
00000110: f6de abbd bcc3 8dbd 006a 9ebd 9266 1c3d
00000120: feb9 95bd 805d b83c 39fe 9b3d c7da 963d
00000130: 7a10 6dbd 1e8b 87bd e327 5fbd d4cd d03c
00000140: f928 913d cfe7 b0bd bf87 5abd 8d8b 99bd
00000150: a5d9 8fbd 02d0 6d3d 68ab 5b3c 9666 473d
00000160: f679 96bd cdb4 86bd f1e2 aebd a094 f03c
00000170: ca27 7f3d 3041 87bc 0d5f 24bd 20b9 a1bc
00000180: 8adb 7e3d 43c3 abbd 496e 1abd 738c 883d
00000190: b1b3 57bd fccd fe3c 0ee2 7ebd 5867 f03c
000001a0: cbd6 943d 62c4 633d 7ced 60bd 5619 4b3d
000001b0: 20e4 46bb e603 83bd 601b 7cbb 1656 643d
000001c0: 48d9 7f3c d0dc c7bc 383a 243c 5849 7a3c
000001d0: ced0 1cbd c64e 453d 74ad 84bc 83a8 853d
000001e0: ce1e 563d d98a ae3d 06a5 623d 6640 91bd
000001f0: 08f8 85bc 9264 313d c8b1 1fbc f08e f6bb
00000200: 3c52 af3d e05c 22bc ecb6 d63d eb43 7a3d
00000210: daa7 933d 4832 ac3c 8bc7 ab3d b1dc ddbd
00000220: edd3 3f3d 2221 4abd 7296 52bd e61b 8cbc
00000230: c10a 22bd 75d7 863b 0598 3cbc c4c9 063d
00000240: c6f2 c7bd 90bc 54bd 6d89 373d eb99 efbc
00000250: e587 853c 120f 90bd 0144 e13c 3693 1bbd
00000260: 2828 843d 3da9 d63c 93eb cdbd 6e56 8ebd
00000270: 106e bb3d 74ab f63d b330 983d 427c 8bbd
00000280: 2cc0 b23c 8872 8bbd 0eed ed3d 7e59 adbd
00000290: c73e a53d 8cf0 42bc 7fbd 6cbc 48ff a73d
000002a0: c45f 1dbd 689e bfbd e2dd 4b3c a1cf 813d
000002b0: 67c2 8c3c 4baf 9cbc 847c 223d 18b5 233d
000002c0: 1174 e33d 87fb a63d fe8f 7b3d 3d90 883d
000002d0: 3afb 8b3d 6ac8 f5bc c8bd b83d b205 c3bd
000002e0: c53f ebbc 9cca 193d 342c 04bd 9bb2 e3bc
000002f0: 425a c9bd 6ed7 713b 7ec5 c73d b2cc cd3d
00000300: 27b4 f83c ac74 4fbd 2e8f 95bd 7091 8bbd
00000310: b494 8b3d 699d 1dbd 4ab9 963c 13d9 b8bd
00000320: 175f d93c e13d 1b3d 2931 ca3d ce9b 3f3c
00000330: c630 a63c aa85 b3bc 6873 65bd 0dbb 923d
00000340: 3408 e33b ae25 dcbc 0730 ca3c 89fd 80bd
00000350: a771 083c ee0f 033d d1b5 adbc 4603 423d
00000360: 252e 9cbd feaf 23bc e459 41bd eaae 233d
00000370: a588 5fbd 10b0 9dbc e590 ba3c 5e52 ab3d
00000380: a802 c23d d0ae ddbd 2e09 e6bb 1ebb 37bb
00000390: e560 9f3d 7f93 3fbd 6d9c 853d e30b 30bd
000003a0: e800 0e3d 53e9 d23c 62c1 a83d a3e0 03bd
000003b0: bc60 7f3d a816 013d 3dba 54bd e935 bd3c
000003c0: 4cf0 87bc 9003 103d 58d9 3d3d f443 8e3b
000003d0: ab13 85bd 2690 873b 578d 873d 9803 6d3d
000003e0: 03c8 3cbb e957 ac3d eaa0 02bd 1e8f ef3d
000003f0: afdb bbbb cae3 b33d 7e8a 863d 3bc8 51bc
0.08688804 -0.025537953 -0.03381193 0.056846924 -0.03410881 -0.019862935 -0.080799595 0.050195836
0.005680017 -0.005698897 0.053725176 -0.086213484 -0.02763594 0.05117575 -0.017572947 0.042952873
-0.05326485 0.0067039654 0.022127897 -0.042815622 -0.08320348 0.052796192 -0.02706816 0.07404173
-0.0878831 -0.040551957 0.037894674 -0.06654051 0.014921546 -0.045347426 -0.015132867 -0.01086136
-0.047962595 0.0051773265 -0.08701393 -0.041895475 -0.0015402436 0.08664451 0.0474068 -0.002178304
-0.07578386 -0.05275112 0.06715117 0.050325625 0.01389651 0.0058518276 -0.07121246 -0.062094994
-0.06971148 0.06367455 -0.08085411 -0.07883034 0.056767397 -0.02555482 0.06354662 -0.020283803
-0.004618071 -0.015315808 0.031954117 0.06443045 -0.03926144 -0.026940022 0.0825704 0.02598501
-0.03678006 -0.0161127 -0.023254737 0.052609645 -0.08392136 -0.06922099 -0.07735062 0.038183756
-0.07310866 0.022505522 0.076168485 0.07365947 -0.05787704 -0.066183314 -0.0544814 0.025488771
0.07087893 -0.08637964 -0.053352114 -0.0749732 -0.07023934 0.0580597 0.013407566 0.048681818
-0.07347481 -0.06577454 -0.085393794 0.029367745 0.062293805 -0.016510576 -0.04012971 -0.019741595
0.062221088 -0.083868526 -0.037702832 0.066674136 -0.0526616 0.03110408 -0.0622273 0.029346153
0.07267531 0.055607207 -0.054913983 0.04958471 -0.0030348375 -0.06397228 -0.0038468465 0.05574616
0.015615769 -0.024397284 0.010023646 0.015276276 -0.03828507 0.048170827 -0.01619599 0.06526282
0.05227547 0.08522577 0.05533316 -0.07092361 -0.016353622 0.043308802 -0.009746976 -0.0075243637
0.08560607 -0.009909838 0.10484108 0.061099928 0.072097495 0.02102007 0.08387669 -0.10833109
0.046832968 -0.049348004 -0.051413007 -0.017103147 -0.039561037 0.00411504 -0.011510854 0.032907262
-0.09763102 -0.05193764 0.044808794 -0.029248198 0.016300151 -0.070341244 0.027498247 -0.03798219
0.06452972 0.026203746 -0.10054698 -0.06950079 0.09151852 0.12044421 0.07431164 -0.0681081
0.02182015 -0.068089545 0.1161748 -0.08464335 0.080686145 -0.011898171 -0.014449476 0.08202988
-0.038421407 -0.093563855 0.012443038 0.0633843 0.017182542 -0.019126555 0.03966953 0.039967626
0.11106122 0.08153444 0.06141662 0.06668136 0.06835027 -0.030002791 0.09020573 -0.09522571
-0.028716931 0.03754674 -0.032268718 -0.027795127 -0.098316684 0.0036902088 0.097544655 0.10048808
0.03035934 -0.050648376 -0.073027 -0.068148494 0.06815472 -0.038480196 0.0183989 -0.090257786
0.0265346 0.03790081 0.09872658 0.011694862 0.020286929 -0.021914322 -0.056018263 0.07164583
0.006928468 -0.026873436 0.024681104 -0.06298358 0.008327878 0.031997614 -0.02120486 0.047366403
-0.07625989 -0.00999069 -0.047204867 0.039961733 -0.054573674 -0.019248992 0.02277417 0.0836532
0.09473163 -0.108243585 -0.0070201373 -0.0028035115 0.07782153 -0.046771523 0.065239765 -0.042980086
0.034668833 0.025746023 0.0824001 -0.032196652 0.062348112 0.031515747 -0.051935423 0.023096995
-0.016594075 0.035159647 0.046349853 0.0043415967 -0.06497892 0.004137057 0.06618755 0.057864755
-0.002880574 0.08415205 -0.03189174 0.11697219 -0.0057329754 0.08783682 0.06569384 -0.012804086

fc2.bias f4 [64]
00000000: b616 9ebd 0351 8e3d 7c22 8bbd 9160 f63b
00000010: 920a 2cbd 67a7 363d e890 453d 7d2a b43b
00000020: 6a35 6fbd fef0 b73c 2d2b 843d bc68 b0bd
00000030: a1ad a93d 4db5 12bd d690 3f3d 890b 5a3d
00000040: 9044 963d 000a 1abd 3251 0e3d 79f9 003d
00000050: 7f33 95bd 4213 913c a9f1 04bc daf5 9a3d
00000060: e289 743d a253 f33c 8a04 533d 3f53 0ebd
00000070: 7aa7 853c e200 88bc 4380 8b3d 64bd 9cbd
00000080: b827 5c3d f109 463d 19a4 523b bb0f 923d
00000090: 81de 063d f433 9d3d cd8b adbd 979d df3c
000000a0: 5b13 e13c f342 3d3d 087d 0ebd f013 a63d
000000b0: 2ea4 733d 894a 023c 7cbb d23c 9db9 943d
000000c0: 7675 b63d 8eb5 b2bd b6f1 813d 67ed 83bd
000000d0: da7f 1fbd c533 67bd e034 30bd 60e4 a5bd
000000e0: 7ddc dc3c 9093 8a3c 03e8 9dbd dc0c 17bd
000000f0: 0939 173b 9a44 dd3c 3e81 0fbc 29e8 11bd
-0.077191755 0.069490455 -0.06793687 0.007518836 -0.042002268 0.04459324 0.048233896 0.005498229
-0.05840055 0.022453781 0.064535476 -0.086137265 0.0828507 -0.035817433 0.046768986 0.053233657
0.07337296 -0.037607193 0.034745403 0.031487916 -0.07285213 0.017709378 -0.008114257 0.07566424
0.059701808 0.029702965 0.051518 -0.03474736 0.01631521 -0.016601983 0.06811573 -0.07653311
0.053748816 0.048349325 0.0032141267 0.071319066 0.03292704 0.07675925 -0.084739305 0.027296824
0.02747505 0.046206426 -0.034787208 0.081092715 0.059482746 0.007952341 0.025724165 0.072619654
0.08909123 -0.08726035 0.06344931 -0.06441765 -0.038940288 -0.056445856 -0.043019176 -0.081002
0.026960606 0.016916066 -0.07710268 -0.036877498 0.0023074767 0.02701025 -0.008758841 -0.035621796

action_head.weight f4 [5, 64]
00000000: ce31 b5bd d71c e9bd 53f1 3dbd 19e0 e0bd
00000010: 500e f03c 3888 a83d 38cb 04bd 3c1a 003d
00000020: c814 8339 f3b3 67bd 9a37 36bd c9fe d83d
00000030: 4a03 383d 6879 85bd 4751 d4bd abf9 b33d
00000040: 3511 3cbd 7b7a 0cbe 93b6 e93d 6520 353c
00000050: fc72 293d 4bdd dcbd 2e08 03be 1938 743d
00000060: 92f9 8e3d 2f8d f23c c8fc febd 3a22 82bb
00000070: ea7f 90bc 856c c7bc dc36 aabd 04e3 583d
00000080: d158 edbd 66d5 28bd a513 db3c 76ae 22bd
00000090: 1e8e 543d c359 34bd b45b 683d a3cc 9c3d
000000a0: 2d73 b33d 9ddb 7a3b 559d 7f3d 8951 fbbd
000000b0: e9fd e4bc 3045 0c3c 240a 243c 47c3 2cbd
000000c0: 0f16 b1bd 30f6 c13d 0f06 f5bd c007 ffbc
000000d0: 1e55 a8bc 475f 923c 96d6 50bc 03ab 023d
000000e0: 7369 a23d 4bd5 6ebc fbb6 723d 2792 95bd
000000f0: 605b c13d 186b edbb 0ab0 a3bd 943a 3bbd
00000100: 60aa 563d 1fd2 103e 4664 a43d 7902 18bd
00000110: 658e d63d e7f3 d33c edba 063e 87d9 c83c
00000120: 384c ef3d 47e7 bb3d 0078 6d3d a348 1d3d
00000130: 1e27 163e 53b5 563d 6bef c3bd 7542 b33b
00000140: 396b abbb 0606 ba3c cbb3 fd3c 320d 303d
00000150: 1b46 34bd c065 99bd d369 52bd 9214 b73d
00000160: 3342 91bb f9c7 a03d 2fc7 a73d 93d1 76bd
00000170: 3728 2cbd 9af8 813d b46c 18bd 0683 443d
00000180: 3346 503d a416 013e c278 4bbd 0247 a5bd
00000190: 5cda 74bd b48e 77bd 09d3 923d 21d8 e8bd
000001a0: 5019 c43d 8a9f 0a3d 9635 a3bd 0307 e63c
000001b0: 7f6c acbd 2825 92bd 3611 da3d de13 123d
000001c0: bb9c 093e 3cf6 de3d 349d 213c fbfa ebbd
000001d0: c528 9f3d 0f9d a7bd 9e39 483d 2f84 e03c
000001e0: 7cc5 c53d c3df 92bd 2a0c 2cbd ec5c 163c
000001f0: e660 f83d 2d7f 883d 98fc 58bc 2743 99bd
00000200: a45f d7bd a73a 93bd 2a4a 86bd 01f3 e1bd
00000210: 8970 643d c786 22bd b46d a3bd 24ee 0bbe
00000220: b701 bcbd 38c5 c5bd 1254 dbbd c8dd e53d
00000230: 2669 e9bd e938 b93d 2770 b7bd d1f2 193d
00000240: 4dce 5fbd 5bda 81bd b317 8cbd 27ef a6bd
00000250: ebbf 08be ca7a c5bd c0cb 17bd bce1 05be
00000260: 4871 05be 5263 a73c b4d5 05be b57b 293d
00000270: 03d3 853d ac2c b33d fd24 fa3c aee8 04be
00000280: a562 3a3d f61b 01be 8817 853c b405 28bd
00000290: bdc5 02be 7de1 3abd 9fb1 f5bb 6058 28bc
000002a0: ea9f 123d 88f1 443d b084 e3bd c207 1d3c
000002b0: 5754 c5bd ec00 e8bd a076 a33d beba 8f3d
000002c0: 432f 653a 9b47 b13d 956c d7bd 34d4 893c
000002d0: 2e7c 0d3b f8da a6bc a8e6 75bd cf9e eb3d
000002e0: 0088 6abc c89d 7b3d 9517 ea3d 9f7b 33bb
000002f0: 1554 943c befa dabd 3c6c 433d 5f62 e4bc
00000300: 2815 5ebd 8f67 183e c80e 033d 2a8c cc3d
00000310: c927 1f3d c782 edbc 8c86 7ebd 56dc 71bd
00000320: 37a9 85bd af98 13bd 0b8e 95bd 708d cabd
00000330: 10c8 c33d 5354 0d3d bc86 0b3e f6b3 b03d
00000340: 625d cf3d f9f7 033d ae39 dabd 4a70 783d
00000350: bef6 90bd 5cd0 a63d 4d66 a83d a55f 9c3d
00000360: 0b3b 4ebd 8dc4 b1bd 3bc1 833d a18a 5d3d
00000370: 6dca e4bd 82d5 f0bb f1b4 133b d9d3 023c
00000380: 6777 be3d 207b d4bd c868 853d c958 cdbc
00000390: ef55 393d 2044 0a3e 6f40 8e3d dcc2 f33d
000003a0: 6559 673d 07f2 733d 65c2 f53d 5fc6 963d
000003b0: d757 c73d d390 153d 1b27 53bd fb35 d63d
000003c0: 7da0 69bd 4295 4bbd 6239 ca3d 81f2 c9bd
000003d0: c017 233d 9b41 2c3d 531b 203c eeb2 003e
000003e0: b57f 56bc 0df6 4a3c c81b 37bd b9f6 d93d
000003f0: 70b5 053e 90b8 50bd 1ebb 8bbd ccea 43bc
-0.0884739 -0.11382454 -0.046372723 -0.10980243 0.0293037 0.08229107 -0.032420367 0.03127502
0.0002500175 -0.056568097 -0.04448662 0.105954714 0.04492501 -0.06517297 -0.10367065 0.08787855
-0.045914847 -0.13718598 0.114117764 0.011055087 0.041369423 -0.10784396 -0.12796089 0.05962381
0.069811955 0.029608337 -0.12450558 -0.0039713653 -0.01763912 -0.024343738 -0.08311245 0.052950874
-0.11589206 -0.041219138 0.026742766 -0.03971716 0.051893346 -0.044030916 0.05672808 0.07656219
0.087622024 0.0038277872 0.062405903 -0.12271411 -0.027953105 0.008561417 0.010012183 -0.04217842
-0.086467855 0.09470785 -0.11964046 -0.031131625 -0.0205484 0.017867697 -0.012746474 0.03190137
0.07930269 -0.01457722 0.059256535 -0.07303267 0.094412565 -0.0072454326 -0.07992561 -0.04571016
0.052408576 0.14142655 0.08026938 -0.037111733 0.10476378 0.025873138 0.13157244 0.024517788
0.116844594 0.09174972 0.05797577 0.03839935 0.1466336 0.052419018 -0.0956715 0.005470569
-0.005231288 0.02270795 0.030969521 0.042981334 -0.04401217 -0.074901104 -0.051370453 0.0893947
-0.0044329404 0.07850642 0.08192288 -0.06025846 -0.04203054 0.06346245 -0.037213042 0.047976516
0.050848197 0.12606293 -0.04967571 -0.08070184 -0.059778556 -0.060438827 0.07169158 -0.11369348
0.095751405 0.033843555 -0.07969205 0.028079515 -0.084191315 -0.07135993 0.10647814 0.035663478
0.13438694 0.10886809 0.00986414 -0.1152248 0.07771448 -0.081842534 0.048883073 0.02740678
0.09656808 -0.071715854 -0.042003788 0.009177428 0.12127857 0.06664882 -0.013243817 -0.074835114
-0.10516289 -0.071889214 -0.065571144 -0.110326774 0.055771384 -0.039679315 -0.079799086 -0.13665062
-0.091800146 -0.09656757 -0.107093945 0.11223942 -0.113970086 0.09044058 -0.08956938 0.037585083
-0.054640103 -0.06340476 -0.06840458 -0.081510834 -0.13354461 -0.09642561 -0.037059546 -0.13074392
-0.13031495 0.020433102 -0.13069803 0.04137774 0.06534388 0.08748755 0.030535216 -0.12979385
0.04550423 -0.12608323 0.016246572 -0.041021064 -0.12770744 -0.0456252 -0.0074979807 -0.0102749765
0.035797037 0.048081905 -0.111092925 0.009584369 -0.09635227 -0.11328301 0.0798161 0.0701804
0.0008742699 0.08656236 -0.10518757 0.01682482 0.002158891 -0.020368084 -0.060034424 0.115049
-0.0143146515 0.06142977 0.11430279 -0.0027386916 0.0181065 -0.106923565 0.047710642 -0.027878938
-0.054219395 0.14883254 0.03199652 0.09987672 0.0388563 -0.028993024 -0.062140033 -0.05904802
-0.06526416 -0.036034282 -0.07302483 -0.09890258 0.09559643 0.034504246 0.13625616 0.08628075
0.10125233 0.032218907 -0.10655533 0.060653962 -0.07078312 0.0814521 0.08222637 0.0763543
-0.050349277 -0.08680067 0.0643334 0.054087285 -0.11171422 -0.007349671 0.002253827 0.007985079
0.09300118 -0.10375047 0.06514126 -0.02506675 0.04524797 0.1350255 0.069458835 0.11902401
0.056481738 0.059556987 0.119999684 0.07362055 0.09733551 0.03651507 -0.051550966 0.10459515
-0.05703782 -0.04970289 0.09874226 -0.09860707 0.03981757 0.042054754 0.00977214 0.12568256
-0.013091971 0.012387765 -0.04470423 0.10642762 0.13057494 -0.050957263 -0.06822799 -0.011957835

action_head.bias f4 [5]
00000000: 1fe9 f3bc 842e b13c ac2d 803d 216c b53d
00000010: ae8b dabb
-0.029774247 0.021628626 0.06258711 0.088585146 -0.006669483
