logs/mappo_checkpoint_ep200.pth (torch, 451986 bytes, 28 tensors)

fc1.weight f4 [128, 147]
000000 5d f8 8f bc 46 cd a9 3d a8 7f 90 bd 0e 34 0d 3d
       -0.017574484 0.08291106 -0.070555985 0.03447347
000010 01 b6 1e 3d 79 fa 65 3b 1e 0a 74 ba 33 d3 2b bd
       0.03874779 0.003509192 -0.0009309369 -0.041949462
000020 5c 6e 49 bd a4 a1 50 3d 3a 2f d9 bc e3 c5 90 3d
       -0.049177513 0.050935403 -0.026511777 0.07068994
000030 4b 58 a4 3d a9 e4 4e 3d e3 19 55 3d 63 57 23 bd
       0.08024653 0.050511036 0.05202664 -0.03987826
000040 f8 d9 79 3d 69 81 89 bd 99 4e 78 bd 2d 01 f8 3c
       0.060998887 -0.06714136 -0.06062183 0.030273998
000050 6c 58 a7 3d 1a d1 b8 3c cd 6c b6 3d 34 f4 48 bd
       0.08171162 0.022560645 0.08907471 -0.049061015
000060 ab fd 27 3c 01 52 7d bc 96 3e 0f 3d 5f 45 f4 bc
       0.01025335 -0.015461446 0.034971796 -0.029818235
000070 e6 0f 92 3d b9 95 81 3d 7e 17 98 bd ab dd 86 bc
       0.07131939 0.063273855 -0.07426356 -0.016463121
000080 df 8b 09 bb 80 40 17 3d 48 ed b6 bc c1 27 6e bd
       -0.002098791 0.036926746 -0.022329941 -0.05814338
000090 19 5f 92 bd b1 4f aa bd d2 8d 54 3d 6b 5f ea bc
       -0.07147045 -0.08315981 0.051893063 -0.028609952
0000a0 ad 64 27 3b c4 4d 23 3d 8a ea 34 39 1b b4 a0 3d
       0.0025542185 0.039869085 0.0001725351 0.078468524
0000b0 45 cc 00 bd cc 40 89 bd 41 27 5a 3c af 16 5d 3d
       -0.031444807 -0.06701812 0.013315023 0.05397671
0000c0 e0 82 e4 3c 6c 6d d2 3c 4e 26 2f 3c 22 09 cb bc
       0.027894437 0.025686942 0.010690285 -0.024784628
0000d0 6d 38 c9 bc 0a fd 29 bd dc 8c 11 bd bb 5b a1 bd
       -0.024563039 -0.041501082 -0.035534725 -0.07878824
0000e0 67 34 1c 3d 9d 6f 95 bd 84 f3 10 3d 40 03 66 3d
       0.038135912 -0.07296679 0.035388485 0.056155443
0000f0 bd a2 84 bc 9f 5a af bc 87 ca b9 3d e9 10 be 3c
       -0.01619088 -0.021405516 0.09071832 0.023201423
000100 ba 3f af 3d 68 81 4c 3d 38 aa 96 bd ef 08 65 bc
       0.08557077 0.0499281 -0.073566854 -0.013979181
000110 0f e9 a4 bc e6 8c 3c 3d 25 b4 c6 3d 34 19 21 bd
       -0.020130662 0.04603281 0.097023286 -0.039330676
000120 b3 71 ec bc 77 d5 05 bc bf 58 ae bb e2 86 50 3d
       -0.02886281 -0.00816857 -0.005320638 0.050909884
000130 1c 59 26 bb d6 34 4a bd 5d 48 72 bd 53 4f 0c 3d
       -0.0025382703 -0.049366795 -0.059151042 0.034255337
000140 d8 a6 30 3c 08 0e bf bc dd 3c bf 3c b1 4a 10 bd
       0.010781966 -0.02332212 0.023344452 -0.03522748
000150 8d fd 59 bc 29 bd b9 3d ff af 5e bd ef b3 4a bd
       -0.01330508 0.090692826 -0.05436706 -0.049488004
000160 c2 e9 70 3d 5a d3 71 bd a9 04 05 bd 13 81 8b bc
       0.05881668 -0.05903945 -0.032475147 -0.01702932
000170 b3 35 09 bc d2 ce 62 bc 1c ba d7 bc 20 11 8d bd
       -0.008374619 -0.013843255 -0.026333861 -0.06888032
000180 04 31 17 3c d5 d7 8e 3d fe 04 8f 3c 47 26 7b bc
       0.009227995 0.069747604 0.017458435 -0.01532895
000190 c3 a4 c3 3d 38 e4 3b 3d 0d df 45 3d 16 a1 69 bd
       0.0955291 0.045871943 0.04830842 -0.05703839
0001a0 1b 0c 65 3d 26 e1 6f bc a6 e4 bc 3d 25 9f 41 bd
       0.055919748 -0.014641082 0.09223299 -0.047270913
0001b0 03 83 38 bd b2 78 84 3c 79 d0 5f 3d 4f ea 7f bc
       -0.045046818 0.016170833 0.054642174 -0.015619828
0001c0 61 6b 0b bd 73 b0 20 3c f1 70 4e 3d d9 8d 48 3d
       -0.03403795 0.009807694 0.050400678 0.0489634
0001d0 8c 4e 54 3d 23 af cb 3c 8c b0 04 bc 2a 9c 14 3d
       0.05183272 0.024863785 -0.008098733 0.036281742
0001e0 8b 3c 8d 3d 2b 26 b6 3d 72 44 55 3d cd 24 85 bd
       0.06896313 0.08893999 0.052067228 -0.0650116
0001f0 9c 3e e7 3b 18 51 53 3d fb 3b fd bb 73 bb 0b bd
       0.007057024 0.05159101 -0.0077280975 -0.034114312
000200 e9 85 3e bd 18 b5 b7 3c 14 9e 86 bd 36 51 78 bd
       -0.046514425 0.02242522 -0.0657312 -0.060624324
000210 be 7f 13 bd b8 e4 52 3d a5 f1 70 bd 23 a1 7c 3b
       -0.036010496 0.051487654 -0.0588242 0.0038548193
000220 b8 5d 56 bd fd c6 f7 bc 87 aa 73 bd f3 e8 05 bd
       -0.05233547 -0.030246252 -0.0594888 -0.03269286
000230 a4 23 5e 3d 9e e9 96 3d 04 91 61 bd df 81 85 3c
       0.05423321 0.07368778 -0.05506994 0.016297279
000240 7e 8b 7a bd 67 11 87 bc 70 f4 b8 3d 6a c5 2f bd
       -0.061168186 -0.01648779 0.09030998 -0.042912878
000250 26 e6 19 bd b4 99 aa 3d 57 79 e4 3c 6d 68 98 bd
       -0.037573002 0.08330098 0.02788989 -0.07441793
000260 6d 2f 90 bd a2 a8 cf 3c ca ce 7f bc 39 8b df 3c
       -0.07040296 0.025348965 -0.015613267 0.027288066
000270 8a aa 93 bd 32 e4 a0 3d 0d 7b 7c 3c 5b 17 ed 3b
       -0.07210262 0.07856025 0.015410197 0.00723545
000280 00 a1 a6 3d 0a a2 84 bd 68 18 ab 3d 0e 90 0b bd
       0.08136177 -0.06476219 0.083542645 -0.034072928
000290 db 32 15 3c 4f 87 56 3d 25 c5 a7 3d c7 cf 38 3c
       0.009106363 0.052375134 0.08191899 0.011280007
0002a0 4b c0 4f bc bb da a9 3d 6a a6 69 3d 99 6f 92 3d
       -0.012680124 0.08293673 0.05704347 0.07150192
0002b0 01 81 8f 3d 08 ae 0c bd 30 36 7a 3d 9d 97 9b 3c
       0.070070274 -0.034345657 0.061086833 0.018993193
0002c0 38 e7 6e 3d 68 82 50 3d ea 79 05 3d e7 64 9e 3d
       0.058325976 0.050905615 0.03258697 0.07734089
0002d0 e2 97 3d bd 66 03 93 bd a9 d1 33 bb 6a 1e 8e 3d
       -0.046287425 -0.071783826 -0.00274382 0.06939395
0002e0 a0 59 ac 3d 29 9a 44 3d de 0d 79 3c f6 32 62 bd
       0.08415532 0.04799858 0.01520106 -0.05522438
0002f0 6b 47 7a 3d 11 9a 14 3d aa 09 3f bd 74 7a 8b 3b
       0.061103266 0.03627974 -0.046640076 0.004256541
000300 ac ca 6f bd 8b 8b 99 3d 9f f4 98 bd ed be 6d bd
       -0.058542892 0.07497319 -0.07468533 -0.05804341
000310 f3 47 11 bd c3 5a af 3d 49 8a 41 3d ac 77 b0 bc
       -0.035469007 0.08562233 0.04725102 -0.021541439
000320 98 7d 89 bc 37 22 37 3a 10 dc 82 bd 8d d2 a5 bc
       -0.01678352 0.00069859944 -0.0638963 -0.020242
000330 5a 13 04 bd ae 05 2b bd 66 e0 71 3d c0 79 84 bd
       -0.032245018 -0.041753463 0.059051894 -0.064685345
000340 49 92 9c 3c 7e b1 92 bd 0c 7e 60 bd fa 4e 09 3c
       0.019112723 -0.0716276 -0.054807708 0.008380646
000350 b1 7f 6a 3c 65 7f 2a bd b8 fe 28 3d e2 6c 75 3d
       0.014312671 -0.0416254 0.041258544 0.059918292
000360 3f ad 43 bc fd 16 50 bd 3a 08 07 bd 5e 7b 6f 3d
       -0.011943161 -0.050803173 -0.03296683 0.05846726
000370 47 c2 4b bd a5 64 ec bb 7a ac 88 3d af 81 a9 3d
       -0.049745824 -0.007214146 0.06673522 0.08276688
000380 c6 18 78 3d 4d a6 4b bd be ee 8f bc 2a 6d 4e 3c
       0.0605705 -0.049719144 -0.017569896 0.012599269
000390 3a 77 6a 3d c4 6a 88 3d 00 e8 3a bb 81 66 57 bd
       0.05724261 0.06660989 -0.002851963 -0.05258799
0003a0 7a ae a5 3d 8c d3 66 3d f9 17 a2 bd 01 fe 1b 3d
       0.080899194 0.05635409 -0.07914729 0.038084034
0003b0 c1 0e 9b 3d 6e 98 8d bd 50 c3 ff bc fb bf 8d 3d
       0.075711735 -0.06913839 -0.031221062 0.06921383
0003c0 02 5b 51 bd 5b ee 9c bc 0d ec 95 3d d1 44 96 3d
       -0.051112182 -0.019156625 0.07320414 0.073373444
0003d0 ca b0 76 bd 74 d8 dd 3c d7 98 15 3c 78 4d f5 ba
       -0.060227193 0.027080752 0.009130678 -0.0018715104
0003e0 ed 9d ac 3d 5b c4 61 3d 4b fb 14 3d 64 95 34 bd
       0.084285595 0.0551189 0.036372464 -0.044087783
0003f0 64 d3 4a 3c d6 78 b1 3d 32 cf 5d bd 7e 99 8e 3d
       0.012379501 0.08665626 -0.054152675 0.0696287

fc1.bias f4 [128]
000000 df 27 2b bd 5f 9b cd 3d 27 de 7e bd 1d e7 0f 3d
       -0.04178607 0.100394 -0.06222358 0.035132516
000010 bb 7f 59 3b c2 8d 91 bc d0 67 2a bc 3c 7b 85 3c
       0.0033187706 -0.01776779 -0.010400727 0.016294114
000020 2b cf 87 3d 6e 51 4f 3b 82 d2 95 3d 20 36 c7 3d
       0.06631311 0.003163423 0.07315542 0.097271204
000030 4e ca 14 bd 91 4a e6 3d e4 90 8b 3d 08 48 a7 bc
       -0.036325745 0.11244691 0.06814745 -0.02042009
000040 71 8e 7d 3b 83 4a 0b bd 95 2e 18 3d bc dc 90 bd
       0.0038689638 -0.034006607 0.0371538 -0.07073352
000050 f0 d5 1c 3d e7 2c 32 bd 43 e5 e9 bb 92 01 07 bc
       0.038289964 -0.043499853 -0.007137926 -0.0082401205
000060 81 b8 68 bd 23 5d 5f 3d 1e 32 78 3d 7f 0c 94 39
       -0.05681658 0.05453218 0.06059467 0.0002823807
000070 8f 69 8e bd 33 11 4b 3d 7e 1c 54 bd e4 ea 3d 3d
       -0.069537275 0.04957695 -0.051784985 0.046366587
000080 a7 ec b6 3d f6 17 ea 3d 69 ac 2a bd 07 03 d0 3c
       0.089318566 0.114303514 -0.04166833 0.025392069
000090 76 c6 16 3c e8 80 00 3d 08 e8 c2 bc f3 b8 3b bd
       0.00920259 0.031372935 -0.023792282 -0.04583068
0000a0 01 cd f6 3c ad 69 cb 3d 56 80 f5 3c de 96 90 bd
       0.03012705 0.099322654 0.029968422 -0.07060026
0000b0 2f 27 4d bd 90 d8 e1 3d 1c 36 c5 3c d9 3f 0c 3d
       -0.050086197 0.11027634 0.024073653 0.034240577
0000c0 30 46 76 bc 8c 93 37 bd 7d a8 dd bb f5 6f 87 bd
       -0.015031382 -0.044818446 -0.00676447 -0.06613151
0000d0 3f 02 b4 3d 44 07 3f bd 13 95 34 3d 4b 31 9f 3c
       0.08789491 -0.04663779 0.04408748 0.019432684
0000e0 0d a2 63 3d 72 e5 1a 3c 57 05 33 3d 5a 73 87 3c
       0.055574466 0.009454118 0.043706264 0.016534496
0000f0 e3 49 b6 3c 13 e6 18 3d c6 9c 17 bd e8 50 47 bd
       0.022252029 0.03732879 -0.037014745 -0.048661143
000100 15 b7 a0 3d c7 40 9b 3d 61 ec 96 3d bd c8 b0 3c
       0.0784742 0.07580715 0.073693044 0.021580094
000110 ba 16 8c bb ff fc 18 bd a0 31 50 3d c2 d1 b8 bc
       -0.00427517 -0.03735065 0.050828576 -0.022560958
000120 a1 1f aa 3d 6f 2a 92 bd a3 d1 71 bd 42 5a 24 3c
       0.08306814 -0.07137 -0.059037816 0.010031285
000130 ac a5 10 bc fb 24 d0 3c 8e a2 be 3c f8 70 b9 bc
       -0.008828562 0.025408259 0.023270871 -0.022636876
000140 d4 70 aa 3d 0a d4 83 3d c3 44 9c 3d 87 ee c9 3d
       0.083223015 0.064369276 0.07630303 0.098599486
000150 65 6e 25 3d aa 96 d6 3d 34 38 28 3d 06 88 85 3d
       0.040388484 0.10477956 0.041069224 0.06520085
000160 80 6f 71 bc 3f 90 75 3d 99 3e 93 3d 02 e5 b6 3d
       -0.014736056 0.059952017 0.07189674 0.089303985
000170 1d 05 8f 3d ab 39 64 3d d1 ce cb 3c de c0 7c 3b
       0.06983397 0.05571906 0.024878891 0.0038567106
000180 1e a1 e1 3b 76 26 43 3d 7e 02 f3 3d 66 91 1c bb
       0.0068856617 0.0476441 0.1186571 -0.0023890375
000190 ab 44 8e 3d de 8d b4 3d b8 25 d4 3d af 8c b6 3d
       0.06946691 0.088161215 0.10358757 0.08913552
0001a0 01 53 29 3d ec 17 13 3d 31 9f 88 3c 78 db 42 3d
       0.041338924 0.035911486 0.01667747 0.047572583
0001b0 5d d7 e2 3d f3 65 9f 3d c6 ad 7e bd 97 d6 ab 3d
       0.110762335 0.07783117 -0.062177442 0.08390539
0001c0 5f c6 b7 3d 99 ed 09 bd 58 d1 cc 3c b2 94 b5 bc
       0.08973383 -0.033673856 0.025002167 -0.02216563
0001d0 b5 d2 39 3c 89 bd a8 3d 3a c6 aa 3c 77 38 95 3d
       0.01134174 0.08239276 0.020846475 0.072861604
0001e0 41 c1 1e bd 22 3a ce bb 87 58 6e bd fa 95 55 3d
       -0.03875852 -0.006293551 -0.058189895 0.052144982
0001f0 24 b2 af bc 67 d7 32 3c 17 13 41 bd 89 3e a3 3d
       -0.021447249 0.010915614 -0.047137346 0.07970912

fc2.weight f4 [64, 128]
000000 d7 01 dd bb 2f b8 de 3c 26 5e 85 3c 19 ae 96 3d
       -0.006744604 0.027187435 0.016280245 0.07357425
000010 71 f6 40 bd e1 e9 a8 3d 98 b4 a6 3d 75 ab 9f 3c
       -0.047110025 0.08247734 0.08139914 0.019490937
000020 b8 23 36 3c e4 d4 24 3c 8c 14 e3 bb 18 47 04 3c
       0.011116914 0.010060523 -0.0069299396 0.008073591
000030 59 cf 1a bd c4 d3 b0 3d 65 43 97 bd f7 9b 25 bc
       -0.0377954 0.08634141 -0.07385901 -0.010107986
000040 8a ba 02 3d c8 bf b4 bd 59 10 bc 3c f2 a8 a1 3b
       0.03191618 -0.08825642 0.022957014 0.00493347
000050 b6 96 3c 3d 4d f8 23 3c 26 84 0f 3d 1f 9c 43 3d
       0.046042167 0.01000793 0.035038136 0.04775631
000060 e7 6d 7b 3d 1d 79 4d 3d f6 7f d9 3c 0f d0 82 3d
       0.061384108 0.05016433 0.026550274 0.0638734
000070 8f 7b 05 bd fc 97 5c 3d 86 9a 90 3d ff 83 dc 3c
       -0.032588538 0.05385588 0.07060723 0.02691841
000080 13 22 c6 3c c3 2a b8 3c 58 38 9f 3a 89 26 e2 bd
       0.02418617 0.022481328 0.0012147529 -0.11042506
000090 be 31 18 3d ba 6c e3 bc 25 50 1e 3d 46 f8 ee 3b
       0.037156813 -0.027761806 0.03865065 0.00729278
0000a0 5f 59 3c bc f6 cc 63 3d 29 7c 78 3d a8 58 09 bd
       -0.011495917 0.055615388 0.060665283 -0.033531815
0000b0 20 02 b0 bd 4d f6 7d 3d 34 28 c3 3d 9c b2 6d 3c
       -0.08594155 0.06200247 0.095291525 0.014507916
0000c0 81 7f 8c 3c af 97 72 3d b6 ec 85 bc 2b 51 bc bd
       0.017150642 0.059226688 -0.016348224 -0.09195169
0000d0 b7 58 73 bc 5a 40 83 3b 4b 77 2f bd 2a fd 84 3c
       -0.014852694 0.004005474 -0.042838376 0.016234
0000e0 f3 70 98 3c df 0e 0c 3d fb a4 31 3c 90 73 a8 bc
       0.018608546 0.03419387 0.010842557 -0.020562917
0000f0 79 46 90 3d 0c 02 8f 3d 24 05 f7 bc 28 54 15 3c
       0.070446916 0.06982812 -0.030153818 0.009114303
000100 59 cd 95 bd 03 0b 10 3d 67 11 95 3d 23 a3 f8 bc
       -0.073145576 0.03516675 0.0727871 -0.030351227
000110 79 67 3b 3d 29 88 ba bd 3d 94 5f 3d 30 bc 0e 3d
       0.045752976 -0.09108002 0.05458473 0.03484744
000120 19 ca 2f bd 3b 15 8e 3b 81 43 a1 bd 6a 81 c0 ba
       -0.042917345 0.004336027 -0.078742035 -0.0014687006
000130 b2 9a ce bd a4 82 1b 3d c3 f7 00 3d 92 0c e4 bd
       -0.100880995 0.037966385 0.031486284 -0.1113521
000140 31 10 31 bd 5b 8d ec bb 17 6f 68 3d 47 af c8 bd
       -0.043228332 -0.0072189993 0.05674657 -0.097990565
000150 8e 3e a9 bd 9a 1f 6d bd e0 bd 9c 3d 62 5c 02 bc
       -0.082638845 -0.057891466 0.07653403 -0.007956596
000160 fa 6e 2a bd 08 9c 23 3c 6a 3c 44 bd 44 71 28 3d
       -0.04160974 0.009985931 -0.047909178 0.041123644
000170 b1 22 f9 bb 5c 1d 8a bd 2d 9e 4c 3d dc 16 38 bc
       -0.0076030125 -0.06743881 0.049955536 -0.011235919
000180 f5 74 24 bc ad 29 d5 3b df ea 37 3c 85 89 ea 3d
       -0.01003765 0.0065052123 0.011225431 0.11452011
000190 42 64 d3 bd 64 ad 0d bb d3 87 38 3d 95 3a 80 bc
       -0.10321857 -0.0021618241 0.045051407 -0.015652934
0001a0 9d a6 8e 3d 35 a5 41 bd 3f 3e b9 3d 25 28 9c bc
       0.06965373 -0.047276694 0.090450756 -0.019062111
0001b0 9b 2c 3d 3a cc f7 c1 bd 1b 59 c4 bb fe d9 8f bd
       0.00072164246 -0.09471092 -0.0059920675 -0.070240006
0001c0 d8 d3 16 bd d9 48 33 bd e4 16 ee bc d2 a0 2a bc
       -0.036823124 -0.043770645 -0.02906365 -0.010414319
0001d0 29 fc 45 3c af a7 af bc 1c 3b 41 3b f9 1f 20 bc
       0.012084045 -0.021442262 0.0029484695 -0.009773248
0001e0 be ae b2 bc 84 b8 be 3c f7 a9 8d bd eb ba 8d bd
       -0.02181184 0.023281343 -0.06917184 -0.069204174
0001f0 c0 7e 19 bd d6 1f e8 bd 93 c9 9f bd 20 e7 4d bc
       -0.037474394 -0.11334197 -0.07802119 -0.0125673115
000200 69 e7 85 bb ea eb c7 3c fe 86 8c 3d bc d9 43 3d
       -0.004086424 0.024404485 0.06861685 0.04781507
000210 51 51 90 bd 37 4e 95 3b ac 3b e7 3c f8 0f 4b bd
       -0.0704676 0.004556443 0.028226696 -0.049575776
000220 21 13 33 bd fb 5a b5 bc f1 24 84 3d 7c dd 21 bd
       -0.043719415 -0.02213811 0.064523585 -0.039517865
000230 c4 01 b7 3c 1d 6d cb 3b 61 e5 b6 3d 97 ea 39 3d
       0.02233971 0.0062080757 0.08930469 0.045389738
000240 c2 6e 80 bd e3 0d 75 bd b4 10 0e 3d 3e 30 99 3c
       -0.062711254 -0.059827697 0.034683898 0.018699761
000250 ce ce b1 3b a5 fe 0c bd 95 33 b6 3d 8e da 87 3d
       0.0054262644 -0.034422535 0.08896557 0.06633483
000260 e6 dd 74 3d a6 46 b4 3d 08 11 54 3d f1 4a e0 3d
       0.05978193 0.088025376 0.051774055 0.10951794
000270 85 f3 2a bd 3f f8 8f bd df ea 3d 3d 09 5f 83 bd
       -0.041736145 -0.07029771 0.04636657 -0.06414611
000280 86 0b b0 bd a4 1c 9d bd 54 6d 90 3d 89 e1 e2 bc
       -0.08595948 -0.076714784 0.07052103 -0.027695434
000290 fd b1 45 3d a2 53 ca bc 30 c3 e4 3c 62 72 10 3d
       0.048265446 -0.024698082 0.027925104 0.035265334
0002a0 da 03 fd bb 96 6c 95 bb a2 48 a8 bd 18 73 83 3d
       -0.0077214064 -0.0045600636 -0.082169786 0.06418437
0002b0 38 a3 12 bd f6 f5 8c bd b8 20 94 3c f0 3b 3f bc
       -0.03580019 -0.06882851 0.018082008 -0.011672005
0002c0 06 e8 f2 bb 00 7e af bb 72 0e 08 bc 13 37 92 3d
       -0.0074129133 -0.0053555965 -0.008304225 0.07139411
0002d0 6d c6 f0 ba 29 d0 72 bd aa 6e 86 3d d3 ce 48 3d
       -0.0018369682 -0.05928055 0.06564076 0.049025368
0002e0 c3 2d d2 3c 53 b3 2c bd 06 b1 c6 bd 93 07 da 3d
       0.025656587 -0.042163204 -0.09701733 0.10645976
0002f0 e1 a1 7b bd 9f 95 9b 3d 9d 05 33 bd 54 ae 2c 3c
       -0.061433677 0.07596897 -0.043706525 0.01053961
000300 5c c9 9d bc b6 2e 2e bd ca b8 7b 3d ad 19 c1 3d
       -0.019261055 -0.042525016 0.061455525 0.094287254
000310 6e 5b 1d 3d 63 df 3f 3d 73 52 35 3d 66 90 bf 3d
       0.038417272 0.046843898 0.044268083 0.09353714
000320 f6 28 93 bd 9c 7b ae 3d d0 cd 6e 3c 3d 2e 4c bd
       -0.07185547 0.0851967 0.014575437 -0.049848784
000330 b1 75 eb 3d 0a f8 62 bd 9c a2 a1 3d b4 d2 ea 3d
       0.11497057 -0.05541233 0.078923434 0.1146597
000340 f5 57 20 3d 57 67 d0 3d 51 6d 72 bd 3a 35 ed 39
       0.039146382 0.101759605 -0.059186283 0.0004524382
000350 44 91 bb bc 52 cb 1c 3c 20 3a 32 bd f2 b3 7c bb
       -0.022896416 0.00956996 -0.043512464 -0.0038559404
000360 ba 62 4d bd aa 85 04 3d 26 e0 4a 3d 08 a0 7c bd
       -0.05014298 0.032354034 0.04953017 -0.061676055
000370 4b 34 75 bd 29 8a f5 3c 84 4a 55 3d 3e 10 89 3d
       -0.059864324 0.029973106 0.052073017 0.06692551
000380 ea d0 4a bd 61 f7 ce 3c f5 d1 88 3d 95 63 b2 bd
       -0.049515642 0.025264444 0.06680671 -0.087104
000390 76 c0 af 3d 63 07 d5 3c 6b ea 9e bb ff c0 66 3d
       0.08581631 0.026004499 -0.004849722 0.0563364
0003a0 c5 e8 14 bd 44 a8 49 bc 70 df f1 3a 86 cd bb 3d
       -0.0363548 -0.012308184 0.001845343 0.0917006
0003b0 83 5b 82 3b ee 56 e0 3c 8e 05 52 3d 92 c2 58 bb
       0.003978194 0.027385201 0.05127483 -0.0033074957
0003c0 7d 79 3f bd b6 c6 9b bd bd 8c e0 bc 59 d6 a8 3d
       -0.04674672 -0.076062605 -0.02741086 0.082440086
0003d0 00 d1 9b 3d 57 e6 4b bd 97 6b 70 3d f1 fb 4f bd
       0.07608223 -0.049780216 0.058696356 -0.05077738
0003e0 23 77 0a bd 56 2f cb 3d c3 22 53 3d 0d 44 c1 3d
       -0.033805024 0.09921138 0.051546823 0.09436808
0003f0 5f 09 21 3d e0 e8 e5 bc ca 9a 2f bd 18 47 31 bc
       0.039315578 -0.028065145 -0.042872228 -0.010820173

fc2.bias f4 [64]
000000 f1 30 7a 3d 57 0b dd 3c 81 01 23 bc 32 2f df 3a
       0.06108183 0.026982946 -0.009949089 0.0017027615
000010 cc a2 4b 3b b9 8b 8c 3d d2 2b 4d 3d 00 9b 75 bd
       0.0031072376 0.068625875 0.05009062 -0.059962273
000020 c4 8b 6f 3d 5b 90 08 bd 20 ea 41 3d ff 42 9a 3d
       0.0584829 -0.033340793 0.04734242 0.0753231
000030 2b aa 73 3d b8 51 0b bd b2 1e 81 3c ed 73 0f 3d
       0.059488457 -0.03401348 0.015761707 0.035022665
000040 31 8c 66 bd a4 9f d4 ba 01 4c f8 3c f2 d3 34 3d
       -0.05628604 -0.0016221893 0.030309679 0.04414744
000050 c3 f7 6e 3c 4f 5c 68 3d 3f fa f4 3c c3 d9 85 bc
       0.014585438 0.056728657 0.029904483 -0.016339188
000060 0c 8b 69 3b a9 8d a6 bd b0 d0 bc bb 61 c8 86 3d
       0.0035635857 -0.08132488 -0.005762182 0.06581188
000070 6a 1b a4 bd ac f9 cd 3d ee 4f 00 3d 97 64 7f bd
       -0.08013041 0.10057387 0.031326227 -0.06235179
000080 00 16 c4 3d 0d 8d ea 3b 29 d2 b0 bc dc ad 82 3d
       0.09574509 0.007157928 -0.021584587 0.06380817
000090 e7 62 3c 3c 79 91 6b 3d 10 2b a5 bd c8 5c 90 bb
       0.0114981895 0.05751178 -0.08064854 -0.0044055916
0000a0 c9 62 ea 3c 9a 85 6c bc 4b a6 5f bd d5 93 cb 3d
       0.028611558 -0.01443615 -0.05460195 0.09940306
0000b0 63 8b 90 3d a0 97 d1 bc df 4a 21 bd 9a 0d c7 3c
       0.07057836 -0.025584996 -0.039378043 0.024298478
0000c0 ef 60 85 3c d3 92 d3 3d 21 40 4e bd 8e 92 b9 3c
       0.016281573 0.10330739 -0.050354127 0.02265289
0000d0 85 d2 84 3d 57 b3 86 3c 2f 6f 46 3d 81 ff a9 bd
       0.06485466 0.016442938 0.048445877 -0.08300687
0000e0 35 ea 94 bd 2d ec 57 bb 6c 28 31 3d 81 e8 7d bd
       -0.07271234 -0.0032947168 0.04325144 -0.06198931
0000f0 17 0d 0c 3d 13 05 b4 3d 40 5d cf 3d e0 e4 66 3d
       0.03419217 0.0879003 0.10125208 0.056370616

action_head.weight f4 [5, 64]
000000 fc 77 dd 3d 81 5f 81 3c ed 23 ae bc 30 86 c9 3c
       0.10813901 0.01579261 -0.021257365 0.024600118
000010 23 8f d9 3d a4 83 78 3b 90 f0 d5 bd 0c 6f 8e 3d
       0.10623004 0.003792026 -0.10446274 0.06954774
000020 68 2c c0 3d e5 73 22 bd 8d ca e6 3d d1 aa ff bd
       0.0938347 -0.039661307 0.11269102 -0.124837525
000030 c9 83 d3 bb 9d a6 a8 bd f7 77 78 3d 79 19 af bd
       -0.006454919 -0.08234904 0.060661282 -0.085497804
000040 38 01 14 3d da bd 64 3d 05 56 56 3d 1b c1 e7 3c
       0.036133975 0.05584512 0.05232813 0.028290322
000050 80 8c a5 3d 6d e8 07 3d 20 c2 d3 bc eb ae f6 3d
       0.08083439 0.033180643 -0.025849402 0.12045082
000060 11 52 77 3d a8 20 b0 bc 84 01 00 be 90 6c 5e bd
       0.060381 -0.021499947 -0.12500578 -0.054302752
000070 75 ce 0e 3d e2 1e a5 bd 5d c2 2c bd da ce d1 3c
       0.03486486 -0.08062531 -0.042177547 0.02561133
000080 ed 9a 33 bd 09 6b a0 3d c0 b1 b8 3d 5e cb 97 3d
       -0.04384892 0.07832915 0.09018278 0.07411836
000090 05 84 8b bd 59 59 a5 3d ac a4 25 3d 21 36 c8 3b
       -0.0681229 0.08073682 0.040440246 0.0061099683
0000a0 24 f3 ca bd 0e 5f 75 3d d6 32 1e bb 33 41 9e bd
       -0.09909657 0.059905104 -0.0024139187 -0.077272795
0000b0 31 1d 06 bd bf e6 e4 3d a3 75 9b bd 84 69 a8 3d
       -0.032742683 0.11176824 -0.07590797 0.082232505
0000c0 3c 96 b9 bd 5a 4f 75 bd fb 5e 1a bd 0b e6 ce bd
       -0.09061858 -0.05989013 -0.037688237 -0.10102471
0000d0 a0 e5 e6 3c a1 b1 2d bc 62 c2 dc bd c8 b2 14 3d
       0.028185666 -0.010601432 -0.10779263 0.03630331
0000e0 c1 a9 44 bd ca e8 97 bd a0 77 92 bc 99 e0 d7 3d
       -0.048013452 -0.07417448 -0.017879307 0.105408855
0000f0 8e 11 70 3c ad 05 b4 3d 31 a6 c9 3c 10 12 37 bc
       0.014652623 0.08790145 0.024615379 -0.01117374
000100 48 33 b1 bd f5 e7 3f bd e1 9c 86 3c 3c f8 97 bc
       -0.08652359 -0.04685207 0.016432228 -0.018550985
000110 1b 93 09 3d f6 42 2c 3c 65 9e 40 bd aa 49 f9 bd
       0.033587556 0.010514012 -0.047026057 -0.121722534
000120 f3 9c 47 bb 61 55 8a 3d 0f 3a 9e bd 5f 64 db bd
       -0.003045854 0.06754566 -0.077259175 -0.10712504
000130 02 32 81 bd 5d ab d6 3d 6e 44 e2 3d 09 e2 56 bd
       -0.06308366 0.10481904 0.11048208 -0.052461658
000140 e0 41 8d 3d 4d 98 11 3c ab cc 19 bd 4a 67 22 bd
       0.0689733 0.008886409 -0.037548702 -0.039649285
000150 8a 91 a3 bd a2 11 73 bd 56 5a c5 3d 61 fd a7 bb
       -0.07986744 -0.059342988 0.09636371 -0.0051266407
000160 22 2d a5 bc da 29 b8 3d c6 f5 80 3d 44 87 e9 bd
       -0.020163123 0.089923576 0.062968776 -0.11402753
000170 27 1e 39 3d 60 a6 d4 bc 1f db 5d bd 76 1f b4 3d
       0.04519477 -0.02595824 -0.05416405 0.08795063
000180 ec 10 8a bd e5 b2 e8 3d c8 f4 2a 3d e4 4a 49 bd
       -0.06741509 0.113622464 0.041737348 -0.049143687
000190 5b 28 46 bd 50 74 b4 3d 26 77 b2 3d 6a f9 74 bd
       -0.04837833 0.08811247 0.08714132 -0.059808172
0001a0 64 31 56 3d 18 e1 5b 3d 69 c8 c0 3d 4f 86 66 bc
       0.052293196 0.053681463 0.09413225 -0.014070108
0001b0 e9 fa 2e bd 4f 78 81 3d 5a 24 97 bd b4 7c 66 3d
       -0.042719755 0.06321775 -0.073799804 0.05627127
0001c0 ee 72 32 3d 4d 6f a3 3d 1c 00 ef 3d ce 28 f1 3d
       0.043566637 0.07980213 0.11669943 0.11775361
0001d0 8d 7e f0 3d fb 3d 8b 3d 40 8a 4d 3d eb 55 d2 bd
       0.11742888 0.06798931 0.050180674 -0.10270294
0001e0 d6 58 01 3c b3 1d 9e 3d e7 09 43 3d bb c3 b4 3d
       0.007894715 0.077205084 0.047616865 0.08826395
0001f0 ac 5a a6 bd f3 82 2f bd 36 ad 2d 3d f4 09 08 3e
       -0.08122763 -0.042849492 0.042401515 0.13285047
000200 2b 47 c1 bc 7a cb b8 3c 64 c2 9f 3d ef 18 a0 bd
       -0.023593506 0.022557963 0.07800749 -0.07817256
000210 b0 2f e3 bd 08 25 6d 3d d6 94 da 3c 10 c6 b8 bd
       -0.1109308 0.057896644 0.026682299 -0.090221524
000220 9b 4e 41 bc 63 ba 87 3d d0 3b 67 3c b4 22 07 bd
       -0.011798526 0.06627347 0.0141133815 -0.03299208
000230 d5 4c 0f bd 46 32 b4 3d 59 c5 e4 3d 9d 8b 0b bd
       -0.034985382 0.087986514 0.111704536 -0.034068692
000240 c2 83 f3 bd c4 09 c4 3d a2 0c 5c 3d f0 28 b6 bd
       -0.11890365 0.09572175 0.053722985 -0.08894527
000250 38 3e 67 bd 19 4a 30 3d ed 12 d1 3d 1b e7 3e bd
       -0.05645582 0.043039415 0.10208688 -0.046607118
000260 d2 41 fc bd e0 20 76 bc 9b a4 2f 3d 51 4a a1 bd
       -0.12317242 -0.015022486 0.04288159 -0.07875503
000270 16 3c a2 3d c5 aa 92 bc 52 de 41 bd 10 89 cc bd
       0.07921617 -0.017903695 -0.04733116 -0.0998708
000280 03 f6 06 be c3 b1 c8 3d 45 0d e9 3d ef 55 94 bd
       -0.13179784 0.0979953 0.11379484 -0.07242953
000290 2b 24 ea bd 56 7a 00 be 2c 52 08 bd 91 20 b0 3d
       -0.1143268 -0.12546667 -0.03328149 0.085999615
0002a0 71 99 54 bd 08 61 8d 3d bc 3d 0a bc 20 c7 94 ba
       -0.051904146 0.06903273 -0.00843757 -0.0011350848
0002b0 36 41 d3 39 e4 7f b8 3c b7 7c c9 bd d0 f3 c6 3d
       0.00040293642 0.02252192 -0.098382406 0.09714472
0002c0 64 24 2e bc 33 95 3f 3c 45 0d a4 bd 16 fc a0 bc
       -0.010628793 0.011693287 -0.080103435 -0.019651454
0002d0 c9 9a da bb 0c 4e 7f bd de a1 26 3d b7 40 6e 3d
       -0.006671284 -0.06233029 0.040681712 0.058167186
0002e0 d5 91 63 3d ec 05 9e 3c 26 01 25 3b 52 ce e9 3a
       0.055559 0.019289933 0.0025177686 0.0017837978
0002f0 16 5a 78 bd 83 ce 6d 3d af a6 38 bd e3 e0 49 3d
       -0.060632788 0.058058273 -0.045080837 0.049286734
000300 1a 71 68 bd d0 62 fe 3d 8c 29 f5 bd 55 3e 77 bd
       -0.056748487 0.12421191 -0.11970815 -0.06036218
000310 b7 b8 e8 3d 13 49 8d bd 29 fb d8 3d a7 b2 a3 3c
       0.113633566 -0.068987034 0.1059478 0.019982649
000320 1d b1 f0 bd 0e db 6b bc 9f 36 78 bd 59 c6 92 3d
       -0.11752532 -0.014395488 -0.060598966 0.07166738
000330 94 35 86 3d 49 b8 f6 3d 1e 7a 2b 3d d1 12 b0 3d
       0.06553188 0.12046868 0.041864507 0.08597339
000340 88 85 3a bd a2 ab 07 bd aa c5 6a bd 58 d9 5d 3c
       -0.0455375 -0.033122666 -0.057317413 0.013540588
000350 43 3a d6 3d 8f b7 42 3b ff 92 15 3d ec e4 c6 bd
       0.10460331 0.002971146 0.03651714 -0.09711632
000360 bb 90 73 3d 6e d9 eb bd 4d 2e 81 3d 50 1d bf bd
       0.059464198 -0.11516081 0.06307659 -0.09331763
000370 9e 1d 9c bd ba 2f b3 bd e9 79 9e bd fd 29 33 bd
       -0.076228365 -0.087493375 -0.07738096 -0.043741215
000380 df 71 bd bd a0 be 35 bb dd 5c 08 3d b3 b0 85 3c
       -0.09250235 -0.002773203 0.033291686 0.016319608
000390 48 0c 2b bd 4b 33 92 3d 4c c5 ea 3d 44 e4 b4 bd
       -0.04175976 0.071386896 0.11463413 -0.08832601
0003a0 0e 60 a4 bd cf 7e f1 bd 08 fd 3f 3b 2d ac 89 39
       -0.080261335 -0.11791765 0.0029295105 0.00026258957
0003b0 ee de ac bd 1a 60 f5 3d 53 9d 17 3d 90 01 bf 3d
       -0.08440958 0.119812205 0.03701527 0.0932647
0003c0 91 83 2d bd dd e2 87 bd 84 af 47 bb ff 88 da bd
       -0.0423618 -0.066350676 -0.0030469606 -0.10670661
0003d0 32 c0 5e 3d 8d 61 db bd f8 9c 2c bd 8a 1e 25 3d
       0.05438251 -0.10711966 -0.042141885 0.040312327
0003e0 76 44 97 bd 87 f8 fa bd 52 35 9b 3c 54 11 e6 bd
       -0.07386105 -0.12254434 0.018946324 -0.11233774
0003f0 3d 72 3c 3d 83 09 11 bd 26 58 0f 3d af 35 c0 3b
       0.046007384 -0.03540946 0.034996174 0.0058657746

action_head.bias f4 [5]
000000 84 46 04 3d 79 0e 4a ba 77 16 83 bc a8 52 c1 3d
       0.03229381 -0.0007707845 -0.016001923 0.094395936
000010 f5 16 1d 3d
       0.03835197

value_head.weight f4 [1, 64]
000000 05 e0 ab bd 7f dd e0 3d 92 40 c7 3d a5 b4 c9 3d
       -0.08392338 0.10979747 0.09729113 0.09848908
000010 fc 33 1e 3e 08 9c 0d be 3a f5 27 3e 30 3e ec 3d
       0.15449518 -0.13829052 0.1640214 0.11535299
000020 01 43 ae 3b 99 ea f5 3d 0f f7 9b bc 25 8d ee 3d
       0.005318046 0.120076366 -0.019038705 0.11648015
000030 41 c0 2d 3e e3 1e 1a be a3 39 23 be e9 39 b6 3d
       0.1696787 -0.15050845 -0.15939955 0.08897764
000040 c0 d4 03 3d 52 0e 33 be 12 31 60 bd 62 a6 98 3d
       0.032185316 -0.17485932 -0.054734297 0.0745361
000050 e6 23 ec 3d 07 0a 41 3d 47 8e 86 bd fb 0b 83 bd
       0.115302846 0.047128703 -0.06570106 -0.063987695
000060 38 a6 01 bd 80 22 c3 3a 3c c9 83 3b 4c ec 05 3e
       -0.03165266 0.0014887601 0.0040217917 0.13078421
000070 fd dc 47 bd 1a 99 26 be ed d6 c9 bd 21 75 e7 3d
       -0.048794735 -0.16269341 -0.09855447 0.113016374
000080 7f f1 18 be 1b 03 08 be 1a 35 ff bd bc be c5 3d
       -0.14935873 -0.13282435 -0.124613 0.0965552
000090 a0 a9 29 bd 8b 8a 09 3e 20 dc c5 3d f0 1a 2b bd
       -0.041421533 0.13431756 0.09661126 -0.041773736
0000a0 fa b7 a8 bd 78 1f d2 3d b3 8b de 3d e7 0a b8 bd
       -0.08238216 0.102599084 0.10866489 -0.089864545
0000b0 c3 5a 74 bd 76 be dc 3d be 7a 61 3d 81 37 15 3e
       -0.05965687 0.10778515 0.055048697 0.14571954
0000c0 86 96 1f 3d 19 ae 38 be de b6 27 3e dd 4c de bd
       0.03896191 -0.18035163 0.16378352 -0.10854504
0000d0 d7 6f 06 be ba ed 15 3e 20 64 14 3e 22 a5 0d 3d
       -0.13128601 0.14641467 0.1449132 0.03458131
0000e0 89 99 ab 3d 6a 53 ce bd a2 05 1e be 0a 15 fb bc
       0.08378894 -0.10074504 -0.15431836 -0.03064968
0000f0 70 6e a1 bd 07 d6 ed bd c9 12 fe bd 95 c2 2b be
       -0.078823924 -0.11613088 -0.12405927 -0.16773446

fc1.weight f4 [128, 147]
000000 6b db 17 3d d3 a9 31 3d e9 b7 83 3c 67 67 18 3d
       0.037074488 0.043374848 0.016078906 0.037207987
000010 3b cc b0 3d 87 4e 5e 3d 34 ad 20 bd a4 f3 ce 3d
       0.08632704 0.05427411 -0.03922768 0.101050645
000020 99 a2 59 3d 17 50 a5 3c ca 56 df bc 28 a6 5a bd
       0.05313358 0.020179791 -0.027263064 -0.053381115
000030 a5 70 4a bd 78 d8 a3 bd 86 68 80 3d 73 81 f5 bc
       -0.049423832 -0.080002725 0.06269936 -0.029968953
000040 84 a1 61 bd 8b e2 7e 3d f8 f6 ad 3c 14 fd b8 3d
       -0.055085674 0.062227767 0.021235928 0.09032646
000050 94 74 91 3d 8e cd 2b 3d e6 52 4e bc 26 a2 9e bc
       0.07102314 0.04194408 -0.012593007 -0.019364428
000060 ba c3 94 bd 56 66 7b 3c ae 04 83 3d 0d a6 1f 3b
       -0.072638944 0.015344223 0.06397377 0.0024360449
000070 fa 1c 33 bd 05 96 7d 3d 5f ab 00 3d 7f db 0a 3d
       -0.043728806 0.061910648 0.031413432 0.033900734
000080 50 3a 91 3d e1 56 d6 3b ee 1e 96 3b 5b a0 b3 3d
       0.070912 0.0065411185 0.004581324 0.0877082
000090 6b 5e b6 bc f5 e7 c2 3d 4f 1b a4 3d 98 c3 6b bd
       -0.022261819 0.095168985 0.08013021 -0.05755958
0000a0 19 05 38 3c a4 3c 46 3c 00 4d d4 b9 44 17 c2 bc
       0.011231684 0.012099419 -0.0004049316 -0.023692735
0000b0 a3 3d d0 3c fa b3 0d 3d cf d3 9d 3d 70 10 4e bd
       0.025420016 0.034595467 0.07706415 -0.050308645
0000c0 6c 20 41 bd 6e 95 35 3d 3c ac 92 3d e3 58 bb bd
       -0.04715006 0.04433196 0.07161757 -0.09147813
0000d0 ba 47 97 3d 85 81 8d 3d 17 e0 ff bc 3e a1 42 3c
       0.07386728 0.069094695 -0.031234784 0.011879263
0000e0 b4 70 e9 3b 98 01 61 3d 30 fa d6 3c 6b bf 70 bd
       0.007124031 0.05493316 0.026242346 -0.0587763
0000f0 c2 86 27 3c 73 24 04 3d 04 43 38 bb 38 63 6d 3d
       0.010225 0.032261323 -0.0028116116 0.05795595
000100 88 5d 67 3d bb e4 d6 3c 15 1c 8c bd 00 80 69 b2
       0.056485683 0.026232114 -0.06841294 -1.3591489e-08
000110 1e d5 12 3c 37 bd 55 3b db 09 2a bd 40 80 46 3d
       0.008961944 0.0032614002 -0.041513305 0.048462152
000120 2c 7e e0 bb ab d0 e2 3c aa f6 7c bd 73 4d 2c bd
       -0.0068509784 0.027687391 -0.061758675 -0.04206605
000130 42 76 0d bd 59 6c 21 bc ae 8e bf 3c 6d 01 02 3d
       -0.034536608 -0.009852492 0.023383465 0.03173964
000140 31 54 91 3c f2 c2 9a bc 8f 8d a7 3d 39 45 16 3d
       0.01774034 -0.018891785 0.08181297 0.03668711
000150 ce 53 28 bd 30 59 26 bd ca 9e a0 3d 35 58 5b bd
       -0.041095547 -0.0406124 0.078427866 -0.053550918
000160 27 99 88 3d 83 ff ca 3d 61 d0 79 3c 92 0a 1c 3c
       0.066698365 0.09912016 0.015247435 0.0095240045
000170 17 8f c8 3d db e1 5e bd 09 8b 57 3d d5 8e 00 3a
       0.09792917 -0.05441461 0.05262283 0.0004904096
000180 ff 65 a0 bd fb c8 19 3c bb f7 c9 3c 01 93 00 3d
       -0.07831954 0.009386296 0.02465426 0.031390194
000190 57 2b f0 bc 36 78 6a 3c 0f 1f 92 3c 64 08 8f 3d
       -0.029317541 0.014310887 0.017837076 0.06984022
0001a0 26 98 20 3c cc 7d d2 3c aa c6 ab 3d 4e 1d 31 3c
       0.0098019 0.02569475 0.083875015 0.010810209
0001b0 5d a5 8e bd dc d7 79 3d 33 23 e2 3b 80 db 1f 3d
       -0.06965134 0.060996875 0.0069011687 0.03902769
0001c0 ea ab 84 3d bd 98 a4 3c 10 4e 27 bc 85 64 c6 3c
       0.064781025 0.020092363 -0.010211483 0.024217853
0001d0 e9 73 37 3b 86 0d 9a 3c e3 64 f3 bc f2 18 f3 bb
       0.0027992672 0.018805277 -0.029711192 -0.007418745
0001e0 5f 70 a8 bd f1 4a 2a bd 43 8e d7 3b 0b ee 57 bd
       -0.08224558 -0.041575376 0.006578238 -0.05271725
0001f0 dd 6d 1a 3d 44 8d 1b 3d c9 30 70 3d 30 ab 2a bd
       0.03770243 0.03797652 0.058640275 -0.041667163
000200 ac 94 63 3b 57 d1 33 bd ba 90 d5 3c 8f b3 13 bd
       0.0034726067 -0.043900814 0.026069988 -0.036059912
000210 3c 8b ae 3c a5 fb 67 3d 53 6e 3b bd 6e 57 45 3d
       0.021306626 0.05663647 -0.04575951 0.048179083
000220 d4 a3 a0 3d b9 e4 bf 3d e0 a8 c6 bb 4a 5f 45 bd
       0.07843748 0.09369797 -0.006062612 -0.048186578
000230 80 3f 8a 3d 24 21 f8 bc 1e 42 e0 bb bc 54 30 3d
       0.06750393 -0.03028924 -0.0068438193 0.04304956
000240 92 ca 7c bd 2b 8f 63 bd 30 eb 1d bd 8d b0 ff 3c
       -0.061716624 -0.055556457 -0.03855437 0.031212116
000250 97 af a9 3c df 03 22 bd aa 9e 9e bc dd cf 17 3d
       0.02071361 -0.039554473 -0.019362766 0.03706347
000260 af 43 67 3d e4 65 8d 3b 09 04 88 bc c2 9a 61 3d
       0.056461032 0.004315125 -0.016603487 0.05507923
000270 e5 fa 25 3d 20 19 f7 bc f2 2b 3f bd 0b 3e 8e bc
       0.040522475 -0.030163348 -0.04667277 -0.017363569
000280 64 ad c0 3c 05 24 1e bd 3b 15 01 bb bb 0a 97 bd
       0.02352018 -0.03860857 -0.0019696492 -0.073750935
000290 2d 08 ea bb fc cc 85 3d ab 52 8b bc 8f ad 5a bd
       -0.007142088 0.06533238 -0.017007193 -0.053388175
0002a0 24 d3 9b 3d 0d ac 68 3d d2 3b a4 bd 42 d4 19 3c
       0.07608631 0.056804705 -0.08019222 0.009388985
0002b0 7e 1f 47 3d d8 1d da 3a 39 5f a7 bd eb 0c 34 3d
       0.048614018 0.0016640974 -0.08172459 0.043957632
0002c0 77 a3 bc bd 1f 20 ae bd e1 a2 87 bd 3c ca 1b bd
       -0.09210866 -0.0850222 -0.066228636 -0.038034663
0002d0 3b 38 a2 bb e3 95 9f 3c cb ab 5d 3d c2 77 d6 bc
       -0.004950551 0.019480651 0.054118913 -0.026180152
0002e0 f3 13 8a 3c 90 38 ba 3c 00 83 8c bd a9 5a a7 bc
       0.016855216 0.02273205 -0.06860924 -0.020428972
0002f0 26 f1 56 3d f9 a3 80 bd ef 29 8f bd 62 95 39 bd
       0.05247607 -0.06281275 -0.0699042 -0.04530848
000300 5b 01 cc 3d bd 52 8a 3c 0b 8d eb 3c 9e c8 bd 3d
       0.09961196 0.016885156 0.028753778 0.0926678
000310 80 c7 be bc b2 ee 6f 3d 0b 20 86 3d 96 30 8a bd
       -0.023288488 0.058577247 0.065490805 -0.06747548
000320 59 90 ad 3d 12 54 6c bd 65 a1 cd 3c 8f e4 6c 3d
       0.08474798 -0.057697363 0.025101373 0.057835158
000330 58 41 7f bc c7 9b 8e 3b 49 c1 8e bd e0 66 5b 3c
       -0.015579544 0.004352066 -0.0697046 0.0133912265
000340 8e 34 57 3c 4b 24 f8 bc ef 78 72 bd fe 26 1d 3c
       0.013135089 -0.030290743 -0.059197363 0.009591816
000350 98 40 14 3c 9e 37 28 bd 65 b7 6e bc 9d 04 ce bc
       0.0090486035 -0.041068666 -0.014570092 -0.025148684
000360 1f 09 ae bd a0 75 50 3d df fe 8e bd 34 04 d9 bc
       -0.084978335 0.050893426 -0.069822066 -0.026491262
000370 f7 f4 d8 bc af 08 68 3d 29 57 30 3c 82 62 bd 3c
       -0.026483996 0.056648906 0.010762968 0.023118261
000380 8e 61 54 3b 6a 7e bb 3c 0e 93 8d ba 33 81 70 bd
       0.003240678 0.022887427 -0.0010801272 -0.058716964
000390 01 e9 02 3c d6 ec 2e 3d 09 80 dc bc 3b 42 90 3d
       0.007990123 0.042706333 -0.02691652 0.070438825
0003a0 06 c5 8a 3d 59 59 8f bd 3b e9 a1 3d fd a7 98 bd
       0.067758605 -0.069994636 0.07905813 -0.07453916
0003b0 6c e4 b1 bd 41 5e 87 3d 96 7e 82 bd dc ee 40 bb
       -0.08686146 0.066097744 -0.063718006 -0.0029439246
0003c0 0f aa 1b 3d e3 59 d9 bc a7 6e a5 3c 2e 64 d7 3c
       0.038003977 -0.02653212 0.020194365 0.026292887
0003d0 7d 61 77 bd 96 bf 6e 3d 58 bd a1 3c 4d 6c 88 3d
       -0.060395706 0.05828818 0.019743606 0.06661282
0003e0 3f e3 28 bd 8c 85 23 bd 0a 5e 29 3d 2f d7 2b bd
       -0.041232344 -0.039922282 0.04134945 -0.041953262
0003f0 b6 93 40 bd f0 c2 b7 3c 8c 6b ce 3a 6b 5e f4 3b
       -0.047015868 0.02243182 0.0015748604 0.0074575446

fc1.bias f4 [128]
000000 c9 3b 59 3d 24 bf 94 3b 32 4b 59 bd 62 60 84 bd
       0.05303553 0.0045393873 -0.053050227 -0.06463696
000010 e3 20 3a 3d 9e f6 06 3d f2 6a 4c bd 1a 8d 9a 3d
       0.04544152 0.032950036 -0.04990668 0.07546444
000020 4c 33 47 bd 63 e1 88 3c 99 1d 8b 3d bc 5b f6 bc
       -0.048632905 0.016709035 0.06792755 -0.03007304
000030 92 35 fb 3b 62 6d e4 bc d0 40 9b bc 20 04 72 bd
       0.007666298 -0.027884189 -0.018951803 -0.059085965
000040 fd 9c a9 3d f8 43 a2 3d 21 4f 9e bd 56 88 c2 3d
       0.08281896 0.0792312 -0.077299364 0.0949866
000050 fe 0d f1 3d 4c 9e 72 bd 0a ad 42 bd 07 87 7f bd
       0.11770247 -0.059232995 -0.047528304 -0.06238463
000060 37 7e 92 3c 34 83 b8 3d 8d a9 db 3d c5 b8 81 3d
       0.01788245 0.090094 0.107256986 0.0633407
000070 5b 90 aa bc a9 4e a5 bc 89 35 9a 3d ef 0d 6c bd
       -0.020820787 -0.02017911 0.07529742 -0.057630476
000080 fa d7 4b bd 9e 0e 77 3d 31 40 10 bd ad 5c 09 3d
       -0.04976652 0.060316674 -0.035217468 0.033535648
000090 83 75 51 3d 52 30 34 bd e1 9b 38 bc 29 6e 77 bc
       0.05113746 -0.043991394 -0.011267633 -0.015101948
0000a0 18 dd 44 3d 41 dd a1 3d 77 96 4e 3d f8 38 1a bd
       0.048062414 0.07903529 0.050436463 -0.037651986
0000b0 ed f5 2f 3a 7c ea f2 3b 17 f9 e6 3c 19 b7 cc 3d
       0.0006712366 0.0074132066 0.028194947 0.099958606
0000c0 2a 42 a8 3c 57 62 57 3d 1f 53 4b 3d d6 59 c5 3d
       0.020539362 0.05258402 0.049639817 0.096362755
0000d0 73 93 c4 3d 5d 12 2a bd 4d ee 8f 3c 16 23 66 3d
       0.09598436 -0.04152142 0.017569685 0.056185804
0000e0 b8 1f 3b bb e1 f4 8b bd 2f 4b d6 bc cb 10 a2 3c
       -0.0028552841 -0.06833816 -0.026158897 0.019783398
0000f0 f9 42 98 3c 42 46 e5 3c 60 4a 3b 3c a9 59 55 3d
       0.018586623 0.027987603 0.011431307 0.05208746
000100 21 b8 94 3d 78 54 84 3d 93 af 9f 3d b2 b7 27 bc
       0.07261682 0.06461424 0.0779716 -0.0102366675
000110 1a 0b ba bc 10 44 6e bb 3b 98 38 3d 7b e0 5a 3c
       -0.022710372 -0.0036356486 0.045067053 0.013359184
000120 1a a0 39 bd 6c 2b db bc 7c f1 da bb 59 8d 43 bd
       -0.0453187 -0.026754104 -0.006681619 -0.04774222
000130 49 23 d7 bc 25 63 66 3d 72 f9 be bc 86 c0 f9 3c
       -0.026261942 0.056246895 -0.023312304 0.03048731
000140 b3 d7 d5 3d 88 80 29 3c 4a ce 00 3d 82 de 3b bd
       0.10441532 0.010345586 0.031446733 -0.045866497
000150 e9 46 8a 3d 89 11 82 3d 0f f5 05 bd d0 bc 8c 3c
       0.06751806 0.06351001 -0.03270441 0.017179877
000160 21 b4 a0 3d 72 40 de 3d 1f bc 63 bd 1b 2e bc bc
       0.07846857 0.10852136 -0.055599328 -0.022971204
000170 0d 5d 50 bb bf 58 89 bb 70 99 90 3d aa 23 06 bd
       -0.0031793744 -0.0041914876 0.07060516 -0.032748856
000180 ce 4b 6e 3b c5 80 82 bc 95 50 03 3d 41 f1 05 3d
       0.00363611 -0.015930543 0.03205927 0.03270078
000190 7c 41 88 3d f3 3f ca 3d 3f 65 ba 3c b4 7a 87 3d
       0.06653115 0.098754786 0.022753356 0.06615201
0001a0 f7 35 ba 3d 93 76 ca 3d 05 ea 27 bd 95 8e 9e 3d
       0.09092324 0.098858975 -0.040994663 0.07742039
0001b0 b5 c5 85 3d 95 7c ac bc 08 a8 7d 3d 66 75 30 bd
       0.0653185 -0.0210555 0.061927825 -0.04308071
0001c0 ec b0 8f bc 85 d7 89 3b c4 83 7a 3d 8d c4 be bc
       -0.017540418 0.0042066 0.061160818 -0.023287082
0001d0 b1 83 74 3d cc a3 b1 3c 01 4c d1 3d 90 c7 5d 3d
       0.059695903 0.02168455 0.10219575 0.054145396
0001e0 a6 00 3b bd 64 5e 97 3d ec 99 10 bb eb 9c 37 3c
       -0.045654915 0.073910505 -0.00220644 0.011206846
0001f0 9b 7b 7c bd 45 bc 84 3d dc be 89 3d 0c e2 95 3d
       -0.061641317 0.06481222 0.06725857 0.07318506

fc2.weight f4 [64, 128]
000000 5b f2 b1 3d f8 34 d1 bc 61 7e 0a bd 52 d8 68 3d
       0.08688804 -0.025537953 -0.03381193 0.056846924
000010 ae b5 0b bd 98 b7 a2 bc 42 7a a5 bd 26 9a 4d 3d
       -0.03410881 -0.019862935 -0.080799595 0.050195836
000020 70 1f ba 3b d0 bd ba bb ee 0e 5c 3d b2 90 b0 bd
       0.005680017 -0.005698897 0.053725176 -0.086213484
000030 c4 64 e2 bc aa 9d 51 3d 24 f5 8f bc 5a ef 2f 3d
       -0.02763594 0.05117575 -0.017572947 0.042952873
000040 3e 2c 5a bd f0 ac db 3b 90 45 b5 3c 6f 5f 2f bd
       -0.05326485 0.0067039654 0.022127897 -0.042815622
000050 96 66 aa bd d2 40 58 3d 0c be dd bc 31 a3 97 3d
       -0.08320348 0.052796192 -0.02706816 0.07404173
000060 0e fc b3 bd cf 19 26 bd 72 37 1b 3d 64 46 88 bd
       -0.0878831 -0.040551957 0.037894674 -0.06654051
000070 80 79 74 3c 39 be 39 bd d8 ef 77 bc d8 f3 31 bc
       0.014921546 -0.045347426 -0.015132867 -0.01086136
000080 6d 74 44 bd 90 a6 a9 3b 5c 34 b2 bd 97 9a 2b bd
       -0.047962595 0.0051773265 -0.08701393 -0.041895475
000090 00 e2 c9 ba ad 72 b1 3d a2 2d 42 3d e0 c1 0e bb
       -0.0015402436 0.08664451 0.0474068 -0.002178304
0000a0 92 34 9b bd 8f 11 58 bd 8d 86 89 3d 3e 22 4e 3d
       -0.07578386 -0.05275112 0.06715117 0.050325625
0000b0 30 ae 63 3c b0 c0 bf 3b d7 d7 91 bd 52 57 7e bd
       0.01389651 0.0058518276 -0.07121246 -0.062094994
0000c0 e4 c4 8e bd cd 67 82 3d d7 96 a5 bd cd 71 a1 bd
       -0.06971148 0.06367455 -0.08085411 -0.07883034
0000d0 ee 84 68 3d 58 58 d1 bc bb 24 82 3d 38 2a a6 bc
       0.056767397 -0.02555482 0.06354662 -0.020283803
0000e0 30 53 97 bb 28 ef 7a bc 52 e2 02 3d 1d f4 83 3d
       -0.004618071 -0.015315808 0.031954117 0.06443045
0000f0 9b d0 20 bd 52 b1 dc bc ab 1a a9 3d 84 de d4 3c
       -0.03926144 -0.026940022 0.0825704 0.02598501
000100 b0 a6 16 bd c8 fe 83 bc b8 80 be bc 36 7d 57 3d
       -0.03678006 -0.0161127 -0.023254737 0.052609645
000110 f6 de ab bd bc c3 8d bd 00 6a 9e bd 92 66 1c 3d
       -0.08392136 -0.06922099 -0.07735062 0.038183756
000120 fe b9 95 bd 80 5d b8 3c 39 fe 9b 3d c7 da 96 3d
       -0.07310866 0.022505522 0.076168485 0.07365947
000130 7a 10 6d bd 1e 8b 87 bd e3 27 5f bd d4 cd d0 3c
       -0.05787704 -0.066183314 -0.0544814 0.025488771
000140 f9 28 91 3d cf e7 b0 bd bf 87 5a bd 8d 8b 99 bd
       0.07087893 -0.08637964 -0.053352114 -0.0749732
000150 a5 d9 8f bd 02 d0 6d 3d 68 ab 5b 3c 96 66 47 3d
       -0.07023934 0.0580597 0.013407566 0.048681818
000160 f6 79 96 bd cd b4 86 bd f1 e2 ae bd a0 94 f0 3c
       -0.07347481 -0.06577454 -0.085393794 0.029367745
000170 ca 27 7f 3d 30 41 87 bc 0d 5f 24 bd 20 b9 a1 bc
       0.062293805 -0.016510576 -0.04012971 -0.019741595
000180 8a db 7e 3d 43 c3 ab bd 49 6e 1a bd 73 8c 88 3d
       0.062221088 -0.083868526 -0.037702832 0.066674136
000190 b1 b3 57 bd fc cd fe 3c 0e e2 7e bd 58 67 f0 3c
       -0.0526616 0.03110408 -0.0622273 0.029346153
0001a0 cb d6 94 3d 62 c4 63 3d 7c ed 60 bd 56 19 4b 3d
       0.07267531 0.055607207 -0.054913983 0.04958471
0001b0 20 e4 46 bb e6 03 83 bd 60 1b 7c bb 16 56 64 3d
       -0.0030348375 -0.06397228 -0.0038468465 0.05574616
0001c0 48 d9 7f 3c d0 dc c7 bc 38 3a 24 3c 58 49 7a 3c
       0.015615769 -0.024397284 0.010023646 0.015276276
0001d0 ce d0 1c bd c6 4e 45 3d 74 ad 84 bc 83 a8 85 3d
       -0.03828507 0.048170827 -0.01619599 0.06526282
0001e0 ce 1e 56 3d d9 8a ae 3d 06 a5 62 3d 66 40 91 bd
       0.05227547 0.08522577 0.05533316 -0.07092361
0001f0 08 f8 85 bc 92 64 31 3d c8 b1 1f bc f0 8e f6 bb
       -0.016353622 0.043308802 -0.009746976 -0.0075243637
000200 4e b3 9c 3d 11 82 c7 bb 88 d5 bf 3d ee 07 89 3d
       0.07651387 -0.006088503 0.093669 0.066909656
000210 85 1e 81 3d 6a 7e ac 3c a9 dd 9f 3d 44 62 e9 bd
       0.06304649 0.021056373 0.0780595 -0.11395696
000220 88 41 30 3d d2 88 69 bd 20 58 4f bd 51 b2 b8 bc
       0.043031245 -0.057015248 -0.050621152 -0.022545965
000230 1e bc 6a bd 73 7b d3 bb 20 0d 80 bc b1 d6 03 3d
       -0.05730831 -0.0064539253 -0.015631258 0.032187168
000240 9d f2 cc bd 19 f0 79 bd 14 d3 14 3d 76 69 ed bc
       -0.10007212 -0.06101999 0.036334112 -0.028980952
000250 3b 11 2c 3c cf 3f 90 bd d4 04 81 3c 47 6f 37 bd
       0.010502155 -0.070434205 0.015749373 -0.044783857
000260 26 27 76 3d 73 a7 ba 3c 3a b7 d3 bd 9d 48 a3 bd
       0.06009593 0.022784924 -0.10337682 -0.07972834
000270 60 7a b2 3d c4 b6 e3 3d 41 a3 79 3d ad 56 80 bd
       0.087147474 0.11118844 0.060946707 -0.06266532
000280 4b 40 e7 3c 36 d3 98 bd c7 40 e3 3d 45 b7 a6 bd
       0.0282289 -0.0746216 0.1109634 -0.08140425
000290 27 48 94 3d 8f 7c 4a bc 44 20 c0 bc 80 a0 98 3d
       0.072403245 -0.012358799 -0.023452885 0.07452488
0002a0 12 e8 2a bd cf fe ce bd 6a 64 ed 3b 63 ff 6c 3d
       -0.041725226 -0.10107195 0.0072446363 0.057860743
0002b0 02 fc 73 3c b9 8c e7 bc 1d 80 e2 3c 6f 34 10 3d
       0.014891626 -0.028265344 0.02764898 0.035206255
0002c0 35 43 d3 3d d0 64 a2 3d 98 ec 70 3d 8b ab 80 3d
       0.10315553 0.07929385 0.058819383 0.06282719
0002d0 f9 7d 81 3d ec a7 00 bd cc bc b6 3d bd cf c9 bd
       0.063228555 -0.031410143 0.08922729 -0.09854076
0002e0 fc 18 1e bd 7c f1 21 3d 32 de 22 bd ae 63 02 bd
       -0.038598046 0.039536938 -0.039762683 -0.031833343
0002f0 ad 26 d4 bd 75 c8 e9 bb aa ea bd 3d f5 68 b5 3d
       -0.10358939 -0.007134492 0.09273274 0.088579096
000300 14 54 97 3c f2 ce 80 bd 35 5b 9e bd 42 39 89 bd
       0.018472709 -0.06289472 -0.0773224 -0.06700374
000310 51 b2 94 3d 67 f8 40 bd dd 16 8a 3c 8d 05 aa bd
       0.07260574 -0.047111895 0.016856605 -0.0830184
000320 f3 3e 0b 3d 4f 29 fc 3c df 2a bb 3d 2c c4 3e 3c
       0.03399558 0.030781416 0.091390364 0.011643451
000330 fe ee 8e 3b 3b 70 f3 bc 2d a7 52 bd 2c 63 87 3d
       0.004361986 -0.029716602 -0.051428962 0.066107124
000340 5c aa a2 3b c0 87 d6 bc f9 f6 f2 3c 07 57 92 bd
       0.004964156 -0.026187778 0.029658781 -0.071455054
000350 06 25 fe 3a 6a a2 e7 3c 58 d8 c2 bc 9c a1 31 3d
       0.0019389696 0.028275687 -0.023784801 0.043367013
000360 d8 d9 a5 bd 79 f3 5a bc 43 89 08 bd 8a 0b e3 3c
       -0.08098191 -0.0133637125 -0.033334028 0.027715463
000370 31 db 3d bd 10 ac 03 bd 67 2e 76 3c 3a cf 99 3d
       -0.046351615 -0.032146513 0.015025712 0.075102285
000380 e0 81 b6 3d b5 35 b4 bd e1 63 87 bc 10 6d 18 bc
       0.089114904 -0.08799306 -0.016527118 -0.009303346
000390 53 5a 9f 3d 73 4c 6b bd 9f 81 6f 3d 11 42 51 bd
       0.077809 -0.057445955 0.058473226 -0.051088396
0003a0 d2 6e 0a 3d 9a 80 96 3c 55 8f 92 3d 6e e4 16 bd
       0.033797093 0.018371869 0.07156245 -0.03683894
0003b0 8c ab 64 3d 42 a8 01 3d 28 f9 69 bd 2c c7 ac 3c
       0.055827662 0.031654604 -0.05712238 0.021091066
0003c0 b1 6b bd bc f4 c1 ea 3c 0c d8 15 3d 14 29 d7 bb
       -0.02312264 0.028656937 0.03658299 -0.006566176
0003d0 5f a0 89 bd 9a 0f 10 3a c7 5b 69 3d 15 7d 39 3d
       -0.067200415 0.0005495489 0.05697229 0.045285303
0003e0 e6 19 83 bc 77 7d 9e 3d 0d b8 1e bd 5a 36 f2 3d
       -0.01600356 0.07738774 -0.038749743 0.11826773
0003f0 c2 a2 56 3b 09 4b a2 3d 4e c2 71 3d 46 cf b2 bc
       0.003275082 0.07924468 0.059023194 -0.021827351

fc2.bias f4 [64]
000000 b6 16 9e bd 83 5d 76 3d 94 2a 8b bd 03 2e 58 b9
       -0.077191755 0.060147773 -0.067952305 -0.00020616506
000010 92 d1 2c bd af 59 3e 3d 77 68 3a 3d 19 49 90 3b
       -0.04219205 0.046472248 0.04550978 0.004403245
000020 13 8b 7e bd 05 01 90 3c a8 ca 7a 3d a3 71 af bd
       -0.06214435 0.017578611 0.061228424 -0.08566596
000030 e3 46 a0 3d 66 5b 17 bd cf 0f 4a 3d fb ea 6f 3d
       0.078260206 -0.0369524 0.049331482 0.058573704
000040 2c 11 90 3d 97 de 2f bd 28 fd 0d 3d 12 af 0c 3d
       0.07034525 -0.042936888 0.034665257 0.034346648
000050 e6 4f 94 bd 82 ee 63 3c 61 88 4e bc 1c 3e 95 3d
       -0.07241802 0.013911845 -0.012605757 0.07287237
000060 ef 16 73 3d ad 5a 08 3d 17 84 4c 3d 61 f8 eb bc
       0.059348043 0.0332896 0.04993066 -0.02880496
000070 80 fe 91 3c 0a f9 90 bc f8 3b 93 3d 51 78 9d bd
       0.01782155 -0.017696876 0.071891725 -0.07688964
000080 31 0d 4c 3d ed 24 48 3d 2c da 6f 3b 69 7a 8f 3d
       0.049817268 0.04886334 0.0036598546 0.0700577
000090 d3 7d 22 3d 93 a0 97 3d eb cc a9 bd 19 27 09 3d
       0.039670777 0.07403674 -0.08291038 0.033484552
0000a0 56 16 01 3d 5a 0e 37 3d 85 f3 0b bd 21 43 8b 3d
       0.03151544 0.04469142 -0.034167785 0.06799913
0000b0 b9 86 6b 3d 76 92 3a 3c 53 24 ee 3c 25 13 9b 3d
       0.05750153 0.011387458 0.029070055 0.07572011
0000c0 b5 73 ae 3d d3 b4 b2 bd a7 d0 73 3d 4d ca 73 bd
       0.08518163 -0.08725896 0.05952516 -0.0595191
0000d0 a8 da 29 bd 09 05 61 bd bb a3 3a bd 0d 9a a0 bd
       -0.041468292 -0.054936443 -0.0455663 -0.07841883
0000e0 cd ce d0 3c 97 a5 b3 3c 05 56 a9 bd 16 88 17 bd
       0.025489235 0.021929545 -0.0826836 -0.036995016
0000f0 26 de 51 ba f4 af ce 3c 93 02 19 bc 1f d9 0f bd
       -0.000800582 0.025230385 -0.009338993 -0.035119172
