logs/mappo_checkpoint_ep50.pth (torch, 451886 bytes, 28 tensors)

fc1.weight f4 [128, 147]
000000 00 0f b5 bc a8 bf 9a 3d 21 24 9b bd 83 e2 12 3d
       -0.02210188 0.07556087 -0.075752504 0.03586055
000010 90 d6 1e 3d aa e5 4e bc cc 3e 70 3a f6 d8 3b bd
       0.03877884 -0.012627998 0.0009164631 -0.045861207
000020 06 76 83 bd 1c 43 72 3d 3a 2f d9 bc 88 89 84 3d
       -0.064189956 0.05914603 -0.026511777 0.064715445
000030 b7 4b aa 3d f9 aa 15 3d a3 a8 44 3d 2a 6e 3c bd
       0.08315223 0.036540005 0.048012387 -0.046003498
000040 2c 3c 57 3d 80 e5 95 bd d4 f5 87 bd d0 d3 bf 3c
       0.05254762 -0.07319164 -0.06638685 0.02341643
000050 02 9f 8a 3d 97 bc b9 3c 7e 98 9e 3d 38 27 62 bd
       0.067686096 0.022672934 0.07743929 -0.055213183
000060 f2 a1 9b 3c e0 b5 6d bc 5b c6 ff 3c 62 32 0f bd
       0.01899812 -0.014508694 0.031222513 -0.03496016
000070 7c f7 83 3d 57 28 5d 3d f0 a4 a6 bd 5a b6 c4 bc
       0.06443688 0.05399355 -0.08136928 -0.024012733
000080 ad da 22 bc 97 2a 4e 3d 6e 14 a5 bc c1 13 82 bd
       -0.009939832 0.050333586 -0.020151343 -0.06351424
000090 38 3b 97 bd 73 07 9e bd f2 20 03 3d d6 ec 06 bd
       -0.07384342 -0.077162646 0.03201384 -0.032940708
0000a0 40 a3 89 3a 56 ea e3 3c 20 b1 7c bb 46 c3 89 3d
       0.0010500923 0.027821701 -0.0038557723 0.067266986
0000b0 bd 01 2b bd f6 39 77 bd c0 0c 6c 3c 70 7e 70 3d
       -0.041749705 -0.06035801 0.014407337 0.05871433
0000c0 4d 68 2f 3d c0 1a b8 3c a4 66 97 b9 05 70 e0 bc
       0.04282408 0.022473693 -0.00028877438 -0.027397165
0000d0 9a b8 ba bc dc 7f 63 bd 81 ca 39 bd b5 93 9d bd
       -0.022793103 -0.055541858 -0.04535914 -0.076941885
0000e0 89 c0 f3 3c 1c 7a 8f bd 90 aa a3 3c 09 de 28 3d
       0.029754894 -0.070057124 0.019978791 0.041227374
0000f0 28 97 91 bc f2 9f d7 bc a2 5c a4 3d 1f 08 ac 3c
       -0.017772272 -0.026321385 0.08025481 0.020999966
000100 66 2b 8e 3d c4 36 17 3d dd 78 99 bd 90 1e 87 bc
       0.06941871 0.036917463 -0.07493756 -0.016494066
000110 15 9a fb bc c8 f6 66 3d a1 e9 9a 3d 0e 59 56 bd
       -0.03071312 0.056387693 0.075640924 -0.052331023
000120 81 1f 3c bd ca cc b1 bc ab 28 6b bc 8f b2 97 3d
       -0.045928482 -0.021704096 -0.014352958 0.07407104
000130 10 cb 00 bc 70 d1 53 bd 56 cb 7b bd f7 b4 b6 3c
       -0.007860914 -0.051713407 -0.061473213 0.022303088
000140 ce c9 b6 3a fa 1f f8 bc 5b d2 6f 3c 4c 2d 1f bd
       0.001394564 -0.030288685 0.014637555 -0.038861558
000150 8f b6 39 bc 9b 0f 90 3d 0f f3 74 bd 15 52 6f bd
       -0.011335029 0.070342265 -0.05980211 -0.05842789
000160 14 7d 2c 3d 94 f8 92 bd b3 8d ea bc 7a 1c b3 bc
       0.04211147 -0.07176319 -0.02863202 -0.021864165
000170 b6 06 61 bc 3a b2 43 bc 78 f2 10 bd 75 2b 96 bd
       -0.01373451 -0.011944348 -0.035387486 -0.073325075
000180 9c a6 42 3c 4d 17 5b 3d d0 e2 22 3c 30 e0 52 bc
       0.011880543 0.05348902 0.009941772 -0.012870833
000190 7c a4 9d 3d ec d5 03 3d dd 2a 2c 3d f2 ad 76 bd
       0.076973885 0.032186434 0.042033065 -0.06022448
0001a0 77 fe 2f 3d 71 40 a2 bc d5 8e 9b 3d ee 1b 6d bd
       0.042967286 -0.019806119 0.075956024 -0.057887964
0001b0 c3 28 1b bd 60 e3 89 3b 63 8b 2a 3d 36 cc a1 bb
       -0.03788067 0.0042080134 0.041636836 -0.004937674
0001c0 f3 19 2b bd 89 be 05 bb 1b 1a 7b 3d a4 28 fa 3c
       -0.041772794 -0.0020407757 0.061304193 0.030536957
0001d0 f7 cf 23 3d b0 d5 b5 3c 5c 6c 96 bc 2b 72 a8 3c
       0.039993253 0.02219662 -0.018362217 0.020562252
0001e0 04 97 85 3d 92 1e 95 3d 8e 03 32 3d cd 24 85 bd
       0.065229446 0.072812214 0.04346042 -0.0650116
0001f0 c8 60 36 bc 1c 15 4f 3d ca 62 32 bb 2b 55 0f bd
       -0.011131473 0.05055724 -0.0027219527 -0.034993332
000200 28 dc 51 bd 10 e9 e4 3c 12 72 8d bd 58 29 74 bd
       -0.051235348 0.027943164 -0.06906523 -0.05960974
000210 d2 01 ff bc d8 f7 22 3d 9b d3 8a bd 2f f8 59 3b
       -0.031128798 0.039787143 -0.06778642 0.0033259501
000220 44 92 61 bd 3f 2c 0e bd 42 c8 83 bd 84 f3 fd bc
       -0.05507113 -0.034710165 -0.064346805 -0.030999906
000230 e3 ec 1e 3d 7e 13 a2 3d 38 08 82 bd c8 b0 71 bb
       0.03880013 0.07913874 -0.06349224 -0.0036879051
000240 7e 8b 7a bd c4 4e 8a bc ea f3 9e 3d 2e 8a 38 bd
       -0.061168186 -0.016883262 0.07761367 -0.045053653
000250 6f 10 2d bd 20 77 94 3d 72 e6 e0 3c 05 15 99 bd
       -0.042252 0.07249284 0.027453635 -0.07474712
000260 97 bf a9 bd 26 b9 e7 3c 98 d7 aa bc 5b 1c be 3c
       -0.08288496 0.028286528 -0.020854756 0.02320688
000270 33 8c 82 bd 14 d2 93 3d a2 44 30 3c 3f 44 2a ba
       -0.06374397 0.072178036 0.010758551 -0.0006495155
000280 49 ab 97 3d 6d 61 87 bd 0e f6 a4 3d 28 bf 20 bd
       0.07405717 -0.06610379 0.08054744 -0.0392448
000290 12 e7 ea ba 66 bd 69 3d bd c6 96 3d a8 ab b9 3b
       -0.0017921648 0.05706539 0.07362125 0.005666215
0002a0 25 85 da bb 86 77 8d 3d 2d 4f 78 3d e3 ac 99 3d
       -0.006668704 0.06907563 0.060622383 0.07503679
0002b0 c9 2e 8e 3d b6 f5 41 bd b5 fa 8b 3d 5c 5c 3d 3c
       0.06942517 -0.04735347 0.06834928 0.011557665
0002c0 92 eb 6f 3d e6 e1 7e 3d 43 b9 8c 3c a6 41 98 3d
       0.058574267 0.062227152 0.017178183 0.074343964
0002d0 de fa 36 bd 20 e0 aa bd 71 0b 1b bc c7 22 91 3d
       -0.04467284 -0.0834353 -0.009463177 0.070867114
0002e0 85 2a 9c 3d bb 6a 1a 3d 36 43 a4 3c 06 d0 83 bd
       0.076252975 0.037699442 0.02005158 -0.06436162
0002f0 2d e3 4e 3d e5 6b 2d 3d d6 13 5b bd c8 c3 44 bb
       0.05050962 0.042339224 -0.053485714 -0.0030023921
000300 9d 71 45 bd 35 93 91 3d 89 96 a0 bd 3f 4c 75 bd
       -0.048204053 0.07108156 -0.07841212 -0.059887167
000310 c9 88 05 bd 32 e8 93 3d 8a 25 60 3d ba 98 ee bc
       -0.03260115 0.07222022 0.0547233 -0.02912556
000320 0d a9 d1 bc 42 66 df 3b af 8a 98 bd f9 ce ae bc
       -0.025593305 0.00681761 -0.07448327 -0.021338927
000330 0d 5c e4 bc 01 80 43 bd 46 8e 68 3d 3c a6 63 bd
       -0.027875924 -0.047729496 0.056776308 -0.055578455
000340 f8 93 86 3c 70 ee a9 bd 6b 50 41 bd ff a4 e3 3a
       0.016427979 -0.082974315 -0.047195833 0.0017367898
000350 7a 00 57 3c 43 7b 05 bd f5 2d 04 3d 8f 82 60 3d
       0.013122672 -0.032588255 0.03227039 0.05481201
000360 bc d2 fd bb cc 4d 6e bd 21 63 12 bd 0a b3 31 3d
       -0.0077460688 -0.05817966 -0.035739068 0.043383636
000370 0f 41 87 bd 08 cc 01 bc dd 31 77 3d 10 91 85 3d
       -0.06604206 -0.00792218 0.060350288 0.06521809
000380 80 d4 6e 3d 4b a5 5f bd 5c d5 bc bc b0 4d d8 3b
       0.058308125 -0.054600995 -0.023050956 0.006601058
000390 14 01 6f 3d d0 e1 5f 3d 58 88 42 bc d5 ce 47 bd
       0.058350638 0.05465871 -0.011873327 -0.048781235
0003a0 c0 88 9b 3d 08 b8 49 3d 42 27 98 bd 6e 7b 0a 3d
       0.07594442 0.04924777 -0.07429363 0.033809118
0003b0 db c2 90 3d f5 12 69 bd c9 da 24 bd 2f ec 85 3d
       0.07068416 -0.056902844 -0.040247712 0.06539189
0003c0 e0 d7 45 bd e6 21 cd bc fb ab 92 3d c9 a0 89 3d
       -0.048301578 -0.025040578 0.07161709 0.067201205
0003d0 d6 57 88 bd e0 15 b8 3c 98 46 26 3c 7c c1 50 bc
       -0.066573784 0.022471368 0.010148667 -0.012741443
0003e0 1b 2c a1 3d 6b 41 6f 3d 1d a5 9f 3c e3 ac 4d bd
       0.078697406 0.058411997 0.019487912 -0.050213706
0003f0 28 fd 49 3c 46 02 97 3d 20 7f 79 bd 4c db 93 3d
       0.012328424 0.073734805 -0.06091225 0.07219562

fc1.bias f4 [128]
000000 8b 0e 71 bd 2f b7 ae 3d f0 ba 8b bd 0d a5 f9 3c
       -0.05885176 0.08531033 -0.06822765 0.03047421
000010 f6 dd 88 bc 0a dc 21 bd 5d de c0 bb 2f 4c 5b 3b
       -0.016707402 -0.039516486 -0.005885883 0.0033462157
000020 40 e4 60 3d ea c5 d5 3b 60 8d 57 3d 4a c3 9f 3d
       0.054905176 0.0065238373 0.05262506 0.0780092
000030 da a3 04 bd b1 30 aa 3d dc 9b 8a 3d 51 c9 15 bd
       -0.032382824 0.083100684 0.06768009 -0.036568943
000040 e5 d9 cc bb ac c0 0e bd b0 cd d3 3b 18 e5 7e bd
       -0.006251561 -0.034851715 0.006463729 -0.0622302
000050 08 d2 9a 3c 6d 63 3a bd 40 a3 c2 bc 39 f9 e3 bc
       0.018898979 -0.045504976 -0.023759484 -0.0278288
000060 29 c8 76 bd 89 d8 3e 3d 56 f0 65 3d 71 b1 8d bc
       -0.06024948 0.046593223 0.056137405 -0.017296525
000070 c5 7b 88 bd 31 55 be 3c 3c 80 9b bd b4 e7 11 3d
       -0.06664232 0.023233982 -0.07592818 0.03562136
000080 24 9e 8b 3d 31 7d b8 3d b5 d1 7c bd 84 e2 58 3c
       0.06817272 0.09008253 -0.06172343 0.013237599
000090 4c b0 e5 bb 7a e8 df 3c 93 82 5a bd 43 23 76 bd
       -0.0070095416 0.027332533 -0.05334718 -0.060092222
0000a0 38 21 c7 3c 66 4a 9c 3d f7 0e b7 3c 1f 70 92 bd
       0.024307832 0.07631378 0.022346003 -0.07150292
0000b0 95 7f 8a bd 3c a4 a6 3d 26 5a 4a bb 66 7b eb 3c
       -0.067626156 0.08136794 -0.0030876487 0.028745364
0000c0 8e 43 0f bd 2f e8 43 bd a4 15 be bc e1 a2 87 bd
       -0.034976535 -0.04782885 -0.023203678 -0.066228636
0000d0 e0 e5 92 3d 1f 03 82 bd 80 38 1e 3d 11 2b a6 3c
       0.071727514 -0.063482516 0.0386281 0.020284208
0000e0 3e e6 d9 3c 6e 7b 0f 3b bc 06 39 3c 09 59 bb 3b
       0.026599046 0.0021893638 0.0112931095 0.005717401
0000f0 69 92 ed 3a 86 fe d6 3c 04 bc 56 bd fe 62 58 bd
       0.0018125299 0.026244413 -0.0524254 -0.05282878
000100 c3 c4 85 3d bb c8 80 3d 20 a4 8d 3d d2 ea 9c 3c
       0.0653167 0.06288286 0.0691607 0.01915494
000110 0c ca a9 bc 21 f6 72 bd c5 28 11 3d aa fb f5 bc
       -0.020726226 -0.059316758 0.03543927 -0.03002723
000120 cc db a8 3d d7 6d a6 bd 45 6a 93 bd 73 dd 2b bb
       0.08245048 -0.08126419 -0.07198004 -0.0026224523
000130 87 f1 d9 bc 87 5f ad 3c 3b c3 14 bc ab 4f 55 bd
       -0.026604427 0.021163715 -0.00907975 -0.05207793
000140 2a 5e 9a 3d bf 99 80 3d 3e ac 54 3d 80 e2 ab 3d
       0.075374916 0.06279325 0.051922075 0.08392811
000150 a3 95 1d 3d 50 6d a9 3d 12 20 cb 3c 6c f7 54 3d
       0.038472783 0.08272803 0.024795566 0.051993772
000160 1c ae 38 bd 73 c8 37 3d ee 81 84 3d 54 1b 80 3d
       -0.04508792 0.044868898 0.064700946 0.062552124
000170 d0 24 76 3d 63 85 87 3d b3 11 6c ba 0f 3f 28 bc
       0.0600937 0.066172384 -0.0009005323 -0.010268941
000180 65 97 88 3b 66 27 8d 3c ac a4 ad 3d bc 3f 1b bd
       0.0041684383 0.0172307 0.08478674 -0.03790258
000190 85 41 66 3d 71 2d 91 3d 01 50 b1 3d 4d ab 83 3d
       0.056214828 0.070887454 0.08657838 0.064291574
0001a0 45 2f 59 3d af ab 45 3c 70 b1 0a 3b 44 e2 36 3d
       0.053023595 0.012064858 0.002116289 0.044649377
0001b0 6d e6 b5 3d fc 05 99 3d b1 c9 89 bd eb a9 8a 3d
       0.08881841 0.074718446 -0.06727923 0.067706905
0001c0 b0 62 8c 3d 4f 12 6b bd 98 a6 37 3c 5a d5 0a bd
       0.06854761 -0.057390507 0.011209153 -0.033894874
0001d0 61 6c aa bb d2 d6 65 3d f1 d2 9e 3c d1 3e 82 3d
       -0.005200908 0.05611307 0.019387694 0.063596375
0001e0 9e 05 da bc 8b 51 36 bc 18 d3 9e bd a1 4e 3a 3d
       -0.026614007 -0.01112784 -0.07755107 0.045485143
0001f0 48 82 7a bd 10 fb 86 bc 01 85 70 bd 0b d7 58 3d
       -0.061159402 -0.016477138 -0.058720592 0.052939456

fc2.weight f4 [64, 128]
000000 95 be cb 3b a6 71 8b 3c 7f 03 d8 3c 25 0d a4 3d
       0.0062177875 0.017021965 0.026368855 0.080103196
000010 a7 b2 9d bd 1b c9 b5 3d f3 b2 a3 3d c5 ab 0b 3c
       -0.07700091 0.088762484 0.07993116 0.00852484
000020 a6 0a 49 bc 41 bd 06 3c dc ad 03 bd 18 37 62 bb
       -0.012270605 0.008223833 -0.032148227 -0.0034517702
000030 84 54 fe bc b9 88 66 3d 1a b3 90 bd dc 92 c9 bc
       -0.03104616 0.056282733 -0.07065411 -0.02460616
000040 3f 24 20 3d c1 17 a1 bd ed 19 4c bc c6 54 2a 38
       0.039097067 -0.07865859 -0.012457353 4.061011e-05
000050 96 17 87 3d 9c 92 85 3c f8 52 43 3d 38 73 80 3d
       0.065962955 0.01630526 0.047686547 0.06271976
000060 ad 63 8e 3d 1a 50 38 3d ed 52 8e 3c 2c 15 8a 3d
       0.069526054 0.044998266 0.017373526 0.067423195
000070 45 21 ff bc 2e 7e b4 3c 46 8e 31 3d 58 be 7a 3c
       -0.031143794 0.022032823 0.043348573 0.015304171
000080 81 c6 7d bb c0 aa ce 3a 7f 5f 16 3c 52 0d bd bd
       -0.0038723054 0.001576744 0.0091780415 -0.09231056
000090 97 66 5a 3d b0 e8 92 bc e9 a2 be 3c 2f 8c 81 bc
       0.053320494 -0.01793322 0.023271041 -0.015813915
0000a0 e2 80 cf bc 1b a9 05 3d cb 19 0d 3d 8c 45 15 bd
       -0.02533001 0.032631975 0.034448426 -0.03644328
0000b0 32 b0 9b bd 50 65 00 3d 9f af 89 3d bb 58 a9 3c
       -0.07601966 0.03134662 0.0672295 0.020672193
0000c0 44 00 fb 3c d7 e1 7a 3d a1 3f 20 bd 57 1b af bd
       0.030639775 0.061250534 -0.03912318 -0.085501365
0000d0 6b 1a 26 bd 2d c9 c7 bc 72 50 55 bd 67 e0 59 3c
       -0.040552538 -0.02438792 -0.05207867 0.013298131
0000e0 84 00 60 bc 7f 7c b2 3c 4f 09 b0 bc 6d 69 5b bc
       -0.013671998 0.02178788 -0.021488814 -0.013391835
0000f0 19 0a 80 3d 2c e7 8d 3d 9c 8a 8c bc 38 62 aa 3c
       0.06251926 0.06928858 -0.017155938 0.020798787
000100 4a eb b1 bd a2 99 1c 3d cf 6d 8b 3d 03 d9 f1 bc
       -0.08687456 0.038232453 0.06808054 -0.029522425
000110 4b 2b 74 3d 28 6c 93 bd 22 15 fa 3c b0 10 32 3d
       0.0596116 -0.071983635 0.030527655 0.043472946
000120 29 a0 82 bd 83 ec 80 3c 04 57 80 bd e7 98 f2 bc
       -0.063782044 0.015737778 -0.06266597 -0.029613925
000130 45 84 af bd 37 aa 3c 3d 1b ba 6c 3d 68 83 b7 bd
       -0.0857015 0.046060767 0.05779467 -0.08960611
000140 2a 95 3a bd 1d 07 cc ba c1 2c b4 3c fe 46 a7 bd
       -0.04555241 -0.0015566085 0.021993997 -0.081678376
000150 5f 4f 96 bd db b4 af bd 97 32 9c 3d f6 d8 96 3b
       -0.073393576 -0.08579417 0.07626837 0.0046035005
000160 67 83 a6 bc 4e ad a5 bc b8 39 39 bd 82 1c 06 3c
       -0.02032633 -0.02022424 -0.04522106 0.008185508
000170 23 d5 85 3b 0d a7 a3 bd fe 3b d5 3c 82 c4 03 bc
       0.004084246 -0.07990847 0.026029583 -0.008042457
000180 a8 ec d4 3b 34 69 a5 3c 85 a2 6d ba b0 81 96 3d
       0.006497938 0.020191766 -0.000906505 0.07348955
000190 73 c2 be bd a2 9f ed bc 6a 6b a6 3c e6 8b 22 bd
       -0.09314432 -0.029006783 0.02031489 -0.0396842
0001a0 df c1 86 3d 55 17 9b bd 58 01 92 3d 84 ed 87 bc
       0.06579947 -0.075728096 0.071291625 -0.016592748
0001b0 7b 21 e5 bc eb 31 a9 bd 0b bc 30 bb ea 2d a6 bd
       -0.027970066 -0.08261474 -0.002696755 -0.08114226
0001c0 33 01 92 bd 8a 18 a0 bd 24 84 78 bd b1 87 c8 3b
       -0.07129135 -0.078171805 -0.060672894 0.0061196913
0001d0 c2 ac b0 3c cc b9 3c bd bc af 38 3c 65 a7 cc bc
       0.021566752 -0.046075627 0.011272367 -0.024982164
0001e0 d1 ad 97 bc 1f 65 c7 3c 3e 8c 77 bd 3a 01 94 bd
       -0.0185155 0.02434021 -0.06043648 -0.072267964
0001f0 b6 c8 a1 bc 89 45 c0 bd e1 25 9d bd a6 b0 1c bd
       -0.019749027 -0.09388263 -0.076732405 -0.038254403
000200 fc 5d e1 bc 2f 15 37 3c 8f 41 50 3d a2 45 d4 3c
       -0.027510636 0.011174484 0.05084377 0.02591211
000210 a0 e1 68 bd 87 42 ad bb 0d ee 95 3c 48 16 57 bd
       -0.056855798 -0.0052874717 0.018301988 -0.052511483
000220 17 62 f5 bc fa ba f6 bc d5 b4 aa 3d 38 e9 2a bd
       -0.029954 -0.030118454 0.08335272 -0.04172632
000230 16 fc 83 3c ad 1d c9 3c 4f 6f 8d 3d 6b 59 59 3d
       0.016111415 0.024550283 0.06905996 0.05306379
000240 18 6f ac bd 34 5d 89 bd c0 eb 7f 3d bf a9 af 3b
       -0.08419627 -0.0670723 0.062480688 0.0053608115
000250 76 3a 9f bc f6 8b 3b bd a0 ba 83 3d bf e2 30 3d
       -0.019437056 -0.045787774 0.0643208 0.043184992
000260 f2 1e 31 3d 33 c2 96 3d a2 c6 17 3d 4c 35 a9 3d
       0.043242402 0.07361259 0.037054665 0.08262119
000270 75 1f 3f bd b4 45 5f bd 3d d7 48 3d 7e 93 8e bd
       -0.04666086 -0.054509833 0.049033392 -0.06961726
000280 a5 c1 8a bd e5 14 8b bd ab ed 3d 3d 87 cb 6c bd
       -0.06775216 -0.06791095 0.046369236 -0.057811286
000290 ab e1 e8 3c ea ca 51 bd 25 91 28 3d 7f 33 47 3d
       0.02842792 -0.051218905 0.041154046 0.048633095
0002a0 e3 4e ca bb 88 7d 74 3b ca 2d 95 bd 18 ad 88 3d
       -0.006173955 0.0037306268 -0.07284124 0.0667364
0002b0 27 e5 66 bd fb cd 40 bd d5 92 15 3d f1 d5 10 bd
       -0.05637088 -0.04707144 0.036516983 -0.03536028
0002c0 fc 56 0f bd 91 65 06 bc 87 70 4b 3b 2d f2 6d 3d
       -0.034995064 -0.008202926 0.0031042413 0.058092285
0002d0 91 8d 84 3c 8a 37 75 bd e8 cc 81 3d 32 e0 21 3d
       0.016180785 -0.05986742 0.06337911 0.03952045
0002e0 de f2 2b 3d 14 8a 0b bd 31 29 b0 bd 26 eb ae 3d
       0.041979663 -0.03406723 -0.08601607 0.08540945
0002f0 19 0c 88 bd e9 50 69 3d b3 8a 92 bd aa 8a 45 bb
       -0.066429324 0.056961928 -0.07155361 -0.0030142465
000300 2d 1e 96 bc 0a f5 90 bd c6 09 49 3d 9d 62 9b 3d
       -0.018324936 -0.070779875 0.049081586 0.07587168
000310 a1 7f a7 3c 3d 52 95 3c 3a 64 3b 3d 15 ce a3 3d
       0.0204466 0.01822769 0.04574988 0.079982914
000320 8d 18 74 bd 94 a5 80 3d b2 bc 77 bc 3e 8b 19 bd
       -0.059593726 0.062815815 -0.015120672 -0.037486307
000330 8d 44 bf 3d 39 1e a2 bd 73 7c 3d 3d 6a 15 ac 3d
       0.09339247 -0.07915921 0.046261262 0.08402522
000340 6d 6f b4 3c fc 2f ad 3d d0 60 2d bd a1 b3 01 bd
       0.022025788 0.08456418 -0.042328656 -0.031665448
000350 c2 ef 57 bd 6b 6c d4 3c 90 5f 6a bd a6 b3 f4 bc
       -0.052718885 0.025930604 -0.05722004 -0.02987082
000360 8c 2a 9e bd d2 7e 4e 3d 37 d7 ed 3c b7 a6 2b bd
       -0.07722959 0.050413914 0.029033286 -0.04190704
000370 ad b5 a3 bd 60 b1 c8 3c c5 1d 8d 3d ec 99 46 3d
       -0.07993636 0.024498641 0.06890444 0.048486635
000380 c5 26 a1 bd f1 bd a6 bb 8c c6 6f 3d 42 7d 80 bd
       -0.07868723 -0.0050885607 0.05853896 -0.06273891
000390 a1 2b 6e 3d 74 63 22 3d 57 4b 31 3c 3f 78 81 3d
       0.058147077 0.039645627 0.010821185 0.06321763
0003a0 c8 03 47 bd 34 9f 9e ba 25 f3 2b 3c df 0d 9f 3d
       -0.04858759 -0.001210189 0.010494982 0.077663176
0003b0 85 35 d2 3c 62 7f 4e 3a bf e4 29 3d 03 e2 a3 bc
       0.025660286 0.0007877258 0.041477915 -0.020005232
0003c0 70 f4 f8 bc 37 55 7a bd 6b 84 18 bc 91 76 6d 3d
       -0.030389994 -0.061116423 -0.009308915 0.0579744
0003d0 ac a2 52 3d 53 f8 23 bd 40 22 19 3d 68 a7 69 bd
       0.051424667 -0.040031742 0.03738618 -0.057044417
0003e0 8c 3a 45 bd 97 df a5 3d f5 58 00 3d 43 62 98 3d
       -0.048151538 0.08099287 0.031334836 0.07440617
0003f0 7c 1b 19 3c 74 ed 69 bd 55 cb 57 bd cd e9 23 3b
       0.009344932 -0.05711122 -0.052684147 0.0025011182

fc2.bias f4 [64]
000000 74 80 3f 3d 48 9c ac 3c c6 70 ad bc 96 01 ff bb
       0.04675336 0.021070614 -0.021171939 -0.0077821715
000010 8c d2 65 bc d6 e4 52 3d c8 7a 23 3d 28 0d 9e bd
       -0.014027249 0.051487766 0.039912015 -0.07717353
000020 1b e7 74 3d 4f 61 24 bd 50 fc 4c 3d eb 30 7c 3d
       0.05979071 -0.040131863 0.05004531 0.06157009
000030 4f 08 47 3d cc d4 5e bd 2c d1 cc 3b 87 02 14 3d
       0.048591908 -0.054402158 0.006250521 0.036135223
000040 31 8c 66 bd a9 5d ae bc 92 38 b6 3c 78 33 34 3d
       -0.05628604 -0.021284895 0.022243772 0.043994397
000050 5c 70 93 3b 6d 4a 5c 3d 72 ca 59 3c 49 24 77 bc
       0.0044994783 0.053781915 0.013292896 -0.015084335
000060 0b f4 cf bb a9 8d a6 bd 09 00 d4 bb 7c 17 61 3d
       -0.006346231 -0.08132488 -0.0064697308 0.054954037
000070 86 98 a0 bd b6 21 ac 3d 98 d0 8c 3c 2d 3e a8 bd
       -0.078415915 0.08404867 0.017189309 -0.08214984
000080 bc 0e 9d 3d cd 66 d6 bb de f8 32 bd d6 6e 6f 3d
       0.07668826 -0.0065430165 -0.04369437 0.05845531
000090 cc 9b a7 bb 0f 2f 4a 3d 10 2b a5 bd 8f a5 b5 ba
       -0.005115008 0.049361285 -0.08064854 -0.0013858544
0000a0 b0 2d 07 3c 42 0c 70 bc ac e9 8e bd 17 a4 a8 3d
       0.008250639 -0.01465136 -0.06978163 0.08234423
0000b0 e3 a5 84 3d ba ec 06 bd e1 d2 43 bd c0 1e 89 3c
       0.06476953 -0.032940604 -0.04780853 0.016738296
0000c0 f6 63 3b 3c 7b a1 b3 3d ec 7a 62 bd 96 ff 26 3b
       0.011437407 0.08771034 -0.05529301 0.002548193
0000d0 b0 d7 32 3d 0b 77 34 39 ef 99 0d 3d 85 63 a3 bd
       0.043662727 0.00017210485 0.03457063 -0.07977966
0000e0 2d 44 a7 bd e3 8a b3 bc bf ee ad 3c 05 a1 7c bd
       -0.081673004 -0.021916812 0.021232007 -0.061676998
0000f0 bf 22 be 3c 8e b2 99 3d 3a 4b b6 3d b4 24 0a 3d
       0.023209928 0.0750476 0.08901067 0.03372641

action_head.weight f4 [5, 64]
000000 2a aa e6 3d b3 7c e1 3c c5 7b 1a bc c8 47 15 3d
       0.11262925 0.027525282 -0.009428923 0.03644541
000010 48 74 f1 3d 19 83 ea 3b 83 1b bd bd a4 c3 a9 3d
       0.11789757 0.0071567413 -0.09233763 0.082892686
000020 97 8d c0 3d 2f cd ee bc 97 24 e6 3d 41 b9 e4 bd
       0.09402006 -0.029150574 0.11237448 -0.11168147
000030 2e da d1 3b 96 cb 9b bd a2 35 85 3d f3 08 9b bd
       0.006404183 -0.0760719 0.0650437 -0.07570066
000040 38 01 14 3d 0e 47 7b 3d e9 12 6c 3d 1d 55 ee 3c
       0.036133975 0.06134706 0.05763522 0.02909332
000050 ee 99 c3 3d 0a 45 28 3d 98 68 a8 bc 0a df f8 3d
       0.09550844 0.041081466 -0.020557687 0.12151916
000060 b0 10 88 3d a8 20 b0 bc 2c cb f7 bd a1 d3 24 bd
       0.06643808 -0.021499947 -0.12099299 -0.040240888
000070 2e 8e 19 3d 7f 0d 9b bd 85 73 1a bd c8 34 30 3d
       0.03748911 -0.075709336 -0.037707824 0.043019086
000080 b6 5b 21 bd 2c 94 ae 3d ad e5 c9 3d f6 d3 b2 3d
       -0.039394103 0.08524355 0.0985826 0.087318346
000090 40 ec 82 bd 50 6b b9 3d ac a4 25 3d 40 70 94 3b
       -0.06392717 0.09053671 0.040440246 0.004529983
0000a0 3a ca c1 bd 5f 07 60 3d 82 55 3e 3c 39 48 97 bd
       -0.094624 0.05469453 0.011617066 -0.07386822
0000b0 73 f8 f1 bc bf d5 f7 3d 28 c1 7f bd 49 96 c5 3d
       -0.029537415 0.12101316 -0.062440068 0.09647805
0000c0 a5 0b a3 bd 53 cd 63 bd 79 d7 bf bc cb b4 cc bd
       -0.079612054 -0.055615734 -0.023418175 -0.09995421
0000d0 62 cd fc 3c 2b 18 06 bb d8 1a c3 bd c8 01 21 3d
       0.030859653 -0.0020461183 -0.095266044 0.03930834
0000e0 20 40 e0 bc fe a9 90 bd ae 39 4d bc a2 ca e1 3d
       -0.027374327 -0.070636734 -0.012525959 0.11024977
0000f0 51 20 99 3c 07 f3 b8 3d 22 fb f5 3c c4 a2 ba bb
       0.018692167 0.09030729 0.030026976 -0.0056956727
000100 49 ae c2 bd 21 c9 47 bd e8 5f 63 3c 2e 54 d3 bc
       -0.095058985 -0.048775796 0.013877846 -0.025796976
000110 23 ed e0 3c ca 83 75 3b 62 43 5c bd 18 20 f8 bd
       0.027456826 0.0037462586 -0.0537752 -0.121154964
000120 1a cb 5b bb 70 5e 7d 3d 20 df 9d bd f4 e7 e9 bd
       -0.0033537806 0.06185764 -0.07708573 -0.11421195
000130 b0 57 8e bd b3 bf c5 3d 84 98 cf 3d 38 9c 66 bd
       -0.06950319 0.09655704 0.10136512 -0.056301326
000140 e0 41 8d 3d f5 bd 1a b9 a7 c2 45 bd 0d e6 19 bd
       0.0689733 -0.00014757349 -0.048281338 -0.03757291
000150 c2 8c bc bd cd 2a 79 bd 76 b5 b3 3d 1f a6 9a bb
       -0.09206535 -0.060831834 0.08774845 -0.00471951
000160 f1 c3 cf bc da 29 b8 3d 1c 9a 80 3d 9e df fa bd
       -0.025361987 0.089923576 0.06279394 -0.12249683
000170 cd 59 35 3d d5 60 02 bd 64 51 7e bd ed e1 b6 3d
       0.044275094 -0.031830627 -0.06208934 0.08929811
000180 72 ec 97 bd 6c 8c d6 3d 0d 2a 03 3d 40 85 6b bd
       -0.07418145 0.10476002 0.032022525 -0.057500124
000190 02 74 6a bd a4 a5 aa 3d 26 77 b2 3d e5 a0 6e bd
       -0.05723954 0.08332375 0.08714132 -0.05825891
0001a0 17 d8 3e 3d 66 b9 79 3d 3e c1 c6 3d f5 17 ae bc
       0.046592798 0.060967825 0.09704827 -0.021251658
0001b0 ce b4 49 bd 25 1b 72 3d fc 72 98 bd 37 93 41 3d
       -0.049244694 0.05910792 -0.074438065 0.047259536
0001c0 59 64 1d 3d 9d a0 97 3d af 3b e1 3d 57 51 eb 3d
       0.038425777 0.074036814 0.10997712 0.11490124
0001d0 fd a3 e2 3d f7 8e 84 3d b8 c4 25 3d 78 d3 d8 bd
       0.110664345 0.06472581 0.04047081 -0.105872095
0001e0 28 03 93 bb 93 8d 8d 3d 88 64 27 3d 6e 87 aa 3d
       -0.0044864602 0.06911769 0.04086736 0.083266124
0001f0 a5 3e b4 bd 59 4f 45 bd 04 61 0e 3d 33 15 00 3e
       -0.08801011 -0.048171375 0.03476049 0.12508087
000200 7b 4d 7f bc 66 06 f5 3c b7 33 a9 3d 14 9d 91 bd
       -0.015582438 0.029910278 0.08261817 -0.071100384
000210 33 c5 d0 bd 9d 01 89 3d 05 73 07 3d ec f7 9d bd
       -0.10193863 0.06689761 0.033068676 -0.07713303
000220 22 c0 2c bc dd 16 94 3d 83 ef 71 3c 30 00 da bc
       -0.010543855 0.07230923 0.014766577 -0.026611418
000230 3e 37 dd bc 18 e1 c5 3d 9b 4a f2 3d 77 84 f2 bc
       -0.02700388 0.09662074 0.11830636 -0.02960418
000240 c2 83 f3 bd 37 b0 d7 3d bf e5 7b 3d a7 70 b4 bd
       -0.11890365 0.10531657 0.0614984 -0.08810549
000250 96 d6 53 bd 62 19 4a 3d 0e 06 de 3d e6 25 3f bd
       -0.051718317 0.049340613 0.108409986 -0.046667002
000260 dc ca f0 bd e0 20 76 bc ab d1 37 3d be d1 93 bd
       -0.11757442 -0.015022486 0.04487769 -0.072177395
000270 0b cd 9a 3d 0b 9a 3f bc 34 ef 26 bd 18 db c9 bd
       0.0755864 -0.011694442 -0.040755466 -0.09856242
000280 85 9e 00 be 60 47 d8 3d d9 d5 f7 3d 21 ed 84 bd
       -0.1256047 0.10560489 0.12101335 -0.06490541
000290 3e 4a dc bd 5c 29 f1 bd 2c 52 08 bd b6 2e b0 3d
       -0.10756348 -0.11775467 -0.03328149 0.086026594
0002a0 97 c2 3e bd ec 2b 9b 3d 18 42 91 bb 4f d1 b2 3b
       -0.046572294 0.07576737 -0.004432928 0.0054570804
0002b0 cc bf c5 3b 2e 15 e6 3c 48 76 b8 bd d8 ab d0 3d
       0.006034827 0.028086271 -0.09006935 0.101890266
0002c0 ca a1 ea bb 71 ef 86 3c e8 56 99 bd 34 20 20 bc
       -0.0071604 0.016471596 -0.07487279 -0.009773303
0002d0 20 8e 92 b9 fd 73 68 bd 85 88 49 3d b4 7f 7a 3d
       -0.0002795318 -0.05675124 0.04920246 0.061156943
0002e0 06 28 85 3d 69 b5 df 3c 50 c8 0b 3c 52 bf 86 3b
       0.065017745 0.027308183 0.008531645 0.0041121626
0002f0 0b 11 61 bd a5 0d 84 3d 42 82 23 bd 76 f6 5e 3d
       -0.054947894 0.06447915 -0.039919145 0.054434262
000300 c0 ac 78 bd 86 e6 eb 3d ac d4 01 be 3f a1 81 bd
       -0.060711622 0.11518578 -0.12678784 -0.063295834
000310 3c 7b dd 3d 47 65 96 bd b1 71 d3 3d f0 62 42 3c
       0.10814521 -0.07343536 0.10324419 0.011864409
000320 a7 92 f0 bd 92 b5 52 bc b8 9c 79 bd ca 53 87 3d
       -0.11746722 -0.012860673 -0.060940474 0.06607778
000330 f9 17 76 3d 30 7a f2 3d 11 d1 26 3d c8 bf a3 3d
       0.060081456 0.11839712 0.040726725 0.07995564
000340 88 85 3a bd 0e 99 16 bd 5b 13 7d bd 95 f4 2f 3c
       -0.0455375 -0.036767058 -0.061786037 0.010739465
000350 0b ef cc 3d 55 47 49 bb e6 4c 1f 3d d3 df c8 bd
       0.10006531 -0.0030712683 0.038891695 -0.09808316
000360 2d ea 56 3d 6e d9 eb bd 52 e6 63 3d 14 19 c6 bd
       0.05246942 -0.11516081 0.055639572 -0.09672752
000370 d1 54 a0 bd a1 fe ba bd 7f be a2 bd ad 67 56 bd
       -0.078286774 -0.09130598 -0.079464905 -0.052344967
000380 a4 f3 c1 bd 71 64 8b bb 62 e7 05 3d 6c 6e 4a 3c
       -0.09470299 -0.004253917 0.032691367 0.012355428
000390 ad 26 22 bd b7 27 8b 3d 4c c5 ea 3d 60 06 b4 bd
       -0.039587665 0.067946844 0.11463413 -0.087902784
0003a0 2c be a8 bd 99 ad f9 bd da 14 a0 bb 2b e4 a4 b9
       -0.082393974 -0.12191314 -0.004885298 -0.00031450516
0003b0 96 2e b4 bd ff 77 e8 3d 41 0c d8 3c f0 2d ba 3d
       -0.08797948 0.113510124 0.02637303 0.09090793
0003c0 b8 f4 3f bd 2a d7 8b bd cb 5f 1f bc a0 00 de bd
       -0.04686424 -0.06828149 -0.009727429 -0.10839963
0003d0 33 64 55 3d 39 10 e5 bd d5 96 3d bd 70 81 31 3d
       0.05209751 -0.11184735 -0.046286423 0.04333633
0003e0 6e 57 a1 bd dc ee f5 bd dd 6d 83 3c 6d 9a e9 bd
       -0.07878004 -0.120084494 0.016043598 -0.114064075
0003f0 4f d7 35 3d 3c 56 1c bd 0e 30 07 3d 7a 8e 87 3b
       0.044394787 -0.038168177 0.033004813 0.0041368576

action_head.bias f4 [5]
000000 3d 58 21 3d eb 19 d6 bb c6 29 33 bc 53 f6 b9 3d
       0.03939079 -0.0065338514 -0.0109352525 0.09080186
000010 26 84 0e 3d
       0.034793995

value_head.weight f4 [1, 64]
000000 3a 75 4f bd a6 51 9f 3d e2 27 7e 3d ba 6e 7d 3d
       -0.050648905 0.07779245 0.062049754 0.061873175
000010 9c ea e9 3d e8 51 c9 bd f4 a9 00 3e 8e ca b1 3d
       0.11421701 -0.098300755 0.12564832 0.08681212
000020 ae 77 0a 3c 40 1d c2 3d 8c 5e b4 bc 43 30 9b 3d
       0.008451385 0.09478235 -0.02201774 0.075775646
000030 eb f7 08 3e 64 fa d3 bd 95 7c f4 bd bb 08 5d 3d
       0.13375823 -0.103504926 -0.11937825 0.053963404
000040 c0 d4 03 3d e1 65 02 be 55 e8 7b bc 3c d5 98 3d
       0.032185316 -0.12734176 -0.0153752165 0.07462546
000050 f5 3e 9f 3d 6b b3 96 3c b9 a5 cf bc 42 30 83 bd
       0.0777568 0.0183961 -0.025347577 -0.06405689
000060 76 4d 27 bc 80 22 c3 3a 9e 5b 99 3b ea 88 c4 3d
       -0.010211339 0.0014887601 0.004680111 0.09596427
000070 75 07 4c bd e5 97 f7 bd 2a 38 63 bd df 23 b0 3d
       -0.0498118 -0.120895185 -0.055473484 0.08600592
000080 56 ad d7 bd a6 e6 b5 bd e9 10 98 bd d8 3d 7c 3d
       -0.10531108 -0.08881883 -0.074251 0.061582416
000090 c2 6b 83 bb ee 31 cc 3d 20 dc c5 3d 47 87 30 bd
       -0.0040106485 0.09970461 0.09661126 -0.04309776
0000a0 53 7f 2b bd 1b e7 d0 3d 2d bf 8f 3d 18 cc 3c bd
       -0.041869473 0.1020033 0.07018886 -0.046093076
0000b0 87 e0 b0 bc 99 cb 90 3d 19 31 a8 3c 40 7c df 3d
       -0.021591438 0.07070083 0.020531224 0.10912371
0000c0 60 f8 95 3b 95 35 0c be f7 ad 00 3e 6f 4d a1 bd
       0.0045767277 -0.13692315 0.12566362 -0.078760974
0000d0 ec 7a b7 bd 5f a4 d4 3d b7 14 d6 3d 70 9e 00 3d
       -0.08958992 0.10382914 0.1045317 0.031401098
0000e0 8a ec 5b 3d ec 77 6c bd ac 83 e0 bd a4 17 f4 bc
       0.053692378 -0.057731554 -0.109626144 -0.029796429
0000f0 6c 0a 0c bd a5 56 97 bd 93 0a b0 bd 42 52 fd bd
       -0.034189627 -0.07389573 -0.08595767 -0.12369205

fc1.weight f4 [128, 147]
000000 3f f4 32 3d d3 8e 07 3d 79 7c 98 bb c3 71 2e 3d
       0.043689962 0.033095192 -0.00465351 0.04258896
000010 f0 2a 93 3d ee 4c d7 3c 42 a3 c9 bc a9 09 ad 3d
       0.07185924 0.0262818 -0.02461398 0.08449108
000020 72 40 3f 3d 03 aa f5 3c 28 3b 27 bd 94 eb 7c bd
       0.04669232 0.029988294 -0.0408279 -0.061748102
000030 0e 01 2e bd 7b 30 a1 bd 14 04 25 3d 83 b5 aa bc
       -0.042481475 -0.07870575 0.040287092 -0.020838505
000040 1c 68 78 bd 29 cd 21 3d c7 69 d1 3c ef 37 ae 3d
       -0.06064616 0.039502297 0.025563134 0.08506762
000050 20 54 49 3d e8 5d 61 3d e1 62 d4 bc c3 f4 9d bc
       0.049152493 0.055021197 -0.025926055 -0.01928175
000060 4b 2a 84 bd 5a 17 71 3b bb de 8c 3d 24 36 90 3c
       -0.06453379 0.00367876 0.0687842 0.017603941
000070 aa 81 50 bd 49 df 62 3d cd 76 49 3d a6 cf b8 3c
       -0.050904907 0.055388723 0.049185563 0.022559952
000080 b8 cb 42 3d 24 4c b2 3c 2b ff 45 bb c6 4d 8f 3d
       0.047557563 0.021764822 -0.0030211906 0.06997256
000090 79 f3 8e bc 82 0b b2 3d b2 13 71 3d 78 f3 6d bd
       -0.017450081 0.08693601 0.058856674 -0.058093518
0000a0 45 a1 33 ba 88 4d 17 bc 84 81 9f 3c 74 52 22 bd
       -0.0006852339 -0.0092347935 0.019470938 -0.039629415
0000b0 76 78 f2 3c fe bb 5b 3d 76 43 81 3d da e2 88 bd
       0.029598456 0.05364608 0.06311695 -0.066838935
0000c0 dd 5f c9 bc d1 5f ee 3c 23 e3 97 3d f2 70 9a bd
       -0.024581844 0.029098423 0.0741637 -0.07541074
0000d0 fe 28 7a 3d c4 93 97 3d 23 9c 86 bc 9e 87 9a bb
       0.06107425 0.07401231 -0.016431874 -0.004715874
0000e0 90 d5 d1 bb 66 fd 8b 3d d4 ac b6 3c ff da 94 bd
       -0.0064036325 0.06835441 0.022299208 -0.07268333
0000f0 62 34 a9 3c 96 03 c5 3c 5d 24 90 bc f5 42 97 3d
       0.02065486 0.024049561 -0.017595464 0.07385818
000100 de 30 24 3d 7a d8 bf 3c c7 ff 73 bd f3 93 94 bc
       0.040085666 0.023418654 -0.0595701 -0.018136954
000110 70 13 5b bc 31 54 e2 3c 12 96 61 bd e5 a8 4c 3d
       -0.0133713335 0.027628036 -0.05507476 0.049965758
000120 4e ae 3a bc 6f e9 55 3c 66 bc 5f bd 1e 9f d4 bc
       -0.011394097 0.013056143 -0.05462303 -0.02595478
000130 d2 0a 61 bd 4f 01 bd bc 30 c3 09 3d 56 e6 78 3c
       -0.05494196 -0.023071913 0.03363341 0.015191635
000140 54 02 85 3c 04 04 a2 bc f9 18 90 3d 1e 88 af 3c
       0.016236462 -0.019777305 0.07036013 0.02142721
000150 41 c0 ba bc 26 fe 5d bd 40 75 82 3d 19 61 32 bd
       -0.022796752 -0.054197453 0.0637002 -0.04354963
000160 d3 b6 5b 3d f7 37 ac 3d 93 3c ff 3c 0d 6b ab bb
       0.05364115 0.08409112 0.031156814 -0.0052312673
000170 09 5a a7 3d 63 78 16 bd ce 86 1e 3d 20 54 a7 bc
       0.0817147 -0.036735903 0.03870278 -0.020425856
000180 d9 02 85 bd a6 0b 0e bc 23 f4 d0 3b 73 69 3a 3d
       -0.06494684 -0.008669769 0.0063767596 0.04551072
000190 e4 e0 1c bd a3 17 e9 3a 9b ec 94 3c d5 15 59 3d
       -0.03830041 0.0017783534 0.018179229 0.052999336
0001a0 e9 5b 16 bc f8 58 0d 3d 1d 4b 81 3d 50 8d ca bb
       -0.0091771865 0.034508675 0.06313155 -0.0061813965
0001b0 f6 ed 7d bd 11 99 38 3d f7 8e 41 bc 48 f0 36 3d
       -0.061994515 0.04506785 -0.011813871 0.044662744
0001c0 15 2e 64 3d c0 86 a6 3b cf 34 5e 3b d2 b0 59 3c
       0.05570801 0.0050819814 0.0033905988 0.013286786
0001d0 3f f1 8b bc 9a 1a fc 3c 27 e2 47 bd 49 26 f5 bc
       -0.017082809 0.030774403 -0.04879966 -0.029925482
0001e0 57 2a 90 bd d4 70 7c bd 8d ad 04 bc 85 32 80 bd
       -0.07039326 -0.06163104 -0.008098018 -0.06259636
0001f0 7e 92 af 3c d4 f2 e4 3c 4c ac 88 3d ad 37 71 bd
       0.021432158 0.02794782 0.06673488 -0.058890987
000200 94 c3 8d bc db dc 09 bd 7a 28 33 3c 7d c9 70 bd
       -0.017305173 -0.03365789 0.010934943 -0.058785904
000210 25 c5 a6 3c 22 32 35 3d 43 7a 74 bd cf a6 66 3d
       0.020357678 0.044237264 -0.05968691 0.056311425
000220 3f d4 86 3d 99 86 9e 3d 41 37 dd bb 14 57 83 bd
       0.065834515 0.07740516 -0.0067509715 -0.06413093
000230 69 19 51 3d 0f 0c fe bc 95 66 a8 bc e0 1a f8 3c
       0.051049624 -0.03101161 -0.020556727 0.030286252
000240 dd dd 87 bd 1a 65 90 bd 27 8a 70 bd 0a 82 f2 3c
       -0.06634114 -0.070505336 -0.058725502 0.029603023
000250 58 94 d4 3c e5 3e d8 bc 38 6e a2 bc 0d 04 29 3d
       0.025949642 -0.026397178 -0.019827947 0.04126363
000260 c1 94 95 3d d2 36 22 bc 1f 50 58 bc 3c 1b 66 3d
       0.07303763 -0.0099007655 -0.013202696 0.056178316
000270 11 78 0b 3d b5 5d c4 bc 13 9b 27 bd a3 a5 5a bc
       0.03405005 -0.023970464 -0.040919375 -0.013345155
000280 5e 5c c2 3c 34 4f cf bc e1 e8 3f bb a3 d5 a2 bd
       0.023725685 -0.025306322 -0.0029283094 -0.07950904
000290 ec de 81 3b 8c 42 81 3d ef 3c 56 bc 3b a2 4a bd
       0.003963342 0.06311521 -0.013076051 -0.04947112
0002a0 49 e2 93 3d 61 44 84 3d 9b e2 8c bd 19 6e 22 3c
       0.07220895 0.06458355 -0.06879159 0.009913945
0002b0 93 6e 5f 3d 8a a3 76 bc 7e 2c a1 bd e5 30 44 3d
       0.05454881 -0.015053639 -0.07869814 0.047898192
0002c0 a2 09 9e bd f2 e2 a7 bd 4b 8c 87 bd df 2d f4 bc
       -0.07716681 -0.08197583 -0.06618556 -0.02980703
0002d0 29 49 19 bc b6 60 9b 3c 4a e0 79 3d 9b 06 e4 bc
       -0.009355822 0.018967014 0.061004914 -0.027835181
0002e0 2c 58 95 3c b2 3c 03 3d ba bb 80 bd ac a1 80 bc
       0.01823052 0.032040305 -0.06285806 -0.015702091
0002f0 94 aa 80 3d 20 e4 8c bd 55 b6 84 bd 52 97 2b bd
       0.06282535 -0.06879449 -0.064800896 -0.041892357
000300 c7 25 b2 3d 79 c2 af 3c d2 07 96 3c ec 5f 98 3d
       0.08698612 0.021455036 0.018314276 0.07440171
000310 68 89 ab bc 6e ca 30 3d 0e 7b 66 3d ad 43 85 bd
       -0.020939544 0.043161802 0.056269698 -0.06507049
000320 77 11 a1 3d a4 2c 88 bd cf 64 12 3d 89 72 8a 3d
       0.07864659 -0.066491395 0.03574067 0.06760127
000330 02 74 8f bc 9d 85 54 3c 84 7d 83 bd 1c 67 fb 3b
       -0.017511372 0.012971309 -0.064204246 0.0076722037
000340 3d d8 a0 3c d4 ae cb bc 78 5d 6f bd 6c cd 8c 3c
       0.01963436 -0.024863638 -0.058438748 0.017187797
000350 18 0f c9 3b a6 d8 2b bd 3a ff 0d bc cb cd 95 bc
       0.0061358325 -0.04195466 -0.008666808 -0.018286606
000360 9b 0b ac bd ef 9f 58 3d fd 55 70 bd fe f7 22 bd
       -0.08400651 0.0528869 -0.058675755 -0.039787285
000370 3c 96 e0 bc 83 f2 3c 3d 2d 7e a2 bb f6 0b 16 3d
       -0.027415387 0.046129715 -0.004958889 0.0366325
000380 15 f5 0e 3c af d2 89 3c 5a d3 d2 3b d8 e6 62 bd
       0.008725424 0.016824095 0.0064338865 -0.05539593
000390 83 c8 53 3a ff d2 52 3d a8 1a a4 bc 6a c7 70 3d
       0.000807889 0.051470753 -0.020032242 0.058783926
0003a0 39 eb a1 3d eb 45 84 bd d4 f0 93 3d 38 35 90 bd
       0.07906193 -0.06458648 0.07223669 -0.07041401
0003b0 e0 a9 ac bd 49 b8 6d 3d ec 5e 76 bd 84 71 da b9
       -0.084308386 0.058037076 -0.06014912 -0.00041664776
0003c0 5b 5b b4 3c 10 87 c2 bc 02 3d ed 3c a0 76 eb 3b
       0.022016218 -0.023746043 0.028959755 0.007185772
0003d0 2e eb 7a bd cc 9c 8c 3d 16 bb 30 3b 89 b5 99 3d
       -0.06125944 0.06865844 0.002696698 0.07505328
0003e0 4a c2 03 bd d0 65 2b bd 34 4b 62 3d e8 c5 21 bd
       -0.03216771 -0.041845143 0.0552475 -0.03949538
0003f0 0d cf 51 bd 4a 09 08 3d 7d 04 f4 3b 2d 03 da 3b
       -0.05122285 0.033211984 0.007446824 0.0066532106

fc1.bias f4 [128]
000000 fa 9f 46 3d fc 77 0f bc 87 a4 9e bd e5 49 6b bd
       0.04849241 -0.008756634 -0.07746225 -0.05744352
000010 ba 78 d3 3c a9 45 e1 3b 67 d9 96 bd 62 2d 45 3d
       0.025814403 0.006874759 -0.07365685 0.048138984
000020 18 de 8b bd 38 4e ad 3c 7f 4b 48 3d 1b f4 4f bd
       -0.068294704 0.021155462 0.048900124 -0.050769906
000030 4a 79 81 3c 48 42 49 bd 09 94 77 bd 56 9a 8e bd
       0.015804905 -0.049135476 -0.06044391 -0.06963031
000040 94 06 99 3d c5 1d 88 3d 0f 7f 9d bd ab 5a 8b 3d
       0.07471958 0.06646303 -0.0769025 0.06804403
000050 cb dc b0 3d e9 b3 82 bd 28 bc 88 bd 66 fe a2 bd
       0.08635863 -0.063819714 -0.06676513 -0.07958679
000060 a3 33 e2 3b 01 dd 76 3d 3f 2f a6 3d 8b 69 07 3d
       0.006903128 0.06026936 0.0811448 0.033059638
000070 8c 6d 5d bd 41 8b 21 bd e1 25 41 3d 76 b7 78 bd
       -0.05405955 -0.039439443 0.047155265 -0.060721837
000080 e4 96 80 bd aa 6b 26 3d 6f 58 67 bd 88 c2 b6 3c
       -0.0627878 0.04063002 -0.05648082 0.022309557
000090 7d 99 2d 3d 78 e1 2a bd 86 f2 59 bb 86 dc 1b bd
       0.042382706 -0.04171893 -0.0033256127 -0.038052104
0000a0 1d 38 a9 3c 37 cc 45 3d 69 69 de 3c 15 6b 5a bd
       0.02065664 0.048290458 0.027149873 -0.053324778
0000b0 e3 8b dd bc 85 a0 e4 bb f4 3d 7d 3c ac 21 a0 3d
       -0.027044242 -0.006977143 0.015456665 0.078189224
0000c0 f1 4d 2b 3c c5 af 3a 3d 8f 5b d8 3c 37 bb 97 3d
       0.010455594 0.045577783 0.026410846 0.07408755
0000d0 29 8f 9d 3d 72 11 74 bd 1f 41 04 3c 02 e9 f3 3c
       0.07693321 -0.05958695 0.008072167 0.029774193
0000e0 c6 fd d7 bc 74 32 85 bd c4 56 22 bd 75 e0 db bb
       -0.026366126 -0.06503764 -0.039633527 -0.006710107
0000f0 69 1e 80 bc 66 7f 47 3c 4b f6 60 bb ca 54 4f 3d
       -0.0156395 0.01217637 -0.003432649 0.05061797
000100 d8 65 8b 3d 80 72 7d 3d 56 b6 87 3d 34 12 05 bd
       0.068065345 0.061876774 0.06626575 -0.032488063
000110 43 d6 63 bd 5b 71 62 bc 2b 74 76 3c 55 1b 2c ba
       -0.055624258 -0.013820971 0.015042345 -0.0006565352
000120 0b 0a 4e bd f8 6c 21 bd d8 df f7 bc 1f 47 7c bd
       -0.050302546 -0.03941056 -0.030258104 -0.061591264
000130 c3 04 4a bd 33 54 42 3d 0a eb d8 bb ab b9 0e 3c
       -0.049320947 0.04744358 -0.0066198157 0.008711259
000140 9f df 9b 3d 64 7a 90 bc 40 9b cd b8 87 f0 97 bd
       0.07611012 -0.017636485 -9.804079e-05 -0.07418924
000150 56 ce 7a 3d 72 3a 14 3d e2 f1 70 bd 8f 94 c2 3b
       0.061231934 0.03618855 -0.058824427 0.0059381197
000160 fb 5b 88 3d b0 f6 a4 3d 50 17 85 bd 7d 4f 69 bd
       0.06658169 0.080548644 -0.06498587 -0.05696057
000170 84 4e c4 bc 5a 2e 0b bd 27 3a 8e 3d c0 ca 35 bd
       -0.02396322 -0.03397975 0.069446854 -0.04438281
000180 04 8d 83 bc 54 b3 99 bc 8d f2 56 3c 07 a2 e8 3b
       -0.016058452 -0.018762268 0.013119352 0.0070993933
000190 f1 10 4e 3d 74 05 9a 3d 9d 63 9d bb 40 19 8e 3d
       0.050309125 0.07520571 -0.0048031346 0.0693841
0001a0 71 92 91 3d 79 3d ad 3d 95 2e 3e bd 72 cd 55 3d
       0.071080096 0.084589906 -0.046431143 0.05219788
0001b0 9c 40 06 3d c4 34 e2 bc 1b 2c 8d 3d 45 18 34 bd
       0.03277646 -0.027613051 0.06893178 -0.043968458
0001c0 97 e5 e0 bc f6 6e 27 3c 18 a6 34 3d 29 be 02 bc
       -0.027453227 0.010219326 0.04410371 -0.007979908
0001d0 7d 6d 56 3d 8b c4 ee bb a8 20 9c 3d ca bf 29 3d
       0.05235051 -0.0072866133 0.07623416 0.04144267
0001e0 be 13 9d bd 73 15 86 3d 1c 4a 68 bc 5f f1 cb ba
       -0.07669781 0.0654706 -0.014177825 -0.0015559605
0001f0 81 56 93 bd 1f 12 63 3d 71 e5 40 3d 34 8a 84 3d
       -0.07194234 0.055437203 0.047093812 0.06471673

fc2.weight f4 [64, 128]
000000 5b f2 b1 3d f8 34 d1 bc 61 7e 0a bd 52 d8 68 3d
       0.08688804 -0.025537953 -0.03381193 0.056846924
000010 ae b5 0b bd 98 b7 a2 bc 42 7a a5 bd 26 9a 4d 3d
       -0.03410881 -0.019862935 -0.080799595 0.050195836
000020 70 1f ba 3b d0 bd ba bb ee 0e 5c 3d b2 90 b0 bd
       0.005680017 -0.005698897 0.053725176 -0.086213484
000030 c4 64 e2 bc aa 9d 51 3d 24 f5 8f bc 5a ef 2f 3d
       -0.02763594 0.05117575 -0.017572947 0.042952873
000040 3e 2c 5a bd f0 ac db 3b 90 45 b5 3c 6f 5f 2f bd
       -0.05326485 0.0067039654 0.022127897 -0.042815622
000050 96 66 aa bd d2 40 58 3d 0c be dd bc 31 a3 97 3d
       -0.08320348 0.052796192 -0.02706816 0.07404173
000060 0e fc b3 bd cf 19 26 bd 72 37 1b 3d 64 46 88 bd
       -0.0878831 -0.040551957 0.037894674 -0.06654051
000070 80 79 74 3c 39 be 39 bd d8 ef 77 bc d8 f3 31 bc
       0.014921546 -0.045347426 -0.015132867 -0.01086136
000080 6d 74 44 bd 90 a6 a9 3b 5c 34 b2 bd 97 9a 2b bd
       -0.047962595 0.0051773265 -0.08701393 -0.041895475
000090 00 e2 c9 ba ad 72 b1 3d a2 2d 42 3d e0 c1 0e bb
       -0.0015402436 0.08664451 0.0474068 -0.002178304
0000a0 92 34 9b bd 8f 11 58 bd 8d 86 89 3d 3e 22 4e 3d
       -0.07578386 -0.05275112 0.06715117 0.050325625
0000b0 30 ae 63 3c b0 c0 bf 3b d7 d7 91 bd 52 57 7e bd
       0.01389651 0.0058518276 -0.07121246 -0.062094994
0000c0 e4 c4 8e bd cd 67 82 3d d7 96 a5 bd cd 71 a1 bd
       -0.06971148 0.06367455 -0.08085411 -0.07883034
0000d0 ee 84 68 3d 58 58 d1 bc bb 24 82 3d 38 2a a6 bc
       0.056767397 -0.02555482 0.06354662 -0.020283803
0000e0 30 53 97 bb 28 ef 7a bc 52 e2 02 3d 1d f4 83 3d
       -0.004618071 -0.015315808 0.031954117 0.06443045
0000f0 9b d0 20 bd 52 b1 dc bc ab 1a a9 3d 84 de d4 3c
       -0.03926144 -0.026940022 0.0825704 0.02598501
000100 b0 a6 16 bd c8 fe 83 bc b8 80 be bc 36 7d 57 3d
       -0.03678006 -0.0161127 -0.023254737 0.052609645
000110 f6 de ab bd bc c3 8d bd 00 6a 9e bd 92 66 1c 3d
       -0.08392136 -0.06922099 -0.07735062 0.038183756
000120 fe b9 95 bd 80 5d b8 3c 39 fe 9b 3d c7 da 96 3d
       -0.07310866 0.022505522 0.076168485 0.07365947
000130 7a 10 6d bd 1e 8b 87 bd e3 27 5f bd d4 cd d0 3c
       -0.05787704 -0.066183314 -0.0544814 0.025488771
000140 f9 28 91 3d cf e7 b0 bd bf 87 5a bd 8d 8b 99 bd
       0.07087893 -0.08637964 -0.053352114 -0.0749732
000150 a5 d9 8f bd 02 d0 6d 3d 68 ab 5b 3c 96 66 47 3d
       -0.07023934 0.0580597 0.013407566 0.048681818
000160 f6 79 96 bd cd b4 86 bd f1 e2 ae bd a0 94 f0 3c
       -0.07347481 -0.06577454 -0.085393794 0.029367745
000170 ca 27 7f 3d 30 41 87 bc 0d 5f 24 bd 20 b9 a1 bc
       0.062293805 -0.016510576 -0.04012971 -0.019741595
000180 8a db 7e 3d 43 c3 ab bd 49 6e 1a bd 73 8c 88 3d
       0.062221088 -0.083868526 -0.037702832 0.066674136
000190 b1 b3 57 bd fc cd fe 3c 0e e2 7e bd 58 67 f0 3c
       -0.0526616 0.03110408 -0.0622273 0.029346153
0001a0 cb d6 94 3d 62 c4 63 3d 7c ed 60 bd 56 19 4b 3d
       0.07267531 0.055607207 -0.054913983 0.04958471
0001b0 20 e4 46 bb e6 03 83 bd 60 1b 7c bb 16 56 64 3d
       -0.0030348375 -0.06397228 -0.0038468465 0.05574616
0001c0 48 d9 7f 3c d0 dc c7 bc 38 3a 24 3c 58 49 7a 3c
       0.015615769 -0.024397284 0.010023646 0.015276276
0001d0 ce d0 1c bd c6 4e 45 3d 74 ad 84 bc 83 a8 85 3d
       -0.03828507 0.048170827 -0.01619599 0.06526282
0001e0 ce 1e 56 3d d9 8a ae 3d 06 a5 62 3d 66 40 91 bd
       0.05227547 0.08522577 0.05533316 -0.07092361
0001f0 08 f8 85 bc 92 64 31 3d c8 b1 1f bc f0 8e f6 bb
       -0.016353622 0.043308802 -0.009746976 -0.0075243637
000200 0f 09 6b 3d 45 3b f4 bb 3e ce 99 3d a6 62 82 3d
       0.057381686 -0.0074533545 0.07510041 0.06366472
000210 f0 31 55 3d 47 90 42 3b bc be 5a 3d bd 59 bb bd
       0.052049577 0.0029688047 0.053404555 -0.091479756
000220 ab fe 91 3c 8f 5b 93 bd 00 81 2f bd 03 e2 50 bd
       0.01782163 -0.07195198 -0.042847633 -0.05099679
000230 d8 72 80 bd de f7 82 bc 83 bb 3f bd 21 36 a2 3c
       -0.06271905 -0.015987333 -0.046809684 0.019801201
000240 b3 c8 aa bd 08 fb 64 bd c7 68 fe 3c fc 89 5a bc
       -0.083390616 -0.055903465 0.031055821 -0.013338562
000250 cd a6 f5 3c a5 be 97 bd 26 d2 57 bb e4 35 6a bd
       0.029986763 -0.074094094 -0.0032931655 -0.0571803
000260 41 9c 7f 3d ef de cc 3c 6b 65 b2 bd 7a 98 70 bd
       0.062404875 0.025008647 -0.0871075 -0.058739163
000270 d0 a3 67 3d 1e e3 aa 3d af b2 a1 3d a7 39 9d bd
       0.05655271 0.083441004 0.07895409 -0.07677012
000280 36 47 2e 3c f1 1b 7c bd 47 ca b2 3d 3d e3 a0 bd
       0.010637095 -0.061550085 0.087299876 -0.07855842
000290 05 97 49 3d a8 60 03 bd 8a 8b 2d bd 4f b0 59 3d
       0.04921629 -0.0320746 -0.042369403 0.053146657
0002a0 c4 31 30 bd 18 50 a7 bd fd c2 a8 3c b5 46 1a 3d
       -0.04301621 -0.081695735 0.02060079 0.037665088
0002b0 f7 30 d2 3c f1 d4 55 bd 9c 43 ee 3a 80 dd 48 3d
       0.025658114 -0.05220503 0.0018178108 0.049039364
0002c0 26 12 b6 3d 62 c2 87 3d 49 4e 0b 3d 34 a2 a0 3d
       0.0889018 0.066288725 0.034010205 0.07843438
0002d0 31 e1 91 3d 10 4b 67 bd 8e b3 8e 3d 2c 89 a2 bd
       0.0712303 -0.05646807 0.06967841 -0.0793632
0002e0 a9 ff 7d bd 31 91 28 3d 64 2d 7f bd e9 ef 8c bc
       -0.062011395 0.04115409 -0.062299147 -0.017204242
0002f0 ba 86 af bd 60 6b d1 bc 01 94 98 3d 3f c7 ae 3d
       -0.08570619 -0.025563896 0.074501045 0.08534097
000300 52 24 6e 3a d8 15 a9 bd 8c 71 95 bd 92 d1 62 bd
       0.00090843916 -0.082561195 -0.07297048 -0.055375643
000310 92 2c 34 3d ab 1f 65 bd e4 e7 1f 3d 95 af 9c bd
       0.043987818 -0.055938404 0.039039508 -0.07650677
000320 b2 fa 20 3d f6 df 33 3c c8 c1 89 3d d8 8f ba bb
       0.03930158 0.010978689 0.06726414 -0.005693417
000330 c2 6a a5 bc 54 c3 5b bd 9e 76 79 bd 8c d3 5b 3d
       -0.020192508 -0.053653076 -0.060904138 0.053668544
000340 b0 a4 c7 3c 24 7b 1e bc 3c a3 4f 3d 56 eb 6b bd
       0.024370521 -0.009672914 0.05069278 -0.05759748
000350 3b 19 88 3b 19 73 2f 3d 57 83 4f bd be 71 a6 3c
       0.0041533983 0.042834375 -0.050662365 0.020317908
000360 d1 07 9f bd 37 73 da ba 88 51 db bc 4b ab b5 bb
       -0.07765163 -0.0016666417 -0.026772276 -0.0055441014
000370 c0 39 d5 bc 2f 3f 22 bd 72 05 1d 39 fe 2c 72 3d
       -0.026028514 -0.039611038 0.00014974715 0.05912494
000380 15 fd 7e 3d 24 ff ac bd db 13 b1 bc 87 31 dd 3b
       0.062253077 -0.08447102 -0.021615913 0.006750289
000390 65 8f 54 3d ab b0 49 bd 21 c9 d1 3c 28 1a 8b bd
       0.051894564 -0.04924075 0.025608601 -0.06792098
0003a0 40 4d 51 3d 9b 1b 89 3c 97 25 7c 3d f7 33 ae bc
       0.051099062 0.016736796 0.061559286 -0.021265013
0003b0 ec f1 95 3d 86 d3 2b 3d da 62 95 bd a5 f5 7c 3c
       0.073215336 0.04194977 -0.07294245 0.015439426
0003c0 fa cc 26 bd 0c 25 a8 3c 1a 14 50 3c 30 de b2 bb
       -0.040722825 0.020525478 0.012700105 -0.0054586157
0003d0 05 1d 83 bd 47 71 5a 3b b6 76 89 3d 4a 57 24 3d
       -0.064020194 0.0033331679 0.067120954 0.040122308
0003e0 d5 f5 23 bd 59 20 af 3d 8a 27 62 bd 0b 4a c4 3d
       -0.040029366 0.08551092 -0.05521349 0.09584435
0003f0 7e 3c 18 3c 52 06 8e 3d e6 cf 87 3d f9 7a 47 bc
       0.009291766 0.06934799 0.0663145 -0.012175315

fc2.bias f4 [64]
000000 b6 16 9e bd a6 22 67 3d 93 66 82 bd 69 33 8d bc
       -0.077191755 0.056429528 -0.06367221 -0.017236428
000010 d6 59 6f bd 35 30 ec 3c 37 c5 09 3d 7a a1 ce bb
       -0.058435284 0.02883158 0.033635344 -0.0063058706
000020 3c 7e 9d bd 84 42 95 3b 68 da 56 3d e2 4d 9f bd
       -0.07690093 0.0045550484 0.052454382 -0.07778527
000030 fe b9 8c 3d 80 76 07 bd ce 40 c5 3c 95 d8 21 3d
       0.06871413 -0.033071995 0.024078753 0.03951319
000040 b2 5c 94 3d 56 53 65 bd 38 69 1c 3d 4f 03 3f 3c
       0.07244243 -0.05598768 0.038186282 0.011658504
000050 60 38 b5 bd ba 87 4e bc 0c 54 c0 bc 8e e0 78 3d
       -0.08848643 -0.012605602 -0.023477577 0.060761027
000060 61 37 8a 3d 68 dd 5b 3c 15 1d 00 3d fe ec 51 bd
       0.06748844 0.013419487 0.031277735 -0.051251404
000070 d9 9d 90 3c e7 94 bd bc b1 3f 4a 3d 77 6a 97 bd
       0.017653393 -0.023142291 0.049377147 -0.073933534
000080 74 8e 12 3d 68 d1 e6 3c 5b 17 34 3b af 79 91 3d
       0.035780385 0.028176025 0.0027479741 0.071032874
000090 e1 f4 80 3c ff b0 8a 3d 1a b4 a3 bd e2 b8 08 3c
       0.015741767 0.067720406 -0.07993336 0.008344861
0000a0 10 e4 3c 3c 05 8b 10 3d 2d f3 09 bd 8f 49 80 3d
       0.011528984 0.03528883 -0.033679176 0.0626403
0000b0 f7 ce 54 3d 07 47 52 bc 9d ed 02 3c b4 1d 6d 3d
       0.05195519 -0.012834317 0.007991222 0.057889655
0000c0 d6 06 a3 3d 9d 02 a9 bd f8 ad 39 3d c7 bb a4 bd
       0.07960288 -0.082524516 0.045331925 -0.08043628
0000d0 dc 02 3a bd bd f0 5b bd c1 17 77 bd 90 6e 8b bd
       -0.045412883 -0.053696383 -0.060325388 -0.068081975
0000e0 2e 03 87 3c c7 f1 17 3c 55 dc ae bd c2 43 77 bd
       0.016481008 0.009273953 -0.08538119 -0.060367353
0000f0 b4 c0 52 bc 44 ce 8b 3c 29 14 89 bc 9e c0 0d bd
       -0.012863327 0.017066129 -0.016733246 -0.034607522
