logs/mappo_checkpoint_ep400.pth (torch, 451986 bytes, 28 tensors)

fc1.weight f4 [128, 147]
000000 7a 07 a2 bc 5a ac c5 3d 2f c6 7c bd 8e 53 f3 3c
       -0.019778956 0.09652014 -0.06171244 0.029702928
000010 cd fe 3e 3d 00 00 ad 3b c4 40 84 bb cc bf 03 bd
       0.046629716 0.005279541 -0.004036041 -0.032165334
000020 76 9c 13 bd 9a e6 2f 3d 92 ee cc bc ea 74 85 3d
       -0.036037885 0.04294453 -0.025016103 0.0651644
000030 b4 d8 81 3d fe 8c 82 3d 43 a6 73 3d 06 ae 1b bd
       0.06340161 0.063745484 0.05948473 -0.03800776
000040 95 7d 8d 3d fe 4b 94 bd 43 19 7f bd 40 b5 20 3d
       0.069087185 -0.07241057 -0.06227995 0.039235353
000050 35 e1 9d 3d 1e df ed 3c ad 9a c8 3d f8 68 22 bd
       0.077089705 0.029037055 0.09795127 -0.039650887
000060 da aa dc 38 7f f3 e9 bb bd c0 0e 3d 9b 37 08 bd
       0.00010522241 -0.0071396227 0.03485178 -0.033256155
000070 1c 85 b2 3d 42 34 91 3d cf d3 9c bd 9a 9d 49 bc
       0.08716795 0.070900455 -0.07657587 -0.012305642
000080 61 fd 09 bc a4 72 e2 3c e5 c3 9c bc 05 11 81 bd
       -0.008422227 0.027642556 -0.019136379 -0.06302074
000090 1e c3 8a bd 22 b2 99 bd 82 04 42 3d df 78 ee bc
       -0.06775497 -0.07504679 0.04736758 -0.02911037
0000a0 60 d2 c3 bb d8 14 1b 3d 41 26 91 3b 3e 0c bf 3d
       -0.0059760064 0.037861675 0.004429609 0.09328507
0000b0 f3 01 df bc ff 2d 84 bd 24 75 c1 3c 74 c6 67 3d
       -0.02722261 -0.064540856 0.023615427 0.056585744
0000c0 86 7b bb 3c 81 cf 18 3d 5e 36 90 3c e9 f4 66 bc
       0.022886049 0.037307266 0.01760405 -0.014096477
0000d0 90 14 8a bc 19 3f 1c bd bd d5 32 bd e6 62 a3 bd
       -0.016855508 -0.038146112 -0.043660868 -0.07977848
0000e0 7b 64 10 3d 03 d3 94 bd da a9 47 3d e0 f9 51 3d
       0.035252076 -0.0726681 0.048745967 0.05126369
0000f0 f9 23 16 bc 42 cb 9d bc 8d 66 b7 3d 4f fd 69 3c
       -0.00916385 -0.01926196 0.08955107 0.014281585
000100 7c a6 c3 3d 99 3c 5f 3d 77 f4 55 bd 8f 66 be bb
       0.09553239 0.05450115 -0.052235093 -0.005810566
000110 d1 b1 98 bc 09 e1 26 3d 91 64 df 3d 82 b4 8e bc
       -0.018639477 0.040741954 0.109078534 -0.017420057
000120 48 0b d1 bc dd 7b 80 3b e7 ed 8e 3a 49 d8 3e 3d
       -0.025518075 0.0039210157 0.0010904641 0.046592984
000130 09 80 f7 3b 51 14 50 bd 58 fe 82 bd 59 a5 01 3d
       0.007553105 -0.050800625 -0.063961685 0.03165183
000140 77 e1 66 3c c5 89 76 bc 18 b8 ce 3c 4a 10 14 bd
       0.014091841 -0.015047495 0.025234267 -0.036148347
000150 b7 3e 1c bc 25 1e d6 3d ba 24 7b bd 32 82 2f bd
       -0.009536437 0.10454968 -0.061314322 -0.042848773
000160 e3 cb 98 3d b6 8f 8c bd 2e 12 16 bd ee d2 00 bc
       0.07460763 -0.06863348 -0.03663843 -0.00786279
000170 0d af ab bc e4 09 89 bc da 18 1a bc 0a a2 8f bd
       -0.020957494 -0.016728349 -0.009405339 -0.070133284
000180 8b 6e 0f 3a 08 0b b2 3d 79 ef a2 3c 50 d1 89 bc
       0.0005471489 0.0869351 0.01988958 -0.01682344
000190 45 66 d5 3d 76 20 68 3d 5d 64 4c 3d e1 52 80 bd
       0.10419897 0.056671582 0.0499004 -0.06265808
0001a0 30 e8 79 3d d5 88 4a bc c1 e4 c9 3d 3c 7f 59 bd
       0.061012447 -0.012361725 0.098580845 -0.053099856
0001b0 b6 af 2e bd 40 a1 88 3c 00 bf 46 3d 7f 36 3a bc
       -0.04264804 0.016678452 0.048521996 -0.011365532
0001c0 d8 27 e8 bc fd 4f a4 ba 0c a8 11 3d 94 1b 87 3d
       -0.028339311 -0.0012536045 0.035560653 0.06597057
0001d0 15 3d 54 3d 25 4c e2 3c c1 98 64 ba 36 6a 22 3d
       0.051816065 0.0276242 -0.0008720272 0.039652072
0001e0 f7 bd 96 3d 4c f0 c5 3d 49 4f 74 3d e8 20 93 bd
       0.07360452 0.096649736 0.059645925 -0.07184011
0001f0 5f 6a ec 3b 0f a7 62 3d 9b 66 02 bc 12 9e 03 bd
       0.007214829 0.0553351 -0.007959033 -0.03213317
000200 52 04 4c bd a5 8e 12 3c f9 a3 7b bd fd 8e 94 bd
       -0.049808808 0.008945142 -0.061435673 -0.07253835
000210 be 03 2a bd 54 10 88 3d a5 95 82 bd 35 25 48 3b
       -0.041507475 0.06643739 -0.06376199 0.0030539755
000220 7e 0b 66 bd 50 90 0d bd 65 09 77 bd 20 2b c4 bc
       -0.056163304 -0.034561455 -0.060311694 -0.023946345
000230 26 47 35 3d 0d 54 93 3d f8 5d 53 bd a1 9d 5c 3c
       0.044257306 0.07193766 -0.051603287 0.013465316
000240 51 d1 84 bd c3 00 21 bc 91 a8 bf 3d be b1 19 bd
       -0.064852364 -0.009826842 0.09358323 -0.037523024
000250 7c 5f 15 bd 9c 45 ab 3d cb 50 ca 3c a7 bb a0 bd
       -0.036468014 0.08362886 0.024696728 -0.07848292
000260 f3 8c 9b bd aa fc 6c 3c cc c0 d2 bb 9e d6 b0 3c
       -0.07595243 0.014464537 -0.0064316746 0.021586712
000270 fb 7c ad bd 40 52 a6 3d c2 d9 4e 3c f7 4c b9 bb
       -0.08471104 0.08121157 0.01262516 -0.005654927
000280 2a d6 ad 3d 8a 7e 8f bd 9a 64 a3 3d ab cb fa bc
       0.08488114 -0.07006557 0.079781726 -0.030614695
000290 ca 9c b9 3b 2b 7a 4c 3d d3 17 b4 3d b7 61 af ba
       0.0056644427 0.049921196 0.087936066 -0.0013380562
0002a0 d6 81 33 bc fe 5a 9d 3d 2d b7 72 3d ec 77 85 3d
       -0.010956248 0.07683371 0.05925672 0.06517014
0002b0 56 93 98 3d 33 21 e3 bc 65 88 63 3d 64 e3 02 3d
       0.07449977 -0.027725792 0.055549998 0.031955138
0002c0 f5 fd 92 3d 1a 42 34 3d 87 d5 27 3d 44 eb 94 3d
       0.07177345 0.04400835 0.04097512 0.07271436
0002d0 6c 72 4e bd f0 8f 94 bd 5d b8 34 bc 0a b6 70 3d
       -0.05040209 -0.072540164 -0.011030284 0.058767356
0002e0 67 90 ae 3d 4b 86 1e 3d a2 5a 37 3c ee aa 6a bd
       0.08523636 0.03870229 0.011191042 -0.057291918
0002f0 f0 34 5d 3d 71 be 0d 3d b6 94 27 bd b4 44 e7 39
       0.054005563 0.034605447 -0.040913306 0.0004411094
000300 4d fc 65 bd 6e ec a7 3d 79 36 9b bd 8a 11 49 bd
       -0.056148816 0.08199392 -0.07578749 -0.049088992
000310 95 c0 d5 bc c6 4d d9 3d d7 4c 7d 3d 03 ca 84 bc
       -0.026092807 0.10610537 0.06184086 -0.016209608
000320 4e 60 d1 bb 1a 47 4a 3b da ac 67 bd 00 9e 09 bd
       -0.0063896542 0.0030865134 -0.05656133 -0.033597946
000330 8d fd fc bc b2 08 07 bd 0a 79 37 3d 58 b1 8b bd
       -0.030882621 -0.032967277 0.044793166 -0.06820935
000340 ac 7b 97 3c da b6 9f bd 14 c6 76 bd 67 a1 1c 3c
       0.018491589 -0.07798548 -0.060247496 0.009559966
000350 54 83 59 3c dd ad 46 bd 05 49 2e 3d 21 42 51 3d
       0.01327594 -0.048505653 0.042550106 0.051088456
000360 1d 93 6d bc 16 fb 5a bd d7 2e 95 bc 57 17 7a 3d
       -0.014500407 -0.05346211 -0.018210812 0.061057415
000370 32 e1 30 bd 8e 56 f1 bb a9 8e b0 3d a9 d3 a7 3d
       -0.043183513 -0.0073650545 0.0862096 0.08194668
000380 37 20 84 3d e4 50 26 bd 03 15 83 bc 38 15 23 3c
       0.06451457 -0.040604487 -0.01600123 0.009953789
000390 01 bd 7c 3d f3 06 80 3d fd b8 05 bc 0e a9 77 bd
       0.061703686 0.062513255 -0.00816178 -0.060463957
0003a0 a0 3c ad 3d ae 6e 26 3d af 24 a9 bd 9d 91 1c 3d
       0.08458829 0.040632896 -0.0825895 0.038224805
0003b0 fd e3 8e 3d 7a 53 93 bd 39 96 ea bc 57 ab 79 3d
       0.06977079 -0.07193656 -0.028636085 0.060954418
0003c0 34 28 4c bd 74 27 7c bc 4b 7c 95 3d 11 ed 9f 3d
       -0.04984303 -0.015390266 0.072990976 0.07808889
0003d0 a1 00 5a bd 16 e8 c8 3c f4 12 41 3c 9c 77 ef 3a
       -0.053223256 0.02452473 0.011784304 0.0018269899
0003e0 7c af a9 3d 1c 62 71 3d 1b d5 fc 3c c4 7a 3b bd
       0.08285424 0.058931455 0.030863335 -0.045771375
0003f0 f5 71 a4 3c 30 81 b7 3d c8 98 91 bd e5 ca 8d 3d
       0.02007387 0.089601874 -0.07109219 0.06923465

fc1.bias f4 [128]
000000 aa 74 1d bd 5e e9 d2 3d e4 34 23 bd d0 4b 13 3d
       -0.038441338 0.102984175 -0.039845362 0.035960972
000010 c8 5a d7 3a 81 3a 89 bc e4 24 f0 bb 7a ec 64 3c
       0.0016430253 -0.01675153 -0.0073286165 0.013972396
000020 8a 0f 85 3d 9c e1 31 3c 9f 1d 94 3d be aa cc 3d
       0.064971045 0.010857012 0.07232212 0.09993504
000030 dc 07 1b bd b2 e5 e3 3d f4 98 95 3d a1 8a 8b bc
       -0.037849292 0.11127795 0.07304564 -0.017033877
000040 2a e6 eb 3b 7c e6 de bc 3b 81 13 3d ab 73 9a bd
       0.0071990686 -0.027209513 0.036011916 -0.07541593
000050 5a ef 2d 3d be e3 1f bd e7 78 e8 ba 3c 89 30 bc
       0.04246459 -0.03903555 -0.0017736227 -0.010774907
000060 6a a2 5c bd 8d e4 58 3d 55 e9 6f 3d 6e 72 23 3b
       -0.053865828 0.052952338 0.058572132 0.0024940032
000070 15 74 8c bd d2 3e 47 3d 39 31 59 bd 91 03 29 3d
       -0.068580784 0.048643894 -0.053025458 0.041263167
000080 ff ca b0 3d f4 00 eb 3d b6 73 15 bd d0 f9 f3 3c
       0.086324684 0.11474791 -0.036487304 0.029782206
000090 2b d7 7d 3c a0 81 0a 3d bd 6f c9 bc 58 ab 3c bd
       0.015493195 0.033815026 -0.024589414 -0.046061844
0000a0 be 5f 01 3d 69 1e ca 3d cd 56 d0 3c 62 85 84 bd
       0.031585447 0.098690815 0.025432015 -0.06470753
0000b0 12 4e 31 bd 25 26 de 3d 1f 64 b1 3c 73 32 0f 3d
       -0.043287344 0.10847119 0.021654187 0.03496022
0000c0 2e 6f 51 bc f7 87 56 bd 9f 11 10 bc 69 56 86 bd
       -0.012782855 -0.05237576 -0.008793264 -0.0655945
0000d0 12 7c ae 3d d5 97 1a bd 52 31 04 3d 26 20 c8 3c
       0.08519758 -0.037742455 0.032273598 0.024429392
0000e0 e5 f2 60 3d bc 44 06 3c 09 0c 32 3d 9a af b1 3c
       0.054919142 0.0081950985 0.04346851 0.021690179
0000f0 d2 d0 8c 3c 17 e6 21 3d 26 b9 20 bd c4 62 43 bd
       0.017189417 0.03952607 -0.03923907 -0.047701612
000100 4b 96 9c 3d 72 67 9f 3d 04 c9 96 3d 77 4b cc 3c
       0.076458536 0.077834025 0.073625594 0.024938328
000110 73 f6 a6 bb b8 e4 04 bd 60 26 48 3d d5 6c 63 bc
       -0.005095297 -0.032444686 0.048864722 -0.013880928
000120 c1 75 a2 3d a8 08 8f bd 80 93 5f bd f9 99 22 3c
       0.07932616 -0.06984073 -0.054584026 0.009924405
000130 56 14 dd bb 4b 7a e1 3c 6e d6 d4 3c 07 6e 81 bc
       -0.006746809 0.027524134 0.025981154 -0.015799535
000140 f7 34 ad 3d 9f 47 8b 3d 10 5c 95 3d 26 92 d1 3d
       0.08457368 0.0680077 0.0729295 0.10232954
000150 71 77 34 3d b9 d5 d8 3d eb 33 31 3d 98 85 8a 3d
       0.04405922 0.10587639 0.043262403 0.06763762
000160 87 51 19 bc 9e 84 6e 3d cd b2 94 3d 91 3d b3 3d
       -0.009357817 0.058231942 0.07260666 0.08751977
000170 9b 7f 8c 3d 44 2a 63 3d 81 7a bc 3c 62 5d 9a 3b
       0.06860276 0.05546023 0.023007633 0.004710839
000180 e5 d3 20 3c de 85 5a 3d b1 92 ee 3d b9 52 d5 39
       0.009816145 0.053350322 0.11649073 0.0004068816
000190 3c b9 95 3d 94 58 b0 3d 42 fe cf 3d 97 4a b7 3d
       0.07310721 0.08610645 0.10155918 0.08949774
0001a0 e3 4c 2e 3d 6f b3 0b 3d 9a be 4b 3c 05 ca 54 3d
       0.042553794 0.034106668 0.01243558 0.051950473
0001b0 bf 2a dc 3d 3d b9 a9 3d c3 16 85 bd 31 eb ae 3d
       0.10750341 0.082872845 -0.06498482 0.08540953
0001c0 00 97 b3 3d e4 68 f1 bc 1f d9 ae 3c 25 2a 9c bc
       0.08769035 -0.029468961 0.021343766 -0.019063065
0001d0 dd 89 8f 3c b8 15 a6 3d 34 35 da 3c f2 19 8b 3d
       0.017521793 0.08109611 0.026636697 0.06792058
0001e0 14 c0 e8 bc 34 2b 06 bb a7 41 56 bd c9 0d 5f 3d
       -0.028411902 -0.0020472528 -0.052308705 0.054456506
0001f0 0c 0c a3 bc af f2 81 3c 9c 19 42 bd 87 7f 9e 3d
       -0.019903205 0.01586279 -0.047387704 0.07739168

fc2.weight f4 [64, 128]
000000 47 f9 84 bc 29 97 bc 3c 95 2e 83 bc ea 4c 87 3d
       -0.016232146 0.023021298 -0.016013423 0.06606467
000010 44 be 26 bd 73 42 95 3d 23 d9 8e 3d 49 d6 a3 3c
       -0.040708795 0.07288065 0.06975009 0.01999964
000020 8f cc 7d 3c 11 e2 0e 3b e9 01 82 ba ef d8 42 3c
       0.015490665 0.0021802227 -0.0009918782 0.011892541
000030 f6 b9 01 bd 34 bb b8 3d 43 3d aa bd 11 ed af 3b
       -0.031671487 0.09020081 -0.08312466 0.0053688367
000040 22 56 96 3c d8 eb c4 bd f3 bc 01 3d 54 ea 20 3c
       0.018351618 -0.09615296 0.031674337 0.009821493
000050 1c 58 13 3d 5c 3e f8 35 9c 34 b8 3c dc 22 18 3d
       0.0359727 1.8495589e-06 0.022486024 0.03714262
000060 be 9b 59 3d 0e 0c 2e 3d a0 92 a5 3c 4f 22 59 3d
       0.053127043 0.042491965 0.020211518 0.053011235
000070 77 9d fc bc c2 03 62 3d 79 a4 9a 3d f6 d0 c2 3c
       -0.030836804 0.055179365 0.07550902 0.023781281
000080 56 a1 fe 3c 2b 73 e8 3c d1 ee fd bb 71 84 00 be
       0.03108279 0.028375229 -0.0077494164 -0.12550522
000090 fa fa b7 3c 20 5f 27 bd da c3 4d 3d d1 f8 c2 3c
       0.022458542 -0.040862203 0.050235607 0.023800286
0000a0 bf 3c 6f bb e9 7b 71 3d 55 04 96 3d 95 6c 21 bd
       -0.0036504713 0.05895606 0.07325045 -0.039410193
0000b0 d2 d9 c7 bd 22 b0 8b 3d 3b a0 cf 3d e8 f3 a4 3b
       -0.09758343 0.06820704 0.101379834 0.0050339587
0000c0 ed b2 da 3b 9b b1 74 3d 8e 82 11 bc ff 6d d0 bd
       0.0066741616 0.05973969 -0.008881224 -0.1017723
0000d0 31 6e 33 bc 9c 30 e4 3c 1b fc 38 bd d8 e8 97 3b
       -0.010951565 0.02785521 -0.0451623 0.0046359114
0000e0 52 47 c2 3c 93 32 2f 3d 71 cc 9b 3c 33 0e 0f bd
       0.023715649 0.04277284 0.019018384 -0.03492565
0000f0 7d dd 8a 3d ec 79 72 3d 95 b4 15 bd 76 8a a4 3b
       0.06780527 0.059198305 -0.03654917 0.0050213886
000100 29 e2 85 bd ae 0b e5 3c 9f a1 8b 3d 6e 42 21 bd
       -0.06537277 0.02795967 0.06817936 -0.039369993
000110 fc 94 14 3d 4b b6 d6 bd 02 22 6f 3d 32 45 84 3c
       0.036274895 -0.104839884 0.05838204 0.016146276
000120 ed 56 24 bd 52 97 09 bc fa 2c bc bd 37 3b 76 3b
       -0.04012196 -0.008397894 -0.09188266 0.0037571916
000130 8f f6 e7 bd fb 5c ed 3c 94 e9 a4 3c 75 d4 01 be
       -0.11326324 0.028975 0.02013091 -0.12678702
000140 61 23 60 bd 77 ea b4 bc 40 11 7a 3d 0c 44 e1 bd
       -0.05472124 -0.022084458 0.061051607 -0.10999307
000150 0d 4a c4 bd 52 9f 43 bd 5b 32 8d 3d a5 d4 9b bc
       -0.095844366 -0.04775936 0.0689437 -0.019022295
000160 34 ba 41 bd ca b7 78 3c 4f 2f 6d bd d7 66 39 3d
       -0.047296718 0.0151805375 -0.057906445 0.04526409
000170 21 37 04 bc 84 da 8f bd d5 4e 5a 3d 1e 12 ad bc
       -0.008069784 -0.070241004 0.053297836 -0.021126803
000180 01 1c d5 bc d6 f5 81 bb 9e 4d 31 3c b3 3f 01 3e
       -0.02601433 -0.0039660735 0.010821728 0.12621956
000190 81 c9 eb bd 52 8b 04 3b a1 51 43 3d da e0 1b bc
       -0.11513043 0.0020224643 0.04768527 -0.009514058
0001a0 1c 57 84 3d 78 be 35 bd 17 cc bf 3d 4c e6 f5 bc
       0.06461927 -0.0443711 0.09365099 -0.03001704
0001b0 01 88 82 3b d3 fe e1 bd 07 62 82 bc 16 c2 9b bd
       0.003983498 -0.11034932 -0.015915884 -0.07605378
0001c0 9f 0b 04 bd 33 66 c9 bc ef 8f b1 bc 33 a5 c0 bc
       -0.032237645 -0.024584865 -0.021675078 -0.023516273
0001d0 27 c2 80 3a d9 e7 9c bc 9a 00 07 bc cc 98 56 bc
       0.0009823487 -0.019153522 -0.0082398895 -0.013097953
0001e0 69 f9 17 bd 16 4e 40 3c f8 39 a3 bd f6 4e a0 bd
       -0.03710309 0.011737367 -0.07970041 -0.078275606
0001f0 72 ae 4c bd 25 4c 05 be 7f 9a a8 bd 60 8c 18 bc
       -0.04997105 -0.13017328 -0.08232593 -0.009310812
000200 d7 eb 45 bb 34 20 df 3c fb db c4 3d c4 8c 31 3d
       -0.0030200386 0.027237035 0.096122704 0.043347135
000210 42 c4 84 bd ed 0a 03 3b 4e da 05 3d 06 26 3c bd
       -0.06482746 0.0019995526 0.032678895 -0.0459347
000220 29 30 2d bd 0c 95 92 bc 52 a9 81 3d 70 40 1f bd
       -0.042282257 -0.017893337 0.063311234 -0.03887981
000230 de 1d 94 3c b1 23 10 3c 58 cf b3 3d 7c fb 3c 3d
       0.018080648 0.008797572 0.08779782 0.04613827
000240 2f 39 76 bd 99 15 71 bd fd c8 08 3d 40 ed 98 3c
       -0.06011313 -0.058858488 0.033394802 0.018667817
000250 43 78 0c 3b db c6 0e bd 6f 51 b5 3d 5e ea 7f 3d
       0.0021433986 -0.034857612 0.08853423 0.06247937
000260 a9 66 73 3d f1 2b bb 3d ef fc 57 3d f1 07 e0 3d
       0.059424076 0.091392405 0.05273145 0.10939015
000270 73 fa 2f bd f2 cf 83 bd 72 cf 66 3d 51 cf 7c bd
       -0.042963456 -0.06436147 0.05635018 -0.06172115
000280 37 cc ac bd 08 a3 9b bd bc 3d 7a 3d d7 88 e7 bc
       -0.084373884 -0.07599455 0.06109403 -0.028263493
000290 fe e4 59 3d 9d 74 c9 bc 13 26 f6 3c fb 6d fe 3c
       0.0531969 -0.024591738 0.030047452 0.031058302
0002a0 e5 ea 63 bb 7b 17 f5 ba d9 bb a4 bd a2 fd 71 3d
       -0.003477746 -0.0018699014 -0.080436416 0.059079774
0002b0 9c e6 1d bd 55 32 87 bd 9f 8e a2 3c 0a 64 6c bc
       -0.038550004 -0.06601397 0.019843398 -0.014428148
0002c0 0a a9 39 bc 58 0f 3b bc b0 12 fc bb a0 3f 8f 3d
       -0.011331806 -0.011417232 -0.0076926574 0.069945574
0002d0 33 cf a9 3a 69 c8 7c bd 30 2a 85 3d af c1 51 3d
       0.0012955427 -0.061714564 0.06502187 0.0512101
0002e0 eb 64 01 3d 32 9c 2e bd 28 5b c0 bd bb 86 db 3d
       0.031590383 -0.04262943 -0.09392387 0.10719057
0002f0 dd ed 82 bd 24 64 9c 3d 5f 9d 44 bd f7 80 d4 3b
       -0.06393025 0.07636288 -0.048001643 0.0064851004
000300 e6 ec a1 bc 0c c3 34 bd 39 d5 82 3d ad d2 bd 3d
       -0.019766282 -0.044131324 0.06388325 0.09268699
000310 a7 ac 08 3d 82 58 33 3d 6e d8 45 3d 64 ae d1 3d
       0.03336778 0.04378558 0.048302107 0.102383405
000320 41 0b 8b bd a5 8b ba 3d b1 06 2d 3c 8e 43 41 bd
       -0.06789256 0.09108666 0.010560677 -0.047183566
000330 b2 15 ee 3d 24 ce 69 bd d6 51 98 3d 46 de e4 3d
       0.11625232 -0.057081357 0.07437484 0.11175208
000340 76 cf 2c 3d 6e 65 d9 3d 13 36 57 bd 76 b4 36 ba
       0.042190038 0.10615049 -0.052541804 -0.000696964
000350 1e 45 c3 bc 1a 0f fc 3b 22 99 40 bd e0 0e be bb
       -0.023836669 0.00769223 -0.04702104 -0.005800113
000360 31 43 85 bd 53 3d 0e 3d 84 e7 46 3d d3 0b 63 bd
       -0.06506956 0.034726452 0.048560634 -0.0554312
000370 2c a0 87 bd 85 1b 00 3d c8 78 62 3d 2e be 88 3d
       -0.06622347 0.031276245 0.055290967 0.06676899
000380 87 3f 40 bd 87 d6 dd 3c 74 15 8d 3d 22 20 b4 bd
       -0.046935584 0.027079834 0.068888575 -0.08795191
000390 4d d5 ab 3d a6 44 e5 3c b0 32 96 ba de af 71 3d
       0.08390293 0.027986836 -0.0011459198 0.05900561
0003a0 8a 23 19 bd fd 37 da bb 4c 7c 86 3b 9d 90 bf 3d
       -0.03738741 -0.0066595064 0.004104173 0.09353755
0003b0 03 3d 01 3c 97 5f e5 3c ff 28 40 3d bb 9f d1 39
       0.0078880815 0.027999682 0.046914097 0.00039982595
0003c0 9d 21 27 bd 64 56 aa bd 99 11 df bc b8 e0 a4 3d
       -0.04080354 -0.08317259 -0.02723007 0.08050674
0003d0 cd 28 99 3d 7d b0 3a bd e3 b2 5e 3d 36 2a 36 bd
       0.07478485 -0.04557847 0.05436982 -0.04447385
0003e0 1d 78 e0 bc 86 cb c6 3d a2 a3 55 3d ee 88 c4 3d
       -0.027401024 0.09706788 0.052158006 0.0959643
0003f0 4a 09 0b 3d 58 7e dc bc f1 42 38 bd 2f 49 eb bb
       0.033944406 -0.026915714 -0.044985715 -0.007180355

fc2.bias f4 [64]
000000 02 20 6c 3d 75 0e ec 3c 40 31 23 bc ef 39 36 3b
       0.057647713 0.028815487 -0.009960473 0.0027805527
000010 33 0a a6 3b a2 8c 88 3d d2 28 53 3d e3 28 73 bd
       0.005067134 0.066674486 0.0515526 -0.059365164
000020 62 34 74 3d df 3f 00 bd e7 21 40 3d 78 a7 9e 3d
       0.05962027 -0.031310912 0.04690733 0.07746786
000030 19 1a 79 3d 8b a5 04 bd 95 b0 74 3c f5 6f 1a 3d
       0.060815904 -0.032384437 0.014934679 0.037704427
000040 31 8c 66 bd 4e 06 8f bb 06 48 e6 3c 1a 1f 37 3d
       -0.05628604 -0.0043647652 0.028110515 0.044707395
000050 e8 47 83 3c 1f 29 64 3d b2 bd 01 3d ca d9 85 bc
       0.016025499 0.05570328 0.03167505 -0.016339201
000060 68 b6 5d 3c a9 8d a6 bd bb e6 bc bb ef 72 89 3d
       0.013532259 -0.08132488 -0.00576481 0.06711375
000070 27 e1 a4 bd 19 89 cb 3d 2a 5b f1 3c f7 5f 75 bd
       -0.08050757 0.09938259 0.029462416 -0.059905972
000080 57 7c c1 3d b4 32 a1 3b 9f 58 cc bc a4 bb 86 3d
       0.09447544 0.0049193744 -0.024944602 0.06578758
000090 43 db a9 3c a0 c3 77 3d 10 2b a5 bd a7 60 b7 3b
       0.020734435 0.060489297 -0.08064854 0.0055962387
0000a0 50 a2 e1 3c 79 58 8a bc fc 28 56 bd da e7 cb 3d
       0.027543217 -0.01688789 -0.05228518 0.099563316
0000b0 b5 cb 87 3d bc 71 c5 bc 43 58 14 bd 06 05 d3 3c
       0.06630651 -0.024102084 -0.036216985 0.025759231
0000c0 01 57 90 3c 7f 52 d0 3d 18 f7 43 bd 3d 91 ce 3c
       0.017619612 0.10171985 -0.04784307 0.02521574
0000d0 fc d5 87 3d 2f af 96 3c 26 e6 4c 3d b0 ff a9 bd
       0.06632611 0.01839408 0.050024174 -0.08300722
0000e0 1f 15 93 bd 8d f9 8a bb 83 36 2c 3d d8 ba 68 bd
       -0.07181763 -0.0042411746 0.042044174 -0.056818813
0000f0 d7 77 0b 3d 29 16 ae 3d 06 c6 d4 3d 51 cb 60 3d
       0.034049835 0.085003205 0.103893325 0.054881398

action_head.weight f4 [5, 64]
000000 7f e9 d4 3d d3 4b 05 3c 57 23 f8 bc 07 35 90 3c
       0.10396098 0.008135754 -0.030290289 0.01760341
000010 f8 70 cb 3d 9a 4d b3 ba 2e de e5 bd 02 17 86 3d
       0.099336565 -0.0013679743 -0.11224018 0.06547357
000020 e9 78 c0 3d 66 76 46 bd f4 42 e6 3d 96 90 08 be
       0.09398062 -0.048452757 0.11243239 -0.13336405
000030 e3 b5 53 bc ed 15 b3 bd be 1a 61 3d 4a 39 be bd
       -0.012921783 -0.087444164 0.054957144 -0.09288271
000040 38 01 14 3d 40 ac 56 3d a2 65 4b 3d 67 d4 a8 3c
       0.036133975 0.052410364 0.04965747 0.020609094
000050 94 46 91 3d 87 4a db 3c a6 7c 01 bd eb ae f6 3d
       0.0709354 0.026768936 -0.031613015 0.12045082
000060 bf 72 58 3d a8 20 b0 bc 11 c6 f4 bd c0 51 83 bd
       0.052843805 -0.021499947 -0.11951841 -0.06412077
000070 89 9a 0d 3d ed b1 ae bd 1c d9 42 bd 9d be 94 3c
       0.034571204 -0.085300304 -0.047570333 0.018157298
000080 ea 0d 47 bd b4 3e 95 3d 88 10 b2 3d ab cd 87 3d
       -0.048597254 0.0728735 0.08694559 0.06631025
000090 f3 40 a1 bd 0e df 97 3d ac a4 25 3d dd bd 12 bc
       -0.07873716 0.07415591 0.040440246 -0.0089564
0000a0 29 58 d4 bd 34 60 76 3d 53 4c 2c bc a7 1e a8 bd
       -0.10368378 0.06015034 -0.010516244 -0.082089715
0000b0 12 d9 13 bd 75 a5 d4 3d db 65 ab bd 46 3e 97 3d
       -0.036095686 0.10383121 -0.08369037 0.073849246
0000c0 7d c2 ca bd 7d cc 85 bd 4e 37 3d bd ef 8c db bd
       -0.09900377 -0.06533144 -0.04619532 -0.1072024
0000d0 b7 27 b7 3c d1 6f 99 bc 63 76 ee bd 72 b2 14 3d
       0.022357805 -0.018730076 -0.11643674 0.03630299
0000e0 21 9c 5a bd 29 97 a1 bd b4 02 af bc 4a 61 cc 3d
       -0.053371552 -0.0789016 -0.021363594 0.09979494
0000f0 76 ee 0e 3c f0 47 aa 3d 1c 4e 9c 3c f5 2b 80 bc
       0.008723846 0.08314502 0.019080214 -0.01564596
000100 54 3f a7 bd b7 59 0d bd e0 d5 f0 3c 61 e9 f6 bb
       -0.08166376 -0.034509387 0.029398859 -0.007535145
000110 73 88 3c 3d df bb 63 3c b4 5e 11 bd 8c 0d e6 bd
       0.046028566 0.013899772 -0.035490707 -0.112330526
000120 51 8c 2e bb 4a b2 a0 3d 4c e6 9e bd 96 98 bc bd
       -0.0026633928 0.07846506 -0.077587694 -0.09208791
000130 a0 e5 4f bd 24 05 e0 3d a9 91 ec 3d 78 32 26 bd
       -0.050756097 0.109384805 0.1155122 -0.040575475
000140 e0 41 8d 3d 69 9a 40 3c c0 dd 12 bd 92 38 3d bd
       0.0689733 0.011755564 -0.03585601 -0.046196528
000150 4b 42 8a bd 4a b3 45 bd e0 df d0 3d 70 fd a7 bb
       -0.06750926 -0.048266686 0.10198951 -0.0051266477
000160 a9 8a 4c bc da 29 b8 3d 00 3e 7b 3d eb ec cf bd
       -0.012484231 0.089923576 0.061338425 -0.101526104
000170 0d dd 30 3d 52 0a ac bc 7d e7 49 bd a6 a1 c7 3d
       0.04317956 -0.021001015 -0.04929303 0.09747629
000180 2a a9 7e bd 71 8b f2 3d 93 a8 38 3d 6a 80 16 bd
       -0.062173046 0.118430026 0.04508264 -0.03674356
000190 4b 99 1c bd 0e d7 cf 3d 26 77 b2 3d b6 6a 49 bd
       -0.03823213 0.1014844 0.08714132 -0.049174033
0001a0 14 b1 66 3d cb 39 5c 3d 36 8a d3 3d 76 2a 13 bc
       0.05632122 0.053766053 0.10329096 -0.008982291
0001b0 54 72 1d bd 3c bd 9a 3d 74 38 79 bd a6 79 8b 3d
       -0.03843911 0.07555625 -0.060844854 0.06810312
0001c0 1c 04 60 3d 12 fb ab 3d 42 7c 03 3e ed 3b 00 3e
       0.05469142 0.08397497 0.1284037 0.1252286
0001d0 71 16 fe 3d 4c 56 a5 3d 30 ab 81 3d be 55 d2 bd
       0.12406624 0.080731004 0.063314795 -0.1027026
0001e0 9a 6d 84 3c 54 21 a4 3d 39 de 51 3d bb d9 b3 3d
       0.016165543 0.08014169 0.05123732 0.08781763
0001f0 a4 eb 9b bd f8 63 1d bd d1 8b 45 3d cd 7b 0c 3e
       -0.07613304 -0.038425416 0.048229042 0.13719101
000200 bc d6 10 bd 69 39 dd 3b 94 ff 82 3d 13 40 c0 bd
       -0.035361037 0.0067512286 0.06396404 -0.09387221
000210 1f 18 04 be 3e 64 46 3d cb ef 2f 3c d0 3a d1 bd
       -0.12899826 0.048435442 0.010738323 -0.10216296
000220 31 9f 3e bc 80 c1 4e 3d f8 0f 6b 3c cb df 4d bd
       -0.011634634 0.050477505 0.014347069 -0.050262254
000230 06 8c 55 bd 57 46 9e 3d af 6d d0 3d a6 ec 46 bd
       -0.05213549 0.0772826 0.101771705 -0.04856553
000240 c2 83 f3 bd af 5a af 3d 0d 6d 39 3d a9 c9 c2 bd
       -0.11890365 0.085622184 0.045270015 -0.0951112
000250 92 a0 91 bd 61 56 ee 3c 7d c5 b8 3d 1b e7 3e bd
       -0.071107045 0.029093923 0.09022043 -0.046607118
000260 30 65 10 be e0 20 76 bc ad 2c 38 3d 59 ba c1 bd
       -0.141011 -0.015022486 0.04496448 -0.09459371
000270 cb da a4 3d 71 04 e4 bc 35 87 6c bd 61 ee ed bd
       0.08049544 -0.02783415 -0.05774613 -0.11617733
000280 ab d0 11 be fb e2 b4 3d 66 ed d5 3d 4f ad b2 bd
       -0.14239757 0.088323556 0.10445671 -0.08724462
000290 c5 4d 07 be fe ba 12 be 2c 52 08 bd 23 af a0 3d
       -0.1321326 -0.14329144 -0.03328149 0.07845905
0002a0 a8 44 7c bd c6 8b 8f 3d a5 13 c2 bc 60 38 48 bc
       -0.061588913 0.070090815 -0.023691008 -0.012220472
0002b0 f8 05 0e bc f8 ea fd 3b 54 9f e8 bd 91 47 aa 3d
       -0.008668415 0.0077489577 -0.113585144 0.083144315
0002c0 d0 56 c3 bc 9d c6 14 3b 7a ac c1 bd 82 b2 09 bd
       -0.023845106 0.002270139 -0.094567254 -0.033617504
0002d0 79 66 91 bc 06 55 9e bd 14 79 cb 3c 61 40 6e 3d
       -0.017749058 -0.07731061 0.024838008 0.058166865
0002e0 23 7a 2e 3d 75 f2 22 3c 2d ae f4 bb d3 e7 9e bb
       0.042596947 0.009945502 -0.0074670524 -0.004849413
0002f0 06 18 92 bd fc b2 46 3d 91 02 64 bd cb 06 22 3d
       -0.07133488 0.048510537 -0.05566651 0.03955726
000300 2d da 28 bd f1 ea 09 3e 5c 90 e4 bd 0c 07 50 bd
       -0.041223694 0.1346853 -0.11160347 -0.05078797
000310 f7 44 fc 3d 89 3e 58 bd a1 84 ef 3d 5d 20 e5 3c
       0.123178415 -0.052794013 0.11695219 0.027969534
000320 32 50 f1 bd 5f f2 35 bb b8 ba 77 bd ce 6e a5 3d
       -0.11782874 -0.0027762873 -0.060480803 0.08077775
000330 54 3b 9b 3d 99 76 0c 3e 8c 90 6a 3d ff 65 c2 3d
       0.07579675 0.13717116 0.057266757 0.094921105
000340 88 85 3a bd 9b 9d 8c bc b7 47 2b bd 13 ca ba 3c
       -0.0455375 -0.017164996 -0.04181644 0.022801435
000350 58 ff ed 3d 9f 5e 3e 3c 76 d3 5e 3d ec e4 c6 bd
       0.116209686 0.011619239 0.054400884 -0.09711632
000360 f8 ef a7 3d 6e d9 eb bd f4 94 86 3d 56 c0 a9 bd
       0.08200067 -0.11516081 0.06571379 -0.08288638
000370 49 aa 9a bd 21 42 96 bd 2a f4 7a bd 72 6d 04 bd
       -0.075520106 -0.07336832 -0.06126801 -0.032330938
000380 63 73 9d bd c9 ad 4e 3c d5 8e 49 3d 2b ab d5 3c
       -0.07688024 0.012614676 0.04920848 0.026082596
000390 e5 c0 9d bc a8 90 a6 3d 4c c5 ea 3d c8 0d 99 bd
       -0.019257018 0.0813306 0.11463413 -0.07473332
0003a0 1d 06 82 bd 35 18 ef bd 01 5a 64 3c 96 e2 82 3c
       -0.06348822 -0.11674539 0.013937474 0.015977185
0003b0 ca 0d 92 bd 94 76 04 3e b1 3a 45 3d 12 ba d1 3d
       -0.07131536 0.12935859 0.048151676 0.10240568
0003c0 7b 01 08 bd 3a 69 54 bd dc 49 dc 3b 92 a3 b1 bd
       -0.033204537 -0.051858164 0.006722672 -0.08673777
0003d0 15 44 8d 3d 49 fb c8 bd 62 d9 06 bd 32 1e 25 3d
       0.06897751 -0.09813554 -0.032922156 0.040312
0003e0 40 55 86 bd 88 aa d9 bd 6f 24 0b 3d 6f b5 ca bd
       -0.06559229 -0.106282294 0.033970293 -0.09897887
0003f0 5b ee 7e 3d 48 7c b6 bc 9b 1b 48 3d 65 27 af 3c
       0.062239032 -0.022276059 0.04885445 0.02138109

action_head.bias f4 [5]
000000 66 5c d0 3c ce e5 0f 3c c2 5b e5 bc b9 94 d9 3d
       0.025434684 0.008782817 -0.027997855 0.1062407
000010 0e bb 15 3d
       0.036555342

value_head.weight f4 [1, 64]
000000 db 97 c5 bd 21 7c db 3d 4d 28 b9 3d 2d c9 c0 3d
       -0.09648105 0.10717035 0.0904089 0.09413371
000010 dc 5d 1b 3e e3 2b 1b be 86 89 23 3e 00 8b df 3d
       0.15172523 -0.1515346 0.1597043 0.10915184
000020 5c e3 cb 3b 9b de e6 3d a4 78 9c bc 11 f2 e9 3d
       0.0062221717 0.112729274 -0.019100495 0.11423124
000030 a2 1e 2a 3e 28 5f 27 be 7b e1 30 be 26 ab af 3d
       0.16613248 -0.16344893 -0.17273514 0.08577566
000040 c0 d4 03 3d ed 0b 42 be 13 0e 98 bd 37 ca a4 3d
       0.032185316 -0.18949862 -0.074245594 0.08046382
000050 c8 e7 e1 3d 41 f2 2a 3d 77 24 9f bd fb 0b 83 bd
       0.11030537 0.041734938 -0.07770627 -0.063987695
000060 ed c1 4b bd 80 22 c3 3a 52 4f 87 3a 08 3a 01 3e
       -0.04974549 0.0014887601 0.0010323322 0.12619793
000070 9b 0a 45 bd bb ae 32 be ed fe e7 bd 96 c0 dc 3d
       -0.048105817 -0.17449467 -0.1132792 0.1077892
000080 1f d7 26 be 86 be 16 be 17 c4 0e be 53 1a bb 3d
       -0.16293 -0.14721116 -0.1394199 0.0913588
000090 dd 83 56 bd c8 93 05 3e 20 dc c5 3d 96 9f 87 bd
       -0.05237185 0.13044655 0.09661126 -0.066222355
0000a0 6b c4 c1 bd b4 fa ce 3d ac ea d4 3d c8 e9 d2 bd
       -0.09461292 0.101064116 0.103963226 -0.102984965
0000b0 1e d2 94 bd d6 45 d5 3d 17 1e 51 3d f6 48 11 3e
       -0.07266639 0.10413711 0.051054087 0.14187989
0000c0 4e 48 10 3d b2 d1 44 be ed 3c 23 3e 75 2f f5 bd
       0.035225205 -0.19220617 0.1594121 -0.11971942
0000d0 5c e4 12 be 83 5b 12 3e ad ee 0e 3e 7f a5 0d 3d
       -0.14344925 0.14292721 0.13958235 0.034581657
0000e0 73 5c a0 3d 15 2a ee bd 0f aa 2b be 2f 40 4e bd
       0.07830133 -0.1162912 -0.16764091 -0.05035418
0000f0 00 0a bb bd 81 a5 04 be c7 06 09 be ae 60 39 be
       -0.09132767 -0.1295376 -0.13381492 -0.18103287

fc1.weight f4 [128, 147]
000000 36 b1 e8 3c e1 38 6b 3d 75 95 01 3d 5e 6e 0b 3d
       0.028404813 0.05742729 0.031636674 0.0340408
000010 5a 62 cc 3d 32 46 86 3d 9b 1b 31 bd a0 10 f9 3d
       0.099796966 0.065563574 -0.043239217 0.12161374
000020 f1 28 4e 3d e9 9d 8c 3c 0c 70 21 bc a0 94 5f bd
       0.050332014 0.017165141 -0.009853374 -0.0545851
000030 7c 8f 42 bd 5f 85 79 bd e0 e5 81 3d 04 dd 1c bd
       -0.04750012 -0.06091821 0.06342673 -0.038296714
000040 99 85 2a bd 88 e1 59 3d d5 87 4f 3c ff 0e c5 3d
       -0.041631315 0.0531936 0.012666662 0.09622001
000050 06 7c 8a 3d 4a db 0d 3d 88 30 0f 3c 85 30 84 bc
       0.06761937 0.03463296 0.008739598 -0.016136417
000060 0d 4f 9d bd d1 5e ee 3c ca 91 85 3d d1 0e 19 bc
       -0.07681093 0.029097946 0.06521948 -0.009341911
000070 d2 0a e4 bc d6 32 8d 3d 4e 02 a6 3c 37 b5 5e 3d
       -0.02783719 0.06894462 0.02026477 0.05437204
000080 53 10 94 3d 9d 5b 60 3b 51 09 9e 3c 71 67 b9 3d
       0.07229676 0.0034234293 0.019291552 0.09052933
000090 09 88 c2 bc 7b f3 ee 3d 83 8e 9b 3d c7 76 57 bd
       -0.023746507 0.11667534 0.07595541 -0.05260351
0000a0 2d 90 9a 3c cc 6c 0c 3c a2 d0 14 bc 0a 38 c2 bb
       0.018867576 0.008570861 -0.009082945 -0.0059270905
0000b0 01 12 e6 3c 29 9f d6 3c 28 d7 c2 3d 8c c5 13 bd
       0.028084757 0.02619894 0.09513694 -0.036077067
0000c0 0d 66 42 bd ec 59 7f 3d 51 c7 9c 3d cc f2 d9 bd
       -0.047460604 0.062341616 0.07655204 -0.10642013
0000d0 52 ea bd 3d 28 c7 8c 3d 5b 1e 0c bd 68 7e 00 3d
       0.09273209 0.068739235 -0.034208637 0.03137055
0000e0 0f aa 4a 3c 32 23 43 3d 80 78 20 3d 88 f3 78 bd
       0.012369647 0.047640987 0.039177418 -0.060779124
0000f0 e0 2c 20 3c fa e6 54 3d 5b 92 2e bc 82 3d 38 3d
       0.009776324 0.05197809 -0.010655011 0.044980533
000100 5b 12 85 3d a2 48 aa 3c d3 1f a7 bd 43 de 96 3c
       0.06497642 0.020786587 -0.08160367 0.01841653
000110 a5 52 30 3c 25 53 22 3b c6 94 9c bc 9f dc 59 3d
       0.0107618915 0.0024768796 -0.01911391 0.053188916
000120 26 ac c7 bb 19 90 40 3d 44 1b 66 bd 10 aa 33 bd
       -0.0060935197 0.047012422 -0.056178346 -0.043863356
000130 1b a7 65 bc bc 0d ba bb 7a 1d b4 3c b3 d0 44 3d
       -0.014016892 -0.005677907 0.021986712 0.048050594
000140 22 a6 05 3c 22 e7 d2 bc ca ba bc 3d c1 78 05 3d
       0.008157285 -0.025744978 0.09215315 0.032585863
000150 e9 5a 5c bd b3 86 92 bc e1 c1 a7 3d 3b ff 79 bd
       -0.053797636 -0.017886495 0.08191276 -0.061034422
000160 d9 04 b3 3d 19 bc c6 3d 58 21 e0 3b 1d 4b 03 3d
       0.08741159 0.097038455 0.0068399124 0.032054055
000170 66 12 c0 3d 2e 87 6d bd 6e 6d 98 3d 8b e5 0c 3c
       0.09378509 -0.057990246 0.07442747 0.008599649
000180 ba 83 a8 bd 85 fb da 3c 27 a3 a0 3c 86 a8 d1 3c
       -0.0822825 0.026731262 0.019609047 0.025593054
000190 e6 25 a1 bc 60 e8 e6 3b a4 5d 8b 3c e7 21 9f 3d
       -0.019671392 0.007046744 0.017012425 0.07770138
0001a0 71 28 83 3b 42 d9 cb 3c 1c 84 ce 3d ed bb 17 3c
       0.0040026237 0.02488387 0.100837916 0.009261114
0001b0 e4 f1 9d bd c5 50 a4 3d 04 13 2a bb b0 42 f7 3c
       -0.077121526 0.08023218 -0.0025951276 0.030183166
0001c0 62 3f ae 3d 23 30 3c 3c c1 e9 8c bc 13 14 35 3d
       0.08508183 0.011486086 -0.017201306 0.044208597
0001d0 01 b7 d0 bb 29 b9 55 3c 9a d5 99 bc e3 64 30 bc
       -0.006369472 0.013044634 -0.018778611 -0.010766241
0001e0 03 dc a2 bd 8b 80 ec bc 9f 26 11 bb b6 1b 47 bd
       -0.0795212 -0.028869888 -0.0022148264 -0.04861041
0001f0 05 7c 27 3d 45 6d cc 3c d4 6e 46 3d 9e f3 01 bd
       0.04088976 0.024954448 0.048445538 -0.031726472
000200 2a 1d fd 3a 28 04 53 bd 8f 49 0e 3d 7a 76 36 bd
       0.001931106 -0.051517636 0.03473812 -0.04454658
000210 d0 22 38 3c 83 fe 8f 3d d4 ae 3d bd 18 ca 2a 3d
       0.011238769 0.07030966 -0.046309307 0.041696638
000220 ae c1 ba 3d 84 4b ba 3d 07 59 7d bc 8b e1 25 bd
       0.09118973 0.09096435 -0.01546312 -0.040498298
000230 7e a7 7f 3d ec f6 fc bc 72 cb b1 39 90 6d 35 3d
       0.062415592 -0.03087946 0.0003391165 0.04429394
000240 dd 00 5d bd 75 eb 63 bd d1 2c 48 bd 88 cd 2b 3d
       -0.0539559 -0.05564447 -0.048870865 0.041944057
000250 85 b6 b4 3b 93 ca 52 bd 86 6a d0 bc f2 75 bc 3c
       0.005514922 -0.05146272 -0.02544142 0.02300546
000260 e3 bc 3b 3d 59 2e 2d 3c 00 8e d4 bc 9f cc 7f 3d
       0.045834433 0.010570132 -0.025946617 0.062451
000270 5c 54 2b 3d a4 50 36 bd cf a5 6e bd b1 0d 75 bc
       0.0418285 -0.0445105 -0.058263596 -0.014956878
000280 4b 7b 9f 3b 85 c9 1c bd e6 6a 11 3c 71 e3 97 bd
       0.0048669926 -0.03827812 0.008875584 -0.07416428
000290 1a 47 74 bc 49 2c 93 3d 8a a6 d1 bc 7c 54 81 bd
       -0.01490953 0.07186181 -0.025592107 -0.06314942
0002a0 7e 5f 9b 3d c9 6d 0f 3d c7 54 8f bd 3e 83 04 3c
       0.07586573 0.03501681 -0.06998592 0.008087931
0002b0 0e 33 08 3d bd 5a a9 3c 4f e5 91 bd 14 65 8b 3c
       0.033251815 0.02067315 -0.07123815 0.017015971
0002c0 da 04 d0 bd da 5c ac bd 0f a5 9c bd e2 66 28 bd
       -0.10157175 -0.084161475 -0.0764867 -0.04111374
0002d0 79 b1 e4 b9 ae cb e5 3a 36 6a 40 3d 98 b6 42 bc
       -0.00043619776 0.0017532015 0.04697629 -0.011884354
0002e0 50 f7 8d bb 82 f0 89 3c 5f ae 8a bd e9 e1 e0 bc
       -0.0043324605 0.016838316 -0.0677154 -0.027451472
0002f0 d6 f2 46 3d 26 cb 6a bd 32 4c 97 bd 00 35 bb bc
       0.04857143 -0.057322644 -0.0738758 -0.02285242
000300 59 51 e2 3d 81 20 b2 3b 5f af 18 3d 7b 8c c6 3d
       0.11050672 0.0054360037 0.037276622 0.09694763
000310 7b 5c 10 bd 62 e3 7f 3d 4e 39 98 3d 2c d7 97 bd
       -0.035244446 0.06247271 0.07432805 -0.07414088
000320 b3 4c b8 3d d5 c7 2e bd 86 8c 10 3c d0 b2 46 3d
       0.08999004 -0.042671043 0.008822566 0.048510373
000330 fa 5d 2c 3a 82 3c 1e bc 38 49 93 bd b4 3d 30 3c
       0.0006575283 -0.009657981 -0.071917 0.010756899
000340 69 b3 8d bb aa aa 29 bd 3d 5d 85 bd d0 30 9f 39
       -0.004324366 -0.041422524 -0.065119244 0.0003036321
000350 92 f9 b8 3c b6 bc 17 bd 87 d9 b5 bc 47 33 d4 bc
       0.022579942 -0.037045203 -0.022198452 -0.025903357
000360 e6 2b 95 bd 77 ad cf 3c 9d 6f 95 bd 3c 6a a7 bc
       -0.072837636 0.02535127 -0.07296679 -0.020436399
000370 00 cb 19 bd ff d2 3e 3d 84 28 f8 3c 75 ed ec 3b
       -0.03754711 0.04658794 0.030292757 0.0072304555
000380 1d 69 8c bb 87 7d d1 3c 9c 08 5b bc 2a 10 54 bd
       -0.0042849914 0.025572551 -0.013368752 -0.051773228
000390 71 4c 40 3c de a7 d7 3c bb b8 bd bc 4e c9 a9 3d
       0.011736975 0.026325163 -0.023159375 0.08290349
0003a0 cd f9 37 3d 6a 98 8f bd 71 8f ab 3d 70 7d a9 bd
       0.044915963 -0.070114926 0.08376969 -0.082758784
0003b0 9b 2a c0 bd 23 ee 9c 3d 6a b7 95 bd 49 04 bd 3a
       -0.09383126 0.076626085 -0.07310374 0.0014420833
0003c0 5d 1b 3f 3d a9 89 29 bd f6 7e 03 3c eb 08 11 3d
       0.046656955 -0.04139105 0.008025875 0.035408895
0003d0 ec e4 9d bd 67 e0 85 3d 60 d5 dd 3c 48 79 4f 3d
       -0.07709679 0.06536942 0.027079284 0.050652772
0003e0 be 0e 34 bd 9f 9e f4 bc 0e dd 05 3d 4d 51 e7 bc
       -0.04395937 -0.029860793 0.032681517 -0.02823701
0003f0 96 c8 55 bd 58 25 86 3b d8 e3 8d ba b8 9e 15 3c
       -0.052193247 0.004093807 -0.0010825349 0.00913208

fc1.bias f4 [128]
000000 08 56 5c 3d 87 93 2d 3c f4 fa 47 bd c5 ae 82 bd
       0.053792983 0.010594255 -0.048823312 -0.06380991
000010 3a 54 3c 3d c3 9f 10 3d fc 42 39 bd 92 f6 9a 3d
       0.045978762 0.03530861 -0.045229897 0.07566561
000020 e2 c7 3b bd 8b ad b7 3c ab 4c 90 3d e5 13 d6 bc
       -0.04584492 0.022421619 0.07045873 -0.026132533
000030 03 da a1 3c 89 19 bf bc a0 55 3b bc 64 df 7c bd
       0.019757276 -0.023327606 -0.011433989 -0.06173648
000040 94 19 a3 3d a8 0b 9f 3d e2 6c 85 bd 2a 09 c5 3d
       0.07963863 0.07765895 -0.065149084 0.096208885
000050 4c 26 ef 3d 22 58 63 bd 4d 15 38 bd 36 e9 7d bd
       0.116772264 -0.055503972 -0.04494219 -0.061989985
000060 f7 d6 9b 3c 0e f7 b5 3d 7b f7 e0 3d f4 59 80 3d
       0.019023402 0.088850126 0.10984703 0.06267157
000070 f6 e2 48 bc 98 b4 93 bc 27 50 94 3d e8 aa 52 bd
       -0.012261143 -0.01803045 0.0724185 -0.05143252
000080 9d c7 53 bd 68 ca 6c 3d c4 1a 0c bd 98 8c 1f 3d
       -0.051704038 0.057810217 -0.034205213 0.03895244
000090 c8 f9 5d 3d 2d 24 3c bd 24 62 02 bc 5b dc 60 bc
       0.054193288 -0.045932937 -0.007957969 -0.013724412
0000a0 9b aa 4d 3d 16 4b 9d 3d 4e 16 51 3d 7a eb 03 bd
       0.05021153 0.07680337 0.051046662 -0.03220699
0000b0 b8 47 bc 39 7f 89 65 3c 82 15 e0 3c 65 72 c9 3d
       0.0003591159 0.014009832 0.027354006 0.09836272
0000c0 44 c9 ab 3c 47 96 5c 3d 94 56 5f 3d cd 05 c3 3d
       0.020969994 0.053854253 0.054525927 0.09522591
0000d0 b2 99 c6 3d 4b 8e 2b bd 88 db 8b 3c aa fa 64 3d
       0.09697284 -0.041883748 0.017072454 0.055903114
0000e0 de 9f 73 3b 10 b4 81 bd 61 a7 a2 bc 2e b4 88 3c
       0.0037174146 -0.06333172 -0.019855203 0.016687479
0000f0 e1 c2 a3 3c ba c5 f9 3c ae cd 1a 3c 6f 96 5e 3d
       0.019990386 0.030489791 0.009448452 0.054342683
000100 14 b6 9b 3d 2e 71 89 3d c9 67 a2 3d 44 fe e9 bb
       0.07603088 0.067110404 0.07929952 -0.0071409065
000110 6d 4d ad bc d0 84 9a bb 93 4d 36 3d ae 69 65 3c
       -0.021155084 -0.0047155395 0.044507574 0.014002247
000120 c0 b3 17 bd 13 c9 ba bc d6 a5 86 ba b8 f1 40 bd
       -0.037036657 -0.022800958 -0.0010272812 -0.04710552
000130 e9 06 be bc 6d b7 6a 3d 32 c0 a6 bc 82 cb 0d 3d
       -0.023196654 0.057303835 -0.020355318 0.03461791
000140 0e dc d7 3d bc e5 3e 3c 62 a0 2a 3d b2 1f 40 bd
       0.10540019 0.011651453 0.04165686 -0.046905227
000150 c7 18 86 3d c1 a0 83 3d 95 34 e5 bc 21 5e b8 3c
       0.06547695 0.06427146 -0.027979175 0.022505822
000160 25 49 9f 3d e3 61 db 3d 1e 95 31 bd f1 f6 4c bc
       0.07777623 0.1071203 -0.0433551 -0.012510047
000170 d6 60 9f ba 71 73 96 bb d8 47 98 3d eb d6 f4 bc
       -0.0012159597 -0.0045913984 0.07435578 -0.029887637
000180 30 c5 de 3b 00 c0 35 bb 3b 5c f4 3c 2f 08 04 3d
       0.006798409 -0.002773285 0.029829135 0.032234367
000190 a1 4f 8b 3d a7 2c c4 3d 85 20 dc 3c 20 e0 8a 3d
       0.068022974 0.09578829 0.026870975 0.0678103
0001a0 21 89 bf 3d 14 ba c8 3d 48 5a 07 bd 34 a4 9a 3d
       0.09352327 0.098011166 -0.033045083 0.075508505
0001b0 85 38 82 3d 40 b4 97 bc 7b 5d 82 3d 6e 39 2c bd
       0.063584365 -0.018518567 0.06365486 -0.042046957
0001c0 c9 dd 80 bc 27 f8 db 3b de ab 7e 3d e8 f5 68 bc
       -0.015730755 0.0067129317 0.062175624 -0.014218785
0001d0 4c 96 6e 3d e2 5f b4 3c 8f 8e cd 3d 87 3b 66 3d
       0.058248803 0.022018377 0.100369565 0.056209113
0001e0 3e 2f 05 bd 26 49 95 3d 8f dd a4 3b cd ca 8a 3c
       -0.032515757 0.072893426 0.0050312947 0.016942406
0001f0 ad 9a 64 bd 75 58 86 3d a8 7b 8e 3d 34 91 91 3d
       -0.055811573 0.065598406 0.06957179 0.071077734

fc2.weight f4 [64, 128]
000000 5b f2 b1 3d f8 34 d1 bc 61 7e 0a bd 52 d8 68 3d
       0.08688804 -0.025537953 -0.03381193 0.056846924
000010 ae b5 0b bd 98 b7 a2 bc 42 7a a5 bd 26 9a 4d 3d
       -0.03410881 -0.019862935 -0.080799595 0.050195836
000020 70 1f ba 3b d0 bd ba bb ee 0e 5c 3d b2 90 b0 bd
       0.005680017 -0.005698897 0.053725176 -0.086213484
000030 c4 64 e2 bc aa 9d 51 3d 24 f5 8f bc 5a ef 2f 3d
       -0.02763594 0.05117575 -0.017572947 0.042952873
000040 3e 2c 5a bd f0 ac db 3b 90 45 b5 3c 6f 5f 2f bd
       -0.05326485 0.0067039654 0.022127897 -0.042815622
000050 96 66 aa bd d2 40 58 3d 0c be dd bc 31 a3 97 3d
       -0.08320348 0.052796192 -0.02706816 0.07404173
000060 0e fc b3 bd cf 19 26 bd 72 37 1b 3d 64 46 88 bd
       -0.0878831 -0.040551957 0.037894674 -0.06654051
000070 80 79 74 3c 39 be 39 bd d8 ef 77 bc d8 f3 31 bc
       0.014921546 -0.045347426 -0.015132867 -0.01086136
000080 6d 74 44 bd 90 a6 a9 3b 5c 34 b2 bd 97 9a 2b bd
       -0.047962595 0.0051773265 -0.08701393 -0.041895475
000090 00 e2 c9 ba ad 72 b1 3d a2 2d 42 3d e0 c1 0e bb
       -0.0015402436 0.08664451 0.0474068 -0.002178304
0000a0 92 34 9b bd 8f 11 58 bd 8d 86 89 3d 3e 22 4e 3d
       -0.07578386 -0.05275112 0.06715117 0.050325625
0000b0 30 ae 63 3c b0 c0 bf 3b d7 d7 91 bd 52 57 7e bd
       0.01389651 0.0058518276 -0.07121246 -0.062094994
0000c0 e4 c4 8e bd cd 67 82 3d d7 96 a5 bd cd 71 a1 bd
       -0.06971148 0.06367455 -0.08085411 -0.07883034
0000d0 ee 84 68 3d 58 58 d1 bc bb 24 82 3d 38 2a a6 bc
       0.056767397 -0.02555482 0.06354662 -0.020283803
0000e0 30 53 97 bb 28 ef 7a bc 52 e2 02 3d 1d f4 83 3d
       -0.004618071 -0.015315808 0.031954117 0.06443045
0000f0 9b d0 20 bd 52 b1 dc bc ab 1a a9 3d 84 de d4 3c
       -0.03926144 -0.026940022 0.0825704 0.02598501
000100 b0 a6 16 bd c8 fe 83 bc b8 80 be bc 36 7d 57 3d
       -0.03678006 -0.0161127 -0.023254737 0.052609645
000110 f6 de ab bd bc c3 8d bd 00 6a 9e bd 92 66 1c 3d
       -0.08392136 -0.06922099 -0.07735062 0.038183756
000120 fe b9 95 bd 80 5d b8 3c 39 fe 9b 3d c7 da 96 3d
       -0.07310866 0.022505522 0.076168485 0.07365947
000130 7a 10 6d bd 1e 8b 87 bd e3 27 5f bd d4 cd d0 3c
       -0.05787704 -0.066183314 -0.0544814 0.025488771
000140 f9 28 91 3d cf e7 b0 bd bf 87 5a bd 8d 8b 99 bd
       0.07087893 -0.08637964 -0.053352114 -0.0749732
000150 a5 d9 8f bd 02 d0 6d 3d 68 ab 5b 3c 96 66 47 3d
       -0.07023934 0.0580597 0.013407566 0.048681818
000160 f6 79 96 bd cd b4 86 bd f1 e2 ae bd a0 94 f0 3c
       -0.07347481 -0.06577454 -0.085393794 0.029367745
000170 ca 27 7f 3d 30 41 87 bc 0d 5f 24 bd 20 b9 a1 bc
       0.062293805 -0.016510576 -0.04012971 -0.019741595
000180 8a db 7e 3d 43 c3 ab bd 49 6e 1a bd 73 8c 88 3d
       0.062221088 -0.083868526 -0.037702832 0.066674136
000190 b1 b3 57 bd fc cd fe 3c 0e e2 7e bd 58 67 f0 3c
       -0.0526616 0.03110408 -0.0622273 0.029346153
0001a0 cb d6 94 3d 62 c4 63 3d 7c ed 60 bd 56 19 4b 3d
       0.07267531 0.055607207 -0.054913983 0.04958471
0001b0 20 e4 46 bb e6 03 83 bd 60 1b 7c bb 16 56 64 3d
       -0.0030348375 -0.06397228 -0.0038468465 0.05574616
0001c0 48 d9 7f 3c d0 dc c7 bc 38 3a 24 3c 58 49 7a 3c
       0.015615769 -0.024397284 0.010023646 0.015276276
0001d0 ce d0 1c bd c6 4e 45 3d 74 ad 84 bc 83 a8 85 3d
       -0.03828507 0.048170827 -0.01619599 0.06526282
0001e0 ce 1e 56 3d d9 8a ae 3d 06 a5 62 3d 66 40 91 bd
       0.05227547 0.08522577 0.05533316 -0.07092361
0001f0 08 f8 85 bc 92 64 31 3d c8 b1 1f bc f0 8e f6 bb
       -0.016353622 0.043308802 -0.009746976 -0.0075243637
000200 46 4e a8 3d 3d 39 24 bc 8a 1b d0 3d 59 61 7b 3d
       0.082180545 -0.010023412 0.10161503 0.061372135
000210 37 ed 8c 3d 16 0c a2 3c db 34 a5 3d 00 89 e3 bd
       0.06881183 0.019781154 0.08066722 -0.11110115
000220 dc 1e 38 3d b6 34 5c bd 9c fa 59 bd b4 68 a0 bc
       0.044951305 -0.053761207 -0.053217515 -0.019581176
000230 71 72 33 bd ad 2b cf 3a cc f7 5e bc cf 9d 06 3d
       -0.04381031 0.0015805863 -0.013608884 0.03286534
000240 7c dc cd bd cb 5e 66 bd f7 c1 38 3d 4b 83 ff bc
       -0.1005182 -0.056242745 0.045106854 -0.031190535
000250 10 f0 52 3c 4c 72 91 bd ec 43 cc 3c 04 d2 25 bd
       0.012874618 -0.071018785 0.024934731 -0.04048349
000260 e4 61 7b 3d 83 83 be 3c a4 af d2 bd ac 5e 95 bd
       0.061372653 0.023256069 -0.10287407 -0.07293448
000270 cb bc b7 3d e1 86 f0 3d 4a 49 8f 3d 0b 02 8b bd
       0.08971556 0.11744476 0.06996401 -0.06787499
000280 b4 ad b6 3c 3a 59 93 bd 69 d6 e7 3d a1 bd ad bd
       0.022299625 -0.07194753 0.11320192 -0.084834345
000290 84 4f 9f 3d 39 c1 6b bc e6 19 8b bc 7b f7 a2 3d
       0.07778838 -0.01438933 -0.016980123 0.079573594
0002a0 98 84 2e bd bb 74 c6 bd 0d 10 15 3c 9f b9 78 3d
       -0.04260692 -0.09690233 0.009098065 0.060723897
0002b0 38 b6 57 3c 46 75 ad bc 5b 3f 11 3d 3c 3e 1a 3d
       0.013166003 -0.021174084 0.03546081 0.037657008
0002c0 1f f8 dc 3d 06 6d a4 3d fa 80 71 3d ce 27 81 3d
       0.10789513 0.08028607 0.058960892 0.0630642
0002d0 cc 03 88 3d c3 2e fc bc 04 c2 b5 3d 50 8f c9 bd
       0.06641349 -0.030784016 0.08874896 -0.09841788
0002e0 2a 1b 06 bd 85 99 25 3d eb a0 0c bd 6c 12 f8 bc
       -0.03274075 0.04042961 -0.03433315 -0.030282222
0002f0 2a c0 d0 bd 23 c7 62 b9 09 b2 c1 3d 11 58 c6 3d
       -0.101929024 -0.00021627224 0.09457786 0.09684766
000300 44 4c db 3c b5 95 60 bd 42 28 9a bd 67 7c 90 bd
       0.026769765 -0.05483027 -0.0752721 -0.07054978
000310 c0 a1 8a 3d e8 f9 2c bd db 9c 87 3c e1 49 b7 bd
       0.067691326 -0.042230517 0.016554287 -0.08949638
000320 2e ea c5 3c 80 9a 0e 3d 31 40 c5 3d 15 84 23 3c
       0.024159517 0.03481531 0.09631384 0.009980221
000330 f7 b6 7f 3c 14 70 ca bc f7 7b 6a bd bb 45 8f 3d
       0.015607587 -0.024711646 -0.05724713 0.06995722
000340 63 c0 85 3b c0 b5 e6 bc a1 b8 b2 3c b6 f6 86 bd
       0.004081772 -0.028162837 0.021816554 -0.06590025
000350 eb c3 a4 3b 62 22 f2 3c 48 3d bc bc 5f 6d 38 3d
       0.005028238 0.02955741 -0.02297844 0.04502618
000360 e8 82 a0 bd ae 68 46 bc 62 24 2f bd 34 48 14 3d
       -0.078374684 -0.0121099185 -0.042759307 0.03620167
000370 ac 45 60 bd 5c 96 b9 bc 91 4f 9f 3c b0 77 a1 3d
       -0.054753944 -0.022654705 0.01944712 0.07884157
000380 73 12 be 3d 72 0c de bd 19 8e 30 bc a0 7f d4 bb
       0.09280863 -0.108422175 -0.010776066 -0.0064849406
000390 16 7c 9c 3d 15 61 50 bd a4 ff 7e 3d 9d 1c 3f bd
       0.07640855 -0.050873835 0.062255517 -0.046658147
0003a0 66 ed 00 3d d3 67 ab 3c 1d cf 9e 3d 35 c4 10 bd
       0.0314764 0.02092353 0.077543475 -0.035343368
0003b0 9d 03 72 3d 42 ca 05 3d 70 a7 5d bd a2 f0 ae 3c
       0.059085477 0.03266359 -0.05411476 0.021354977
0003c0 d9 cc 9b bc 2a 95 05 3d 5b 39 2d 3d ab 6b 66 3b
       -0.019018577 0.032612957 0.042291027 0.003515939
0003d0 3a 00 8a bd bc 35 a9 3a a1 de 7d 3d 7b e0 5a 3d
       -0.067383245 0.0012909691 0.061979894 0.053436738
0003e0 ce 3b f9 bb 16 19 a6 3d 9b 8e 09 bd cb ac ed 3d
       -0.007606006 0.081102535 -0.033583265 0.11605223
0003f0 07 bd a0 bb 7a 32 ac 3d 33 e5 7f 3d a7 06 92 bc
       -0.0049053463 0.08408065 0.06247444 -0.017825438

fc2.bias f4 [64]
000000 b6 16 9e bd 84 3c 86 3d 67 2b 8b bd 47 b4 6e 3b
       -0.077191755 0.06554511 -0.06795388 0.0036423372
000010 78 95 25 bd b4 59 40 3d 1a 3f 3f 3d a9 77 85 3b
       -0.040425748 0.046960548 0.046691038 0.0040731025
000020 68 3b 75 bd 13 60 aa 3c 32 ed 80 3d 17 ea ad bd
       -0.059871107 0.020797765 0.062952414 -0.08491915
000030 5f dd a6 3d 6b 18 16 bd e9 e0 45 3d 62 83 66 3d
       0.08147692 -0.03664438 0.048310194 0.05627764
000040 24 14 92 3d df 8f 25 bd 65 be 0c 3d ea fa 07 3d
       0.07132748 -0.04042041 0.034361262 0.033198275
000050 ae a1 94 bd 54 70 92 3c 00 e5 2c bc 85 20 97 3d
       -0.072574005 0.017875828 -0.010552645 0.073792495
000060 a4 eb 6f 3d f6 22 04 3d fa 99 58 3d 7f 10 02 bd
       0.058574334 0.032259904 0.05288122 -0.031754013
000070 f3 1c 8b 3c 3d 54 8f bc a1 21 91 3d 09 39 9c bd
       0.016981578 -0.017496223 0.07086492 -0.07628066
000080 13 62 52 3d 2d 5a 4e 3d 1b 43 a4 3b 05 b5 8e 3d
       0.051363062 0.050378967 0.0050128824 0.069681205
000090 d3 b4 10 3d 0a b1 97 3d ce 69 ad bd 93 cd f2 3c
       0.035328697 0.074068144 -0.08467446 0.029639041
0000a0 28 4c f7 3c 66 39 35 3d ff 74 0e bd 40 28 a2 3d
       0.030187681 0.044244193 -0.034779545 0.07917833
0000b0 d3 7b 67 3d d7 2a 24 3c 6b 72 e8 3c 6d 5f 96 3d
       0.056514572 0.010019979 0.028374871 0.0734242
0000c0 10 32 b3 3d 8e b5 b2 bd 1f 28 79 3d ff 54 7f bd
       0.08749783 -0.08726035 0.060829278 -0.062336918
0000d0 d2 2c 26 bd f6 32 67 bd d1 95 36 bd 84 b2 a5 bd
       -0.040570088 -0.056445085 -0.04457647 -0.0809069
0000e0 7e d7 d5 3c 83 71 9a 3c c9 aa 98 bd 3f 1a 12 bd
       0.026103731 0.018852955 -0.0745445 -0.03566956
0000f0 2c 22 18 3a 13 f5 cf 3c 9d 40 25 bc 29 e8 11 bd
       0.0005803432 0.025385415 -0.010086206 -0.035621796
