logs/mappo_checkpoint_ep300.pth (torch, 451986 bytes, 28 tensors)

fc1.weight f4 [128, 147]
000000 4c 21 74 bc 79 ea bb 3d 75 f7 8a bd 0a 47 07 3d
       -0.014900517 0.091755815 -0.0678548 0.033026733
000010 b0 ba 44 3d bc 6f a3 3b c8 d7 c0 bb 21 b7 15 bd
       0.0480296 0.004987685 -0.005885098 -0.0365516
000020 b7 8f 19 bd f6 23 3a 3d 27 d9 d7 bc ea 7e 87 3d
       -0.037490573 0.04544445 -0.026348663 0.06616004
000030 d0 09 8f 3d 80 31 70 3d c7 e7 5f 3d 6b 20 26 bd
       0.069842935 0.058640957 0.0546644 -0.04055826
000040 d8 e2 86 3d 29 58 8f bd 45 b6 81 bd 3f 17 12 3d
       0.06586236 -0.06999237 -0.06333593 0.0356667
000050 14 5a a1 3d e9 57 ff 3c e3 6c be 3d a5 a9 2d bd
       0.07878509 0.031169849 0.09298112 -0.042398114
000060 f1 7e 6c 3b 6b a5 bd bb 07 55 10 3d 34 fc 05 bd
       0.0036086405 -0.0057875416 0.03523734 -0.032711223
000070 da 11 a6 3d 44 24 8c 3d 6b ad 9c bd 69 0e 69 bc
       0.08108874 0.068428546 -0.07650264 -0.014224627
000080 c6 33 9e bb 36 60 ec 3c 2b a0 b0 bc 46 bd 73 bd
       -0.004827949 0.02885447 -0.021560749 -0.059506677
000090 57 a4 89 bd f1 55 a5 bd 67 89 53 3d 49 a4 ee bc
       -0.067207985 -0.08073033 0.05164471 -0.029131072
0000a0 36 26 33 bb 4f 27 2d 3d 98 e1 53 3b 02 a7 af 3d
       -0.0027336008 0.042273816 0.003233051 0.08576776
0000b0 07 8c dc bc 07 37 86 bd 37 ad a7 3c db 33 68 3d
       -0.026922239 -0.065534644 0.020468337 0.05669008
0000c0 72 4f d0 3c 7f 96 05 3d 6a 47 4a 3c 5a f5 ab bc
       0.025428507 0.032614227 0.012346128 -0.020991016
0000d0 f0 b3 b7 bc b4 bd 1b bd b3 72 33 bd 8a ca 9e bd
       -0.022424668 -0.038022712 -0.043810558 -0.07753475
0000e0 0f a9 1e 3d e7 6b 91 bd 16 37 38 3d 35 a3 4f 3d
       0.038735446 -0.07100659 0.04497441 0.050692756
0000f0 60 d3 31 bc 8b c9 a4 bc e5 7e be 3d 87 e9 99 3c
       -0.010853618 -0.020115634 0.09301547 0.018788112
000100 04 b0 b3 3d 19 43 59 3d b5 79 83 bd a0 12 d7 bb
       0.08773807 0.053042505 -0.06419698 -0.0065634996
000110 ef 56 8c bc 81 a0 30 3d e7 b6 d2 3d d7 af cb bc
       -0.017131297 0.04312182 0.10288792 -0.02486412
000120 83 f0 d5 bc c0 96 62 b9 01 f4 73 bb 9c ea 41 3d
       -0.026115661 -0.00021609198 -0.0037224295 0.04734288
000130 a5 0c 3e 3b db 8c 3d bd 5c 69 7d bd 84 45 f9 3c
       0.0028999236 -0.04627691 -0.061868057 0.030428655
000140 21 05 5e 3c 3c 01 cf bc 04 bd bc 3c 0d cf f8 bc
       0.0135510275 -0.025269143 0.023039348 -0.030372167
000150 b1 b4 67 bc 7e 49 c6 3d fd b3 79 bd 1e 2f 35 bd
       -0.014142201 0.09681986 -0.060962666 -0.044234388
000160 a9 bc 88 3d be 9e 82 bd 76 1c 09 bd f2 83 e7 bb
       0.06676609 -0.06377934 -0.033474408 -0.0070652897
000170 36 11 9e bc 2b 30 59 bc 2b a2 7b bc f4 bb 92 bd
       -0.019295316 -0.013256113 -0.015358488 -0.071647555
000180 4b 0c bc 3b b9 b3 a8 3d 42 bd 8d 3c 8f 17 80 bc
       0.00573877 0.082374044 0.01730216 -0.015636234
000190 78 c9 d2 3d 85 58 58 3d 4a ab 39 3d dc 2a 74 bd
       0.10292333 0.052818794 0.04532937 -0.059611186
0001a0 75 e2 80 3d 34 4a 79 bc 4f f0 c3 3d 4b a7 5c bd
       0.06293193 -0.015215445 0.095673196 -0.05387048
0001b0 2c 99 38 bd b7 86 77 3c 8f fb 4a 3d b1 d9 7d bc
       -0.04506795 0.015107802 0.04955631 -0.015493796
0001c0 7b df 04 bd a0 61 90 3b 52 46 30 3d 83 59 81 3d
       -0.03243969 0.004406169 0.043035813 0.06315901
0001d0 89 eb 47 3d 79 08 d7 3c 84 4d a3 ba e6 f1 03 3d
       0.04880861 0.026249157 -0.0012459015 0.032213114
0001e0 70 dc 8e 3d 23 02 c6 3d 55 c2 66 3d 0e 55 91 bd
       0.06975639 0.09668376 0.056337673 -0.07096301
0001f0 c9 cf 25 3c 8c ac 67 3d 56 9f ea bb e4 62 04 bd
       0.010120341 0.056561038 -0.0071601076 -0.032320872
000200 b7 7d 4c bd 6a 18 c1 3c 3c 44 83 bd 2e d8 8a bd
       -0.04992458 0.023571212 -0.06409499 -0.06779514
000210 32 08 20 bd 95 94 76 3d ed dd 79 bd 63 d2 9c 3b
       -0.039070316 0.060200293 -0.06100266 0.0047858222
000220 a0 f4 5d bd 00 ee 06 bd 87 95 82 bd 61 a4 e2 bc
       -0.05418837 -0.03294182 -0.06376176 -0.027666273
000230 de 9f 58 3d 32 0e 8b 3d ae b4 4f bd 0c ca 5d 3c
       0.052886836 0.06789817 -0.05070942 0.013536941
000240 3a 92 86 bd b9 88 29 bc 6e 7b be 3d 27 56 27 bd
       -0.06570859 -0.010347539 0.09300886 -0.040853646
000250 3f 4e 1a bd 0e 1e a9 3d 36 3f de 3c 9b 01 97 bd
       -0.037672278 0.082576856 0.02712975 -0.07373353
000260 ec 61 90 bd af 99 a2 3c 36 05 87 bc f0 6b d1 3c
       -0.07049927 0.019848673 -0.016481977 0.025564164
000270 8d 66 9c bd 12 56 a6 3d 41 8c 61 3c 22 59 d6 ba
       -0.076367475 0.08121885 0.013766349 -0.0016353468
000280 0b e6 a8 3d 4a b2 8c bd 6e 02 a9 3d 2e 52 f7 bc
       0.08247002 -0.068699434 0.082524166 -0.030190554
000290 7d 0f bc 3b b5 a3 4f 3d fe 74 b5 3d 4b 01 9c 39
       0.005739151 0.050693233 0.08860205 0.00029755602
0002a0 f1 d9 6e bc ac 2f a0 3d 40 72 80 3d 9f 69 8f 3d
       -0.0145783285 0.07821593 0.062717915 0.070025675
0002b0 31 ea 9e 3d f1 c7 dc bc 06 0e 70 3d 9b 0d c5 3c
       0.07759512 -0.026950808 0.058607124 0.02405434
0002c0 08 85 85 3d 31 4a 42 3d 37 2e 1f 3d 8b 91 a1 3d
       0.06519514 0.047434036 0.038862433 0.07889088
0002d0 5d 5d 4a bd 52 b1 90 bd ae b6 c8 bb 2d 2e 7c 3d
       -0.049405444 -0.07065071 -0.0061252927 0.061567474
0002e0 a2 87 af 3d 0e 47 34 3d fd 6a 70 3c 87 c9 5d bd
       0.08570792 0.044013076 0.0146739455 -0.05414727
0002f0 e2 e2 72 3d 3c ef 10 3d 40 c8 33 bd b7 23 0f 3b
       0.059298404 0.0353844 -0.043892145 0.0021841356
000300 00 ee 72 bd 9d 3e 9e 3d 97 f7 92 bd 6b 8b 57 bd
       -0.059309006 0.07726786 -0.0717613 -0.052623194
000310 b9 50 eb bc fc 20 cd 3d 7c fb 5b 3d 38 3a aa bc
       -0.028725015 0.10016057 0.05370663 -0.020779714
000320 50 b8 35 bc 2f 0f f2 3a 68 f6 79 bd 56 97 d1 bc
       -0.011091307 0.001846766 -0.061026007 -0.025584858
000330 e8 c1 02 bd 68 2f 12 bd 2f 01 51 3d 71 ba 8b bd
       -0.031923205 -0.03568974 0.05102652 -0.0682267
000340 59 18 93 3c 13 be 91 bd 80 c3 6c bd 0b a1 09 3c
       0.017955946 -0.07116332 -0.05780363 0.008400212
000350 bc 01 47 3c 9f 1b 27 bd 03 4c 1e 3d f5 c5 5d 3d
       0.01214641 -0.040797826 0.03864671 0.054143865
000360 2b 3c 43 bc 80 8c 5d bd 09 8c c9 bc a4 36 7f 3d
       -0.011916201 -0.05408907 -0.024602907 0.06230797
000370 82 33 48 bd 24 cc a4 bb c9 f1 a1 3d ee 65 ac 3d
       -0.048877247 -0.0050292183 0.07907445 0.08417879
000380 f5 d5 86 3d a5 18 29 bd 6f dc a3 bc e6 c4 44 3c
       0.06583778 -0.04128327 -0.020002572 0.012009835
000390 d7 a2 7a 3d 28 03 85 3d 58 45 28 bb 64 70 5d bd
       0.061190452 0.06494743 -0.0025676098 -0.054062262
0003a0 4d b2 a5 3d 33 a5 3b 3d 37 63 a5 bd a0 7f 25 3d
       0.08090649 0.045811843 -0.08075564 0.040404916
0003b0 09 76 8c 3d 3c cc 8d bd 31 5a 00 bd 57 4f 80 3d
       0.06858451 -0.0692372 -0.031336013 0.06265133
0003c0 34 ce 44 bd 65 79 93 bc 33 77 8d 3d 88 90 a2 3d
       -0.048048213 -0.018002221 0.06907501 0.079377234
0003d0 dc 1b 64 bd b7 f2 d6 3c ce 5d 27 3c 96 c5 12 3b
       -0.05569063 0.026238782 0.010215236 0.0022395602
0003e0 4c 43 a9 3d b1 55 66 3d f6 08 0c 3d 5f 06 31 bd
       0.08264789 0.056234065 0.034188233 -0.043218967
0003f0 76 b5 a3 3c 2c 8b b1 3d ae e3 83 bd 30 fd 8d 3d
       0.019983988 0.08669123 -0.06439911 0.06933057

fc1.bias f4 [128]
000000 46 e7 1f bd 01 79 d5 3d 77 51 2e bd 13 f4 17 3d
       -0.03903892 0.1042347 -0.04255816 0.037098
000010 6a 5e aa 3a 38 ac 8a bc 14 42 e4 bb 16 5a 76 3c
       0.0012998108 -0.016927823 -0.006965885 0.015036127
000020 40 e2 82 3d dc d1 3c 3c 48 a9 91 3d ce b4 c7 3d
       0.0639081 0.011524644 0.07112366 0.09751283
000030 3b ae 16 bd 3f f5 e1 3d 93 cb 93 3d 60 6e a3 bc
       -0.036787253 0.11033105 0.07216563 -0.019950092
000040 c7 e9 c1 3b 4c 05 d9 bc 7c 67 0f 3d dd 57 97 bd
       0.005917761 -0.026491784 0.0350108 -0.073898055
000050 4b d0 2b 3d 35 31 1b bd f3 5c e2 ba 35 4e f3 bb
       0.04194669 -0.037888724 -0.0017270133 -0.0074250945
000060 25 27 5c bd 75 16 61 3d 81 42 76 3d cc 8b 62 3b
       -0.05374827 0.054953057 0.060122017 0.0034568189
000070 4c 69 90 bd 7f c1 43 3d cb b0 61 bd f7 0b 28 3d
       -0.07051334 0.047791954 -0.055100244 0.041027036
000080 80 15 af 3d 3b 4b e7 3d 14 5b 1a bd d9 bf f8 3c
       0.08549023 0.11293646 -0.037684515 0.030364918
000090 48 2d 68 3c 39 b1 0d 3d 99 3a db bc e0 90 3e bd
       0.014170952 0.03459284 -0.02676134 -0.046524882
0000a0 07 bb f9 3c 60 ce c7 3d ed aa d7 3c 26 ff 82 bd
       0.03048469 0.0975616 0.026326621 -0.06396322
0000b0 d1 64 2b bd 90 3b dc 3d 90 60 b0 3c cc 25 13 3d
       -0.041844193 0.10753548 0.02153042 0.035924718
0000c0 58 80 4d bc 28 9f 48 bd 09 07 1a bc cb 40 87 bd
       -0.012542807 -0.04897991 -0.009401091 -0.06604155
0000d0 45 ac ad 3d b9 3c 32 bd ae ee 10 3d 1c 84 bf 3c
       0.084801234 -0.04351494 0.035383873 0.023378424
0000e0 c4 59 5d 3d 74 ea 05 3c 29 e9 2e 3d 6c 1d b6 3c
       0.054040685 0.008173574 0.042702828 0.022230826
0000f0 7b 39 a2 3c 1c 9d 25 3d 7a ff 0e bd 8f fb 3e bd
       0.0198028 0.040433034 -0.03491161 -0.046626624
000100 46 49 9f 3d bd 2e a1 3d 72 87 98 3d 14 95 d3 3c
       0.07777648 0.07870243 0.07447709 0.025827922
000110 9b 89 33 bb d9 05 06 bd e0 e4 44 3d ed 10 5b bc
       -0.0027395252 -0.03272042 0.048069835 -0.013370735
000120 db 85 a1 3d 07 fb 87 bd 69 e0 5e bd b2 7a f5 3b
       0.07886859 -0.066396765 -0.054413233 0.007491433
000130 f4 1b c2 bb 9d 9e e6 3c 39 e4 dd 3c c5 1e 87 bc
       -0.0059237424 0.028151805 0.027086364 -0.016494164
000140 d5 97 af 3d 4e 69 8c 3d ea 3b 96 3d 5f b1 d1 3d
       0.085738815 0.06856023 0.073356465 0.10238909
000150 9b ba 33 3d 1b 35 d4 3d 38 e5 33 3d 7c 4d 8c 3d
       0.043879133 0.103616916 0.043919772 0.068507165
000160 eb 58 f7 bb 86 65 6b 3d 39 48 97 3d af 7b b3 3d
       -0.0075484416 0.057469867 0.07386822 0.08763825
000170 aa ab 8d 3d 85 57 5a 3d 9b 1a c2 3c 66 e2 bd 3b
       0.06917508 0.05330612 0.023694327 0.005794811
000180 25 ec 37 3c 08 90 58 3d 41 cf ef 3d 3b 10 af ba
       0.011225735 0.052871734 0.117094524 -0.0013356277
000190 2c 0a 97 3d 6c 68 ae 3d 16 8a ce 3d 72 a8 b4 3d
       0.07374987 0.08516011 0.100849316 0.08821191
0001a0 b6 60 33 3d f9 99 08 3d 09 13 53 3c 1f ed 50 3d
       0.043793403 0.033349965 0.012882956 0.051007386
0001b0 db 2b db 3d 76 9e ab 3d f5 b8 84 bd f3 c9 b0 3d
       0.10701724 0.083798334 -0.0648059 0.08632269
0001c0 08 97 b1 3d 1b 3e 0c bd 96 f1 ad 3c fa c9 97 bc
       0.08671385 -0.034238916 0.021233361 -0.018528927
0001d0 74 8c 8c 3c 0c 02 a5 3d 83 e1 d3 3c 2d 38 8d 3d
       0.017156817 0.08057031 0.025864368 0.0689548
0001e0 fe 3b fd bc a1 e3 e9 ba 42 e2 55 bd 18 16 62 3d
       -0.030912396 -0.0017844328 -0.05221773 0.05519685
0001f0 c4 e5 9f bc 41 3c 7a 3c 53 92 36 bd f9 79 9d 3d
       -0.01951874 0.015273155 -0.04457314 0.0768928

fc2.weight f4 [64, 128]
000000 1f be 49 bc f4 db c3 3c 1b 16 c6 bb 80 3f 8e 3d
       -0.012313395 0.023908593 -0.0060451156 0.069457054
000010 92 c7 32 bd fd 46 a0 3d cd 02 97 3d d2 02 a1 3c
       -0.043647356 0.0782604 0.07373581 0.019654665
000020 bf e8 50 3c 99 8f be 3b 90 92 7e bb f9 6f 18 3c
       0.0127508035 0.005815458 -0.0038844682 0.00930404
000030 72 c3 0d bd 23 49 b4 3d 2b e4 a4 bd 0b 47 36 bb
       -0.03461022 0.08803012 -0.08051332 -0.002781334
000040 8d 4d c9 3c 7b 85 c2 bd 21 b2 e1 3c 8c 2f 98 3b
       0.024573112 -0.09498116 0.027550759 0.00464434
000050 73 80 23 3d 66 a9 be 3b d3 1a cc 3c 78 81 20 3d
       0.03991742 0.0058185337 0.024915135 0.03918597
000060 8d 7a 62 3d 5b c7 3b 3d a0 21 b1 3c 4c ac 62 3d
       0.055292655 0.045844417 0.021622479 0.055340096
000070 c1 65 08 bd 7d 9a 5a 3d 7a 4c 94 3d c5 97 c6 3c
       -0.033300165 0.053369988 0.07241149 0.024242291
000080 15 ce e0 3c 02 66 cb 3c cf 27 99 bb 9c da f8 bd
       0.027442018 0.024828915 -0.004673935 -0.121510714
000090 db 99 db 3c 90 43 0e bd fc 83 38 3d cf 84 81 3c
       0.026806762 -0.0347324 0.045047745 0.015810398
0000a0 10 fd c2 bb cf 38 6b 3d 26 2a 89 3d bc 39 13 bd
       -0.0059505776 0.057427224 0.06697492 -0.03594373
0000b0 a6 07 c3 bd 4e cf 83 3d e5 68 ca 3d 74 74 14 3c
       -0.09522943 0.064360246 0.09883288 0.009060968
0000c0 78 4e 22 3c 58 a3 70 3d 73 07 8e bc 7b 3c c7 bd
       0.009906404 0.058749527 -0.017337536 -0.097283326
0000d0 22 54 4a bc ef ce 86 3c a6 42 3f bd d4 3f d9 3b
       -0.01234916 0.016456096 -0.04669442 0.0066299234
0000e0 98 7c af 3c 3a a4 16 3d 52 86 6e 3c 40 59 01 bd
       0.021421716 0.036777712 0.014558392 -0.031579256
0000f0 1f a4 8a 3d 3e da 7f 3d 40 a6 0b bd 51 42 aa 3b
       0.06769585 0.06246399 -0.034094095 0.005195894
000100 11 a2 89 bd 84 fb f4 3c cf de 8e 3d ed a2 1b bd
       -0.06720365 0.029905088 0.06976091 -0.037997175
000110 d7 2d 18 3d 0f 95 ce bd 0e c7 5d 3d be b7 b9 3c
       0.03715309 -0.100870244 0.05414491 0.022670623
000120 c6 ae 2b bd b3 ed 8e bb 23 b0 b6 bd 47 d8 43 3a
       -0.041914724 -0.004361832 -0.08920314 0.00074708875
000130 4e a6 dd bd ac 49 04 3d c7 62 c0 3c 89 33 ff bd
       -0.10822736 0.03229682 0.0234846 -0.124610014
000140 a2 71 51 bd 86 a7 8d bc 8b 88 73 3d 0a e3 d8 bd
       -0.05113376 -0.017291795 0.05945639 -0.10590179
000150 3f 3d bc bd f1 ef 58 bd f1 18 90 3d 1c e4 83 bc
       -0.09191369 -0.0529632 0.07036007 -0.016099982
000160 dc 3e 3b bd ca 53 41 3c 04 bb 5e bd 6f b5 30 3d
       -0.045714244 0.011799762 -0.05437757 0.04314178
000170 e5 fd 03 bc ae 6b 8d bd 00 af 4c 3d cc 4e 8f bc
       -0.008056139 -0.06905304 0.04997158 -0.017493628
000180 df 08 b4 bc 5a 98 8e ba d3 0b 2c 3c cf 44 f5 3d
       -0.021976886 -0.0010879145 0.010500866 0.11976015
000190 e1 33 e4 bd 35 29 ca b9 79 d3 3c 3d c5 38 43 bc
       -0.111427076 -0.00038559144 0.046100114 -0.01191539
0001a0 99 53 85 3d 18 0c 43 bd e1 3c bb 3d 8e b0 d8 bc
       0.065100856 -0.047618955 0.09142471 -0.026451375
0001b0 68 3f df 3a 39 ab da bd 1f 68 15 bc 5e 81 99 bd
       0.0017032446 -0.106771894 -0.009119063 -0.07495378
0001c0 47 47 0d bd 65 ed 17 bd 95 33 d0 bc 01 d7 a4 bc
       -0.034491803 -0.03709163 -0.025415221 -0.020122053
0001d0 b9 bf a0 3b 64 59 ae bc 71 f7 ab bb 9c b0 49 bc
       0.0049056676 -0.02128286 -0.005248003 -0.012310173
0001e0 bb 5d f2 bc 5b a7 6a 3c 31 84 9c bd d7 e8 9c bd
       -0.02958571 0.014322127 -0.07642401 -0.07661598
0001f0 b4 71 37 bd 3c 9a fe bd 1f 9c ac bd 72 c6 38 bc
       -0.04478617 -0.124317616 -0.08428215 -0.011277782
000200 7e 54 9e bb 9f 92 d9 3c 99 1e ac 3d b2 53 3c 3d
       -0.0048318496 0.026559172 0.084042735 0.045978256
000210 a2 08 86 bd bd 9c 78 3a 75 f5 06 3d 42 fe 41 bd
       -0.06544615 0.0009483805 0.03294893 -0.04736162
000220 b4 e4 26 bd 97 d8 93 bc 95 7b 85 3d 68 e1 19 bd
       -0.040745452 -0.018047614 0.06517712 -0.03756848
000230 8e 25 ab 3c 28 03 17 3c 78 c2 b3 3d d8 7e 42 3d
       0.02089193 0.009217061 0.08777326 0.04748425
000240 20 62 7b bd f5 04 70 bd 29 8a 0f 3d 44 0b 9f 3c
       -0.061372876 -0.058598477 0.03504387 0.019414552
000250 e0 9f 9c 3b 23 a4 0d bd 2d ed ba 3d ae 1d 86 3d
       0.004779801 -0.03458036 0.09127269 0.0654863
000260 15 08 77 3d f7 a2 b8 3d 25 e5 5a 3d 1f be e4 3d
       0.060310442 0.09015458 0.053441186 0.11169075
000270 52 8e 22 bd 0a 46 85 bd 48 e0 5e 3d 27 da 79 bd
       -0.03968651 -0.065074995 0.05441311 -0.060999062
000280 aa 2b ab bd 64 85 99 bd 21 21 85 3d 54 4c d3 bc
       -0.08357938 -0.07496145 0.065004595 -0.025793232
000290 c0 5a 55 3d 2d a6 d0 bc 20 70 f6 3c c4 97 08 3d
       0.0520885 -0.025469864 0.030082762 0.03334786
0002a0 b6 94 96 bb e3 47 0d bb a8 53 a5 bd 06 4f 73 3d
       -0.0045953644 -0.002155774 -0.08072597 0.059401534
0002b0 19 17 0a bd 19 9e 84 bd 94 d6 a7 3c 43 5e 61 bc
       -0.033713434 -0.06475467 0.020488061 -0.013755384
0002c0 e6 b6 15 bc 41 39 c5 bb ad ca 34 bb 69 b2 8c 3d
       -0.009137845 -0.006018788 -0.0027586624 0.068699665
0002d0 73 15 77 3a 73 12 7b bd c8 16 8a 3d a7 d8 57 3d
       0.00094254984 -0.06129689 0.067426264 0.05269685
0002e0 13 80 f3 3c 34 eb 1c bd 93 f9 be bd 04 1c dc 3d
       0.029724156 -0.038310245 -0.09324946 0.10747531
0002f0 be 26 7d bd 7d 49 9f 3d aa 45 3d bd f2 99 1c 3c
       -0.061804526 0.07777689 -0.046209015 0.009558188
000300 1c ce a5 bc 48 19 2d bd 81 bc 80 3d 08 24 c0 3d
       -0.020239882 -0.04226044 0.06285954 0.093818724
000310 43 22 12 3d 71 6c 3e 3d 46 01 49 3d 57 d8 c9 3d
       0.035677206 0.046490137 0.04907348 0.09855717
000320 e4 cd 8b bd 9f a9 b4 3d 74 99 5d 3c 87 94 40 bd
       -0.0682638 0.08821415 0.013525356 -0.047016647
000330 80 d3 ed 3d d1 96 67 bd ad 51 9e 3d c4 7c eb 3d
       0.11612606 -0.056540314 0.07730422 0.114984065
000340 7b 05 2c 3d 99 08 d7 3d 4d bb 60 bd 49 0d 23 b9
       0.041997414 0.10499687 -0.054866124 -0.0001554984
000350 56 4b bf bc 80 25 1d 3c 6b 79 32 bd 53 cf 8d bb
       -0.023351353 0.00959146 -0.043572824 -0.0043276935
000360 7b 33 6f bd 51 b2 0f 3d b8 15 4d 3d 8e 02 69 bd
       -0.058398705 0.035082165 0.05006954 -0.056887202
000370 e7 ea 84 bd 8f 5e ff 3c a3 93 64 3d be 7f 8b 3d
       -0.064901166 0.031173019 0.05580486 0.06811474
000380 5f 99 3d bd 79 6b dc 3c 64 73 8c 3d 55 da af bd
       -0.046288844 0.026906716 0.068579465 -0.085865654
000390 23 ff ad 3d d6 60 e7 3c 36 03 9c ba fe 35 72 3d
       0.08495929 0.028244417 -0.0011902812 0.059133522
0003a0 0f c8 0c bd fa ed cd bb 7d 4c aa 3b 71 99 be 3d
       -0.03437048 -0.0062844725 0.0051971064 0.093066104
0003b0 ab ca fb 3b 81 5a ee 3c d9 5c 47 3d ac bf 21 3a
       0.007684072 0.02909589 0.04867253 0.0006170224
0003c0 f8 e0 2b bd 6d ce 9b bd 2a 17 d6 bc 18 aa a8 3d
       -0.041962594 -0.07607732 -0.026134092 0.08235568
0003d0 57 7b 9b 3d 8d d8 3c bd 8a d0 6d 3d c7 8e 3d bd
       0.075918846 -0.046104956 0.058060206 -0.04627874
0003e0 62 15 00 bd ca 82 cb 3d 6d 43 55 3d 0f a0 c6 3d
       -0.031270392 0.099370554 0.052066255 0.096984975
0003f0 4d c6 13 3d 2a 86 dc bc 32 8a 25 bd 61 5e e6 bb
       0.036077786 -0.026919443 -0.040414996 -0.007030294

fc2.bias f4 [64]
000000 6d 87 6d 3d b1 79 f2 3c 9f 71 07 bc 62 df 8d 3b
       0.05799048 0.029599043 -0.0082668355 0.004329608
000010 a3 e1 d4 3b 09 5c 87 3d 50 be 56 3d 72 61 6b bd
       0.0064966246 0.06609351 0.05242759 -0.057465978
000020 0c 9c 6f 3d 7e a8 fb bc 44 63 41 3d d8 eb 9f 3d
       0.058498427 -0.030719992 0.047213808 0.078086555
000030 1d b5 7f 3d 30 00 0c bd 85 2a 66 3c eb 5b 1c 3d
       0.062428582 -0.034179866 0.014048223 0.038173597
000040 31 8c 66 bd 17 d3 8f bb d8 a9 db 3c d9 f2 35 3d
       -0.05628604 -0.0043891775 0.026814386 0.04442105
000050 56 b8 8c 3c f8 c6 6b 3d 97 8e ed 3c ca d9 85 bc
       0.017177742 0.0575628 0.028998656 -0.016339201
000060 39 6d 1e 3c a9 8d a6 bd 30 82 d2 bb 14 a4 8b 3d
       0.009669595 -0.08132488 -0.006424211 0.06818405
000070 f4 86 a3 bd f4 52 ca 3d b3 79 e9 3c 00 c6 72 bd
       -0.07984725 0.09879103 0.028500414 -0.05927086
000080 55 27 c0 3d b4 c5 a0 3b 57 5c c9 bc 08 04 89 3d
       0.09382502 0.0049063805 -0.024580164 0.06690222
000090 3e f7 80 3c 7c a4 7a 3d 10 2b a5 bd 51 a4 c4 3b
       0.015742894 0.06119202 -0.08064854 0.0060010334
0000a0 4c 8f dd 3c e8 6a 7e bc 29 56 52 bd ac 5a c9 3d
       0.027045868 -0.015528418 -0.0513517 0.098317474
0000b0 bc 03 89 3d d1 76 bb bc b0 27 14 bd 2e 3f db 3c
       0.066901654 -0.022883805 -0.03617066 0.026763525
0000c0 99 7a 91 3c 54 68 cf 3d cd 35 41 bd ae ae b6 3c
       0.017758654 0.10127321 -0.04717045 0.02230009
0000d0 ea a6 84 3d 14 e5 a0 3c 90 2f 50 3d b0 ff a9 bd
       0.06477149 0.019640483 0.05082661 -0.08300722
0000e0 19 8b 93 bd 10 ce bd bb 02 cb 29 3d 45 4b 76 bd
       -0.07204265 -0.005792387 0.04145337 -0.060130376
0000f0 ae 06 0a 3d 22 52 ae 3d e7 ad cf 3d ec 12 5f 3d
       0.033697776 0.08511759 0.10140591 0.054461405

action_head.weight f4 [5, 64]
000000 8c 7d d6 3d 87 d4 77 3c ed 26 b9 bc 6a b4 c9 3c
       0.10473165 0.015126354 -0.02260157 0.024622161
000010 6d 68 da 3d 6e 7d 06 39 a1 26 d7 bd d7 aa 8f 3d
       0.10664449 0.00012825962 -0.10505415 0.07015007
000020 3a 04 c0 3d e9 3c 26 bd b2 ca e6 3d 84 b0 00 be
       0.09375806 -0.040585432 0.1126913 -0.12567335
000030 1b 8e cd bb 6b 0c b0 bd d6 67 66 3d fd 7e af bd
       -0.006273044 -0.085961185 0.05625137 -0.08569143
000040 38 01 14 3d 50 9d 56 3d c1 48 47 3d d0 3f ea 3c
       0.036133975 0.05239612 0.048653368 0.028594881
000050 ce 9b a2 3d ed c8 04 3d c8 86 f1 bc eb ae f6 3d
       0.07939874 0.03241818 -0.029483214 0.12045082
000060 aa a9 63 3d a8 20 b0 bc d4 a8 fb bd a8 91 67 bd
       0.055581726 -0.021499947 -0.12288061 -0.056535393
000070 c1 51 0d 3d e5 f0 ab bd d9 5a 3e bd 04 10 ce 3c
       0.034501795 -0.08395556 -0.046473358 0.025154121
000080 aa 81 44 bd 7a 79 97 3d 87 6a b1 3d 79 7b 95 3d
       -0.04797522 0.07396217 0.086628966 0.07298941
000090 70 68 95 bd c0 53 a3 3d ac a4 25 3d 5e 77 5b 3b
       -0.072953105 0.079749584 0.040440246 0.0033487896
0000a0 7b 2e d2 bd e8 2f 76 3d 0c 8d 3a bb 1b 4f a5 bd
       -0.10262772 0.06010428 -0.0028465418 -0.08071729
0000b0 f3 b3 13 bd 0b aa e2 3d ab 5b 9d bd 92 62 a8 3d
       -0.036060285 0.11067589 -0.076835 0.08221926
0000c0 df 73 bb bd d2 7d 82 bd 44 05 20 bd 4a 1a d8 bd
       -0.0915296 -0.063716546 -0.03906752 -0.10551889
0000d0 2b 7a c3 3c 74 69 46 bc 4c 97 dd bd 72 b2 14 3d
       0.023861965 -0.012110103 -0.10819873 0.03630299
0000e0 6f 2a 44 bd 56 af 9e bd fa a1 ad bc 0b 19 d5 3d
       -0.04789203 -0.077482864 -0.0211954 0.10405167
0000f0 db 02 29 3c 51 1f ac 3d e7 ba af 3c 01 8e 70 bc
       0.010315622 0.08404411 0.021451427 -0.014682294
000100 4b c3 aa bd 96 fe 26 bd a8 6e c2 3c bd 53 4d bc
       -0.083380304 -0.040770136 0.023734406 -0.012532172
000110 6f ed 21 3d 0c 74 53 3c 9a 1e 29 bd 49 26 ef bd
       0.039533075 0.012906086 -0.04128895 -0.11677224
000120 f5 e2 52 bb 43 de 94 3d e2 ed 9e bd 49 3e cb bd
       -0.0032178734 0.072689556 -0.07760216 -0.09923989
000130 43 7e 69 bd fe 5a db 3d 5e c9 e8 3d 5d 4d 3e bd
       -0.05700518 0.10710715 0.11366533 -0.046460498
000140 e0 41 8d 3d bc e5 2f 3c 3a 09 12 bd d8 34 21 bd
       0.0689733 0.010735925 -0.03565333 -0.039357036
000150 f5 93 97 bd 1d 48 5e bd b4 d1 cc 3d 70 fd a7 bb
       -0.074012674 -0.05426799 0.10000935 -0.0051266477
000160 94 2c 87 bc da 29 b8 3d 1f ac 7f 3d 96 d9 dc bd
       -0.016500749 0.089923576 0.062420007 -0.10783689
000170 bb e7 33 3d d1 86 be bc a4 32 50 bd 20 84 bd 3d
       0.043922167 -0.023257645 -0.050829545 0.092537165
000180 38 22 83 bd 1b 7e ed 3d ed 8b 33 3d 61 e5 2f bd
       -0.06403011 0.11596318 0.043834615 -0.042943362
000190 b7 0a 2f bd b8 eb c1 3d 26 77 b2 3d 8c 2e 6a bd
       -0.042734828 0.09468788 0.08714132 -0.057173297
0001a0 13 76 62 3d 60 8a 5b 3d 5e 5d cb 3d 6a 51 33 bc
       0.055288386 0.05359876 0.09929918 -0.010944704
0001b0 e6 68 24 bd 4e de 8f 3d b9 97 88 bd ba d1 7e 3d
       -0.0401391 0.07024823 -0.06669564 0.06221173
0001c0 d0 14 4a 3d 35 88 a8 3d 56 40 fb 3d 05 dc fa 3d
       0.049336255 0.082291044 0.122681305 0.12248997
0001d0 c7 88 f7 3d a6 73 98 3d f6 61 68 3d be 55 d2 bd
       0.12086635 0.07443933 0.056734048 -0.1027026
0001e0 13 9d 4e 3c 48 47 a3 3d 76 b9 4c 3d fe c1 af 3d
       0.012610692 0.0797258 0.049981557 0.08581923
0001f0 6f fe a0 bd 06 66 25 bd a2 f2 39 3d 73 87 0a 3e
       -0.07861029 -0.0403805 0.04539741 0.13528232
000200 38 8c 05 bd 03 03 58 3c e5 f3 8e 3d 99 d4 b3 bd
       -0.032604426 0.013184312 0.06980113 -0.08780784
000210 f1 48 fa bd e8 e9 4f 3d 9f 27 8c 3c 50 71 c9 bd
       -0.12220944 0.05076018 0.017108737 -0.09836066
000220 e3 23 3d bc d4 f0 6b 3d 7d 9f 67 3c 33 ad 34 bd
       -0.011544201 0.05760272 0.014137146 -0.04411049
000230 db 87 3b bd 45 57 a4 3d 85 41 d6 3d 3a de 2d bd
       -0.04578386 0.08024458 0.104617156 -0.04244826
000240 c2 83 f3 bd f9 a8 b5 3d b3 0c 41 3d ad a7 b8 bd
       -0.11890365 0.088701196 0.04713125 -0.090163566
000250 4e 5b 85 bd 74 a3 10 3d 7c d4 bf 3d 1b e7 3e bd
       -0.065115556 0.03531213 0.093667 -0.046607118
000260 f6 75 0c be e0 20 76 bc 8b e8 24 3d 6c 5a b4 bd
       -0.13716874 -0.015022486 0.040260833 -0.08806309
000270 64 ef a4 3d 70 5b cb bc e9 0e 63 bd 03 b6 e3 bd
       0.08053473 -0.024823874 -0.05543414 -0.111187
000280 95 fc 0e be b4 5b ba 3d 7e 08 d9 3d 1c 9a a7 bd
       -0.1396354 0.09099522 0.10597323 -0.08183691
000290 4e e7 01 be 90 a3 0c be 2c 52 08 bd 4a c7 b1 3d
       -0.12685892 -0.13734269 -0.03328149 0.086805895
0002a0 c3 55 72 bd 6e 0b 8d 3d 6e 2f 95 bc e9 21 18 bc
       -0.05916382 0.06886946 -0.018211093 -0.009285429
0002b0 7a 90 c0 bb f5 d3 59 3c 4c ed dc bd b9 b2 b4 3d
       -0.005876598 0.013295163 -0.10787448 0.08823151
0002c0 ea d9 99 bc d1 7d 9a 3b 20 81 b5 bd 5a b2 f2 bc
       -0.018780667 0.0047147055 -0.08862519 -0.02962606
0002d0 74 8c 62 bc 3d 2f 92 bd 01 61 00 3d 61 40 6e 3d
       -0.013827432 -0.07137916 0.03134251 0.058166865
0002e0 80 3d 3e 3d 5b 76 3c 3c 99 20 ad bb 31 16 22 3b
       0.04644537 0.0115028275 -0.005283427 0.0024732465
0002f0 26 a8 8b bd 67 e8 51 3d 36 42 57 bd db 12 2b 3d
       -0.06819181 0.051247027 -0.052553378 0.04176603
000300 b6 d4 2c bd f8 56 01 3e 42 52 f3 bd 84 b0 70 bd
       -0.042195044 0.12630832 -0.11880924 -0.05876209
000310 b6 56 ec 3d 68 0b 66 bd 7c e5 dd 3d e3 15 ad 3c
       0.11539976 -0.05616322 0.10834786 0.0211286
000320 02 9d f0 bd 46 9a 3f bc ef bd 77 bd 84 20 96 3d
       -0.11748697 -0.0116944965 -0.06048387 0.073304206
000330 c8 13 8b 3d 5a 6e 09 3e 5a 57 5f 3d 75 58 b2 3d
       0.06790882 0.13421002 0.054526664 0.08708278
000340 88 85 3a bd 6f 3c 9e bc cd d5 2f bd 38 9f 61 3c
       -0.0455375 -0.019315926 -0.042928506 0.013770871
000350 b9 8a da 3d 54 8b 80 3b cb 78 51 3d ec e4 c6 bd
       0.106709905 0.003922859 0.051140588 -0.09711632
000360 89 b5 a1 3d 6e d9 eb bd f3 75 88 3d 7d ec b9 bd
       0.07895953 -0.11516081 0.06663122 -0.0907831
000370 c1 1d 9c bd 1e 8a 9b bd c0 70 82 bd 0b f6 26 bd
       -0.076228626 -0.07594703 -0.063691616 -0.04076199
000380 9d d7 a2 bd bd cd 26 3c 01 82 44 3d b3 01 93 3c
       -0.07951281 0.010180888 0.047975544 0.017945146
000390 55 44 d3 bc 1a 73 98 3d 4c c5 ea 3d 8b 3d af bd
       -0.02578942 0.07443829 0.11463413 -0.0855666
0003a0 c4 a7 87 bd c3 33 f1 bd 3e 1a ae 3b 9c 2d 5b 3c
       -0.06623796 -0.11777451 0.005313187 0.013377573
0003b0 10 d9 95 bd c2 44 f8 3d fe 57 23 3d 3d 62 c1 3d
       -0.07316792 0.121224895 0.039878838 0.094425656
0003c0 2e 58 28 bd 51 a0 5f bd 36 2e fe ba ac 28 ba bd
       -0.04109972 -0.05459625 -0.0019392434 -0.09089789
0003d0 24 2c 88 3d 72 9b d8 bd 70 8e 28 bd 32 1e 25 3d
       0.06649044 -0.10576524 -0.041151464 0.040312
0003e0 46 50 93 bd cd 75 df bd 9f 5f 04 3d 08 0a de bd
       -0.07193045 -0.109111406 0.032317754 -0.10841757
0003f0 e3 48 73 3d 1c 6f c3 bc 08 ea 3b 3d dc 2f 9c 3c
       0.059395682 -0.023856692 0.045877486 0.01906579

action_head.bias f4 [5]
000000 74 9a f5 3c 88 4b 7e 3b 05 41 bf bc b2 db cd 3d
       0.029980876 0.0038802344 -0.023346433 0.10051669
000010 89 26 1b 3d
       0.037878547

value_head.weight f4 [1, 64]
000000 9d 01 bb bd d4 dc e0 3d 89 fc c0 3d c0 b2 c7 3d
       -0.09131167 0.109796196 0.09423167 0.09750891
000010 be c5 1d 3e 57 0b 15 be 22 98 26 3e fc c6 e6 3d
       0.15407464 -0.14555107 0.16268972 0.11268422
000020 f3 be ad 3b ca 10 ef 3d e9 95 9c bc 99 21 ef 3d
       0.005302304 0.11673124 -0.019114451 0.1167633
000030 bc 18 2d 3e ec 06 22 be 4c e2 2a be 3d 46 b5 3d
       0.16903967 -0.15822953 -0.16687888 0.088512875
000040 c0 d4 03 3d c6 89 3b be 49 81 87 bd 4e 0c 98 3d
       0.032185316 -0.18314275 -0.06616456 0.07424222
000050 a4 14 e9 3d 3f 28 36 3d 19 97 94 bd fb 0b 83 bd
       0.1138089 0.044471975 -0.07255382 -0.063987695
000060 4b 91 35 bd 80 22 c3 3a b2 f1 90 3a d9 52 04 3e
       -0.044328015 0.0014887601 0.0011058359 0.12922229
000070 b3 4f 46 bd 5c 5e 2d be c4 f1 d9 bd 2d 3a e4 3d
       -0.04841585 -0.16930526 -0.10641816 0.11143909
000080 c9 a4 20 be 5f eb 10 be 3f 48 08 be 04 c5 c2 3d
       -0.1568786 -0.14152287 -0.1330881 0.09510234
000090 b1 3e 42 bd a0 d3 08 3e 20 dc c5 3d 36 cb 6e bd
       -0.04742307 0.13361979 0.09661126 -0.058299266
0000a0 f8 af b7 bd 96 2e d1 3d b6 de db 3d 41 10 c7 bd
       -0.0896911 0.10213964 0.10735838 -0.09719897
0000b0 41 d3 88 bd 27 7d db 3d da 70 5b 3d 62 3e 14 3e
       -0.066809185 0.1071723 0.05357442 0.14476922
0000c0 22 47 1c 3d 66 b3 3f be 92 25 26 3e 6b 1f eb bd
       0.038153775 -0.18720779 0.1622527 -0.11480602
0000d0 1f d3 0d be 3e d1 14 3e 3d a8 12 3e 7f a5 0d 3d
       -0.13850068 0.14532945 0.1432199 0.034581657
0000e0 46 3c a7 3d 1c de df bd c2 ef 25 be 24 82 2b bd
       0.08165793 -0.10931036 -0.16204742 -0.04187216
0000f0 d7 dd af bd 88 a1 fd bd 05 d1 04 be 7a a2 33 be
       -0.085872345 -0.12384325 -0.1297036 -0.17542449

fc1.weight f4 [128, 147]
000000 3b e5 ed 3c 5f 56 57 3d ac f2 ca 3c 64 70 ea 3c
       0.02903997 0.052572604 0.024773918 0.028618045
000010 ed f2 bb 3d 6b 83 83 3d 12 35 39 bd e0 ec df 3d
       0.09177194 0.0642155 -0.045216627 0.10933852
000020 53 d1 4a 3d c6 cf 83 3c 0f 12 85 bc 81 3d 62 bd
       0.049516033 0.016090285 -0.016243963 -0.055234436
000030 d2 10 59 bd e2 7c 8f bd 03 09 82 3d b1 4a f6 bc
       -0.052994557 -0.070062414 0.06349375 -0.030064913
000040 12 96 4e bd f3 88 66 3d ae de 9f 3c 52 ac b4 3d
       -0.050436087 0.05628295 0.019515362 0.0882193
000050 fb 77 90 3d 7c 31 0b 3d 20 86 f9 3a 71 49 47 bc
       0.070541345 0.03398274 0.0019037165 -0.012163506
000060 12 2f 9d bd b7 1f b4 3c 59 c6 8f 3d 25 34 f4 bb
       -0.076749936 0.021987779 0.07020254 -0.007452505
000070 f8 47 1d bd a5 ed 8a 3d 82 37 b3 3c d3 62 48 3d
       -0.038398713 0.06783608 0.021877054 0.04892237
000080 4c f2 8f 3d 5d cc 7a 3b 98 7f 2e 3c 93 d3 b5 3d
       0.07028636 0.0038268783 0.010650538 0.08878245
000090 b1 de b1 bc 81 c8 d9 3d 96 d3 a0 3d 6e 69 5e bd
       -0.021712633 0.10633946 0.07852857 -0.054299764
0000a0 82 ae 90 3c a4 76 41 3c 2b 0d 03 bc fc 8a 6b bc
       0.017661337 0.011808071 -0.007998745 -0.014376398
0000b0 4e 1c e3 3c 47 3e e2 3c 15 a0 b1 3d 21 a5 18 bd
       0.027723458 0.027617587 0.08673111 -0.037266854
0000c0 94 64 4b bd 87 1c 4e 3d 3b 1f 95 3d d0 34 cc bd
       -0.049656466 0.050320175 0.07281347 -0.09971011
0000d0 d2 90 aa 3d 15 d0 8e 3d 54 d2 02 bd a7 53 dc 3c
       0.083284035 0.06973282 -0.031938866 0.026895357
0000e0 32 27 47 3c a4 fd 5a 3d 84 15 f3 3c 0c 96 73 bd
       0.012155341 0.053464547 0.029673345 -0.059469268
0000f0 6f 07 48 3c fc 84 38 3d 36 c4 f0 bb e9 36 44 3d
       0.012208804 0.0450487 -0.007347609 0.04790393
000100 4b da 83 3d 52 18 de 3c f4 13 9e bd 6b 27 3e 3c
       0.064381205 0.027111206 -0.077186495 0.011606078
000110 7d bf 44 3c 84 bc 01 bb 0a 98 e4 bc ce a1 43 3d
       0.012008545 -0.0019796202 -0.02790453 0.04776173
000120 3a b1 96 bb 58 73 2a 3d 07 2a 68 bd 3f 65 34 bd
       -0.004598764 0.041613907 -0.056680705 -0.04404187
000130 8e b8 a2 bc cc 3a 7e bb 6e 30 d6 3c 59 d3 21 3d
       -0.019863393 -0.003879237 0.02614614 0.039508197
000140 5b d6 40 3c 53 79 9b bc 54 e9 b3 3d 13 9c 03 3d
       0.011769856 -0.01897875 0.08784738 0.032131266
000150 98 9c 48 bd b4 d7 b5 bc e9 b3 ac 3d 46 0a 79 bd
       -0.048977464 -0.022197582 0.08432753 -0.060800813
000160 c8 7b a4 3d b0 87 cb 3d cd f1 d0 3b cc 3b b8 3c
       0.08031422 0.0993799 0.006376481 0.02248945
000170 ea e1 c3 3d 5b 84 74 bd dd e7 81 3d 07 e1 05 3c
       0.09564574 -0.059696537 0.063430525 0.0081713265
000180 17 35 9f bd 78 25 89 3c b9 29 b1 3c 24 bd 05 3d
       -0.07773798 0.0167415 0.02162634 0.03265108
000190 bc 15 d8 bc c8 3e 55 3c 3a db b2 3c 0a 2b 94 3d
       -0.026377551 0.0130154565 0.021833051 0.072347715
0001a0 be c4 09 3c 42 75 a4 3c 67 a4 c3 3d c3 86 4a 3c
       0.008408723 0.020075444 0.09552842 0.012361231
0001b0 2c 94 9e bd 71 57 9b 3d 6e bd 0e ba b3 96 ee 3c
       -0.07743105 0.075850375 -0.00054450973 0.029124593
0001c0 1a d4 94 3d 32 62 88 3c b2 c1 63 bc 18 95 0c 3d
       0.07267018 0.016648386 -0.013901161 0.034321874
0001d0 37 c9 b6 ba 22 7c 90 3c cb 54 b8 bc 8b 74 25 bc
       -0.0013945465 0.017637316 -0.02250137 -0.010098587
0001e0 57 a2 99 bd 47 28 00 bd 70 5c cc 3b f8 1d 37 bd
       -0.07501667 -0.03128841 0.0062366053 -0.044706315
0001f0 c7 e1 0f 3d 34 d4 f8 3c 77 ea 59 3d dc 9b 11 bd
       0.035127427 0.030374624 0.05320212 -0.03554903
000200 5a 0f 88 3b 7b 58 55 bd 36 0a ff 3c 10 5e 2b bd
       0.0041522207 -0.052086335 0.031132799 -0.041837752
000210 d5 21 69 3c 20 35 84 3d 99 c9 3c bd 15 85 34 3d
       0.014229258 0.06455445 -0.046090696 0.04407223
000220 21 4b b6 3d 4c cf c0 3d 1f 34 3e bc 15 22 2d bd
       0.089010485 0.09414539 -0.011609106 -0.04226883
000230 69 86 8a 3d eb fc ce bc f6 1d e6 3a 4a 9d 3e 3d
       0.06763918 -0.025267085 0.0017556536 0.04653672
000240 d1 ea 67 bd 68 75 6a bd 6e 16 2d bd b4 0a 2e 3d
       -0.056620423 -0.057240874 -0.04225772 0.042490676
000250 6d 9f 34 3c 75 dc 2e bd 2e b8 b5 bc b6 7f 00 3d
       0.011024338 -0.042690713 -0.02218255 0.031371795
000260 2d 52 46 3d 23 5c 14 3c 26 14 72 bc 1e 69 73 3d
       0.048418213 0.00905517 -0.014775312 0.05942642
000270 dd f4 3a 3d 92 7c 16 bd e3 f1 50 bd a5 9e 6f bc
       0.045643676 -0.036739893 -0.05101193 -0.014625226
000280 1c e5 87 3c e0 aa 14 bd c7 09 7b ba 0b 37 8e bd
       0.01658874 -0.03629577 -0.0009576347 -0.06944092
000290 bf 76 8f bb 21 aa 84 3d 1e 65 99 bc 45 30 6d bd
       -0.0043781693 0.06477762 -0.018724974 -0.05790736
0002a0 0a fd a7 3d 3c 2f 2a 3d 4f bd 9b bd c0 73 27 3c
       0.0820256 0.041548952 -0.07604467 0.010220468
0002b0 40 47 2a 3d d3 a7 cb 3b 5a ce 9e bd 1f 4d 02 3d
       0.041571856 0.0062150746 -0.07754202 0.03181183
0002c0 b9 6e cb bd 1d a8 a6 bd 24 42 98 bd 01 3b 21 bd
       -0.09933228 -0.08137534 -0.0743449 -0.03936291
0002d0 a0 ac c5 bb 09 ef 92 3c 0d ea 4f 3d 4d bd da bc
       -0.0060325414 0.017936246 0.050760318 -0.026701594
0002e0 8c 77 0a 3c 6e 6a b1 3c cb 05 8a bd 39 47 c8 bc
       0.008451354 0.021657195 -0.06739386 -0.024448024
0002f0 3c 82 47 3d aa 90 78 bd d8 72 9b bd a7 f0 04 bd
       0.048708186 -0.060684837 -0.07590264 -0.032456066
000300 62 3d de 3d 81 4a 70 3c 57 d2 f4 3c cb 5b c9 3d
       0.108515516 0.014666201 0.029885454 0.09831961
000310 3e 0f e5 bc 61 6c 81 3d af 3c 8d 3d 59 47 8d bd
       -0.02796137 0.063195 0.0689634 -0.06898374
000320 d5 58 af 3d 70 2d 3c bd 72 2a 77 3c ff 67 69 3d
       0.08561865 -0.04594177 0.015085803 0.056983944
000330 21 cd 35 bc a9 bc 91 3a a9 80 8e bd 79 f9 54 3c
       -0.01109627 0.0011118847 -0.06958134 0.012998932
000340 65 f9 e7 3b 00 57 09 bd a6 9d 7e bd 3c b0 27 3b
       0.0070792907 -0.033530235 -0.062162064 0.0025587222
000350 43 11 81 3c 99 8d 1d bd 64 9d 99 bc a0 e2 d6 bc
       0.015755301 -0.038465116 -0.018751808 -0.02623111
000360 35 09 ae bd ca 26 1d 3d df f7 87 bd 10 19 c7 bc
       -0.0849785 0.03836707 -0.066390745 -0.024303943
000370 0b 27 0a bd f0 40 45 3d 9a d5 9e 3c 0e d5 76 3c
       -0.03372864 0.048157632 0.019388963 0.015065445
000380 52 92 c0 ba 1e 6e ce 3c 60 a4 c1 bb 26 86 63 bd
       -0.0014692044 0.025198992 -0.0059094876 -0.055547856
000390 34 3c da 3b 59 23 0e 3d 39 03 d9 bc cf a9 9d 3d
       0.006660009 0.03470168 -0.026490794 0.07698404
0003a0 ac 72 53 3d d5 01 92 bd 44 15 b1 3d c0 3b 9a bd
       0.05162303 -0.07129256 0.08646634 -0.07530928
0003b0 4f c8 b9 bd 11 9f 9f 3d 37 1c 8c bd 3b e2 6a 3b
       -0.09071409 0.077940114 -0.06841319 0.003584041
0003c0 12 58 3e 3d ac 3e 07 bd 01 a1 3a 3c 84 af f2 3c
       0.04647071 -0.033018753 0.011390925 0.029624708
0003d0 d9 91 8b bd 5f 94 71 3d 1b 78 ae 3c 06 89 73 3d
       -0.068149276 0.05897939 0.021297505 0.059456848
0003e0 2f 45 36 bd c3 c1 14 bd d0 54 1a 3d 36 80 17 bd
       -0.044499572 -0.036317598 0.03767854 -0.036987506
0003f0 07 4f 41 bd e5 bb 19 3c 6e b8 1e ba 77 34 32 3c
       -0.047194507 0.009383176 -0.0006054704 0.010876766

fc1.bias f4 [128]
000000 62 75 62 3d ac 6b dc 3b a9 70 42 bd 89 20 85 bd
       0.055287726 0.0067267027 -0.047470722 -0.06500346
000010 17 dc 46 3d 6e 2f 0e 3d 07 93 41 bd c9 36 99 3d
       0.048549738 0.0347132 -0.047259357 0.074811526
000020 3a e7 31 bd da 53 b2 3c 84 b7 90 3d 02 c4 d4 bc
       -0.043433405 0.0217685 0.07066253 -0.02597237
000030 5d 14 77 3c d6 6a b7 bc cc 05 5f bc aa 1d 74 bd
       0.015080539 -0.02238981 -0.013612222 -0.059598602
000040 98 c7 a2 3d d6 92 9d 3d 09 bc 86 bd 01 a2 c2 3d
       0.07948226 0.07694022 -0.065788336 0.09503556
000050 83 16 ef 3d d4 76 6d bd 50 49 2f bd 0f 0b 7a bd
       0.11674216 -0.05797465 -0.042794526 -0.061045703
000060 24 72 a7 3c 56 82 b6 3d 99 4c de 3d 0e 82 80 3d
       0.020440169 0.08911578 0.108544536 0.06274806
000070 56 7f 51 bc 78 85 89 bc 7e d9 95 3d d4 06 53 bd
       -0.012786707 -0.016787276 0.07316874 -0.051520184
000080 94 54 4e bd 4d 43 6c 3d 97 fc 01 bd c9 3c 11 3d
       -0.05037363 0.05768137 -0.03173503 0.03545836
000090 d0 40 5f 3d 4f 11 32 bd 81 c3 01 bc 17 0f 46 bc
       0.05450517 -0.043473538 -0.007920147 -0.012088559
0000a0 e5 f5 47 3d 4e 85 9e 3d 1e ab 4c 3d df 3f e9 bc
       0.048818488 0.077402696 0.049967878 -0.028472839
0000b0 24 3e c7 37 36 6c 67 3c a2 bc f6 3c a6 c1 c7 3d
       2.3751585e-05 0.014124921 0.030119244 0.097537324
0000c0 b6 cb c3 3c aa 28 66 3d 4b 68 5c 3d 4f 3c c1 3d
       0.023900848 0.056191124 0.0538104 0.09435331
0000d0 36 6c c5 3d 69 47 1e bd b3 24 94 3c 04 d1 63 3d
       0.0963978 -0.03864232 0.018083906 0.055619255
0000e0 fe 7b d8 3b f7 d9 8b bd 93 1a 97 bc 76 c6 92 3c
       0.006606578 -0.06828683 -0.018445289 0.0179169
0000f0 9e d2 9b 3c c3 a1 01 3d ca 35 3b 3c b4 9f 72 3d
       0.019021329 0.03164841 0.0114263985 0.059234336
000100 a5 e8 9c 3d 84 e9 8b 3d 01 f6 a1 3d 83 ff 1d bc
       0.07661561 0.06831649 0.0790825 -0.009643438
000110 e4 94 a9 bc 7e 68 e7 ba 29 87 36 3d bb b4 54 3c
       -0.02070088 -0.0017655042 0.044562493 0.012982543
000120 10 1d 28 bd f7 f0 ba bc cb cb 42 ba f2 e9 3b bd
       -0.04104334 -0.02281998 -0.000743088 -0.045877405
000130 18 a1 a2 bc 7f 56 71 3d 8d b8 bf bc 4c 6e 17 3d
       -0.019852206 0.05892038 -0.02340343 0.03697042
000140 3b fa d6 3d 28 5d 40 3c 1c e5 11 3d b2 73 41 bd
       0.104969464 0.01174096 0.035618886 -0.047229476
000150 4f 13 88 3d 1f 9e 81 3d ae 36 cc bc 28 a7 b2 3c
       0.06644308 0.06328987 -0.024928417 0.021808222
000160 de d4 9e 3d c1 5d db 3d 5c 42 51 bd 6c 86 56 bc
       0.07755445 0.107112415 -0.051088676 -0.013093572
000170 86 b5 26 bb 20 2e 3f 3b a4 b3 96 3d d6 a0 e3 bc
       -0.0025437786 0.002917178 0.073584825 -0.027786653
000180 39 3b fd 3b 9c ea 5b bc 01 f7 05 3d f3 8f 01 3d
       0.007728007 -0.013422634 0.032706264 0.03163142
000190 19 16 8f 3d 5e d0 c5 3d e2 8c db 3c 53 bf 8d 3d
       0.06986637 0.096588835 0.026800577 0.06921258
0001a0 66 3b ba 3d ac 61 cd 3d 1c 44 01 bd 85 a4 9a 3d
       0.090933606 0.10028395 -0.031559095 0.07550911
0001b0 e0 bf 81 3d e8 5e 8e bc 87 a0 83 3d 51 ab 32 bd
       0.063354254 -0.01737924 0.064271025 -0.04362041
0001c0 20 0d 70 bc 12 c6 e7 3b 5d ac 83 3d 43 ac 90 bc
       -0.014651567 0.0070731724 0.0642936 -0.017660266
0001d0 e9 56 71 3d 93 8e be 3c 8f 89 cd 3d e4 ee 74 3d
       0.058920775 0.023261344 0.10036003 0.059798136
0001e0 0a 4f 0f bd 10 5c 96 3d e5 2d 99 3b dd be 83 3c
       -0.034987487 0.07341778 0.0046746605 0.016082222
0001f0 dc 64 6f bd 9f cc 8d 3d 12 e5 8d 3d 12 72 90 3d
       -0.058445796 0.06923794 0.06928457 0.07053007

fc2.weight f4 [64, 128]
000000 5b f2 b1 3d f8 34 d1 bc 61 7e 0a bd 52 d8 68 3d
       0.08688804 -0.025537953 -0.03381193 0.056846924
000010 ae b5 0b bd 98 b7 a2 bc 42 7a a5 bd 26 9a 4d 3d
       -0.03410881 -0.019862935 -0.080799595 0.050195836
000020 70 1f ba 3b d0 bd ba bb ee 0e 5c 3d b2 90 b0 bd
       0.005680017 -0.005698897 0.053725176 -0.086213484
000030 c4 64 e2 bc aa 9d 51 3d 24 f5 8f bc 5a ef 2f 3d
       -0.02763594 0.05117575 -0.017572947 0.042952873
000040 3e 2c 5a bd f0 ac db 3b 90 45 b5 3c 6f 5f 2f bd
       -0.05326485 0.0067039654 0.022127897 -0.042815622
000050 96 66 aa bd d2 40 58 3d 0c be dd bc 31 a3 97 3d
       -0.08320348 0.052796192 -0.02706816 0.07404173
000060 0e fc b3 bd cf 19 26 bd 72 37 1b 3d 64 46 88 bd
       -0.0878831 -0.040551957 0.037894674 -0.06654051
000070 80 79 74 3c 39 be 39 bd d8 ef 77 bc d8 f3 31 bc
       0.014921546 -0.045347426 -0.015132867 -0.01086136
000080 6d 74 44 bd 90 a6 a9 3b 5c 34 b2 bd 97 9a 2b bd
       -0.047962595 0.0051773265 -0.08701393 -0.041895475
000090 00 e2 c9 ba ad 72 b1 3d a2 2d 42 3d e0 c1 0e bb
       -0.0015402436 0.08664451 0.0474068 -0.002178304
0000a0 92 34 9b bd 8f 11 58 bd 8d 86 89 3d 3e 22 4e 3d
       -0.07578386 -0.05275112 0.06715117 0.050325625
0000b0 30 ae 63 3c b0 c0 bf 3b d7 d7 91 bd 52 57 7e bd
       0.01389651 0.0058518276 -0.07121246 -0.062094994
0000c0 e4 c4 8e bd cd 67 82 3d d7 96 a5 bd cd 71 a1 bd
       -0.06971148 0.06367455 -0.08085411 -0.07883034
0000d0 ee 84 68 3d 58 58 d1 bc bb 24 82 3d 38 2a a6 bc
       0.056767397 -0.02555482 0.06354662 -0.020283803
0000e0 30 53 97 bb 28 ef 7a bc 52 e2 02 3d 1d f4 83 3d
       -0.004618071 -0.015315808 0.031954117 0.06443045
0000f0 9b d0 20 bd 52 b1 dc bc ab 1a a9 3d 84 de d4 3c
       -0.03926144 -0.026940022 0.0825704 0.02598501
000100 b0 a6 16 bd c8 fe 83 bc b8 80 be bc 36 7d 57 3d
       -0.03678006 -0.0161127 -0.023254737 0.052609645
000110 f6 de ab bd bc c3 8d bd 00 6a 9e bd 92 66 1c 3d
       -0.08392136 -0.06922099 -0.07735062 0.038183756
000120 fe b9 95 bd 80 5d b8 3c 39 fe 9b 3d c7 da 96 3d
       -0.07310866 0.022505522 0.076168485 0.07365947
000130 7a 10 6d bd 1e 8b 87 bd e3 27 5f bd d4 cd d0 3c
       -0.05787704 -0.066183314 -0.0544814 0.025488771
000140 f9 28 91 3d cf e7 b0 bd bf 87 5a bd 8d 8b 99 bd
       0.07087893 -0.08637964 -0.053352114 -0.0749732
000150 a5 d9 8f bd 02 d0 6d 3d 68 ab 5b 3c 96 66 47 3d
       -0.07023934 0.0580597 0.013407566 0.048681818
000160 f6 79 96 bd cd b4 86 bd f1 e2 ae bd a0 94 f0 3c
       -0.07347481 -0.06577454 -0.085393794 0.029367745
000170 ca 27 7f 3d 30 41 87 bc 0d 5f 24 bd 20 b9 a1 bc
       0.062293805 -0.016510576 -0.04012971 -0.019741595
000180 8a db 7e 3d 43 c3 ab bd 49 6e 1a bd 73 8c 88 3d
       0.062221088 -0.083868526 -0.037702832 0.066674136
000190 b1 b3 57 bd fc cd fe 3c 0e e2 7e bd 58 67 f0 3c
       -0.0526616 0.03110408 -0.0622273 0.029346153
0001a0 cb d6 94 3d 62 c4 63 3d 7c ed 60 bd 56 19 4b 3d
       0.07267531 0.055607207 -0.054913983 0.04958471
0001b0 20 e4 46 bb e6 03 83 bd 60 1b 7c bb 16 56 64 3d
       -0.0030348375 -0.06397228 -0.0038468465 0.05574616
0001c0 48 d9 7f 3c d0 dc c7 bc 38 3a 24 3c 58 49 7a 3c
       0.015615769 -0.024397284 0.010023646 0.015276276
0001d0 ce d0 1c bd c6 4e 45 3d 74 ad 84 bc 83 a8 85 3d
       -0.03828507 0.048170827 -0.01619599 0.06526282
0001e0 ce 1e 56 3d d9 8a ae 3d 06 a5 62 3d 66 40 91 bd
       0.05227547 0.08522577 0.05533316 -0.07092361
0001f0 08 f8 85 bc 92 64 31 3d c8 b1 1f bc f0 8e f6 bb
       -0.016353622 0.043308802 -0.009746976 -0.0075243637
000200 6b 1e a6 3d fd 96 ad bb 6e 0c ca 3d 59 c7 85 3d
       0.081112705 -0.00529754 0.09865652 0.06532163
000210 b1 d2 89 3d db 7b 9f 3c c8 29 a4 3d 2e 93 e6 bd
       0.06729639 0.019468239 0.08015782 -0.11258541
000220 e8 2e 3a 3d d6 65 5f bd 2b 0c 57 bd bc 3e 9f bc
       0.04545489 -0.054540478 -0.05250184 -0.019439094
000230 49 27 4c bd 3d 9b 3d 39 33 fd 5c bc 4e 09 0d 3d
       -0.049842153 0.00018082275 -0.013488102 0.0344327
000240 bf ed c8 bd ea 65 6b bd a2 ad 2d 3d 2b ec e2 bc
       -0.098109715 -0.05747024 0.042401917 -0.027700504
000250 90 37 4d 3c a2 ca 8c bd 2c a7 c3 3c f1 8e 34 bd
       0.012525454 -0.06874587 0.023883425 -0.044081632
000260 51 65 78 3d 4f c1 cc 3c 4e 84 cc bd 55 42 99 bd
       0.060643498 0.02499452 -0.099861726 -0.07483355
000270 c9 ce b4 3d d8 41 ee 3d c1 aa 89 3d 6f ee 87 bd
       0.08828504 0.116336524 0.06722022 -0.066372745
000280 c5 d1 e7 3c 62 2c 91 bd f3 16 ee 3d d4 27 ab bd
       0.028298268 -0.070885435 0.11625471 -0.08357206
000290 87 00 9e 3d e8 3d 15 bc 55 54 8f bc 44 c3 9d 3d
       0.07714944 -0.009108998 -0.017496267 0.077032596
0002a0 f2 bd 30 bd 00 d5 c7 bd 74 0a 2c 3c 48 0f 81 3d
       -0.043149896 -0.097574234 0.010500539 0.06301743
0002b0 ba 3c 87 3c 35 3b b6 bc 8c f1 0e 3d cb 4b 1c 3d
       0.016508449 -0.022245029 0.034898326 0.03815822
0002c0 b4 c4 dd 3d e9 c4 a7 3d ef cc 76 3d f8 0c 81 3d
       0.10828534 0.081918545 0.060254034 0.06301302
0002d0 dc 25 88 3d af 07 f0 bc bd c4 b6 3d 25 2f c6 bd
       0.06647846 -0.029300539 0.089242436 -0.09676961
0002e0 b9 1d 04 bd 3a 60 28 3d f1 a1 0d bd 46 d1 fd bc
       -0.03225491 0.041107394 -0.034578267 -0.030983578
0002f0 57 39 d1 bd 2e 75 71 ba dc 6f c2 3d b2 d7 c0 3d
       -0.10216015 -0.00092108815 0.09493992 0.094161406
000300 dc aa c5 3c 42 af 67 bd c2 51 98 bd fc a8 87 bd
       0.024129324 -0.056563623 -0.07437469 -0.06624028
000310 b5 00 90 3d c1 ce 34 bd ef 43 8e 3c f7 80 b0 bd
       0.07031385 -0.04414249 0.017366378 -0.08618348
000320 e6 c5 dc 3c e9 85 0d 3d df 45 c5 3d 16 87 52 3c
       0.026949834 0.034551535 0.096324675 0.01284959
000330 b9 1b 7c 3c f0 a6 c9 bc 47 87 58 bd ad 75 92 3d
       0.015387469 -0.024615735 -0.052863386 0.07151351
000340 d8 aa b7 3b fb e1 ee bc b7 c0 de 3c e2 22 88 bd
       0.005605083 -0.02916049 0.027191503 -0.06647278
000350 dc 9a 77 3b ca 49 f4 3c 12 35 b4 bc fe 31 3d 3d
       0.0037781512 0.029820342 -0.021997962 0.046190254
000360 b5 75 9e bd b3 65 43 bc ac 5f 0f bd 86 71 10 3d
       -0.077372946 -0.011926102 -0.03500335 0.035264514
000370 1f ea 52 bd ca 0e c8 bc aa 38 a8 3c 45 3a a4 3d
       -0.051492807 -0.024421114 0.020534832 0.080189265
000380 7c 18 c1 3d 39 48 c4 bd ba cd 33 bc 38 65 04 bc
       0.09428498 -0.09584088 -0.010974342 -0.008080773
000390 0f f1 a1 3d fb 2c 53 bd 94 5e 7f 3d 3b ec 3c bd
       0.079073064 -0.05155657 0.062346056 -0.046123724
0003a0 9b c3 10 3d 5d d3 ba 3c 0a 07 9d 3d 74 f8 0d bd
       0.035342794 0.022805864 0.07667358 -0.03466077
0003b0 ff 67 71 3d 2b a8 fc 3c b2 ff 5c bd fa 3a be 3c
       0.05893707 0.030841907 -0.053954788 0.023221482
0003c0 af c6 9c bc b6 6a ff 3c 7e 4a 2d 3d 9a 8c 7c ba
       -0.019137708 0.031178813 0.04230737 -0.00096339884
0003d0 be 17 87 bd e0 9d 20 3b fc 08 73 3d 9a 1e 50 3d
       -0.06596325 0.0024508163 0.05933474 0.050810434
0003e0 7a 55 1b bc 7b d9 a5 3d 00 c5 06 bd 4f 7a f2 3d
       -0.009480828 0.08098122 -0.032902718 0.11839735
0003f0 05 94 b1 ba 2d 83 ac 3d c1 8a 81 3d 23 9c 87 bc
       -0.0013548142 0.08423457 0.06325293 -0.016553944

fc2.bias f4 [64]
000000 b6 16 9e bd d4 69 85 3d 67 2b 8b bd 1c fa 4a 3b
       -0.077191755 0.06514326 -0.06795388 0.003097183
000010 4f f2 26 bd 38 f6 40 3d 0b 58 47 3d 61 c5 ea 3b
       -0.040758427 0.047109812 0.04866795 0.0071646427
000020 f9 0f 6f bd 2a a7 b5 3c b8 9e 84 3d 96 c2 af bd
       -0.058364842 0.022174437 0.06475586 -0.08582036
000030 d5 b6 aa 3d 06 33 17 bd d3 d4 45 3d cd 83 6c 3d
       0.08335654 -0.036913894 0.048298668 0.057742883
000040 e0 25 96 3d a9 60 23 bd bd 8c 0c 3d 7c 9b 09 3d
       0.07331443 -0.039887104 0.034313906 0.033595547
000050 7c 81 8e bd 07 bb 7b 3c 11 8b 14 bc 31 74 9c 3d
       -0.06958291 0.015364415 -0.009066359 0.07639349
000060 69 c7 78 3d 84 ea 07 3d 5b fc 52 3d 7e 2d fb bc
       0.060737047 0.033182636 0.051510196 -0.03066134
000070 57 a9 8d 3c d3 00 7f bc 26 2c 92 3d 91 4e 9e bd
       0.017292662 -0.015564161 0.07137327 -0.07729829
000080 1b 5e 56 3d ea ad 4d 3d 1c 46 9d 3b 64 a6 91 3d
       0.05233584 0.050214685 0.0047996175 0.071118146
000090 cd d3 16 3d d3 c1 9a 3d 4d ba aa bd 79 c1 fe 3c
       0.036823083 0.075565 -0.08336315 0.031098114
0000a0 ef 1e 02 3d 2d 13 3d 3d e3 92 0a bd 2a c2 96 3d
       0.03176778 0.046160866 -0.03383149 0.073612526
0000b0 52 6d 6d 3d ca fb 26 3c 35 86 f0 3c 87 61 97 3d
       0.057965584 0.010191867 0.02936087 0.07391649
0000c0 ff 22 b5 3d 8e b5 b2 bd 6b 9a 80 3d f0 39 7c bd
       0.088445656 -0.08726035 0.06279453 -0.06157869
0000d0 17 5a 1e bd 71 61 62 bd bc 0e 2f bd 57 ff a4 bd
       -0.038660135 -0.05526871 -0.04273866 -0.08056515
0000e0 be 93 ed 3c e0 7d 97 3c d0 4a 9b bd 38 d0 17 bd
       0.029001113 0.018492639 -0.07582629 -0.037063807
0000f0 e7 e3 3a 3b 2b a2 df 3c 96 79 01 bc bc d8 11 bd
       0.0028517188 0.027299007 -0.0079025235 -0.035607085
