logs/mappo_checkpoint_ep350.pth (torch, 451986 bytes, 28 tensors)

fc1.weight f4 [128, 147]
0	0xbc84cef9	-0.016211974
1	0x3dc19522	0.09452273
2	0xbd8476c6	-0.06467967
3	0x3d0274e3	0.031849753
4	0x3d3e759b	0.046498876
5	0x3bf93bb8	0.007605996
6	0xbbcc48d7	-0.006234269
7	0xbd04d201	-0.032426838
8	0xbd1a530f	-0.037676867
9	0x3d2fa5e3	0.04288281
10	0xbccd0acc	-0.025029562
11	0x3d80f6c2	0.06297065
12	0x3d868c64	0.06569746
13	0x3d7dfd58	0.062009186
14	0x3d6ad03a	0.057327487
15	0xbd161ef9	-0.03665063
16	0x3d8ae083	0.067811035
17	0xbd931c89	-0.07183177
18	0xbd7f36bf	-0.06230807
19	0x3d158372	0.03650231
20	0x3da12e13	0.07870116
21	0x3ced9058	0.028999493
22	0x3dc2c782	0.09510709
23	0xbd2dc94c	-0.0424283
24	0x3b41a1d1	0.0029545913
25	0xbc15d672	-0.009145366
26	0x3d118f20	0.035536885
27	0xbd030928	-0.031991154
28	0x3da98701	0.08277703
29	0x3d910e9c	0.07082865
30	0xbd9cd39b	-0.07657548
31	0xbc6c63ba	-0.014428074
32	0xbbfadee7	-0.0076559666
33	0x3ce72e37	0.02822028
34	0xbca17f12	-0.019713912
35	0xbd77ba27	-0.060480263
36	0xbd894e00	-0.067043304
37	0xbd9cf122	-0.0766318
38	0x3d4b24df	0.04959571
39	0xbcf55817	-0.029949231
40	0xbb5f044c	-0.003402966
41	0x3d30c630	0.043157756
42	0x3a1afe97	0.00059125706
43	0x3db949b2	0.090472594
44	0xbccda3fd	-0.02510261
45	0xbd84a327	-0.06476431
46	0x3cb3fb00	0.021970272
47	0x3d6f535a	0.0584291
48	0x3cc2e188	0.023789182
49	0x3d0d68e6	0.034523867
50	0x3c70e2bf	0.014702498
51	0xbcae923b	-0.021309962
52	0xbca3f6a7	-0.020015074
53	0xbd12944f	-0.03578597
54	0xbd315d70	-0.043302
55	0xbd9eb483	-0.07749274
56	0x3d1cb373	0.038257074
57	0xbd90ba41	-0.07066775
58	0x3d3e63ee	0.04648202
59	0x3d4df086	0.05027821
60	0xbc4855ea	-0.012227515
61	0xbcab96a4	-0.020945854
62	0x3dc37854	0.09544435
63	0x3c93f9a5	0.018063376
64	0x3dbd2a95	0.092366375
65	0x3d62369d	0.055227865
66	0xbd6ab514	-0.057301596
67	0xbbdf4747	-0.006813917
68	0xbc964c9e	-0.01834708
69	0x3d37c7ed	0.0448684
70	0x3dd4aee2	0.10384919
71	0xbcbc7ef2	-0.023009751
72	0xbcd4b6d5	-0.025966087
73	0x3a5bec8d	0.0008389436
74	0xbb6010fd	-0.0034189813
75	0x3d50a834	0.05094166
76	0x3b6d3924	0.0036197389
77	0xbd3f8115	-0.04675396
78	0xbd82ed1c	-0.06392881
79	0x3cea0418	0.028566405
80	0x3c51bfb0	0.0128020495
81	0xbcae86d7	-0.021304531
82	0x3cc42e84	0.023947962
83	0xbd052db9	-0.032514308
84	0xbc36623e	-0.011131821
85	0x3dcd6511	0.100290425
86	0xbd750d82	-0.059827335
87	0xbd2f81f6	-0.04284855
88	0x3d8f1960	0.06987262
89	0xbd838e32	-0.06423606
90	0xbd004654	-0.03131707
91	0xbc1c24a5	-0.009530221
92	0xbcab0ca9	-0.02088006
93	0xbc401e86	-0.011726027
94	0xbc742094	-0.014900345
95	0xbd8e34c0	-0.06943655
96	0x3bda8b69	0.006669451
97	0x3da97b23	0.082754396
98	0x3ca21454	0.019785084
99	0xbc8ef172	-0.017449114
100	0x3dd23fa5	0.102660455
101	0x3d5a1d81	0.053250793
102	0x3d36900c	0.044570968
103	0xbd804795	-0.06263653
104	0x3d7ce067	0.061737444
105	0xbc308845	-0.010774677
106	0x3dc3ff43	0.09570172
107	0xbd58413d	-0.05279659
108	0xbd3bbbde	-0.04583346
109	0x3c828b13	0.015935456
110	0x3d4ce03d	0.050018538
111	0xbc51aa9c	-0.012797024
112	0xbd0457a1	-0.032310132
113	0x3b4e9f16	0.0031527928
114	0x3d1e0ebb	0.038588267
115	0x3d80cea4	0.062894136
116	0x3d3248cc	0.043526456
117	0x3cde5a96	0.027142804
118	0xbaf60d98	-0.0018772362
119	0x3d08e4fa	0.033421494
120	0x3d91aa53	0.07112565
121	0x3dc2e064	0.09515455
122	0x3d6abe4a	0.05731038
123	0xbd95edb8	-0.07320732
124	0x3c23e34f	0.010002925
125	0x3d6dde7f	0.058073517
126	0xbbf75877	-0.0075483876
127	0xbd036fa6	-0.032088898
128	0xbd4fe575	-0.050755937
129	0x3c53af0c	0.012920152
130	0xbd83046d	-0.063973285
131	0xbd8e64b8	-0.06952804
132	0xbd2bb822	-0.04192365
133	0x3d82321a	0.06357212
134	0xbd81b6fa	-0.06333728
135	0x3bab415a	0.0052262964
136	0xbd62efc9	-0.05540446
137	0xbd073eb9	-0.0330188
138	0xbd750713	-0.0598212
139	0xbcd83982	-0.02639461
140	0x3d380faf	0.044936832
141	0x3d8fbf37	0.07018893
142	0xbd4d96ae	-0.050192527
143	0x3c742aa5	0.014902745
144	0xbd857e79	-0.06518263
145	0xbc21df07	-0.009879834
146	0x3dbf52ba	0.09341951
147	0xbd22a14c	-0.039704606
148	0xbd1c069f	-0.038092252
149	0x3da81318	0.08206767
150	0x3cd16352	0.025560055
151	0xbda4129d	-0.08011363
152	0xbd92b1e3	-0.071628354
153	0x3c82744c	0.015924595
154	0xbc1f59f4	-0.009726036
155	0x3cc551a5	0.024086783
156	0xbda34b54	-0.07973352
157	0x3da68c46	0.08132224
158	0x3c3e7717	0.011625073
159	0xbb992e69	-0.004674722
160	0x3dab1673	0.08353891
161	0xbd8d2fa2	-0.06893851
162	0x3dad746f	0.084694736
163	0xbcf3ce92	-0.029761586
164	0x3bacb9ce	0.005271173
165	0x3d474f07	0.04865935
166	0x3db576b1	0.08860529
167	0x3b15bca8	0.0022848044
168	0xbc736a90	-0.014856949
169	0x3d9c220a	0.0762368
170	0x3d80f940	0.06297541
171	0x3d87ca79	0.066304155
172	0x3d938a73	0.072041415
173	0xbcccdf76	-0.025008898
174	0x3d6b9d19	0.057522867
175	0x3cf04d49	0.029333727
176	0x3d8de31d	0.06928084
177	0x3d404bc8	0.04694727
178	0x3d227bfa	0.039669015
179	0x3d9acd2a	0.07558663
180	0xbd54acef	-0.051922735
181	0xbd95c029	-0.07312042
182	0xbc0027a9	-0.007821956
183	0x3d80850d	0.062753774
184	0x3dad2863	0.08454969
185	0x3d30a98a	0.043130435
186	0x3c439df8	0.011939518
187	0xbd672eb9	-0.056441043
188	0x3d76f0bd	0.06028818
189	0x3d014dea	0.031568445
190	0xbd334f57	-0.043776836
191	0x3a044ed4	0.00050471467
192	0xbd6ca8e7	-0.057778265
193	0x3da16cf6	0.07882111
194	0xbd9789db	-0.07399341
195	0xbd5334a6	-0.05156388
196	0xbce51862	-0.027965728
197	0x3dd270bd	0.10275409
198	0x3d69dcdc	0.057095394
199	0xbc8f77e9	-0.017513232
200	0xbc1681b3	-0.009186196
201	0x3b29b96a	0.002589787
202	0xbd71fe3f	-0.05908036
203	0xbceb671e	-0.028735694
204	0xbcf0df0d	-0.029403234
205	0xbd0b79f9	-0.03405187
206	0x3d4a6017	0.049408045
207	0xbd8c6a5d	-0.06856225
208	0x3c78f5ba	0.0151953045
209	0xbd9222ae	-0.07135521
210	0xbd74f84a	-0.0598071
211	0x3bf8a4c0	0.007587999
212	0x3c76b6bd	0.015058217
213	0xbd35f9f4	-0.044427827
214	0x3d1badba	0.038007475
215	0x3d51f10b	0.051255267
216	0xbc360966	-0.011110639
217	0xbd64d554	-0.055867508
218	0xbca56077	-0.0201876
219	0x3d7e956a	0.06215421
220	0xbd3d54aa	-0.04622332
221	0xbb9a9089	-0.004716937
222	0x3dad583c	0.08464095
223	0x3dad53c9	0.084632464
224	0x3d848db8	0.06472343
225	0xbd2816b6	-0.041037284
226	0xbc8fb750	-0.017543465
227	0x3c29e011	0.010368363
228	0x3d7cdc37	0.06173345
229	0x3d81b12b	0.0633262
230	0xbb501322	-0.0031749685
231	0xbd702f50	-0.05863887
232	0x3da92e46	0.08260779
233	0x3d34e3ba	0.04416249
234	0xbda7190e	-0.08159076
235	0x3d2b3bda	0.041805126
236	0x3d8dc68f	0.06922638
237	0xbd90fa51	-0.07078994
238	0xbd067db6	-0.03283473
239	0x3d710ec9	0.05885199
240	0xbd3a15ff	-0.045431133
241	0xbca49628	-0.020091131
242	0x3d8caf26	0.068693444
243	0x3da73e2d	0.08166156
244	0xbd660cb2	-0.05616445
245	0x3ccdc9fd	0.02512073
246	0x3c37f310	0.011227384
247	0x3aa3b7a7	0.0012490646
248	0x3da5bca1	0.08092619
249	0x3d6c358a	0.057668246
250	0x3d064512	0.032780714
251	0xbd35d964	-0.044396773
252	0x3c9a292e	0.018818464
253	0x3db21508	0.08695418
254	0xbd89857b	-0.067149125
255	0x3d8d7aed	0.06908212

fc1.bias f4 [128]
0	0xbd1f4a72	-0.038889356
1	0x3dd52868	0.104080975
2	0xbd1e849a	-0.038700677
3	0x3d141f8e	0.036162905
4	0x3ab9ff38	0.0014190441
5	0xbc93653d	-0.01799261
6	0xbbf09403	-0.007341863
7	0x3c6d6752	0.0144899655
8	0x3d84b456	0.06479709
9	0x3c2cc716	0.010545513
10	0x3d92656c	0.07148251
11	0x3dcadcb0	0.09905374
12	0xbd169aa8	-0.036768585
13	0x3de3b11e	0.11117767
14	0x3d92dc98	0.07170981
15	0xbc9d850e	-0.019228484
16	0x3bd1606a	0.0063896673
17	0xbce46e52	-0.027884636
18	0x3d126b27	0.03574672
19	0xbd9b3e03	-0.07580187
20	0x3d2ec256	0.042665802
21	0xbd1ecb87	-0.038768318
22	0xbaec166d	-0.0018012054
23	0xbc140fdd	-0.009036985
24	0xbd597ba8	-0.053096443
25	0x3d5a9032	0.05336017
26	0x3d7193d1	0.05897886
27	0x3b2d6394	0.0026457058
28	0xbd8e0dbd	-0.06936214
29	0x3d4725eb	0.048620146
30	0xbd5d016e	-0.05395644
31	0x3d28d249	0.04121617
32	0x3daff0e7	0.0859087
33	0x3de91cb3	0.11382427
34	0xbd163261	-0.03666914
35	0x3cf99006	0.030464184
36	0x3c6bf602	0.014401915
37	0x3d0b21f4	0.033967927
38	0xbcd2b180	-0.025719404
39	0xbd3c2a7a	-0.045938946
40	0x3cf7f708	0.03026916
41	0x3dc9cd8e	0.098536596
42	0x3cd32769	0.025775628
43	0xbd82a9d1	-0.06380046
44	0xbd2c5d91	-0.04208142
45	0x3dde0364	0.108404905
46	0x3cb1dd95	0.021712104
47	0x3d0f718d	0.0350204
48	0xbc56e953	-0.013117152
49	0xbd4ea2f6	-0.05044838
50	0xbc17db83	-0.009268644
51	0xbd8af2d7	-0.06784599
52	0x3daebc6c	0.08532032
53	0xbd266a82	-0.040628918
54	0x3d0a02ed	0.033694196
55	0x3cbe2a89	0.023213642
56	0x3d61d58f	0.055135306
57	0x3c0f0dd4	0.008731324
58	0x3d2f6884	0.042824283
59	0x3cb40dd4	0.02197925
60	0x3c9a6a01	0.018849375
61	0x3d21e88b	0.03952841
62	0xbd18168e	-0.037130885
63	0xbd40d034	-0.047073558
64	0x3d9f9a36	0.07793085
65	0x3d9ff57b	0.078104936
66	0x3d970e96	0.07375829
67	0x3cd06b64	0.025441833
68	0xbb9fbce6	-0.0048748134
69	0xbd05f3ab	-0.032703083
70	0x3d45ca9b	0.048288923
71	0xbc57e4bb	-0.013177092
72	0x3da22290	0.079167485
73	0xbd8b8504	-0.0681248
74	0xbd62225c	-0.05520855
75	0x3c0be44b	0.008538316
76	0xbbb65c47	-0.0055651995
77	0x3ce12821	0.027484955
78	0x3cd7d27c	0.026345484
79	0xbc7c83ef	-0.015412315
80	0x3dae12ff	0.08499717
81	0x3d8c010b	0.068361364
82	0x3d9473e3	0.07248666
83	0x3dd18b33	0.10231628
84	0x3d32b0ae	0.043625526
85	0x3dd60ecb	0.1045204
86	0x3d331a06	0.04372599
87	0x3d8b5a85	0.068043746
88	0xbc19ec50	-0.00939472
89	0x3d6ed960	0.058312774
90	0x3d95704f	0.07296812
91	0x3db3711c	0.08761808
92	0x3d8d939e	0.06912921
93	0x3d635eb0	0.055510223
94	0x3cba7f45	0.022765765
95	0x3b8e1a40	0.0043366253
96	0x3c373531	0.011182115
97	0x3d59d098	0.053177446
98	0x3def6bb7	0.11690467
99	0xb9b999ca	-0.00035400531
100	0x3d976be4	0.073936254
101	0x3db02711	0.08601201
102	0x3dcfaf4e	0.101408586
103	0x3db60505	0.08887676
104	0x3d3219ee	0.04348176
105	0x3d0ab526	0.033864163
106	0x3c47c5e9	0.012193182
107	0x3d520005	0.05126955
108	0x3ddb8b5c	0.1071994
109	0x3dab5e99	0.083676524
110	0xbd86ceb2	-0.06582393
111	0x3db05d57	0.08611553
112	0x3db1dc5c	0.08684608
113	0xbcf75404	-0.030191429
114	0x3caffb21	0.021482052
115	0xbc9bfa54	-0.019040264
116	0x3c8aa368	0.016923621
117	0x3da6502c	0.0812076
118	0x3cd6ca36	0.026219469
119	0x3d8c2ab5	0.06844083
120	0xbd020c2d	-0.031749893
121	0xbaf45aff	-0.0018642842
122	0xbd55e492	-0.052219935
123	0x3d5f6d7c	0.05454777
124	0xbcaec345	-0.021333346
125	0x3c814c5a	0.015783478
126	0xbd3faa29	-0.046793137
127	0x3d9ea210	0.07745755

fc2.weight f4 [64, 128]
0	0xbc69eb38	-0.014277272
1	0x3cbc50f3	0.022987818
2	0xbc304f08	-0.01076103
3	0x3d8c51dd	0.06851552
4	0xbd305d67	-0.043057825
5	0x3d9c9fff	0.07647704
6	0x3d913370	0.07089889
7	0x3ca36de6	0.019949865
8	0x3c6302d6	0.013855657
9	0x3b90bca6	0.00441702
10	0xbb1b666d	-0.0023712174
11	0x3c1f46f9	0.009721511
12	0xbd0a5603	-0.033773433
13	0x3db4ebab	0.088340126
14	0xbda6cef8	-0.08144945
15	0x3b140708	0.0022587199
16	0x3cad4b34	0.021154024
17	0xbdbe22bc	-0.09283969
18	0x3cf5071c	0.029910617
19	0x3c093e48	0.008376665
20	0x3d19b4ee	0.037526064
21	0x3b816c03	0.0039496436
22	0x3cc16cd5	0.023611465
23	0x3d188bae	0.037242584
24	0x3d59b88a	0.053154506
25	0x3d33eb68	0.043925673
26	0x3ca7eab0	0.02049765
27	0x3d5ce9d3	0.05393393
28	0xbcef88ab	-0.029239973
29	0x3d5cbf7d	0.053893555
30	0x3d9995e0	0.074992895
31	0x3cbd54fc	0.023111813
32	0x3cebaeab	0.028769812
33	0x3cd4c00e	0.025970485
34	0xbbd658fd	-0.00654137
35	0xbdfe7f84	-0.124266654
36	0x3ccc1ccd	0.024916077
37	0xbd190eba	-0.03736756
38	0x3d443f12	0.04791171
39	0x3c9c1866	0.019054603
40	0xbb856cb4	-0.0040717963
41	0x3d6dff4d	0.058104802
42	0x3d8f6674	0.07001963
43	0xbd2444d4	-0.040104702
44	0xbdc59726	-0.0964797
45	0x3d876491	0.066109784
46	0x3dcd5388	0.10025698
47	0x3bf7f06c	0.0075665023
48	0x3c1602df	0.009155958
49	0x3d71af43	0.059005033
50	0xbc69f74f	-0.014280154
51	0xbdcb06a7	-0.09913378
52	0xbc3fd669	-0.011708834
53	0x3cabfd9c	0.020994954
54	0xbd41b00d	-0.047287036
55	0x3b7d9f96	0.0038699857
56	0x3cb853a8	0.022500828
57	0x3d24c20d	0.040224124
58	0x3c8658bb	0.016399732
59	0xbd0f70a1	-0.03501952
60	0x3d88fbc1	0.06688643
61	0x3d78320b	0.0605946
62	0xbd0fd173	-0.035111856
63	0x3bac95ac	0.0052668657
64	0xbd861466	-0.065468594
65	0x3ce78ac4	0.02826441
66	0x3d8dd4d9	0.06925363
67	0xbd1c8cff	-0.0382204
68	0x3d18b76e	0.037284307
69	0xbdd3b4ac	-0.10337195
70	0x3d65d1aa	0.056108154
71	0x3c9e78a4	0.019344635
72	0xbd2aa879	-0.041664574
73	0xbbab7094	-0.005231926
74	0xbdb8a129	-0.09015114
75	0x3afe9baf	0.001942506
76	0xbde32bac	-0.11092314
77	0x3cfe3ad5	0.031033913
78	0x3cb87e8c	0.02252128
79	0xbe01cd28	-0.12675917
80	0xbd58d535	-0.052937705
81	0xbcab9754	-0.020946182
82	0x3d72c790	0.05927235
83	0xbddc647d	-0.10761354
84	0xbdc00a71	-0.093769915
85	0xbd518b42	-0.051158197
86	0x3d8edd0b	0.06975754
87	0xbc94535c	-0.018106155
88	0xbd3a5ede	-0.04550063
89	0x3c57b3ef	0.013165458
90	0xbd674dcb	-0.056470674
91	0x3d3299ba	0.043603636
92	0xbc030c64	-0.00799856
93	0xbd8d6924	-0.069048196
94	0x3d4f087d	0.050545204
95	0xbc98373e	-0.018581029
96	0xbccc9df7	-0.024977667
97	0xbb378d97	-0.0028007978
98	0x3c2c3eb5	0.010512997
99	0x3dfb99ce	0.12285195
100	0xbdeb19cc	-0.1147953
101	0xb85a6c4f	-5.207612e-05
102	0x3d3eee2e	0.046613865
103	0xbc36b066	-0.011150455
104	0x3d847f04	0.06469539
105	0xbd3ed3f1	-0.04658884
106	0x3dbcf30c	0.09226045
107	0xbce973a2	-0.02849752
108	0x3b04c8a5	0.0020261195
109	0xbde0ac28	-0.10970336
110	0xbc54c1c9	-0.012985655
111	0xbd9bb42f	-0.07602727
112	0xbd0cb03e	-0.034347765
113	0xbcefc5d1	-0.02926913
114	0xbcc18726	-0.023624014
115	0xbcb66037	-0.022262676
116	0x3b0c038f	0.0021364426
117	0xbca93d40	-0.02065909
118	0xbbc14c2c	-0.005898973
119	0xbc518827	-0.012788809
120	0xbd03bd6d	-0.032163072
121	0x3c4cfde6	0.012511706
122	0xbda26a1c	-0.07930395
123	0xbda0b91e	-0.07847808
124	0xbd3dd27e	-0.04634332
125	0xbe031e47	-0.12804519
126	0xbda60998	-0.081072986
127	0xbc301eea	-0.010749558
128	0xbb838336	-0.0040134443
129	0x3cda633a	0.026658643
130	0x3db8341c	0.08994314
131	0x3d33e1c4	0.04391648
132	0xbd836086	-0.06414895
133	0xb92f46b2	-0.00016715637
134	0x3d08252a	0.033238567
135	0xbd401cc8	-0.046902448
136	0xbd2973af	-0.04137009
137	0xbc9fdfbd	-0.019515866
138	0x3d82f4d1	0.06394351
139	0xbd184f85	-0.03718521
140	0x3ca6e384	0.02037216
141	0x3c19b845	0.009382312
142	0x3daf2c19	0.08553333
143	0x3d404568	0.04694119
144	0xbd7ae90f	-0.06125742
145	0xbd74e758	-0.05979094
146	0x3d0d3f70	0.034484327
147	0x3c8e4817	0.01736836
148	0x3b5f3178	0.0034056585
149	0xbd173c24	-0.03692259
150	0x3db6a1e8	0.089176
151	0x3d82cb21	0.063864
152	0x3d75594d	0.059899617
153	0x3db943d9	0.09046144
154	0x3d58379a	0.0527874
155	0x3de21ebe	0.1104102
156	0xbd32277e	-0.043494694
157	0xbd840abd	-0.06447361
158	0x3d61b814	0.05510719
159	0xbd7b12eb	-0.06129734
160	0xbdab6d57	-0.08370464
161	0xbd99d960	-0.07512164
162	0x3d7d9c9d	0.061916936
163	0xbce2ff55	-0.027709642
164	0x3d58e11d	0.05294906
165	0xbcd7e611	-0.026354821
166	0x3cf90851	0.030399473
167	0x3d05d19e	0.03267061
168	0xbb84a4fd	-0.0040479884
169	0xbabde404	-0.001448751
170	0xbda43228	-0.08017379
171	0x3d7dc1d3	0.061952423
172	0xbd19111d	-0.037369836
173	0xbd856b69	-0.065146275
174	0x3ca62497	0.02028112
175	0xbc814135	-0.015778163
176	0xbc39af7b	-0.011333342
177	0xbc04193d	-0.008062658
178	0xbb8b071d	-0.0042427913
179	0x3d8d6684	0.06904319
180	0x3a9fa51b	0.0012179943
181	0xbd77d471	-0.060505334
182	0x3d87910e	0.06619464
183	0x3d58d68c	0.052938983
184	0x3cf51f6b	0.029922208
185	0xbd230a8d	-0.039804984
186	0xbdbe8193	-0.09302058
187	0x3ddd043e	0.10791825
188	0xbd7fc670	-0.062445104
189	0x3d9e27cd	0.07722435
190	0xbd43f21d	-0.04783832
191	0x3c0db438	0.0086489245
192	0xbca63852	-0.020290527
193	0xbd32d3a5	-0.04365887
194	0x3d8021b7	0.062564306
195	0x3dbd3a2f	0.09239613
196	0x3d0a6fcf	0.033798035
197	0x3d36aae1	0.044596557
198	0x3d4a752c	0.04942815
199	0x3dce5e4e	0.10076581
200	0xbd8a32d8	-0.06747979
201	0x3db2a536	0.08722918
202	0x3c25f5ea	0.010129431
203	0xbd3c84d9	-0.04602513
204	0x3decd6c4	0.11564401
205	0xbd6f9fec	-0.058502123
206	0x3d99d274	0.07510844
207	0x3de8070f	0.11329471
208	0x3d2a4718	0.041571707
209	0x3dd853ef	0.10562884
210	0xbd584c26	-0.052806996
211	0xbaf2c6a4	-0.0018522334
212	0xbcc8b01b	-0.024498036
213	0x3c22ec26	0.0099439975
214	0xbd399d03	-0.045315754
215	0xbba7ae36	-0.005117203
216	0xbd7e087a	-0.062019803
217	0x3d0fc90f	0.035103854
218	0x3d497adf	0.049189445
219	0xbd643907	-0.055718448
220	0xbd87d40f	-0.06632244
221	0x3cf42ef8	0.029807553
222	0x3d68e934	0.056863025
223	0x3d86a8af	0.065751426
224	0xbd402e34	-0.046919063
225	0x3cd360ff	0.025803087
226	0x3d8b3d9f	0.06798863
227	0xbdb157ba	-0.08659311
228	0x3dadcd70	0.0848645
229	0x3ce7e176	0.02830575
230	0xba682fc9	-0.0008857218
231	0x3d71e7e4	0.05905904
232	0xbd127baa	-0.035762466
233	0xbbc6d3cb	-0.006067728
234	0x3ba90753	0.005158344
235	0x3dbc33f7	0.09189599
236	0x3c0b5c56	0.008505901
237	0x3ce484fb	0.027895441
238	0x3d41f791	0.04735524
239	0x39b64d5a	0.00034771377
240	0xbd247663	-0.040151965
241	0xbda3f86f	-0.08006369
242	0xbcdc1465	-0.026865194
243	0x3da65019	0.08120746
244	0x3d9abb50	0.07555258
245	0xbd3c06bd	-0.045904864
246	0x3d60caf2	0.054881044
247	0xbd3d3500	-0.046193123
248	0xbcf8df8e	-0.030380037
249	0x3dc83c27	0.09777098
250	0x3d4f427d	0.050600518
251	0x3dc65bf2	0.09685506
252	0x3d061460	0.032734275
253	0xbcd5c261	-0.026093664
254	0xbd320729	-0.04346386
255	0xbbd778a0	-0.006575659

fc2.bias f4 [64]
0	0x3d6af8f0	0.05736631
1	0x3cedd632	0.0290328
2	0xbc16f9b6	-0.009214809
3	0x3b429ce3	0.0029695563
4	0x3bb058f5	0.0053816983
5	0x3d889f8f	0.066710584
6	0x3d554821	0.05207074
7	0xbd7159c8	-0.058923513
8	0x3d6f4c10	0.05842215
9	0xbd0083a3	-0.03137554
10	0x3d402872	0.04691357
11	0x3d9f5a9a	0.07780953
12	0x3d7b4716	0.06134709
13	0xbd04d256	-0.032427154
14	0x3c75f289	0.015011438
15	0x3d1b261a	0.037878133
16	0xbd668c31	-0.05628604
17	0xbb9f884b	-0.0048685423
18	0x3cd97f30	0.026549906
19	0x3d43e5ef	0.047826704
20	0x3c8503d9	0.016237186
21	0x3d6745eb	0.056463163
22	0x3cfda81a	0.030963946
23	0xbc85d9ca	-0.016339201
24	0x3c4200b6	0.01184099
25	0xbda68da9	-0.08132488
26	0xbbb12c12	-0.005406865
27	0x3d8a2354	0.067450196
28	0xbda475ed	-0.08030305
29	0x3dcbe7d1	0.09956325
30	0x3cf1f2e7	0.02953477
31	0xbd763b76	-0.0601153
32	0x3dc16664	0.094433576
33	0x3ba4c040	0.005027801
34	0xbccbff4d	-0.02490201
35	0x3d873dbc	0.06603572
36	0x3c99ee78	0.018790469
37	0x3d76abbc	0.060222372
38	0xbda52b10	-0.08064854
39	0x3c1c6270	0.009544954
40	0x3ce69044	0.028144963
41	0xbc82b156	-0.015953701
42	0xbd53b056	-0.05168184
43	0x3dcb7263	0.09933927
44	0x3d87f243	0.06638005
45	0xbcc291ed	-0.023751223
46	0xbd154d1a	-0.036450483
47	0x3cd7cf02	0.026343826
48	0x3c90d2d2	0.017678652
49	0x3dd09537	0.101847105
50	0xbd43edb0	-0.0478341
51	0x3cc81997	0.024426265
52	0x3d872b12	0.06600012
53	0x3c98ab49	0.018636363
54	0x3d4de929	0.050271187
55	0xbda9ffb0	-0.08300722
56	0xbd92d5c2	-0.07169677
57	0xbba46cf5	-0.0050178715
58	0x3d2bcb83	0.04194213
59	0xbd6bbcbe	-0.057553045
60	0x3d0d0064	0.0344242
61	0x3dae1d93	0.085017346
62	0x3dd3b6e6	0.103376195
63	0x3d61ff09	0.05517486

action_head.weight f4 [5, 64]
0	0x3dd2dd2f	0.10296094
1	0x3c4269eb	0.011866073
2	0xbcd60ad5	-0.026128212
3	0x3cb121d9	0.021622585
4	0x3dd20424	0.10254696
5	0xbb381099	-0.0028086065
6	0xbdde8191	-0.108645566
7	0x3d8c8e5b	0.0686309
8	0x3dc03a2d	0.09386096
9	0xbd38904b	-0.045059483
10	0x3de64490	0.11243546
11	0xbe04ce9c	-0.1296944
12	0xbc1e8de9	-0.009677389
13	0xbdb58bde	-0.08864568
14	0x3d5c1765	0.05373325
15	0xbdb71f69	-0.08941538
16	0x3d140138	0.036133975
17	0x3d4f3593	0.0505882
18	0x3d417bc3	0.04723717
19	0x3cf84a19	0.03030877
20	0x3d99e3d5	0.07514159
21	0x3cf75569	0.030192094
22	0xbd07edbd	-0.03318571
23	0x3df6aeeb	0.12045082
24	0x3d4f8705	0.050665874
25	0xbcb020a8	-0.021499947
26	0xbdfb2a18	-0.12263888
27	0xbd76b9b6	-0.0602357
28	0x3d0db040	0.034591913
29	0xbdb0bb6c	-0.08629498
30	0xbd4792ea	-0.048724093
31	0x3cb3e0c2	0.021957759
32	0xbd4d2441	-0.050083403
33	0x3d92bf60	0.07165408
34	0x3dade711	0.08491338
35	0x3d8f1b06	0.06987576
36	0xbd9f1ae1	-0.077687986
37	0x3d9d4e09	0.076809
38	0x3d25a4ac	0.040440246
39	0xbbab4944	-0.00522724
40	0xbdd7256f	-0.10505187
41	0x3d77c41c	0.06048976
42	0xbbd3f14f	-0.006467975
43	0xbdaa68e1	-0.08320785
44	0xbd19d08f	-0.037552413
45	0x3ddc07df	0.10743689
46	0xbda3cc9b	-0.0799801
47	0x3d9fc5cb	0.07801398
48	0xbdc294ea	-0.09501059
49	0xbd87286b	-0.06599506
50	0xbd2e08bf	-0.04248881
51	0xbddf30e5	-0.10897998
52	0x3cadee69	0.021231847
53	0xbc7527d5	-0.01496311
54	0xbde629af	-0.11238419
55	0x3d14b272	0.03630299
56	0xbd500547	-0.050786283
57	0xbda35454	-0.07975069
58	0xbcbd83b8	-0.023134097
59	0x3dd3586e	0.10319601
60	0x3bfea730	0.007771395
61	0x3da7f8cb	0.0820175
62	0x3c98fe93	0.018676078
63	0xbc897109	-0.016777532
64	0xbdaa6cde	-0.08321546
65	0xbd18cde3	-0.037305724
66	0x3cde6ab3	0.027150488
67	0xbc19eede	-0.009395329
68	0x3d3258b8	0.04354164
69	0x3c4b5c78	0.012412183
70	0xbd1a1f54	-0.037627533
71	0xbde9ecf9	-0.11422152
72	0xbb308c18	-0.002693897
73	0x3d9cb20b	0.076511465
74	0xbd9ee376	-0.077582285
75	0xbdc221f9	-0.09479136
76	0xbd5846ec	-0.05280201
77	0x3ddbf919	0.10740871
78	0x3de8f4b1	0.11374796
79	0xbd2f141c	-0.042743787
80	0x3d8d41e0	0.0689733
81	0x3c2f19b2	0.010687279
82	0xbd1442cd	-0.03619652
83	0xbd2e513a	-0.042557932
84	0xbd8ec94b	-0.06971987
85	0xbd4fde0c	-0.05074887
86	0x3dcdb21f	0.100437395
87	0xbba7fd70	-0.0051266477
88	0xbc800fc8	-0.015632525
89	0x3db829da	0.089923576
90	0x3d7e8da9	0.062146816
91	0xbdd49c5e	-0.10381387
92	0x3d313e19	0.04327211
93	0xbcbcfb6a	-0.023069102
94	0xbd519485	-0.05116703
95	0x3dc46d72	0.095911875
96	0xbd832c4d	-0.06404934
97	0x3deef069	0.11666948
98	0x3d33848b	0.043827575
99	0xbd208bf0	-0.039195955
100	0xbd28fe68	-0.041258246
101	0x3dca603b	0.09881636
102	0x3db27726	0.08714132
103	0xbd4b0b51	-0.04957134
104	0x3d61698c	0.055032298
105	0x3d5e7b0b	0.05431656
106	0x3dd15ac8	0.10222393
107	0xbc34c2e5	-0.011032795
108	0xbd23af2b	-0.039961975
109	0x3d969fe5	0.07354716
110	0xbd81c586	-0.06336503
111	0x3d877890	0.06614792
112	0x3d5728ac	0.052529022
113	0x3da879ff	0.08226394
114	0x3e01891a	0.12649956
115	0x3dfc482f	0.123184554
116	0x3df87b7a	0.12132926
117	0x3da0317b	0.07821938
118	0x3d794a8b	0.060862105
119	0xbdd255be	-0.1027026
120	0x3c7447cd	0.014909697
121	0x3da195b3	0.07889881
122	0x3d4b334f	0.04960948
123	0x3db9db76	0.09075062
124	0xbd9fa59a	-0.07795258
125	0xbd240c35	-0.040050704
126	0x3d3cb41e	0.04607021
127	0x3e0a8d3f	0.13530444
128	0xbd0b7a60	-0.034052253
129	0x3c261cb9	0.010138684
130	0x3d873172	0.06601228
131	0xbdbb76d7	-0.09153526
132	0xbe00ec3f	-0.1259012
133	0x3d4daa7e	0.050211422
134	0x3c6197e2	0.013769122
135	0xbdcdfce1	-0.100579984
136	0xbc44ec3a	-0.012019211
137	0x3d5b58cd	0.053551484
138	0x3c6abbcc	0.014327001
139	0xbd40821f	-0.046999093
140	0xbd49cb82	-0.049266346
141	0x3da2637a	0.0792913
142	0x3dd4a6ac	0.10383353
143	0xbd3bc85b	-0.04584537
144	0xbdf383c2	-0.11890365
145	0x3db30401	0.08740998
146	0x3d3df99c	0.046380624
147	0xbdc174c8	-0.094461024
148	0xbd8c6eb6	-0.06857054
149	0x3d042f72	0.03227181
150	0x3dbda6aa	0.09260304
151	0xbd3ee71b	-0.046607118
152	0xbe0d4525	-0.13795908
153	0xbc7620e0	-0.015022486
154	0x3d27fff0	0.041015565
155	0xbdbab1ff	-0.09115981
156	0x3da4d7b5	0.08048955
157	0xbcd26994	-0.02568511
158	0xbd65ab2a	-0.056071438
159	0xbde99cb9	-0.114068456
160	0xbe0fc459	-0.14039744
161	0x3db8e73b	0.09028479
162	0x3dd85c11	0.10564435
163	0xbdad314b	-0.084566675
164	0xbe0428e0	-0.12906218
165	0xbe0fc461	-0.14039756
166	0xbd08522c	-0.03328149
167	0x3da5b5e0	0.080913305
168	0xbd74b44c	-0.059742257
169	0x3d8f7609	0.07004935
170	0xbcaef054	-0.021354832
171	0xbc280c98	-0.010256909
172	0xbbdf4358	-0.006813448
173	0x3c267c54	0.010161478
174	0xbde25e27	-0.110531144
175	0x3daf2593	0.085520886
176	0xbcb17b9e	-0.02166539
177	0x3b80c12e	0.003929279
178	0xbdbc3a86	-0.0919085
179	0xbcfc0819	-0.03076558
180	0xbc711699	-0.01471486
181	0xbd989612	-0.07450499
182	0x3ce659e4	0.028119035
183	0x3d6e4061	0.058166865
184	0x3d352b8c	0.044230983
185	0x3c38e52f	0.01128511
186	0xbbbdd0d8	-0.0057927184
187	0xbbcd8309	-0.006271724
188	0xbd8dec7c	-0.069298714
189	0x3d4e5f90	0.050384104
190	0xbd5b56af	-0.053549465
191	0x3d289f00	0.04116726
192	0xbd223b1a	-0.039607145
193	0x3e06651d	0.13124509
194	0xbde9e678	-0.114209116
195	0xbd5c1d22	-0.05373872
196	0x3df6927c	0.120396584
197	0xbd573059	-0.052536342
198	0x3de90d7b	0.11379524
199	0x3cd3ac66	0.025839042
200	0xbdf00c71	-0.11721123
201	0xbbb42529	-0.005497594
202	0xbd77b406	-0.060474418
203	0x3d9ee07c	0.07757661
204	0x3d94bb62	0.07262303
205	0x3e0d140d	0.1377718
206	0x3d6c7f8a	0.05773882
207	0x3dbc0aaf	0.09181725
208	0xbd3a8588	-0.0455375
209	0xbc83268b	-0.01600959
210	0xbd21e6ed	-0.03952687
211	0x3c9753f3	0.018472647
212	0x3de6b5da	0.11265154
213	0x3c05f094	0.008175034
214	0x3d61c0ff	0.055115696
215	0xbdc6e4ec	-0.09711632
216	0x3daa91a0	0.08328557
217	0xbdebd96e	-0.11516081
218	0x3d8bbd9f	0.06823277
219	0xbdaffcac	-0.08593115
220	0xbd9ad72b	-0.07560571
221	0xbd95b3af	-0.073096626
222	0xbd770ec2	-0.06031681
223	0xbd0f3231	-0.034959976
224	0xbd9cea91	-0.076619275
225	0x3c58d395	0.013234039
226	0x3d4f113f	0.050553557
227	0x3cba98f1	0.022778006
228	0xbca3cc88	-0.019994989
229	0x3da0e153	0.07855477
230	0x3deac54c	0.11463413
231	0xbd9f6cd5	-0.0778443
232	0xbd81445a	-0.06311865
233	0xbdf11f5d	-0.1177356
234	0x3c2e3391	0.010632412
235	0x3c88faaa	0.016721088
236	0xbd904129	-0.07043678
237	0x3e014bbb	0.12626545
238	0x3d38c27e	0.045107357
239	0x3dcb9b7e	0.09941767
240	0xbd14ce67	-0.036329653
241	0xbd527e65	-0.05139007
242	0x3b5e0130	0.003387522
243	0xbdb1b517	-0.08677118
244	0x3d8ef7b4	0.06980839
245	0xbdce7a60	-0.10081935
246	0xbd138f52	-0.036025353
247	0x3d251e32	0.040312
248	0xbd8a74d3	-0.06760564
249	0xbdd8642f	-0.105659835
250	0x3d10f049	0.035385404
251	0xbdd1a809	-0.10237128
252	0x3d807f50	0.06274283
253	0xbcad3035	-0.021141151
254	0x3d4a185a	0.04933963
255	0x3cb56eeb	0.022147616

action_head.bias f4 [5]
0	0x3cdc4f0d	0.026893163
1	0x3bca4daf	0.0061738114
2	0xbccdfb77	-0.025144322
3	0x3dd5ec52	0.10445465
4	0x3d161706	0.03664305

value_head.weight f4 [1, 64]
0	0xbdc06337	-0.09393924
1	0x3ddc65dc	0.10761616
2	0x3dba759a	0.09104462
3	0x3dc276aa	0.094952896
4	0x3e1b58e1	0.15170623
5	0xbe1817de	-0.14852855
6	0x3e23dbde	0.16001841
7	0x3de08756	0.10963313
8	0x3bb97674	0.0056598727
9	0x3de88dc7	0.11355167
10	0xbc9c83f4	-0.019105889
11	0x3deac4f6	0.114633486
12	0x3e2aa32f	0.16663812
13	0xbe2516d0	-0.16121984
14	0xbe2e32b1	-0.17011525
15	0x3db03463	0.08603742
16	0x3d03d4c0	0.032185316
17	0xbe3eda79	-0.18638028
18	0xbd9040c6	-0.070436046
19	0x3d9d87d8	0.07691926
20	0x3de343a0	0.11096883
21	0x3d2b225b	0.04178081
22	0xbd9a508e	-0.07534896
23	0xbd830bfb	-0.063987695
24	0xbd42096e	-0.047372274
25	0x3ac32280	0.0014887601
26	0xb990ea60	-0.00027640443
27	0x3e018435	0.12648089
28	0xbd45367b	-0.04814766
29	0xbe3003cf	-0.17188953
30	0xbde0a22e	-0.10968433
31	0x3ddec39f	0.108771555
32	0xbe23a173	-0.15979557
33	0xbe141fca	-0.14465252
34	0xbe0b8865	-0.13626249
35	0x3dbcf013	0.09225478
36	0xbd4ec2b9	-0.05047867
37	0x3e061746	0.13094816
38	0x3dc5dc20	0.09661126
39	0xbd835edd	-0.06414578
40	0xbdbccc00	-0.092185974
41	0x3dceca32	0.100971594
42	0x3dd76749	0.10517747
43	0xbdcd3091	-0.10019029
44	0xbd8edf83	-0.06976225
45	0x3dd70000	0.10498047
46	0x3d52b220	0.051439404
47	0x3e117fbf	0.14208888
48	0x3d1347ed	0.035957266
49	0xbe42319f	-0.18964241
50	0x3e234a2b	0.15946262
51	0xbdf11959	-0.11772413
52	0xbe107f9d	-0.1411118
53	0x3e12942a	0.14314333
54	0x3e0f5036	0.13995442
55	0x3d0da57f	0.034581657
56	0x3da1de81	0.079037674
57	0xbde6cd29	-0.112696
58	0xbe28c0fc	-0.16479868
59	0xbd3f0a5b	-0.046640735
60	0xbdb592e2	-0.08865906
61	0xbe01e172	-0.12683657
62	0xbe073fde	-0.13207957
63	0xbe3690bc	-0.1782865

fc1.weight f4 [128, 147]
0	0x3cf3c0f6	0.029755097
1	0x3d63483a	0.055488802
2	0x3ce82299	0.02833681
3	0x3d0662c6	0.03280904
4	0x3dc3a889	0.0955363
5	0x3d8b4975	0.0680112
6	0xbd362fa8	-0.044479042
7	0x3deca84c	0.115555376
8	0x3d4f5ee7	0.050627615
9	0x3c7feb51	0.015620069
10	0xbc60b63e	-0.013715325
11	0xbd5a20dc	-0.053253993
12	0xbd58b83c	-0.052910075
13	0xbd84edf1	-0.06490696
14	0x3d845a72	0.064625636
15	0xbd182d31	-0.037152473
16	0xbd41a868	-0.047279745
17	0x3d596fad	0.053085018
18	0x3c7b78a8	0.015348591
19	0x3dbd3550	0.09238684
20	0x3d8a4647	0.067516856
21	0x3d0eca15	0.03486069
22	0x3bc19ae0	0.005908355
23	0xbc396045	-0.011314456
24	0xbd9e537b	-0.077307664
25	0x3cd9171f	0.026500283
26	0x3d8bcf51	0.06826652
27	0xbbff7a73	-0.0077965795
28	0xbd0a98a0	-0.03383696
29	0x3d8ccef3	0.0687541
30	0x3cb13083	0.021629578
31	0x3d566f70	0.05235237
32	0x3d8d7edc	0.06908962
33	0x3b9ca2a2	0.0047801295
34	0x3c6327e8	0.013864495
35	0x3db3b61f	0.08774971
36	0xbcbe0a83	-0.023198372
37	0x3de3c3c2	0.11121322
38	0x3da1e6bc	0.07905337
39	0xbd6316ba	-0.055441596
40	0x3c9f89a9	0.019474821
41	0x3c34f65c	0.011045065
42	0xbc0d4f39	-0.008624845
43	0xbc037ced	-0.00802539
44	0x3cebc694	0.028781213
45	0x3cd83b68	0.026395515
46	0x3dbbe14f	0.091738336
47	0xbd15f4c9	-0.0366104
48	0xbd498e6b	-0.049208086
49	0x3d6b570f	0.057456072
50	0x3d955a56	0.07292621
51	0xbdd11731	-0.102095015
52	0x3db91bae	0.090384826
53	0x3d9056a9	0.07047779
54	0xbd015699	-0.031576727
55	0x3d01a3c1	0.03165031
56	0x3c377b25	0.011198794
57	0x3d5cf218	0.053941816
58	0x3d0da51e	0.034581296
59	0xbd711090	-0.058853686
60	0x3c5604a1	0.013062627
61	0x3d424b3b	0.047435027
62	0xbc2aff3c	-0.010436829
63	0x3d3d875f	0.046271678
64	0x3d85c24f	0.06531202
65	0x3cd75bb8	0.026288852
66	0xbda29192	-0.079379216
67	0x3c847c65	0.016172597
68	0x3c2e66e5	0.010644649
69	0x38f4612e	0.00011652928
70	0xbcc4d3ae	-0.024026718
71	0x3d4b9d88	0.04971078
72	0xbba57e50	-0.005050458
73	0x3d38c3af	0.045108493
74	0xbd697418	-0.05699548
75	0xbd2c74dd	-0.042103637
76	0xbc7ee379	-0.015557163
77	0xbbc05a92	-0.005870172
78	0x3cdbd6e9	0.026835876
79	0x3d3f517c	0.04670857
80	0x3c0cf3b6	0.008603027
81	0xbcaa95dd	-0.020823414
82	0x3db981e6	0.09057979
83	0x3d0343fa	0.03204725
84	0xbd5962e4	-0.053072825
85	0xbcaf7acd	-0.02142086
86	0x3da97d0f	0.08275806
87	0xbd7c6806	-0.061622642
88	0x3dac38c1	0.084092624
89	0x3dc7156d	0.097208835
90	0x3b5545ac	0.0032542748
91	0x3cd75963	0.02628774
92	0x3dc00c77	0.093773775
93	0xbd77d826	-0.06050887
94	0x3d8c099e	0.06837772
95	0x3bd45e42	0.006480963
96	0xbda2d928	-0.079515755
97	0x3cc95d64	0.024580665
98	0x3c9cb20d	0.01912787
99	0x3ce6a1b0	0.02815327
100	0xbca083f6	-0.019594174
101	0x3c463f40	0.012100041
102	0x3c877346	0.016534459
103	0x3d982288	0.07428461
104	0x3c0f769b	0.008756305
105	0x3cb39086	0.0219195
106	0x3dc91249	0.09817941
107	0x3c5e17ae	0.01355545
108	0xbd9ec577	-0.07752507
109	0x3da2a9de	0.07942556
110	0xbafd0d60	-0.0019306354
111	0x3ce6b22f	0.028161136
112	0x3da15c8e	0.078789815
113	0x3c744dd4	0.014911134
114	0xbc84745d	-0.016168768
115	0x3d1eead2	0.03879816
116	0xbb52d92d	-0.0032172904
117	0x3c8863ff	0.016649244
118	0xbcaf5a82	-0.021405462
119	0xbc0b93c0	-0.008519113
120	0xbd9ea303	-0.07745936
121	0xbceb0ed1	-0.028693588
122	0x3b14ad4f	0.0022686308
123	0xbd4a02a4	-0.049318925
124	0x3d179ee8	0.03701678
125	0x3cec1a2f	0.028821079
126	0x3d456f6d	0.048201967
127	0xbd0a6945	-0.0337918
128	0x3b46a9f3	0.00303137
129	0xbd4a49f0	-0.04938692
130	0x3d0f5904	0.034997
131	0xbd38fe17	-0.045164194
132	0x3c3cb6cb	0.011518191
133	0x3d8ddab4	0.0692648
134	0xbd3bc5a2	-0.045842774
135	0x3d26fe66	0.040769957
136	0x3dbb70cb	0.09152373
137	0x3dbcf7c8	0.09226948
138	0xbc709561	-0.014684052
139	0xbd24eede	-0.040266864
140	0x3d868a2f	0.06569325
141	0xbce7144b	-0.028207919
142	0x3aa62ee9	0.0012678775
143	0x3d3cfe1e	0.046140783
144	0xbd6e6748	-0.058203965
145	0xbd6cc53b	-0.05780528
146	0xbd3ea955	-0.046548206
147	0x3d2490c9	0.04017714
148	0x3bd3b3ce	0.0064606434
149	0xbd491bf8	-0.04909894
150	0xbcdeded9	-0.027205871
151	0x3cf0227d	0.02931332
152	0x3d37bbb8	0.044856757
153	0x3c2e26a1	0.010629327
154	0xbcb1f127	-0.021721436
155	0x3d75d5e4	0.060018435
156	0x3d33b858	0.043876976
157	0xbd21ec62	-0.039532073
158	0xbd689566	-0.056783102
159	0xbc6f1001	-0.014591218
160	0x3c09a0c2	0.008400144
161	0xbd1a5e12	-0.03768737
162	0x3ba9e9e1	0.0051853512
163	0xbd97c17b	-0.0740995
164	0xbc076ce0	-0.008265704
165	0x3d8b356e	0.067973
166	0xbca92fb9	-0.020652639
167	0xbd7ba270	-0.06143421
168	0x3d9a4385	0.075324096
169	0x3d1b5d4e	0.03793078
170	0xbd95dcc3	-0.073174976
171	0x3c2c4197	0.010513685
172	0x3d0c899d	0.034310926
173	0x3c2ff8ba	0.010740453
174	0xbd92e4fd	-0.07172582
175	0x3cb168d1	0.021656426
176	0xbdc01e71	-0.09380806
177	0xbda677f6	-0.081283495
178	0xbd968574	-0.07349673
179	0xbd21935b	-0.03944717
180	0xbbaff7ae	-0.005370102
181	0x3be96937	0.0071231383
182	0x3d4f8fdf	0.050674316
183	0xbc8cc16b	-0.017182073
184	0x3a451c58	0.0007519177
185	0x3c887e30	0.016661733
186	0xbd8aa05b	-0.06768867
187	0xbcd45093	-0.025917327
188	0x3d3e49a4	0.046456948
189	0xbd784efe	-0.060622208
190	0xbd9bae97	-0.0760166
191	0xbcf6445f	-0.030061899
192	0x3de29a26	0.11064558
193	0x3bf6bf13	0.007530102
194	0x3d0a92ab	0.03383128
195	0x3dc81b91	0.09770883
196	0xbd05e3bb	-0.032687884
197	0x3d853286	0.06503777
198	0x3d901a82	0.07036306
199	0xbd98296a	-0.07429774
200	0x3db047d8	0.08607453
201	0xbd3cc2e4	-0.0460843
202	0x3c32cb70	0.010912761
203	0x3d60b7d2	0.054862805
204	0xbc200408	-0.009766586
205	0xbb907c53	-0.004409352
206	0xbd8f6f64	-0.07003668
207	0x3c1766e6	0.0092408415
208	0x3b2d20bb	0.0026417214
209	0xbd1cba0b	-0.038263362
210	0xbd852529	-0.06501228
211	0x39356e1c	0.00017302524
212	0x3ca2e1ab	0.019882997
213	0xbd1d2bbe	-0.038371794
214	0xbcb0a42a	-0.021562655
215	0xbcccaf91	-0.02498606
216	0xbd9ad56b	-0.075602375
217	0x3cfced05	0.030874738
218	0xbd87be4d	-0.06628094
219	0xbcb794a5	-0.022409746
220	0xbd16b270	-0.036791265
221	0x3d41eea6	0.047346734
222	0x3cc6600f	0.024215726
223	0x3c12f44f	0.0089693805
224	0xbbaf012f	-0.0053407173
225	0x3cc31d97	0.02381782
226	0xbc399c9f	-0.011328845
227	0xbd6b5e67	-0.057463076
228	0x3ba9d51f	0.0051828767
229	0x3cf5edd0	0.030020624
230	0xbcb98454	-0.022646107
231	0x3da67432	0.08127631
232	0x3d4ae510	0.049534857
233	0xbd912898	-0.07087821
234	0x3db104f9	0.086435266
235	0xbda728a8	-0.081620514
236	0xbdbd50c2	-0.09243919
237	0x3da8038c	0.082038015
238	0xbd94a6c4	-0.072583705
239	0x3b890bb2	0.0041823024
240	0x3d4c8565	0.049931902
241	0xbd21aaef	-0.039469656
242	0x3c24e252	0.010063725
243	0x3d06687a	0.03281448
244	0xbd9d9b47	-0.076956324
245	0x3d812aef	0.06307017
246	0x3ccbdec5	0.024886498
247	0x3d54f20f	0.051988658
248	0xbd38a359	-0.045077655
249	0xbd08e7f7	-0.033424344
250	0x3d14a15f	0.036286708
251	0xbd04bf35	-0.03240891
252	0xbd484af4	-0.048899606
253	0x3bf90605	0.0075995945
254	0xbbd66f5d	-0.0065440373
255	0x3c2ad7a4	0.010427389

fc1.bias f4 [128]
0	0x3d609bc2	0.054836042
1	0x3c0d3eb5	0.008620908
2	0xbd3f862e	-0.046758823
3	0xbd82dcc7	-0.06389766
4	0x3d3f8b6d	0.046763826
5	0x3d10ee31	0.035383407
6	0xbd3940d5	-0.045227844
7	0x3d9a197b	0.07524391
8	0xbd35e938	-0.044411868
9	0x3cbd0e87	0.023078216
10	0x3d9080f0	0.07055843
11	0xbcd60095	-0.026123324
12	0x3c95f6c1	0.018306138
13	0xbcc3e679	-0.023913609
14	0xbc501dc9	-0.012702414
15	0xbd80431c	-0.062628
16	0x3da266c2	0.07929756
17	0x3d9d8cfe	0.07692908
18	0xbd842789	-0.06452853
19	0x3dc330ac	0.09530768
20	0x3deea8b4	0.11653271
21	0xbd691415	-0.056903917
22	0xbd35df73	-0.04440255
23	0xbd76f03d	-0.060287703
24	0x3ca3bdb0	0.019987911
25	0x3db5ea73	0.08882608
26	0x3ddf3923	0.1089957
27	0x3d81449e	0.06311916
28	0xbc4e9198	-0.012607954
29	0xbc9072f1	-0.017632933
30	0x3d9493f4	0.07254782
31	0xbd5625e7	-0.05228224
32	0xbd4fe67f	-0.050756928
33	0x3d6b5e33	0.057462882
34	0xbd038a3d	-0.032114256
35	0x3d192a53	0.03739388
36	0x3d5f6f27	0.054549363
37	0xbd351d2c	-0.044217274
38	0xbc05588d	-0.008138788
39	0xbc4628ae	-0.01209466
40	0x3d50e0ed	0.050995756
41	0x3d9e419e	0.07727359
42	0x3d50fa7d	0.051020134
43	0xbcf4cb58	-0.029882118
44	0xb9488a72	-0.00019125061
45	0x3c6ab03b	0.014324243
46	0x3cef931c	0.029244952
47	0x3dc82e3b	0.09774443
48	0x3cb7fcd5	0.022459427
49	0x3d624b38	0.055247515
50	0x3d5e4544	0.054265276
51	0x3dc101f6	0.09424202
52	0x3dc7c2cd	0.09753952
53	0xbd2066e6	-0.03916063
54	0x3c94d0df	0.018166004
55	0x3d6403ad	0.055667568
56	0x3be4e1ed	0.0069849403
57	0xbd8a50c6	-0.067536876
58	0xbc96212f	-0.01832637
59	0x3c903171	0.0176017
60	0x3ca4d065	0.020118902
61	0x3cfdc2c7	0.030976666
62	0x3c39d7f6	0.011342993
63	0x3d70eeb3	0.05882139
64	0x3d9ca89f	0.076493494
65	0x3d8b1d5c	0.06792709
66	0x3da2626b	0.07928928
67	0xbc0dcd44	-0.008654896
68	0xbca7e0cb	-0.020492932
69	0xbb7e71d8	-0.003882518
70	0x3d3576d3	0.044302773
71	0x3c3ec3d2	0.011643367
72	0xbd213fe0	-0.039367557
73	0xbcbce770	-0.023059577
74	0xbacf19df	-0.0015800557
75	0xbd41332f	-0.047167953
76	0xbca746cd	-0.020419503
77	0x3d6def3b	0.058089476
78	0xbcb16d1e	-0.021658476
79	0x3d1064da	0.03525243
80	0x3dd7def8	0.10540575
81	0x3c384a90	0.011248246
82	0x3d1ce53d	0.038304556
83	0xbd3e2653	-0.046423268
84	0x3d86c05e	0.0657966
85	0x3d830816	0.06398027
86	0xbcdcda4e	-0.026959565
87	0x3cb72bbc	0.022359721
88	0x3d9f8ea1	0.07790876
89	0x3ddb4107	0.10705762
90	0xbd487e4f	-0.048948582
91	0xbc51de7c	-0.012809392
92	0xbb1003e0	-0.0021974966
93	0xb9b76d04	-0.00034985703
94	0x3d9a5823	0.07536342
95	0xbceb153c	-0.028696649
96	0x3bf19875	0.0073729106
97	0xbc177879	-0.0092450315
98	0x3cf91d18	0.03040938
99	0x3d037275	0.032091577
100	0x3d8de116	0.06927697
101	0x3dc4d57d	0.09611032
102	0x3cdb1783	0.02674461
103	0x3d8cde76	0.068783686
104	0x3dbc86c8	0.09205395
105	0x3dc71b6f	0.097220294
106	0xbcfb71fe	-0.030694004
107	0x3d99b4d4	0.07505193
108	0x3d81d2f7	0.063390665
109	0xbc8817fc	-0.016613
110	0x3d83a343	0.06427624
111	0xbd2fd5a8	-0.042928368
112	0xbc7a9760	-0.01529488
113	0x3bec6d70	0.0072151944
114	0x3d815bc7	0.06316333
115	0xbc824967	-0.015904142
116	0x3d6f8298	0.058474153
117	0x3cb73ef8	0.022368893
118	0x3dcd2ead	0.10018668
119	0x3d6e0620	0.05811131
120	0xbd06096c	-0.03272383
121	0x3d964a9e	0.07338451
122	0x3bc30de5	0.005952584
123	0x3c88f7fc	0.01671981
124	0xbd6de666	-0.058081053
125	0x3d89e130	0.06732404
126	0x3d8d0aa9	0.06886799
127	0x3d907d6d	0.07055173

fc2.weight f4 [64, 128]
0	0x3db1f25b	0.08688804
1	0xbcd134f8	-0.025537953
2	0xbd0a7e61	-0.03381193
3	0x3d68d852	0.056846924
4	0xbd0bb5ae	-0.03410881
5	0xbca2b798	-0.019862935
6	0xbda57a42	-0.080799595
7	0x3d4d9a26	0.050195836
8	0x3bba1f70	0.005680017
9	0xbbbabdd0	-0.005698897
10	0x3d5c0eee	0.053725176
11	0xbdb090b2	-0.086213484
12	0xbce264c4	-0.02763594
13	0x3d519daa	0.05117575
14	0xbc8ff524	-0.017572947
15	0x3d2fef5a	0.042952873
16	0xbd5a2c3e	-0.05326485
17	0x3bdbacf0	0.0067039654
18	0x3cb54590	0.022127897
19	0xbd2f5f6f	-0.042815622
20	0xbdaa6696	-0.08320348
21	0x3d5840d2	0.052796192
22	0xbcddbe0c	-0.02706816
23	0x3d97a331	0.07404173
24	0xbdb3fc0e	-0.0878831
25	0xbd2619cf	-0.040551957
26	0x3d1b3772	0.037894674
27	0xbd884664	-0.06654051
28	0x3c747980	0.014921546
29	0xbd39be39	-0.045347426
30	0xbc77efd8	-0.015132867
31	0xbc31f3d8	-0.01086136
32	0xbd44746d	-0.047962595
33	0x3ba9a690	0.0051773265
34	0xbdb2345c	-0.08701393
35	0xbd2b9a97	-0.041895475
36	0xbac9e200	-0.0015402436
37	0x3db172ad	0.08664451
38	0x3d422da2	0.0474068
39	0xbb0ec1e0	-0.002178304
40	0xbd9b3492	-0.07578386
41	0xbd58118f	-0.05275112
42	0x3d89868d	0.06715117
43	0x3d4e223e	0.050325625
44	0x3c63ae30	0.01389651
45	0x3bbfc0b0	0.0058518276
46	0xbd91d7d7	-0.07121246
47	0xbd7e5752	-0.062094994
48	0xbd8ec4e4	-0.06971148
49	0x3d8267cd	0.06367455
50	0xbda596d7	-0.08085411
51	0xbda171cd	-0.07883034
52	0x3d6884ee	0.056767397
53	0xbcd15858	-0.02555482
54	0x3d8224bb	0.06354662
55	0xbca62a38	-0.020283803
56	0xbb975330	-0.004618071
57	0xbc7aef28	-0.015315808
58	0x3d02e252	0.031954117
59	0x3d83f41d	0.06443045
60	0xbd20d09b	-0.03926144
61	0xbcdcb152	-0.026940022
62	0x3da91aab	0.0825704
63	0x3cd4de84	0.02598501
64	0xbd16a6b0	-0.03678006
65	0xbc83fec8	-0.0161127
66	0xbcbe80b8	-0.023254737
67	0x3d577d36	0.052609645
68	0xbdabdef6	-0.08392136
69	0xbd8dc3bc	-0.06922099
70	0xbd9e6a00	-0.07735062
71	0x3d1c6692	0.038183756
72	0xbd95b9fe	-0.07310866
73	0x3cb85d80	0.022505522
74	0x3d9bfe39	0.076168485
75	0x3d96dac7	0.07365947
76	0xbd6d107a	-0.05787704
77	0xbd878b1e	-0.066183314
78	0xbd5f27e3	-0.0544814
79	0x3cd0cdd4	0.025488771
80	0x3d9128f9	0.07087893
81	0xbdb0e7cf	-0.08637964
82	0xbd5a87bf	-0.053352114
83	0xbd998b8d	-0.0749732
84	0xbd8fd9a5	-0.07023934
85	0x3d6dd002	0.0580597
86	0x3c5bab68	0.013407566
87	0x3d476696	0.048681818
88	0xbd9679f6	-0.07347481
89	0xbd86b4cd	-0.06577454
90	0xbdaee2f1	-0.085393794
91	0x3cf094a0	0.029367745
92	0x3d7f27ca	0.062293805
93	0xbc874130	-0.016510576
94	0xbd245f0d	-0.04012971
95	0xbca1b920	-0.019741595
96	0x3d7edb8a	0.062221088
97	0xbdabc343	-0.083868526
98	0xbd1a6e49	-0.037702832
99	0x3d888c73	0.066674136
100	0xbd57b3b1	-0.0526616
101	0x3cfecdfc	0.03110408
102	0xbd7ee20e	-0.0622273
103	0x3cf06758	0.029346153
104	0x3d94d6cb	0.07267531
105	0x3d63c462	0.055607207
106	0xbd60ed7c	-0.054913983
107	0x3d4b1956	0.04958471
108	0xbb46e420	-0.0030348375
109	0xbd8303e6	-0.06397228
110	0xbb7c1b60	-0.0038468465
111	0x3d645616	0.05574616
112	0x3c7fd948	0.015615769
113	0xbcc7dcd0	-0.024397284
114	0x3c243a38	0.010023646
115	0x3c7a4958	0.015276276
116	0xbd1cd0ce	-0.03828507
117	0x3d454ec6	0.048170827
118	0xbc84ad74	-0.01619599
119	0x3d85a883	0.06526282
120	0x3d561ece	0.05227547
121	0x3dae8ad9	0.08522577
122	0x3d62a506	0.05533316
123	0xbd914066	-0.07092361
124	0xbc85f808	-0.016353622
125	0x3d316492	0.043308802
126	0xbc1fb1c8	-0.009746976
127	0xbbf68ef0	-0.0075243637
128	0x3da492c2	0.08035804
129	0xbc1bb625	-0.009503876
130	0x3dcbc243	0.09949162
131	0x3d8000c5	0.06250147
132	0x3d88819c	0.06665346
133	0x3c94a5b6	0.018145423
134	0x3da45792	0.08024515
135	0xbde77afc	-0.11302754
136	0x3d326ef7	0.043562856
137	0xbd63857f	-0.055547234
138	0xbd5f609f	-0.054535504
139	0xbcb08c83	-0.021551376
140	0xbd46e942	-0.048562296
141	0xbabc9f64	-0.0014390764
142	0xbc70fce1	-0.0147087285
143	0x3d0318e5	0.032006163
144	0xbdcd2293	-0.1001636
145	0xbd6e8378	-0.058230847
146	0x3d306b8d	0.04307132
147	0xbcf9b0a4	-0.030479737
148	0x3c3fcea1	0.011706979
149	0xbd927837	-0.071518354
150	0x3cbc3cc0	0.022978187
151	0xbd2ebe0c	-0.04266171
152	0x3d75f456	0.06004747
153	0x3cb89de2	0.022536222
154	0xbdd095b3	-0.10184803
155	0xbd9b4686	-0.07581811
156	0x3db0b1d4	0.08627668
157	0x3dec3fa8	0.11535579
158	0x3d88acbd	0.06673572
159	0xbd8a7733	-0.06761017
160	0x3cc91cc4	0.02454985
161	0xbd947528	-0.07248908
162	0x3dec8ac4	0.11549905
163	0xbdabd001	-0.08389283
164	0x3d9ac875	0.075577654
165	0xbc3e2d02	-0.01160741
166	0xbc96de37	-0.018416507
167	0x3d9f3daa	0.07775433
168	0xbd361514	-0.044453695
169	0xbdcbb51e	-0.09946655
170	0x3bfb43db	0.007668001
171	0x3d785bf5	0.060634572
172	0x3c604f91	0.013690845
173	0xbcc4b9be	-0.02401435
174	0x3d0c4190	0.034242213
175	0x3d1768f3	0.03696532
176	0x3ddcbff2	0.10778798
177	0x3da64908	0.08119398
178	0x3d6df208	0.058092147
179	0x3d7b9fe9	0.0614318
180	0x3d853857	0.065048866
181	0xbd0264c8	-0.031834394
182	0x3db322cd	0.08746872
183	0xbdcb6d0a	-0.09932907
184	0xbd0adf23	-0.033904206
185	0x3d274dae	0.040845565
186	0xbd113d71	-0.035458986
187	0xbd004845	-0.03131892
188	0xbdd39db1	-0.103328116
189	0xbab8bed5	-0.0014094958
190	0x3dbf9ed4	0.09356466
191	0x3dc40ef7	0.09573167
192	0x3cc8030b	0.024415514
193	0xbd68fe94	-0.05688341
194	0xbd9d2bc8	-0.07674366
195	0xbd8d08ac	-0.0688642
196	0x3d8a6702	0.067579284
197	0xbd368bb2	-0.044566818
198	0x3c81947f	0.015817879
199	0xbdb579de	-0.08861135
200	0x3cdc860e	0.026919391
201	0x3d04f731	0.032462303
202	0x3dc2f620	0.09519601
203	0x3c21e1b0	0.009880468
204	0x3c7300f0	0.0148317665
205	0xbcd6d6c7	-0.02622546
206	0xbd6682f1	-0.05627722
207	0x3d8dcbde	0.0692365
208	0x3b513cce	0.0031927112
209	0xbcf49454	-0.029855885
210	0x3cbf07e4	0.023319192
211	0xbd89d997	-0.06730955
212	0x3b3b476f	0.0028576513
213	0x3cdfeb42	0.02733386
214	0xbcc328bc	-0.023823135
215	0x3d347842	0.04406
216	0xbda282bb	-0.07935091
217	0xbc5d0c5f	-0.013491719
218	0xbd24461e	-0.04010593
219	0x3d0cd521	0.034382943
220	0xbd5e10ad	-0.054215122
221	0xbccc7647	-0.024958743
222	0x3ca2ad99	0.019858168
223	0x3da17b7f	0.07884883
224	0x3dbd184e	0.092331514
225	0xbdd09e72	-0.10186471
226	0xbc48631c	-0.012230661
227	0xbc1930e7	-0.009350038
228	0x3d9c5257	0.076328926
229	0xbd57e06b	-0.052704256
230	0x3d787f4c	0.060668275
231	0xbd43af08	-0.047774345
232	0x3d08962f	0.03334635
233	0x3cb02587	0.02150227
234	0x3d9c8573	0.07642641
235	0xbd15c76e	-0.036567144
236	0x3d6b01ef	0.05737489
237	0x3cf57c81	0.029966595
238	0xbd64149d	-0.05568372
239	0x3cbb4f2c	0.0228649
240	0xbca3d3df	-0.019998489
241	0x3cfdeb8e	0.03099611
242	0x3d28d14a	0.04121522
243	0x3866bc04	5.5011376e-05
244	0xbd8b76ff	-0.06809806
245	0x3a9b9ff6	0.0011873234
246	0x3d730518	0.05933103
247	0x3d4dbf0f	0.050231036
248	0xbc1bff8d	-0.009521377
249	0x3da436fc	0.080183
250	0xbd0feb8a	-0.035136737
251	0x3deddb10	0.116140485
252	0xbb94bfc5	-0.0045394623
253	0x3da9686a	0.082718685
254	0x3d7e520c	0.062089965
255	0xbc94edf3	-0.01817987

fc2.bias f4 [64]
0	0xbd9e16b6	-0.077191755
1	0x3d82d08a	0.06387432
2	0xbd8b2b67	-0.06795388
3	0x3b03a2bf	0.0020086018
4	0xbd273bde	-0.04082858
5	0x3d40ff14	0.04711826
6	0x3d43e555	0.04782613
7	0x3bc95a7f	0.006144821
8	0xbd725a3b	-0.05916808
9	0x3caf8610	0.02142623
10	0x3d833b7f	0.06407832
11	0xbdaf32f1	-0.08554638
12	0x3da8ced6	0.08242576
13	0xbd170fb2	-0.036880203
14	0x3d453e8e	0.04815536
15	0x3d6a5d2c	0.057217762
16	0x3d93a4ec	0.07209191
17	0xbd290eef	-0.041274007
18	0x3d0d7c69	0.034542475
19	0x3d0782d1	0.03308374
20	0xbd903655	-0.07041613
21	0x3c870efc	0.016486637
22	0xbc27ccd4	-0.010241706
23	0x3d9a2b22	0.07527758
24	0x3d764b04	0.060130134
25	0x3d06d109	0.032914195
26	0x3d51a98a	0.051187076
27	0xbcff8d37	-0.031195266
28	0x3c8b3a8e	0.016995694
29	0xbc84eb60	-0.016225517
30	0x3d90f43d	0.07077835
31	0xbd9c9fa3	-0.07647636
32	0x3d52fc12	0.051509924
33	0x3d4e26c4	0.05032994
34	0x3bb7a03f	0.0056038196
35	0x3d90c923	0.07069614
36	0x3d147144	0.03624083
37	0x3d9939b7	0.07481711
38	0xbdab56bf	-0.08366155
39	0x3cf5fede	0.030028757
40	0x3cfb5adb	0.030682972
41	0x3d396f18	0.045271963
42	0xbd0b2afe	-0.033976547
43	0x3d99e111	0.07513631
44	0x3d68232c	0.056674168
45	0x3c214bcb	0.009844731
46	0x3cee939b	0.029123118
47	0x3d94d665	0.07267455
48	0x3db3efe2	0.087859884
49	0xbdb2b58e	-0.08726035
50	0x3d7bb13a	0.061448313
51	0xbd7da67f	-0.06192636
52	0xbd21a8f0	-0.039467752
53	0xbd66f9fa	-0.05639074
54	0xbd347969	-0.0440611
55	0xbda5c93f	-0.08095025
56	0x3ce8eec9	0.028434174
57	0x3c920f18	0.017829463
58	0xbd9985a0	-0.0749619
59	0xbd1756e0	-0.036948085
60	0x3b062811	0.0020470659
61	0x3cda3a01	0.026638987
62	0xbc1316cc	-0.008977603
63	0xbd11e816	-0.035621725
