logs/mappo_checkpoint_ep150.pth (torch, 451986 bytes, 28 tensors)

fc1.weight f4 [128, 147]
00000000: fc8e a2bc 4939 a83d 3cdf 90bd a0f1 1c3d
00000010: 5270 1e3d 9e96 693a 1cd2 2a3b 48e1 2ebd
00000020: 1215 51bd 34c3 6a3d 3a2f d9bc e431 953d
00000030: 3270 a93d 6cca 373d 749c 603d f117 1fbd
00000040: 6362 713d 68fb 8fbd 12c7 79bd 7557 f73c
00000050: 27b0 a53d a889 e13c ea20 b13d 14ce 5dbd
00000060: a8f5 5a3c 5f7a 56bc 3811 0a3d 9743 02bd
00000070: a011 8b3d c34a 823d bd50 a0bd 5ab6 c4bc
00000080: b8a8 af3a c28c 2c3d 833d a3bc b766 6cbd
00000090: 21e7 90bd 7307 9ebd 3b92 593d 52ac e1bc
000000a0: 1cf1 843b c458 1d3d 933c 3eba 150a 9f3d
000000b0: 9f06 04bd 436f 81bd f136 993c 1da6 583d
000000c0: 2911 023d 308b ce3c ac1a 293c 3e49 cfbc
000000d0: 9ab8 babc 6ee8 37bd 80a6 20bd cc55 a1bd
000000e0: 0f6c 353d a7a2 8bbd ab9a eb3c 5d5e 6c3d
000000f0: 5612 51bc ca3c c7bc 7d1e c13d 2095 be3c
00000100: 3ec9 a43d b2e8 333d 3daa 96bd 8c7d 52bc
00000110: c4e4 89bc b31a 563d 87d0 b13d eea6 29bd
00000120: 2f14 e5bc 6254 78bc 60a6 4bbc adcb 663d
00000130: b617 9bbb b217 2fbd 1afa 73bd a2e6 f53c
00000140: aead 483c fd9b d4bc 06f5 8f3c fdea 03bd
00000150: ecef 68bc 2d02 b03d c4ae 52bd d340 5bbd
00000160: f3c7 643d d702 88bd fdeb eabc 7c1d 99bc
00000170: ead8 b7bb 4ffa 35bc 8a03 04bd 77c2 85bd
00000180: 112c 153c 21d5 7f3d a29d 903c 7d78 85bc
00000190: 97a9 af3d d47d 343d 70e2 393d 0425 7abd
000001a0: c0e0 5d3d d764 93bc a51a b23d 1662 42bd
000001b0: bc69 30bd 8b9e 5b3c 976e 5e3d df60 42bc
000001c0: 6d39 19bd 7ff2 da3b 8e89 523d 29d8 273d
000001d0: fb3e 4d3d 0b92 bf3c 6a41 4abc 0fae 183d
000001e0: bc3c 8c3d cdb7 a93d da9c 5f3d cd24 85bd
000001f0: 18cf ccba 5e70 563d 5908 83bb bc86 0dbd
00000200: f63e 43bd 86f9 de3c 67f0 86bd ce6c 67bd
00000210: ce2f 04bd 80dd 463d e93b 71bd 3127 b53b
00000220: ddb2 59bd 70c6 ebbc 5d4a 78bd 5cdb e6bc
00000230: d100 633d 2290 a23d 34d5 6dbd f127 1c3c
00000240: 7e8b 7abd cfc1 9dbc a034 b33d f280 28bd
00000250: 78e2 1bbd 6189 a53d 3311 0a3d a1d6 9ebd
00000260: 78e9 96bd bbb2 d73c 9b13 aabc 79da fe3c
00000270: d427 87bd fbf8 923d 347e 753c 7cb4 db3b
00000280: e578 9e3d 56b6 84bd 19df ae3d 54d4 1ebd
00000290: 407f fa3b 03c8 603d 5d2b a33d 78ce 4f3c
000002a0: 6b1f 31bc eb6b a73d 788d 683d 03a7 903d
000002b0: d040 913d c5ad 20bd 0334 883d e1d2 643c
000002c0: 10d4 673d cea5 5b3d e611 af3c be7c a53d
000002d0: 9863 2abd 8481 9ebd 6b8c dbba f9f1 943d
000002e0: c3ae a53d 94db 443d bff5 b23c e890 6bbd
000002f0: e740 793d 97e9 0d3d d1d6 42bd 1267 5b3b
00000300: f875 63bd fc6a 9b3d 5c70 99bd 5080 6bbd
00000310: 569e 0fbd 1280 a13d 186a 483d 4bc8 abbc
00000320: c16e b4bc 2eca 8d3b eb5a 90bd e9a3 6ebc
00000330: c617 03bd 60fa 39bd 23a9 803d a0a6 78bd
00000340: c176 8d3c 35aa 90bd 4a35 5abd 97fa 853b
00000350: 3003 523c c98d 20bd 245b 243d 50f6 803d
00000360: 74f6 1abc 5632 68bd 423e ffbc e533 633d
00000370: f31e 68bd 65de 1fbc 40f1 7a3d ea04 a13d
00000380: 3132 803d 16c2 5dbd d2cc babc c281 733c
00000390: 7cc3 6c3d e551 803d 605c b2ba 5e7c 51bd
000003a0: 51c9 a63d ac18 683d 12aa a0bd b6c6 183d
000003b0: d2c5 9a3d 804b 87bd d666 16bd 921f 903d
000003c0: 5fcf 4fbd 7940 b8bc b980 9e3d bc46 933d
000003d0: 0ace 83bd d2a0 ff3c 4cd6 323c ec74 f9bb
000003e0: 9f8d a73d 3631 6e3d 1b87 fa3c abf3 34bd
000003f0: f41f 303c af01 a93d 8f7c 5ebd 0fce 8a3d
-0.01984357 0.08214051 -0.070738286 0.03831637 0.038681336 0.00089106883 0.0026065176 -0.042695314
-0.051045485 0.057315066 -0.026511777 0.072849065 0.08273353 0.04487078 0.054836705 -0.03884119
0.05893172 -0.07030374 -0.060980864 0.03019307 0.08090239 0.02753146 0.08648856 -0.05415161
0.013364233 -0.013090699 0.033707827 -0.03180274 0.06790471 0.06361916 -0.078278996 -0.024012733
0.0013401723 0.042126425 -0.019926792 -0.057715144 -0.07075334 -0.077162646 0.053117972 -0.027547989
0.004057063 0.03841473 -0.0007256951 0.07765595 -0.032232877 -0.063200496 0.018702956 0.052892793
0.031754646 0.025212854 0.0103213005 -0.02530348 -0.022793103 -0.044899397 -0.039221287 -0.078776926
0.044292506 -0.06818133 0.028760275 0.05770718 -0.012760719 -0.024320979 0.09429643 0.023264468
0.080461964 0.043923087 -0.07356689 -0.0128473155 -0.016832717 0.052271556 0.086823516 -0.041418962
-0.027963726 -0.015156837 -0.012429804 0.056346584 -0.004733051 -0.042747207 -0.059564687 0.0300172
0.01224844 -0.025953287 0.017572891 -0.032206524 -0.014217358 0.08594165 -0.0514362 -0.053528618
0.05585475 -0.06641167 -0.028676981 -0.018690817 -0.005610575 -0.0111070415 -0.032229938 -0.06531232
0.0091047445 0.062459115 0.01765329 -0.016292805 0.085772686 0.04406531 0.045381963 -0.061070457
0.054169416 -0.01799242 0.08696488 -0.047456823 -0.043069586 0.013404499 0.054304685 -0.011863916
-0.03740828 0.00668174 0.051400714 0.04097763 0.05010889 0.023385068 -0.0123446975 0.03727537
0.06847522 0.0828701 0.054592945 -0.0650116 -0.0015625684 0.052353255 -0.003998798 -0.03455232
-0.047667466 0.027218591 -0.06588822 -0.05650025 -0.032272153 0.048551083 -0.058895025 0.0055283536
-0.053149093 -0.028781146 -0.060617793 -0.02818077 0.0554207 0.079376474 -0.058064654 0.009531007
-0.061168186 -0.019257454 0.08750272 -0.041138597 -0.038057774 0.080828436 0.03370781 -0.07755781
-0.073687494 0.026330343 -0.020761302 0.031110035 -0.065993935 0.071763955 0.014983702 0.006704865
0.077379026 -0.0648009 0.08538646 -0.03877671 0.007644564 0.054878246 0.07967255 0.012683503
-0.010810713 0.081748806 0.05677554 0.07063105 0.0709244 -0.03922822 0.066505454 0.013966293
0.056598723 0.05362492 0.02137084 0.08080433 -0.041598886 -0.07739547 -0.0016750222 0.07272715
0.08089974 0.04806097 0.021845696 -0.05751124 0.06085291 0.034646597 -0.047568146 0.0033478183
-0.055532426 0.07588765 -0.07492134 -0.057495415 -0.03506311 0.078857556 0.048929304 -0.02096953
-0.022025468 0.00432708 -0.07048591 -0.014565446 -0.032005094 -0.04540479 0.0628226 -0.06070578
0.01726854 -0.070637144 -0.053273477 0.0040887105 0.012818143 -0.039197717 0.04012598 0.062969804
-0.009458173 -0.05668863 -0.031157617 0.055469412 -0.05667014 -0.009757613 0.06126523 0.078622654
0.06259573 -0.054140173 -0.022802744 0.01486248 0.057803616 0.0626562 -0.0013607852 -0.051143996
0.08143867 0.056664154 -0.07844938 0.03729888 0.075572625 -0.06606197 -0.036719166 0.070372716
-0.050734874 -0.02249168 0.07739396 0.07191226 -0.06435783 0.031204615 0.01091535 -0.007612815
0.08181309 0.0581524 0.030582001 -0.044177692 0.010749806 0.08252274 -0.054318007 0.06777584

fc1.bias f4 [128]
00000000: 2279 27bd 9d77 c73d 519b 8abd 59b0 0e3d
00000010: b720 093b ecc3 c1bc e66d 1dbc 3533 6f3c
00000020: 73ab 823d 2ee8 253b 1079 933d 8059 bd3d
00000030: b34b 11bd ceeb dd3d 687c 883d 7e54 e5bc
00000040: e732 a83b bee3 12bd 40e2 0a3d 481c 8bbd
00000050: 5482 113d 32b4 3dbd 9f53 10bc 1969 b8bb
00000060: ad4d 76bd 2b71 5f3d 7dde 803d d9a9 1d39
00000070: 7b95 8fbd 5a31 3f3d 4c2e 70bd bf2e 3d3d
00000080: 3977 b23d 3b98 e43d 8d39 34bd 1998 bd3c
00000090: 0600 b23b 392f fb3c 1c86 eebc d96f 3cbd
000000a0: 29d4 dd3c b038 c63d de8c d73c 6d64 92bd
000000b0: be14 51bd 5488 dc3d c35c a93c e9c1 0e3d
000000c0: 930d 8bbc 7d5d 3abd de70 d0bb deae 88bd
000000d0: 6e7d b03d 3a91 5ebd 93e9 463d 7357 a03c
000000e0: 1a98 533d 0f10 e53b 826e 1d3d f242 5a3c
000000f0: 6463 b03c 935c 1a3d f8ae 24bd 29e0 3ebd
00000100: e6e8 9b3d 4da0 9b3d 7bc1 953d 2568 b33c
00000110: 0fbc f2bb 2e0c 21bd 1d61 473d e8ab c4bc
00000120: 3d45 a83d d956 97bd 9642 7bbd 2dac f73b
00000130: e4f8 0abc 2502 ce3c d8a8 aa3c e498 d4bc
00000140: 0b3b ab3d 1561 7c3d 966e 933d e8fa c83d
00000150: 740b 293d 59c2 d03d 749f 253d 014a 853d
00000160: f912 8bbc bd95 693d 76ad 943d ff51 b23d
00000170: a85c 8d3d 435a 693d 61e0 bc3c bf6d 6d3b
00000180: 3c69 bd3b c092 373d e34f ea3d 661d f6bb
00000190: 3c4d 8f3d 423f b03d 1969 d03d 6988 af3d
000001a0: 7605 343d cb62 093d b057 6b3c 6166 4c3d
000001b0: 717b de3d f819 9e3d 88db 82bd 02a7 a93d
000001c0: 3c13 af3d 6e4c 28bd ccf2 be3c 51c9 c9bc
000001d0: d536 253c cb11 a33d 8a6f a53c 6755 953d
000001e0: 2cb2 18bd 4715 f5bb 27db 7cbd ec28 543d
000001f0: b42b d4bc 5c19 af3b 3ced 37bd 0468 9c3d
-0.040887006 0.09739611 -0.067679055 0.034836147 0.002092404 -0.023652993 -0.009608721 0.014599611
0.063803576 0.0025315392 0.07200825 0.092455864 -0.035472583 0.10835992 0.066643536 -0.02799439
0.005133021 -0.035861723 0.033907175 -0.067925036 0.03552468 -0.046314426 -0.008808999 -0.005627763
-0.06013267 0.054551285 0.06292436 0.0001503596 -0.07010933 0.046677925 -0.058637902 0.04618716
0.08714146 0.11161848 -0.044000197 0.023143815 0.0054321317 0.030662166 -0.029116683 -0.046005104
0.027078705 0.09678781 0.026312288 -0.07148061 -0.051045172 0.1076819 0.020674115 0.034852896
-0.016974246 -0.045499314 -0.006361111 -0.06673978 0.08617674 -0.054337718 0.048562597 0.019572949
0.051658727 0.0069904397 0.038435467 0.013321625 0.021531768 0.037685942 -0.040205926 -0.046600495
0.07612781 0.07598934 0.07312294 0.021900246 -0.0074076722 -0.039318256 0.0486766 -0.024007753
0.08216331 -0.07389612 -0.0613428 0.0075583667 -0.008482192 0.025147507 0.020832464 -0.02595181
0.08360871 0.061616022 0.07198827 0.098134816 0.04127069 0.10193319 0.04043527 0.06508256
-0.01697682 0.057027567 0.072596475 0.08707046 0.069024384 0.056970846 0.023056211 0.0036228744
0.005780367 0.044817686 0.114410184 -0.007510829 0.06997153 0.086058155 0.10176296 0.0857094
0.04395052 0.033541482 0.014364168 0.049902324 0.10863388 0.07719797 -0.063895285 0.08283807
0.085485905 -0.041088514 0.023309134 -0.024632128 0.010083874 0.07962378 0.020194788 0.0729168
-0.037279293 -0.007479343 -0.061732437 0.05179684 -0.025899746 0.0053435992 -0.04490398 0.07637027

fc2.weight f4 [64, 128]
00000000: f368 0ebb 67d8 d13c 4fc8 9a3c 3bbb 983d
00000010: 9174 60bd 983d ae3d f28a a13d 329a 4a3c
00000020: cff9 c83b 0e9f 4b3c 0b2b 3ebc d755 8a3b
00000030: 2064 1cbd 0938 a33d 46d3 95bd 1877 a6bc
00000040: e4e7 043d 4b69 b1bd 1b8a 7d3c da25 b73b
00000050: 4a17 523d ef06 173c 22eb 163d b12b 4d3d
00000060: acf2 7d3d 83af 503d b93a d03c af26 893d
00000070: cf23 02bd 2b65 433d eb70 803d a84c b93c
00000080: 388f 933c 47c8 8f3c 450c 373a 6fe6 d6bd
00000090: 41bf 333d a644 bfbc 8c59 143d be95 183a
000000a0: c137 98bc 0108 4d3d a94b 4b3d 0800 19bd
000000b0: 7ed8 acbd 3ca9 5e3d dfdd b43d 8c2d 843c
000000c0: 56db 9e3c d937 773d a220 a5bc ae94 b2bd
000000d0: a0ba 9ebc 6ba5 0bbc f1d1 32bd 5210 7f3c
000000e0: 4ddf 253c 0caa e43c d178 e23a c008 66bc
000000f0: 8d1c 8a3d 4286 8b3d 1feb c8bc d752 1a3c
00000100: 4f4f a4bd 4177 143d ccfb 913d ce06 edbc
00000110: 645a 573d 603c b1bd f683 473d 2eec 1c3d
00000120: 3c09 4bbd 2638 2c3c 3c9c 93bd 755c 13bc
00000130: 144b c6bd 3aaa 223d 56a4 1e3d f31b d7bd
00000140: 48c7 30bd 8418 9dbb 9027 483d cf1c c1bd
00000150: d212 a4bd c86a 8abd d90b 9b3d 8e3e 85bb
00000160: 4e0b 22bd c948 7b3b eac6 40bd 7b80 0b3d
00000170: 0443 b1bb a858 8fbd 8006 363d c4e0 5fbc
00000180: 8865 99bb 9757 303c 85db 133c 2217 d53d
00000190: 5db3 d0bd 33c8 09bc b1be 213d 7cc5 b2bc
000001a0: 6735 8f3d c782 5bbd 264d ae3d 5505 a0bc
000001b0: d6d2 efbb c496 bcbd f3b6 e3bb dd91 94bd
000001c0: 5578 41bd 429a 65bd 9a80 14bd 7b84 4abb
000001d0: d90c 5b3c 446f e0bc 623f d73b c6a3 52bc
000001e0: 468b bbbc 45d9 cb3c 55d0 85bd c93e 8dbd
000001f0: 1667 09bd 328d e0bd 7319 a5bd e6fb a2bc
00000200: e22e d2bb c2ea be3c 5dc2 823d 1041 3f3d
00000210: d876 8dbd 3924 833b f76c e73c 4c71 3dbd
00000220: bd35 2ebd d851 cfbc f183 873d 6490 23bd
00000230: ed13 c23c 1dd6 133c b3bf b53d dfda 4d3d
00000240: ecf4 82bd e047 76bd eade 1a3d 132c 723c
00000250: a7f8 203b 8cda 0abd 8995 b23d d303 883d
00000260: 0480 6b3d 9d38 ae3d 02f6 4f3d 26f7 d93d
00000270: b5ba 2abd 2ae2 8abd 3e54 493d 1a7e 7dbd
00000280: 3b69 acbd 669b 9abd ddb3 8f3d 6640 fcbc
00000290: 95d0 343d ee76 e3bc 1165 ed3c df71 1c3d
000002a0: 6968 b5bb 9a67 2ebb 7e6f 9bbd b105 8c3d
000002b0: 6378 11bd 097f 87bd 1d76 a93c 7a72 5fbc
000002c0: 80d2 12bc 5b1d 63bb d20a e6bb a0e2 8f3d
000002d0: 3303 50ba a061 5fbd 7f1f 863d b949 4d3d
000002e0: 2247 f43c 3687 23bd a218 bfbd 6803 d03d
000002f0: 37dd 74bd a9e9 9b3d d444 48bd 307b 3f3c
00000300: 0344 84bc ac3d 39bd 18ff 763d d1a0 be3d
00000310: 76ff 113d 90d2 343d 4962 3d3d 4331 b73d
00000320: 0409 8dbd 20c3 a23d c80e 333c 793e 44bd
00000330: 34e4 e83d 6f92 68bd 4eb8 9a3d 1179 e73d
00000340: c99a 193d 6dd9 cc3d 6faa 65bd d154 2ebb
00000350: ea6f cabc cd84 6e3c aa7f 2dbd 1561 c8bb
00000360: b970 47bd 39a9 0e3d 16cb 463d 498e 76bd
00000370: e3b9 7cbd 3609 f23c 2336 5e3d 277f 893d
00000380: f03f 5bbd cdd1 aa3c d4e9 873d 1848 a9bd
00000390: 7cef ac3d aac5 e73c 627a 7fbb e68d 693d
000003a0: 12b8 1dbd ce94 29bc dc8a 403b 916c bb3d
000003b0: a895 f63b 1a55 d13c e8ae 563d 162e adbb
000003c0: d04b 27bd 368f 8ebd f8e1 cabc 558a a13d
000003d0: 78a2 983d 79f3 45bd 4295 683d 2815 53bd
000003e0: dd84 10bd f07d c83d bf7d 4e3d 58bd be3d
000003f0: e50b 1f3d 99d8 ffbc 354d 24bd 715e 07bc
-0.0021730035 0.025615884 0.018894343 0.074575864 -0.054798666 0.08507842 0.0788783 0.012365865
0.006133295 0.012428058 -0.011606942 0.0042216587 -0.038181424 0.07969672 -0.07315688 -0.02032046
0.03244771 -0.08662661 0.015474821 0.005589229 0.05129174 0.009217962 0.036845334 0.050090495
0.061999008 0.05094863 0.025418626 0.066968314 -0.03177243 0.047703903 0.062715374 0.02261956
0.018012628 0.017551554 0.00069827243 -0.104931705 0.043883566 -0.023348164 0.03621821 0.0005820653
-0.018581273 0.05005646 0.049632702 -0.037353545 -0.0843973 0.054360613 0.08831381 0.016135
0.019391697 0.060355995 -0.020157162 -0.08719765 -0.0193761 -0.008523325 -0.043657247 0.015567856
0.01012404 0.027913116 0.0017278438 -0.014040172 0.06743727 0.06812717 -0.024526177 0.009419165
-0.080229394 0.036246542 0.071281046 -0.028933909 0.052576438 -0.08654094 0.048709832 0.038311176
-0.049569353 0.010511434 -0.07207534 -0.008994211 -0.09682289 0.039713122 0.03873094 -0.10503378
-0.0431588 -0.0047941823 0.048865855 -0.09429323 -0.08011402 -0.06758648 0.07570619 -0.004066295
-0.039561562 0.0038342944 -0.0470647 0.034058075 -0.0054096 -0.06999332 0.044439793 -0.013664428
-0.004681293 0.010763071 0.0090245055 0.10404803 -0.10190461 -0.008409548 0.039488498 -0.021822684
0.069926076 -0.053591516 0.08510809 -0.019533793 -0.007318835 -0.09208444 -0.0069492995 -0.07254384
-0.0472339 -0.056055315 -0.036255457 -0.0030901718 0.013369762 -0.027396806 0.006568835 -0.012856429
-0.02289356 0.024883876 -0.06533877 -0.06896741 -0.033545576 -0.10964431 -0.08061495 -0.019895505
-0.0064142803 0.0233053 0.06384728 0.046692908 -0.06907433 0.004002121 0.0282502 -0.046250626
-0.042531718 -0.02530758 0.06616963 -0.039932624 0.023691142 0.009023217 0.08874454 0.05025756
-0.063943714 -0.06012714 0.037810244 0.014781016 0.002456227 -0.03389983 0.08719928 0.066413544
0.057495132 0.08506892 0.05077172 0.10642843 -0.041681964 -0.067814186 0.049152605 -0.061887838
-0.084185086 -0.07549171 0.07016728 -0.030792426 0.04414423 -0.027766671 0.028978856 0.038194533
-0.0055361283 -0.0026612044 -0.07589625 0.06837023 -0.0355152 -0.06616027 0.020686204 -0.013638133
-0.00896132 -0.0034654948 -0.007020333 0.07025647 -0.0007935047 -0.05453646 0.06548976 0.050119136
0.029819075 -0.03992387 -0.0933087 0.101569 -0.05978128 0.076129265 -0.048893765 0.011687085
-0.016145712 -0.04522483 0.06030187 0.09308017 0.035644017 0.04414612 0.04623631 0.08944943
-0.06886485 0.079473734 0.010928817 -0.04791114 0.11371651 -0.056780275 0.075546846 0.113023885
0.03750113 0.10002408 -0.05607074 -0.0026600847 -0.024711568 0.014558029 -0.042358078 -0.0061150887
-0.048691485 0.034829352 0.04853352 -0.060194287 -0.061700713 0.029545408 0.054250848 0.067137055
-0.053527772 0.020851994 0.06636396 -0.08265704 0.084441155 0.028292496 -0.0038982858 0.05702009
-0.03850562 -0.010350419 0.0029379642 0.09151567 0.0075251646 0.025553275 0.052412897 -0.005285035
-0.040843785 -0.06960909 -0.024765953 0.07887713 0.074528635 -0.048327897 0.05678297 -0.051533848
-0.03528296 0.09789646 0.05041289 0.09313458 0.038829703 -0.031231211 -0.040112693 -0.008262263

fc2.bias f4 [64]
00000000: 02f5 6e3d f135 d93c eb7f 22bc f0a0 013b
00000010: 9d77 353b 17f8 863d 1810 4c3d 4171 77bd
00000020: ac10 753d db04 0dbd 3e00 423d 19b2 963d
00000030: 8e43 713d f44e 1abd e700 463c 65ce 0e3d
00000040: 318c 66bd e2f3 83bb 806f ea3c f9c0 343d
00000050: 7b97 693c 34c0 673d f25b d63c 37d3 85bc
00000060: d9ec 26bb a98d a6bd d254 8fbb c9fa 843d
00000070: 62fc a3bd 60c6 c83d 4d0a e63c 7900 82bd
00000080: 5147 bc3d 8b2d 873b 7b4a c8bc 05bd 823d
00000090: 475a 003c 25f3 6b3d 102b a5bd c88a 9fbb
000000a0: ba57 d33c 5d24 28bc d6b8 60bd cda8 c33d
000000b0: 528d 8d3d 0d39 d5bc e011 26bd 0a79 c63c
000000c0: 7e09 8e3c 9199 cc3d 9296 4cbd 894b a13c
000000d0: 3702 7a3d eec1 863c 81ed 483d 74df a9bd
000000e0: a67c 92bd d4f4 c2bb ff74 253d a170 80bd
000000f0: 3e26 f43c 4f0d af3d 3a13 c83d 1779 593d
0.058339126 0.02651498 -0.009918193 0.0019779764 0.0027689703 0.06590288 0.049820036 -0.06041074
0.059830353 -0.03442846 0.047363512 0.07358188 0.058902316 -0.03767295 0.012085176 0.034864802
-0.05628604 -0.004026876 0.02861762 0.044129346 0.014257307 0.056579784 0.02616689 -0.016336067
-0.0025470762 -0.08132488 -0.004374125 0.06493146 -0.080071226 0.09803462 0.028081084 -0.063477464
0.0919329 0.004125302 -0.024449578 0.06383709 0.007834024 0.057604928 -0.08064854 -0.004868839
0.025798667 -0.010262576 -0.054863773 0.095536806 0.0691172 -0.02602818 -0.04054439 0.024227638
0.01733851 0.09990228 -0.049948283 0.019689338 0.06103727 0.016449895 0.049054626 -0.082945734
-0.07152681 -0.005949596 0.04039478 -0.06271482 0.029803392 0.0854746 0.09769292 0.053093996

action_head.weight f4 [5, 64]
00000000: c1f0 dc3d 42d3 a43c 120d 95bc 4721 ea3c
00000010: 7107 e33d afbc 7e3b d0b6 cdbd ecd1 983d
00000020: 3c3a c13d fb0d 0cbd e977 e63d 50d0 f7bd
00000030: a0a4 17bb bb1b a7bd d7d6 783d d201 a9bd
00000040: 3801 143d f904 663d 2a33 583d 00ce e73c
00000050: d3da ad3d 1543 183d 4ce9 cebc 54af f63d
00000060: a5a9 803d a820 b0bc 0224 ffbd a6fb 4dbd
00000070: 7f6e 0f3d 41fd a3bd e084 2dbd 0e5b fc3c
00000080: 1511 32bd 996b a13d bf18 bb3d 2eaa a03d
00000090: 90e8 87bd 72e5 ac3d aca4 253d 2345 b33b
000000a0: 1868 c9bd b97a 703d c8bb 493b 4e2c 9ebd
000000b0: 268f 06bd bcfe ec3d 47b5 92bd f92d b13d
000000c0: a3f4 b1bd afa7 74bd 5028 0cbd a1bb cebd
000000d0: 20fb e23c 9e4d d7bb f0b0 d5bd d7ed 143d
000000e0: 0638 37bd 743a 96bd fecf 8ebc 927e df3d
000000f0: d85a 703c 7f81 b33d 89a7 ce3c 71fd 2abc
00000100: 571d b6bd 01a4 3cbd 844a 943c dad8 97bc
00000110: b9a1 0a3d 81bd 063c 5648 3cbd 042c f5bd
00000120: 8a45 23bb 2b95 893d 0002 9ebd 8389 dabd
00000130: afd7 7ebd fd15 d23d c76f de3d d7b7 51bd
00000140: e041 8d3d 7aeb ce3b e858 27bd 8c64 22bd
00000150: cce7 a1bd fee8 6cbd a906 c13d 5df1 a7bb
00000160: 4740 b4bc da29 b83d fc11 803d 6872 e8bd
00000170: c59f 393d 7efd e2bc e3e5 66bd 7c2e b63d
00000180: 12b8 8cbd e6ac e43d 281c 213d b47b 47bd
00000190: 65a4 50bd 0d6d b83d 2677 b23d 521b 70bd
000001a0: d1a4 523d f6ce 643d 1d6a c23d ae0d 82bc
000001b0: 1ed6 36bd fa50 813d 3d44 94bd 0faf 673d
000001c0: 6e8a 373d 0cc5 a13d 694b f13d bdac ec3d
000001d0: bfb7 ed3d f431 8d3d 8347 503d 5375 d2bd
000001e0: 9666 eb3b 8a2a 9a3d 6c9c 3b3d dd3a b03d
000001f0: 0d6d a9bd 3749 36bd 4984 283d 4132 063e
00000200: 8e0a 95bc 01af d63c 8754 a53d cf3e 98bd
00000210: c1ec d9bd 3041 7c3d 2c59 f53c 5a3b adbd
00000220: 93f2 48bc ea19 923d ceeb 683c a93c f8bc
00000230: 6688 01bd 2a92 bb3d 0071 ea3d 8511 03bd
00000240: c283 f3bd c382 cb3d 96db 6a3d 6e25 b6bd
00000250: 75dd 5abd 5e9f 3d3d ec82 d63d 96e5 3ebd
00000260: 4cfe f6bd e020 76bc 05d5 343d 9c5a 9bbd
00000270: 515a a23d 88f5 75bc b8e2 33bd ed7e c2bd
00000280: 1f51 04be ebb1 cf3d 0473 ee3d 51e0 8dbd
00000290: 1ee7 e2bd 9109 fabd 2c52 08bd 8a49 b03d
000002a0: b2a7 4abd 6e22 8b3d 72df 9ebb 3898 013b
000002b0: 10fd 453b 5efc d63c ccc7 c3bd b5f5 cc3d
000002c0: 5434 0fbc bd7c 673c 3a38 9dbd ed02 75bc
000002d0: b902 86bb 77d3 71bd 742f 363d 707b 6e3d
000002e0: d1ad 763d 1ff0 b63c 5165 ab3b 1512 b93a
000002f0: eba9 6cbd 9c4b 7a3d 597e 2ebd d23e 533d
00000300: 29ef 7dbd 0ec6 f13d 0b63 fcbd 5f7d 84bd
00000310: e212 dd3d 4540 93bd fda4 cf3d 0651 613c
00000320: d65c f1bd 87cb a2bc 8052 78bd 17b6 8a3d
00000330: d990 773d 4a0d ef3d 3762 233d af9e a83d
00000340: 8885 3abd 2d06 15bd b5ed 77bd 519a 5d3c
00000350: 2362 ce3d bea3 13bb e2bb 0b3d 38e6 c6bd
00000360: 958b 613d 6ed9 ebbd 6eab 713d 9c6c c6bd
00000370: dc5c 9cbd fd60 b9bd b433 a4bd 83b3 54bd
00000380: 9d40 c2bd 7044 a6bb 7cd9 f73c b848 433c
00000390: a601 35bd 5542 8a3d 4cc5 ea3d 4306 b6bd
000003a0: 862c a9bd 6365 f4bd f0fc 09bb e4fb 0bbb
000003b0: 630a b2bd 5f3d ed3d cee7 023d 4261 b63d
000003c0: 79bd 3bbd 69d1 8cbd b913 d7bb 8a25 e2bd
000003d0: fa16 533d 36ad e3bd fa2c 40bd 055a 253d
000003e0: be3a 9ebd 6f26 00be ebc6 813c e9ef e7bd
000003f0: 9f02 313d ccdf 1bbd f9e6 043d 9edb 543b
0.10788108 0.020120267 -0.018194709 0.028580321 0.11085404 0.0038869788 -0.10044634 0.074619144
0.094349355 -0.03419302 0.1125334 -0.12100279 -0.0023138896 -0.08159586 0.060751762 -0.082523
0.036133975 0.056157086 0.05278317 0.02829647 0.08489003 0.03717335 -0.025257729 0.1204516
0.06282357 -0.021499947 -0.1245804 -0.05028882 0.035017487 -0.08007289 -0.042363048 0.030805137
-0.043473322 0.07881851 0.09135579 0.07844959 -0.06636155 0.08442201 0.040440246 0.005470888
-0.098343074 0.058710787 0.0030782092 -0.07723294 -0.03285136 0.11572024 -0.07163482 0.08651347
-0.08689239 -0.059730228 -0.034218132 -0.10094381 0.027707636 -0.006570532 -0.10434139 0.036359634
-0.044731162 -0.07335368 -0.017433163 0.10912813 0.014670096 0.08764934 0.025226371 -0.010436402
-0.08892315 -0.046054844 0.018101938 -0.01853602 0.033845637 0.008223892 -0.045967422 -0.11971286
-0.0024913275 0.06717905 -0.07715225 -0.106707595 -0.06221741 0.102581 0.108611636 -0.051200714
0.0689733 0.006314692 -0.040856272 -0.03964667 -0.0790554 -0.057839386 0.094250984 -0.0051252083
-0.022003306 0.089923576 0.0625343 -0.11349946 0.045318384 -0.027708765 -0.05637158 0.08895585
-0.06871046 0.1116579 0.039333493 -0.048701957 -0.05093803 0.09005175 0.08714132 -0.058619805
0.051426712 0.055861436 0.09492896 -0.015875664 -0.04463779 0.06314273 -0.07239578 0.056563433
0.04480975 0.07898912 0.117819615 0.11556385 0.116073124 0.068942934 0.05084945 -0.10276284
0.00718386 0.07527645 0.045803472 0.08604977 -0.08272753 -0.044503417 0.041141782 0.13105108
-0.01819351 0.026206495 0.08072763 -0.07433855 -0.1064086 0.061585605 0.029949747 -0.08458586
-0.012264865 0.07133849 0.0142163765 -0.030302363 -0.03162422 0.09158738 0.11447334 -0.03199913
-0.11890365 0.0993705 0.05733832 -0.08893858 -0.053433854 0.046294563 0.1047419 -0.04660567
-0.12060222 -0.015022486 0.044148464 -0.07585642 0.07927383 -0.0150121525 -0.043917388 -0.094968654
-0.1292157 0.10141357 0.11643031 -0.069275506 -0.11079238 -0.12208856 -0.03328149 0.086077765
-0.049476333 0.06793676 -0.004848414 0.0019774567 0.0030210651 0.026243385 -0.095595926 0.100078024
-0.008740503 0.014128861 -0.0767674 -0.014954311 -0.00408968 -0.05903956 0.04447885 0.058223188
0.060224358 0.022331296 0.0052305837 0.0014119769 -0.057779234 0.061107263 -0.042600963 0.051573582
-0.06199566 0.11805354 -0.123235784 -0.06469225 0.10794617 -0.07189993 0.10138891 0.013752228
-0.11785285 -0.01987244 -0.060625553 0.06773012 0.060440872 0.116724566 0.039888587 0.082333915
-0.0455375 -0.036382843 -0.06052943 0.013525561 0.10077312 -0.0022528018 0.034114726 -0.097118795
0.055064756 -0.11516081 0.05900138 -0.09688684 -0.07634899 -0.09051702 -0.08017674 -0.05192901
-0.0948498 -0.0050740764 0.030255072 0.011919193 -0.044191025 0.06750933 0.11463413 -0.08887913
-0.08260445 -0.119334005 -0.0021055304 -0.0021359855 -0.08693387 0.11583971 0.031959347 0.08905269
-0.045834992 -0.06875879 -0.0065636304 -0.11042316 0.051535584 -0.11117022 -0.046917893 0.040369052
-0.07726048 -0.12514661 0.015841922 -0.11325056 0.04321539 -0.038055226 0.032446835 0.0032479535

action_head.bias f4 [5]
00000000: 5cea 093d 5eb6 73ba 46f2 64bc 1137 bb3d
00000010: 3cdd 1a3d
0.03367077 -0.0009296889 -0.013973778 0.091413625 0.03780864

value_head.weight f4 [1, 64]
00000000: 2c63 98bd 8759 db3d 412a c43d 615c c43d
00000010: c878 1b3e 4d89 04be e52c 253e bbb5 e93d
00000020: f6a2 ba3b d771 f43d 7cbb 9bbc af34 e83d
00000030: eed8 2b3e c41b 10be 6827 19be c504 b23d
00000040: c0d4 033d 23d0 28be b4a6 36bd 78a3 983d
00000050: 3d69 e73d e473 353d 2053 65bd 5d0c 83bd
00000060: 217b 7cbc 8022 c33a ab22 913b abaf 023e
00000070: 53c1 47bd 517f 1dbe 8192 b4bd 7102 e63d
00000080: 63e1 0ebe f534 fcbd 6d58 e9bd 3648 c23d
00000090: 9ff3 00bd abda 063e 20dc c53d 766a 28bd
000000a0: 25ce 95bd 89bb da3d f52d d93d 1aa9 a4bd
000000b0: 15e4 4ebd 523b d83d a6cd 5a3d b5b6 123e
000000c0: be44 193d f26a 2fbe 677d 253e 8a60 cabd
000000d0: d375 f9bd 43df 133e 8080 113e 1666 0d3d
000000e0: 2b76 a93d fa17 b8bd 966b 14be cf15 dfbc
000000f0: 6e4b 8fbd 10f5 dbbd 25f4 ecbd 0d54 22be
-0.074407905 0.10710435 0.09578372 0.095879324 0.15182793 -0.12943001 0.16130407 0.114116155
0.005695696 0.11935776 -0.019010298 0.113381736 0.16781971 -0.14073092 -0.14956439 0.08692316
0.032185316 -0.16485648 -0.044592574 0.07453054 0.112993695 0.044299975 -0.055987477 -0.063988425
-0.015410216 0.0014887601 0.0044291816 0.12762325 -0.048768353 -0.15380599 -0.08817006 0.112309344
-0.13953166 -0.12314788 -0.11393819 0.094864294 -0.031482335 0.13169353 0.09661126 -0.041117154
-0.073147096 0.10680301 0.10604469 -0.08040066 -0.050510485 0.105581895 0.053418778 0.1432751
0.037419073 -0.1713064 0.16161118 -0.098816946 -0.12180676 0.14440636 0.14209175 0.034521185
0.08274492 -0.08988948 -0.14494166 -0.027232079 -0.06996809 -0.10740101 -0.115700044 -0.15852375

fc1.weight f4 [128, 147]
00000000: b35d 313d 2c46 2a3d 5017 143c f206 323d
00000010: 6666 a93d 5a0b 353d 888d 09bd efe9 c43d
00000020: dd13 523d dfd2 c33c aca0 febc abf1 66bd
00000030: 7f9d 36bd 6b8a 9fbd c93b 633d 739c d9bc
00000040: 5e4f 65bd 6640 6f3d 00e6 b23c 3e7b b13d
00000050: 65ad 883d bf51 393d 72f6 55bc 9072 b4bc
00000060: 98b7 90bd 7117 553c 5362 7a3d 824e cb3b
00000070: 56d0 33bd fa7f 633d 2d47 173d 565a 003d
00000080: cde3 863d 6950 0c3c 166a 5b3b 1c51 ac3d
00000090: e7eb b9bc c905 bb3d dd76 9d3d 8e94 70bd
000000a0: ec19 113c 0a29 0c3c 2a62 5b3b 40e7 ecbc
000000b0: 8747 b03c c9b1 1e3d 955b 963d 55d2 6abd
000000c0: 2512 2abd 3f84 203d a899 923d 4827 b3bd
000000d0: 5072 8b3d a162 893d 83c7 ccbc c968 543b
000000e0: 3d13 d23b 0bee 623d fab7 d33c 5830 7abd
000000f0: 1236 3d3c 04b9 fe3c 36fa 51bb 72a0 823d
00000100: f3a9 4f3d d90f a73c 0690 85bd 4f39 9abb
00000110: 4cfc 893b b171 1e3c 3839 2cbd 4de4 403d
00000120: 115d 0cbc c77d c33c e975 7fbd 2d62 1fbd
00000130: 65ca 34bd 58c5 54bc c207 cb3c 48b3 c93c
00000140: f417 b63c cd60 bbbc 5e4d a33d 8535 0c3d
00000150: 6dc6 09bd 7b06 38bd b528 953d f4eb 51bd
00000160: 9fd5 853d b1e2 ce3d 166f a63c ed74 c23b
00000170: e1c2 cb3d e599 52bd c5b3 483d aa66 e2ba
00000180: 9543 9ebd 46f7 413b 3995 b53c 8e48 0c3d
00000190: d79f 02bd b2b8 883c b94e 503c 1879 833d
000001a0: 418b 8b3b 6ef0 053d 262e a13d 7836 f13b
000001b0: f80a 8ebd 5b8e 6a3d 8e06 a13b dd73 303d
000001c0: 5809 853d c877 ac3c fe7a 25bc 53d3 b03c
000001d0: d502 db3a 21c1 ae3c 8484 1bbd 42b5 28bc
000001e0: 5e2e acbd 2adf 46bd ceba be3b c97a 68bd
000001f0: 5e44 163d c2c9 243d f2fa 7d3d 6757 47bd
00000200: 19a7 82ba ba9e 21bd ef49 db3c 3bc0 1abd
00000210: e500 b13c 0b96 693d bd59 2dbd 0822 483d
00000220: 1b89 983d 0c33 bf3d 1138 22bc cee7 5fbd
00000230: 9f81 883d a5c8 debc 8a7f c5bb 6ea7 293d
00000240: 3ada 83bd c879 66bd 31c2 2abd b8c6 f83c
00000250: 20a7 c13c b8af 08bd d42e a0bc 810a 233d
00000260: 3b27 813d 83a9 cf3a 51f6 73bc dd42 5a3d
00000270: 5b91 1b3d d43a dcbc c322 35bd c90f 75bc
00000280: 8be5 b13c 4dc9 09bd 565c b5ba 8e97 9ebd
00000290: c366 9dbb 3d35 853d 68ba 6bbc 7fda 5abd
000002a0: df67 9f3d cea1 653d e204 a2bd c214 263c
000002b0: 5291 483d 8189 fdbb e757 a7bd ce5e 353d
000002c0: b31b aebd b918 aebd e1a2 87bd f936 19bd
000002d0: c9ee d8bb 0ed9 973c 1268 603d 608f d9bc
000002e0: 7092 833c 4917 b93c 1731 87bd e6bf a1bc
000002f0: 0d42 603d 5df8 87bd 55b6 84bd e67e 39bd
00000300: 6277 c53d 4ae8 9b3c 250e c13c d0ac b23d
00000310: b342 b0bc 166d 503d cd41 823d 8330 8abd
00000320: 5993 ad3d 75f9 81bd 99e9 fa3c e278 733d
00000330: ac36 71bc a35b f13b 947b 8ebd abf1 563c
00000340: d688 693c e2dc f6bc 36a2 6fbd 915c 703c
00000350: 4ea3 1a3c 6107 22bd 2b5f 87bc 47b9 b7bc
00000360: 7cf8 adbd 3305 4e3d 6e21 84bd 3c00 03bd
00000370: fe88 07bd f94f 643d 0e83 a73b c928 003d
00000380: d9b9 cf3b e07a ba3c ee04 573b cf4f 6bbd
00000390: a84e da3b 954a 353d 72f1 cbbc c181 873d
000003a0: b3da 993d f1b6 85bd ef2f 9d3d bc6e 98bd
000003b0: 00da adbd 4c65 803d ec5e 76bd 574c 8bbb
000003c0: 2b4e 073d 86f7 c9bc 3302 b33c 619b 9b3c
000003d0: 2033 72bd 09ec 783d 79ac 763c c93d 8c3d
000003e0: 1208 1fbd b67c 2cbd 67e9 473d 31f0 1ebd
000003f0: 0dcf 51bd 1901 d03c bdc6 0739 7ba1 133c
0.04330225 0.041570827 0.009038761 0.043463655 0.08271484 0.04420028 -0.03358224 0.09614932
0.051288474 0.023904262 -0.031082474 -0.056382816 -0.044583794 -0.07790073 0.055476937 -0.026563859
-0.055983894 0.058411025 0.021838188 0.08666085 0.066736974 0.045243975 -0.013059245 -0.022027284
-0.07066268 0.013006077 0.061128926 0.006204427 -0.043899857 0.05554197 0.036933113 0.03133615
0.06586418 0.008564093 0.003347998 0.08413908 -0.022695495 0.09131963 0.07688687 -0.058735423
0.008856278 0.008554706 0.0033475258 -0.028918862 0.021518482 0.038743768 0.07341687 -0.057329495
-0.04152121 0.03918862 0.07158214 -0.08747727 0.06808913 0.06708265 -0.024997478 0.003241109
0.006410985 0.055402797 0.025844563 -0.06108126 0.011548536 0.031094082 -0.0032040006 0.06378259
0.050699186 0.020393299 -0.06521611 -0.0047065387 0.0042109843 0.009670661 -0.042046756 0.047092725
-0.008567111 0.023863686 -0.062368307 -0.038911987 -0.04413833 -0.012986504 0.024783973 0.02462162
0.022228219 -0.022873307 0.07973741 0.034230728 -0.0336365 -0.044928055 0.07283155 -0.051250413
0.065348856 0.10101832 0.020316642 0.005934349 0.099492796 -0.051416297 0.048999567 -0.0017273028
-0.07727734 0.002959685 0.022165881 0.03424888 -0.031890716 0.016689632 0.012714081 0.06419581
0.0042585437 0.032699995 0.0787013 0.0073612295 -0.06935686 0.057264667 0.0049141115 0.043079246
0.06495923 0.02105321 -0.010100124 0.021585142 0.0016709218 0.021332325 -0.037968174 -0.0102971215
-0.08407281 -0.04855267 0.0058206087 -0.056757722 0.036686294 0.040231474 0.0620069 -0.048667338
-0.0009968012 -0.039458014 0.026768653 -0.03778098 0.021606872 0.057027858 -0.04232191 0.04886058
0.07448026 0.09335908 -0.009901063 -0.054664426 0.06665348 -0.027195284 -0.0060271667 0.04141944
-0.06438108 -0.056268483 -0.0416891 0.030368194 0.023639262 -0.033370703 -0.01955358 0.03980494
0.06306311 0.0015843365 -0.014890269 0.053286422 0.03798042 -0.02688352 -0.044222604 -0.014957377
0.0217159 -0.03363924 -0.0013836722 -0.077437505 -0.00480351 0.06504295 -0.014387704 -0.05343103
0.07783484 0.056062512 -0.079110876 0.010136785 0.048966713 -0.007737339 -0.08171063 0.044279866
-0.08501377 -0.08500809 -0.066228636 -0.03740594 -0.0066202623 0.018536117 0.05478675 -0.026557624
0.016061038 0.022594111 -0.0660116 -0.019744825 0.05475049 -0.066391684 -0.064800896 -0.045287035
0.09641911 0.019031662 0.023566315 0.087243676 -0.02151618 0.050885282 0.06360207 -0.06747534
0.0847537 -0.06346408 0.030628966 0.059441455 -0.014722507 0.0073656603 -0.069571644 0.013119142
0.014253816 -0.030134622 -0.058504306 0.014670507 0.009438349 -0.03955782 -0.016524872 -0.022427214
-0.0849466 0.050297927 -0.06451689 -0.031982645 -0.03308963 0.05574033 0.0051120585 0.031288896
0.0063392934 0.02276367 0.0032809335 -0.05744916 0.0066622086 0.04426058 -0.024895404 0.066165455
0.07512417 -0.06529034 0.07675158 -0.07442996 -0.08488846 0.06269321 -0.06014912 -0.004251044
0.03303353 -0.024654161 0.021851635 0.018994989 -0.059130788 0.060771976 0.015055769 0.06847722
-0.038826056 -0.04211112 0.048806574 -0.038803283 -0.05122285 0.025391148 0.00012948639 0.009010668

fc1.bias f4 [128]
00000000: 4934 523d 0c8f 79ba 4b7f 72bd 144d 80bd
00000010: 7003 2a3d 879c eb3c 31e7 5dbd d24e 923d
00000020: 22a6 5bbd 5763 563c 790e 853d 2374 09bd
00000030: ba34 0a3c acc2 0dbd ad3f e0bc 311d 7ebd
00000040: d637 aa3d b7f8 a23d d2c7 a3bd 5b18 b63d
00000050: 5c74 eb3d febb 7bbd 81dc 4fbd 5c2e 8bbd
00000060: 3938 4e3c 612a b23d 9438 d43d 60bd 743d
00000070: d9f8 dfbc 9873 babc 6f90 963d 5981 79bd
00000080: 2470 61bd a8eb 713d 59ac 27bd 1073 f13c
00000090: 29c8 4a3d 0a30 38bd 7b27 6bbc e93a 9abc
000000a0: 4a70 213d ea92 9a3d cf1c 473d 0d42 30bd
000000b0: 8ffd 0bbb b4a7 8e3b 07d7 d23c 646a ca3d
000000c0: f1bb 883c 65b4 583d 14ed 3b3d e90a c43d
000000d0: 84db c03d ea12 33bd 3e96 883c 265c 603d
000000e0: 73f4 e4bb 39ab 8fbd f582 f2bc ca65 9a3c
000000f0: d5df 893c abca cf3c 649c 1e3c 2726 533d
00000100: 5796 913d d919 7d3d e7e0 9a3d de6a 69bc
00000110: 9875 ddbc eb59 e6bb 9758 313d fe03 ff3b
00000120: fead 45bd d708 f3bc de4c 25bc b265 46bd
00000130: 78c9 fcbc 119d 603d f0bc 90bc 6936 d53c
00000140: bf20 cf3d 7ab2 cb3b e207 f13c 752a 48bd
00000150: 567f 843d c019 713d 93f3 20bd 43fe 583c
00000160: 7a60 9d3d 7b77 d83d a2a3 6dbd b754 00bd
00000170: 5406 a6bb bc96 81bc 70ff 8e3d b689 0ebd
00000180: 708a c43a 74e5 86bc 2a68 cd3c 550a f23c
00000190: 3851 843d 7cfc c63d 210c 9c3c 57fa 843d
000001a0: f8b5 b83d 9e8c c43d d7a8 32bd 442c 9b3d
000001b0: e5c2 7d3d 9b82 c2bc 83b9 7a3d 6f77 31bd
000001c0: f464 aebc 7b14 9a3b a722 6e3d 2e3d c1bc
000001d0: 6d91 6e3d eaa4 673c 4f55 cb3d 0975 4c3d
000001e0: 907e 58bd c5fa 943d ba18 b1bb 874a 0b3c
000001f0: 5f12 86bd bc1a 7c3d 7d15 823d 8958 963d
0.051319394 -0.0009519912 -0.059203427 -0.062647015 0.041507185 0.028761161 -0.05417556 0.0714394
-0.053625233 0.013085208 0.06496901 -0.033558022 0.008435423 -0.03460948 -0.027374113 -0.062039558
0.08311431 0.07957595 -0.07997097 0.08891364 0.11496803 -0.06145858 -0.0507474 -0.06795952
0.012586647 0.086994894 0.10362354 0.059750915 -0.02734034 -0.022760198 0.07351767 -0.06091437
-0.055038586 0.05906263 -0.040935848 0.029473811 0.049507294 -0.04496769 -0.014352675 -0.018826919
0.039413728 0.07547553 0.04861146 -0.04303174 -0.002136085 0.004353488 0.025737299 0.09883574
0.01669118 0.052906413 0.045880392 0.095723934 0.09416869 -0.04371921 0.016673204 0.05477538
-0.0069871484 -0.0701508 -0.02960346 0.018847365 0.016830364 0.025365194 0.009680841 0.051550057
0.07108753 0.06179223 0.07562428 -0.0142466705 -0.027033612 -0.007029762 0.043297376 0.0077824583
-0.048261635 -0.029667301 -0.010089127 -0.048436828 -0.030857787 0.05483729 -0.017668217 0.026026921
0.10113668 0.0062163444 0.029422704 -0.048868615 0.064696 0.058862448 -0.03929479 0.0132442145
0.07684417 0.10569664 -0.05801738 -0.03133079 -0.0050666723 -0.015818946 0.069823146 -0.0347993
0.0014994871 -0.016466834 0.025074083 0.029545942 0.06460804 0.09716126 0.019048752 0.06493061
0.09019083 0.09597133 -0.04361805 0.075768024 0.061953444 -0.023743918 0.061212074 -0.04332679
-0.021288373 0.0047021485 0.058138516 -0.023588743 0.058244158 0.01413844 0.09928381 0.0499163
-0.052855074 0.07274393 -0.005404559 0.008501655 -0.06546473 0.061548933 0.06351755 0.073411055

fc2.weight f4 [64, 128]
00000000: 5bf2 b13d f834 d1bc 617e 0abd 52d8 683d
00000010: aeb5 0bbd 98b7 a2bc 427a a5bd 269a 4d3d
00000020: 701f ba3b d0bd babb ee0e 5c3d b290 b0bd
00000030: c464 e2bc aa9d 513d 24f5 8fbc 5aef 2f3d
00000040: 3e2c 5abd f0ac db3b 9045 b53c 6f5f 2fbd
00000050: 9666 aabd d240 583d 0cbe ddbc 31a3 973d
00000060: 0efc b3bd cf19 26bd 7237 1b3d 6446 88bd
00000070: 8079 743c 39be 39bd d8ef 77bc d8f3 31bc
00000080: 6d74 44bd 90a6 a93b 5c34 b2bd 979a 2bbd
00000090: 00e2 c9ba ad72 b13d a22d 423d e0c1 0ebb
000000a0: 9234 9bbd 8f11 58bd 8d86 893d 3e22 4e3d
000000b0: 30ae 633c b0c0 bf3b d7d7 91bd 5257 7ebd
000000c0: e4c4 8ebd cd67 823d d796 a5bd cd71 a1bd
000000d0: ee84 683d 5858 d1bc bb24 823d 382a a6bc
000000e0: 3053 97bb 28ef 7abc 52e2 023d 1df4 833d
000000f0: 9bd0 20bd 52b1 dcbc ab1a a93d 84de d43c
00000100: b0a6 16bd c8fe 83bc b880 bebc 367d 573d
00000110: f6de abbd bcc3 8dbd 006a 9ebd 9266 1c3d
00000120: feb9 95bd 805d b83c 39fe 9b3d c7da 963d
00000130: 7a10 6dbd 1e8b 87bd e327 5fbd d4cd d03c
00000140: f928 913d cfe7 b0bd bf87 5abd 8d8b 99bd
00000150: a5d9 8fbd 02d0 6d3d 68ab 5b3c 9666 473d
00000160: f679 96bd cdb4 86bd f1e2 aebd a094 f03c
00000170: ca27 7f3d 3041 87bc 0d5f 24bd 20b9 a1bc
00000180: 8adb 7e3d 43c3 abbd 496e 1abd 738c 883d
00000190: b1b3 57bd fccd fe3c 0ee2 7ebd 5867 f03c
000001a0: cbd6 943d 62c4 633d 7ced 60bd 5619 4b3d
000001b0: 20e4 46bb e603 83bd 601b 7cbb 1656 643d
000001c0: 48d9 7f3c d0dc c7bc 383a 243c 5849 7a3c
000001d0: ced0 1cbd c64e 453d 74ad 84bc 83a8 853d
000001e0: ce1e 563d d98a ae3d 06a5 623d 6640 91bd
000001f0: 08f8 85bc 9264 313d c8b1 1fbc f08e f6bb
00000200: 7d84 953d a410 90bb 9004 ba3d 354d 873d
00000210: 4898 7c3d 8b6f a73c 88fb 943d 19a2 debd
00000220: d225 123d 5793 71bd 12db 3bbd c093 ddbc
00000230: 8084 72bd 47fb 96bb 3bd4 b2bc 726a ee3c
00000240: 0ad0 c3bd 042d 76bd e330 0b3d 46cb c0bc
00000250: f39b 6d3c 81ac 91bd 3e70 803c 23d6 41bd
00000260: 37c7 843d 48ab cd3c 87b6 ccbd 50af 9bbd
00000270: 1eb9 a93d 9790 da3d d934 833d 4c6a 85bd
00000280: fdaa d73c befb 94bd 1b20 db3d 68c1 a3bd
00000290: 89d9 8f3d 8d2d 71bc 2d49 ebbc 55ea 8f3d
000002a0: c0fb 2fbd e301 c8bd bc44 243c 8edc 5e3d
000002b0: 2e41 8a3c c372 01bd 4906 c13c e788 173d
000002c0: b255 cf3d 99d7 a33d 19e7 623d 543c 893d
000002d0: ff5e 863d cc02 08bd 5842 b43d 11b6 bfbd
000002e0: 6343 32bd 9377 243d d234 37bd 9698 eebc
000002f0: 38f5 d0bd bb4e 2ebc 8d22 b83d 482e b23d
00000300: 7a6d 803c baa6 85bd cdfd 9abd a5b8 80bd
00000310: 8e5d 923d f0f4 42bd 830c ad3c f230 a3bd
00000320: 2591 113d 73b7 ef3c 71c7 b53d 2d6f 413c
00000330: 4972 2fba 8240 05bd d45c 5cbd bc9f 823d
00000340: 190d 203c af7c a7bc 953b 093d 8ba8 8ebd
00000350: 921d 6f3b 6524 073d f249 e1bc 4207 2b3d
00000360: aa82 a0bd 0cb3 2fbc f4c9 04bd 941a b83c
00000370: 0447 28bd 32c7 09bd 9db0 453c 44b9 983d
00000380: f366 b03d f898 b3bd 9420 88bc 1fab 9bbb
00000390: 24a4 993d bd97 65bd f3c5 583d 2625 5cbd
000003a0: b346 1b3d bf36 933c 9850 8c3d bf4d 06bd
000003b0: 91af 703d 12ca 0d3d e0fa 69bd 68a7 af3c
000003c0: cf94 d3bc ccf9 f13c 5c07 043d 6068 a3bb
000003d0: 34bd 85bd 22e0 233b bb65 753d df9e 353d
000003e0: 429e a9bc d5ca a53d e510 25bd c693 ef3d
000003f0: 9473 b33b 620c a13d 00c9 7a3d 4439 a6bc
0.08688804 -0.025537953 -0.03381193 0.056846924 -0.03410881 -0.019862935 -0.080799595 0.050195836
0.005680017 -0.005698897 0.053725176 -0.086213484 -0.02763594 0.05117575 -0.017572947 0.042952873
-0.05326485 0.0067039654 0.022127897 -0.042815622 -0.08320348 0.052796192 -0.02706816 0.07404173
-0.0878831 -0.040551957 0.037894674 -0.06654051 0.014921546 -0.045347426 -0.015132867 -0.01086136
-0.047962595 0.0051773265 -0.08701393 -0.041895475 -0.0015402436 0.08664451 0.0474068 -0.002178304
-0.07578386 -0.05275112 0.06715117 0.050325625 0.01389651 0.0058518276 -0.07121246 -0.062094994
-0.06971148 0.06367455 -0.08085411 -0.07883034 0.056767397 -0.02555482 0.06354662 -0.020283803
-0.004618071 -0.015315808 0.031954117 0.06443045 -0.03926144 -0.026940022 0.0825704 0.02598501
-0.03678006 -0.0161127 -0.023254737 0.052609645 -0.08392136 -0.06922099 -0.07735062 0.038183756
-0.07310866 0.022505522 0.076168485 0.07365947 -0.05787704 -0.066183314 -0.0544814 0.025488771
0.07087893 -0.08637964 -0.053352114 -0.0749732 -0.07023934 0.0580597 0.013407566 0.048681818
-0.07347481 -0.06577454 -0.085393794 0.029367745 0.062293805 -0.016510576 -0.04012971 -0.019741595
0.062221088 -0.083868526 -0.037702832 0.066674136 -0.0526616 0.03110408 -0.0622273 0.029346153
0.07267531 0.055607207 -0.054913983 0.04958471 -0.0030348375 -0.06397228 -0.0038468465 0.05574616
0.015615769 -0.024397284 0.010023646 0.015276276 -0.03828507 0.048170827 -0.01619599 0.06526282
0.05227547 0.08522577 0.05533316 -0.07092361 -0.016353622 0.043308802 -0.009746976 -0.0075243637
0.07300661 -0.004396515 0.090829015 0.06606523 0.061668664 0.02043893 0.07274538 -0.108707614
0.0356806 -0.058978405 -0.04586322 -0.027047992 -0.059208393 -0.0046075913 -0.021829715 0.029103491
-0.09561165 -0.060101524 0.03398217 -0.023534428 0.014502513 -0.07112981 0.015678521 -0.047323357
0.0648331 0.025106087 -0.09995752 -0.076017976 0.082872614 0.106721096 0.06406564 -0.06514415
0.02632665 -0.072745785 0.10699483 -0.07995874 0.070239134 -0.014720333 -0.028721416 0.07027117
-0.042964697 -0.09765985 0.010026153 0.054409556 0.016876783 -0.031603586 0.023562567 0.036995795
0.10123767 0.08000106 0.055396173 0.0670096 0.06561088 -0.033205792 0.088017166 -0.09360898
-0.043521296 0.040153097 -0.044728108 -0.029125493 -0.10203022 -0.010638888 0.08990965 0.08700234
0.015677202 -0.06525941 -0.0756794 -0.06285218 0.071467504 -0.04759687 0.02112413 -0.0796832
0.03553881 0.02926228 0.08875931 0.0118062915 -0.000669275 -0.032532223 -0.053799465 0.06378123
0.009768748 -0.020445196 0.033504087 -0.06965741 0.003648613 0.032993693 -0.02750108 0.04175497
-0.07837422 -0.01072384 -0.03241916 0.022473611 -0.04108335 -0.033637233 0.012066034 0.074572116
0.08613386 -0.08769411 -0.016617097 -0.004750624 0.075020105 -0.056052912 0.052923154 -0.053746365
0.03790922 0.01797044 0.068513095 -0.03278899 0.058761183 0.034616537 -0.05712402 0.02144213
-0.025827793 0.029538058 0.03223358 -0.0049868077 -0.06530228 0.002500542 0.05991147 0.044340964
-0.020705346 0.08095328 -0.040299315 0.116981074 0.0054764245 0.0786369 0.061226845 -0.020290978

fc2.bias f4 [64]
00000000: b616 9ebd c86f 773d f49e 8abd 9621 f039
00000010: c6e0 69bd bfc1 233d e59d 2c3d fab3 8a3a
00000020: 0fad 82bd e0c2 803c 936f 683d 5140 aebd
00000030: af4c 983d a953 16bd c1cc 3c3d 90fe 613d
00000040: ee83 8e3d 233b 31bd 9568 103d 51e2 f53c
00000050: 441d 99bd 06c2 1f3c ecb0 6abc b972 8d3d
00000060: c794 693d ed95 f33c a747 403d 78ac 01bd
00000070: f174 973c 93a7 9bbc 38db 8d3d 5386 9abd
00000080: 5e6d 453d 869d 393d 753e 323b 9c24 8a3d
00000090: 4761 133d 514c 933d 880c a9bd f1ec f43c
000000a0: 933b e33c f54d 2c3d 5bb2 0bbd 352e 8d3d
000000b0: d8d1 653d 8665 f43b b45f d73c 4d15 983d
000000c0: c99d a83d e337 b2bd 72f7 633d 4b31 82bd
000000d0: 99d5 2ebd 495a 5bbd b0c7 45bd 3a71 9cbd
000000e0: 79d1 af3c 1115 a23c 24c9 b1bd cfa4 23bd
000000f0: 3b4e 6ebb ca52 b53c 8b0f 39bc 8ed7 10bd
-0.077191755 0.060409337 -0.06768599 0.0004580139 -0.057099126 0.039979693 0.042142767 0.0010582202
-0.063806646 0.015717924 0.05674703 -0.08508361 0.07436501 -0.03670088 0.046093706 0.05517441
0.06958757 -0.043269288 0.035255987 0.030015143 -0.07476285 0.009750849 -0.014324408 0.06906647
0.05702665 0.029734576 0.046943333 -0.03165862 0.01848838 -0.019000804 0.06926578 -0.075451516
0.048200004 0.04531624 0.0027197872 0.06745264 0.035981443 0.071922906 -0.08254343 0.029898139
0.027738368 0.042066533 -0.03410564 0.06893579 0.056108326 0.0074583916 0.026290752 0.07425938
0.0823322 -0.08702066 0.055655904 -0.06357058 -0.04268417 -0.0535529 -0.04828614 -0.07638784
0.021462189 0.019785436 -0.08680943 -0.039952096 -0.0036362547 0.022134203 -0.01129521 -0.03536182

action_head.weight f4 [5, 64]
00000000: ce31 b5bd aaf2 dbbd 78b6 3cbd 519e dabd
00000010: 5a7e 163d debf c23d f621 e4bc 9682 133d
00000020: 9393 d23b 7d00 5cbd ae9f 1cbd abf0 d93d
00000030: b94a 4a3d e467 82bd f5b4 c5bd 891e c53d
00000040: fb93 23bd ad53 09be 18d0 e93d cfde 8e3c
00000050: 2235 1f3d 9dd8 cdbd 1127 00be ebfc 843d
00000060: cc36 963d 01f9 143d 7b51 edbd 263f 2d3b
00000070: d35f 95bc ea74 a9bc 4994 99bd 4c14 5c3d
00000080: 2a90 e2bd e23b 05bd 3c3b e63c 8af0 12bd
00000090: 60da 733d ac82 26bd 9ba8 693d 7db0 ab3d
000000a0: 2a4a c63d 5438 f43b 7c92 7f3d 76f1 e3bd
000000b0: ca42 d0bc 7f07 893c 2ae9 903c e1af 1abd
000000c0: 77eb a5bd 7a73 c23d d4a5 f3bd a24f dcbc
000000d0: 6875 7cbc bced a23c 568a 3abc b833 eb3c
000000e0: d863 b13d e805 b9bb 61c0 973d 238e 8bbd
000000f0: a3ce c93d 8aca 51bb 35e0 9bbd 7aa1 3cbd
00000100: 60aa 563d 1e82 023e 1505 a53d 84d1 5ebd
00000110: d9cc ca3d 1545 a43c ada0 ea3d c3b8 1d3c
00000120: 0956 d43d fad2 9f3d 46fa 233d fc9e 1e3d
00000130: e65e 043e b573 553d 0d47 d3bd b87f 7ebb
00000140: 83c4 9fbc 35bc d33b e382 fb3c 18ea 093d
00000150: 151e 57bd a3ff b1bd eff9 85bd 6430 933d
00000160: 934c 9abc bcf3 923d 5905 933d 6cd1 86bd
00000170: a68e 36bd d50a 523d 08d2 39bd c9f1 4e3d
00000180: 922a 103d 4a30 ee3d 47d1 84bd 3a04 c5bd
00000190: 62fd 89bd e39b 9fbd 8b7a 943d 259e f5bd
000001a0: 0302 b63d e631 9c3c 4bac a6bd f3ef 3c3c
000001b0: 4978 cabd d60b a7bd 5049 c83d 3aa8 c83c
000001c0: 2184 f13d 8a7f de3d f71c 0fbc cf72 f9bd
000001d0: 110f 803d 7c27 acbd 66b9 153d 3769 de3c
000001e0: 1964 a23d 13f2 a1bd 6135 27bd e478 82ba
000001f0: 9cf5 d63d da13 533d 4308 f0bc 4240 95bd
00000200: a45f d7bd f1e0 29bd eb01 86bd 0e90 9ebd
00000210: 83ad 843d ea48 e7bc e0e8 4bbd 7ddf d8bd
00000220: 9fe5 76bd ff9b 84bd e49a a1bd 3e98 e73d
00000230: 5828 abbd 8043 b63d c237 a1bd 3d06 413d
00000240: 0366 debc c4a8 03bd 5d48 8bbd b761 90bd
00000250: acce dabd 7d51 a3bd 5ede dcbb adca ccbd
00000260: 0e2b d7bd 8318 033d 64db f5bd 1842 543d
00000270: 7f3c 853d e40c e83d fe52 213d 452a 04be
00000280: 5d54 9b3d 7973 eabd e874 dd3c 6876 72bc
00000290: 657f f3bd a432 81bc ea71 fbbb a635 c9ba
000002a0: a9ff 373d fb38 a03d ee2b e5bd f40b 0d3d
000002b0: 6197 88bd c86e cfbd 8ffa b73d 8383 aa3d
000002c0: f931 f73c aed0 b03d bf22 95bd 77fc f43c
000002d0: ea28 fa3c 13ca b8bc a54b dfbc 37e6 f13d
000002e0: 922c 7e3c 640d 913d b25f fd3d c8a8 223c
000002f0: b8d5 4a3d 5dd9 9cbd 27db 9b3d 5766 ebbc
00000300: 2815 5ebd f77b f93d a5dc 033d 774f 9a3d
00000310: 6fc8 1b3d 5b73 11bd dca4 b2bd a451 b0bd
00000320: bf36 c8bd 3f7e 82bd 87f6 c8bd 49a5 ccbd
00000330: 8a2d 903d a5e6 153d 8726 083e 8ca3 ad3d
00000340: a2d9 9e3d ad47 e93b a0f2 d8bd 58ce 753d
00000350: 66ac c6bd 80bb 983d 9ef8 573d 7d96 4f3d
00000360: e3a9 91bd cca1 b9bd eafb 7a3d 6fc1 4f3d
00000370: 8280 dfbd de3b 06bd fd7d 87b9 8329 173c
00000380: 1c4d 883d 7ecf ddbd 3a1b 843d c883 48bd
00000390: 96c7 343d 896f e73d 3de6 8d3d bf75 ef3d
000003a0: 2e06 5d3d c0be 093d 6100 fe3d f9c6 713d
000003b0: 8f78 913d 5508 053d 1c78 5cbd a946 d33d
000003c0: 6202 a9bd 5f8e 4cbd cd11 933d 2d85 d9bd
000003d0: e709 643c b6c7 383d b4f3 93bc 8cc4 003e
000003e0: bf95 26bd b983 263c f9e3 53bd 959b d33d
000003f0: c35b d43d 031f a1bd b898 bebd 11ce 4bbc
-0.0884739 -0.10739644 -0.046072453 -0.10674728 0.036741592 0.09509252 -0.027848225 0.03601321
0.0064262836 -0.053711403 -0.03823822 0.10641607 0.049387667 -0.06367472 -0.096536554 0.09624965
-0.039936047 -0.13410826 0.11416644 0.017440228 0.03886903 -0.10051081 -0.12514903 0.06493553
0.073346704 0.03637028 -0.11587807 0.0026435344 -0.01823417 -0.020685632 -0.07498986 0.053730294
-0.11062653 -0.03252781 0.028104417 -0.035873927 0.05953443 -0.040651962 0.05704556 0.08383272
0.096821144 0.007453004 0.062395558 -0.111300394 -0.025422473 0.016727207 0.017689306 -0.037765387
-0.08101552 0.09494682 -0.118968636 -0.02689344 -0.015408851 0.019888751 -0.011385521 0.028711185
0.08661622 -0.005646456 0.0740974 -0.0681422 0.09853866 -0.0032011592 -0.076111235 -0.046052434
0.052408576 0.12744948 0.0805761 -0.05439903 0.09902353 0.020052472 0.11456428 0.00962657
0.103679724 0.078039125 0.0400336 0.038725838 0.12926826 0.0521123 -0.10316286 -0.003883345
-0.019502884 0.006461645 0.03070206 0.033670515 -0.052518923 -0.08691337 -0.06541812 0.07186964
-0.018835342 0.07175395 0.07178754 -0.06582913 -0.044569634 0.05127986 -0.045366317 0.050523553
0.03519685 0.11630304 -0.06485229 -0.09619947 -0.06737782 -0.07793405 0.07249936 -0.11993054
0.088871025 0.019066762 -0.08138331 0.011531818 -0.09886224 -0.081565544 0.09779608 0.02449428
0.1179278 0.1086417 -0.008734933 -0.12180101 0.06252874 -0.084059685 0.036553763 0.02714978
0.07929248 -0.079075 -0.04082239 -0.0009954241 0.10496065 0.051532604 -0.029300814 -0.07287647
-0.10516289 -0.041474286 -0.065433346 -0.0774232 0.06478407 -0.02823301 -0.049782634 -0.10589502
-0.060277577 -0.064750664 -0.07890871 0.11308335 -0.08357304 0.08899593 -0.07871963 0.04712509
-0.027148252 -0.03214337 -0.068009116 -0.070498876 -0.10683951 -0.07974527 -0.0067403754 -0.09999595
-0.10506259 0.032005798 -0.12004736 0.051820844 0.06505679 0.11330584 0.03938579 -0.1290675
0.075844504 -0.11447806 0.027033284 -0.014798738 -0.11889533 -0.015771218 -0.0076734917 -0.0015351071
0.04492155 0.07823368 -0.111900195 0.034435228 -0.06669498 -0.10128552 0.08983337 0.08325865
0.030175196 0.086335525 -0.07282018 0.02990554 0.030537087 -0.022557294 -0.02725775 0.11811488
0.015513556 0.07082632 0.12371768 0.009927936 0.049520224 -0.07658646 0.07610159 -0.028735323
-0.054219395 0.121818475 0.032192845 0.07534688 0.038032945 -0.035510402 -0.08722851 -0.08609322
-0.09776067 -0.06371736 -0.09812646 -0.09992463 0.07039936 0.036596913 0.13295947 0.0847846
0.07756354 0.00711914 -0.10593152 0.060011238 -0.09700851 0.07457638 0.052727334 0.050680626
-0.071124814 -0.090640634 0.0612754 0.050721582 -0.10913183 -0.032771938 -0.00025843075 0.009226206
0.066553324 -0.108305916 0.064505056 -0.0489538 0.044135652 0.113005705 0.0692868 0.1169238
0.05396097 0.03362918 0.12402416 0.059027646 0.07103073 0.03247865 -0.053825483 0.10316212
-0.082524076 -0.049940463 0.071811296 -0.106211044 0.0139183765 0.045112334 -0.018060543 0.12574977
-0.040670153 0.010163241 -0.051731084 0.10332409 0.10369065 -0.07867243 -0.093064725 -0.012439267

action_head.bias f4 [5]
00000000: a201 b8bc f28c 093c ae72 a43d 1923 9d3d
00000010: a8ce 9fbb
-0.022461716 0.00839542 0.08029686 0.0767271 -0.0048769303
