logs/ppo_checkpoint_ep250.pth (torch, 451850 bytes, 28 tensors)

fc1.weight f4 [128, 147]
0	0x3cff90ea	0.03119703
1	0x3d63d33b	0.055621367
2	0xbc9d2563	-0.019182866
3	0x3c162f0a	0.009166488
4	0xbced7394	-0.028985776
5	0x3dd58c36	0.10427134
6	0xbda2006e	-0.07910238
7	0x3d1a45e1	0.037664298
8	0xbd60ebe9	-0.05491248
9	0xbbc358c4	-0.0059615094
10	0xbc562872	-0.013071166
11	0xbcf8762a	-0.030329783
12	0xbd2fecaa	-0.04295031
13	0x3d5201e7	0.051271345
14	0xbd0dec8b	-0.034649413
15	0xbc0e0371	-0.008667813
16	0x3dca8c37	0.09890025
17	0x3cc72cfb	0.02431344
18	0x3d135652	0.035970993
19	0x3dacc135	0.08435289
20	0x3db0377c	0.08604333
21	0xbbb93e8e	-0.005653209
22	0xbc8361a6	-0.016037773
23	0x3cafd7f4	0.02146528
24	0xbd262ee1	-0.04057205
25	0xbd45ca33	-0.048288535
26	0xbd549b59	-0.051905964
27	0x3d00696e	0.031350546
28	0x3d4b7404	0.049671188
29	0x3d8430b7	0.06454604
30	0xbd04cece	-0.032423787
31	0x3dd429c4	0.10359529
32	0xbccb793c	-0.024838082
33	0xbdb6b904	-0.08922008
34	0x3cd1e057	0.025619669
35	0x3dc25c9b	0.09490319
36	0xbd2bb6b4	-0.041922286
37	0xbbed92fe	-0.007250189
38	0xbc862d5b	-0.016379049
39	0xbda0372f	-0.078230254
40	0x3da28886	0.07936196
41	0x3d3a316f	0.0454573
42	0xbda47638	-0.08030361
43	0x3d940b10	0.072286725
44	0x3d5706e4	0.052496806
45	0x3c05dd19	0.00817039
46	0x3cb71424	0.022348471
47	0x3ce834be	0.028345462
48	0xbddcbbb9	-0.10777993
49	0x3d11032e	0.035403423
50	0xbc59ebb1	-0.013300822
51	0xbd7b8b6f	-0.06141227
52	0x3d92ecae	0.07174049
53	0xbbf92c24	-0.007604139
54	0xbde1ca2d	-0.1102489
55	0x3da146da	0.07874842
56	0xbd1f3767	-0.038871195
57	0xbcce059c	-0.02514916
58	0x3cf0c529	0.029390888
59	0x3cbc7c68	0.02300854
60	0xbd941878	-0.072312295
61	0x3dbb8a2f	0.09157216
62	0xbcf05a63	-0.029339975
63	0xbddce7aa	-0.10786374
64	0x3e042c5b	0.12907545
65	0x3c4ed1e7	0.012623287
66	0xbd8f1464	-0.06986311
67	0x3bd66e9b	0.006543947
68	0x3dbbd51a	0.09171505
69	0xbe176d0d	-0.14787693
70	0x3d8c6a33	0.068561934
71	0xbc7fdb2d	-0.01561622
72	0x3dd6e349	0.1049257
73	0x3d0698e4	0.03286065
74	0x3cbf8e68	0.023383334
75	0xbdeb3bfa	-0.11486049
76	0x3bad8f21	0.0052966033
77	0xbbe48e21	-0.006974951
78	0xbdd6884a	-0.10475214
79	0x3d80f775	0.06297199
80	0x3db8ba4c	0.09019908
81	0xbc956b07	-0.018239511
82	0xbcdbbf61	-0.026824655
83	0xbc6061ef	-0.013695224
84	0xbdb44d71	-0.08803833
85	0x3d8c6fa0	0.06857228
86	0xbd049ffd	-0.03237914
87	0x3d277956	0.0408872
88	0x3d1591cf	0.036516007
89	0xbd691f08	-0.05691436
90	0xbdae948f	-0.08524429
91	0x3d6308a6	0.05542817
92	0xbd53454b	-0.051579755
93	0xbe0cc8e1	-0.13748504
94	0x3d9e8264	0.07739714
95	0xbb016516	-0.001974409
96	0xbd83f9ac	-0.064441055
97	0x3d6bdf3b	0.057585936
98	0x3d2edb38	0.042689532
99	0xbdbd7aa7	-0.0925191
100	0x3db2936c	0.08719525
101	0x3dbf2f1d	0.09335158
102	0xbdb6642a	-0.089058235
103	0x3d351ab3	0.044214915
104	0xba214882	-0.0006152467
105	0x3d83db0c	0.06438264
106	0x3d863523	0.06553104
107	0x3c137d3b	0.009002025
108	0xbd12ee8c	-0.035872027
109	0x3db02fae	0.08602844
110	0xbc9cc1e7	-0.019135429
111	0xbdf55492	-0.11979021
112	0x3e0091be	0.12555596
113	0xbcac23f9	-0.021013247
114	0xbd5f3347	-0.05449226
115	0x3d37f22e	0.044908695
116	0xbd0cb8e3	-0.03435601
117	0x3aa63acf	0.0012682321
118	0x3d36ec37	0.044658866
119	0x3c975ba5	0.018476317
120	0xbdb2b3de	-0.08725713
121	0x3dd97eeb	0.10619911
122	0x3c623eae	0.013808889
123	0xbdcf1ddd	-0.10113118
124	0xbd817976	-0.06321995
125	0xbb0d0568	-0.0021518115
126	0x3d191226	0.037370823
127	0xbbe65efc	-0.007030366
128	0xbd43c7ca	-0.047797956
129	0xbd5d9111	-0.054093424
130	0x3d6b90eb	0.05751125
131	0x3dcce5d8	0.10004777
132	0xbda2d5ce	-0.07950936
133	0x3df97341	0.12180186
134	0xbb54cbf7	-0.0032470205
135	0x3c4922f7	0.012276403
136	0xbb22d3a9	-0.0024845398
137	0x3dc97d24	0.09838322
138	0xbdb8a281	-0.0901537
139	0x3d969521	0.07352663
140	0x3d4ac272	0.049501844
141	0x3c0de262	0.008659931
142	0x3ca2f401	0.01989174
143	0x3d52a2b2	0.05142469
144	0xb90fb407	-0.00013704608
145	0x3db3ecc0	0.08785391
146	0x3b9c6940	0.004773289
147	0xbdc21e20	-0.09478402
148	0xbd32274d	-0.04349451
149	0xbc9b79c2	-0.018978957
150	0xbdbc61f2	-0.09198369
151	0xbda1400f	-0.07873546
152	0x3dc555e2	0.096355215
153	0xbc29e8df	-0.010370462
154	0x3d8ef7f1	0.06980885
155	0x3d907f0c	0.07055482
156	0xbdcee547	-0.10102325
157	0x3dd14d5a	0.10219832
158	0xbc20594f	-0.009786918
159	0xbd5fb474	-0.054615453
160	0x3d93642d	0.071968414
161	0x3cdebc6f	0.027189462
162	0x3d26667c	0.04062508
163	0x3ba59c83	0.005054058
164	0x3d90eca6	0.07076387
165	0xbd0f376f	-0.034964975
166	0x3d8b2d08	0.067956984
167	0x3d38b635	0.04509564
168	0x3d210b22	0.039317258
169	0x3c2e1551	0.010625199
170	0x3c298e1a	0.010348821
171	0xbc8ca198	-0.017166898
172	0x3bd40e53	0.006471434
173	0xbccc2fc5	-0.024925122
174	0xbc0e29a1	-0.008676917
175	0xbcd4253a	-0.025896657
176	0x3baf05aa	0.0053412514
177	0xbd8ece1a	-0.069729045
178	0x3ddb5541	0.1070962
179	0x3bf00ee6	0.007325995
180	0xbd40b4c9	-0.04704741
181	0xbc31cb72	-0.010851728
182	0xbc3419d0	-0.010992482
183	0xbc43b81a	-0.011945749
184	0x3dc8fbce	0.09813653
185	0x3cc7ffe0	0.024414003
186	0xbc9023c1	-0.017595174
187	0x3daedabc	0.08537814
188	0xbc3f4ffc	-0.011676785
189	0x3c311bfb	0.010809894
190	0x3d006064	0.031341925
191	0xbc8dd301	-0.017312529
192	0xbd9f2582	-0.07770826
193	0x3da55e4f	0.080746286
194	0xbd27f0c8	-0.04100111
195	0x3beea996	0.0072834
196	0x3db4b94f	0.08824407
197	0xbd1fb777	-0.038993325
198	0xbcbdcfd3	-0.023170387
199	0x3d4de147	0.05026367
200	0xbd08528e	-0.033281855
201	0xbd4d0922	-0.050057538
202	0x3d6fdfff	0.05856323
203	0x3dbae756	0.09126155
204	0xbb713160	-0.0036803111
205	0x3e01255b	0.12611906
206	0x3d86a6db	0.06574794
207	0x3d0671c3	0.032823335
208	0x3dec8cca	0.11550291
209	0x3d256520	0.040379643
210	0xbd8cb12c	-0.0686973
211	0x3d96814d	0.07348881
212	0xbd08ff75	-0.033446748
213	0xbd3e007e	-0.046387188
214	0xbc0f267b	-0.008737202
215	0x3d7a63a4	0.06113018
216	0xbda020a1	-0.078187235
217	0x3cf94182	0.030426744
218	0x3c85e369	0.01634379
219	0xbd1051a0	-0.035234094
220	0xbd91ddef	-0.071224086
221	0xbd11d04d	-0.03559904
222	0x3b6ffc0b	0.0036618735
223	0x3d843f93	0.06457438
224	0x3dbf197b	0.09331032
225	0xbcf80159	-0.03027408
226	0xbd43128d	-0.047625113
227	0x3ceae9ff	0.028676031
228	0xbd9a8b9a	-0.07546158
229	0xbd699d1d	-0.0570346
230	0xbda968cb	-0.08271941
231	0xbd726c94	-0.05918558
232	0x3c48cfa0	0.012256533
233	0x3da2d799	0.07951278
234	0xbca0fa03	-0.019650465
235	0x3dc43a80	0.095814705
236	0xbcfdaac5	-0.030965218
237	0xbcbd818b	-0.02313306
238	0x3d90c05c	0.0706794
239	0xbd37eaeb	-0.04490177
240	0xbcd2dc4f	-0.025739817
241	0x3dfd0d5c	0.12356064
242	0x3cfa0520	0.030520022
243	0xbd9a1c79	-0.07524962
244	0xbc060ea3	-0.008182201
245	0x3d9d3007	0.07675176
246	0xbcbaa45e	-0.022783455
247	0x3d3b3db6	0.04571315
248	0x3dcc5afa	0.0997829
249	0xbcc51da4	-0.024061985
250	0x3dc9ba14	0.09849945
251	0x3d6e41cb	0.058168214
252	0xbd1f3299	-0.038866613
253	0x3ceaa7ad	0.028644407
254	0x3b70756a	0.0036691078
255	0x3d25b00a	0.040451087

fc1.bias f4 [128]
0	0xbbef6190	-0.0073053315
1	0x3dbe3e90	0.092892766
2	0x3c5e9059	0.01358422
3	0xbc786816	-0.015161535
4	0xbd3c1bf9	-0.045925114
5	0x3d96d27a	0.07364364
6	0xbde2c97f	-0.110735886
7	0xbcddca2c	-0.027073942
8	0x3d71ce04	0.059034362
9	0x3d7163ad	0.05893295
10	0x3ce692cc	0.02814617
11	0xbdca5227	-0.098789506
12	0x3d7072ab	0.058703106
13	0x3d546e73	0.051863145
14	0xbcf98a23	-0.030461377
15	0x3d016415	0.031589586
16	0xbd7d7ccf	-0.061886605
17	0xbac5ba95	-0.0015085513
18	0xbd8212b3	-0.06351223
19	0x3c8d0c8b	0.017217895
20	0xbd5c1521	-0.053731088
21	0xbc0c2377	-0.008553377
22	0x3d6fa383	0.058505546
23	0x3cc7dad2	0.024396334
24	0xbdcbdaab	-0.09953817
25	0xbd6a860d	-0.057256747
26	0x3d9d507a	0.07681365
27	0x3d905c06	0.07048802
28	0x3d7e3051	0.062057797
29	0x3d6dec17	0.05808648
30	0xbb317f81	-0.0027084055
31	0x3c231095	0.009952684
32	0x3d81ac23	0.063316606
33	0x3db5c51d	0.08875487
34	0x3cc4afcf	0.024009613
35	0xbda6d2ff	-0.08145713
36	0x3dbe01c3	0.0927768
37	0x3d8092f6	0.062780306
38	0xbd38e665	-0.045141596
39	0x3d76d128	0.06025806
40	0x3dd674df	0.1047151
41	0x3c141f4e	0.009040667
42	0x3c2acf9a	0.010425473
43	0x3d11998e	0.03554683
44	0x3db6916b	0.08914455
45	0xbd0677e0	-0.032829165
46	0x3d9bc245	0.07605413
47	0x3d09b366	0.033618353
48	0x3ceacd02	0.028662208
49	0xbc166db1	-0.009181426
50	0x3cd1d152	0.025612507
51	0x3cdd9407	0.027048124
52	0x3dde955b	0.10868331
53	0x3d54c366	0.05194416
54	0xbc3098b3	-0.010778594
55	0xbd037b97	-0.032100286
56	0xbd37f348	-0.044909745
57	0xbd98984d	-0.07450924
58	0x3db80e99	0.08987159
59	0x3d085751	0.033286396
60	0xbcf2a471	-0.029619427
61	0x3ce63432	0.02810106
62	0x3c329646	0.010900086
63	0x3dad054e	0.084482774
64	0xbb857922	-0.004073278
65	0xbc980234	-0.018555738
66	0xbd8764e0	-0.06611037
67	0x3d0eec4e	0.034893326
68	0xbaa41af4	-0.001252024
69	0xbd07ccd8	-0.03315434
70	0x3dc07ff4	0.09399405
71	0x3da3adc2	0.07992126
72	0x3d2f1560	0.042744994
73	0x3da09b0a	0.07842071
74	0x3d2cb8f2	0.042168565
75	0x3ce16114	0.02751211
76	0x3d40e1a6	0.047090195
77	0x3db0c1e1	0.086307295
78	0xbc1cde16	-0.009574434
79	0x3d5b265e	0.053503387
80	0x3dd0912e	0.10183941
81	0xbb5d5e4c	-0.003377813
82	0xbc43b1d3	-0.011944252
83	0xbd332de0	-0.04374492
84	0x3dc382b7	0.09546416
85	0xbd0d537e	-0.034503452
86	0x3d6be753	0.057593655
87	0x3da1a4d1	0.07892764
88	0xbd24ea60	-0.04026258
89	0x3d3f96f7	0.04677483
90	0xbd1422e5	-0.03616609
91	0xbda43015	-0.080169834
92	0xbd3ec37b	-0.046573143
93	0xbc3fb962	-0.011701914
94	0xbd3b9d11	-0.045804087
95	0xbcf39537	-0.029734237
96	0x3d402cde	0.04691779
97	0x3dad883f	0.084732525
98	0x3d7bf114	0.061509207
99	0xbc43fafb	-0.011961694
100	0xbbcf7cc9	-0.006332014
101	0x3daafcaa	0.08348973
102	0x3d5db0e8	0.05412379
103	0x3d8630f5	0.065523066
104	0x3d77abf0	0.060466707
105	0x3da8240e	0.08210002
106	0x3d3f1d5a	0.04665885
107	0xbcdd8b6e	-0.027044024
108	0x3d73b654	0.059500054
109	0x3dab37b1	0.08360232
110	0xbae28505	-0.0017282075
111	0xbd9836ac	-0.07432303
112	0xbd4c39b6	-0.049859725
113	0x3d2f89c3	0.04285599
114	0x3cf0c738	0.02939187
115	0x3c2e0e30	0.0106235
116	0x3d41ba94	0.047297075
117	0x3d818ce2	0.063256994
118	0x3dca057c	0.09864327
119	0xbd27c1fd	-0.040956486
120	0xbce302e3	-0.027711337
121	0xbd2a9b72	-0.04165215
122	0x3d98f0ed	0.07467828
123	0x3cb59099	0.022163676
124	0xbd3518cf	-0.044213112
125	0x3db3eeb6	0.08785765
126	0x3d4fa997	0.050698843
127	0x3d865d84	0.065608054

fc2.weight f4 [64, 128]
0	0x3c0f9636	0.00876384
1	0xbd9eea65	-0.07759551
2	0xbd4c0975	-0.049813706
3	0x3d743d1b	0.059628587
4	0xbd98a3bf	-0.07453107
5	0x3d5c2ded	0.053754736
6	0x3d1d2871	0.038368646
7	0x3d9d9b7a	0.076956704
8	0xbdb90bb3	-0.090354346
9	0xbd58bf92	-0.05291707
10	0xbd650f9c	-0.05592309
11	0x3c87c2c1	0.016572358
12	0xbd95bfc1	-0.07311965
13	0x3d45b121	0.048264626
14	0xbcab69ce	-0.020924475
15	0x3d900cb1	0.07033671
16	0x3cca51b3	0.02469716
17	0xbc99c1ca	-0.018769164
18	0xbd18dc57	-0.037319507
19	0x3d2ed26b	0.04268114
20	0xbd10c9f9	-0.035348866
21	0x3d128146	0.035767816
22	0x3d218006	0.039428733
23	0xbd2f2e48	-0.042768747
24	0xbdaefad7	-0.08543938
25	0x3d9798fb	0.074022256
26	0xbd80319a	-0.06259461
27	0xbd895a15	-0.06706635
28	0xbd917401	-0.07102204
29	0x3cd161b4	0.025559284
30	0xbcfa4566	-0.03055067
31	0xbcc47aea	-0.023984391
32	0x3c8e2c28	0.01735504
33	0xbda1d3c5	-0.0790172
34	0xbdab2218	-0.08356112
35	0xbd6e2d00	-0.058148384
36	0x3cc943dd	0.024568493
37	0x3a0f1dbf	0.00054594496
38	0xbd03dc72	-0.032192655
39	0xbcf43a4c	-0.029812954
40	0x3cd226ae	0.02565321
41	0xbc4a1bd1	-0.0123357335
42	0x3d22b663	0.03972472
43	0xbc16cc6c	-0.009204011
44	0x3d8dc2da	0.069219306
45	0x3d5a8898	0.053352922
46	0xbd49ea42	-0.04929567
47	0xbc9380f8	-0.018005833
48	0xbd9a771d	-0.0754225
49	0xbda172a9	-0.07883198
50	0xbdc0d287	-0.09415155
51	0x3d6c40ee	0.05767911
52	0x3c8aa386	0.016923677
53	0x3cca175f	0.024669347
54	0xbdc6dac7	-0.09709697
55	0x3da0fb69	0.07860453
56	0xbcf7fd0b	-0.030272027
57	0xbd2c284c	-0.042030618
58	0xbd1fa905	-0.03897955
59	0x3ce94e75	0.028479794
60	0x3c9ffc9d	0.019529635
61	0x3c7e24d6	0.015511712
62	0xbce129f0	-0.027485818
63	0x3aa164e2	0.0012313391
64	0x3d4bb657	0.04973444
65	0xbd362503	-0.04446889
66	0x3d8c4a90	0.06850159
67	0x3d1e989a	0.03871975
68	0x3cab68da	0.02092402
69	0xbd41896a	-0.04725019
70	0xbda000b6	-0.078126356
71	0xbc4a04c5	-0.012330239
72	0xbce12835	-0.027484993
73	0xbc674cc3	-0.0141174225
74	0xbdc09b9c	-0.0940468
75	0x3c84a43a	0.01619159
76	0x3d2addd1	0.041715447
77	0x3766b55c	1.3751294e-05
78	0x3d62975d	0.055320133
79	0xbc946c98	-0.018118188
80	0xbd9653a4	-0.07340172
81	0x3c21842e	0.009858174
82	0xbc0d2084	-0.008613709
83	0x3c0b8da8	0.00851766
84	0xbd3d3993	-0.046197485
85	0x3d1012bc	0.035174116
86	0xbdc0426c	-0.09387669
87	0x3d6802b3	0.0566432
88	0xbd65368e	-0.05596023
89	0xbd0ac803	-0.033882152
90	0xbd5bcdfd	-0.053663243
91	0xbc9e0609	-0.019289987
92	0x3c2be312	0.0104911495
93	0x3c65d274	0.014027227
94	0x3d99617b	0.07489296
95	0x3d2f52bb	0.042803507
96	0xbc61f1e1	-0.013790579
97	0xbca6a74a	-0.020343442
98	0xbdc3b69d	-0.09556315
99	0xbda4837d	-0.08032892
100	0x3d945221	0.07242227
101	0xbd9696a7	-0.073529534
102	0xbca01e32	-0.019545648
103	0xbcd19c30	-0.025587171
104	0x3d3d4ef2	0.046217866
105	0xbcdd2d30	-0.026999086
106	0x3d9022c1	0.07037879
107	0xbd5b68b0	-0.053566635
108	0x3d6ed089	0.058304343
109	0xbc603a73	-0.01368581
110	0x3d153162	0.03642405
111	0xbd610a44	-0.05494143
112	0x3ba5e94f	0.005063213
113	0xbcf7892b	-0.030216774
114	0x3cc379e0	0.023861825
115	0xbd07713a	-0.033066966
116	0xbd5d1daa	-0.053983368
117	0x3d28fd56	0.041257225
118	0xbd243a61	-0.040094737
119	0xbd810ff4	-0.06301871
120	0x3acf4a11	0.001581492
121	0x3d715025	0.058914322
122	0xbbad7e55	-0.005294601
123	0xbd5f5bad	-0.05453079
124	0xbced4367	-0.028962804
125	0xbd049031	-0.032364074
126	0x3d84ec85	0.06490425
127	0xbdc55845	-0.09635977
128	0x3ba8f90b	0.0051566414
129	0xbd3af4f0	-0.045643747
130	0x3d74e166	0.05978527
131	0xbd85bd3b	-0.065302335
132	0xbcac33cf	-0.021020798
133	0x39bb49f3	0.00035722516
134	0xbd4a56d0	-0.049399197
135	0x3db6a7f3	0.089187525
136	0xbd14c653	-0.03632195
137	0xba991451	-0.0011679028
138	0x3d7fa928	0.06241718
139	0xbdada431	-0.08478583
140	0xbd8e20f4	-0.06939879
141	0x3d75f3bf	0.060046908
142	0xbd2db866	-0.042412184
143	0x3ce6d996	0.028179925
144	0x3d78b566	0.06071987
145	0xbd957fcd	-0.07299767
146	0xbd3436b1	-0.04399747
147	0xbc302a6f	-0.010752304
148	0xbd30ddf4	-0.04318042
149	0x3cd2c5ed	0.025729144
150	0xbd4f16d5	-0.050558884
151	0xbcc42343	-0.023942595
152	0x3da127f0	0.078689456
153	0x3da7d3cb	0.08194693
154	0x3d34f6cb	0.044180673
155	0x3c6d27f6	0.014474859
156	0xbdbfc1eb	-0.09363159
157	0xbcea51e2	-0.028603498
158	0x3d80a9fa	0.062824205
159	0x3d2918a8	0.04128328
160	0x3c6a2c42	0.014292778
161	0xbd0b16b7	-0.03395721
162	0x3dcd4c4a	0.100243166
163	0x3d04c793	0.03241689
164	0xbd987b82	-0.07445432
165	0x3d87dbbd	0.066337086
166	0x3bd91120	0.006624356
167	0xbd5be711	-0.05368716
168	0xbdaec6e4	-0.08534029
169	0xbda590c3	-0.08084252
170	0xbdc12bbe	-0.09432171
171	0xbbd9dc81	-0.0066486006
172	0xbda174be	-0.07883595
173	0xbd283da9	-0.04107443
174	0x3d50355d	0.05083214
175	0xbd5bd85e	-0.05367314
176	0xbd131a98	-0.035914034
177	0x3d744ea5	0.059645314
178	0x3d4283bd	0.047488917
179	0x3d2a2ea8	0.0415484
180	0x3d971415	0.07376877
181	0x3d89aeaa	0.06722768
182	0xbdbdd4c6	-0.09269099
183	0xbd9b20bf	-0.07574605
184	0x3c85210a	0.016251106
185	0x3d8b418d	0.06799612
186	0x3d937283	0.07199576
187	0xbdb273d9	-0.087135024
188	0x3c94244d	0.018083716
189	0xbcad096c	-0.021122657
190	0x3d563c10	0.052303374
191	0x3d16724f	0.036730107
192	0x3ca964a7	0.020677878
193	0xbd38833b	-0.045047026
194	0x3d32882c	0.043586895
195	0x3cba10ad	0.02271303
196	0xbbc182a5	-0.0059054666
197	0x3d4d02c1	0.050051454
198	0x3dacc700	0.08436394
199	0xbda21ede	-0.07916044
200	0xbcc24ab0	-0.023717254
201	0x3da538f4	0.080675036
202	0xbd0ebbd3	-0.034847092
203	0x3d3ab154	0.04557927
204	0xbd58927a	-0.052874066
205	0xbbf05b87	-0.0073351297
206	0x3c854fa6	0.01627333
207	0x3d3fd37b	0.046832543
208	0xbd9aebbd	-0.07564495
209	0xbd540e83	-0.051771652
210	0xbda6e637	-0.08149379
211	0xbcffb1ba	-0.031212676
212	0x3cc4186c	0.023937427
213	0xbd9fc611	-0.0780145
214	0xbcfe729c	-0.03106051
215	0x3d481755	0.048850376
216	0xbdccbec9	-0.09997327
217	0x3c6fd7a3	0.014638814
218	0xbd93932b	-0.072058044
219	0x3d260e27	0.04054084
220	0x3d498f39	0.049208853
221	0x3d4e1347	0.050311353
222	0x3d50d5d7	0.050985184
223	0x3daae2a8	0.083440125
224	0x3d64ba5a	0.05584178
225	0xbd849c09	-0.06475074
226	0x3d43ea2a	0.047830738
227	0xbdb91678	-0.09037489
228	0x3ce7bf28	0.028289393
229	0x3dabfe70	0.083981395
230	0xbc31f312	-0.010861175
231	0xbd8385c1	-0.06421996
232	0xbdbf1baf	-0.09331452
233	0x3d4fc712	0.050726958
234	0x3ab94bed	0.0014137008
235	0xbd8d290a	-0.06892593
236	0xbd65ca97	-0.056101408
237	0xbd994161	-0.07483173
238	0xbd0b3bee	-0.0339927
239	0x3c7c9af0	0.015417799
240	0xbb1cf8c5	-0.002395199
241	0xbd2a4e45	-0.04157855
242	0xbda2f2f9	-0.079564996
243	0xbd10acd7	-0.035321083
244	0xbd983eeb	-0.07433876
245	0xbd629c89	-0.055325065
246	0x3ce66054	0.028122105
247	0x3d6f04ef	0.058354314
248	0xbab2bd38	-0.0013636714
249	0x3db3e659	0.0878417
250	0x3d3e95c5	0.04652955
251	0xbdad3bc5	-0.08458666
252	0x3c2a8039	0.010406547
253	0x3da376ba	0.0798163
254	0x3cb63ea0	0.022246659
255	0x3d829ace	0.06377183

fc2.bias f4 [64]
0	0xbd24f682	-0.04027415
1	0xbdb246e3	-0.08704927
2	0xbda8ef35	-0.0824875
3	0x3dc6896c	0.0969418
4	0xbd949329	-0.07254631
5	0x3c05244d	0.008126331
6	0xbcda68c5	-0.026661286
7	0xbdc44b07	-0.09584623
8	0x3bf298c0	0.007403463
9	0xbda77203	-0.08176043
10	0x3da3c823	0.079971574
11	0x39cc414c	0.00038958562
12	0x3d11a6b1	0.03555936
13	0x3aca257a	0.0015422546
14	0x3d3d415a	0.046204902
15	0xbd9a2ab0	-0.07527673
16	0xbda1f749	-0.07908494
17	0xbd89a4bb	-0.06720873
18	0xbce40a31	-0.02783689
19	0xbd6c1f4d	-0.05764704
20	0x3ca0421c	0.019562773
21	0xbcbdfa6a	-0.023190696
22	0x3aaf452c	0.0013372055
23	0xbcd8e85f	-0.02647799
24	0x3d176c75	0.036968667
25	0xbb9e9a01	-0.004840136
26	0x3d6d359b	0.05791245
27	0x3d85e147	0.06537109
28	0x3c085536	0.008321097
29	0x3d1f025b	0.038820606
30	0xbd7dd71b	-0.06197272
31	0x3dbe899f	0.09303593
32	0x3da628f4	0.0811328
33	0x3db6494d	0.089007
34	0x3c0c4360	0.008560985
35	0xbdb557ec	-0.088546604
36	0xbd8cee09	-0.06881339
37	0x3da7eb65	0.08199195
38	0x3d5860cf	0.0528267
39	0xb9b8523c	-0.00035156484
40	0x3d5155c7	0.051107194
41	0x3c8f39ce	0.017483618
42	0xbd5d4a6d	-0.054026056
43	0xbc984cb7	-0.018591268
44	0x3b1218f6	0.002229271
45	0x3ba5a550	0.005055107
46	0x3db5edef	0.08883273
47	0xbd482fb1	-0.048873607
48	0xbd9605e0	-0.07325339
49	0x3d55aab4	0.05216475
50	0x3d993bfc	0.07482144
51	0x3d74decd	0.059782792
52	0xbbfdb235	-0.007742191
53	0xbd43652c	-0.047703907
54	0x3d0ac930	0.033883274
55	0x3bb0e3f7	0.0053982693
56	0x3ba66387	0.0050777826
57	0xbd98da79	-0.07463545
58	0xbc942f55	-0.018088976
59	0xbd209269	-0.039202128
60	0x3c4dfb47	0.012572116
61	0x3b576e3d	0.0032872104
62	0x3c981a1d	0.01856714
63	0x3d63f024	0.055648938

action_head.weight f4 [5, 64]
0	0x3d03f263	0.03221358
1	0xbdaf16f1	-0.085492976
2	0xbd255734	-0.040366367
3	0xbd8865da	-0.06660052
4	0x3d1db507	0.03850272
5	0xbc433932	-0.011915492
6	0xbcf71f4f	-0.030166296
7	0xbd9eefe7	-0.077606015
8	0xbbef38e1	-0.0073004817
9	0x3cb5bf24	0.02218587
10	0x3dcd8e97	0.100369625
11	0x3d64f521	0.055897836
12	0xbd57d78e	-0.052695803
13	0x3dab71a7	0.08371287
14	0x3badc80e	0.0053033894
15	0x3d9c3ea8	0.07629138
16	0x3db902a4	0.09033707
17	0xbc9aeecf	-0.018912701
18	0x3da87766	0.082258984
19	0xbdc98793	-0.09840312
20	0xbd8858c2	-0.06657554
21	0xbde93dab	-0.11388715
22	0x3d1eddb0	0.038785636
23	0x3ba2ac66	0.004964399
24	0xbd37cdf5	-0.04487415
25	0x3bd14de6	0.00638746
26	0xbd679edd	-0.05654799
27	0xbe0ddb96	-0.13853297
28	0x3d5ce847	0.053932454
29	0x3dba979c	0.091109484
30	0x3d8a0c6e	0.06740652
31	0x3d80b44a	0.062843874
32	0x3de6578f	0.11247169
33	0xbd6a96c3	-0.057272684
34	0x3d3a1d58	0.04543814
35	0x3d73673b	0.05942462
36	0x3da41dfb	0.08013531
37	0x3d2a94b2	0.041645713
38	0x3c206bc5	0.009791319
39	0xbda907c3	-0.082534336
40	0xbcd0e617	-0.02550034
41	0x3c759a11	0.014990346
42	0x3bfa3489	0.007635657
43	0xbd890141	-0.06689692
44	0xbdff351a	-0.124613
45	0xbdddc3f2	-0.10828389
46	0x3d47d5bb	0.048787814
47	0x3da9008a	0.08252056
48	0xbde9331a	-0.113867
49	0x3dd49f63	0.10381963
50	0xbc9427d0	-0.01808539
51	0x3cf4b581	0.029871704
52	0xbdac1202	-0.08401872
53	0x3d1ec297	0.038759794
54	0x3d9861fc	0.07440564
55	0x3c7a87a7	0.015291131
56	0x3ca260e2	0.019821588
57	0xbd4692e0	-0.048479915
58	0xbd735f7d	-0.059417237
59	0x3dfd88cf	0.1237961
60	0x3c68c10e	0.014206184
61	0x3dd1a62d	0.10236774
62	0xbde7cfec	-0.11318955
63	0x3d67454d	0.056462575
64	0xbc671c00	-0.014105797
65	0xbd0922f3	-0.033480596
66	0xbd8c52d1	-0.068517335
67	0x3d68fe40	0.056883097
68	0xbdcef675	-0.10105602
69	0x3c110e3d	0.008853492
70	0x3d845ad4	0.064626366
71	0x3b9ea6ec	0.004841676
72	0xbcdf0468	-0.02722378
73	0xbd82a72b	-0.06379541
74	0x3d540e36	0.051771365
75	0xbcbcca19	-0.023045586
76	0x3c81f55b	0.015864065
77	0xbde2e56c	-0.11078915
78	0xbcb60c5d	-0.022222692
79	0xbdef7d80	-0.11693859
80	0x3db2003a	0.086914495
81	0x3d3385e2	0.043828852
82	0x3dc2b46e	0.095070705
83	0x3de885f4	0.113536745
84	0xbc9445c8	-0.01809968
85	0x3d6f3037	0.05839559
86	0x3dd4526f	0.103672855
87	0xbda338dd	-0.0796983
88	0xbdc0ceb7	-0.09414428
89	0xbdc68e17	-0.0969507
90	0x3de1fad7	0.11034172
91	0x3c1d2c45	0.009593074
92	0xbd36d884	-0.04464008
93	0xbd8e7ee1	-0.06957794
94	0xbcdb425b	-0.02676504
95	0xbced1a33	-0.028943157
96	0xbc7a6d7c	-0.015284892
97	0xbd2d3124	-0.042283192
98	0xbdfbb4c6	-0.12290339
99	0xbde6a447	-0.11261802
100	0x3c8a2720	0.01686436
101	0xbd036f85	-0.032088775
102	0x3d8b9442	0.06815387
103	0xbd9c06a1	-0.07618452
104	0x3d4229eb	0.047403257
105	0x3c99a05b	0.018753221
106	0x3d5adfbb	0.053436022
107	0xbda67642	-0.08128025
108	0x3e061173	0.13092594
109	0x3d4c8deb	0.04994003
110	0xbd895eb7	-0.067075185
111	0x3dd50665	0.1040161
112	0xbd8f38ec	-0.06993279
113	0x3d011778	0.031516522
114	0xbdd2323a	-0.10263486
115	0xbcebaf7c	-0.0287702
116	0x3c7871ab	0.015163819
117	0x3c7bac91	0.015360967
118	0xbd2aecbf	-0.041729685
119	0x3a17d490	0.0005791867
120	0xbd6b80b9	-0.057495806
121	0xbdcf5b94	-0.10124889
122	0x3cf6238e	0.03004625
123	0xbd013479	-0.031544182
124	0x3dbef1b7	0.09323447
125	0xbd7c74a8	-0.06163469
126	0x3d887bf8	0.0666427
127	0x3e0a2f31	0.13494565
128	0xbd2f2c63	-0.04276694
129	0x3d1b1707	0.037863757
130	0xbcad8413	-0.021181142
131	0xbde1a62b	-0.11018022
132	0xbbe27ed2	-0.006912091
133	0xbd99c087	-0.07507425
134	0x3d8dcae3	0.06923463
135	0xbdfa5733	-0.12223663
136	0x3d4d8a51	0.050180737
137	0x3dd62103	0.10455515
138	0xbd5f01f7	-0.054445233
139	0xbcc00e72	-0.023444388
140	0x3d7055af	0.058675464
141	0x3d8badc1	0.0682025
142	0xbe0cae44	-0.13738352
143	0x3ddae65c	0.10688469
144	0x3d90d103	0.07071116
145	0xbd49061a	-0.049078085
146	0xbdc79218	-0.09744662
147	0xbd78c193	-0.06073148
148	0xbe22dfd7	-0.159057
149	0xbdb06025	-0.08612088
150	0xbd012c2c	-0.031536266
151	0xbd6167db	-0.055030685
152	0x3d6b2c79	0.05741546
153	0xbd8f06f6	-0.069837496
154	0xbe3ef170	-0.18646789
155	0x3d1a3bd8	0.037654728
156	0x3d87639a	0.06610794
157	0x3d804bb0	0.06264436
158	0xb98ecb62	-0.00027235883
159	0x3b8bf6ab	0.0042713485
160	0x3d43ac69	0.047771845
161	0x3d489c79	0.04897735
162	0xbda04a46	-0.078266665
163	0x3d7f1237	0.06227323
164	0x3d1320de	0.035920016
165	0x3d69c4cf	0.057072457
166	0xbd03daea	-0.032191195
167	0x3d1b35d7	0.037893143
168	0xbd7bdde9	-0.061490927
169	0x3ceef2cf	0.029168515
170	0xbdbfbf44	-0.09362653
171	0x3c632254	0.013863165
172	0xbd1b2f55	-0.037886936
173	0xbddb5792	-0.10710062
174	0xbb14f2ad	-0.0022727654
175	0x3d7a0613	0.06104095
176	0xbc4eefc0	-0.012630403
177	0xbe1c076d	-0.15237208
178	0xbd34b0fc	-0.044114098
179	0xbbc6b487	-0.006064001
180	0xbd945eb5	-0.072446264
181	0xbdf0fd96	-0.11767118
182	0xbd552b98	-0.052043527
183	0xbde55613	-0.11198058
184	0xbb26aeab	-0.00254337
185	0xbce14aaa	-0.027501423
186	0xbd634694	-0.05548723
187	0x3d3b9bc7	0.045802858
188	0xbda72206	-0.08160786
189	0x3b612bb2	0.003435832
190	0xbc89e026	-0.016830515
191	0x3baa368a	0.00519449
192	0xbd893f65	-0.06701545
193	0x3d2558a5	0.04036774
194	0x3d7f3229	0.062303696
195	0x3d6515c1	0.05592895
196	0xbda95be9	-0.082694836
197	0x3d122c70	0.03568691
198	0xbd84dfdb	-0.064880095
199	0x3c1c09e9	0.009523847
200	0x3cf195fa	0.02949046
201	0xbc605c1f	-0.013693838
202	0x3df11995	0.117724575
203	0xbbe303b4	-0.0069279317
204	0x3e02f5e7	0.12789117
205	0x3ddf8d1c	0.10915586
206	0x3d5df644	0.054189935
207	0x3db261a0	0.08710027
208	0x3da2eeef	0.07955729
209	0x3d00c6eb	0.031439703
210	0x3e126012	0.1429446
211	0x3d335055	0.043777782
212	0xbbfcd163	-0.0077153905
213	0x3d80759b	0.062724315
214	0x3d0dc118	0.034607977
215	0x3d94bbf6	0.07262413
216	0x3d863585	0.06553177
217	0x3c7e4e06	0.015521532
218	0xbdab10a9	-0.08352787
219	0x3d2d0d85	0.04224922
220	0x3d52c7ca	0.051460065
221	0xbd652d3c	-0.055951342
222	0xbdd379c1	-0.10325957
223	0xbd6ab859	-0.057304714
224	0xbc33738d	-0.010952842
225	0xbd5c8238	-0.053835124
226	0x3c24f1a0	0.0100673735
227	0x3dfc69aa	0.12324841
228	0xbd6b8abd	-0.057505358
229	0xbd9ae872	-0.07563867
230	0x3d85f3a1	0.06540609
231	0x3df02fc7	0.11727863
232	0xbdbf284f	-0.0933386
233	0xbd821806	-0.06352238
234	0xbd60fb7d	-0.054927338
235	0x3d6a9e75	0.057280023
236	0x3e163a1d	0.14670606
237	0x3dc14f32	0.094389334
238	0x3dc61f9b	0.09673997
239	0xbd69f280	-0.05711603
240	0xbd9772d2	-0.07394947
241	0x3bb9cf4b	0.005670463
242	0x3e15fd0b	0.1464731
243	0x3e0c7f93	0.1372054
244	0x3da232c4	0.07919839
245	0xbde1526a	-0.11002047
246	0x3c981100	0.018562794
247	0x3ddee339	0.10883183
248	0xbce5c356	-0.028047245
249	0xbdd3cb3e	-0.103415
250	0xbdcfbea2	-0.10143782
251	0xbda0488d	-0.07826338
252	0x3c9867d1	0.018604191
253	0xbd802674	-0.06257334
254	0xbd868d11	-0.06569875
255	0x3b5c3df6	0.0033606268

action_head.bias f4 [5]
0	0x3c73b1f3	0.014873969
1	0xbcfddae9	-0.030988174
2	0xbe17154c	-0.14754218
3	0xbd3b76d0	-0.045767605
4	0x3d7b2ced	0.06132214

value_head.weight f4 [1, 64]
0	0x3b3f32f8	0.0029174667
1	0xbd2f8648	-0.04285267
2	0xbd2dff9d	-0.0424801
3	0x3e036d92	0.12834767
4	0xbde65644	-0.112469226
5	0xbe0ed4d8	-0.13948381
6	0x3e1ba1a1	0.15198375
7	0xbd8b0ad3	-0.06789174
8	0x3db2104f	0.08694517
9	0xbcd4f6b2	-0.02599654
10	0xbe22a90c	-0.15884799
11	0xbe35829b	-0.17725603
12	0xbded6283	-0.11591055
13	0x3da03e04	0.078243285
14	0x3dd222d0	0.10260546
15	0x3dda62b4	0.106633574
16	0x3c907443	0.017633563
17	0xbd8beb07	-0.06831937
18	0x3dd5340d	0.104103185
19	0xbdb9cc70	-0.090721965
20	0xbdf4a476	-0.11945431
21	0x3d0dd778	0.034629315
22	0xbdfa67b4	-0.12226811
23	0x3db0abed	0.08626542
24	0xbe0105f1	-0.12599923
25	0xbe4de5e2	-0.20107225
26	0xbe1d6130	-0.15369105
27	0x3d77bf15	0.060484964
28	0xbdaabd59	-0.083368964
29	0x3dfa00cf	0.122071855
30	0x3c9301a9	0.017945128
31	0x3dc8bec9	0.098020144
32	0xbe3181ae	-0.17334625
33	0xbe390988	-0.18070042
34	0x3d9b6a42	0.075886264
35	0x3cdb5eea	0.026778657
36	0x3df69f50	0.12042105
37	0x3dbdfedf	0.092771284
38	0x3d09dacf	0.033655938
39	0xbe19ac47	-0.15007125
40	0xbe343f84	-0.17602354
41	0xbe43d397	-0.19123684
42	0xbd52b870	-0.051445425
43	0x3e1bb81e	0.15206954
44	0x3d1b5785	0.037925262
45	0x3db823ac	0.08991179
46	0x3e0fe64e	0.14052698
47	0x3c86065f	0.01636046
48	0xbda20788	-0.07911593
49	0x3da5cd75	0.080958284
50	0x3df30c00	0.11867523
51	0xbe3c3f36	-0.18383488
52	0x3da98e12	0.08279051
53	0xbd2ce0a4	-0.04220642
54	0x3d9b196b	0.075732075
55	0x3d9d239b	0.07672807
56	0x3e182f85	0.14861877
57	0x3d2dab4c	0.04239969
58	0xb987e915	-0.00025922866
59	0x3c6ada6a	0.0143343005
60	0x3cf8f82f	0.03039178
61	0x3d941fce	0.07232629
62	0x3e2187c0	0.15774441
63	0xbe11dc16	-0.14244112

fc1.weight f4 [128, 147]
0	0xbd567bc0	-0.05236411
1	0x3cf5521e	0.029946383
2	0x3d1a083f	0.03760552
3	0xbd822e98	-0.06356543
4	0x3df8978c	0.1213828
5	0x3b9e1b27	0.004825014
6	0x3d189141	0.0372479
7	0x3da94d57	0.082667045
8	0x3da5063e	0.08057831
9	0xbcbbe53b	-0.022936454
10	0x3d35586e	0.044273786
11	0x3dbb1118	0.0913412
12	0xbc9eaa12	-0.019368205
13	0x3d7983b8	0.060916632
14	0xbd7702db	-0.060305458
15	0x3d895346	0.06705336
16	0x3d1cf682	0.038321026
17	0x3d8689b9	0.06569237
18	0xbd8dbbe7	-0.06920605
19	0x3ce97b37	0.028501136
20	0x3d96f5d1	0.073711045
21	0xbd6f24b8	-0.058384627
22	0x3c99c86b	0.018772325
23	0xbc8a7001	-0.01689911
24	0x3c89bc32	0.016813371
25	0x3b36554a	0.0027821832
26	0x3d2f5931	0.04280967
27	0xbbec8966	-0.0072185276
28	0x3d2fa077	0.04287764
29	0x3d1903c1	0.037357096
30	0xbdabb899	-0.083848186
31	0x3cea122f	0.028573124
32	0x3d51bd13	0.051205706
33	0xbd4d366d	-0.050100733
34	0xbc32c701	-0.010911704
35	0x3db56b6e	0.08858381
36	0x3b50777d	0.0031809502
37	0x3d8c066b	0.06837162
38	0x3d6d9716	0.058005415
39	0x3d0f0cd1	0.034924332
40	0x3da57de6	0.08080654
41	0x3bae3df6	0.005317445
42	0xbdee81d4	-0.116458565
43	0x3d8b410f	0.06799518
44	0xbcce4356	-0.025178593
45	0xbc909c32	-0.017652605
46	0x3db94867	0.09047013
47	0x3dc76684	0.0973635
48	0xbc9735ee	-0.018458333
49	0x3dacad9c	0.08431551
50	0xbcc9edf6	-0.024649601
51	0xbdc0f26a	-0.09421237
52	0x3ddb172d	0.1069778
53	0xbc8f25cc	-0.017474078
54	0x3d2464b1	0.04013509
55	0x3db13967	0.08653527
56	0xbd02b73e	-0.031913035
57	0xbda6fea4	-0.081540376
58	0xbcd322cd	-0.02577343
59	0x3b316dd0	0.002707351
60	0xbd42a2a7	-0.0475184
61	0x3d907d93	0.070552014
62	0xbd2e2ecb	-0.042525094
63	0xbcf7e428	-0.03026016
64	0x3da21451	0.07914031
65	0x3d1ac7b2	0.0377881
66	0x3bd2832b	0.006424328
67	0x3d84a138	0.064760625
68	0xbd343595	-0.043996412
69	0xbcc8996e	-0.024487223
70	0x3dda19ca	0.1064945
71	0x3d4c9e99	0.049955938
72	0x3d8e2498	0.069405735
73	0x3bc4187f	0.0059843655
74	0xbdc2ea0e	-0.09517299
75	0xbd0f9f07	-0.03506377
76	0xbc9168bd	-0.017750138
77	0xbd03a447	-0.03213909
78	0xbdab1315	-0.08353249
79	0x3ddc5ed1	0.10760272
80	0x3d2632cf	0.0405758
81	0x3cfb9f3d	0.03071558
82	0x3d976cda	0.07393809
83	0x3d79fc7a	0.061031796
84	0x3cb2eb8b	0.021840831
85	0xbccf14ad	-0.025278414
86	0xbd6423e0	-0.055698276
87	0x3a317506	0.0006769452
88	0xbc16f168	-0.009212829
89	0xbca4effc	-0.020133965
90	0x3d1fe51b	0.03903685
91	0x3da7946d	0.08182607
92	0x3b402e4a	0.0029324465
93	0xbd484c1f	-0.04890072
94	0xbc2b6f57	-0.010463557
95	0x3db00678	0.08594984
96	0xbaa08278	-0.0012245914
97	0x3d4c00c3	0.049805414
98	0x3d3279a8	0.04357305
99	0xbc153133	-0.009105968
100	0x3dbf38c1	0.09336997
101	0x3d30dcc5	0.043179292
102	0xbd8ee6b9	-0.069776006
103	0xbca333cf	-0.019922165
104	0xbd2770a6	-0.040878914
105	0xbc106f75	-0.008815636
106	0x3da8cfc3	0.082427524
107	0x3d519cb5	0.051174838
108	0xbd62bd3b	-0.055356245
109	0xbd306be9	-0.04307166
110	0x3d7c7f42	0.0616448
111	0x3d82a6cb	0.063794695
112	0x3c6bfdb9	0.014403754
113	0x3ce93ffa	0.02847289
114	0xbdc7fdef	-0.09765231
115	0xbcedf4a6	-0.029047322
116	0xbd7c4e70	-0.06159824
117	0x3c2d16c9	0.010564514
118	0xbd0508aa	-0.032478966
119	0x3d3a9f57	0.045562115
120	0xbd5b6d4f	-0.05357104
121	0x3da5c975	0.080950655
122	0x3dc447ee	0.09584032
123	0x3ace41e8	0.0015736194
124	0x3c31fee6	0.010863995
125	0xbd7ea937	-0.062173095
126	0xbd371e65	-0.04470672
127	0xbc1773f4	-0.009243954
128	0x3cb6f9a7	0.02233584
129	0x3cb98405	0.02264596
130	0x3daeee42	0.08541538
131	0xbcd02198	-0.025406644
132	0xbdbcc99e	-0.09218143
133	0x3d47e718	0.048804373
134	0xbb5115c4	-0.0031903842
135	0x3ce05462	0.027383987
136	0x3d7e76d7	0.062125053
137	0x3db5162a	0.08842118
138	0xbd175173	-0.03694291
139	0xbd233ec8	-0.039854795
140	0x3cbd87c7	0.023136033
141	0xbbafbf77	-0.0053634006
142	0x3d1267cc	0.03574352
143	0x3d808ed8	0.06277245
144	0x3d5ed761	0.05440462
145	0xbc8f646e	-0.017503943
146	0xbd36e95f	-0.044656154
147	0x3d235c9f	0.039883252
148	0x3d950e35	0.072781004
149	0x3d2c2541	0.042027716
150	0x3ce755be	0.028239127
151	0x3d1b23bf	0.037875887
152	0xbd471a4b	-0.04860906
153	0xbd10da19	-0.035364244
154	0x3cef545e	0.029215034
155	0x3c9b6955	0.018971125
156	0x3cb8ef99	0.022575187
157	0x3db95501	0.09049416
158	0x3d63982c	0.055565044
159	0x3d40809e	0.04699766
160	0x3dd5b3e3	0.10434701
161	0xbd44bbd3	-0.048030686
162	0x3a854d84	0.0010170196
163	0x3bab62bc	0.005230276
164	0xbc6ce853	-0.014459687
165	0x3d781527	0.060567047
166	0x3c6c4fcd	0.014423323
167	0x3d567094	0.052353457
168	0xbd219735	-0.039450843
169	0xbca65783	-0.0203054
170	0x3d8bdd6b	0.068293415
171	0xbd490947	-0.049081113
172	0xbcbf730b	-0.023370286
173	0xbd2511b2	-0.04030008
174	0xbd6d6758	-0.057959884
175	0x3de71ec1	0.11285163
176	0x3d6b3efb	0.05743311
177	0xbdcde88b	-0.1005412
178	0x3dc1adbf	0.094569676
179	0x3db05530	0.08609998
180	0xbc920237	-0.017823322
181	0x3dca9ff0	0.09893787
182	0x3cab425e	0.02090567
183	0xbdb98ade	-0.0905969
184	0x3d827500	0.06369972
185	0x3c72f71c	0.014829423
186	0xbcd7915d	-0.026314432
187	0xbccb088b	-0.024784347
188	0xbca6a549	-0.020342486
189	0x3c2faad9	0.010721886
190	0x3d347a29	0.044061814
191	0xbc992bb5	-0.018697599
192	0x3c41c696	0.011827132
193	0x3d4e55da	0.050374843
194	0x3c83282c	0.016010366
195	0xbb7a71f8	-0.0038214903
196	0x3d84b2f6	0.064794466
197	0x3da63504	0.08115581
198	0xbdb67b4e	-0.08910237
199	0x3dccb17e	0.099947914
200	0xbd3c1809	-0.04592136
201	0x3d087969	0.03331891
202	0xbc4c7bba	-0.012480671
203	0x3d72a5e2	0.05924023
204	0x3b5be636	0.0033553964
205	0x3d1c0ac2	0.038096197
206	0xbbf55350	-0.0074867383
207	0xbdb32bc2	-0.087485805
208	0x3c51157d	0.012761471
209	0xbd456bbf	-0.048198458
210	0xbd8d7346	-0.06906752
211	0x3da59f8a	0.0808707
212	0x3ab13296	0.0013519104
213	0xbdad4646	-0.08460669
214	0x3daa8b1b	0.083273135
215	0xbd5b4367	-0.053531077
216	0xbdd89bb0	-0.1057657
217	0x3deeac09	0.11653907
218	0x3bb9b785	0.005667629
219	0x3d9e7fde	0.077392325
220	0xbbdd95af	-0.0067622284
221	0xbda43eee	-0.080198154
222	0xbe017bee	-0.12644932
223	0x3de1630f	0.11005222
224	0x3b59718e	0.0033179256
225	0x3cf410af	0.029793112
226	0xbd0bdd35	-0.034146506
227	0x3dbf3313	0.093359135
228	0xbdcc212d	-0.09967265
229	0x3da042f0	0.07825267
230	0x3da3264c	0.07966289
231	0xbd375ee1	-0.044768218
232	0x3d6a2b69	0.057170305
233	0x3ca730e2	0.020409051
234	0xbc07ad35	-0.008281042
235	0x3daa61b5	0.083194174
236	0x3d81d926	0.06340246
237	0xbd77770f	-0.060416277
238	0x3e08a566	0.13344344
239	0xbd7a4807	-0.061103847
240	0x3cf65803	0.030071264
241	0x3db3f00b	0.08786019
242	0x3d4ea170	0.050446928
243	0x3c224ef3	0.009906518
244	0x3d73a221	0.05948079
245	0x3cabbcab	0.020963987
246	0xbdb5f33b	-0.08884283
247	0xbc35a9bc	-0.011087831
248	0x3dba2cf9	0.09090609
249	0xbd6ec229	-0.058290634
250	0x3d68278e	0.056678347
251	0x3dc658c5	0.096849
252	0xbdb03fda	-0.08605929
253	0x3b70a99e	0.0036722193
254	0xbcec47ea	-0.028842885
255	0x3d4137f2	0.047172494

fc1.bias f4 [128]
0	0x3d9bda81	0.07610036
1	0x3b93d747	0.004511747
2	0xbc95ec03	-0.018301016
3	0x3d3de0f1	0.0463571
4	0xbd93f679	-0.07224745
5	0x3cc8c24b	0.024506709
6	0x3dacf5ae	0.08445297
7	0x3c158d5f	0.009127944
8	0x3d38eec9	0.0451496
9	0x3d7f0cb3	0.06226797
10	0x3d36d953	0.04464085
11	0xbcd88082	-0.026428465
12	0x3d994cda	0.074853614
13	0xbb4d33df	-0.0031311435
14	0x3d3d99ea	0.046289362
15	0x3d160a71	0.03663105
16	0x3d36f18a	0.044663943
17	0xbd3ef839	-0.046623442
18	0xbc38d205	-0.011280541
19	0xbaf62f46	-0.0018782399
20	0x3c3b1f2f	0.011421009
21	0xbcb5e96f	-0.022206036
22	0x3da18dab	0.07888349
23	0xbdd279b8	-0.10277122
24	0xbcd78206	-0.026307117
25	0x3c229b6f	0.009924754
26	0xbd9f9c0d	-0.07793436
27	0x3cec9335	0.028878788
28	0x3d0058a0	0.03133452
29	0x3d913961	0.07091022
30	0x3d156e23	0.036481988
31	0xbbdb16e7	-0.00668608
32	0xbc4936fd	-0.012281177
33	0xbd5674cb	-0.052357476
34	0x3d69f089	0.057114158
35	0x3d03f329	0.032214317
36	0x3c76cb2e	0.01506309
37	0x3d9bc291	0.0760547
38	0xbd2f2c3f	-0.042766806
39	0x3d811ed4	0.06304708
40	0xbd11afd2	-0.035568066
41	0x3d158a97	0.036509123
42	0x3da11f1c	0.07867262
43	0x3d4d65c4	0.05014588
44	0xbd1fab1f	-0.038981553
45	0xba0b3be4	-0.00053113536
46	0x3dc1af82	0.094573036
47	0x3d5ce54b	0.05392961
48	0x3d3290e6	0.043595217
49	0xbc8cccd0	-0.017187506
50	0x3d4c4ae2	0.0498761
51	0x3cd77ff3	0.026306128
52	0x3d438f0f	0.047743853
53	0x3dae90bc	0.085237
54	0x3debf2fe	0.115209565
55	0x3d977900	0.07396126
56	0xbd64ea72	-0.055887647
57	0x3de95a68	0.11394197
58	0xbc9a4613	-0.018832242
59	0x3d84d340	0.06485605
60	0xbcdf62cf	-0.027268795
61	0xbdabfc4e	-0.08397733
62	0x3d0faaa5	0.03507485
63	0xbd98e60f	-0.07465755
64	0x3bcee314	0.006313691
65	0xbbfbd3c4	-0.0076851565
66	0xbbd186b7	-0.006394233
67	0xbd13eb3b	-0.036113005
68	0x3daacfa0	0.083403826
69	0xbcc03dc3	-0.02346695
70	0x3dac2abe	0.0840659
71	0x3d3e6634	0.046484187
72	0x3cc47d5a	0.023985554
73	0x3db6652d	0.089060165
74	0x3ca98d4d	0.02069726
75	0x3b913b8e	0.0044321483
76	0xbc21072f	-0.009828373
77	0x3d918c58	0.071068466
78	0x3d69dc1f	0.05709469
79	0xb9733cc0	-0.00023196917
80	0x3da5651e	0.08075927
81	0x3d364d64	0.0445074
82	0x3d8f5483	0.06998541
83	0xbd5df0dc	-0.05418478
84	0xbcd84271	-0.02639887
85	0xbcb6e705	-0.022326956
86	0x3da87abd	0.082265355
87	0xbdb69b58	-0.08916348
88	0x3d37c1d5	0.044862587
89	0x3bff3c6a	0.0077891843
90	0xbb3b6a24	-0.00285972
91	0xbc8360ed	-0.016037429
92	0xbc8c90f8	-0.01715897
93	0xbc849683	-0.01618505
94	0xbcb0340d	-0.021509195
95	0x3ce29857	0.027660532
96	0xbda55dd9	-0.08074541
97	0x3d4a4069	0.049377833
98	0x3d86c33f	0.06580209
99	0x3da9244a	0.08258875
100	0x3d591736	0.05300065
101	0xbda33b54	-0.079703
102	0x3cfe3463	0.03103084
103	0x3d1308d0	0.035897076
104	0x3cf95749	0.030437129
105	0xbcf9397f	-0.030422924
106	0x3dace45b	0.08441993
107	0xbccd97d0	-0.025096804
108	0x3b90f82e	0.0044241166
109	0xbc05013e	-0.008117972
110	0x3d1df9f7	0.038568463
111	0x3ca05537	0.019571884
112	0x3d801055	0.06253115
113	0x3aa9316b	0.0012908404
114	0xbcb8ad94	-0.022543706
115	0xbc0d1802	-0.008611681
116	0x3cd5595c	0.026043586
117	0x3dad3747	0.08457809
118	0x3d77f41f	0.060535546
119	0x3c43930b	0.011936913
120	0x3dc3a48f	0.095528714
121	0x3dbaa706	0.091138884
122	0x3d338484	0.04382755
123	0x3bdeeb37	0.006802942
124	0x3dc6916c	0.09695706
125	0x3db35710	0.0875684
126	0xbd7a6af3	-0.06113715
127	0x3d0efc6b	0.034908693

fc2.weight f4 [64, 128]
0	0x3cfe3ab8	0.031033859
1	0xbbe2c0e5	-0.0069199675
2	0xbd9350e3	-0.07193162
3	0xbc005cce	-0.007834626
4	0xbd671589	-0.056417022
5	0xbbae4a15	-0.00531889
6	0x3c51eb38	0.012812428
7	0x3d924042	0.071411625
8	0xbca2c628	-0.019869879
9	0xbda910aa	-0.082551315
10	0x3d7336c7	0.05937841
11	0xbb7c221a	-0.0038472475
12	0x3c611efb	0.0137402965
13	0x3dbcb13d	0.09213493
14	0xbdc803e4	-0.09766367
15	0xbd137e03	-0.036008846
16	0x3da49f80	0.08038235
17	0xbdc962ca	-0.09833296
18	0xbdae59c5	-0.08513216
19	0x3d099748	0.03359154
20	0xbd90ec25	-0.07076291
21	0xbda98b7f	-0.0827856
22	0xbc43a2a7	-0.011940635
23	0xbc664bb4	-0.014056135
24	0xbd237627	-0.0399076
25	0x3ca1f0c2	0.019768123
26	0xbdaec273	-0.08533182
27	0xbd871713	-0.06596198
28	0x3d876535	0.066111006
29	0x3cb18c95	0.02167348
30	0x3bb2e70c	0.005459672
31	0xbd9dfe28	-0.07714492
32	0xbb61c89e	-0.0034451853
33	0xbc851a68	-0.016247943
34	0xbda6c023	-0.08142116
35	0x3d8d8c8b	0.06911572
36	0x3ca6ed53	0.020376837
37	0x3d6a1847	0.05715206
38	0x3aae8fbd	0.0013317984
39	0xbdaaa128	-0.08331519
40	0x3d3f745f	0.04674184
41	0xbd559880	-0.05214739
42	0xbccd337f	-0.02504897
43	0x3d83b7a6	0.064315125
44	0xbd50921d	-0.050920594
45	0xbbda85a8	-0.006668765
46	0x3d68331f	0.056689378
47	0xbbd2bb7d	-0.0064310418
48	0x3d0acc5a	0.03388629
49	0xbda329a9	-0.079669304
50	0xbd66ebd0	-0.056377232
51	0x3d8125e7	0.063060574
52	0xbd890875	-0.06691066
53	0x3b801d7e	0.0039097657
54	0x3ba3ef9e	0.00500293
55	0x3d619ad9	0.055079315
56	0xbd936a5b	-0.0719802
57	0x3be9a3b9	0.007130113
58	0x3d613d79	0.054990266
59	0x3c941191	0.018074783
60	0x3d1f43e2	0.038883097
61	0xbd838b52	-0.064230576
62	0x3cf5cdb3	0.030005312
63	0xbd373f20	-0.044737935
64	0x3d1caaca	0.038248815
65	0xbd329da4	-0.04360737
66	0x3cd5bc45	0.02609075
67	0x3da491ed	0.08035646
68	0xbd55076f	-0.052009042
69	0x3d3c3974	0.04595323
70	0xbd0b5e3f	-0.034025427
71	0x3cf46e5e	0.029837783
72	0x3c14f271	0.009091006
73	0x3cf63ccb	0.030058285
74	0x3c5c5f6c	0.013450485
75	0x3d38df5f	0.0451349
76	0x3d884cea	0.06655295
77	0xbcf06c6f	-0.02934858
78	0xbdadaa18	-0.084797084
79	0x3d99c3ba	0.07508035
80	0x3d75d08b	0.060013335
81	0x3d1c5c1f	0.03817379
82	0x3c78d200	0.015186787
83	0x3d1aaff5	0.037765462
84	0x3aa2a49c	0.0012408677
85	0x3d284a3a	0.041086413
86	0x3d432fb7	0.047652926
87	0xbda36b75	-0.0797948
88	0xbd0888bf	-0.033333536
89	0x3c477b1b	0.012175347
90	0x3d87da64	0.066334516
91	0x3d0698c3	0.03286053
92	0xbd51a74d	-0.05118494
93	0x3d0c5fa1	0.034270886
94	0xbce96db7	-0.028494699
95	0xbcded4a3	-0.027201002
96	0xbd3b2826	-0.045692585
97	0x3c9d0119	0.019165562
98	0x3d838287	0.064213805
99	0xbda8998a	-0.0823241
100	0x3d73e311	0.05954272
101	0x3d7e43e3	0.06207646
102	0xbbcdae22	-0.0062768618
103	0x3dac2319	0.08405132
104	0xbd69c501	-0.057072643
105	0xbd9ba332	-0.075994864
106	0xbc1f48d9	-0.009721958
107	0xbc79dfd2	-0.015251117
108	0xbdc4d6a6	-0.096112534
109	0x3d84f7ec	0.064926
110	0xbc33e8e8	-0.010980822
111	0xbd087d37	-0.03332254
112	0x3da884dc	0.08228466
113	0x3c1aa95e	0.009439794
114	0xbb427c2d	-0.0029676065
115	0xbd056bf0	-0.03257364
116	0xbd287956	-0.04113134
117	0xbd4a8c02	-0.049449928
118	0xbd7fc4ee	-0.062443666
119	0xbd12f2a0	-0.035875916
120	0x3d94cdea	0.072658375
121	0x3d064288	0.032778293
122	0xbd045685	-0.032309074
123	0x3ccd0f4e	0.025031712
124	0x3cbb82e7	0.022889568
125	0x3d9a4eae	0.07534538
126	0xbd8e5f8f	-0.0695182
127	0x3c5cfd78	0.013488166
128	0xbc5ddcad	-0.013541383
129	0x3cdf1fd8	0.027236864
130	0xbd0dcfac	-0.03462188
131	0x3e1be3a4	0.15223557
132	0xbcd6210b	-0.026138803
133	0x3d0b9f2e	0.034087352
134	0x3df5f1a6	0.120089814
135	0x3d248142	0.040162332
136	0x3d2cff1f	0.04223549
137	0x3d184d37	0.037183013
138	0x3d56df7f	0.052459236
139	0x3cccc6c0	0.024997115
140	0x3bb435d4	0.005499581
141	0xbdb34933	-0.08754196
142	0x3d3e250e	0.046422057
143	0x3ca87440	0.020563245
144	0xbe026cce	-0.12736818
145	0x3bb26adb	0.005444867
146	0x3e1530fb	0.14569466
147	0x3dfb7dce	0.12279855
148	0x3e1ece4f	0.15508388
149	0xbd880f16	-0.066435024
150	0xbd5af9ab	-0.05346076
151	0xbca51df8	-0.020155892
152	0x3e03d963	0.12875895
153	0x3d7187b4	0.058967307
154	0x3d2e61b9	0.042573664
155	0x3d874fbb	0.06607004
156	0xbdaa3716	-0.08311288
157	0x3d59de67	0.053190615
158	0xbdb8bb71	-0.090201266
159	0x3dc8c59d	0.09803317
160	0x3e005bae	0.12534973
161	0xbd932d76	-0.07186405
162	0x3cdbc30f	0.02682641
163	0x3cb31fcf	0.021865753
164	0xbd855576	-0.06510441
165	0xbdb3ece3	-0.08785417
166	0x3cddf692	0.027095113
167	0xbd7e5974	-0.062097028
168	0x3e0c304a	0.13690296
169	0xbdb934ee	-0.09043299
170	0x3d155497	0.036457624
171	0xbd84281d	-0.064529635
172	0xbcc242be	-0.023713466
173	0xbcac069d	-0.020999247
174	0xbd2bd814	-0.041954115
175	0x3e0782f2	0.13233545
176	0xbc6c1648	-0.014409609
177	0x3dc29ae5	0.095022
178	0x3db3847f	0.08765506
179	0x3dd43a2a	0.103626564
180	0xbda09f03	-0.07842829
181	0x3dba4e34	0.09096947
182	0xbdf50faa	-0.11965878
183	0xbdbde78b	-0.09272679
184	0x3d38494b	0.044991773
185	0xbdc1410b	-0.09436234
186	0xbca0dcb3	-0.019636488
187	0x3ce111e0	0.027474344
188	0x3cb85be6	0.022504758
189	0x3d19f4db	0.037587028
190	0xbdb1a73d	-0.08674476
191	0x3cae7d1e	0.021299895
192	0xbdc96fb5	-0.098357596
193	0xbd8dd8cd	-0.06926117
194	0x3d3bd645	0.04585864
195	0xbd87ff4d	-0.06640492
196	0x3d758ab3	0.059946727
197	0xbd857654	-0.0651671
198	0x3d9f6035	0.07782022
199	0xbb8e9f77	-0.004352506
200	0xbd8f58ee	-0.06999384
201	0xbd9ceaf2	-0.07662
202	0xbc73f6a9	-0.014890351
203	0xbd86deb9	-0.0658545
204	0xbcb179ab	-0.021664461
205	0x3c0fc16f	0.0087741455
206	0xbb598ea0	-0.0033196583
207	0xbd9773d1	-0.07395137
208	0x3d502f86	0.050826572
209	0xbb691c54	-0.0035569863
210	0xbdcefcac	-0.10106787
211	0x3d663b9d	0.056209195
212	0x3dc0d946	0.094164416
213	0xbdc842b9	-0.09778351
214	0x3d56a279	0.05240104
215	0xbd82511c	-0.06363127
216	0xbca2bf56	-0.019866627
217	0xbc15af1b	-0.009135987
218	0x3c076185	0.008262997
219	0xbdc95a97	-0.09831732
220	0x3d306fdc	0.043075427
221	0x3c78571e	0.015157489
222	0xbddc34fe	-0.10752295
223	0xbe085f22	-0.1331754
224	0xbcae046f	-0.021242348
225	0x3df9bb7b	0.12193962
226	0x3d8b3ed1	0.06799091
227	0x3d84cee0	0.06484771
228	0x3d0a182c	0.03371446
229	0xbd9c9817	-0.07646196
230	0xbcec587c	-0.028850786
231	0x3d6ef1c7	0.058336046
232	0xbd9f353e	-0.07773827
233	0xbde83b5c	-0.11339447
234	0x3d21c907	0.039498355
235	0xbd4d8fe3	-0.05018605
236	0x3dfd33d5	0.12363402
237	0xbd00907c	-0.03138779
238	0xbd13f25d	-0.036119808
239	0xbd90f806	-0.07078557
240	0xbd8a2c28	-0.067467034
241	0x3d1bf750	0.038077652
242	0x3cc05756	0.023479145
243	0x3d73d0ae	0.059525184
244	0xbcca18da	-0.024670053
245	0xbd535ded	-0.051603246
246	0xbdd318a5	-0.10307435
247	0x3d5b060b	0.05347256
248	0x3dc64071	0.0968026
249	0xbd3f6b1c	-0.046733007
250	0x3dac11d9	0.08401842
251	0xbd8bc7c4	-0.06825212
252	0x3dff53b9	0.12467141
253	0xbd7474d6	-0.059681736
254	0x3e078ca1	0.1323724
255	0x3dd0eecb	0.10201796

fc2.bias f4 [64]
0	0x3c469ae8	0.012121893
1	0x3d8f1220	0.06985879
2	0xbcd408e4	-0.025883146
3	0x3d945410	0.07242596
4	0x3d5785e0	0.052617908
5	0xbd7e7308	-0.06212142
6	0xbd26acd9	-0.040692184
7	0x3d8096dd	0.06278775
8	0xbd9e0f59	-0.07717771
9	0x3d367557	0.044545498
10	0xbcaed766	-0.021342944
11	0x3e0885ae	0.13332245
12	0xbda48461	-0.08033062
13	0x3d023504	0.03178884
14	0x3dea27d0	0.11433375
15	0xbd993b0c	-0.074819654
16	0xbd1654bb	-0.0367019
17	0x3d55a3e8	0.052158266
18	0xbcd54c0f	-0.026037244
19	0xbc0bf42d	-0.008542103
20	0xbd9cbd71	-0.076533206
21	0x3cd41d29	0.02589281
22	0xbcae02e8	-0.02124162
23	0xbc855501	-0.016275885
24	0x3dbcbd7a	0.09215827
25	0xbd8009ec	-0.062518924
26	0x3ddd700c	0.10812387
27	0x3d3e3178	0.046433896
28	0x3d3d51d0	0.0462206
29	0xbd9c7041	-0.07638598
30	0x3c95d72c	0.018291079
31	0xbda6b4eb	-0.08139976
32	0x3cadb89a	0.021206189
33	0x3bc7968c	0.0060909446
34	0x3caf019d	0.021363074
35	0x3d92a663	0.07160642
36	0x3ccbf671	0.024897786
37	0xbcae03d8	-0.021242067
38	0xbbb8245b	-0.0056195683
39	0x3c06533d	0.0081985565
40	0xbb289ad5	-0.0025727053
41	0xbd8f83fe	-0.070075974
42	0x3c7a7c1d	0.01528838
43	0xbbce294f	-0.0062915455
44	0x3d90e010	0.070739865
45	0xbb941dea	-0.0045201676
46	0x3d8a13cd	0.06742058
47	0x3c910876	0.01770423
48	0xbbb4b26f	-0.005514435
49	0xbda3ead1	-0.08003772
50	0xbd0a3376	-0.033740483
51	0xbbcf8e98	-0.006334137
52	0xbd607327	-0.054797318
53	0xbd0bccd2	-0.03413088
54	0x3dc36199	0.095401
55	0xbd29fa3c	-0.041498408
56	0xbaabb540	-0.0013100281
57	0x3cbbc161	0.022919359
58	0x3dbd9b4d	0.09258137
59	0xbd97465b	-0.07386466
60	0x3d8fa338	0.070135534
61	0x3ce01214	0.02735237
62	0x3d68b10b	0.056809466
63	0xbd2fddfd	-0.042936314
