logs/ppo_checkpoint_ep100.pth (torch, 451850 bytes, 28 tensors)

fc1.weight f4 [128, 147]
000000 4d a4 1e 3d 38 c0 37 3d 19 14 35 bd 2f 84 fd 3c
       0.03873091 0.04486105 -0.04420862 0.03094682
000010 52 42 2b bd af cc c2 3d 09 49 93 bd 83 84 fa 3c
       -0.041811295 0.095116965 -0.07191665 0.030580765
000020 fd 8e 68 bd 54 4a d1 3c cb ff 55 bc 0b da 97 bc
       -0.05677699 0.025548138 -0.013061474 -0.018536588
000030 16 e5 1d bb 1a 6e 40 3d 61 b2 1a bd 68 af a8 3c
       -0.0024092845 0.04698 -0.03776777 0.020591453
000040 25 85 b2 3d 9e ae f3 3c fb e8 8b 3d 1b 51 81 3d
       0.087168016 0.02974635 0.06831547 0.06314298
000050 61 0f c7 3d b4 4f 97 3c 5c 6a 29 bd e5 2f c2 3c
       0.0971973 0.018470623 -0.041361198 0.023704479
000060 8a cf 82 bc d5 9a 90 bd 7a c1 b6 bd 48 8d 61 3d
       -0.015968103 -0.07060782 -0.089236215 0.055066377
000070 a4 21 5d 3d ae ea 61 3d c6 6f 90 bc 90 17 a9 3d
       0.05398716 0.05515545 -0.017631423 0.08256447
000080 c5 b5 43 bc 33 c2 91 bd ff ca 69 3c 63 06 cd 3d
       -0.011945193 -0.07117119 0.014269589 0.10010984
000090 79 ef 9e bb fd 33 e3 bc 13 8d 14 bc 1a 62 8b bd
       -0.0048503247 -0.02773475 -0.009066838 -0.06805821
0000a0 f9 fe 75 3d ad 5b 62 3d ef 1f 4a bd 6f 86 47 3d
       0.060057614 0.05526321 -0.04934686 0.04871219
0000b0 b6 93 4d 3d 62 fb ef 3c 80 41 bf 3b 83 2e e0 3c
       0.050189696 0.029294673 0.0058366656 0.027365929
0000c0 04 f9 a9 bd dd 7e f4 3c 58 e6 40 bd 59 a6 65 bd
       -0.08299449 0.02984565 -0.047094673 -0.056066845
0000d0 63 3d 8f 3d a7 78 ad bc ac 73 db bd 86 00 5a 3d
       0.069941305 -0.021175696 -0.10715422 0.053223155
0000e0 a8 f7 13 bd 8c 39 83 bc b0 e9 0d 3c 8d 84 0d 3d
       -0.036124855 -0.016018651 0.0086616725 0.03455024
0000f0 eb 34 3f bd a3 c7 96 3d 2d c8 d3 bc fe d2 a4 bd
       -0.046681326 0.073622964 -0.025852287 -0.08048056
000100 fd 9b c2 3d 5e 3c 0e 3c ea 19 7f bd 53 31 79 bc
       0.09502409 0.008681385 -0.062280573 -0.015209514
000110 47 97 a7 3d 6f 9c e8 bd 11 f9 82 3d 65 ec af bc
       0.08183151 -0.11357962 0.06395162 -0.021475026
000120 bd a6 c7 3d 90 ac 6d 3c c7 b9 fb 3c 7d 1c e2 bd
       0.097486 0.014506474 0.030728234 -0.1104059
000130 38 f9 5d bc 28 29 97 bb b8 25 bf bd 76 a8 48 3d
       -0.013548188 -0.0046130605 -0.09333366 0.048988782
000140 60 27 bc 3d e8 81 75 3c 21 94 19 bd 54 3a 20 bc
       0.09187198 0.014984585 -0.037494782 -0.0097795315
000150 73 9f 80 bd 65 03 2e 3d 3e bc dc bc f2 b0 70 3d
       -0.062804125 0.042483706 -0.02694523 0.0587625
000160 42 5b a5 3c c0 47 45 bd 7d cd 91 bd 5d 67 35 3d
       0.020185117 -0.04816413 -0.07119272 0.044288028
000170 ea 50 5a bd 15 a1 d6 bd f0 cb 87 3d b5 40 0d bc
       -0.053299822 -0.10479943 0.06630695 -0.008621384
000180 be 9a 47 bd 70 11 27 3d 22 cf 1e 3d e3 23 cc bd
       -0.048731558 0.040788114 0.038771756 -0.09967782
000190 77 50 95 3d 71 3d 96 3d 62 ab 9c bd 3c 54 da 3c
       0.07290738 0.07335938 -0.07649876 0.026651494
0001a0 65 75 08 bc 36 1e 63 3d f0 eb 43 3d 3b 64 b5 3c
       -0.00832877 0.055448733 0.04783243 0.02214252
0001b0 df 29 c1 bc 0d 5a 88 3d 3f c3 93 39 93 66 cf bd
       -0.023579536 0.06657801 0.00028183495 -0.10126986
0001c0 10 ba e1 3d ac 43 11 bc ca df 5b bd 29 33 1b 3d
       0.11021817 -0.008866232 -0.05368022 0.037890587
0001d0 9e 21 eb bc 89 06 42 3c a9 29 00 3d 95 c2 94 3c
       -0.028702553 0.011842378 0.03128973 0.01815919
0001e0 7f 91 8f bd d6 bb a7 3d ee b3 61 3c 96 f7 ae bd
       -0.07010173 0.08190124 0.013775809 -0.08543317
0001f0 01 87 89 bd 4c 01 1f 3c b9 da 15 3d 62 39 fa bc
       -0.06715203 0.009704899 0.036585543 -0.03054494
000200 de 8a fd bc e4 7f e4 bc 82 c8 42 3d 2a be c1 3d
       -0.030950006 -0.027893014 0.0475545 0.09460099
000210 d7 cb aa bd ae 07 dd 3d 62 11 0c 3c b4 13 53 3c
       -0.083396606 0.107924804 0.008549066 0.012883116
000220 95 36 ce bc fd 41 e2 3d 18 62 90 bd 68 7f 83 3d
       -0.025172511 0.110477425 -0.0704996 0.06420785
000230 b3 a5 89 3d 46 c2 2a 3c 54 c7 64 b9 09 f7 81 3d
       0.06721058 0.010422295 -0.0002181803 0.06345946
000240 ad c4 6d 3a 9b 93 87 3d 38 7e 8c 3c a5 5e b7 bd
       0.00090701395 0.066199504 0.01715003 -0.08953599
000250 15 21 68 bd b0 62 40 bd 99 40 95 bd e2 bb af bd
       -0.056672174 -0.046969116 -0.07287712 -0.08580758
000260 6e 83 ac 3d 40 8c b5 3a 20 03 7d 3d e8 9e 99 3d
       0.08423506 0.0013851002 0.06177056 0.07501012
000270 11 dd 96 bd 2d 2c cf 3d 95 6f 87 ba 5b 94 88 bc
       -0.07366384 0.10115848 -0.0010332937 -0.016672304
000280 6f 38 88 3d e0 ad b2 3c a1 42 89 3d 9b 99 91 bb
       0.06651389 0.021811426 0.067021616 -0.00444336
000290 5b 0a 88 3d 7d 14 3b bc 31 72 4f 3d 80 d6 58 3d
       0.066426 -0.011418459 0.05064601 0.05293894
0002a0 d2 25 7c 3d 93 c2 b8 bc 54 8f 8c 3c 80 91 0f 3c
       0.061559506 -0.022553718 0.017158188 0.008762717
0002b0 04 44 52 bc c6 34 f3 bc 3e 7b 6b 3c 1d b1 8d bc
       -0.012833599 -0.02968825 0.014372645 -0.017296368
0002c0 dd 26 79 bb 40 2e 74 bd bc 50 b0 3d dc f7 85 3c
       -0.003801755 -0.05961442 0.08609149 0.01635354
0002d0 b9 97 d5 bc 92 58 bd bc 9a 70 bd bb e4 e3 d4 3c
       -0.026073324 -0.023113523 -0.0057812454 0.025987573
0002e0 78 f5 9c 3d 8f 30 df 3c 41 61 9c 3c 07 68 8a 3d
       0.07664007 0.027244834 0.019089343 0.06758123
0002f0 60 bc a6 3a 87 b1 16 3d 83 5e ea 3b 20 eb b8 bc
       0.0012720935 0.036790397 0.00715238 -0.022573054
000300 e5 8b 7d bd ed 19 87 3d 55 8e 26 bd 4b 48 db 3c
       -0.061900992 0.06596742 -0.040663082 0.02676787
000310 ef 31 a4 3d a7 cf 89 bd 0f af be bc 1c f3 32 3d
       0.080173366 -0.0672906 -0.023276834 0.04368888
000320 f8 c5 18 bd 21 4b 52 bd 8c 87 0f 3d 04 b0 bf 3d
       -0.037298173 -0.05134118 0.035041377 0.09359744
000330 25 df c0 3b 6f 2d d9 3d 05 57 8c 3d dd 6a 82 3d
       0.005885976 0.10604369 0.06852535 0.06368039
000340 d9 62 ca 3d bb 76 1b 3d c3 63 37 bd 69 5e 20 3d
       0.09882135 0.037955027 -0.044772875 0.039152537
000350 5a 4d 1e bd f2 3f ac bc c0 a5 13 bd b0 e0 58 3d
       -0.038647987 -0.021026585 -0.036046743 0.052948654
000360 44 c3 8a bd 9f 39 c7 3c 94 4b 7f 3c b1 c7 2b bd
       -0.06775525 0.024319468 0.015581984 -0.041938487
000370 c7 50 92 bd 40 e9 f0 bc 9c ab 5d 3c a9 fd 3d 3d
       -0.07144313 -0.029408097 0.013529684 0.046384487
000380 d1 dc b4 3d bc d9 8c bc 03 5c 5e bd b3 bd db 3c
       0.0883118 -0.017193668 -0.054286968 0.026823854
000390 6b e2 6b bd d7 b2 83 bd 52 6b 82 bd 81 87 91 bd
       -0.057588976 -0.06430595 -0.06368126 -0.071059234
0003a0 e3 a3 2a bc 1f 35 b1 3d c7 27 95 bb 6b 84 a1 3d
       -0.01041505 0.0865271 -0.004551861 0.07886585
0003b0 78 e4 b4 bc e0 90 f0 ba eb 6b 76 3d f5 f0 3e bd
       -0.022081599 -0.0018353723 0.060161512 -0.046616513
0003c0 6b 49 d9 bc f5 9e e3 3d 32 99 c8 3c 05 7b 95 bd
       -0.026524266 0.11114303 0.024487112 -0.07298855
0003d0 b1 c7 38 bd e9 9e 92 3d 7a 3b e2 bb ce b6 08 3d
       -0.045112316 0.07159216 -0.006904063 0.03337746
0003e0 44 32 a2 3d 7d 08 82 bc 3f 27 ac 3d 4f 24 5f 3d
       0.07919744 -0.015873188 0.08405923 0.054477986
0003f0 06 47 4b bd 76 80 2c 3c c3 7c 07 3c 3d 73 52 3d
       -0.04962828 0.010528674 0.008269492 0.05137943

fc1.bias f4 [128]
000000 18 95 71 bc 8c 83 b0 3d 53 9f 49 3c fe c5 4f bc
       -0.014745019 0.086188406 0.012306052 -0.012681482
000010 a6 77 35 bd 17 66 aa 3d 30 eb d2 bd 83 5d ec bc
       -0.04430356 0.08320253 -0.10298765 -0.028853184
000020 08 eb 69 3d 93 00 69 3d ff f3 bf 3c ad 4a bc bd
       0.05710891 0.056885313 0.023431776 -0.09193931
000030 15 9f 81 3d b2 a8 67 3d e3 5c 1c bd 43 f3 1f 3d
       0.063291706 0.056557365 -0.03817452 0.03905035
000040 a1 ec 84 bd 36 22 c6 3a e3 c0 8c bd 28 b1 d2 3c
       -0.06490446 0.0015116397 -0.06872728 0.02571924
000050 13 d6 49 bd 75 47 1d bb a6 bf 80 3d 74 36 0c 3d
       -0.049276423 -0.002399889 0.06286554 0.034231618
000060 59 32 bd bd f0 8f 6d bd 47 99 97 3d 84 8d 9d 3d
       -0.09238119 -0.057998598 0.07402282 0.076930076
000070 25 33 8a 3d 1c b6 4d 3d 32 e0 ac 3b 50 db 5b 3b
       0.06748036 0.0502225 0.0052757496 0.0033547468
000080 f9 ac 49 3d 1a be af 3d a1 ad b1 3c 8d 66 99 bd
       0.049237225 0.08581181 0.021689238 -0.07490263
000090 11 c3 ba 3d 4c c0 9b 3d 40 c8 53 bd 6b d3 8b 3d
       0.09119237 0.07605037 -0.051704645 0.06827434
0000a0 9a d4 d5 3d 2d 56 11 3c 7a ba 5a 3c 2c a0 43 3d
       0.10440941 0.008870644 0.013350124 0.047760174
0000b0 ee e2 be 3d 94 d6 21 bd d3 e2 b1 3d a2 ac ff 3c
       0.09320627 -0.03951128 0.086858414 0.031210247
0000c0 ed 4c 52 3c b3 90 18 bc 3e 11 03 3d 24 2f 1d 3d
       0.012835723 -0.009311843 0.031998865 0.038375035
0000d0 f3 62 d1 3d 53 e9 6d 3d 01 4f af bc 44 20 bb bc
       0.10223951 0.058083843 -0.021399977 -0.022842534
0000e0 e1 61 47 bd 38 a9 97 bd 49 b7 a3 3d 19 ea 1f 3d
       -0.04867733 -0.07405323 0.07993943 0.039041612
0000f0 df 3e 10 bd 81 dc 96 3c 41 be 13 3c f4 03 90 3d
       -0.03521621 0.018415691 0.009017528 0.07032004
000100 d7 3b 35 3b 5d 2d f6 bc bd c7 63 bd 98 18 15 3d
       0.0027654076 -0.030050928 -0.055610407 0.036400408
000110 fc c5 b2 bb 2d 4f 2c bd a1 71 af 3d 97 7f 94 3d
       -0.0054557305 -0.042067695 0.08566595 0.07250898
000120 56 84 0b 3d 51 0d ae 3d ac 91 53 3d c8 5e 8a 3c
       0.034061752 0.08498634 0.051652595 0.016890898
000130 ff 8f 60 3d b5 6b aa 3d d8 7a a3 bc c1 86 4d 3d
       0.054824825 0.08321325 -0.019956037 0.05017734
000140 ca 32 dc 3d d8 a6 17 bc 32 7c 05 bc ec c2 26 bd
       0.10751875 -0.009256087 -0.008147286 -0.040713236
000150 c8 54 b8 3d a1 49 f3 bc 55 6e 89 3d bc 13 b8 3d
       0.09000546 -0.029698195 0.06710497 0.08988139
000160 d8 7a 0d bd b8 f2 5c 3d a1 9e 4c bd 43 53 92 bd
       -0.03454098 0.053942412 -0.049955968 -0.07144787
000170 25 32 31 bd f3 54 7d bc 52 83 32 bd 1e 42 a6 bc
       -0.043260712 -0.015462148 -0.043582268 -0.020295199
000180 2b de 64 3d ee a3 b6 3d 2f bb 5d 3d cc 79 1b bc
       0.05587594 0.08917986 0.05413359 -0.009489488
000190 0c 3b 7e bc 55 b2 9e 3d 78 61 54 3d 4e 94 72 3d
       -0.015517008 0.07748858 0.051850766 0.059223466
0001a0 2e e7 49 3d 13 46 b2 3d c4 30 15 3d db 6a e1 bc
       0.049292736 0.08704772 0.03642346 -0.027516773
0001b0 7b 2c 5d 3d 51 17 9a 3d 42 1a 14 3c 32 14 9a bd
       0.053997498 0.075239785 0.0090394635 -0.07523383
0001c0 48 c3 45 bd cb 66 42 3d ba d2 07 3d a0 82 cb 3c
       -0.048281938 0.047461312 0.03315995 0.02484256
0001d0 b6 4d 2f 3d 98 c0 6b 3d ad c4 c1 3d 30 a4 1b bd
       0.04279872 0.05755672 0.09461341 -0.03799838
0001e0 53 bc de bc 0a 5f 2b bd f8 ee a8 3d 8e 87 bf 3c
       -0.02718941 -0.041838683 0.08248705 0.023380067
0001f0 ee d5 25 bd 7d 63 c2 3d 51 d3 73 3d e3 25 87 3d
       -0.040487222 0.09491632 0.0595277 0.06599023

fc2.weight f4 [64, 128]
000000 09 98 0f 3c 43 ea 9e bd 01 09 4c bd b5 3d 74 3d
       0.008764275 -0.077595256 -0.049813274 0.05962916
000010 66 a3 98 bd e7 2e 5c 3d 9a 28 1d 3d a9 9b 9d 3d
       -0.07453041 0.053755667 0.0383688 0.076957054
000020 42 0b b9 bd 24 bf 58 bd 14 0f 65 bd 86 c3 87 3c
       -0.090353504 -0.05291666 -0.055922583 0.016572725
000030 4e bf 95 bd b5 b1 45 3d a4 69 ab bc d8 0c 90 3d
       -0.07311879 0.048265178 -0.020924397 0.070337
000040 3a 52 ca 3c af c1 99 bc b4 db 18 bd db d2 2e 3d
       0.024697412 -0.018769113 -0.0373189 0.042681556
000050 79 c9 10 bd cd 81 12 3d d9 80 21 3d f0 2d 2f bd
       -0.03534839 0.03576832 0.03942952 -0.04276842
000060 a6 fa ae bd 6e 99 97 3d 19 31 80 bd d2 59 89 bd
       -0.08543901 0.07402311 -0.06259365 -0.06706585
000070 cd 73 91 bd ae 62 d1 3c d2 44 fa bc bf 79 c4 bc
       -0.07102165 0.02555975 -0.030550394 -0.023983834
000080 da 2b 8e 3c 80 d3 a1 bd 07 22 ab bd d2 2c 6e bd
       0.017354894 -0.079016685 -0.083560996 -0.058148213
000090 69 45 c9 3c 7f 4d 0f 3a a6 db 03 bd 59 39 f4 bc
       0.02456923 0.0005466565 -0.032191895 -0.029812502
0000a0 40 28 d2 3c c3 1a 4a bc cd b6 22 3d fa ca 16 bc
       0.025653958 -0.012335482 0.039725114 -0.009203667
0000b0 09 c3 8d 3d 8c 89 5a 3d 60 e9 49 bd 86 7f 93 bc
       0.06921966 0.05335383 -0.04929483 -0.018005144
0000c0 fb 76 9a bd a9 72 a1 bd f3 d1 c0 bd f3 41 6c 3d
       -0.07542225 -0.07883198 -0.09415045 0.05768008
0000d0 b7 a4 8a 3c 2b 19 ca 3c 87 da c6 bd bd fb a0 3d
       0.016924245 0.024670204 -0.097096495 0.07860515
0000e0 c7 fc f7 bc 4c 28 2c bd 97 a8 1f bd 19 4f e9 3c
       -0.0302719 -0.042030618 -0.03897914 0.0284801
0000f0 02 fe 9f 3c 1e 25 7e 3c 78 28 e1 bc 9c 76 a1 3a
       0.0195303 0.015511779 -0.027485117 0.0012318674
000100 6d b7 4b 3d d4 24 36 bd b6 4a 8c 3d 50 99 1e 3d
       0.049735475 -0.044468716 0.068501875 0.03872043
000110 c6 6a ab 3c 6a 89 41 bd 8c 00 a0 bd c8 03 4a bc
       0.020924937 -0.04725019 -0.07812604 -0.012330003
000120 78 27 e1 bc fe 4a 67 bc 63 9b c0 bd 18 a5 84 3c
       -0.02748464 -0.014117001 -0.09404638 0.016192004
000130 65 de 2a 3d 1e f2 71 37 cb 97 62 3d 1e 6b 94 bc
       0.041716 1.4421092e-05 0.055320542 -0.018117484
000140 4b 53 96 bd 1e 86 21 3c a2 1f 0d bc ad 8f 0b 3c
       -0.073401056 0.009858636 -0.008613499 0.008518142
000150 25 39 3d bd 62 13 10 3d 33 42 c0 bd b0 03 68 3d
       -0.046197075 0.035174735 -0.093876265 0.05664414
000160 5a 36 65 bd 09 c7 0a bd 8f cd 5b bd 27 05 9e bc
       -0.055960037 -0.03388122 -0.053662833 -0.019289566
000170 00 e5 2b 3c ca d2 65 3c 7b 61 99 3d 1e 53 2f 3d
       0.01049161 0.014027307 0.07489296 0.042803876
000180 7a f3 61 bc 58 a5 a6 bc 2b b6 c3 bd ec 82 a4 bd
       -0.0137909595 -0.020342514 -0.0955623 -0.08032784
000190 80 52 94 3d c5 96 96 bd 1d 1d a0 bc fd 99 d1 bc
       0.07242298 -0.07352976 -0.019545132 -0.025586123
0001a0 9e 4f 3d 3d 4f 2c dd bc f5 22 90 3d 68 68 5b bd
       0.046218507 -0.026998667 0.070379175 -0.053566366
0001b0 a8 d1 6e 3d 2a 38 60 bc d0 31 15 3d 03 0a 61 bd
       0.058305413 -0.013685266 0.036424458 -0.05494119
0001c0 75 eb a5 3b 49 88 f7 bc 43 7b c3 3c ec 70 07 bd
       0.005063469 -0.030216353 0.023862487 -0.033066675
0001d0 fa 1c 5d bd fe fd 28 3d 45 39 24 bd ce 0f 81 bd
       -0.053982712 0.04125785 -0.04009368 -0.06301843
0001e0 72 59 cf 3a 6d 50 71 3d ce 77 ad bb 43 5b 5f bd
       0.0015819503 0.05891459 -0.005293823 -0.054530393
0001f0 a0 41 ed bc 83 8f 04 bd e7 ec 84 3d f7 57 c5 bd
       -0.028961957 -0.032363426 0.06490498 -0.096359186
000200 3b e6 19 3c b4 15 27 bd f6 ba 85 3d c3 63 7e bd
       0.00939327 -0.040792182 0.065298006 -0.06210686
000210 4f ea a0 bc 55 4d 80 3b b8 44 3c bd 97 2c bc 3d
       -0.019642977 0.0039154687 -0.045963973 0.09188192
000220 0b a8 fd bc fd a7 74 3b aa 9c 8b 3d 31 a4 ad bd
       -0.030963918 0.0037331574 0.06816991 -0.08478583
000230 42 54 88 bd c3 9d 85 3d 1d fd 36 bd 33 67 03 3d
       -0.06656696 0.06524231 -0.04467498 0.03208084
000240 02 d3 7a 3d 65 4d a0 bd c4 f2 28 bd 8c 22 e3 bb
       0.06123639 -0.07827262 -0.041247144 -0.0069316085
000250 ac c8 20 bd 33 e1 db 3c 48 2c 3b bd a5 87 8f bc
       -0.039253876 0.026840782 -0.045696527 -0.017520735
000260 0c b9 a9 3d 8d 92 a1 3d a2 70 4d 3d 06 af 98 3c
       0.08287248 0.078892805 0.050156243 0.018638145
000270 3f bc b4 bd 4c cf aa bc 20 37 8c 3d 1f a7 3d 3d
       -0.088249676 -0.0208508 0.06846452 0.046301957
000280 d8 36 44 3c d6 79 e6 bc fd bd c6 3d de 7b e6 3c
       0.011975966 -0.028134268 0.09704206 0.028135236
000290 7d 29 8d bd ee ec 93 3d 39 5b 66 3c 32 47 5e bd
       -0.06892679 0.07222925 0.014059835 -0.054267116
0002a0 60 9d a4 bd 40 7b 8f bd 8d 98 b3 bd 68 0c e1 ba
       -0.080378294 -0.0700593 -0.08769331 -0.0017169835
0002b0 e9 7c 96 bd 1e a0 11 bd 47 d9 5f 3d 24 9f 44 bd
       -0.073480435 -0.03555309 0.05465057 -0.04800333
0002c0 90 7f 0a bd 5b ad 8b 3d 68 10 59 3d 5d de 39 3d
       -0.03381306 0.06820174 0.05299416 0.045378078
0002d0 fe de 9a 3d 99 a0 94 3d 16 8d b5 bd ef 2d 90 bd
       0.07562064 0.07257194 -0.08864801 -0.07040011
0002e0 27 05 49 3c 84 76 95 3d 7b e5 a2 3d ac 4c a7 bd
       0.012269295 0.07297996 0.07953926 -0.08168921
0002f0 f1 07 cb 3c 18 08 82 bc cd f9 3f 3d 1a 4e 32 3d
       0.02478406 -0.015873 0.046869088 0.043531515
000300 80 28 cf 3c ae 7f 0e bd 73 a0 27 3d 50 7a f0 3c
       0.025287867 -0.034789734 0.0409245 0.029355198
000310 ba 1f b7 bb a5 11 69 3d ae 35 b7 3d 67 e2 95 bd
       -0.005588499 0.056901593 0.089457855 -0.073185734
000320 26 9a b0 bc 14 ec ab 3d 50 09 07 bd 22 f5 50 3d
       -0.021557879 0.08394638 -0.032967865 0.051015027
000330 37 ca 42 bd ca 29 03 bb 61 4e a9 3c 8b 8f 5a 3d
       -0.04755613 -0.0020013922 0.020667257 0.05335955
000340 80 20 8f bd da 7b 37 bd 87 da a7 bd fc 14 f6 bc
       -0.06988621 -0.04479585 -0.08195978 -0.030039303
000350 b4 95 f3 3c d2 ee 95 bd 74 c5 c4 bc 0e bb 5c 3d
       0.02973447 -0.07320942 -0.024019934 0.053889327
000360 3a 18 c2 bd 37 62 a4 3c 98 0b 87 bd e0 8a 39 3d
       -0.09477277 0.020066364 -0.06594008 0.045298457
000370 2e 09 52 3d 87 35 6e 3d 32 0f 8b 3d 09 a1 b3 3d
       0.051278286 0.058156516 0.06790008 0.087709494
000380 b2 34 89 3d dc 9f 70 bd db cc 5c 3d 54 04 aa bd
       0.06699504 -0.058746204 0.053906303 -0.08301607
000390 28 4e 11 3d 6b 2f b6 3d 89 4e d6 bb 21 53 71 bd
       0.035474926 0.08895763 -0.006540124 -0.05891717
0003a0 3e b6 b4 bd 59 8f 6a 3d 72 0b af 3b 80 f2 81 bd
       -0.088238224 0.057265613 0.0053419406 -0.06345081
0003b0 74 51 4f bd 08 ea 8e bd 25 c3 e5 bc 01 55 35 3c
       -0.05061479 -0.06978232 -0.028047154 0.01106763
0003c0 8c a1 0c bc 55 8e 1e bd 99 c0 9b bd af 9e 16 bd
       -0.008583438 -0.038709957 -0.076050945 -0.036772426
0003d0 ce ee 8d bd 73 88 43 bd 5c 11 11 3d 90 4d 89 3d
       -0.06930314 -0.04773755 0.035416946 0.06704247
0003e0 9a 78 66 3c f9 d8 bb 3d 2c 6f 5e 3d 2b 96 a5 bd
       0.01406684 0.091722436 0.05430524 -0.08085283
0003f0 de 48 91 3c 55 b9 a5 3d d3 d0 ec 3c 6b ee 8a 3d
       0.017734941 0.0809199 0.028908169 0.06783756

fc2.bias f4 [64]
000000 98 f5 24 bd 56 93 a5 bd c6 ed a8 bd 62 d1 b7 3d
       -0.04027328 -0.08084743 -0.08248477 0.089754835
000010 d4 63 93 bd 45 74 16 3c ab d4 dc bc 95 36 b0 bd
       -0.07196775 0.009182994 -0.026956877 -0.08604161
000020 e2 ca c3 3b 44 5f 9a bd 13 16 a0 3d d8 5b cf 3b
       0.0059751133 -0.07537702 0.0781671 0.0063280873
000030 05 b3 1e 3d 65 62 e7 3a a5 f1 24 3d b0 2a 9a bd
       0.038744945 0.0017653225 0.040269513 -0.07527673
000040 89 4a a9 bd 85 cc 89 bd e0 24 0e bd 41 93 58 bd
       -0.082661696 -0.06728462 -0.034703135 -0.052874807
000050 13 ab 60 3c 06 75 b9 bc 7e 01 c3 bc 45 b3 89 bc
       0.013712662 -0.022638809 -0.023804422 -0.016809115
000060 c5 f3 33 3d 24 a4 ae ba 18 db 5b 3d 61 b5 6f 3d
       0.04393365 -0.0013324064 0.05367574 0.058522586
000070 06 9b 39 3c ed cc 21 3d 3c 52 7e bd 14 aa c0 3d
       0.011328464 0.039502073 -0.062090144 0.0940744
000080 d8 eb ad 3d 72 39 c2 3d 60 43 0c 3c 95 57 b5 bd
       0.08492249 0.09483613 0.008560985 -0.088545956
000090 82 37 8d bd f6 12 a9 3d 29 5c 31 3d f6 cd d2 39
       -0.06895353 0.0825557 0.04330078 0.00040207774
0000a0 7b 4f 5b 3d de 55 b0 3c ac 51 4e bd 39 3d b9 bc
       0.053542595 0.02152532 -0.050370857 -0.022612201
0000b0 f9 fc 8b bc e8 08 95 bb fd 9e ae 3d 03 cb 44 bd
       -0.0170884 -0.004548181 0.08526418 -0.04804517
0000c0 e0 05 96 bd c2 75 43 3d 9c 99 90 3d 6c 33 81 3d
       -0.07325339 0.047719724 0.07060549 0.06308636
0000d0 8d cf 82 bc fb 2d 42 bd eb 89 07 3d a4 78 ed b9
       -0.015968109 -0.04740713 0.033090513 -0.00045294047
0000e0 2b a4 11 3b 2b 76 84 bd ee 1e 5e bc 4f 03 02 bd
       0.0022223096 -0.06467851 -0.013557179 -0.031741437
0000f0 d7 89 2a 3b c6 e9 d4 3b c2 1a 5a 3c b0 99 68 3d
       0.00260221 0.0064975945 0.013312044 0.056787193

action_head.weight f4 [5, 64]
000000 d1 f2 03 3d 77 33 b5 bd fe 58 25 bd 94 90 17 bd
       0.03221399 -0.08847707 -0.040368073 -0.037003115
000010 bf 0c 1d 3d 1d 4f 16 bb 8f 01 25 bc 8b 9d b7 bd
       0.038342234 -0.0022935339 -0.010071172 -0.08965596
000020 4d 7f a2 3c 1d 7b bb 3c 6b e0 de 3d 0d 0f 85 3d
       0.019836092 0.022885853 0.10882648 0.06497011
000030 8e 65 3c bd ec 3f e4 3d 3f 6e 0f 3d a8 3e 9c 3d
       -0.045995288 0.11145005 0.03501725 0.07629138
000040 0c a1 ce 3d eb f4 99 bc 13 f6 e4 3d 18 51 d6 bd
       0.10089311 -0.018793544 0.111797474 -0.10464686
000050 ee 81 5f bd a9 76 ea bd 27 21 4b 3d 3f 6f 85 3b
       -0.05456727 -0.11448414 0.049592163 0.0040720995
000060 ca 6b 22 bd d4 c7 62 3c 52 c9 0b bd 6f 61 df bd
       -0.039653577 0.013841588 -0.03412754 -0.10907256
000070 3b a5 73 3d 4a f3 f5 3d 26 15 87 3d 17 9f bb 3d
       0.059483748 0.12009294 0.065958306 0.09161203
000080 f0 59 f4 3d 18 8d 5a bd 58 1d 3a 3d a9 66 73 3d
       0.11931217 -0.053357214 0.04543814 0.059424076
000090 88 16 db 3d d6 db 8e 3d 87 67 f5 3c 9f 2f 97 bd
       0.10697657 0.06975524 0.029956592 -0.0738213
0000a0 28 09 8a bc 6b 2e 9f 3c 63 92 34 3c c6 b3 1c bd
       -0.01685007 0.019431313 0.011021229 -0.038257383
0000b0 63 31 bf bd 61 2d a5 bd 91 d3 9f 3d 9e ee a9 3d
       -0.09335592 -0.08065296 0.07804025 0.08297466
0000c0 1a 33 e9 bd af 8c 03 3e d8 ce dc 3b 39 75 0f 3d
       -0.113867 0.12846635 0.006738525 0.0350239
0000d0 1b 38 5e bd e7 1d 1f 3d 1d f0 db 3d 54 b3 37 3d
       -0.054252725 0.038846876 0.10739157 0.044848755
0000e0 5d 7a 3e 3d 75 28 1b bd 73 f8 4b bd 8d 00 00 3e
       0.046503413 -0.03788038 -0.049797487 0.1250021
0000f0 40 46 1a 3d e0 62 07 3e b2 db a7 bd a2 5d 81 3d
       0.037664652 0.13221312 -0.081962004 0.06316687
000100 72 1b 67 bc 8c 7b 0e bd 57 52 8c bd bf 18 25 3d
       -0.014105665 -0.034785792 -0.068516426 0.040306803
000110 31 a6 ce bd 00 70 00 bd 17 df 75 3d 8b 9c 89 3c
       -0.10090292 -0.03135681 0.06002721 0.016798278
000120 73 1a 28 bd 4c b8 98 bd 58 b9 85 3c b4 bf 6b bd
       -0.04104085 -0.07457027 0.01632373 -0.05755587
000130 19 e0 70 bc a7 06 fb bd be 2a 19 bd 80 7d ef bd
       -0.014701867 -0.12257128 -0.037394278 -0.11693859
000140 41 3d b4 3d 3d 9e 32 3d ac e0 9b 3d d9 66 e1 3d
       0.08800746 0.04360794 0.07611212 0.11005945
000150 60 7a 7f bd 58 e2 6e 3d 1b 98 58 3d 55 40 a3 bd
       -0.062372565 0.058321327 0.052879434 -0.07971255
000160 7d 9e f9 bd ba 92 04 be 76 5d 60 3d 1c b1 af bb
       -0.12188432 -0.12946597 0.05477663 -0.0053616893
000170 d3 08 8e bd 6c da a5 bd a9 da d8 bc 52 15 2c bd
       -0.06935277 -0.08098301 -0.026471453 -0.04201252
000180 ac 3b 44 bd 47 ac 93 bd c6 b4 fb bd 8c a4 e6 bd
       -0.04790847 -0.07210594 -0.12290339 -0.112618536
000190 6e 08 df 3b ec 00 2f bd 03 47 56 3d f9 0c e6 bd
       0.006806425 -0.04272549 0.052313816 -0.11232943
0001a0 a7 f7 2a 3c dc 8a 76 bc ac c3 54 3d 69 74 c4 bd
       0.0104350215 -0.015047755 0.05194442 -0.09592516
0001b0 00 23 da 3d 64 82 16 3d da 3c a5 bd 35 30 d6 3d
       0.10651207 0.036745444 -0.08068247 0.104584135
0001c0 ec 38 8f bd ba f9 81 3c 00 78 f5 bd 2e 1d 7f bd
       -0.06993279 0.01586615 -0.11985779 -0.062283687
0001d0 d2 9a 4b 39 fd 66 7d 3c b4 30 6d bd 7e 08 72 bc
       0.00019417264 0.015466449 -0.057907775 -0.0147725325
0001e0 14 2e 94 bd c3 ee d1 bd 73 b0 14 3d 4f a8 10 bd
       -0.07235351 -0.10250618 0.036301088 -0.03531676
0001f0 77 f0 a3 3d a7 5c 99 bd b0 ee 50 3d ce d4 c9 3d
       0.080048494 -0.07488375 0.05100888 0.098550424
000200 9c 2c 2f bd 8c f7 21 3d bb 86 ad bc 0c 60 bd bd
       -0.042767152 0.03954272 -0.021182409 -0.09246835
000210 aa ad de bb 07 8f 11 bd e7 a5 a9 3d 96 28 e3 bd
       -0.0067956047 -0.035536792 0.082835965 -0.110917255
000220 c9 05 86 3d fa ad d2 3d ae f1 80 bc 7c 33 7d 3c
       0.06544072 0.1028709 -0.015740242 0.015454169
000230 f8 b1 b3 3d 85 0c a2 3d 3a b7 f4 bd 5c e6 da 3d
       0.08774179 0.07912544 -0.1194901 0.10688469
000240 74 93 90 3d 8a eb 4a bd d8 fb ae bd 3d ab 35 bd
       0.070593745 -0.049541034 -0.08544129 -0.04435276
000250 3f 2f e1 bd 57 4b af bd aa f9 e0 3c 44 dd 67 bd
       -0.109953396 -0.08559292 0.0274628 -0.0566075
000260 ff 81 ae 3d 6e 39 0b bd 1d d7 0a be e7 d4 46 3d
       0.085208885 -0.033990316 -0.13558622 0.048542883
000270 71 7d bb 3d 3e 6b 9d 3d 44 59 6a b8 b9 8a b0 3c
       0.091547854 0.076864704 -5.5873083e-05 0.021550523
000280 32 5e a7 3d bf d3 a7 3d 46 4a a0 bd dd 12 7f 3d
       0.08172263 0.08194684 -0.078266665 0.06227385
000290 3c 77 48 3d 3f d3 94 3d b5 8b 64 bc 04 ee 98 3d
       0.048941836 0.072668545 -0.013949324 0.07467273
0002a0 32 94 a8 bc dd 19 89 3d 05 67 c4 bd 32 ea f3 3c
       -0.020578478 0.06694386 -0.09589962 0.029774759
0002b0 67 40 a8 bc 16 bd b9 bd 5c ef 11 3c 6a 8a 7d 3d
       -0.020538522 -0.090692684 0.008907165 0.06189958
0002c0 c0 ef 4e bc 61 c3 0b be 58 91 e7 bc 5d e9 06 3d
       -0.012630403 -0.1364875 -0.028267547 0.032937396
0002d0 0e d6 63 bd fa 05 f1 bd 5c a3 20 bd 3c 90 c2 bd
       -0.05562406 -0.11768718 -0.03921829 -0.09500167
0002e0 de fb 69 3c 24 bc 1e bd 28 a3 6c bd a0 2d 31 3d
       0.014281241 -0.038753644 -0.057772785 0.043256402
0002f0 e3 ae 81 bd 58 ed 37 3c 76 05 04 ba 3c 80 30 3d
       -0.06332185 0.011226021 -0.0005036214 0.043091044
000300 9f 3f 89 bd 07 22 2c 3d 67 33 7f 3d f2 e2 b2 3c
       -0.06701588 0.04202464 0.06230488 0.021836732
000310 b8 0e a9 bd 66 21 c8 3c 95 b7 d6 bd d9 22 b0 3c
       -0.082547605 0.024429988 -0.10484234 0.021500992
000320 ba ad 85 bb af e2 30 bc 7d 58 d3 3d 8c 01 c3 bc
       -0.0040795477 -0.010796233 0.10319612 -0.023804449
000330 ca a2 f2 3d 9e 86 9b 3d ea 59 a6 3c a0 61 b2 3d
       0.11847456 0.075940356 0.020306546 0.08710027
000340 f8 d5 69 3d 24 4f 01 3d 8b 83 e1 3d 46 9b 24 3d
       0.057088822 0.031569615 0.11011418 0.040187143
000350 7a e7 e9 bc e3 e3 81 3d 20 d3 9c bb 1c 1e 9a 3d
       -0.02855276 0.06342294 -0.0047859102 0.07525274
000360 04 25 63 3d 66 20 5c ba ae 2a d5 bd 6d 20 2f 3c
       0.055455223 -0.0008397162 -0.10408531 0.010688883
000370 c8 50 37 3d f2 4a b9 bd 99 3d d3 bd d7 7a bd bd
       0.044754773 -0.09047498 -0.10314483 -0.092519455
000380 6b 14 dc bc 10 83 86 bd a0 f1 24 3c 65 69 fc 3d
       -0.026865205 -0.06567967 0.0100673735 0.1232479
000390 01 6d b6 bd a5 52 e2 bd e9 d1 12 3d af f4 d4 3d
       -0.089075096 -0.110509194 0.035844717 0.10398232
0003a0 33 ab e2 bd f1 7f a3 bd 8f 58 75 bd 04 e1 bc 3c
       -0.1106781 -0.07983387 -0.05989891 0.023056515
0003b0 63 14 e0 3d b3 b4 6e 3d b6 6d 82 3d 86 b3 68 bd
       0.109413885 0.058277797 0.06368582 -0.056811832
0003c0 d2 72 97 bd e3 d7 c7 bc 83 09 e6 3d ae 51 fd 3d
       -0.07394947 -0.024394935 0.11232283 0.12369095
0003d0 76 e6 35 3d ec c8 e1 bd 5b 46 55 bc 05 2c 8f 3d
       0.044409238 -0.11024651 -0.013017262 0.06990818
0003e0 69 46 7d bd b9 bb cf bd b5 c0 e2 bd 57 eb 9d bd
       -0.061834726 -0.10143227 -0.11071912 -0.07710903
0003f0 34 2f 92 bc b6 94 b9 bd 98 12 cc bd 9a 59 27 bc
       -0.017844774 -0.090615675 -0.09964484 -0.010214234

action_head.bias f4 [5]
000000 d7 c9 00 3d cb 34 6a bd 2e 96 f3 bd 5c 08 94 bd
       0.03144249 -0.057179254 -0.11893879 -0.07228157
000010 2f 4e 81 3d
       0.063137405

value_head.weight f4 [1, 64]
000000 81 3e 3f 3b 87 c1 2f bd d0 02 2e bd b5 f9 09 3e
       0.0029181542 -0.04290917 -0.04248315 0.13474162
000010 21 ab e6 bd 11 5e f4 bd 08 bd 27 3e 9f ac a3 bd
       -0.11263109 -0.11932004 0.16380703 -0.07991909
000020 35 93 c3 3d 9d b6 07 bd 75 a2 0f be 55 15 1f be
       0.09549562 -0.033133138 -0.14026816 -0.15535481
000030 1a 9e bc bd f5 e1 b2 3d 96 72 de 3d b4 62 da 3d
       -0.09209843 0.08734504 0.10861699 0.106633574
000040 93 a0 04 3d a1 22 8c bd a1 6c ed 3d 8e 3d c7 bd
       0.032379698 -0.068425424 0.11592985 -0.097285375
000050 65 a7 cf bd 6a a8 0b 3d 6a 9f 65 bd 82 21 c1 3d
       -0.1013935 0.03409616 -0.056060232 0.09430219
000060 90 2a d6 bd ac 90 38 be 2e a9 0e be 21 c4 8b 3d
       -0.10457337 -0.18023938 -0.13931724 0.06824518
000070 81 cb 66 bd 50 af 03 3e 5b 84 90 3c f6 61 d5 3d
       -0.05634642 0.12859845 0.017641237 0.10419075
000080 63 b1 1d be 57 b0 22 be 42 6a 9b 3d 3e 60 db 3c
       -0.15399699 -0.15887581 0.075886264 0.02677929
000090 f2 cd 06 3e f4 4f cb 3d e4 79 30 3d 09 35 02 be
       0.131645 0.09927359 0.043084994 -0.12715544
0000a0 9b 27 1d be e1 4c 2d be a6 cc 59 bd 33 37 25 3e
       -0.1534714 -0.16923858 -0.053173684 0.16134338
0000b0 b1 b6 55 3d a9 16 cd 3d 7e 8e 18 3e be 87 82 3c
       0.05217618 0.10014088 0.14898106 0.015933868
0000c0 88 07 a2 bd 32 b2 b5 3d 05 85 00 3e a6 ff 26 be
       -0.07911593 0.08871879 0.12550743 -0.1630846
0000d0 c6 7f ba 3d 85 cc 2c bd b8 50 af 3d e1 b0 ae 3d
       0.09106402 -0.042187233 0.08560318 0.08529831
0000e0 a8 43 1f 3e 2a 09 69 3d 09 bc 0c 3c a0 3e ae 3c
       0.15553153 0.056893505 0.008589753 0.021270096
0000f0 ac ab 34 3d 81 17 ac 3d af 87 28 3e cc db fb bd
       0.04410903 0.084029205 0.16458009 -0.12297782

fc1.weight f4 [128, 147]
000000 0f 12 08 bd 71 b5 1b 3c fb 24 da 3c 01 6a 55 bd
       -0.033220347 0.009503708 0.026628962 -0.052103046
000010 42 53 c8 3d 65 07 8f bc 5b d3 49 3d 4e 5f 80 3d
       0.09781505 -0.01745958 0.04927383 0.06268178
000020 5e ed 8b 3d cd 84 a5 bc b2 1f b0 3c 48 91 a7 3d
       0.068323836 -0.020204926 0.021499489 0.08182007
000030 47 2e 8a bc d4 cc 05 3d 43 19 3a bd 04 a2 b7 3d
       -0.01686777 0.032666042 -0.045434248 0.08966449
000040 30 59 1d 3d 35 03 ac 3d 8d 07 87 bd b9 69 81 3c
       0.038415134 0.08399049 -0.06593237 0.015797483
000050 c9 f5 cc 3d a5 11 3c bd 01 7b 85 3c 75 58 ff bc
       0.10007817 -0.045915265 0.016294004 -0.03117011
000060 36 88 fa 3c 11 70 67 bc 33 cb 11 3d 4c 15 21 bc
       0.030582529 -0.01412584 0.035594177 -0.009831738
000070 97 54 96 3c 57 82 77 3c 1d 38 bf bd 79 88 6f 3b
       0.018350882 0.015106759 -0.09336875 0.003654985
000080 52 d2 73 3d 89 36 40 bd fa 46 a7 bc 7f be c3 3d
       0.05952675 -0.04692701 -0.020419586 0.095578186
000090 eb 70 53 3c ad ec 85 3d 07 0f aa 3d 34 c4 dd 3c
       0.01290534 0.06539283 0.083036475 0.027071096
0000a0 1a fe a8 3d f8 39 b3 3c 1d 66 b4 bd 20 84 87 3d
       0.08251591 0.021878228 -0.08808539 0.06616998
0000b0 5e 46 0d bd d9 c0 f0 bb 07 65 bc 3d 74 e1 a4 3d
       -0.034490936 -0.007347208 0.09198957 0.08050814
0000c0 51 ca 9b bc 4c de 96 3d 6c 2e 2c bd ca 46 cc bd
       -0.01901737 0.073666185 -0.04203646 -0.099744394
0000d0 d2 33 a2 3d d4 a3 e9 bc 03 67 1d 3d 92 0f 81 3d
       0.0792004 -0.028520502 0.038428318 0.06301798
0000e0 66 b0 39 bc 16 e6 9c bd 86 d4 db bc ed 2a b7 3c
       -0.011333561 -0.07661073 -0.026834738 0.022359336
0000f0 53 df 37 bd c2 ab 7b 3d 82 66 12 bd e2 56 85 bb
       -0.044890713 0.061443098 -0.03574229 -0.004069195
000100 ad f8 86 3d d3 5b 3c 3d 64 6e 4c 3c 0b da 2f 3d
       0.065904 0.045986008 0.012477491 0.04293255
000110 d1 68 20 bd 2b b2 04 bd 82 c6 be 3d a2 a2 2f 3d
       -0.03916246 -0.032396477 0.09315206 0.042879708
000120 a4 fc 85 3d 54 94 c3 bb 3b d7 b8 bd 82 7f c8 bc
       0.06542328 -0.00596861 -0.09025427 -0.024474863
000130 6b 2f 03 bd 7d 37 74 bd e7 9f bc bd 4b 80 e0 3d
       -0.032027643 -0.05962323 -0.092101865 0.1096197
000140 fc 88 4d 3d 8d 1c 03 3d ef 92 a1 3d 36 4a 65 3d
       0.050179467 0.03200965 0.078893535 0.055978976
000150 89 f2 2d 3d 87 b6 1d bd 2d fa 0c bd ad 6d 2d 3c
       0.042467628 -0.03850415 -0.034418274 0.010585231
000160 59 87 de bc b6 7a 7f bc 9b 23 2c 3d 8a 26 6d 3d
       -0.027164148 -0.015593221 0.042026144 0.05789808
000170 9b c1 e5 3b 9b e5 39 bd 7b c4 08 bd ed d3 4e 3d
       0.007011605 -0.045384984 -0.033390503 0.050495077
000180 f4 d0 4b 3c 6d 4d 6c 3d c3 26 08 3d 86 95 61 3b
       0.012439955 0.057691026 0.03324009 0.0034421398
000190 b8 03 a9 3d 2a 91 b8 3c 84 75 5c bd 77 85 54 bc
       0.082526624 0.022530157 -0.05382301 -0.012971274
0001a0 f7 e1 57 bd 53 c9 60 3c 83 aa 9f 3d f9 0b 91 3d
       -0.05270573 0.013719874 0.077961944 0.07082362
0001b0 a0 be 20 bd 64 88 66 bd da 04 a9 3d 6a d7 78 3d
       -0.039244294 -0.056282416 0.082528785 0.06075231
0001c0 fd 8b d3 bb 42 e2 6a 3d af 85 b6 bd 62 ed 25 bd
       -0.006455897 0.057344683 -0.08912217 -0.04050959
0001d0 0a 12 64 bd 94 6c ab 3c 88 84 49 bd 96 2c 17 3d
       -0.055681266 0.020925798 -0.049198657 0.036907755
0001e0 bd 40 1d bd 75 10 9e 3d 43 6f dc 3d 46 61 a2 3b
       -0.038391817 0.07717983 0.10763409 0.0049554436
0001f0 74 5d b8 3c 98 33 4c bd 30 7f f5 bc 1f 93 c1 bc
       0.0225055 -0.04985389 -0.029967874 -0.023629723
000200 c5 92 35 3d 31 93 e1 3c 2a 6d b4 3d 94 f8 41 3a
       0.044329423 0.027536007 0.08809884 0.0007399407
000210 88 fe b1 bd f8 14 36 3d c5 a7 9e 3c 0d cd 08 3d
       -0.08691126 0.04445359 0.019367108 0.033398677
000220 cc 71 77 3d 72 4d ae 3d b1 83 0b bd f7 e5 45 bd
       0.06041126 0.08510865 -0.034061138 -0.048315015
000230 24 1b fa 3c ba 9d d2 bb a1 a0 2d 3d d0 b8 8e 3d
       0.03053052 -0.006427494 0.042389516 0.06968844
000240 41 81 45 3d 25 58 12 ba 56 15 d3 bc 84 cf 53 3d
       0.04821897 -0.00055825926 -0.02576701 0.051711574
000250 3f 34 4d 3d 2e d5 ea 3c 27 a7 22 3d 87 f0 98 3c
       0.050098654 0.028666105 0.03971019 0.01866938
000260 d9 ea 8b bd da 36 8e bc cb 84 48 3c b6 d9 86 3a
       -0.06831903 -0.01736014 0.012238692 0.0010288272
000270 c1 a5 d4 3c 53 6d 86 3d d3 80 36 3d f4 f5 59 3d
       0.025957944 0.06563821 0.04455645 0.053213075
000280 f8 3f 9d 3d 01 01 ff bc d4 eb ec 3c 4c f6 6d bb
       0.07678217 -0.031128408 0.028921045 -0.0036310134
000290 4a 0a ad 3a 90 eb 6f 3d 3e 05 b7 3a 8b df a0 3d
       0.0013201919 0.05857426 0.0013963354 0.078551374
0002a0 a2 13 bc bc f4 5d e6 bc 8c 49 91 3d 96 b1 05 bd
       -0.02295858 -0.028120972 0.07094106 -0.032640062
0002b0 8e e0 44 bd 10 c4 5c bd 3b d0 80 bd aa 97 a8 3d
       -0.048065715 -0.053897917 -0.06289717 0.082320526
0002c0 de c1 1d 3d 00 1f c6 bd be 1b 8e 3d 3f f8 b8 3d
       0.038514964 -0.096738815 0.06938885 0.09031724
0002d0 44 c0 81 bc 0e 8d a6 3d 99 4a aa 3c 8a e6 8e bd
       -0.01583875 0.08132373 0.020787524 -0.069775656
0002e0 8f 2f 69 3d 81 0b 12 3d dc 85 09 bd 98 6b 10 bd
       0.05693012 0.035655502 -0.033574924 -0.03525886
0002f0 19 b4 35 bc d9 43 2e 3d f2 95 26 3d 7b f8 9e bc
       -0.011090302 0.042545173 0.040670343 -0.019405594
000300 e3 6a e3 3c 01 6e 46 3d ea 26 23 39 88 6b 24 ba
       0.027760928 0.04844475 0.00015559388 -0.0006272127
000310 ec 1c 59 3d 4b 35 91 3d 19 9c 86 bd c3 2e 8e 3d
       0.053006098 0.07090243 -0.06572742 0.06942513
000320 ae d4 7a bd 17 42 11 3d 62 14 0e bd 6a e8 a0 3d
       -0.061237983 0.03546342 -0.034687407 0.078568295
000330 5d 97 9b 3c ce 41 e7 3c 57 7f ef 3a 3f bc a1 bd
       0.018993074 0.02822962 0.0018272203 -0.07897233
000340 0f ab e2 3a 8f 47 45 bd 0d 8f 2d bd 03 ba 82 3d
       0.0017293411 -0.048163947 -0.042372752 0.06383135
000350 ef 04 70 3c b9 0a 9c bd c2 86 71 3d 30 d9 5c bd
       0.014649614 -0.07619233 0.058966406 -0.053918064
000360 d4 13 b9 bd 79 72 d9 3d b7 70 61 3b 8f d3 8e 3d
       -0.09036985 0.10617537 0.0034399459 0.06973945
000370 89 30 8d bc 3d 82 9f bd 6b 28 c2 bd 52 88 b6 3d
       -0.017235057 -0.07788513 -0.09480365 0.0891272
000380 c8 2d 0e bd 64 a1 de 3c f0 b5 05 bd d3 6b c7 3d
       -0.03471163 0.027176566 -0.032644212 0.09737363
000390 e6 85 a9 bd c0 76 a4 3d b7 db 84 3d ca 60 7f bc
       -0.08277492 0.08030462 0.0648722 -0.015587041
0003a0 57 3f 42 3d ff d8 30 3d c5 4b 0b 3c 59 fc 7c 3d
       0.047423687 0.043175694 0.008501952 0.061764095
0003b0 4c 20 98 3d 5d e3 7b bd 21 0c de 3d 13 26 6f bd
       0.07428035 -0.061496127 0.10842157 -0.05838592
0003c0 84 6b 18 3d 98 89 83 3d 4b 88 5b 3c ab ac 00 3d
       0.03721191 0.06422728 0.013399194 0.03141467
0003d0 07 a9 7e 3d 0c da 48 3c 06 22 ad bd 04 ab b9 bc
       0.062172916 0.012259018 -0.08453755 -0.022664554
0003e0 79 50 87 3d 37 4e 67 bd ba d2 68 3d e8 63 a0 3d
       0.06607146 -0.056471076 0.05684159 0.078315556
0003f0 5a e7 7c bd 76 c5 bd bb 56 b8 92 bc 67 b1 84 3d
       -0.06174407 -0.0057913614 -0.017910164 0.06479149

fc1.bias f4 [128]
000000 8d b2 93 3d c3 db 4d bb 85 30 bf bc 1d bb 5d 3d
       0.0721179 -0.0031411506 -0.023338566 0.054133523
000010 36 2f 8d bd b0 ad 09 3d f3 75 c1 3d 81 5d b5 bb
       -0.068937704 0.033612907 0.09446325 -0.005534828
000020 e4 d7 19 3d 03 5c 64 3d e0 17 0e 3d 1b b9 bc bc
       0.037559405 0.05575181 0.034690738 -0.023037484
000030 f2 a7 87 3d 62 24 d0 bb 5b ae 1f 3d 39 45 31 3d
       0.0662383 -0.0063519934 0.038984638 0.043278906
000040 a7 51 d1 3c 76 ab 99 bd ef d4 00 bd d5 3f 14 3b
       0.02555163 -0.07503407 -0.03145307 0.0022621055
000050 a6 a9 cc 3b eb 89 ef bc f4 19 93 3d 36 d7 d0 bd
       0.0062458096 -0.02924057 0.071826845 -0.10197298
000060 46 10 ed bc fe 95 01 3b a5 23 a7 bd 36 52 f9 3c
       -0.028938424 0.001977324 -0.081610955 0.030434709
000070 d7 43 ca 3c 6a 7a a1 3d ad 8c d3 3c f6 0f 8f 39
       0.024690552 0.07884677 0.025823915 0.00027286977
000080 d0 33 84 bc ae d3 82 bd 16 06 5c 3d 47 32 d4 3c
       -0.016137987 -0.06388031 0.05371674 0.02590288
000090 a2 4b 17 3c 86 cc 93 3d 68 aa 2a bd ef 1a 47 3d
       0.009234341 0.07216744 -0.04166642 0.04860967
0000a0 4a 6f 0c bd 00 17 a0 3c d0 c6 90 3d 15 b8 29 3d
       -0.03428582 0.019542217 0.070691705 0.04143532
0000b0 62 c8 3d bd af 3e 85 3a bd a9 b8 3d fb c2 80 3d
       -0.046333678 0.0010165776 0.0901675 0.062871896
0000c0 8f ed 46 3d e1 b4 11 bc d2 8b 6f 3d 93 b7 07 3d
       0.048566397 -0.008893223 0.058482952 0.033134054
0000d0 7e a3 b3 3c be ea c7 3d 36 91 e2 3d b4 e4 8b 3d
       0.021928545 0.097615704 0.11062853 0.06830731
0000e0 e5 03 79 bd 87 91 c0 3d 74 ac 5a bd 6d bb 86 3d
       -0.06079473 0.09402757 -0.05338712 0.065787174
0000f0 9c 48 17 bd 18 56 9c bd 12 fe df 3c f4 7c 8b bd
       -0.03693448 -0.076336086 0.02734283 -0.06810942
000100 0c 16 04 bb fd cb 90 bc 8c e2 1c bb 26 90 1d bd
       -0.0020154743 -0.017675394 -0.0023938743 -0.03846755
000110 ce 70 bc 3d 55 e7 05 bd b3 9a b6 3d 9f 4c 0d 3d
       0.09201203 -0.03269132 0.08916225 0.0344969
000120 9d 3a 5b 3c 10 5e a9 3d ef 2d 8f 3c 00 8b a0 bb
       0.013380674 0.08269894 0.017477958 -0.0048993826
000130 51 b6 84 bc fa a6 9a 3d a6 bc 7f 3d 0f 29 0e bc
       -0.016200216 0.075513795 0.06243577 -0.008676781
000140 4d 9c 99 3d d3 a5 00 3d 8f 3b 77 3d 88 13 63 bd
       0.07500515 0.031408142 0.060359534 -0.05543855
000150 e8 66 59 bc 03 b2 f4 bc f8 45 a6 3d fc b3 a7 bd
       -0.013269164 -0.029870039 0.08118814 -0.08188626
000160 a2 85 40 3d a2 aa 49 bc 0c 9c 9a bc f0 2c 03 bd
       0.047002442 -0.012308748 -0.018873237 -0.032025278
000170 43 dd 0d bc 65 8f 8f bc 5f 4e ef bc ca 4a b1 3c
       -0.00865871 -0.01752443 -0.029212175 0.021642108
000180 02 9b b1 bd 10 9e 75 3d b2 40 94 3d 01 21 bc 3d
       -0.086721435 0.059965193 0.07238902 0.091859825
000190 92 c5 2d 3d 3b 65 98 bd 49 76 94 3c b9 18 b5 3c
       0.042424746 -0.07441183 0.018122809 0.022106515
0001a0 f2 d1 aa 3c f8 b5 14 bd c1 99 bb 3d 90 90 da bc
       0.020852063 -0.03630635 0.091601856 -0.02668026
0001b0 c9 4a 84 3c 5d 3b d9 bc 91 9d 69 3c 84 c8 db 3c
       0.016148942 -0.026517564 0.014258758 0.026829012
0001c0 b4 56 6d 3d d2 3a 20 3c 1b 00 ce bc 18 ec 27 bb
       0.057944015 0.009779649 -0.025146535 -0.00256229
0001d0 6b c9 cb 3c 4a 65 9d 3d 3e 00 22 3d b6 ae 81 3c
       0.024876317 0.07685335 0.039551012 0.015830379
0001e0 5a 7c cb 3d 87 c8 a6 3d 5d 7f 4c 3d 5c af 5f bb
       0.099358276 0.08143716 0.04992615 -0.0034131622
0001f0 c9 49 d1 3d c1 77 a3 3d 23 3d 49 bd 36 5c 0d 3d
       0.102191515 0.079818256 -0.04913057 0.034511767

fc2.weight f4 [64, 128]
000000 78 49 1c 3d c4 c5 9f b9 98 e0 75 bd 72 d3 01 bb
       0.038156003 -0.0003047419 -0.060028642 -0.001980987
000010 b3 ca 6f bd cb 11 50 bc 2e e4 42 3c 87 6d af 3d
       -0.05854292 -0.012699555 0.011895223 0.085658126
000020 d1 fe f5 bb 5c 5a 81 bd e4 de 8d 3d 5e 43 16 3c
       -0.007507183 -0.06316063 0.06927279 0.009171335
000030 24 4b d0 3c e1 fc bd 3d 64 14 99 bd 23 5c 34 bd
       0.025426455 0.092767484 -0.07474592 -0.04403318
000040 7f 1a a8 3d 1b 91 99 bd 04 91 3f bd b0 eb ff 3c
       0.08208179 -0.0749838 -0.046769157 0.031240314
000050 47 a2 63 bd 23 5d af bd 34 b2 95 bb 1e c8 57 bc
       -0.05557468 -0.08562686 -0.0045683626 -0.01317027
000060 47 35 07 bd 23 c3 ec 3c 30 71 94 bd 72 3f a0 bd
       -0.033009794 0.028901642 -0.07248151 -0.07824601
000070 64 08 a2 3d 6f d4 ae 3c 96 34 45 3c 8d b8 a0 bd
       0.07911757 0.02134153 0.012036463 -0.078477
000080 7e e0 d5 ba 93 b5 d4 bc 68 55 99 bd 46 c6 a8 3d
       -0.0016317514 -0.025965488 -0.07486993 0.08240943
000090 10 cb 0c 3d 4d 46 9c 3d e8 73 72 3c 18 58 86 bd
       0.034373343 0.07630596 0.014798142 -0.06559771
0000a0 04 03 89 3d be cd 2b bd e5 d2 38 bc 2f ad 83 3d
       0.06690028 -0.041944258 -0.01128075 0.064295165
0000b0 4e c8 f2 bc d1 5c cc bb 1c 66 61 3d 7f 51 be bb
       -0.029636528 -0.0062366505 0.05502902 -0.005808055
0000c0 29 b8 58 3d 64 04 a8 bd 8e 06 80 bd 88 d6 6e 3d
       0.052910004 -0.082039624 -0.0625125 0.05831006
0000d0 d0 4a 49 bd fa bd f1 ba 1e 32 c6 3c 26 ec 7d 3d
       -0.049143612 -0.0018443458 0.02419382 0.061992787
0000e0 25 b2 68 bd 8f 29 37 3c 74 e0 00 bc 38 43 93 3c
       -0.056810517 0.011179342 -0.007866014 0.017976388
0000f0 b4 52 0c 3d 1e b6 58 bd 9a da 2a 3d f4 1d 2b bd
       0.03425856 -0.052908055 0.04171238 -0.041776612
000100 21 5d 71 3d 96 99 cb bc be b2 41 3d ee 82 ae 3d
       0.058926705 -0.024853509 0.047289602 0.085210666
000110 f2 10 6a bd 1a e1 32 3d 78 f4 1b bd b6 85 25 3d
       -0.057145067 0.043671705 -0.03807494 0.04041072
000120 ca 2b 4d 3c 1d 67 1f 3d 64 22 f8 3c 5d b8 76 3d
       0.012522647 0.038916696 0.030289836 0.060234416
000130 1b 6d 8e 3d 1c 1e e7 bc 61 7f aa bd b7 ee a9 3d
       0.06954404 -0.0282126 -0.08325077 0.08297484
000140 3e e0 88 3d b8 08 4c 3d 70 5d c4 3c 2b ba 49 3d
       0.06683396 0.049813002 0.023970336 0.04924981
000150 de b5 90 b9 b4 3a 59 3d c2 82 7d 3d 59 e9 ab bd
       -0.00027601322 0.0530345 0.06189228 -0.08394117
000160 6a ba fd bb aa 7f 97 ba e0 80 a8 3d 75 de d2 3c
       -0.0077431696 -0.0011558433 0.08227706 0.025740841
000170 cd 63 86 bd 25 d7 03 3d 1b be 0e bc d9 35 97 bb
       -0.06562004 0.0321876 -0.008712317 -0.0046145734
000180 d3 1c ee bc 18 4b 69 3c 01 4a 7d 3d 73 1c b8 bd
       -0.029066479 0.014239095 0.061838154 -0.08989801
000190 d3 73 95 3d 83 4c 72 3d 2e 37 47 3b f8 cf b2 3d
       0.07297482 0.059155 0.003039788 0.08731073
0001a0 6a 5c 7e bd 2c d4 89 bd 78 1c 4d bc 40 d5 5d bb
       -0.06209985 -0.06729922 -0.0125189945 -0.003384903
0001b0 46 f8 ce bd 9e 60 92 3d 5b 3e f8 39 e6 2c 0a bd
       -0.10105948 0.071473345 0.00047348705 -0.033734225
0001c0 25 f2 c6 3d 5e e3 ae 3b 87 13 21 3c 56 30 16 bd
       0.09714154 0.005337163 0.009831316 -0.03666719
0001d0 12 0b 5f bd 6f 51 1a bd fe e0 9a bd c9 67 b1 bc
       -0.054453917 -0.037675317 -0.07562445 -0.021655934
0001e0 00 be 86 3d 91 b7 42 3d d9 ba 30 bd 39 e1 16 3d
       0.065792084 0.047538344 -0.04314694 0.036835883
0001f0 b2 e6 cf 3c 7c 72 b2 3d ac c6 90 bd 1c 33 89 3c
       0.025378559 0.087132424 -0.07069144 0.016748004
000200 bc dd d3 bb f6 67 29 3d 55 19 c2 bc df b2 03 3e
       -0.006465642 0.04135891 -0.02369372 0.12861203
000210 41 d9 bd bc 6a 4a d7 3c 70 ca e8 3d a5 53 4f 3d
       -0.023174884 0.0262806 0.11366737 0.05061688
000220 07 79 5f 3d b0 b4 f7 3c 93 e0 89 3d 3a 42 1f 3d
       0.05455878 0.030237526 0.06732287 0.038881518
000230 c7 c5 72 3c ab 98 67 bd 8b ec 2e 3d f7 10 83 3c
       0.014817662 -0.05654208 0.042706054 0.0159993
000240 05 8e 98 bd 1b da 67 bd 7e 4f c0 3d 93 c8 da 3d
       -0.07448963 -0.056604486 0.09390162 0.10682788
000250 81 b1 d6 3d c1 e0 62 bd 60 1c 22 bd 99 b0 9b bc
       0.10483075 -0.055390123 -0.03957784 -0.019005107
000260 5f 02 d1 3d eb 6a 8f 3d 40 b5 7e 3d cb 61 77 3d
       0.102055304 0.07002815 0.062184572 0.060395997
000270 64 6a 92 bd 12 12 27 3d 76 e6 94 bd f5 77 9c 3d
       -0.07149199 0.040788718 -0.072705194 0.076400675
000280 47 57 c4 3d 5c c2 37 bd 6e c7 16 3d 84 4e fe 3c
       0.09586959 -0.04486309 0.036811285 0.031043299
000290 46 aa 83 bd 7f 91 aa bd ac 2b 08 3d 76 71 2d bd
       -0.064289615 -0.083285324 0.033244774 -0.042344533
0002a0 1d 29 be 3d 83 1c 84 bd 40 5a 2e 3d 31 2f 09 bd
       0.092851855 -0.06450751 0.042566538 -0.03349227
0002b0 09 5d ab bc 3f 18 8f bc 59 7d 0c bd de 5a e4 3d
       -0.020918386 -0.017467616 -0.03429923 0.11150144
0002c0 7d e4 55 bb 51 4a 9b 3d 14 8a 9d 3d ff 82 c5 3d
       -0.003263741 0.07582534 0.07692352 0.09644126
0002d0 27 04 b0 bd 1b 7e c0 3d 14 ea e3 bd 08 ce a6 bd
       -0.08594542 0.09399053 -0.11128631 -0.08144766
0002e0 96 55 82 3d 0a d7 85 bd 64 0f 4d 3d fc 58 7a 3c
       0.063639805 -0.06535156 0.050063506 0.015280005
0002f0 00 d0 70 3d ea 0a 38 3d d6 44 95 bd 1c e5 ef 3c
       0.058792114 0.044932283 -0.0728852 0.029284053
000300 fd 8b c2 bd 71 c8 70 bd 92 76 60 3d 37 a3 53 bd
       -0.09499357 -0.058784906 0.054800577 -0.051669326
000310 ce 6f 4d 3d cd f4 4e bc 8e fa 94 3d 25 68 5d 3c
       0.050155453 -0.012631607 0.07274352 0.0135135995
000320 b8 02 2b bd a3 0e 7c bd 17 8b 4e bb 9f fb 4e bd
       -0.04175064 -0.061537396 -0.003151601 -0.050532933
000330 84 f3 8f 3b b2 03 41 bc 46 78 c4 bc a0 d3 32 bd
       0.004393043 -0.011780666 -0.023983132 -0.043658853
000340 25 8c 80 3d 91 0e a2 3b af 9a a2 bd 7c cd 5c 3d
       0.062767304 0.004945584 -0.0793966 0.053906903
000350 18 35 8b 3d 24 9f aa bd ee 3c 6d 3d 4a a1 a9 bd
       0.06797236 -0.08331135 0.057919435 -0.082827166
000360 55 4b 0e bd 42 da 0a 3d 97 df 01 3d cf cd 37 bd
       -0.03473981 0.033899553 0.031707373 -0.04487401
000370 a2 c7 8b 3c db d8 41 bc f1 c6 d7 bd 38 76 02 be
       0.017062966 -0.0118314875 -0.10535992 -0.1274041
000380 56 70 96 bc af ff df 3d 5a 38 6d 3d b9 0a 61 3d
       -0.018364113 0.1093744 0.05791507 0.054941867
000390 a1 79 2c 3d 7e 52 a0 bd bc 8c a6 b9 99 55 98 3d
       0.042108182 -0.07828234 -0.00031766843 0.074382015
0003a0 27 7c 9a bd f8 53 ae bd 03 50 cf 3c 62 2f 32 bd
       -0.075432114 -0.085121095 0.025306707 -0.04350222
0003b0 3b 42 cb 3d 85 3e 41 bc 30 f2 10 bc 01 52 92 bd
       0.09924742 -0.011794691 -0.0088468045 -0.07144547
0003c0 a7 d0 5f bd 82 a4 b3 3c 19 8e fb 3c 06 25 56 3d
       -0.054642346 0.02192903 0.030707406 0.052281402
0003d0 7a 14 3a bd cf ac 23 bd e4 fd 93 bd c1 01 22 3d
       -0.045429684 -0.039959725 -0.0722616 0.039552454
0003e0 5f 04 b2 3d 30 07 3b bd d3 e4 9d 3d 4a 6e 55 bd
       0.0869224 -0.04566115 0.077096604 -0.052107133
0003f0 b2 f3 cc 3d 14 60 2a bd 60 4d ef 3d b8 0e c8 3d
       0.10007419 -0.041595533 0.1168468 0.097684324

fc2.bias f4 [64]
000000 25 49 90 3c b3 60 8d 3d 2e 5a d6 bc 3d 7d 9c 3d
       0.017613003 0.069032095 -0.026166048 0.07641075
000010 23 45 73 3d 06 e9 7b bd ea eb 4f bd 58 40 7b 3d
       0.059392106 -0.061501525 -0.050762095 0.06134066
000020 e3 c3 a3 bd 51 dd 2b 3d 7b 00 76 bc bd 51 94 3d
       -0.07996347 0.04195911 -0.015014763 0.07242153
000030 61 84 a4 bd a2 ba 08 3d 72 cb e7 3d 85 f0 99 bd
       -0.08033062 0.033381112 0.11318101 -0.075165786
000040 76 35 18 bd ce 54 4f 3d 64 3b 36 bd 08 f2 0b bc
       -0.03716036 0.050617985 -0.044490233 -0.008541591
000050 18 0a 91 bd 3c 87 8c 3c 06 02 ae bc 08 c6 86 bc
       -0.07082003 0.017154329 -0.0212412 -0.01645185
000060 89 4e cc 3d b7 d3 7b bd ba 61 b5 3d 11 b7 4b 3d
       0.09975917 -0.061481204 0.088565305 0.049735133
000070 35 84 60 3d c8 1d 97 bd 7c 1a 93 3c 77 b4 a6 bd
       0.054813582 -0.07378727 0.017956965 -0.0813989
000080 22 11 7e 3c 46 03 cc bc 03 75 cb 3c 85 da 8e 3d
       0.0155070145 -0.024903905 0.024836069 0.06975273
000090 c8 e9 ef 3c 42 2f 97 bc 4f 1c e4 bb d6 f5 71 3b
       0.02928628 -0.018455151 -0.0069613825 0.0036920211
0000a0 8e d5 09 3c fe 83 8f bd ad df 7e 3c c4 eb a6 3a
       0.008412732 -0.070075974 0.015556258 0.0012735059
0000b0 68 d3 86 3d b7 74 a9 bb f4 b5 7c 3d 6a a6 ac 3c
       0.06583291 -0.005171384 0.06169696 0.021075446
0000c0 9f 4a 2c bb fb e5 a3 bd 35 33 0a bd 6a 38 50 bc
       -0.0026289595 -0.0800285 -0.03374024 -0.012708763
0000d0 7d 72 60 bd d0 df 3e bd 9b ae b4 3d ef ed 1d bd
       -0.054796685 -0.046600163 0.08822366 -0.03855699
0000e0 f3 a2 ab ba d4 b0 fe 3c dd 03 9f 3d 0c 3a 97 bd
       -0.0013094827 0.031090178 0.07764409 -0.073841184
0000f0 17 68 6d 3d 20 e0 dc 3c b2 0e 58 3d 18 66 37 bd
       0.057960596 0.02696234 0.05274839 -0.0447751
