logs/ppo_checkpoint_ep200.pth (torch, 451850 bytes, 28 tensors)

fc1.weight f4 [128, 147]
000000 d7 d9 f3 3c bf a9 6a 3d 4e 75 01 bd 3f de b0 3c
       0.02976696 0.05729079 -0.03160601 0.02159035
000010 15 d1 c7 bc bc 05 dd 3d f0 75 8d bd b6 3e 45 3d
       -0.02439169 0.10792109 -0.069072604 0.04815551
000020 6d b0 8b bd 81 7f 6c 3c 06 e3 89 bc 54 4a 22 bd
       -0.0682076 0.014434696 -0.016831886 -0.039621666
000030 8f 07 cd bc e3 e3 4e 3d 35 ab 26 bd d8 ac b6 3b
       -0.025028018 0.0505103 -0.04069062 0.005574804
000040 2a 16 c7 3d 2e f7 b1 3c 13 7a 4a 3d d7 d9 a6 3d
       0.09721024 0.02172431 0.049432825 0.081470184
000050 a7 15 a9 3d 28 80 c4 bb 35 e4 b3 bc a0 d4 4b 3c
       0.08256083 -0.0059967227 -0.021959404 0.0124408305
000060 ce 80 19 bd 9c ce 39 bd 34 bd 67 bd 66 d3 06 3d
       -0.037476353 -0.045363054 -0.056576923 0.03291645
000070 cf 26 89 3d fc c5 6d 3d 58 24 e8 bc 99 5f cb 3d
       0.06696855 0.05805014 -0.028337643 0.09930343
000080 4b f5 c0 bc cb 02 ac bd 3b a7 d3 3c bf 39 be 3d
       -0.023554465 -0.0839897 0.025836578 0.09288358
000090 8e 5c 00 bd ea 02 86 bc d9 43 ac bc 71 63 91 bd
       -0.031338267 -0.016358811 -0.021028446 -0.07099045
0000a0 b3 38 a5 3d 47 e0 2f 3d d0 d7 87 bd d6 2c 88 3d
       0.08067455 0.042938497 -0.0663296 0.06649177
0000b0 81 c9 84 3d 2f 25 02 3b 57 5b c1 3c 2d b5 17 3d
       0.06483746 0.001985859 0.023603125 0.037038017
0000c0 ae e4 b9 bd b6 e2 0d 3d 60 f7 97 bc a9 8a 4f bd
       -0.0907682 0.034640037 -0.018550575 -0.050669346
0000d0 d9 40 9f 3d 9f 08 71 bc 3a 0a d3 bd 5e 1e a3 3d
       0.077760406 -0.014711528 -0.10304685 0.079647765
0000e0 47 eb 20 bd 1a b1 9e bc 2a 1e ff 3c 68 69 c8 3c
       -0.039286878 -0.019371558 0.031142313 0.024464324
0000f0 e6 a6 84 bd 73 48 b7 3d ee 17 ef bc 76 59 bc bd
       -0.06477146 0.089493655 -0.029186215 -0.09196751
000100 55 02 f7 3d 5e e3 71 3c 0d db 80 bd 66 a4 05 39
       0.12060992 0.014763681 -0.062917806 0.00012745112
000110 9e ad bc 3d e7 74 fb bd 8c 07 8d 3d 23 08 67 bc
       0.09212802 -0.12278157 0.06886205 -0.014101061
000120 a0 07 cd 3d 6e 5d cc 3c 90 6b c2 3c 45 a9 d4 bd
       0.1001122 0.024946894 0.02373293 -0.10383848
000130 5b bc c3 bb 8e e8 db ba a8 cd d3 bd 88 42 80 3d
       -0.0059733815 -0.0016777681 -0.1034196 0.0626269
000140 2c e4 ba 3d 01 20 52 bc 99 69 02 bd 75 e2 2f bc
       0.091255516 -0.012825013 -0.031838987 -0.010735144
000150 5b b0 ab bd 8a 32 7a 3d 9c 1a 03 bd b6 89 47 3d
       -0.083832465 0.061083354 -0.0320078 0.048715316
000160 30 ee 1a 3d 51 1a 47 bd 99 d6 8d bd a0 c3 72 3d
       0.03782481 -0.04860908 -0.06925697 0.059268594
000170 ed bf 49 bd 23 78 e7 bd f6 f1 a2 3d bd ac da bb
       -0.0492553 -0.11302211 0.07956307 -0.006673424
000180 c5 56 48 bd 70 45 58 3d e3 de 36 3d e2 31 bd bd
       -0.048910875 0.052800596 0.044646155 -0.0923803
000190 d0 24 ac 3d f3 fd a6 3d 2c 55 9a bd fb ee 02 3d
       0.08405459 0.08153906 -0.075357765 0.03196619
0001a0 d6 b6 fe ba d5 e8 65 3d 02 4f 6c 3d 3f c8 d0 3b
       -0.0019433151 0.05613025 0.057692535 0.0063715274
0001b0 c3 7a 09 bd 64 c7 aa 3d 38 95 56 bc e1 9a de bd
       -0.03356434 0.08338812 -0.0130971 -0.108693846
0001c0 63 48 ff 3d ab b4 4c bc 94 89 57 bd 35 49 58 3d
       0.124649785 -0.0124942465 -0.05262144 0.05280419
0001d0 43 f9 e2 bc 3b 95 ed 3b 1a 15 48 3d 85 65 84 3c
       -0.027706748 0.0072504557 0.04884825 0.01616169
0001e0 a4 b5 94 bd 26 b1 c7 3d 72 ab 44 3c 1c bd dd bd
       -0.07261208 0.09750585 0.012003766 -0.108270854
0001f0 61 5a 86 bd c8 1e 12 3c c4 3c 0b 3d b0 05 7f bc
       -0.06560207 0.008918472 0.033993497 -0.015565321
000200 13 02 13 bd e7 09 38 bd 90 17 61 3d ea 41 e1 3d
       -0.03589065 -0.04493132 0.05495411 0.109989
000210 c0 a0 a2 bd 9d 80 fb 3d d9 c2 78 3c 26 e6 75 3a
       -0.07940817 0.122803904 0.015183174 0.0009380303
000220 84 97 d8 bb 0d dc d1 3d c4 0b a2 bd 63 43 ae 3d
       -0.006609859 0.102470495 -0.079124 0.08508947
000230 d7 d4 6a 3d 37 fa 90 3c 09 26 b7 3c e1 50 6a 3d
       0.057331886 0.017697437 0.022357004 0.05720604
000240 08 ea 57 3b 90 02 a6 3d fe ea 1d 3c a3 30 be bd
       0.003294589 0.081059575 0.009638546 -0.092866205
000250 ab a3 5c bd 36 e1 02 bd 70 c6 a2 bd 22 d0 a5 bd
       -0.053867023 -0.03195306 -0.07948005 -0.08096339
000260 19 02 c8 3d fa 9a bd bb e8 54 9d 3d 2c be 76 3d
       0.09766025 -0.005786297 0.0768221 0.060239956
000270 34 83 b6 bd 13 ec c8 3d 32 05 ac bc fd f4 27 bd
       -0.08911744 0.098106526 -0.020998571 -0.041005123
000280 9c 90 90 3d 69 b7 a7 3c b1 98 5b 3d d9 f6 42 3b
       0.07058832 0.020473199 0.053612415 0.0029749183
000290 85 91 88 3d eb 37 f8 bc 0c b9 85 3d 32 be 28 3d
       0.06668381 -0.030300101 0.065294355 0.04119701
0002a0 6d 21 20 3d 7a 99 24 3b 34 a5 96 3a 6c 1e 78 bc
       0.039094377 0.0025115893 0.0011493326 -0.015143972
0002b0 07 b2 b7 3b 37 ff d5 bc 08 8d ea bb 31 36 34 bc
       0.0056059393 -0.026122672 -0.0071579255 -0.010999248
0002c0 6d b7 d3 39 b9 bb 89 bd c7 03 d3 3d 16 d4 ad 3b
       0.0004038172 -0.067252584 0.10303455 0.0053048236
0002d0 1d 1b 36 bd d4 de 22 bc b0 01 4d bc f2 51 cb ba
       -0.04445945 -0.009940822 -0.012512609 -0.0015512093
0002e0 1d ee bc 3d e4 3e a7 3c fd f1 22 bc 53 50 b0 3d
       0.09225104 0.02041573 -0.00994539 0.08609071
0002f0 ce e1 64 bc eb 05 b5 3c 3b 2d c5 3c e2 9d 50 bc
       -0.013969852 0.022097548 0.02406942 -0.012732955
000300 e6 cb a0 bd b2 97 a7 3d 2a 67 0e bd d1 d4 94 3c
       -0.078513905 0.081832305 -0.034766354 0.018167885
000310 ab 21 b3 3d 60 b2 25 bd f0 02 99 bc f4 9e 59 3d
       0.08746656 -0.040453315 -0.018678159 0.053130105
000320 06 b1 22 bd 79 85 4b bd 67 88 71 3d 60 9a bb 3d
       -0.039719604 -0.049687836 0.058967974 0.09160304
000330 7a d6 6d ba a7 95 02 3e 07 27 84 3d d5 13 1f 3d
       -0.0009072792 0.127524 0.064527564 0.038837273
000340 fb 55 e7 3d ee e7 25 3d 65 17 66 bd 58 4e 84 3d
       0.11295696 0.04050439 -0.056174655 0.064602554
000350 4a 29 02 bd ea cc 1f bd a1 4f 68 bc 9f a4 7b 3d
       -0.031777658 -0.03901378 -0.014179141 0.06143629
000360 e8 a3 8b bd 3d d3 fa 3c ff 2e 9e 3c 51 74 2d bd
       -0.06818372 0.030618304 0.019309519 -0.042347256
000370 3d 5b 92 bd 87 e8 14 bd cd c2 fe 3b 04 1e 5e 3d
       -0.071463086 -0.036354568 0.007774687 0.054227844
000380 14 e4 ca 3d 80 b4 ef bc e2 51 55 bd a1 b4 f2 3c
       0.09906784 -0.029260874 -0.052080043 0.029627146
000390 97 fa 97 bd 69 b2 7b bd 0f fd 9f bd d8 28 7b bd
       -0.07420843 -0.061449442 -0.07811939 -0.06131825
0003a0 fc b9 0c 3c 93 56 a4 3d ed fc 63 bc c2 2a c6 3d
       0.008589264 0.08024325 -0.013915283 0.09676124
0003b0 1e 15 db bc 2b e1 c6 bb 5c 55 95 3d f4 b3 35 bd
       -0.026743468 -0.0060693226 0.07291672 -0.04436107
0003c0 9f 78 c8 bc 48 57 00 3e cb 84 df 3c 1f ab 8d bd
       -0.02447158 0.12533295 0.027285 -0.069174044
0003d0 34 75 8a bc 26 42 9e 3d b1 2d 4e bc cb 35 2c 3d
       -0.01690159 0.077274606 -0.012584136 0.04204349
0003e0 56 41 b6 3d 0e 92 9a bc 23 41 b3 3d 83 2d 6c 3d
       0.088991806 -0.018868472 0.08752658 0.05766059
0003f0 73 d8 38 bd cb c9 b2 3c 61 1e 0c bb 30 75 2f 3d
       -0.045128297 0.021824738 -0.0021380412 0.042836368

fc1.bias f4 [128]
000000 1a 8e 46 bc 3c ad af 3d fb 36 18 3c 8d 73 7f bc
       -0.012118841 0.08577964 0.009290452 -0.015591514
000010 6a 38 3c bd e6 6f a5 3d cb 70 dc bd 91 b4 01 bd
       -0.04595224 0.080779836 -0.10763701 -0.031666342
000020 a9 3b 6b 3d 49 4d 6b 3d b0 6d ca 3c a3 b7 c9 bd
       0.057429943 0.05744675 0.024710506 -0.09849479
000030 15 6f 80 3d 74 06 5b 3d 6d 0f 1f bd ac 97 21 3d
       0.06271187 0.05347295 -0.03883307 0.039451286
000040 05 50 80 bd 27 65 5c ba a2 ea 80 bd 85 b8 bb 3c
       -0.062652625 -0.0008407407 -0.06294753 0.022915134
000050 fc 20 4c bd e5 c9 e2 ba 42 48 82 3d e3 d7 f4 3c
       -0.049836144 -0.0017302601 0.06361438 0.029888099
000060 13 62 c6 bd 08 2e 37 bd 9e ee 95 3d 01 8a 9a 3d
       -0.09686675 -0.044721633 0.07320903 0.075458534
000070 dd 68 88 3d 93 7b 60 3d cf 6d 8f 3b 57 c5 9f 3b
       0.06660626 0.05480535 0.004377104 0.0048758197
000080 87 e8 50 3d e7 08 ad 3d a1 da ae 3c 4e 51 98 bd
       0.051003005 0.084489636 0.021344485 -0.07437383
000090 c4 67 b8 3d 7d 9a 8f 3d 29 0c 3b bd ad 41 86 3d
       0.09004167 0.07011888 -0.045665894 0.065554954
0000a0 2a 41 d2 3d 3b 05 38 3c 13 8b 77 3c 7f 37 38 3d
       0.10266335 0.011231716 0.0151088415 0.0449748
0000b0 32 7f c0 3d 43 fb 17 bd 20 f8 a8 3d f5 db f9 3c
       0.093992606 -0.037104856 0.08250451 0.030500391
0000c0 16 3b 9a 3c 83 89 3f bc c6 05 fc 3c ab cb 00 3d
       0.018827002 -0.0116905 0.030764472 0.031444233
0000d0 d0 8d d2 3d 15 83 6c 3d d8 d3 c4 bc c8 d0 d2 bc
       0.10280955 0.057742197 -0.024026796 -0.02573432
0000e0 24 3d 48 bd e0 f4 9c bd 58 62 a9 3d 58 17 1a 3d
       -0.048886433 -0.07663894 0.08270711 0.03761992
0000f0 e6 a1 11 bd cf 7f d0 3c 69 1f a6 3b d3 b3 a3 3d
       -0.03555479 0.025451569 0.0050696624 0.07993283
000100 bf 2e 85 bb 75 f8 e5 bc 62 e6 6e bd 2e ee 20 3d
       -0.0040644105 -0.028072575 -0.05832518 0.039289646
000110 d7 fb 5d 3b 21 f8 06 bd c6 7b b7 3d e4 b4 9a 3d
       0.0033872032 -0.032951478 0.08959155 0.075540334
000120 4e 2d 17 3d 86 fc ad 3d b1 5b 40 3d 20 0d a4 3c
       0.03690844 0.08495431 0.046962444 0.02002579
000130 1b dc 56 3d 1c 7e a6 3d 85 59 75 bc be f0 48 3d
       0.052456003 0.08129522 -0.014974956 0.049057715
000140 21 c8 dc 3d 35 ef 1c bc ef 28 bf bb dd de 38 bd
       0.10780359 -0.009578516 -0.005833737 -0.045134414
000150 4c 4a ba 3d 05 29 f5 bc 42 53 81 3d 8f 84 a9 3d
       0.09096202 -0.029926786 0.06314708 0.08277237
000160 a8 7f 19 bd 82 64 58 3d 6b cb 2c bd b9 a4 96 bd
       -0.037475258 0.052830227 -0.042186182 -0.07355637
000170 ba 25 24 bd d5 af 91 bc 17 7c 39 bd cc d4 c9 bc
       -0.04007504 -0.017784039 -0.045284357 -0.024637602
000180 19 4a 5f 3d 3d 18 b7 3d fa 59 63 3d d7 62 68 bc
       0.054514024 0.0894017 0.05550573 -0.0141837215
000190 43 8c 60 bc 1a 28 a3 3d 49 76 50 3d d9 2c 74 3d
       -0.013705316 0.07966633 0.050894056 0.059613083
0001a0 1d 27 50 3d 1e 42 b2 3d 7c 73 15 3d 20 89 e5 bc
       0.05081855 0.08704017 0.036487088 -0.028019488
0001b0 44 31 60 3d d3 0a a0 3d 18 fa 69 3a 00 4b 8e bd
       0.054734483 0.078145646 0.00089255115 -0.06947899
0001c0 62 0b 3b bd aa cd 46 3d 26 28 0b 3d 00 2e 92 3c
       -0.045665152 0.04853598 0.033973835 0.0178442
0001d0 3a 19 30 3d 6b ba 6f 3d ab f0 c3 3d 55 7d 30 bd
       0.042992808 0.05852739 0.09567388 -0.043088276
0001e0 b9 b4 b7 bc 21 8f 16 bd 69 47 a3 3d f9 82 d8 3c
       -0.022425042 -0.036757592 0.07972605 0.02642964
0001f0 25 4f 2b bd 00 c3 be 3d aa c8 69 3d 5d 33 91 3d
       -0.041823525 0.09314537 0.057076134 0.07089875

fc2.weight f4 [64, 128]
000000 36 96 0f 3c 65 ea 9e bd 75 09 4c bd 1b 3d 74 3d
       0.00876384 -0.07759551 -0.049813706 0.059628587
000010 bf a3 98 bd ed 2d 5c 3d 71 28 1d 3d 7a 9b 9d 3d
       -0.07453107 0.053754736 0.038368646 0.076956704
000020 b3 0b b9 bd 92 bf 58 bd 9c 0f 65 bd c1 c2 87 3c
       -0.090354346 -0.05291707 -0.05592309 0.016572358
000030 c1 bf 95 bd 21 b1 45 3d ce 69 ab bc b1 0c 90 3d
       -0.07311965 0.048264626 -0.020924475 0.07033671
000040 b3 51 ca 3c ca c1 99 bc 57 dc 18 bd 6b d2 2e 3d
       0.02469716 -0.018769164 -0.037319507 0.04268114
000050 f9 c9 10 bd 46 81 12 3d 06 80 21 3d 48 2e 2f bd
       -0.035348866 0.035767816 0.039428733 -0.042768747
000060 d7 fa ae bd fb 98 97 3d 9a 31 80 bd 15 5a 89 bd
       -0.08543938 0.074022256 -0.06259461 -0.06706635
000070 01 74 91 bd b4 61 d1 3c 66 45 fa bc ea 7a c4 bc
       -0.07102204 0.025559284 -0.03055067 -0.023984391
000080 28 2c 8e 3c c5 d3 a1 bd 18 22 ab bd 00 2d 6e bd
       0.01735504 -0.0790172 -0.08356112 -0.058148384
000090 dd 43 c9 3c bf 1d 0f 3a 72 dc 03 bd 4c 3a f4 bc
       0.024568493 0.00054594496 -0.032192655 -0.029812954
0000a0 ae 26 d2 3c d1 1b 4a bc 63 b6 22 3d 6c cc 16 bc
       0.02565321 -0.0123357335 0.03972472 -0.009204011
0000b0 da c2 8d 3d 98 88 5a 3d 42 ea 49 bd f8 80 93 bc
       0.069219306 0.053352922 -0.04929567 -0.018005833
0000c0 1d 77 9a bd a9 72 a1 bd 87 d2 c0 bd ee 40 6c 3d
       -0.0754225 -0.07883198 -0.09415155 0.05767911
0000d0 86 a3 8a 3c 5f 17 ca 3c c7 da c6 bd 69 fb a0 3d
       0.016923677 0.024669347 -0.09709697 0.07860453
0000e0 0b fd f7 bc 4c 28 2c bd 05 a9 1f bd 75 4e e9 3c
       -0.030272027 -0.042030618 -0.03897955 0.028479794
0000f0 9d fc 9f 3c d6 24 7e 3c f0 29 e1 bc e2 64 a1 3a
       0.019529635 0.015511712 -0.027485818 0.0012313391
000100 57 b6 4b 3d 03 25 36 bd 90 4a 8c 3d 9a 98 1e 3d
       0.04973444 -0.04446889 0.06850159 0.03871975
000110 da 68 ab 3c 6a 89 41 bd b6 00 a0 bd c5 04 4a bc
       0.02092402 -0.04725019 -0.078126356 -0.012330239
000120 35 28 e1 bc c3 4c 67 bc 9c 9b c0 bd 3a a4 84 3c
       -0.027484993 -0.0141174225 -0.0940468 0.01619159
000130 d1 dd 2a 3d 74 b5 66 37 5d 97 62 3d 98 6c 94 bc
       0.041715447 1.3751316e-05 0.055320133 -0.018118188
000140 a4 53 96 bd 2e 84 21 3c 84 20 0d bc a8 8d 0b 3c
       -0.07340172 0.009858174 -0.008613709 0.00851766
000150 93 39 3d bd bc 12 10 3d 6c 42 c0 bd b3 02 68 3d
       -0.046197485 0.035174116 -0.09387669 0.0566432
000160 8e 36 65 bd 03 c8 0a bd fd cd 5b bd 09 06 9e bc
       -0.05596023 -0.033882152 -0.053663243 -0.019289987
000170 12 e3 2b 3c 74 d2 65 3c 7b 61 99 3d bb 52 2f 3d
       0.0104911495 0.014027227 0.07489296 0.042803507
000180 e1 f1 61 bc 4a a7 a6 bc 9d b6 c3 bd 7d 83 a4 bd
       -0.013790579 -0.020343442 -0.09556315 -0.08032892
000190 21 52 94 3d a7 96 96 bd 32 1e a0 bc 30 9c d1 bc
       0.07242227 -0.073529534 -0.019545648 -0.025587171
0001a0 f2 4e 3d 3d 30 2d dd bc c1 22 90 3d b0 68 5b bd
       0.046217866 -0.026999086 0.07037879 -0.053566635
0001b0 89 d0 6e 3d 73 3a 60 bc 62 31 15 3d 44 0a 61 bd
       0.058304343 -0.01368581 0.03642405 -0.05494143
0001c0 4f e9 a5 3b 2b 89 f7 bc e0 79 c3 3c 3a 71 07 bd
       0.005063213 -0.030216774 0.023861825 -0.033066966
0001d0 aa 1d 5d bd 56 fd 28 3d 61 3a 24 bd f4 0f 81 bd
       -0.053983368 0.041257225 -0.040094737 -0.06301871
0001e0 11 4a cf 3a 25 50 71 3d 55 7e ad bb ad 5b 5f bd
       0.001581492 0.058914322 -0.005294601 -0.05453079
0001f0 67 43 ed bc 31 90 04 bd 85 ec 84 3d 45 58 c5 bd
       -0.028962804 -0.032364074 0.06490425 -0.09635977
000200 07 d7 b5 3b ae f0 3a bd 36 ba 79 3d 2e bd 85 bd
       0.005549315 -0.045639686 0.0609686 -0.06530224
000210 f4 24 9a bc 82 c5 5d 3a b2 56 4a bd f4 ff b6 3d
       -0.018816449 0.0008459912 -0.049399085 0.08935538
000220 fd e2 11 bd ee 8a d9 b9 a4 da 81 3d 31 a4 ad bd
       -0.035616864 -0.00041492976 0.063405305 -0.08478583
000230 ea 20 8e bd ef f3 75 3d 79 b8 2d bd e1 d9 e6 3c
       -0.069398716 0.060047086 -0.042412255 0.028180065
000240 6d b5 78 3d e4 7f 95 bd 99 36 34 bd d8 29 30 bc
       0.060719896 -0.07299784 -0.04399738 -0.010752164
000250 7d f5 2e bd 02 c6 d2 3c a7 16 4f bd c5 22 c4 bc
       -0.042714585 0.025729183 -0.050558712 -0.02394236
000260 02 28 a1 3d bf d3 a7 3d 45 56 3a 3d 9b 28 6d 3c
       0.07868959 0.08194684 0.04549243 0.014475013
000270 d3 c1 bf bd 6d ce dc bc 4e 41 82 3d a5 c1 2a 3d
       -0.09363141 -0.0269539 0.06360112 0.04168858
000280 f8 3e 89 3c 1c 32 09 bd 3d 4c cd 3d 72 c7 04 3d
       0.016753659 -0.033495054 0.10024307 0.03241677
000290 74 26 96 bd da db 87 3d 7f ae f6 3b 13 e7 5b bd
       -0.07331553 0.0663373 0.007528126 -0.053687166
0002a0 b1 19 ae bd db 9e 9e bd a0 2b c1 bd d4 da d9 bb
       -0.08500994 -0.07745143 -0.09432149 -0.006648401
0002b0 a6 74 a1 bd 9f 3d 24 bd 7f 35 50 3d 84 3e 5a bd
       -0.07883577 -0.04009783 0.050832268 -0.053282276
0002c0 86 1a 13 bd c2 52 82 3d f1 83 42 3d ca 2e 2a 3d
       -0.035913967 0.06363441 0.04748911 0.041548528
0002d0 ae 00 9a 3d 71 e0 8a 3d b5 d4 bd bd a7 20 9b bd
       0.07519661 0.0678109 -0.09269086 -0.07574587
0002e0 bd 20 85 3c a2 41 8b 3d 3f a6 95 3d c1 73 b2 bd
       0.016250962 0.06799628 0.073070996 -0.087134846
0002f0 07 a6 9b 3c d1 79 a6 bc dc 3b 56 3d 84 f9 17 3d
       0.019000066 -0.020321758 0.05230318 0.03710319
000300 dd 41 ac 3c cb ea 2e bd 78 2d 36 3d 71 78 bf 3c
       0.0210275 -0.042704385 0.044476956 0.02337286
000310 90 82 c1 bb 52 7a 4f 3d b6 6d af 3d 5c 3f a1 bd
       -0.005905457 0.050653763 0.085658476 -0.07873413
000320 5c 66 b8 bc 01 39 a5 3d c3 bb 0e bd c8 21 3f 3d
       -0.022509746 0.08067513 -0.034847032 0.046663076
000330 48 92 58 bd 16 cc 9e bb b9 f7 91 3c 71 f2 42 3d
       -0.05287388 -0.0048461063 0.017818319 0.04759449
000340 9f eb 9a bd 6b 57 50 bd 37 e6 a6 bd 0c e9 f6 bc
       -0.075644724 -0.05086462 -0.08149379 -0.030140422
000350 77 21 c9 3c fc c5 9f bd 76 a4 fc bc 85 a0 48 3d
       0.02455209 -0.078014344 -0.03084014 0.04898121
000360 b2 be cc bd 90 d8 6f 3c 3c 30 8f bd 54 0e 26 3d
       -0.0999731 0.014639035 -0.06991622 0.040541008
000370 a8 52 4c 3d ee 49 4f 3d 73 88 83 3d ba e2 aa 3d
       0.049883515 0.050607614 0.0642251 0.08344026
000380 f3 ba 64 3d ec 9b 84 bd b3 68 45 3d 56 da b7 bd
       0.05584235 -0.06475052 0.048195552 -0.08977191
000390 0c 06 f7 3c 4d 67 af 3d 7c 03 18 bc 0d 0a 82 bd
       0.03015425 0.08564625 -0.0092781745 -0.06349573
0003a0 d4 da bd bd 2a 00 51 3d 65 3c 2f 3b f2 28 8d bd
       -0.09270254 0.051025547 0.0026738879 -0.06892575
0003b0 ad 4a 62 bd 80 d5 97 bd e9 26 0a bd 45 9a 7c 3c
       -0.055246998 -0.07413769 -0.033728514 0.01541764
0003c0 a3 fc 1c bb 2b 4e 2a bd ea f2 a2 bd e2 ac 10 bd
       -0.0023954294 -0.041578453 -0.079564884 -0.035321124
0003d0 9a f5 95 bd 58 2b 5e bd a9 99 f3 3c 2a 5f 74 3d
       -0.073222354 -0.054240555 0.029736357 0.059661068
0003e0 e9 02 1e 3c 97 51 b5 3d 12 9b 40 3d b2 3b ad bd
       0.0096442485 0.08853453 0.047022887 -0.084586516
0003f0 c6 81 2a 3c bb 76 a3 3d 24 3f b6 3c df 9a 82 3d
       0.010406917 0.079816304 0.022246905 0.063771956

fc2.bias f4 [64]
000000 82 f6 24 bd 4f c2 b0 bd 35 ef a8 bd 5c 88 bd 3d
       -0.04027415 -0.086308114 -0.0824875 0.09254524
000010 c7 92 94 bd 2f 99 4c 3c 3f 30 f1 bc ae 38 c4 bd
       -0.07254558 0.012487694 -0.02944195 -0.09581123
000020 48 32 c4 3b e8 c0 a6 bd 4e 2b ab 3d 3b dd ed 3b
       0.0059874393 -0.08142263 0.08357869 0.0072590387
000030 a4 b7 1b 3d e6 85 ca 3a 02 6c 33 3d b0 2a 9a bd
       0.03801693 0.0015451282 0.043804176 -0.07527673
000040 f8 80 a8 bd 99 49 89 bd 83 0f 01 bd e7 10 61 bd
       -0.08227724 -0.06703491 -0.031508934 -0.05494776
000050 91 00 af 3c 4a 8b bd bc bd a4 ec 3b 1f b6 d2 bc
       0.021362575 -0.023137707 0.007221787 -0.025721608
000060 32 a6 29 3d 08 77 aa 3a 84 1a 75 3d 34 8f 73 3d
       0.04141826 0.0013005445 0.05983974 0.05946274
000070 ae 28 40 3c 89 e6 1d 3d 7a 53 7e bd 4a dd be 3d
       0.011728449 0.038549934 -0.06209133 0.09319551
000080 29 14 b4 3d 18 91 c3 3d 60 43 0c 3c ec 57 b5 bd
       0.08792908 0.09549159 0.008560985 -0.088546604
000090 65 28 91 bd c9 d3 a7 3d b9 e0 34 3d f7 36 ff 3a
       -0.07087783 0.08194692 0.044159625 0.0019471337
0000a0 10 20 66 3d 7c bf b6 3c 12 44 5d bd b5 40 a4 bc
       0.05618292 0.022308104 -0.054019995 -0.020050386
0000b0 82 b8 43 bc 1e d1 da b9 20 2c b3 3d 9e 2f 48 bd
       -0.011945846 -0.00041736005 0.087486506 -0.048873536
0000c0 e0 05 96 bd f6 1c 45 3d 24 2c 98 3d 23 95 88 3d
       -0.07325339 0.048123322 0.07430294 0.066690706
0000d0 e7 e6 37 bc 5b 55 43 bd b0 70 11 3d 8a ba 7b 3b
       -0.011224485 -0.047688823 0.035507858 0.0038410746
0000e0 88 64 87 3b 44 77 93 bd 90 6e 86 bc 71 21 1d bd
       0.0041318573 -0.072004825 -0.016410142 -0.03836197
0000f0 d9 bc 9b 3b 14 41 d8 3b 5e 7a 68 3c bc c6 73 3d
       0.004752737 0.006599555 0.014189331 0.0595157

action_head.weight f4 [5, 64]
000000 63 f2 03 3d 73 4e ae bd 34 57 25 bd 8f 5c 45 bd
       0.03221358 -0.08511057 -0.040366367 -0.048183974
000010 d3 b4 1d 3d b3 b6 0c bb c7 85 ad bc 73 06 9f bd
       0.038502526 -0.0021471202 -0.021181954 -0.07764902
000020 57 bf 24 3c cf 75 b6 3c c7 cd e4 3d 14 51 87 3d
       0.010055385 0.022272972 0.111720614 0.06607261
000030 26 06 36 bd be 28 ce 3d 31 1d c9 3c a8 3e 9c 3d
       -0.044439457 0.10066365 0.024550052 0.07629138
000040 6e 95 cd 3d 2f 30 9a bc be 1d d5 3d 5c a2 c9 bd
       0.10038267 -0.018821804 0.104060635 -0.09845421
000050 d6 df 4e bd 62 a6 e9 bd 05 d3 82 3d d3 ed 9d 3b
       -0.050506435 -0.11408688 0.06387905 0.0048196106
000060 98 a2 1a bd 62 2b 89 3c 5c cf 2a bd 5b 17 f6 bd
       -0.037752718 0.01674432 -0.04170166 -0.120161735
000070 24 89 76 3d 26 d3 dd 3d 6a 14 87 3d 9e 53 a2 3d
       0.06018938 0.10831289 0.065956905 0.07926105
000080 3e 41 fc 3d d1 89 46 bd 58 1d 3a 3d 3b 67 73 3d
       0.123171315 -0.048471276 0.04543814 0.05942462
000090 5e dc c1 3d 91 b4 71 3d 3a d9 d8 3c fa 05 92 bd
       0.0946586 0.059010092 0.02647077 -0.07130046
0000a0 3c b1 7a bc 1a e4 c7 3c 36 a9 fb 3b c0 a4 46 bd
       -0.015301045 0.02440076 0.0076800836 -0.04849696
0000b0 c4 6d d3 bd da 56 b7 bd 49 b8 89 3d 8e 00 a9 3d
       -0.103236705 -0.089521125 0.06724603 0.08252059
0000c0 1a 33 e9 bd a3 b6 f5 3d 3e 8e 8f ba 1d e7 22 3d
       -0.113867 0.11997726 -0.0010952426 0.039771188
0000d0 89 52 85 bd 4f c7 1e 3d 3a 17 be 3d 4d 20 0d 3d
       -0.06509883 0.038764294 0.09281774 0.034454633
0000e0 82 5c 15 3d c9 89 35 bd f7 8a 73 bd a0 9f fd 3d
       0.036465175 -0.044320855 -0.0594587 0.12383962
0000f0 13 12 02 3d bf 81 f3 3d 8f 2f c1 bd 39 65 8b 3d
       0.03175552 0.118899815 -0.09432899 0.06806416
000100 00 1c 67 bc 86 73 07 bd d1 52 8c bd b4 a2 15 3d
       -0.014105797 -0.033069156 -0.068517335 0.03653212
000110 5d f6 ce bd e8 af 4d bc e4 54 5a 3d 85 0c a0 3b
       -0.10105584 -0.012554146 0.053303614 0.004884305
000120 3a b0 38 bd ee 64 82 bd b9 f4 f6 3c dd 92 29 bd
       -0.045089938 -0.06366907 0.03014599 -0.041399825
000130 95 92 36 ba c7 0f 02 be 2b 03 28 bd 80 7d ef bd
       -0.00069645914 -0.12701331 -0.041018646 -0.11693859
000140 15 2d be 3d 0f 49 33 3d 7a 62 93 3d 70 48 e7 3d
       0.092859425 0.043770846 0.07196517 0.11293113
000150 d8 69 3b bd 71 16 6f 3d e8 88 87 3d d0 06 a4 bd
       -0.045755237 0.05837101 0.0661791 -0.08009112
000160 a7 09 de bd d1 61 eb bd 04 2d a5 3d 8e b9 2c bc
       -0.10841685 -0.114932664 0.08065227 -0.010542287
000170 81 7e 63 bd 6d 02 b0 bd a1 dd d8 bc d7 eb 3a bd
       -0.055540565 -0.08594213 -0.026472868 -0.04563507
000180 ab 25 0e bd 1e b6 6e bd c6 b4 fb bd 47 a4 e6 bd
       -0.03470389 -0.05827915 -0.12290339 -0.11261802
000190 ce 0d 05 3b 9b f4 43 bd 81 a6 43 3d e5 40 bc bd
       0.0020302418 -0.047840696 0.047766212 -0.09192065
0001a0 6b b4 ec 3c f8 1a b7 b8 b5 ba 5b 3d 83 ce cc bd
       0.028894624 -8.731143e-05 0.053644855 -0.100003265
0001b0 47 b2 d4 3d 4e 0f f0 3c 39 f7 ad bd 6b 06 d5 3d
       0.10385566 0.029304173 -0.084944196 0.10401615
0001c0 ec 38 8f bd be 3e 45 3c 0c 21 fe bd 30 46 46 bd
       -0.06993279 0.012038885 -0.12408647 -0.04840678
0001d0 09 3f a2 bb 5b c3 7b 3c d8 1c 78 bd 51 18 a6 bc
       -0.004951362 0.015366401 -0.060574383 -0.020275267
0001e0 03 17 9c bd d5 05 d4 bd de ea ff 3c 15 5b 00 bd
       -0.07621577 -0.10352675 0.031239923 -0.031336863
0001f0 2a 75 94 3d d9 1b 9d bd df 96 43 3d ee cf eb 3d
       0.0724891 -0.07671327 0.047751304 0.11514269
000200 63 2c 2f bd 34 23 17 3d 13 84 ad bc 38 af e4 bd
       -0.04276694 0.036898807 -0.021181142 -0.11166233
000210 94 7d e2 bb 86 1f 83 bd 8f 63 86 3d 0a 42 fa bd
       -0.0069119427 -0.06402497 0.06561958 -0.12219627
000220 f8 5a 46 3d 3f 7e d6 3d 47 6c 2d bd 1b c6 50 bc
       0.0484266 0.10473298 -0.04233959 -0.0127425445
000230 2f 07 88 3d f2 a4 82 3d 8c 25 0e be 5c e6 da 3d
       0.06641995 0.06379117 -0.1388151 0.10688469
000240 87 d3 8f 3d 7d de 49 bd 4c 8d cf bd 49 04 75 bd
       0.070227675 -0.049284447 -0.10134372 -0.05981854
000250 8c 54 13 be 90 3e b0 bd be de 37 bc da a7 5f bd
       -0.14387721 -0.08605683 -0.0112225395 -0.054603435
000260 db 3f 81 3d 71 5d 77 bd 83 3a 2e be 9f 1e 0e 3d
       0.063110076 -0.060391847 -0.17014508 0.03469717
000270 08 45 98 3d 73 e7 75 3d 0c 3b 70 b8 ac c2 29 3b
       0.07435042 0.06003518 -5.727545e-05 0.0025903387
000280 4a 18 6c 3d d9 8d 6b 3d 46 4a a0 bd 37 12 7f 3d
       0.05764035 0.057508323 -0.078266665 0.06227323
000290 a3 70 0b 3d b5 a6 64 3d 4a 54 03 bd 9e 79 45 3d
       0.034042966 0.055823047 -0.032062806 0.048211686
0002a0 9b da 4e bd 30 17 1c 3d 91 11 c1 bd 88 2c 38 3c
       -0.050501447 0.03810805 -0.09427179 0.011241086
0002b0 c7 07 21 bd b1 dd e0 bd cb 5a ee bb 26 06 7a 3d
       -0.039314058 -0.10979784 -0.007274007 0.06104102
0002c0 c0 ef 4e bc ac 6b 20 be 17 cd 3b bd 6d 2e 96 3b
       -0.012630403 -0.15666074 -0.045849886 0.004583171
0002d0 c0 62 98 bd fe fd f0 bd bc df 62 bd 96 06 e7 bd
       -0.0744071 -0.11767195 -0.05538915 -0.11280553
0002e0 e6 20 66 bb 5e 6f 06 bd a6 85 6d bd 7a ad 3a 3d
       -0.0035114824 -0.03282105 -0.057988785 0.045575596
0002f0 6e d2 aa bd 1a 0c ad ba 66 2b 9d bc 9a 3a 82 3c
       -0.083409175 -0.0013202459 -0.019185733 0.015897084
000300 65 3f 89 bd 58 a2 27 3d 29 32 7f 3d cf b2 2f 3d
       -0.06701545 0.040926307 0.062303696 0.042895135
000310 d4 5b a9 bd 43 23 10 3d 3e bf a5 bd 0b bd 1c 3c
       -0.08269468 0.03518988 -0.08093117 0.009566556
000320 75 f0 6e 3c d8 75 6c bc 74 08 eb 3d 04 d0 1c bc
       0.014583697 -0.014432393 0.11476222 -0.009571079
000330 5f 82 01 3e 09 81 c3 3d 5e 35 22 3d a0 61 b2 3d
       0.12647389 0.09546096 0.039601676 0.08710027
000340 0c da 65 3d 4d 2b 01 3d 38 26 04 3e 1b 54 30 3d
       0.05611615 0.031535435 0.12905204 0.04304896
000350 a2 f6 51 bc 10 75 81 3d 8a d7 d3 3c 7e 38 94 3d
       -0.0128151495 0.06321156 0.025859613 0.072373375
000360 e0 7c 85 3d e9 f1 58 3c 96 68 b6 bd 53 96 e6 3c
       0.06517959 0.01324127 -0.08906667 0.028147852
000370 15 9c 52 3d 2d 0b 8f bd db 3c d3 bd f1 44 92 bd
       0.051418383 -0.069845535 -0.10314342 -0.07142056
000380 d0 ab 5a bc de 1e 64 bd a0 f1 24 3c aa 69 fc 3d
       -0.013346627 -0.0556935 0.0100673735 0.12324841
000390 c6 46 91 bd f6 df bb bd 11 5f 4f 3d 5d 77 e9 3d
       -0.07093577 -0.091735765 0.05062777 0.1139972
0003a0 0c e0 c6 bd 68 53 85 bd 81 48 61 bd 41 fc 2e 3d
       -0.09710702 -0.06510049 -0.055000786 0.042721037
0003b0 be d6 04 3e d6 7d a4 3d ff b2 a9 3d 77 f2 69 bd
       0.12972543 0.08031814 0.08286094 -0.057115998
0003c0 d2 72 97 bd 98 16 cd bb ba 8e 08 3e bd 31 0b 3e
       -0.07394947 -0.006258797 0.13335696 0.13593192
0003d0 25 97 84 3d 82 58 e1 bd 2c 28 ae 3b 2d 75 be 3d
       0.06474141 -0.1100321 0.0053148475 0.09299693
0003e0 e1 7e 2e bd c7 d2 d4 bd fe 94 ce bd f8 b6 a0 bd
       -0.04260147 -0.10391765 -0.10087012 -0.078473985
0003f0 49 99 b8 3b 29 ab 97 bd 4d a1 a3 bd d6 54 1f 3a
       0.0056335074 -0.07405693 -0.0798975 0.000607801

action_head.bias f4 [5]
000000 7c ef ee 3c bd 99 54 bd 21 09 12 be b9 62 63 bd
       0.02916693 -0.05190443 -0.14261295 -0.05551407
000010 4b f2 8f 3d
       0.070286356

value_head.weight f4 [1, 64]
000000 f8 32 3f 3b 00 61 31 bd 9d ff 2d bd 27 d6 03 3e
       0.0029174667 -0.043305397 -0.0424801 0.12874661
000010 5c 56 e6 bd bc 6e 0a be 77 0a 1f 3e 54 21 8b bd
       -0.112469405 -0.13518804 0.15531336 -0.06793466
000020 ec a6 b6 3d 69 6e d6 bc 0c 4e 20 be b3 df 30 be
       0.089185566 -0.026175695 -0.15654773 -0.17272834
000030 05 fa e0 bd 56 08 a3 3d 6d 5c d3 3d b4 62 da 3d
       -0.109851874 0.07960574 0.10320363 0.106633574
000040 35 34 f3 3c 34 16 8c bd a1 b7 d7 3d 2c bc bb bd
       0.02968798 -0.068401724 0.10533071 -0.0916675
000050 98 fb ee bd 34 ab 0b 3d ff 21 f7 bd ff 64 b1 3d
       -0.116690814 0.03409882 -0.12067031 0.086618416
000060 03 06 f7 bd 69 64 49 be 46 73 1a be 61 f2 7c 3d
       -0.120616935 -0.1966721 -0.15083036 0.061754588
000070 20 4f 97 bd ee 06 fd 3d 50 87 90 3c 3b ee c9 3d
       -0.07388139 0.12354837 0.017642647 0.09859892
000080 2d 68 2e be 87 ee 34 be 42 6a 9b 3d ea 5e db 3c
       -0.17031927 -0.17669116 0.075886264 0.026778657
000090 d1 3d fb 3d 79 e4 c0 3d 17 ae 06 3d 87 51 11 be
       0.1226765 0.09418578 0.03288087 -0.14191256
0000a0 42 33 2f be 6a 04 3f be 94 a9 51 bd 43 98 1d 3e
       -0.17109397 -0.18654028 -0.051187113 0.15390114
0000b0 22 2e 29 3d 85 6d ba 3d 6a 1c 11 3e 48 06 86 3c
       0.04130376 0.091029204 0.14170995 0.016360417
0000c0 88 07 a2 bd 6b fc a3 3d 1f 47 f0 3d 25 fc 38 be
       -0.07911593 0.08007129 0.11732315 -0.18064936
0000d0 d2 f1 ab 3d 91 df 2c bd 37 2e a0 3d 25 8e 9f 3d
       0.08395733 -0.042205397 0.07821315 0.07790784
0000e0 d2 e9 18 3e 14 6c 35 3d 26 43 9d b9 6d 0e 6d 3c
       0.14932945 0.044292524 -0.00029995403 0.014468771
0000f0 1f 29 04 3d c9 92 9a 3d 36 6a 22 3e a8 64 0e be
       0.03226578 0.07547528 0.15860829 -0.13905585

fc1.weight f4 [128, 147]
000000 60 3c 30 bd 87 70 c0 3c ad 9c 0f 3d 1f d1 6b bd
       -0.043026328 0.023491157 0.035061527 -0.05757248
000010 05 01 f0 3d 39 7b c2 3a db 29 32 3d 80 df 9c 3d
       0.117189445 0.0014837749 0.043496948 0.07659817
000020 7c fe a3 3d 86 da 0e bd 10 4e 06 3d 3a e4 b6 3d
       0.080075234 -0.03487637 0.03278929 0.089302495
000030 2e 44 b7 bc b5 8a 29 3d c8 d9 36 bd 5e 98 a6 3d
       -0.022371378 0.041392047 -0.044641286 0.081345305
000040 0e 62 11 3d 42 0f 88 3d 7a 23 8a bd 20 b1 99 3c
       0.035493903 0.06643535 -0.06745048 0.018761218
000050 73 88 92 3d e7 e4 58 bd d7 f8 c5 3c f0 0b 93 bb
       0.07154932 -0.052952673 0.024166508 -0.004487507
000060 9d 40 e9 3c e8 bf 52 bb 75 f0 40 3d 1d b4 19 bc
       0.028473193 -0.0032157842 0.047104318 -0.009381321
000070 03 cc 00 3d 7d 7a ef 3c 66 d0 ac bd bc af 83 3c
       0.03144456 0.029233212 -0.08438186 0.016075008
000080 e4 8e 4f 3d 00 61 30 bd eb ab c9 bc df 00 b9 3d
       0.05067338 -0.043061256 -0.02461811 0.09033369
000090 08 ee 00 3c d8 55 8b 3d 0d 2b 66 3d be 01 ea 3c
       0.007869251 0.06803483 0.0561934 0.028565284
0000a0 38 8b ab 3d 86 61 98 3b cf f5 e6 bd 71 a9 91 3d
       0.08376163 0.0046502976 -0.11277353 0.071123965
0000b0 2a 0e cd bc e0 5f 49 bc 63 b9 c1 3d 23 e1 c8 3d
       -0.025031168 -0.012290925 0.09459188 0.098085664
0000c0 4c e4 34 bc 20 3b ac 3d b2 52 da bc e2 3f b1 bd
       -0.011040758 0.08409715 -0.02665076 -0.08654763
0000d0 41 60 d3 3d f9 d7 bc bc 1d 68 53 3d 82 f2 b3 3d
       0.10321093 -0.023052203 0.051612962 0.08786489
0000e0 38 3b e4 bc 38 79 a7 bd 87 1f 12 bc 2d 12 bd ba
       -0.027860269 -0.081774175 -0.0089186495 -0.0014424972
0000f0 31 a2 43 bd 70 20 a8 3d b2 1f 2b bd 32 2b ec bc
       -0.0477621 0.08209312 -0.041778274 -0.02882919
000100 fd 51 aa 3d cc bd 17 3d 95 79 9e 3b fc d2 86 3d
       0.08316419 0.03704624 0.004836271 0.06583211
000110 a6 b8 28 bd c2 a6 91 bc d0 97 d8 3d 76 1a 4c 3d
       -0.04119172 -0.017779712 0.10575831 0.049829923
000120 12 15 85 3d 8b 99 9b ba 2f 92 c5 bd 72 19 e8 bc
       0.064981595 -0.0011871321 -0.09647023 -0.028332446
000130 39 c5 ba bc 2f ce 34 bd 45 41 af bd a8 fe e9 3d
       -0.022799121 -0.044141944 -0.08557371 0.11425525
000140 35 b5 33 3d 5e d3 f9 3c 14 b5 a7 3d 2b d4 71 3d
       0.043873984 0.030496296 0.08188835 0.05904023
000150 f2 6a b5 3c 58 5c ca bc 6a 8e 2a bd b8 58 e2 3a
       0.022145722 -0.024702236 -0.041639723 0.0017268872
000160 b2 38 4d bc 33 b3 c1 bc 21 5a 19 3d 7f c2 aa 3d
       -0.012525724 -0.02364502 0.03743947 0.083378784
000170 38 f4 51 3c 15 dc 35 bd 2b dd b4 bb 1a 94 94 3d
       0.012814574 -0.04439934 -0.0055195293 0.07254811
000180 78 4a ae 3b 39 11 68 3d 20 24 1c 3d 56 4f 2f bc
       0.005318936 0.05665705 0.03812039 -0.0107000675
000190 c4 39 ba 3d e9 5b cd 3c be f5 80 bd 18 d3 c7 bb
       0.09093049 0.02506824 -0.062968716 -0.0060981624
0001a0 69 1f 33 bd fe c3 d0 ba c9 77 b2 3d 16 9e 89 3d
       -0.043731127 -0.0015927551 0.087142535 0.067196056
0001b0 b1 f2 5c bd 21 ae 3c bd b4 f3 92 3d 65 79 74 3d
       -0.053942386 -0.0460645 0.07175389 0.059686083
0001c0 00 9b 6e 3c ba e8 29 3d 17 b1 be bd 7f 21 c4 bc
       0.014563322 0.04148171 -0.09311121 -0.023941753
0001d0 bd 3c 7e bd 99 1d 11 3c 42 c5 04 bd 2a 64 19 3d
       -0.062069643 0.008857154 -0.032414682 0.03744904
0001e0 b0 0f 51 bd eb 94 a5 3d d3 0e d0 3d cf 0c 51 ba
       -0.05104035 0.080850445 0.101590775 -0.0007974626
0001f0 df 26 b6 3c f0 e5 6a bd 54 67 14 bd 35 3e 13 bc
       0.022235332 -0.05734819 -0.036231354 -0.008986999
000200 ff 04 08 3d a5 a8 cd 3c 2b e3 c4 3d fd b9 85 bc
       0.03320789 0.02510483 0.09613641 -0.016324038
000210 b9 ed b7 bd ce ad 31 3d c8 35 9c 3a 5e 82 0a 3d
       -0.08980889 0.043378644 0.0011917884 0.033815734
000220 40 f6 88 3d 36 0d c9 3d a7 68 0f bd 81 0c 1d bd
       0.066875935 0.09816973 -0.035011914 -0.038342003
000230 65 e1 fc 3c 86 36 37 bb fe 31 1a 3d 6b 09 86 3d
       0.030869195 -0.0027956082 0.037645333 0.06544765
000240 f1 2a 5e 3d 7c 82 ee bb 33 09 2b bd a3 66 41 3d
       0.05424017 -0.0072787385 -0.04175682 0.047217023
000250 4b 34 87 3d ed cc 1d 3d 1d 18 0c 3d 5f 88 16 3d
       0.06601771 0.03852551 0.034202684 0.036751147
000260 41 76 58 bd 67 04 ee bc 3c dd bd 3c af a1 73 3c
       -0.05284715 -0.029054834 0.023176782 0.014870091
000270 ee 74 ee 3b fa 1a a1 3d 34 d0 54 3d fe 0c 41 3d
       0.0072771227 0.078664735 0.05195637 0.04713153
000280 a0 52 ae 3d b2 3a 0f bd 98 bb 92 3c ec 06 28 bb
       0.08511853 -0.034968086 0.017911717 -0.0025638891
000290 fa fa 3d bc ff c1 73 3d 86 11 4e 3b 34 51 4b 3d
       -0.011595482 0.05951118 0.003144355 0.04963799
0002a0 d4 20 0b bd af 4d 9a bc 96 6a ae 3d 9d e8 0a bd
       -0.033966854 -0.01883587 0.085164234 -0.033913244
0002b0 cd 6d 00 bd 5d e8 1e bd 93 1c 81 bd ff 6d cf 3d
       -0.031354714 -0.038795818 -0.06304278 0.10128402
0002c0 04 12 4d 3d 09 4b d1 bd 1e 99 a8 3d 67 66 ae 3d
       0.05006601 -0.1021939 0.0823233 0.085156254
0002d0 2a cf 60 bc 47 d9 ad 3d 67 f2 ab 3c 7b 15 9d bd
       -0.013721267 0.08488708 0.02098961 -0.07670113
0002e0 97 cf 82 3d 7e d8 0d 3c 23 de 0a bd cf 00 cc bc
       0.06387251 0.008657573 -0.033903252 -0.02490273
0002f0 a7 e7 ca bc a8 d4 44 3c b9 27 40 3d 63 7a 87 bc
       -0.024768664 0.012013592 0.046912882 -0.01653785
000300 2c d4 82 3c d4 c6 5e 3d 41 9f 99 3c df e3 54 3b
       0.015970312 0.054388836 0.018752696 0.0032484455
000310 0a c5 81 3d 08 84 a4 3d f0 da 99 bd c7 ef b8 3d
       0.0633641 0.080329955 -0.07512462 0.09030109
000320 66 a3 62 bd 78 7d 40 3d ca 47 23 bc 07 1b 7f 3d
       -0.05533161 0.046994656 -0.009965846 0.062281635
000330 c7 42 cb 3b e3 a3 62 3d d8 3e 9c bc 66 5b b2 bd
       0.006203029 0.055332076 -0.019072935 -0.08708839
000340 11 f6 b1 3c de 06 5e bd 61 be 8c bd 69 ee ae 3d
       0.021723779 -0.054205768 -0.068722494 0.08541567
000350 55 04 41 3b 5a a0 ae bd 1d da b0 3d ec 30 4d bd
       0.0029452045 -0.085266784 0.08635352 -0.050095484
000360 3f c0 ac bd 3e e4 ee 3d 14 82 d4 3b f7 6d 90 3d
       -0.084351055 0.116646275 0.006485233 0.07052224
000370 25 98 83 bc b4 29 a4 bd fb 99 eb bd 5e 34 d5 3d
       -0.01606376 -0.08015767 -0.11503979 0.10410379
000380 9a 41 2e bc 08 b8 02 3d 6b a1 e3 bc ff 2a c5 3d
       -0.010635758 0.031913787 -0.027786931 0.096273415
000390 ed 98 bc bd c5 14 ac 3d 9d 65 9c 3d 09 85 33 bd
       -0.09208856 0.08402399 0.07636569 -0.043828044
0003a0 6b 9b 72 3d d7 95 0a 3d 15 81 6e bb 0d d0 a2 3d
       0.05923025 0.033834305 -0.0036392857 0.07949839
0003b0 47 7d 75 3d 71 88 81 bd 94 72 07 3e 79 5f 48 bd
       0.059933927 -0.06324852 0.13227302 -0.048919175
0003c0 92 38 0a 3d 01 a4 b7 3d 52 c5 11 3d 1f 92 88 3c
       0.033745356 0.08966828 0.03558857 0.016671238
0003d0 34 e3 87 3d 71 7a 88 3c cb bd ba bd ed be 56 bc
       0.066351324 0.016659947 -0.091182314 -0.013107044
0003e0 45 0f 93 3d b5 b6 4d bd d1 22 8d 3d ba 9e b9 3d
       0.07180647 -0.05022307 0.06891406 0.09063478
0003f0 87 aa a4 bd 23 18 c5 3b 26 00 81 bc a7 4c 4c 3d
       -0.08040338 0.00601484 -0.015747141 0.04987779

fc1.bias f4 [128]
000000 fb ca 92 3d 79 8e 1a bb 2b 4b e1 bc 38 2f 63 3d
       0.07167622 -0.0023583455 -0.027501663 0.055464953
000010 cb 59 8c bd 0c 49 01 3d d1 9b bb 3d f0 9f ee b8
       -0.06853064 0.031563804 0.09160579 -0.00011378515
000020 55 24 1c 3d ea 88 64 3d e7 dd 13 3d e1 31 cd bc
       0.038120586 0.055794634 0.036100294 -0.025048198
000030 b6 7f 8b 3d 47 6e b3 ba 50 b1 0a 3d a4 4e 32 3d
       0.06811468 -0.0013689481 0.033860505 0.04353203
000040 ed 1c fd 3c 8c 2c 57 bd 5e af 86 bc 3c fb af 3b
       0.030897582 -0.052532718 -0.016441043 0.0053705256
000050 bb df a0 3c 6d 2c db bc 0f 33 93 3d a5 49 d4 bd
       0.019637933 -0.026754582 0.07187473 -0.10365609
000060 d4 85 aa bc 2f c3 29 3b f5 cf 98 bd 93 ac 0f 3d
       -0.020815767 0.0025903692 -0.0746154 0.03507669
000070 74 97 b9 3c ee 96 a1 3d f6 e8 e8 3c 3e e8 f3 3a
       0.022655226 0.07890116 0.028431397 0.0018608642
000080 dc c8 e6 bb 47 79 55 bd 88 e0 52 3d 7b 89 c1 3c
       -0.0070429873 -0.052117612 0.05148366 0.023625126
000090 6b ed 1a 3c 24 21 9d 3d 0e ca 49 bd 67 96 65 3d
       0.009456019 0.07672337 -0.04926496 0.056051638
0000a0 18 63 fa bc fd 4a b8 3c 2c db 94 3d 81 e9 2e 3d
       -0.03056483 0.022496695 0.07268366 0.042703155
0000b0 9b 3a 31 bd 9b 2d 1f ba 95 5b be 3d f4 be 7f 3d
       -0.04326878 -0.00060721644 0.09294812 0.062437966
0000c0 a3 36 32 3d ef 8c 17 bc 73 a0 67 3d 90 ad 06 3d
       0.043509137 -0.00924991 0.0565495 0.032880366
0000d0 7a 9c 26 3d c1 7d b9 3d a6 d1 df 3d 35 41 8a 3d
       0.04067657 0.09057189 0.10928659 0.067507185
0000e0 71 88 78 bd d6 0f d5 3d 7c f3 6f bc ea ed 90 3d
       -0.060676996 0.10403411 -0.014645454 0.070766285
0000f0 99 dc d2 bc dc b9 9e bd e2 50 e8 3c 29 df 84 bd
       -0.025739955 -0.077502936 0.02835888 -0.06487877
000100 32 a2 c8 b9 4e cf 65 bc d0 8b 71 b9 2a 54 f8 bc
       -0.00038267818 -0.014026476 -0.00023035635 -0.03031357
000110 43 ed ba 3d d3 6a a8 bc 75 fe ba 3d e2 07 1a 3d
       0.09127285 -0.02055875 0.09130565 0.037605174
000120 29 c3 96 3c 2f e4 a6 3d 93 53 78 3c dd eb 92 bb
       0.018403606 0.08148991 0.015156644 -0.0044836835
000130 4d dc a5 bc 5c 87 9f 3d 51 36 82 3d 83 d4 fb bb
       -0.02024665 0.077894896 0.06358016 -0.0076852455
000140 59 3d 99 3d 60 5f 15 3d 47 d1 7e 3d 77 41 53 bd
       0.07482404 0.03646791 0.0622113 -0.051576104
000150 ad 7e 87 bc 5d 61 e7 bc 7f 08 9b 3d 34 69 ab bd
       -0.016539896 -0.028244669 0.0756998 -0.08369675
000160 a6 be 34 3d 84 e9 a7 bb c6 33 3a bc d4 39 99 bc
       0.04412713 -0.005124273 -0.011364883 -0.018704332
000170 c2 45 b6 bb d3 fd 2d bc f0 80 dd bc 94 e2 a3 3c
       -0.005562515 -0.010619598 -0.027039021 0.020005502
000180 2b 31 9c bd 28 81 68 3d 90 d8 95 3d 4d 3a ba 3d
       -0.076265655 0.056763798 0.07316697 0.09093151
000190 b4 71 38 3d 28 7e a7 bd 57 07 d0 3c ec fd eb 3c
       0.04503031 -0.08178359 0.025394125 0.028807603
0001a0 16 a7 da 3c 7e c6 05 bd 0c 1a bd 3d 45 75 b1 bc
       0.026691 -0.03266 0.09233484 -0.021662364
0001b0 1d a2 3e 3c 99 17 87 bc a6 21 cf 3c 2b 02 d6 3c
       0.0116353305 -0.016490744 0.0252846 0.02612408
0001c0 e5 7d 64 3d 0f eb 38 3c b4 5e f2 bc 08 7f 21 3a
       0.055784125 0.011286511 -0.029586174 0.0006160592
0001d0 ba a4 8b 3c 7f 89 9f 3d cd 80 4f 3d ec 0a 74 3c
       0.017046321 0.07789897 0.050659943 0.014895182
0001e0 4e 01 d2 3d dc d3 a8 3d 50 79 55 3d 6e da 43 ba
       0.10254155 0.08243534 0.052117646 -0.0007471208
0001f0 6b 86 d6 3d b7 15 9f 3d f8 b7 6f bd c1 e4 17 3d
       0.10474857 0.07767814 -0.058525056 0.03708339

fc2.weight f4 [64, 128]
000000 b5 9b 02 3d f8 7e cc bb b0 fe 90 bd 2c ab 22 bc
       0.031886775 -0.006240722 -0.07079828 -0.009928506
000010 5c e1 61 bd c3 fc 04 bc 52 53 20 3c d4 81 9d 3d
       -0.05514656 -0.008116904 0.00978549 0.076907784
000020 68 68 9a bc 99 3e 9c bd f4 41 86 3d 15 64 3e ba
       -0.018848613 -0.07629127 0.06555548 -0.0007262838
000030 b6 e3 86 3c 91 83 cc 3d 6e 94 ba bd be 6b 24 bd
       0.016466003 0.09986032 -0.09110342 -0.040141813
000040 8f b6 a4 3d fb ae ad bd 52 f2 8d bd a7 6a 0e 3d
       0.08042633 -0.084806405 -0.069309846 0.03476968
000050 eb 17 8f bd e2 5b a6 bd eb 03 22 bc 01 30 41 bc
       -0.06986984 -0.08122994 -0.009888629 -0.01179123
000060 cb 1d 1c bd 02 2c c3 3c 6c e8 a0 bd 00 3d 8b bd
       -0.03811435 0.023824695 -0.07856831 -0.06798744
000070 9a 64 85 3d 57 76 a9 3c 25 68 91 3b e2 e8 a1 bd
       0.06513329 0.020686312 0.004437464 -0.07905747
000080 a7 65 6b bb 87 fe b8 bc cd 0e a4 bd ea de 8f 3d
       -0.0035918744 -0.022582306 -0.080106355 0.07024939
000090 73 cd bf 3c d7 28 7e 3d e6 b5 ba 3b 1e f2 97 bd
       0.023413396 0.062050667 0.0056979535 -0.07419227
0000a0 6e 6b 52 3d fb 90 53 bd c6 fd b1 bc a0 86 81 3d
       0.051371984 -0.051651936 -0.021727454 0.06324506
0000b0 20 cf 37 bd 9b 51 67 bb 71 06 61 3d cc 54 f6 bb
       -0.044875264 -0.0035296443 0.054937784 -0.007517433
0000c0 ce 79 24 3d d7 12 a8 bd 8a 43 6e bd 18 b1 75 3d
       0.040155225 -0.082067184 -0.05816988 0.059983343
0000d0 4d 44 6d bd 72 64 03 3b ff 6a 1b 3c eb b1 5e 3d
       -0.057926465 0.0020048884 0.009485959 0.054368895
0000e0 ec b4 85 bd 25 39 3c 3c 01 9b 4e 3d ac e5 7f 3c
       -0.06528649 0.011488234 0.050440792 0.015618723
0000f0 e4 2f 1e 3d ef f7 7a bd d3 a7 e6 3c 3f 6b 0e bd
       0.03861989 -0.061271604 0.028156197 -0.034770247
000100 a4 e1 3a 3d 7c b3 13 bd b9 a7 1f 3d 5c fa ad 3d
       0.045625344 -0.03605984 0.038978312 0.08495018
000110 8e 22 62 bd 07 e0 56 3d 35 d2 0e bd 53 9b 01 3d
       -0.055208735 0.052459743 -0.034868438 0.03164227
000120 3c 6f 32 3c ad 70 f7 3c e6 87 9e 3c ed 4c 4e 3d
       0.010890778 0.030205095 0.01935191 0.05036633
000130 5a b9 8c 3d 5c be 01 bd 71 1f ac bd 68 47 9c 3d
       0.068712905 -0.03167568 -0.084044345 0.07630807
000140 25 d5 80 3d 46 ed 1a 3d b0 42 bb 3c 38 5e 45 3d
       0.06290654 0.037823938 0.022858948 0.048185557
000150 98 28 81 3a f7 53 36 3d 25 cc 44 3d f0 88 a8 bd
       0.0009854017 0.04451367 0.04804625 -0.08229244
000160 11 07 c9 bc b4 49 d1 3b f0 da 92 3d d2 a1 08 3d
       -0.024539502 0.00638696 0.07170665 0.03335745
000170 2b db 7a bd 5c cf 0b 3d 8e b4 b4 bc 72 8c a7 bc
       -0.06124417 0.0341333 -0.022058751 -0.020452712
000180 e3 84 23 bd 03 b4 91 3c 60 99 7d 3d c6 cd b3 bd
       -0.039921653 0.017786032 0.061913848 -0.087794825
000190 5c 72 83 3d 73 63 80 3d 08 b5 70 bb 26 4a ac 3d
       0.06418297 0.062689684 -0.0036728997 0.0841258
0001a0 be f7 71 bd e1 b2 95 bd f4 67 58 bc 4c 4c 21 bc
       -0.059074156 -0.07309509 -0.013208378 -0.009844851
0001b0 ac 13 ca bd ec 7b 85 3d 62 38 7d bb 72 09 12 bd
       -0.09867033 0.06517777 -0.0038638343 -0.03565354
0001c0 14 f4 ac 3d ab ca 36 3b 4e 8a 0e bb 76 2e fe bc
       0.08444992 0.0027891796 -0.0021749916 -0.031028014
0001d0 4c d3 23 bd 7a 84 40 bd 30 80 85 bd b6 4f 0f bd
       -0.03999643 -0.04700134 -0.065185905 -0.034988128
0001e0 7f 1e 8b 3d 3e 9d 0a 3d 17 5c 1f bd e4 91 ef 3c
       0.06792926 0.033841364 -0.038906183 0.02924437
0001f0 55 a9 a3 3c eb 61 a2 3d f1 37 82 bd c8 f3 37 3c
       0.019978205 0.079288326 -0.06358326 0.011227556
000200 ca dd d3 bb ad a9 0f 3d d2 96 df bc cc 7c 1d 3e
       -0.0064656483 0.035073925 -0.027293596 0.15379637
000210 92 45 ee bc 57 29 1e 3d e5 f2 fd 3d 4c 42 30 3d
       -0.029085908 0.038613643 0.12399844 0.043031976
000220 e8 33 57 3d bf 1f 0b 3d 3f 98 67 3d f1 e6 e4 3c
       0.052539736 0.033965822 0.056541678 0.027942153
000230 7c 51 85 3c 79 61 aa bd 62 e4 48 3d 98 1b d8 3c
       0.016274206 -0.08319373 0.049045928 0.026380345
000240 6b 04 da bd 1c ca 33 bc 32 2e 04 3e 0f 90 f7 3d
       -0.10645374 -0.01097348 0.12908247 0.12088024
000250 8d c1 16 3e 6e 1d 81 bd 62 84 3e bd 4b 10 c7 bc
       0.14722271 -0.063044414 -0.04651297 -0.024299761
000260 07 72 fe 3d 43 fe 7c 3d 7d 69 3b 3d 68 42 84 3d
       0.12424093 0.06176592 0.0457549 0.064579785
000270 ca 41 97 bd 4d d1 64 3d d6 f1 a1 bd 19 d0 cc 3d
       -0.07385595 0.055863667 -0.07907455 0.10000629
000280 d9 4d f1 3d e3 ca 80 bd 96 2d 08 3d 4b b1 02 3d
       0.117824264 -0.062886976 0.0332466 0.03190736
000290 b3 01 7a bd c6 53 a8 bd 31 50 f1 3c 4a 39 69 bd
       -0.061036777 -0.082191035 0.029457184 -0.0569394
0002a0 2d 86 fd 3d 7a 4d a2 bd 31 d3 31 3d 11 a3 47 bd
       0.123791076 -0.07924934 0.0434143 -0.048739497
0002b0 ea 26 c0 bc ce fb b8 bc 0b d8 18 bd 60 e3 09 3e
       -0.023456056 -0.022581007 -0.03731541 0.13465643
0002c0 38 5c 6c bc 3c 01 c8 3d a5 51 b8 3d b5 e5 db 3d
       -0.014426284 0.097658604 0.089999475 0.107371725
0002d0 2b f1 b0 bd 42 5f c3 3d 3d 87 ea bd f0 da ae bd
       -0.08639749 0.09539653 -0.11451576 -0.08537853
0002e0 0d d3 59 3d 0a 25 b0 bd 30 44 72 bc a7 3e f5 3c
       0.05317979 -0.08600815 -0.014786765 0.029937102
0002f0 8d 57 02 3d c0 66 29 3d 25 4d 9b bd 50 71 0e 3c
       0.031821776 0.041357756 -0.075830735 0.008694008
000300 35 74 c4 bd 74 85 8a bd 98 34 1d 3d 8d 0a 84 bd
       -0.09592477 -0.067637354 0.038380235 -0.06447325
000310 5c a7 82 3d 0f 21 73 bd c9 84 a2 3d 70 66 b6 3b
       0.063795775 -0.0593577 0.07935483 0.0055664107
000320 04 f4 78 bd ca f8 83 bd fc ef 24 bc 79 6a 6b bd
       -0.060779586 -0.06443937 -0.010066982 -0.057474587
000330 cc 43 10 bc a4 73 27 3c 43 20 88 bb f3 00 81 bd
       -0.008805227 0.010220442 -0.0041542365 -0.06299009
000340 7e c4 64 3d ad 7c 46 3b 8b 4f c4 bd b8 aa 32 3d
       0.055851452 0.0030286715 -0.09585484 0.04361984
000350 03 d2 bc 3d 31 6d bf bd 84 96 80 3d e3 cf 84 bd
       0.09219744 -0.093469985 0.062787086 -0.06484964
000360 cf 03 ca bc 06 6d 05 3c 41 4b 87 3c cb b8 b4 bd
       -0.02466002 0.008143669 0.016515376 -0.08824309
000370 c9 f6 2d 3d 47 96 50 3c 45 67 d3 bd 03 47 04 be
       0.04247168 0.012731141 -0.103224315 -0.12917714
000380 84 dc c9 bc dd f6 fa 3d ba 0e 91 3d f5 eb 91 3d
       -0.024641283 0.12254117 0.07082887 0.07125083
000390 65 96 19 3d 8b 88 9b bd 03 3c a6 bc 25 f8 86 3d
       0.037496943 -0.07594403 -0.020292288 0.065902986
0003a0 d9 8c 95 bd 5a 56 d8 bd e1 21 33 3d 3b 3b 4f bd
       -0.07302255 -0.10563345 0.04373348 -0.050593596
0003b0 ea 18 fb 3d d9 58 b1 bc 2d 40 da bc e1 0e 6d bd
       0.12260611 -0.021648811 -0.02664193 -0.057875518
0003c0 1e 3f 78 bd e6 00 2e 3d 32 3b 05 3d 81 20 68 3d
       -0.06060707 0.042481326 0.032527156 0.056671623
0003d0 c8 43 0d bd c2 ba 2e bd f3 9a ae bd 76 68 74 3d
       -0.03448847 -0.042658575 -0.08525648 0.059669934
0003e0 b3 b0 d0 3d 88 42 25 bd 9e 2d b9 3d f0 26 79 bd
       0.10189953 -0.040346652 0.09041904 -0.06082815
0003f0 aa 4f 01 3e 7f a5 56 bd 82 2f ff 3d 08 19 e1 3d
       0.12628046 -0.052403923 0.12460233 0.109911025

fc2.bias f4 [64]
000000 0d 92 42 3c 34 2e 9b 3d 30 21 02 bd 21 5c a1 3d
       0.0118756415 0.07577172 -0.03176993 0.078789
000010 7d a2 61 3d 0b ff 7b bd 2f b5 44 bd c6 ac 76 3d
       0.0550866 -0.061522525 -0.048024353 0.060223363
000020 de 0e a4 bd 62 98 26 3d 2f ef 73 bc cd 1d e2 3d
       -0.08010648 0.040672667 -0.014888569 0.1104084
000030 61 84 a4 bd 83 b3 17 3d fd 22 f3 3d 99 50 99 bd
       -0.08033062 0.03703643 0.11871908 -0.07486076
000040 c6 f0 26 bd fb fa 6c 3d ec 2e 18 bd 2d f4 0b bc
       -0.040756963 0.05785654 -0.037154123 -0.008542103
000050 39 0a 91 bd 1b 48 b5 3c e8 02 ae bc 94 55 85 bc
       -0.07082028 0.02212911 -0.02124162 -0.016276158
000060 3b 10 ce 3d eb 09 80 bd 06 b8 ca 3d 94 33 58 3d
       0.100616895 -0.06251892 0.09898381 0.052783564
000070 bc ee 5a 3d 85 f7 9b bd ee 64 6d 3c eb b4 a6 bd
       0.05345033 -0.0761557 0.014489396 -0.08139976
000080 a8 76 88 3c fa 7e 8c 3b 41 e0 d9 3c 8a 2c 9c 3d
       0.016658142 0.0042875977 0.02659619 0.07625683
000090 a7 43 fe 3c c7 02 ae bc 24 04 12 bc 78 68 5d 3b
       0.031038119 -0.021241559 -0.00891212 0.0033784192
0000a0 fe 52 3e 3a fe 83 8f bd f9 6b 41 3c 46 d9 b8 39
       0.00072602916 -0.070075974 0.011805528 0.00035257096
0000b0 7b 7d 88 3d 79 ad e0 bb e8 a1 78 3d 48 84 c7 3c
       0.066645585 -0.006856617 0.06070128 0.024355069
0000c0 9c 4d 1c 39 d1 ea a3 bd 76 33 0a bd 3d 4e 51 bc
       0.00014906231 -0.08003772 -0.033740483 -0.012775001
0000d0 27 73 60 bd 30 eb 2a bd 59 39 cd 3d 4c eb 1a bd
       -0.054797318 -0.0417282 0.10020704 -0.037822053
0000e0 40 b5 ab ba eb 4d f3 3c 1f 9f ac 3d 5b 46 97 bd
       -0.0013100281 0.02970024 0.084287874 -0.07386466
0000f0 03 a6 83 3d 6e e4 c9 3c 04 65 53 3d c7 f2 33 bd
       0.064281486 0.024645057 0.051610008 -0.043932702
