logs/ppo_checkpoint_ep400.pth (torch, 451850 bytes, 28 tensors)

fc1.weight f4 [128, 147]
0.02303858 0.028593054 -0.003725127 -0.015168014 -0.045146927 0.1295161 -0.10173165 0.031213908
-0.066439755 -0.014680097 -0.030024834 -0.038075786 -0.033730067 0.05431789 -0.018220263 -0.03087456
0.09257371 0.030247513 0.028219927 0.103128694 0.09708474 -0.006111037 -0.041159384 0.020172244
-0.029692458 -0.04524684 -0.052550044 0.023734119 0.02715315 0.049147338 -0.029113958 0.08726934
-0.038164068 -0.057916827 0.017584315 0.11065316 -0.05680806 -0.016827805 -0.015720174 -0.06734039
0.06958765 0.054795332 -0.067515425 0.045428745 0.053285614 0.0113163935 0.0027685093 0.038928654
-0.10665786 0.035477262 -0.006305981 -0.059928235 0.06512733 0.0025867557 -0.102281794 0.06417056
-0.033070076 -0.04127244 0.020789787 0.02483432 -0.07323982 0.090775415 -0.021309284 -0.121007524
0.107342236 0.0178298 -0.07232338 -0.008222404 0.08562043 -0.15014029 0.05420826 -0.026395207
0.1078694 0.028472839 0.020967524 -0.08611872 -0.004464358 0.008258068 -0.1351033 0.06552636
0.087950416 -0.019271031 -0.024638282 -0.0031985634 -0.10695469 0.06430983 -0.018182604 0.024832098
0.023445336 -0.06253379 -0.09869346 0.060548943 -0.070332855 -0.15874025 0.07337414 -0.002132241
-0.05803236 0.0685985 0.04841448 -0.082993574 0.0938832 0.097359985 -0.09311633 0.056023836
-0.006582428 0.05792281 0.06503537 0.0125686405 -0.039320737 0.07012457 -0.015360975 -0.14101736
0.12994625 -0.019144367 -0.07427686 0.0509564 -0.024729056 0.01621956 0.0800984 0.017328372
-0.074558906 0.11777202 0.029498849 -0.12045571 -0.061573055 0.01836544 0.04166699 -0.008956561
-0.02374954 -0.054838266 0.055067774 0.09049192 -0.079862915 0.12498485 -0.007598336 0.011645264
-0.006398389 0.0911184 -0.06271624 0.08732035 0.038405195 -0.009331006 0.042702697 0.05050374
-0.015712783 0.08760529 0.008751841 -0.09578005 -0.08468403 0.00058080157 -0.11009173 -0.07785306
0.12086153 -0.025118759 0.06365137 0.052015252 -0.10724989 0.08802964 -0.020948756 -0.040739685
0.07664137 0.03711131 0.016740413 0.0061106617 0.07559747 -0.050255988 0.084158085 0.05551293
0.039323382 -0.011544664 0.009743786 -0.0069456585 0.011445709 -0.044666495 -0.017859442 -0.049948946
-0.013596567 -0.068959825 0.0923381 -0.0007690988 -0.035160005 -0.018111639 -0.00069568295 -0.028288389
0.09133769 0.028846148 -0.03202877 0.0795057 -0.0020646562 0.021619542 0.012914823 -0.017073885
-0.081828624 0.069335505 -0.03572915 0.024147851 0.09045104 -0.04537029 -0.02696903 0.050934743
-0.017374273 -0.03837288 0.050827883 0.09952242 -0.028094966 0.12223742 0.06289926 0.01631172
0.11659717 0.04283288 -0.06666029 0.05858724 -0.036815517 -0.049244575 -0.020690326 0.057237953
-0.07007074 0.015170606 0.011560586 -0.033715677 -0.0806644 -0.03504456 -0.0034851523 0.059351556
0.109197766 -0.024671482 -0.048717033 0.025261167 -0.052802946 -0.055349953 -0.07570866 -0.073105894
0.013420538 0.091047905 -0.038456492 0.09061785 -0.028569449 -0.03410662 0.077558376 -0.055757698
-0.024884643 0.12154138 0.022707041 -0.07673227 0.004054383 0.08186366 -0.016347243 0.050368525
0.10176715 -0.029390942 0.10736403 0.054372825 -0.04573997 0.0323146 0.011996329 0.033545423
00000000: 67bb bc3c fb3b ea3c 4321 74bb 4383 78bc
00000010: fceb 38bd de9f 043e af58 d0bd 4fb4 ff3c
00000020: 9111 88bd ca84 70bc a4f6 f5bc 5bf5 1bbd
00000030: 8a28 0abd 707c 5e3d a942 95bc a5ec fcbc
00000040: 4997 bd3d a2c9 f73c 7a2d e73c 2335 d33d
00000050: 5dd4 c63d 183f c8bb be96 28bd 4340 a53c
00000060: 993d f3bc c054 39bd b73e 57bd 0e6e c23c
00000070: 4870 de3c b84e 493d 6580 eebc 45ba b23d
00000080: ed51 1cbd 323a 6dbd fb0c 903c 209e e23d
00000090: 91af 68bd 77da 89bc 98c7 80bc c2e9 89bd
000000a0: f883 8e3d 1271 603d 8745 8abd 7e13 3a3d
000000b0: 0442 5a3d 6568 393c e16f 353b a773 1f3d
000000c0: 706f dabd 9b50 113d 67a2 cebb 4f77 75bd
000000d0: 7a61 853d 8f86 293b 1e79 d1bd db6b 833d
000000e0: 7d74 07bd 4a0d 29bd 584f aa3c 5871 cb3c
000000f0: c2fe 95bd 76e8 b93d cf90 aebc cbd2 f7bd
00000100: 3fd6 db3d cd0f 923c 481e 94bd 43b7 06bc
00000110: c459 af3d 60be 19be 7b09 5e3d c33a d8bc
00000120: a2ea dc3d df3f e93c 16c4 ab3c 035f b0bd
00000130: c049 92bb d94c 073c 8558 0abe af32 863d
00000140: 591f b43d 48de 9dbc 39d6 c9bc fd9e 51bb
00000150: 0f0b dbbd dfb4 833d aff3 94bc af6c cb3c
00000160: 6f10 c03c b711 80bd cc1f cabd 2b02 783d
00000170: ac0a 90bd ce8c 22be 2e45 963d 11bd 0bbb
00000180: 57b3 6dbd 5f7d 8c3d 434e 463d 89f8 a9bd
00000190: d645 c03d ac64 c73d c6b3 bebd 4079 653d
000001a0: 68b1 d7bb 7840 6d3d 4431 853d b3ec 4d3c
000001b0: c80e 21bd 789d 8f3d 99ac 7bbc db66 10be
000001c0: a110 053e a6d4 9cbc 771e 98bd a8b7 503d
000001d0: 9794 cabc e2de 843c a10a a43d 3bf4 8d3c
000001e0: 57b2 98bd 7532 f13d 92a7 f13c 7cb1 f6bd
000001f0: 0734 7cbd 1f73 963c 01ab 2a3d 8abe 12bc
00000200: 658e c2bc 179e 60bd bf8e 613d d453 b93d
00000210: 2b8f a3bd 0ff8 ff3d 76fb f8bb c7cb 3e3c
00000220: 94a9 d1bb 499c ba3d 5f71 80bd 03d5 b23d
00000230: c44e 1d3d 13e1 18bc 06e9 2e3d 02dd 4e3d
00000240: 18b8 80bc 676a b33d e263 0f3c 5528 c4bd
00000250: d26e adbd ef40 183a c677 e1bd 6d71 9fbd
00000260: 4086 f73d dbc5 cdbc a65b 823d f20d 553d
00000270: d5a5 dbbd e248 b43d ba9c abbc a8de 26bd
00000280: 27f6 9c3d 0702 183d 3123 893c f23b c83b
00000290: d9d2 9a3d 39d9 4dbd 135b ac3d 8761 633d
000002a0: 8e11 213d d525 3dbc 67a4 1f3c 6898 e3bb
000002b0: c886 3b3c 37f4 36bd f74d 92bc 4497 4cbd
000002c0: 23c4 5ebc cf3a 8dbd c21b bd3d 599d 49ba
000002d0: f003 10bd dc5e 94bc 7e5e 36ba 0dbd e7bc
000002e0: 410f bb3d c24e ec3c 9930 03bd e2d3 a23d
000002f0: 2f4f 07bb 771b b13c b298 533c 88de 8bbc
00000300: c495 a7bd c6ff 8d3d bb58 12bd b7d1 c53c
00000310: 653e b93d 32d6 39bd 28ee dcbc f3a0 503d
00000320: 7e54 8ebc e22c 1dbd e630 503d 69d2 cb3d
00000330: 6a27 e6bc 9d57 fa3d 54d1 803d 28a0 853c
00000340: 7fca ee3d 8871 2f3d 3185 88bd 2cf9 6f3d
00000350: decb 16bd aeb4 49bd c27e a9bc 5872 6a3d
00000360: 4081 8fbd 228e 783c 9d68 3d3c 7319 0abd
00000370: 6033 a5bd e28a 0fbd 2767 64bb 9e1a 733d
00000380: 14a3 df3d d91b cabc 838b 47bd 82f0 ce3c
00000390: e747 58bd a2b6 62bd 240d 9bbd 8bb8 95bd
000003a0: d1e1 5b3c 5377 ba3d 8e84 1dbd da95 b93d
000003b0: 7a0a eabc 62b3 0bbd edd6 9e3d 2f62 64bd
000003c0: e1da cbbc b0ea f83d 1e04 ba3c cf25 9dbd
000003d0: a1da 843b 22a8 a73d a7ea 85bc 3a4f 4e3d
000003e0: 4c6b d03d 46c5 f0bc ace1 db3d 0ab6 5e3d
000003f0: d659 3bbd 505c 043d 408c 443c ed66 093d

fc1.bias f4 [128]
-0.004361597 0.094411194 0.0145824645 -0.027156388 -0.046486285 0.06464945 -0.110884644 -0.022760592
0.060397558 0.058790773 0.03221196 -0.102420844 0.05312344 0.038932573 -0.039389953 0.0237475
-0.06922259 -0.0020097694 -0.067258574 0.0076653287 -0.056291673 -0.017521758 0.05199337 0.019712389
-0.10258991 -0.06231592 0.08086127 0.060984015 0.05641489 0.05958012 -0.01668421 0.013235703
0.06583534 0.09433274 0.013506866 -0.07869557 0.095420904 0.05208747 -0.04384724 0.054879565
0.102530256 0.018884284 0.0045980746 0.026492424 0.082774274 -0.03133584 0.07339111 0.03560213
0.026016032 -0.013771942 0.020749338 0.014399259 0.113515355 0.045566544 -0.023855684 -0.041350864
-0.04861092 -0.07328033 0.09326283 0.025651867 -0.02673266 0.027693482 0.002174444 0.08791929
0.01122325 -0.014742509 -0.078918375 0.027970638 -0.012359433 -0.021477718 0.097065225 0.08315719
0.04317751 0.07196648 0.031382106 0.02823457 0.0424608 0.09203456 -0.005809351 0.05441397
0.0969257 0.005666218 -0.019741077 -0.044859767 0.09782266 -0.05436859 0.0509916 0.07105823
-0.037730172 0.037898805 -0.04642391 -0.08219279 -0.050310276 -0.008177081 -0.049718216 -0.038277287
0.03207643 0.07876761 0.06740265 -0.0040432136 -0.010063271 0.08422514 0.05671564 0.06632758
0.060272805 0.0773968 0.050045148 -0.02543552 0.063027255 0.086862236 -0.00090743526 -0.07156844
-0.052884623 0.028705444 0.025242724 0.0028413692 0.051017128 0.065674566 0.104900435 -0.041042272
-0.020145308 -0.05015634 0.06901353 0.015669417 -0.05121067 0.07664393 0.0426623 0.052390136
00000000: baeb 8ebb a85a c13d 4aeb 6e3c 1377 debc
00000010: 6768 3ebd ee66 843d 7d17 e3bd 6c74 babc
00000020: 6e63 773d 98ce 703d b0f0 033d 05c2 d1bd
00000030: f797 593d c377 1f3d 5c57 21bd 1e8a c23c
00000040: 93c4 8dbd 56b6 03bb ddbe 89bd 702d fb3b
00000050: 1992 66bd ca89 8fbc 00f7 543d e07b a13c
00000060: a91a d2bd fa3e 7fbd 989a a53d 60ca 793d
00000070: 4d13 673d 490a 743d 53ad 88bc 90da 583c
00000080: aed4 863d 8631 c13d e74b 5d3c 252b a1bd
00000090: 096c c33d ac59 553d 2a99 33bd 65c9 603d
000000a0: 62fb d13d 37b3 9a3c 72ab 963b a406 d93c
000000b0: 8f85 a93d 025a 00bd 144e 963d 8ad3 113d
000000c0: 931f d53c b6a3 61bc 84fa a93c dfea 6b3c
000000d0: bd7a e83d fca3 3a3d ff6c c3bc 865f 29bd
000000e0: 3e1c 47bd ff13 96bd 9500 bf3d dd23 d23c
000000f0: 74fe dabc 71dd e23c 1e81 0e3b 070f b43d
00000100: b9e1 373c 918a 71bc f59f a1bd ae22 e53c
00000110: 387f 4abc 0af2 afbc 22ca c63d 514e aa3d
00000120: e7da 303d 2963 933d 868a 003d 2f4c e73c
00000130: 60eb 2d3d 9e7c bc3d 5e5c bebb 2fe1 5e3d
00000140: fb80 c63d afab b93b 0ab8 a1bc e0be 37bd
00000150: 3f57 c83d 99b1 5ebd 91dc 503d fa86 913d
00000160: f48a 1abd c73b 1b3d ff26 3ebd b254 a8bd
00000170: 2612 4ebd 2af9 05bc 54a5 4bbd a5c8 1cbd
00000180: 9362 033d ea50 a13d 670a 8a3d ef7c 84bb
00000190: 6be0 24bc 3b7e ac3d a94e 683d c1d6 873d
000001a0: 9ee0 763d 3782 9e3d 24fc 4c3d 275e d0bc
000001b0: 6f14 813d d4e4 b13d f3e0 6dba 7992 92bd
000001c0: 8c9d 58bd ae27 eb3c d4c9 ce3c 4436 3a3b
000001d0: 56f7 503d 6380 863d 0ad6 d63d f11b 28bd
000001e0: c607 a5bc bc70 4dbd f756 8d3d 265d 803c
000001f0: 48c2 51bd 7ef7 9c3d aabe 2e3d 0a97 563d

fc2.weight f4 [64, 128]
0.00876384 -0.07759551 -0.049813706 0.059628587 -0.07453107 0.053754736 0.038368646 0.076956704
-0.090354346 -0.05291707 -0.05592309 0.016572358 -0.07311965 0.048264626 -0.020924475 0.07033671
0.02469716 -0.018769164 -0.037319507 0.04268114 -0.035348866 0.035767816 0.039428733 -0.042768747
-0.08543938 0.074022256 -0.06259461 -0.06706635 -0.07102204 0.025559284 -0.03055067 -0.023984391
0.01735504 -0.0790172 -0.08356112 -0.058148384 0.024568493 0.00054594496 -0.032192655 -0.029812954
0.02565321 -0.0123357335 0.03972472 -0.009204011 0.069219306 0.053352922 -0.04929567 -0.018005833
-0.0754225 -0.07883198 -0.09415155 0.05767911 0.016923677 0.024669347 -0.09709697 0.07860453
-0.030272027 -0.042030618 -0.03897955 0.028479794 0.019529635 0.015511712 -0.027485818 0.0012313391
0.04973444 -0.04446889 0.06850159 0.03871975 0.02092402 -0.04725019 -0.078126356 -0.012330239
-0.027484993 -0.0141174225 -0.0940468 0.01619159 0.041715447 1.3751294e-05 0.055320133 -0.018118188
-0.07340172 0.009858174 -0.008613709 0.00851766 -0.046197485 0.035174116 -0.09387669 0.0566432
-0.05596023 -0.033882152 -0.053663243 -0.019289987 0.0104911495 0.014027227 0.07489296 0.042803507
-0.013790579 -0.020343442 -0.09556315 -0.08032892 0.07242227 -0.073529534 -0.019545648 -0.025587171
0.046217866 -0.026999086 0.07037879 -0.053566635 0.058304343 -0.01368581 0.03642405 -0.05494143
0.005063213 -0.030216774 0.023861825 -0.033066966 -0.053983368 0.041257225 -0.040094737 -0.06301871
0.001581492 0.058914322 -0.005294601 -0.05453079 -0.028962804 -0.032364074 0.06490425 -0.09635977
0.005130767 -0.04564399 0.059707277 -0.065302335 -0.021166097 0.00032501153 -0.049399197 0.08917649
-0.03636842 -0.0012175316 0.06235206 -0.08478583 -0.06939879 0.060046908 -0.042412184 0.028179925
0.06071987 -0.07299767 -0.04399747 -0.010752304 -0.043211117 0.025729144 -0.050558884 -0.023942595
0.078689456 0.08194693 0.044094216 0.014474859 -0.09363159 -0.028712226 0.062773034 0.041256584
0.014130547 -0.033987664 0.100243166 0.03241689 -0.07452939 0.066337086 0.006564801 -0.05368716
-0.08536204 -0.08106597 -0.09432171 -0.0066486006 -0.07883595 -0.041138776 0.05083214 -0.05369888
-0.035914034 0.05938238 0.047488917 0.0415484 0.07367467 0.06718927 -0.09269099 -0.07574605
0.016251106 0.06799612 0.07192492 -0.087135024 0.018023333 -0.021175439 0.052303374 0.03670555
0.020654842 -0.045201406 0.043528233 0.02266955 -0.0059054666 0.05001178 0.08427863 -0.07918852
-0.02379685 0.080675036 -0.034847092 0.04550784 -0.052874066 -0.007499203 0.016171494 0.046782337
-0.07564495 -0.051831394 -0.08149379 -0.03128335 0.023896923 -0.0780145 -0.031075012 0.04884179
-0.09997327 0.014638814 -0.07219921 0.04054084 0.04916439 0.050291855 0.050112657 0.083440125
0.05584178 -0.06475074 0.047806725 -0.0904146 0.028166482 0.083871685 -0.010965518 -0.06426767
-0.09335486 0.050707307 0.0013306338 -0.06892593 -0.056157693 -0.07487746 -0.034010075 0.015417799
-0.0023951984 -0.04157855 -0.079564996 -0.035321083 -0.074412316 -0.055396542 0.028015714 0.058268193
-0.002088996 0.087796055 0.04649705 -0.08458666 0.010406547 0.0798163 0.022246659 0.06377183
00000000: 3696 0f3c 65ea 9ebd 7509 4cbd 1b3d 743d
00000010: bfa3 98bd ed2d 5c3d 7128 1d3d 7a9b 9d3d
00000020: b30b b9bd 92bf 58bd 9c0f 65bd c1c2 873c
00000030: c1bf 95bd 21b1 453d ce69 abbc b10c 903d
00000040: b351 ca3c cac1 99bc 57dc 18bd 6bd2 2e3d
00000050: f9c9 10bd 4681 123d 0680 213d 482e 2fbd
00000060: d7fa aebd fb98 973d 9a31 80bd 155a 89bd
00000070: 0174 91bd b461 d13c 6645 fabc ea7a c4bc
00000080: 282c 8e3c c5d3 a1bd 1822 abbd 002d 6ebd
00000090: dd43 c93c bf1d 0f3a 72dc 03bd 4c3a f4bc
000000a0: ae26 d23c d11b 4abc 63b6 223d 6ccc 16bc
000000b0: dac2 8d3d 9888 5a3d 42ea 49bd f880 93bc
000000c0: 1d77 9abd a972 a1bd 87d2 c0bd ee40 6c3d
000000d0: 86a3 8a3c 5f17 ca3c c7da c6bd 69fb a03d
000000e0: 0bfd f7bc 4c28 2cbd 05a9 1fbd 754e e93c
000000f0: 9dfc 9f3c d624 7e3c f029 e1bc e264 a13a
00000100: 57b6 4b3d 0325 36bd 904a 8c3d 9a98 1e3d
00000110: da68 ab3c 6a89 41bd b600 a0bd c504 4abc
00000120: 3528 e1bc c34c 67bc 9c9b c0bd 3aa4 843c
00000130: d1dd 2a3d 5cb5 6637 5d97 623d 986c 94bc
00000140: a453 96bd 2e84 213c 8420 0dbc a88d 0b3c
00000150: 9339 3dbd bc12 103d 6c42 c0bd b302 683d
00000160: 8e36 65bd 03c8 0abd fdcd 5bbd 0906 9ebc
00000170: 12e3 2b3c 74d2 653c 7b61 993d bb52 2f3d
00000180: e1f1 61bc 4aa7 a6bc 9db6 c3bd 7d83 a4bd
00000190: 2152 943d a796 96bd 321e a0bc 309c d1bc
000001a0: f24e 3d3d 302d ddbc c122 903d b068 5bbd
000001b0: 89d0 6e3d 733a 60bc 6231 153d 440a 61bd
000001c0: 4fe9 a53b 2b89 f7bc e079 c33c 3a71 07bd
000001d0: aa1d 5dbd 56fd 283d 613a 24bd f40f 81bd
000001e0: 114a cf3a 2550 713d 557e adbb ad5b 5fbd
000001f0: 6743 edbc 3190 04bd 85ec 843d 4558 c5bd
00000200: fe1f a83b 31f5 3abd 9e8f 743d 3bbd 85bd
00000210: 8664 adbc 4f66 aa39 d056 4abd 2aa2 b63d
00000220: 0df7 14bd 9595 9fba e064 7f3d 31a4 adbd
00000230: f420 8ebd bff3 753d 66b8 2dbd 96d9 e63c
00000240: 66b5 783d cd7f 95bd b136 34bd 6f2a 30bc
00000250: 24fe 30bd edc5 d23c d516 4fbd 4323 c4bc
00000260: f027 a13d cbd3 a73d 239c 343d f627 6d3c
00000270: ebc1 bfbd e735 ebbc 268f 803d aafc 283d
00000280: cf83 673c a636 0bbd 4a4c cd3d 93c7 043d
00000290: dda2 98bd bddb 873d 8b1d d73b 11e7 5bbd
000002a0: 4bd2 aebd ea05 a6bd be2b c1bd 81dc d9bb
000002b0: be74 a1bd 2281 28bd 5d35 503d 5bf3 5bbd
000002c0: 981a 13bd f03a 733d bd83 423d a82e 2a3d
000002d0: bfe2 963d 879a 893d c6d4 bdbd bf20 9bbd
000002e0: 0a21 853c 8d41 8b3d 5f4d 933d d973 b2bd
000002f0: aba5 933c 1d78 adbc 103c 563d 8f58 163d
00000300: 5834 a93c 1c25 39bd a94a 323d 7eb5 b93c
00000310: a582 c1bb 27d9 4c3d 469a ac3d 972d a2bd
00000320: 9df1 c2bc f438 a53d d3bb 0ebd 6e66 3a3d
00000330: 7a92 58bd e0bb f5bb 157a 843c d69e 3f3d
00000340: bdeb 9abd 284d 54bd 37e6 a6bd f822 00bd
00000350: 7bc3 c33c 11c6 9fbd 0691 febc 540e 483d
00000360: c9be ccbd a3d7 6f3c 2edd 93bd 270e 263d
00000370: 9960 493d d5fe 4d3d ee42 4d3d a8e2 aa3d
00000380: 5aba 643d 099c 84bd fcd0 433d 4a2b b9bd
00000390: 65bd e63c ebc4 ab3d b7a8 33bc c59e 83bd
000003a0: d530 bfbd 77b2 4f3d a968 ae3a 0a29 8dbd
000003b0: 9c05 66bd 5b59 99bd 264e 0bbd f09a 7c3c
000003c0: c3f8 1cbb 454e 2abd f9f2 a2bd d7ac 10bd
000003d0: 7c65 98bd 7ce7 62bd 3681 e53c a1aa 6e3d
000003e0: 8ae7 08bb 6bce b33d b173 3e3d c53b adbd
000003f0: 3980 2a3c ba76 a33d a03e b63c ce9a 823d

fc2.bias f4 [64]
-0.04027415 -0.0870981 -0.0824875 0.103222504 -0.07254631 0.0067972206 -0.027380742 -0.09584641
0.008374509 -0.08309888 0.07823854 -0.0043217195 0.03586978 -0.002824237 0.051111843 -0.07527673
-0.082234286 -0.06720971 -0.020281598 -0.0576628 0.017117634 -0.022706565 -0.00427887 -0.028608538
0.027851678 -0.008425857 0.058683354 0.07232319 0.0014061676 0.037892196 -0.07103632 0.09359576
0.07350882 0.08483828 0.008560985 -0.088546604 -0.070812926 0.08317192 0.066565566 -0.008138023
0.04422449 0.012571587 -0.053025354 -0.016580317 0.030038703 0.017015878 0.090182476 -0.048873607
-0.07325339 0.057262562 0.07651635 0.056454938 0.0010167795 -0.04770398 0.035963133 0.012520421
0.006893753 -0.07838922 -0.013522878 -0.04155121 0.031319704 -0.003054175 0.022325665 0.052773852
00000000: 82f6 24bd 7d60 b2bd 35ef a8bd 5266 d33d
00000010: 2993 94bd 38bb de3b 944d e0bc 1f4b c4bd
00000020: 3d35 093c bf2f aabd 873b a03d 369d 8dbb
00000030: 31ec 123d d616 39bb a75a 513d b02a 9abd
00000040: 736a a8bd 3fa5 89bd 9825 a6bc d42f 6cbd
00000050: 483a 8c3c 1e03 babc c335 8cbb 745c eabc
00000060: 3429 e43c 9b0c 0abc f55d 703d 2e1e 943d
00000070: 284f b83a d934 1b3d 7d7b 91bd 22af bf3d
00000080: cb8b 963d b1bf ad3d 6043 0c3c ec57 b5bd
00000090: 5e06 91bd 0a56 aa3d 8753 883d 5855 05bc
000000a0: bd24 353d 0ff9 4d3c 1d31 59bd 72d3 87bc
000000b0: ba13 f63c e264 8b3c 97b1 b83d b12f 48bd
000000c0: e005 96bd 268c 6a3d 9bb4 9c3d 4b3d 673d
000000d0: 7545 853a 4065 43bd 144e 133d 7422 4d3c
000000e0: fee4 e13b 878a a0bd 108f 5dbc 9a31 2abd
000000f0: 1749 003d 8e28 48bb 50e4 b63c 6529 583d

action_head.weight f4 [5, 64]
0.03221358 -0.08551817 -0.040366367 -0.08014909 0.03850272 -0.054683108 -0.03981202 -0.07760579
-0.016800689 0.021474617 0.05785913 0.014615127 -0.09630197 0.07885222 -0.005953988 0.07629138
0.092050925 -0.018913226 0.06961193 -0.09840284 -0.110057965 -0.11198088 -0.010970785 0.0049983067
-0.0840862 -0.038386837 -0.10612555 -0.15133959 0.012507837 0.08531641 0.08471281 0.05454382
0.07149406 -0.09894852 0.04543814 0.05942462 0.07865662 0.032447204 -0.015936445 -0.13462043
-0.069087215 -0.027291337 0.0022041684 -0.07608324 -0.16203283 -0.12495066 0.037799746 0.08252056
-0.113867 0.087443925 -0.029880978 -0.009992255 -0.095502 0.03875978 0.06505431 0.00094604876
0.010247262 -0.04565187 -0.057971008 0.12367428 -0.014975971 0.102994904 -0.12345933 0.009417339
-0.014105797 -0.033507716 -0.068517335 0.092928946 -0.10105602 0.030122524 0.092552125 0.004841429
0.004453057 -0.06526373 0.073972076 -0.0014699459 0.039656844 -0.08378306 0.012996637 -0.11693859
0.099107735 0.04382918 0.13605678 0.11354026 0.007363307 0.05556157 0.12903684 -0.079713374
-0.07416496 -0.07515348 0.13572699 0.04524828 -0.029661844 -0.040495 -0.03405638 0.0002666912
0.005720418 -0.021453483 -0.12290339 -0.11261802 0.03674138 -0.003646383 0.11686566 -0.054167572
0.068195865 0.04181812 0.05732048 -0.04926974 0.18682922 0.09286175 -0.030789632 0.1040161
-0.06993279 0.06874342 -0.062378295 -0.006541849 0.051005043 0.015360939 -0.012324748 0.040106878
-0.023283564 -0.09993618 0.033858117 -0.031607244 0.14454065 -0.046335507 0.10211346 0.1573847
-0.04276694 0.037927367 -0.021181142 -0.13928452 -0.006912091 -0.11060268 0.05470192 -0.12223685
0.02841837 0.1030492 -0.08975845 -0.057213888 0.024342837 0.050821256 -0.162905 0.10688469
0.06223524 -0.049076896 -0.13023575 -0.060736805 -0.20169947 -0.08593351 -0.073346786 -0.056265123
0.030583583 -0.10295919 -0.2284506 0.010009733 0.036456455 0.042581256 0.01845351 -0.016928852
0.018844554 0.017776718 -0.078266665 0.06227323 0.016708592 0.03585087 -0.070902966 0.005075923
-0.09393555 -0.0050025336 -0.08967083 -0.008624728 -0.09431288 -0.1383898 -0.025396183 0.06104095
-0.012630403 -0.18448134 -0.06798877 -0.04020825 -0.10138997 -0.11767118 -0.074721806 -0.13978234
-0.024005488 -0.02923217 -0.05723703 0.045834992 -0.12690513 -0.005058875 -0.042937376 -0.029556595
-0.06701545 0.040330935 0.062303696 0.06181382 -0.082694836 0.06821809 -0.05588821 0.009523602
0.03242982 -0.011646041 0.15226255 0.026168691 0.16034664 0.109528795 0.058941513 0.08710027
0.08216777 0.031439155 0.14308423 0.04378201 0.026398662 0.06542878 0.07387368 0.072993256
0.095242776 0.048629064 -0.045992948 0.050031967 0.09050278 -0.052910134 -0.10092099 -0.05293111
0.020771885 -0.0217844 0.0100673735 0.12324841 -0.055396687 -0.06947316 0.07090075 0.15696715
-0.060049035 -0.031288188 -0.054402076 0.059815854 0.16441329 0.09846073 0.10070176 -0.05711603
-0.07394947 0.009529986 0.14665288 0.16863164 0.08481356 -0.11002043 0.024625588 0.11307639
-0.025564162 -0.10600178 -0.104481794 -0.07812545 0.023535296 -0.063223116 -0.062121846 0.038418803
00000000: 63f2 033d 2624 afbd 3457 25bd 3525 a4bd
00000010: 07b5 1d3d 65fb 5fbd ee11 23bd c9ef 9ebd
00000020: 99a1 89bc 89eb af3c b2fd 6c3d 4974 6f3c
00000030: f839 c5bd 467d a13d ac19 c3bb a83e 9c3d
00000040: 3285 bc3d e9ef 9abc b390 8e3d 6e87 c9bd
00000050: 1266 e1bd 3b56 e5bd cfbe 33bc d6c8 a33b
00000060: 6335 acbd 843b 1dbd 5a58 d9bd c4f8 1abe
00000070: aced 4c3c 5fba ae3d e97d ad3d 5769 5f3d
00000080: 7a6b 923d 86a5 cabd 581d 3a3d 3b67 733d
00000090: b916 a13d 5ce7 043d 268d 82bc f0d9 09be
000000a0: 997d 8dbd 1592 dfbc cf73 103b 88d1 9bbd
000000b0: efeb 25be 22e6 ffbd e8d3 1a3d 8a00 a93d
000000c0: 1a33 e9bd cd15 b33d f4c8 f4bc 8eb6 23bc
000000d0: 8d96 c3bd 93c2 1e3d 323b 853d 4200 783a
000000e0: 22e4 273c 75fd 3abd 0273 6dbd f148 fd3d
000000f0: c65d 75bc feee d23d 3fd8 fcbd 2f4b 1a3c
00000100: 001c 67bc 633f 09bd d152 8cbd 8851 be3d
00000110: 75f6 cebd 83c3 f63c f88b bd3d daa4 9e3b
00000120: f3ea 913b fea8 85bd ac7e 973d 33ab c0ba
00000130: 376f 223d 7496 abbd d9ef 543c 807d efbd
00000140: fff8 ca3d 3a86 333d 7852 0b3e cc87 e83d
00000150: e547 f13b 8794 633d 3c22 043e c440 a3bd
00000160: cce3 97bd 11ea 99bd 04fc 0a3e 4356 393d
00000170: 65fd f2bc 16de 25bd b47e 0bbd b0d2 8b39
00000180: 5872 bb3b 37bf afbc c6b4 fbbd 47a4 e6bd
00000190: 217e 163d 28f8 6ebb 4357 ef3d d1de 5dbd
000001a0: 46aa 8b3d 7a49 2b3d e1c8 6a3d 11cf 49bd
000001b0: 2950 3f3e 4d2e be3d 8a3a fcbc 6506 d53d
000001c0: ec38 8fbd 5ac9 8c3d 6280 7fbd 025d d6bb
000001d0: aaea 503d 73ac 7b3c bded 49bc 1c47 243d
000001e0: 2cbd bebc 57ab ccbd cfae 0a3d 9976 01bd
000001f0: 7702 143e 4dca 3dbd dd20 d13d 7429 213e
00000200: 632c 2fbd ba59 1b3d 1384 adbc 9aa0 0ebe
00000210: d27e e2bb a883 e2bd 1f0f 603d 5057 fabd
00000220: a4cd e83c 750b d33d 47d3 b7bd 1c59 6abd
00000230: a16a c73c f329 503d 91d0 26be 5ce6 da3d
00000240: 61ea 7e3d db04 49bd 855c 05be 28c7 78bd
00000250: 4e8a 4ebe e8fd afbd d736 96bd 4276 66bd
00000260: 6c8a fa3c 45dc d2bd f4ee 69be ddff 233c
00000270: 5d53 153d af69 2e3d d12b 973c 60ae 8abc
00000280: e55f 9a3c 7ba0 913c 464a a0bd 3712 7f3d
00000290: 75e0 883c 5dd8 123d 9335 91bd ee53 a63b
000002a0: 4861 c0bd 4bec a3bb 57a5 b7bd bb4e 0dbc
000002b0: 1c27 c1bd 0eb6 0dbe a80b d0bc 1306 7a3d
000002c0: c0ef 4ebc ade8 3cbe b23d 8bbd 68b1 24bd
000002d0: 8ba5 cfbd 96fd f0bd bf07 99bd 1a23 0fbe
000002e0: 28a7 c4bc 4e78 efbc 6071 6abd 79bd 3b3d
000002f0: 6bf3 01be ebc4 a5bb 1adf 2fbd ac20 f2bc
00000300: 653f 89bd 0d32 253d 2932 7f3d 7d30 7d3d
00000310: e95b a9bd edb5 8b3d 09eb 64bd e208 1c3c
00000320: 22d5 043d 09cf 3ebc b7ea 1b3e b95f d63c
00000330: e931 243e a250 e03d a86c 713d a061 b23d
00000340: 9347 a83d 58c6 003d ac84 123e c454 333d
00000350: 0242 d83c 86ff 853d 154b 973d 7d7d 953d
00000360: a50e c33d 452f 473d 1a63 3cbd 52ee 4c3d
00000370: 8659 b93d 4cb8 58bd aaaf cebd 4bce 58bd
00000380: cd29 aa3c 3375 b2bc a0f1 243c aa69 fc3d
00000390: a3e7 62bd f247 8ebd 6a34 913d ffbb 203e
000003a0: faf5 75bd 0b28 00bd b6d4 5ebd 7801 753d
000003b0: f55b 283e c7a5 c93d b93c ce3d 80f2 69bd
000003c0: d272 97bd a923 1c3c 2c2c 163e c6ad 2c3e
000003d0: bbb2 ad3d 6452 e1bd 9abb c93c 9894 e73d
000003e0: ef6b d1bc 7617 d9bd 8dfa d5bd 3c00 a0bd
000003f0: 18cd c03c 1f7b 81bd 7a73 7ebd 095d 1d3d

action_head.bias f4 [5]
-0.01146719 0.003907715 -0.1781756 -0.028107442 0.06408513
00000000: e2e0 3bbc 4a0c 803b aa73 36be 9441 e6bc
00000010: 113f 833d

value_head.weight f4 [1, 64]
0.0029174667 -0.042822838 -0.0424801 0.12632667 -0.112469226 -0.13954593 0.14264089 -0.067891516
0.08244139 -0.024326399 -0.15852076 -0.17789559 -0.11685911 0.07207246 0.09883616 0.106633574
0.010264938 -0.06831892 0.095668904 -0.090716474 -0.11600437 0.033175968 -0.11712879 0.08588411
-0.1273624 -0.20203653 -0.15068464 0.055285018 -0.0874469 0.11812038 -0.005381457 0.09448148
-0.17369886 -0.18221547 0.075886264 0.026778657 0.11239465 0.08763881 0.02831666 -0.15197662
-0.17765518 -0.19199136 -0.053870767 0.14611113 0.03217427 0.08357096 0.13680112 0.01636046
-0.07911593 0.07325144 0.115211405 -0.18459661 0.07756784 -0.04220642 0.07166329 0.070701934
0.14503366 0.04061446 0.0023261153 0.014312381 0.023630919 0.06579914 0.15496412 -0.14262488
00000000: f832 3f3b 0067 2fbd 9dff 2dbd c75b 013e
00000010: 4456 e6bd 21e5 0ebe 7410 123e b50a 8bbd
00000020: 08d7 a83d 2848 c7bc 4453 22be 432a 36be
00000030: d453 efbd ba9a 933d 9d6a ca3d b462 da3d
00000040: 452e 283c caea 8bbd 0fee c33d 8fc9 b9bd
00000050: b393 edbd 86e3 073d 38e1 efbd 02e4 af3d
00000060: 4a6b 02be aae2 4ebe 134d 1abe 8b72 623d
00000070: 5c17 b3bd 19e9 f13d ef56 b0bb 827f c13d
00000080: 1dde 31be b196 3abe 426a 9b3d ea5e db3c
00000090: 2b2f e63d fa7b b33d 57f8 e73c c29f 1bbe
000000a0: 3deb 35be 6299 44be 98a7 5cbd 289e 153e
000000b0: 2bc9 033d 4027 ab3d 9815 0c3e 5f06 863c
000000c0: 8807 a2bd da04 963d f5f3 eb3d e506 3dbe
000000d0: e3db 9e3d a4e0 2cbd 34c4 923d 2dcc 903d
000000e0: b483 143e 595b 263d bd71 183b 7a7e 6a3c
000000f0: a195 c13c b3c1 863d eaae 1e3e 420c 12be

fc1.weight f4 [128, 147]
-0.062860176 0.012788785 0.030699873 -0.064176925 0.0988911 -0.024977572 0.040451933 0.064880036
0.08221491 0.0023695761 0.040432032 0.07760609 -0.016045548 0.045812227 -0.08778058 0.06395044
0.060453832 0.05228836 -0.07370049 0.03234691 0.0839109 -0.084325165 0.0018605643 -0.046805732
0.02105033 -0.01787421 0.022133809 -0.006600334 0.028252698 0.05630796 -0.09896007 0.020891333
0.02918507 -0.020207975 -0.0054628714 0.088128276 -0.007231095 0.05424576 0.0460198 0.03804447
0.08359955 -0.014401696 -0.101864 0.048535835 -0.019396564 -0.017044222 0.082972966 0.09806211
-0.0017981493 0.09718861 -0.026278319 -0.09462218 0.09490351 -0.0037122658 0.043918874 0.099395335
-0.038969744 -0.07449582 -0.021819497 -0.02019136 -0.066188775 0.07308028 -0.06263864 -0.0319141
0.06190068 0.063056 0.0018279601 0.06792851 -0.030760797 -0.020539846 0.1008118 0.054707948
0.07341406 0.011828438 -0.095387556 -0.04318782 -0.004586768 -0.016982285 -0.102814116 0.114087
0.035008278 0.007943218 0.08610176 0.0559116 0.0155076925 -0.011755459 -0.07572426 -0.00847575
-0.006314299 -0.02523087 0.035750065 0.082311936 0.020307474 -0.054036517 0.0032181025 0.116509005
0.025961177 0.06296197 0.044300754 -0.0032798587 0.09900273 0.04874822 -0.059083242 0.006748298
-0.04386281 -0.012273909 0.07232955 0.03849252 -0.051458675 -0.03794331 0.063739754 0.066890985
0.037233613 0.011129612 -0.09919682 0.003090126 -0.06738661 0.010608441 -0.011357133 0.06439357
-0.05299323 0.11190907 0.096188106 0.0042346083 0.044424612 -0.08571059 -0.048597272 -0.018975029
0.0060610357 0.0072182133 0.07941813 -0.0214896 -0.06729695 0.07065831 -0.0014701944 0.040083267
0.082472086 0.076887265 -0.050479617 -0.025953831 0.026826382 -0.013889056 0.05517603 0.0576006
0.0361284 0.008024802 -0.05325124 0.026851803 0.05105164 0.038903542 0.029253986 0.017517626
-0.079388656 -0.022923583 0.010713618 0.026998427 0.040453203 0.086206175 0.038576744 0.051082857
0.092764415 -0.07215476 0.0019446828 0.02666542 -0.031346563 0.05779821 0.025262723 0.063357465
-0.06331598 -0.03875374 0.046817735 -0.037333958 -0.04184282 -0.046365798 -0.033879366 0.10130899
0.06703538 -0.11549675 0.08370065 0.061485138 0.013572638 0.10545443 0.018859306 -0.098206066
0.05650934 0.003619791 -0.02150893 -0.013633504 -0.039064486 0.01427781 0.02308352 -0.009575026
0.018650185 0.042937294 0.013773565 0.011830975 0.07831681 0.08185539 -0.078150146 0.092273325
-0.035682686 0.036868405 0.0039352505 0.04852534 -0.00052001025 0.04025055 -0.02511979 -0.10383057
0.018882452 -0.06642561 -0.07190712 0.068371914 0.016040612 -0.09701483 0.09231005 -0.033346016
-0.09962243 0.10651939 0.009962617 0.078502126 0.0038260897 -0.08019837 -0.121408895 0.12351595
0.017292505 0.018330878 -0.024816014 0.08936998 -0.12461453 0.09349101 0.07348226 -0.059496738
0.06806412 0.0024672206 -0.021515567 0.0867029 0.06359055 -0.056303587 0.13248828 -0.046396457
0.030858971 0.098583825 0.071721666 0.037331436 0.07487128 0.026079264 -0.08700725 -0.00096449885
0.102106884 -0.033153184 0.08882675 0.09291887 -0.0932728 0.0032774075 -0.04321349 0.04287311
00000000: d6bc 80bd 0d88 513c 4d7e fb3c 316f 83bd
00000010: 6b87 ca3d c49d ccbc edb0 253d d3df 843d
00000020: 4a60 a83d e44a 1b3b 0f9c 253d f1ef 9e3d
00000030: f471 83bc 9aa5 3b3d 4ec6 b3bd 73f8 823d
00000040: 709e 773d 522c 563d 48f0 96bd 327e 043d
00000050: 7ad9 ab3d acb2 acbd 2ede f33a 5eb7 3fbd
00000060: be71 ac3c ef6c 92bc f651 b53c 9d47 d8bb
00000070: 3472 e73c 2da3 663d 94ab cabd 4d24 ab3c
00000080: 8715 ef3c 328b a5bc e301 b3bb 997c b43d
00000090: d2f2 ecbb cd30 5e3d 427f 3c3d 85d4 1b3d
000000a0: 3e36 ab3d 17f5 6bbc 139e d0bd 83cd 463d
000000b0: 8be5 9ebc 53a0 8bbc bbed a93d cad4 c83d
000000c0: e1af ebba d20a c73d a145 d7bc 46c9 c1bd
000000d0: c55c c23d 7c49 73bb 47e4 333d c88f cb3d
000000e0: bd9e 1fbd 4491 98bd cdbe b2bc 5a68 a5bc
000000f0: fb8d 87bd 1dab 953d b048 80bd 5cb8 02bd
00000100: 918b 7d3d 8123 813d 2a98 ef3a 1a1e 8b3d
00000110: 11fe fbbc 2e43 a8bc 6b76 ce3d 7115 603d
00000120: 1c5a 963d 11cc 413c 8d5a c3bd b6e5 30bd
00000130: 994c 96bb 6f1e 8bbc 3590 d2bd 72a6 e93d
00000140: d764 0f3d 4524 023c 1f56 b03d 9003 653d
00000150: fa13 7e3c f899 40bc 5215 9bbd dfdd 0abc
00000160: 2ee8 cebb f8b0 cebc a96e 123d 2993 a83d
00000170: dc5b a63c 6555 5dbd cde6 523b 469c ee3d
00000180: 89ac d43c 35f2 803d b574 353d e6f2 56bb
00000190: f1c1 ca3d 37ac 473d 4501 72bd d420 dd3b
000001a0: 7da9 33bd 8118 49bc 8421 943d 55aa 1d3d
000001b0: 55c6 52bd 726a 1bbd fd89 823d 24fe 883d
000001c0: 4682 183d fa58 363c b427 cbbd b683 4a3b
000001d0: fe01 8abd 07cf 2d3c 4513 3abc c7e0 833d
000001e0: 6e0f 59bd 9530 e53d 45fe c43d 78c2 8a3b
000001f0: 95f6 353d 0989 afbd ef0d 47bd 8571 9bbc
00000200: a79b c63b c386 ec3b f9a5 a23d f50a b0bc
00000210: fcd2 89bd 4eb5 903d 8ab3 c0ba 5a2e 243d
00000220: 20e7 a83d 1277 9d3d b7c3 4ebd 219d d4bc
00000230: 00c3 db3c ec8e 63bc 4300 623d 9bee 6b3d
00000240: 60fb 133d 767a 033c f91d 5abd 50f8 db3c
00000250: 861b 513d 5259 1f3d 0ea6 ef3c 2081 8f3c
00000260: 8596 a2bd 3dca bbbc 2c88 2f3c ce2b dd3c
00000270: 42b2 253d dd8c b03d a602 1e3d 423c 513d
00000280: 45fb bd3d e0c5 93bd bae4 fe3a 7071 da3c
00000290: 4165 00bd d1bd 6c3d c5f3 ce3c 8fc1 813d
000002a0: cfab 81bd 3ebc 1ebd f4c3 3f3d 7eeb 18bd
000002b0: 6063 2bbd 10ea 3dbd 17c5 0abd 167b cf3d
000002c0: d849 893d 8f89 ecbd 3f6b ab3d d7d7 7b3d
000002d0: c55f 5e3c 7ef8 d73d d57e 9a3c 4320 c9bd
000002e0: 5676 673d 043a 6d3b 7f33 b0bc 0f5f 5fbc
000002f0: 1502 20bd 7aed 693c a619 bd3c 92e0 1cbc
00000300: 46c8 983c 04df 2f3d 85aa 613c b5d6 413c
00000310: 9064 a03d cca3 a73d 2f0d a0bd ccf9 bc3d
00000320: 0228 12bd 5303 173d 46f3 803b 82c2 463d
00000330: 4c51 08ba c3dd 243d 05c8 cdbc 1fa5 d4bd
00000340: 5faf 9a3c 260a 88bd 0a44 93bd 9306 8c3d
00000350: 9a67 833c b6af c6bd 0d0d bd3d d595 08bd
00000360: d806 ccbd d726 da3d 3f3a 233c b9c5 a03d
00000370: 22bf 7a3b 0b3f a4bd 3aa5 f8bd eef5 fc3d
00000380: 03a9 8d3c a32a 963c f44a cbbc 9c07 b73d
00000390: e735 ffbd 3778 bf3d de7d 963d dab2 73bd
000003a0: 3465 8b3d 18b1 213b 6a41 b0bc 4a91 b13d
000003b0: c33b 823d 979e 66bd 02ab 073e 360a 3ebd
000003c0: f4cb fc3c 51e6 c93d cfe2 923d d9e8 183d
000003d0: 1d56 993d 2ea4 d53c db30 b2bd 6cd6 7cba
000003e0: 6a1d d13d a2cb 07bd cdea b53d 404c be3d
000003f0: cf05 bfbd c6c9 563b a100 31bd b79b 2f3d

fc1.bias f4 [128]
0.08010868 0.005621555 -0.017157175 0.046750117 -0.07084264 0.02172891 0.08714696 0.0012193695
0.038405735 0.057734758 0.036524568 -0.026164955 0.06971025 0.0009511703 0.043792255 0.038056336
0.036377903 -0.054927032 -0.019127458 0.00090743304 0.0039209537 0.009509367 0.07987628 -0.11792266
-0.035732586 0.0038669424 -0.077873625 0.03869353 0.032354966 0.06667577 0.032740813 -0.0069387197
-0.008204444 -0.046410333 0.056212377 0.030055325 0.001163244 0.07825959 -0.04499704 0.05985158
-0.04914006 0.02778972 0.08262613 0.039830074 -0.045445547 -0.003580988 0.096228756 0.05321892
0.049585693 -0.021664402 0.05379697 0.033892352 0.056102026 0.083854534 0.107953124 0.07417278
-0.068417445 0.114516854 -0.026224418 0.07287272 0.003856502 -0.08482029 0.03299104 -0.076558106
-0.002811662 -0.010405452 0.0024047047 -0.024493558 0.08157688 -0.027818527 0.085654296 0.042122036
0.013829272 0.088063195 0.01393008 0.0028348854 -0.017581977 0.07194108 0.05504966 -0.009146637
0.08377189 0.04648262 0.06355675 -0.05844036 -0.04054584 -0.024616735 0.07438425 -0.09425152
0.047560975 -0.005494483 -0.0101244245 -0.01683469 -0.032472707 -0.0131329 -0.025985235 0.024344053
-0.06526221 0.050504256 0.066222176 0.08088916 0.048481334 -0.080366455 0.017818565 0.034344807
0.058055665 -0.033013817 0.08430203 -0.017088085 0.0020960686 -0.01499359 0.030728687 0.03192509
0.057036776 -0.00030725042 -0.029097313 -0.02115164 0.010632715 0.085102335 0.06445011 -0.0018739325
0.09792243 0.0944424 0.045983095 -0.0017898676 0.097235374 0.08624909 -0.07749877 0.04917744
00000000: 0510 a43d 0535 b83b 348d 8cbc 0d7d 3f3d
00000010: f215 91bd d400 b23c 1b7a b23d 40d3 9f3a
00000020: 554f 1d3d 487b 6c3d c99a 153d e357 d6bc
00000030: 3fc4 8e3d f557 793a 825f 333d f6e0 1b3d
00000040: ff00 153d 2bfb 60bd 30b1 9cbc cde0 6d3a
00000050: 587b 803b 2dcd 1b3c 2d96 a33d 7081 f1bd
00000060: 555c 12bd 876c 7d3b 357c 9fbd 1b7d 1e3d
00000070: a486 043d 4e8d 883d 3b1b 063d 335e e3bb
00000080: ef6b 06bc c318 3ebd f33e 663d 9636 f63c
00000090: fe77 983a 9046 a03d d14e 38bd ee26 753d
000000a0: 1647 49bd 44a7 e33c e337 a93d dc24 233d
000000b0: 1c25 3abd 02af 6abb 9513 c53d 15fc 593d
000000c0: 5e1a 4b3d 8b79 b1bc 365a 5c3d b5d2 0a3d
000000d0: 3dcb 653d edbb ab3d 8716 dd3d e6e7 973d
000000e0: 721e 8cbd d087 ea3d 97d4 d6bc 4b3e 953d
000000f0: 5ebd 7c3b 43b6 adbd 9d21 073d 7fca 9cbd
00000100: dc43 38bb a17b 2abc 4098 1d3b b7a6 c8bc
00000110: c711 a73d aee3 e3bc 856b af3d 2888 2c3d
00000120: 2c94 623c 7a5a b43d fe3a 643c 7cc9 393b
00000130: 1408 90bc d855 933d c17b 613d c7db 15bc
00000140: 9990 ab3d 8f64 3e3d 0b2a 823d 295f 6fbd
00000150: 6513 26bd 09a9 c9bc c556 983d f106 c1bd
00000160: 4ccf 423d 100b b4bb eae0 25bc e7e8 89bc
00000170: 1a02 05bd 602b 57bc fdde d4bc 2e6d c73c
00000180: 32a8 85bd 8ddd 4e3d 7e9f 873d 37a9 a53d
00000190: 5d94 463d 2b97 a4bd 3df8 913c 24ad 0c3d
000001a0: c7cb 6d3d 7f39 07bd 8ba6 ac3d 50fc 8bbc
000001b0: 325e 093b ada7 75bc baba fb3c e2c3 023d
000001c0: 659f 693d 7416 a1b9 7d5d eebc 3446 adbc
000001d0: d734 2e3c 224a ae3d 6bfe 833d be9e f5ba
000001e0: 8e8b c83d 046b c13d c558 3c3d fe99 eaba
000001f0: 5723 c73d 5da3 b03d adb7 9ebd 496e 493d

fc2.weight f4 [64, 128]
0.0235092 -0.013614129 -0.08109495 -0.0062380065 -0.07230323 -0.0073100734 0.009573733 0.061373033
-0.032491837 -0.09097459 0.046102326 -0.010739317 0.0036895028 0.08359127 -0.11260473 -0.038479332
0.06909383 -0.11296385 -0.09787698 0.025153821 -0.06793848 -0.11166306 -0.022249702 -0.019999083
-0.029736334 0.0075087454 -0.097095504 -0.06357661 0.067983426 0.016698048 -0.0041640443 -0.07898135
-0.009684782 -0.00853393 -0.090098836 0.056275617 0.0135098705 0.044668667 -0.003109658 -0.09939738
0.03604223 -0.061185528 -0.032985125 0.063775614 -0.06307491 -0.0052767037 0.05843493 -0.00863698
0.03241035 -0.07913589 -0.062659636 0.05660829 -0.064761065 0.0019672671 -0.0043542255 0.046358142
-0.07885324 -0.006810577 0.07991835 0.019214306 0.05600975 -0.07268845 0.023814933 -0.042474087
0.027532384 -0.05109262 0.025997048 0.08401519 -0.05661656 0.040745948 -0.038409013 0.016323427
-0.00044255482 0.018866116 0.0031574783 0.024799176 0.060059875 -0.03254611 -0.09181884 0.07630239
0.04868551 0.034773454 0.0011751739 0.036447965 0.007811577 0.032117523 0.036202848 -0.0800129
-0.035269238 0.0016896195 0.05229455 0.018867213 -0.04776539 0.033438023 -0.04485399 -0.045019004
-0.05651543 0.011380444 0.05698969 -0.08685512 0.052910704 0.048448946 -0.010202061 0.072636835
-0.045420546 -0.08897674 -0.014315285 -0.025431095 -0.09789276 0.049458366 -0.033187024 -0.044097543
0.074842505 0.009438332 -0.015495648 -0.030354263 -0.044111665 -0.0612729 -0.06859404 -0.035866242
0.07089939 0.026731886 -0.031193051 0.012895271 0.021849737 0.07082316 -0.08715783 0.007865235
-0.011147081 0.029963057 -0.031776793 0.15885119 -0.033168204 0.035909597 0.12317349 0.039026085
0.037778232 0.039259236 0.04998167 0.011137591 0.013018162 -0.11612212 0.043162864 0.024163285
-0.121986754 0.010844074 0.13433135 0.12981656 0.18829232 -0.068099186 -0.049294963 -0.02024496
0.1292319 0.06644269 0.03151778 0.06891785 -0.0863069 0.060970206 -0.08450647 0.102018826
0.12431555 -0.09514334 0.03143887 0.026249027 -0.05951235 -0.10008406 0.012363012 -0.06393706
0.13576001 -0.09033816 0.033289 -0.0606648 -0.030909976 -0.036878347 -0.037988286 0.1302067
-0.04123018 0.10058718 0.08843389 0.109438114 -0.10641992 0.09608412 -0.11987016 -0.080929615
0.03534705 -0.085503 -0.04103147 0.029916564 -0.022437897 0.02455108 -0.1010821 0.030691298
-0.08958265 -0.07435042 0.02068614 -0.07649518 0.06531328 -0.086163126 0.08183189 0.00060025865
-0.062168203 -0.07581599 -0.026784876 -0.05912132 -0.03202087 0.011481499 -0.0050163935 -0.07962763
0.05555721 -0.003515928 -0.11107808 0.04001017 0.0940653 -0.09455216 0.060753223 -0.050143175
-0.03651289 -0.010002987 -0.001629465 -0.12693568 0.05055154 0.022734271 -0.108156525 -0.138338
-0.051668774 0.12464341 0.071479276 0.07369579 0.031060759 -0.07640399 -0.030347347 0.06590257
-0.101437494 -0.12254904 0.045254227 -0.07307245 0.12568323 -0.02453412 -0.048747845 -0.06545087
-0.081736565 0.04376283 0.027029749 0.053249512 -0.023696344 -0.0487958 -0.115458526 0.03827802
0.102612756 -0.046445522 0.08443074 -0.07267626 0.12925987 -0.066288695 0.12938525 0.10705759
00000000: 5e96 c03c cc0d 5fbc 1c15 a6bd 3168 ccbb
00000010: b713 94bd 5789 efbb 26db 1c3c 4a62 7b3d
00000020: 2916 05bd e350 babd cbd5 3c3d f6f3 2fbc
00000030: 96cb 713b e631 ab3d 4f9d e6bd 819c 1dbd
00000040: 1181 8d3d 9759 e7bd ba73 c8bd 630f ce3c
00000050: 5423 8bbd 9aaf e4bd 0245 b6bc 1ed5 a3bc
00000060: 9d99 f3bc ec0b f63b 02da c6bd 7434 82bd
00000070: e53a 8b3d 58ca 883c 8972 88bb f9c0 a1bd
00000080: ebac 1ebc e6d1 0bbc bd85 b8bd 4381 663d
00000090: 8158 5d3c 7ef6 363d 67cb 4bbb db90 cbbd
000000a0: 04a1 133d ad9d 7abd 691b 07bd ca9c 823d
000000b0: 6b2d 81bd 33e8 acbb 7759 6f3d 1f82 0dbc
000000c0: b7c0 043d ff11 a2bd b253 80bd 18de 673d
000000d0: 73a1 84bd 44ed 003b e4ad 8ebb 09e2 3d3d
000000e0: cf7d a1bd 432b dfbb 3bac a33d 5267 9d3c
000000f0: 7b6a 653d afdd 94bd 8917 c33c 4ff9 2dbd
00000100: 988b e13c 7f46 51bd c3f7 d43c 2810 ac3d
00000110: c4e6 67bd 39e5 263d c552 1dbd b5b8 853c
00000120: b406 e8b9 1d8d 9a3c b2ed 4e3b a427 cb3c
00000130: 5801 763d 124f 05bd 840b bcbd 6d44 9c3d
00000140: 756a 473d 9c6e 0e3d 4b08 9a3a 764a 153d
00000150: 42f8 ff3b aa8d 033d 7049 143d cedd a3bd
00000160: 7a76 10bd 3976 dd3a cf32 563d 6a8f 9a3c
00000170: a4a5 43bd 4ff6 083d d1b8 37bd d965 38bd
00000180: b97c 67bd 0b75 3a3c 056e 693d 19e1 b1bd
00000190: e5b8 583d 6772 463d 8c26 27bc 9fc2 943d
000001a0: e50a 3abd 7039 b6bd a88a 6abc df54 d0bc
000001b0: 007c c8bd db94 4a3d 1eef 07bd a09f 34bd
000001c0: 0747 993d 3ca3 1a3c 75e1 7dbc 81a9 f8bc
000001d0: 6fae 34bd 4bf9 7abd 087b 8cbd 7be8 12bd
000001e0: b333 913d d4fc da3c 9288 ffbc b046 533c
000001f0: 38fe b23c bc0b 913d ce7f b2bd 30dd 003c
00000200: 3fa2 36bc 1675 f53c 6228 02bd e3a9 223e
00000210: 62db 07bd f115 133d 6242 fc3d d1d9 1f3d
00000220: 59bd 1a3d 4bce 203d 94b9 4c3d 717a 363c
00000230: 214a 553c 6fd1 edbd 8bcb 303d 15f2 c53c
00000240: 31d4 f9bd 58ab 313c 288e 093e a2ee 043e
00000250: b4cf 403e 9677 8bbd 84e9 49bd c2d8 a5bc
00000260: 5e55 043e 1b13 883d ca18 013d cd24 8d3d
00000270: acc1 b0bd e5bb 793d ba11 adbd 3fef d03d
00000280: 2799 fe3d 83da c2bd 0bc6 003d 3308 d73c
00000290: 39c3 73bd dff8 ccbd 3b8e 4a3c 6ff1 82bd
000002a0: ac04 0b3e 3703 b9bd 0c5a 083d a77b 78bd
000002b0: eb36 fdbc c00d 17bd 9b99 1bbd e854 053e
000002c0: fae0 28bd a700 ce3d d41c b53d 1721 e03d
000002d0: b0f2 d9bd c0c7 c43d 7d7e f5bd 6dbe a5bd
000002e0: 11c8 103d 321c afbd 9d10 28bd 9513 f53c
000002f0: aecf b7bc 591f c93c 2204 cfbd 516c fb3c
00000300: 1c77 b7bd 0845 98bd fb75 a93c 81a9 9cbd
00000310: f8c2 853d 4b76 b0bd 7a97 a73d ad5a 1d3a
00000320: 16a4 7ebd 6a45 9bbd f56b dbbc 3229 72bd
00000330: 5128 03bd e61c 3c3c 8f60 a4bb d013 a3bd
00000340: f58f 633d 7c6b 66bb e87c e3bd b4e1 233d
00000350: 4fa5 c03d 90a4 c1bd 5fd8 783d ee62 4dbd
00000360: 8a8e 15bd 92e3 23bc c693 d5ba 6dfb 01be
00000370: 220f 4f3d 393d ba3c 2b81 ddbd 7aa8 0dbe
00000380: a3a2 53bd 0b45 ff3d ba63 923d d1ed 963d
00000390: 2273 fe3c b279 9cbd 009b f8bc edf7 863d
000003a0: 76be cfbd fefa fabd 7f5c 393d 02a7 95bd
000003b0: 1bb3 003e c7fb c8bc d2ab 47bd 1b0b 86bd
000003c0: 8065 a7bd a740 333d 7e6d dd3c 291c 5a3d
000003d0: d61e c2bc 1bde 47bd 8575 ecbd 6ac9 1c3d
000003e0: a326 d23d a93d 3ebd 06ea ac3d 4ad7 94bd
000003f0: b35c 043e 5ec2 87bd 917d 043e 0241 db3d

fc2.bias f4 [64]
0.0036051304 0.07423404 -0.027775778 0.073701106 0.061125387 -0.06233729 -0.03447895 0.057332586
-0.08574796 0.042963725 -0.017939955 0.18083693 -0.08033062 0.03542154 0.11892752 -0.07481944
-0.04286226 0.051271737 -0.011168512 -0.008542103 -0.07680498 0.028199583 -0.02124162 -0.016275885
0.0934798 -0.062518924 0.123922735 0.051908337 0.051124506 -0.07657825 0.017024215 -0.08139976
0.026915694 0.027594166 0.022612754 0.07365216 0.02659037 -0.021242067 -0.0072096847 0.009282481
0.0011566073 -0.070075974 0.00710801 -0.0025490313 0.071460456 -0.010428353 0.069115326 0.02418125
-0.004939446 -0.08003772 -0.033740483 -0.002358845 -0.054797318 -0.027198307 0.095899865 -0.038534407
-0.0022749614 0.025393754 0.10147258 -0.07386466 0.07742124 0.023983851 0.057301078 -0.036075708
00000000: 0d44 6c3b 0408 983d 078a e3bc 9bf0 963d
00000010: 9d5e 7a3d 6355 7fbd cd39 0dbd 93d5 6a3d
00000020: a09c afbd bbfa 2f3d d0f6 92bc 512d 393e
00000030: 6184 a4bd 2d16 113d 4690 f33d ef3a 99bd
00000040: 5690 2fbd 5002 523d 22fc 36bc 2df4 0bbc
00000050: ee4b 9dbd d002 e73c e802 aebc 0155 85bc
00000060: 5672 bf3d ec09 80bd 34cb fd3d d69d 543d
00000070: ee67 513d 0fd5 9cbd 5e76 8b3c ebb4 a6bd
00000080: 4d7e dc3c 290d e23c 623e b93c f2d6 963d
00000090: 0cd4 d93c d803 aebc 383f ecbb 8c15 183c
000000a0: 4d99 973a fe83 8fbd 4fea e83b a60d 27bb
000000b0: dc59 923d afdb 2abc 568c 8d3d c217 c63c
000000c0: 14db a1bb d1ea a3bd 7633 0abd da96 1abb
000000d0: 2773 60bd fcce debc 2667 c43d 41d6 1dbd
000000e0: 8517 15bb 9006 d03c dbd0 cf3d 5b46 97bd
000000f0: 078f 9e3d c879 c43c 89b4 6a3d 1fc4 13bd

action_head.weight f4 [5, 64]
0.06738456 -0.008080077 -0.100183465 -0.038880873 0.073936135 -0.0077507286 -0.13765535 0.020079393
-0.044632066 -0.05319596 -0.07483939 -0.059156872 0.05854121 -0.034598846 -0.077409275 0.037138537
-0.027608057 -0.0058562057 -0.17836091 0.11657407 -0.06415104 0.005474954 -0.027199676 0.057933833
0.051735215 -0.108132094 -0.010719759 0.0697034 -0.12524377 -0.08213824 0.011232211 -0.028103387
0.048228387 -0.015294368 -0.13056906 0.07383552 0.09165621 0.008816987 0.06543641 0.06226724
0.050237857 -0.046453953 -0.11126659 0.063639455 0.0356274 -0.033909142 -0.10233635 0.014190016
0.034596115 0.008899683 0.11181022 -0.12754649 0.11659227 -0.16588914 -0.022750136 0.08086319
-0.12425197 0.04903081 -0.13348301 0.09928724 0.03603193 -0.0031538652 -0.052101526 0.0015349035
0.00334315 0.08172857 -0.026951384 -0.017952232 0.15143573 -0.010441514 0.06448582 0.077370964
-0.00043850558 0.12145854 0.020372815 0.23720172 0.05885531 0.09564712 0.05171109 -0.035756383
-0.023623504 0.13714339 0.07613681 0.048575442 0.06500505 0.19649617 0.060939807 0.06731233
-0.09108321 -0.037556987 0.19996317 0.06720851 -0.09550478 0.09302778 -0.018911587 -0.06516099
0.029628105 0.1981404 0.05511148 0.12409163 0.058081318 -0.050685957 0.14309984 0.072590016
0.08193109 0.012756437 0.004579355 -0.07900054 0.18099207 0.11002683 0.046731763 -0.0745529
0.107825115 0.021976255 -0.051070556 0.042310383 0.1274899 0.197806 0.14105086 -0.117114194
-0.07881549 -0.0053310688 0.17453884 0.097039245 0.1758535 0.029587848 0.005569272 0.022665905
-0.03202905 -0.02406531 -0.015906787 0.0051874337 0.006380463 0.040796082 -0.115445256 -0.048246652
0.084279686 0.034061972 -0.07747488 -0.030135866 0.011399031 -0.07438803 -0.08083255 -0.05381967
-0.13227451 -0.16230443 -0.2071818 -0.11376736 0.10895936 -0.17089418 0.034246404 0.061854474
-0.12296515 -0.05642415 -0.077777945 -0.096247524 -0.01707642 -0.065827124 -0.0728023 -0.09721555
-0.12623382 -0.18931964 0.012994795 -0.07651545 0.0061602094 0.115821406 0.04533587 -0.07436932
0.09027768 0.045928225 -0.05349967 -0.017082673 -0.028879654 -0.07638663 0.0043037087 -0.14931715
-0.017600829 0.07003943 0.018399097 -0.0014018392 -0.10905041 -0.0032402761 -0.13567752 -0.03132027
0.11072519 0.052373514 -0.15053634 0.063882135 -0.20247243 0.04177304 -0.06109382 0.05064652
0.012648711 0.16927208 0.15918657 0.10224113 -0.09589464 -0.030947447 0.1775359 -0.04025164
0.027539598 0.053389862 0.026052706 0.20305307 0.046720356 -0.035288617 0.066874124 -0.034867223
0.092661664 -0.02405522 0.15484077 0.084414035 -0.09307265 -0.004291868 -0.04028582 0.08831759
0.013319319 -0.04792013 0.12750696 0.11971711 0.20181541 0.030596457 0.10585645 0.107749656
0.17916025 -0.0043596397 0.045541838 0.0116567165 -0.008223445 0.01850606 0.15830807 0.16370702
-0.08908468 -0.035103872 0.0111773815 0.13714316 0.10594756 -0.041926995 0.15092564 0.15663332
-0.036123823 -0.007587522 -0.09192769 0.117854215 -0.07967771 -0.022018783 0.18758546 0.12395449
-0.035481926 0.19158228 0.11765688 0.058320668 0.1687964 0.03799426 0.16221009 -0.14950857
00000000: eb00 8a3d 4d62 04bc fd2c cdbd 8d41 1fbd
00000010: d46b 973d d3f9 fdbb 86f5 0cbe 8a7d a43c
00000020: 1dd0 36bd 02e4 59bd 6545 99bd 7a4e 72bd
00000030: e8c8 6f3d 85b7 0dbd c188 9ebd 941e 183d
00000040: 4b2a e2bc 6ae5 bfbb 3ea4 36be 63be ee3d
00000050: 9f61 83bd 3e67 b33b dbd1 debc 074c 6d3d
00000060: 4ee8 533d 5c74 ddbd eea1 2fbc a8c0 8e3d
00000070: e73f 00be 1838 a8bd 4f07 383c 1339 e6bc
00000080: 218b 453d 3b95 7abc e5b3 05be 1437 973d
00000090: 40b6 bb3d 2075 103c 8603 863d ef0b 7f3d
000000a0: 36c6 4d3d 8046 3ebd bddf e3bd 6755 823d
000000b0: 09ee 113d 50e4 0abd b895 d1bd 3e7d 683c
000000c0: a8b4 0d3d facf 113c c2fc e43d 8c9b 02be
000000d0: eec7 ee3d d8de 29be 7e5e babc 9a9b a53d
000000e0: d177 febd 88d4 483d c5af 08be 1c57 cb3d
000000f0: 3896 133d 14b1 4ebb 6968 55bd d12e c93a
00000100: c018 5b3b 4f61 a73d 26c9 dcbc 8f10 93bc
00000110: f811 1b3e e212 2bbc 2411 843d ab74 9e3d
00000120: 39e7 e5b9 41bf f83d e4e4 a63c 02e5 723e
00000130: 4412 713d a3e2 c33d 02cf 533d 4975 12bd
00000140: 1486 c1bc 516f 0c3e 9eed 9b3d 0bf7 463d
00000150: 5e21 853d 4b36 493e 059c 793d 0cdb 893d
00000160: d689 babd 5bd5 19bd 25c3 4c3e 9ea4 893d
00000170: 0398 c3bd 5985 be3d 79ec 9abc 2073 85bd
00000180: a4b6 f23c 51e5 4a3e 93bc 613d c123 fe3d
00000190: ade6 6d3d 149c 4fbd c488 123e 13aa 943d
000001a0: 7dcb a73d 6000 513c 6a0e 963b 09cb a1bd
000001b0: fc55 393e bf55 e13d ce69 3f3d 31af 98bd
000001c0: 6ad3 dc3d 8c07 b43c 5c2f 51bd a74d 2d3d
000001d0: b68c 023e a88d 4a3e a36f 103e 91d9 efbd
000001e0: 046a a1bd 3fb0 aebb 4fba 323e 83bc c63d
000001f0: f112 343e 3762 f23c 717e b63b d9ad b93c
00000200: e530 03bd 9d24 c5bc f34e 82bc 59fb a93b
00000210: 3413 d13b cb19 273d 906e ecbd 489e 45bd
00000220: d49a ac3d 9184 0b3d 26ab 9ebd 7edf f6bc
00000230: 00c3 3a3c c058 98bd 898b a5bd 0472 5cbd
00000240: f872 07be 2233 26be 7727 54be ddfe e8bd
00000250: 1626 df3d e2fe 2ebe f545 0c3d 1e5b 7d3d
00000260: 27d5 fbbd 021d 67bd 0b4a 9fbd 6c1d c5bd
00000270: d9e3 8bbc 5fd0 86bd 5f19 95bd f218 c7bd
00000280: 7043 01be 02dd 41be 1fe8 543c 22b4 9cbd
00000290: 95db c93b c633 ed3d 1bb2 393d f14e 98bd
000002a0: 81e3 b83d 3c1f 3c3d 7822 5bbd f6f0 8bbc
000002b0: 0695 ecbc 9870 9cbd 2006 8d3b 98e6 18be
000002c0: 9d2f 90bc d570 8f3d b4b9 963c ebbd b7ba
000002d0: d255 dfbd d05a 54bb 0cef 0abe af49 00bd
000002e0: e3c3 e23d 9c85 563d 3326 1abe a3d4 823d
000002f0: ef54 4fbe 351a 2b3d 833d 7abd ba72 4f3d
00000300: 8a3c 4f3c a955 2d3e ce01 233e cc63 d13d
00000310: 6964 c4bd 8085 fdbc f9cb 353e e7de 24bd
00000320: b99a e13c 54af 5a3d 7c6c d53c 25ed 4f3e
00000330: d85d 3f3d cc8a 10bd 4df5 883d efd0 0ebd
00000340: 66c5 bd3d 740f c5bc 948e 1e3e 44e1 ac3d
00000350: e09c bebd cca2 8cbb be02 25bd dadf b43d
00000360: 4639 5a3c e647 44bd 2f91 023e 3f2e f53d
00000370: b3a8 4e3e 6ca5 fa3c 44cb d83d daab dc3d
00000380: c975 373e 4fdb 8ebb 148a 3a3d d0fb 3e3c
00000390: a1bb 06bc 059a 973c 831b 223e d0a2 273e
000003a0: 0772 b6bd 14c9 0fbd 5621 373c 426f 0c3e
000003b0: 09fb d83d a4bb 2bbd 408c 1a3e 7c64 203e
000003c0: 93f6 13bd bfa0 f8bb 9644 bcbd 8d5d f13d
000003d0: 112e a3bd bc60 b4bc 6716 403e dadb fd3d
000003e0: 7f55 11bd 252e 443e 17f6 f03d a7e1 6e3d
000003f0: f7d8 2c3e df9f 1b3d 671a 263e c618 19be

action_head.bias f4 [5]
-0.16746476 0.18966454 -0.12981905 -0.044515092 0.010005285
00000000: e27b 2bbe 6c37 423e 49ef 04be 7555 36bd
00000010: 35ed 233c
