logs/ppo_checkpoint_ep300.pth (torch, 451850 bytes, 28 tensors)

fc1.weight f4 [128, 147]
0	0x3cf5ec8e	0.030020025
1	0x3d4498c5	0.047997255
2	0xbc169412	-0.009190576
3	0x3aed1642	0.0018088298
4	0xbcf986a6	-0.030459713
5	0x3dfd6831	0.123733886
6	0xbdadad5c	-0.08480331
7	0x3d2cbbe3	0.04217137
8	0xbd43b48a	-0.047779597
9	0xbc08d929	-0.008352556
10	0xbc0efc95	-0.008727212
11	0xbce1afc4	-0.027549632
12	0xbd358418	-0.044315428
13	0x3d7eff0e	0.062254958
14	0xbd27c9cc	-0.040963933
15	0xbc58d449	-0.0132342065
16	0x3db3fe8c	0.08788785
17	0x3cdd2842	0.026996735
18	0x3d049a2f	0.032373603
19	0x3db9b2c1	0.09067298
20	0x3dbcde27	0.0922206
21	0xbb4a17e6	-0.0030836998
22	0xbc9aa69d	-0.018878276
23	0x3c3aca44	0.011400763
24	0xbd113359	-0.03544936
25	0xbd41048c	-0.047123477
26	0xbd624cc2	-0.055248983
27	0x3cde7bed	0.027158702
28	0x3d3ae40e	0.045627646
29	0x3d7527d3	0.059852432
30	0xbd2c86ba	-0.042120673
31	0x3dd40be8	0.103538334
32	0xbce8746a	-0.028375823
33	0xbdb74bbd	-0.08949993
34	0x3cf9e34d	0.030503893
35	0x3db74b2c	0.08949885
36	0xbd31e8ac	-0.043434784
37	0xbc0f2a54	-0.008738119
38	0xbc885e75	-0.016646603
39	0xbd8c842a	-0.06861146
40	0x3da2ed68	0.07955438
41	0x3d381b09	0.044947658
42	0xbd90a34d	-0.07062397
43	0x3d6c0ac3	0.05762745
44	0x3d4c8393	0.049930166
45	0x3c1066af	0.008813544
46	0x3ce96f49	0.028495448
47	0x3ced7eef	0.02899119
48	0xbde39120	-0.11111665
49	0x3d3c3487	0.04594853
50	0xbabfd1d4	-0.0014634677
51	0xbd41d125	-0.047318596
52	0x3d877254	0.06613603
53	0xbb3d2b75	-0.0028865014
54	0xbddf9311	-0.109167226
55	0x3d950420	0.072761774
56	0xbd3fe0d4	-0.046845272
57	0xbd112281	-0.035433296
58	0x3caf6cd3	0.021414196
59	0x3cbd4bbd	0.023107404
60	0xbda6ab64	-0.08138159
61	0x3db49fb2	0.08819522
62	0xbd001d29	-0.03127781
63	0xbdd4f948	-0.10399109
64	0x3e00a5ee	0.12563297
65	0x3ca6aaf1	0.020345183
66	0xbd9ac38e	-0.0755683
67	0x3b01d636	0.0019811518
68	0x3dbecf33	0.09316864
69	0xbe18bf4a	-0.14916721
70	0x3d89c21b	0.06726476
71	0xbcccf14a	-0.0250174
72	0x3dda1b85	0.1064978
73	0x3d02a6dc	0.03189741
74	0x3c98bc83	0.018644577
75	0xbddf27c6	-0.10896258
76	0x3b3e188b	0.0029006328
77	0xbcb24611	-0.021761926
78	0xbdedd989	-0.11613757
79	0x3d78b01b	0.060714822
80	0x3dba568d	0.090985395
81	0xbc84651f	-0.0161615
82	0xbccfdccc	-0.025373839
83	0xbc53379e	-0.012891678
84	0xbdba9223	-0.091099046
85	0x3d749ffc	0.059722885
86	0xbce33633	-0.027735805
87	0x3d01287a	0.031532742
88	0x3d000a02	0.031259544
89	0xbd6c7e70	-0.057737768
90	0xbdadeff9	-0.08493037
91	0x3d6bf4f7	0.057606664
92	0xbd62dfbe	-0.05538916
93	0xbe16fce2	-0.14744905
94	0x3d8c428a	0.06848629
95	0xbb72ec38	-0.0037067067
96	0xbd691dc3	-0.05691315
97	0x3d621459	0.055195186
98	0x3d279e0d	0.040922213
99	0xbd99f600	-0.07517624
100	0x3db44c5a	0.088036254
101	0x3dc4b8e2	0.09605576
102	0xbdb0cc11	-0.086326726
103	0x3d4762ae	0.048678093
104	0xba71dd6e	-0.0009226416
105	0x3d876ddf	0.06612753
106	0x3d65e65c	0.05612789
107	0x3c1f2d68	0.009715416
108	0xbd07a93b	-0.033120375
109	0x3dafecaf	0.08590066
110	0xbc82dc3c	-0.015974157
111	0xbe0107cb	-0.12600629
112	0x3e053e86	0.13012132
113	0xbcb4ec49	-0.022085326
114	0xbd52deca	-0.051482
115	0x3d38b2bc	0.04509233
116	0xbcf9f769	-0.030513482
117	0x3bf80598	0.007569026
118	0x3d62f692	0.05541093
119	0x3c9c9bba	0.019117225
120	0xbdaf67c8	-0.085647166
121	0x3ddd312b	0.10800394
122	0x3caf4e54	0.021399654
123	0xbdc1001d	-0.0942385
124	0xbd81226a	-0.06305392
125	0x3b81d232	0.003961825
126	0x3d16ebaa	0.03684584
127	0xbb0c6f01	-0.0021428468
128	0xbd011b3d	-0.031520117
129	0xbd7bae9f	-0.06144583
130	0x3d708cc8	0.05872801
131	0x3dc826db	0.09773036
132	0xbda0b11b	-0.0784628
133	0x3dff0bda	0.124534324
134	0xbbe13277	-0.006872471
135	0x3c3ba6e3	0.011453363
136	0xbbdaf865	-0.006682443
137	0x3dca51f8	0.098789155
138	0xbd98f9be	-0.074695095
139	0x3da7ffc5	0.08203081
140	0x3d399d5f	0.045316096
141	0x388f19d1	6.82358e-05
142	0x3d0d3423	0.03447355
143	0x3d687d9f	0.056760427
144	0xbb7d3a9e	-0.0038639675
145	0x3db7ca14	0.0897409
146	0x3b6c6fa7	0.0036077292
147	0xbdc27044	-0.09494069
148	0xbd7065b1	-0.05869073
149	0xbbe98242	-0.0071261236
150	0xbdc1fd2c	-0.09472117
151	0xbd9bf715	-0.076154865
152	0x3deb71b4	0.114962965
153	0xbc58b2b1	-0.013226197
154	0x3d967868	0.073471844
155	0x3d96562f	0.07340657
156	0xbdcd5457	-0.10025852
157	0x3ddd2d4f	0.107996576
158	0xbc2b7fb2	-0.010467457
159	0xbd5b6430	-0.053562343
160	0x3dabd5aa	0.083903626
161	0x3c99884f	0.018741755
162	0x3d122f3e	0.035689585
163	0xb98723cb	-0.00025775874
164	0x3d9562e5	0.07294253
165	0xbd31ee12	-0.043439932
166	0x3d973711	0.0738355
167	0x3d549b30	0.05190581
168	0x3d29aa93	0.041422438
169	0x3c011689	0.007878908
170	0xb9b1b5a0	-0.00033895392
171	0xbc514bb7	-0.0127743995
172	0x3c0a914b	0.008457492
173	0xbd25cc1b	-0.040477853
174	0xbc5d80f0	-0.013519511
175	0xbcda39f7	-0.026638968
176	0xba8b9192	-0.0010648242
177	0xbd955407	-0.072914176
178	0x3ddc0f81	0.10745145
179	0x3c0abc75	0.008467783
180	0xbd40d21f	-0.047075387
181	0xbb99ea0b	-0.0046970895
182	0xbc888d16	-0.016668838
183	0xbc6e3c87	-0.014540798
184	0x3dc74a58	0.09730977
185	0x3cdd3a57	0.027005358
186	0xbc7b5df7	-0.015342227
187	0x3db114b5	0.08646528
188	0xbc356274	-0.011070836
189	0x3c99255d	0.018694574
190	0x3cc67713	0.0242267
191	0xbca09d5c	-0.019606285
192	0xbd9dc304	-0.07703212
193	0x3db4afee	0.088226184
194	0xbd31b400	-0.043384552
195	0x3b789c7c	0.0037935069
196	0x3dc61b13	0.09673133
197	0xbd0b7c62	-0.034054168
198	0xbc39c4bd	-0.01133841
199	0x3d41a5ed	0.04727738
200	0xbcdb9f43	-0.02680934
201	0xbd589b61	-0.052882556
202	0x3d5e0f5a	0.05421386
203	0x3db3fa0d	0.08787928
204	0xbc77b8e1	-0.015119762
205	0x3df762e5	0.120794095
206	0x3d868a8a	0.06569393
207	0x3c8a86e8	0.016910031
208	0x3de8cc32	0.11367072
209	0x3d11ff5c	0.03564392
210	0xbd651ac6	-0.055933736
211	0x3d924713	0.071424626
212	0xbd04d233	-0.032427024
213	0xbd5c6440	-0.053806543
214	0xbc58836e	-0.013214929
215	0x3d850d0b	0.064966284
216	0xbd97a037	-0.074036054
217	0x3ceed5af	0.029154627
218	0x3c1ea3c7	0.009682602
219	0xbd1137bd	-0.035453547
220	0xbd929d13	-0.07158866
221	0xbd1e3e9e	-0.038633935
222	0xbb775ab5	-0.0037743275
223	0x3d81f63b	0.06345793
224	0x3da7ffef	0.08203112
225	0xbce22d24	-0.027609415
226	0xbd480c78	-0.048840016
227	0x3cefa981	0.02925563
228	0xbd884b4e	-0.06654988
229	0xbd68d877	-0.056847062
230	0xbda67dde	-0.08129476
231	0xbd6abb4d	-0.05730753
232	0x3bdfc64c	0.0068290588
233	0x3da6d7e6	0.08146648
234	0xbce32680	-0.02772832
235	0x3dbd8d3f	0.09255456
236	0xbd155d4b	-0.036465924
237	0xbcb10c05	-0.021612177
238	0x3d958c33	0.073021315
239	0xbd4efc26	-0.050533436
240	0xbcc1023e	-0.02356064
241	0x3df0bd43	0.11754849
242	0x3cdb5d31	0.026777836
243	0xbd93a131	-0.07208479
244	0xbc595574	-0.0132650025
245	0x3d9a3c9e	0.07531093
246	0xbc56b4d9	-0.013104641
247	0x3d3d64de	0.046238773
248	0x3dd18dfe	0.10232161
249	0xbcb5dfc2	-0.022201423
250	0x3dd0ec8f	0.1020137
251	0x3d71c56a	0.05902616
252	0xbd2679d1	-0.040643517
253	0x3cab1851	0.020885618
254	0x3b9afd0c	0.0047298726
255	0x3d2d862c	0.042364284

fc1.bias f4 [128]
0	0xbbbbdd9c	-0.005733205
1	0x3dbdcb83	0.092673324
2	0x3c8823e2	0.016618673
3	0xbcb369d3	-0.021901047
4	0xbd53b7d9	-0.051689003
5	0x3d8bd32a	0.06827386
6	0xbde481f5	-0.111576
7	0xbcdf7fb6	-0.027282577
8	0x3d63c095	0.055603582
9	0x3d6ca714	0.057776526
10	0x3cf7631d	0.030198628
11	0xbdca9264	-0.09891203
12	0x3d5eddff	0.05441093
13	0x3d3c491e	0.045968167
14	0xbd184427	-0.03717437
15	0x3cf8b057	0.030357523
16	0xbd7bdd9b	-0.061490636
17	0xbb1864bf	-0.0023253409
18	0xbd6c732f	-0.057727035
19	0x3c35ab03	0.011088136
20	0xbd62de16	-0.05538758
21	0xbc78fb82	-0.015196683
22	0x3d5c4adc	0.05378233
23	0x3cad0a8a	0.02112319
24	0xbdc5733f	-0.09641122
25	0xbd89e50f	-0.067331426
26	0x3da14e8a	0.07876308
27	0x3d7d14ae	0.0617873
28	0x3d6f0c51	0.058361355
29	0x3d71ff69	0.05908147
30	0xbc16e89e	-0.009210734
31	0x3c0cce5e	0.008594124
32	0x3d82e6a3	0.06391647
33	0x3db8552d	0.09000621
34	0x3cc6f8ea	0.024288613
35	0xbd943d35	-0.07238237
36	0x3dc0b951	0.09410346
37	0x3d5d97d5	0.054099876
38	0xbd523148	-0.05131653
39	0x3d695ef2	0.056975313
40	0x3dd15352	0.1022097
41	0x3c2683d9	0.010163271
42	0x3ba9724b	0.0051710955
43	0x3cdc58d2	0.026897822
44	0x3dade411	0.08490766
45	0xbd05c320	-0.03265679
46	0x3d951e4e	0.07281171
47	0x3d0c6d3a	0.034283854
48	0x3cf62bb7	0.030050142
49	0xbc4a938e	-0.012364281
50	0x3ca12e0b	0.019675275
51	0x3c8cbc4a	0.017179627
52	0x3de13bb9	0.10997719
53	0x3d433aab	0.047663372
54	0xbc35f54d	-0.011105848
55	0xbd16cafc	-0.036814675
56	0xbd39c6c8	-0.04535559
57	0xbd9d64e8	-0.07685262
58	0x3db9baef	0.09068858
59	0x3cd4d623	0.025981015
60	0xbcee70e5	-0.029106567
61	0x3ce9658d	0.028490806
62	0x3c3a76dc	0.011380877
63	0x3db37fdb	0.08764621
64	0xbbe2b310	-0.0069183186
65	0xbc93cdd4	-0.018042482
66	0xbd9a6367	-0.07538491
67	0x3cf200b2	0.029541347
68	0xbc083387	-0.008313066
69	0xbd060c7d	-0.032726754
70	0x3dc43485	0.0958033
71	0x3da4522f	0.08023488
72	0x3d0d16d7	0.03444561
73	0x3d948502	0.07251932
74	0x3d1b8915	0.03797253
75	0x3ce72eb9	0.028220521
76	0x3d35aae8	0.044352442
77	0x3db25289	0.087071486
78	0xbc0d6c8f	-0.008631839
79	0x3d5f5c6a	0.054531492
80	0x3dc7595e	0.09733842
81	0xbb4e0ddf	-0.0031441373
82	0xbc72d766	-0.014821863
83	0xbd4086a9	-0.047003422
84	0x3dc4617b	0.095889054
85	0xbd3717bf	-0.04470038
86	0x3d63007d	0.055420388
87	0x3d9a2eaf	0.075284354
88	0xbd27dc97	-0.040981855
89	0x3d22ff83	0.039794456
90	0xbd3ef227	-0.046617653
91	0xbda6969f	-0.081341974
92	0xbd43b440	-0.04777932
93	0xbc2ad8d0	-0.010427669
94	0xbd3f7036	-0.046737872
95	0xbd1415ed	-0.036153723
96	0x3d262b91	0.040568892
97	0x3da44b55	0.08022181
98	0x3d8384a8	0.064217865
99	0xbbdbddeb	-0.0067098043
100	0xbc0df0a7	-0.008663333
101	0x3dad0697	0.084485225
102	0x3d5bf3d7	0.05369934
103	0x3d84ee21	0.06490732
104	0x3d71c14a	0.059022225
105	0x3d9ef46b	0.07761463
106	0x3d38a84f	0.045082387
107	0xbce1f68f	-0.027583389
108	0x3d796983	0.06089164
109	0x3dafb1b5	0.08578817
110	0xbadfba0d	-0.0017068997
111	0xbda2b438	-0.0794453
112	0xbd422902	-0.04740239
113	0x3d12b45b	0.03581653
114	0x3cca85b3	0.024721956
115	0x3b3312b2	0.0027324376
116	0x3d47d48b	0.04878668
117	0x3d85d611	0.065349706
118	0x3dcecfe6	0.10098247
119	0xbd1d4f31	-0.0384056
120	0xbcb00738	-0.021487817
121	0xbd2b8dd2	-0.041883297
122	0x3d913c89	0.07091624
123	0x3c94e210	0.018174201
124	0xbd56e0b9	-0.052460406
125	0x3da5f127	0.08102637
126	0x3d3e65db	0.046483856
127	0x3d68bc8a	0.05682043

fc2.weight f4 [64, 128]
0	0x3c0f9636	0.00876384
1	0xbd9eea65	-0.07759551
2	0xbd4c0975	-0.049813706
3	0x3d743d1b	0.059628587
4	0xbd98a3bf	-0.07453107
5	0x3d5c2ded	0.053754736
6	0x3d1d2871	0.038368646
7	0x3d9d9b7a	0.076956704
8	0xbdb90bb3	-0.090354346
9	0xbd58bf92	-0.05291707
10	0xbd650f9c	-0.05592309
11	0x3c87c2c1	0.016572358
12	0xbd95bfc1	-0.07311965
13	0x3d45b121	0.048264626
14	0xbcab69ce	-0.020924475
15	0x3d900cb1	0.07033671
16	0x3cca51b3	0.02469716
17	0xbc99c1ca	-0.018769164
18	0xbd18dc57	-0.037319507
19	0x3d2ed26b	0.04268114
20	0xbd10c9f9	-0.035348866
21	0x3d128146	0.035767816
22	0x3d218006	0.039428733
23	0xbd2f2e48	-0.042768747
24	0xbdaefad7	-0.08543938
25	0x3d9798fb	0.074022256
26	0xbd80319a	-0.06259461
27	0xbd895a15	-0.06706635
28	0xbd917401	-0.07102204
29	0x3cd161b4	0.025559284
30	0xbcfa4566	-0.03055067
31	0xbcc47aea	-0.023984391
32	0x3c8e2c28	0.01735504
33	0xbda1d3c5	-0.0790172
34	0xbdab2218	-0.08356112
35	0xbd6e2d00	-0.058148384
36	0x3cc943dd	0.024568493
37	0x3a0f1dbf	0.00054594496
38	0xbd03dc72	-0.032192655
39	0xbcf43a4c	-0.029812954
40	0x3cd226ae	0.02565321
41	0xbc4a1bd1	-0.0123357335
42	0x3d22b663	0.03972472
43	0xbc16cc6c	-0.009204011
44	0x3d8dc2da	0.069219306
45	0x3d5a8898	0.053352922
46	0xbd49ea42	-0.04929567
47	0xbc9380f8	-0.018005833
48	0xbd9a771d	-0.0754225
49	0xbda172a9	-0.07883198
50	0xbdc0d287	-0.09415155
51	0x3d6c40ee	0.05767911
52	0x3c8aa386	0.016923677
53	0x3cca175f	0.024669347
54	0xbdc6dac7	-0.09709697
55	0x3da0fb69	0.07860453
56	0xbcf7fd0b	-0.030272027
57	0xbd2c284c	-0.042030618
58	0xbd1fa905	-0.03897955
59	0x3ce94e75	0.028479794
60	0x3c9ffc9d	0.019529635
61	0x3c7e24d6	0.015511712
62	0xbce129f0	-0.027485818
63	0x3aa164e2	0.0012313391
64	0x3d4bb657	0.04973444
65	0xbd362503	-0.04446889
66	0x3d8c4a90	0.06850159
67	0x3d1e989a	0.03871975
68	0x3cab68da	0.02092402
69	0xbd41896a	-0.04725019
70	0xbda000b6	-0.078126356
71	0xbc4a04c5	-0.012330239
72	0xbce12835	-0.027484993
73	0xbc674cc3	-0.0141174225
74	0xbdc09b9c	-0.0940468
75	0x3c84a43a	0.01619159
76	0x3d2addd1	0.041715447
77	0x3766b55c	1.3751294e-05
78	0x3d62975d	0.055320133
79	0xbc946c98	-0.018118188
80	0xbd9653a4	-0.07340172
81	0x3c21842e	0.009858174
82	0xbc0d2084	-0.008613709
83	0x3c0b8da8	0.00851766
84	0xbd3d3993	-0.046197485
85	0x3d1012bc	0.035174116
86	0xbdc0426c	-0.09387669
87	0x3d6802b3	0.0566432
88	0xbd65368e	-0.05596023
89	0xbd0ac803	-0.033882152
90	0xbd5bcdfd	-0.053663243
91	0xbc9e0609	-0.019289987
92	0x3c2be312	0.0104911495
93	0x3c65d274	0.014027227
94	0x3d99617b	0.07489296
95	0x3d2f52bb	0.042803507
96	0xbc61f1e1	-0.013790579
97	0xbca6a74a	-0.020343442
98	0xbdc3b69d	-0.09556315
99	0xbda4837d	-0.08032892
100	0x3d945221	0.07242227
101	0xbd9696a7	-0.073529534
102	0xbca01e32	-0.019545648
103	0xbcd19c30	-0.025587171
104	0x3d3d4ef2	0.046217866
105	0xbcdd2d30	-0.026999086
106	0x3d9022c1	0.07037879
107	0xbd5b68b0	-0.053566635
108	0x3d6ed089	0.058304343
109	0xbc603a73	-0.01368581
110	0x3d153162	0.03642405
111	0xbd610a44	-0.05494143
112	0x3ba5e94f	0.005063213
113	0xbcf7892b	-0.030216774
114	0x3cc379e0	0.023861825
115	0xbd07713a	-0.033066966
116	0xbd5d1daa	-0.053983368
117	0x3d28fd56	0.041257225
118	0xbd243a61	-0.040094737
119	0xbd810ff4	-0.06301871
120	0x3acf4a11	0.001581492
121	0x3d715025	0.058914322
122	0xbbad7e55	-0.005294601
123	0xbd5f5bad	-0.05453079
124	0xbced4367	-0.028962804
125	0xbd049031	-0.032364074
126	0x3d84ec85	0.06490425
127	0xbdc55845	-0.09635977
128	0x3ba82138	0.005130913
129	0xbd3af531	-0.04564399
130	0x3d749013	0.059707712
131	0xbd85bd3b	-0.065302335
132	0xbcad62cd	-0.021165276
133	0x39aa7ef0	0.00032519503
134	0xbd4a56d0	-0.049399197
135	0x3db6a22f	0.08917653
136	0xbd14f6ca	-0.03636817
137	0xba9f8c1b	-0.0012172492
138	0x3d7f6540	0.06235242
139	0xbdada431	-0.08478583
140	0xbd8e20f4	-0.06939879
141	0x3d75f3bf	0.060046908
142	0xbd2db866	-0.042412184
143	0x3ce6d996	0.028179925
144	0x3d78b566	0.06071987
145	0xbd957fcd	-0.07299767
146	0xbd3436b1	-0.04399747
147	0xbc302a6f	-0.010752304
148	0xbd30fdf9	-0.043210957
149	0x3cd2c5ed	0.025729144
150	0xbd4f16d5	-0.050558884
151	0xbcc42343	-0.023942595
152	0x3da127f0	0.078689456
153	0x3da7d3cb	0.08194693
154	0x3d349ca5	0.0440947
155	0x3c6d27f6	0.014474859
156	0xbdbfc1eb	-0.09363159
157	0xbceb349c	-0.02871161
158	0x3d808f4a	0.0627733
159	0x3d28fcd0	0.041256726
160	0x3c6787ac	0.014131468
161	0xbd0b367b	-0.033987503
162	0x3dcd4c4a	0.100243166
163	0x3d04c793	0.03241689
164	0xbd98a2a7	-0.074528985
165	0x3d87dbbd	0.066337086
166	0x3bd72061	0.006565139
167	0xbd5be711	-0.05368716
168	0xbdaed23e	-0.08536194
169	0xbda60543	-0.08106472
170	0xbdc12bbe	-0.09432171
171	0xbbd9dc81	-0.0066486006
172	0xbda174be	-0.07883595
173	0xbd2880c2	-0.041138418
174	0x3d50355d	0.05083214
175	0xbd5bf337	-0.053698745
176	0xbd131a98	-0.035914034
177	0x3d733c7f	0.059383865
178	0x3d4283bd	0.047488917
179	0x3d2a2ea8	0.0415484
180	0x3d96e303	0.07367518
181	0x3d899aa1	0.06718946
182	0xbdbdd4c6	-0.09269099
183	0xbd9b20bf	-0.07574605
184	0x3c85210a	0.016251106
185	0x3d8b418d	0.06799612
186	0x3d934d92	0.0719253
187	0xbdb273d9	-0.087135024
188	0x3c93a660	0.01802367
189	0xbcad777f	-0.021175144
190	0x3d563c10	0.052303374
191	0x3d1658b1	0.036705676
192	0x3ca9349b	0.020654967
193	0xbd392435	-0.045200545
194	0x3d324aff	0.043528553
195	0x3cb9b600	0.022669792
196	0xbbc182a5	-0.0059054666
197	0x3d4cd960	0.050011992
198	0x3dac9a84	0.08427909
199	0xbda22d85	-0.079188384
200	0xbcc2f0ac	-0.023796402
201	0x3da538f4	0.080675036
202	0xbd0ebbd3	-0.034847092
203	0x3d3a66d9	0.04550824
204	0xbd58927a	-0.052874066
205	0xbbf5b40c	-0.00749827
206	0x3c847b48	0.016172066
207	0x3d3f9f21	0.046782617
208	0xbd9aebbd	-0.07564495
209	0xbd544cd0	-0.051831067
210	0xbda6e637	-0.08149379
211	0xbd00228f	-0.031282958
212	0x3cc3c3f4	0.023897149
213	0xbd9fc611	-0.0780145
214	0xbcfe90dd	-0.031074936
215	0x3d480e5e	0.048841827
216	0xbdccbec9	-0.09997327
217	0x3c6fd7a3	0.014638814
218	0xbd93dcc5	-0.07219843
219	0x3d260e27	0.04054084
220	0x3d4960da	0.04916463
221	0x3d4dfef0	0.050291955
222	0x3d4d4822	0.05011762
223	0x3daae2a8	0.083440125
224	0x3d64ba5a	0.05584178
225	0xbd849c09	-0.06475074
226	0x3d43d11e	0.04780685
227	0xbdb92b2f	-0.0904144
228	0x3ce6beda	0.028167177
229	0x3dabc53b	0.08387228
230	0xbc33a63c	-0.010964926
231	0xbd839ea3	-0.06426742
232	0xbdbf30ba	-0.09335466
233	0x3d4fb292	0.050707407
234	0x3aae7889	0.0013311069
235	0xbd8d290a	-0.06892593
236	0xbd660549	-0.056157384
237	0xbd99593b	-0.074877225
238	0xbd0b4e0f	-0.03400999
239	0x3c7c9af0	0.015417799
240	0xbb1cf8c3	-0.0023951984
241	0xbd2a4e45	-0.04157855
242	0xbda2f2f9	-0.079564996
243	0xbd10acd7	-0.035321083
244	0xbd986546	-0.074411914
245	0xbd62e711	-0.055396143
246	0x3ce58278	0.028016314
247	0x3d6eab22	0.058268674
248	0xbb08a23f	-0.002084866
249	0x3db3ce8b	0.08779629
250	0x3d3e73e0	0.046497226
251	0xbdad3bc5	-0.08458666
252	0x3c2a8039	0.010406547
253	0x3da376ba	0.0798163
254	0x3cb63ea0	0.022246659
255	0x3d829ace	0.06377183

fc2.bias f4 [64]
0	0xbd24f682	-0.04027415
1	0xbdb2605b	-0.087097846
2	0xbda8ef35	-0.0824875
3	0x3dcb3e71	0.09924019
4	0xbd949329	-0.07254631
5	0x3bb61ed8	0.005557876
6	0xbce38bf2	-0.027776692
7	0xbdc44b1f	-0.09584641
8	0x3c012b45	0.007883851
9	0xbdaa24a8	-0.08307773
10	0x3d9ccfa5	0.076567926
11	0xbb2c232c	-0.0026266081
12	0x3d0843b2	0.033267684
13	0x3ac70114	0.0015182816
14	0x3d444d53	0.047925305
15	0xbd9a2ab0	-0.07527673
16	0xbdaaae0a	-0.083339766
17	0xbd89a53f	-0.06720971
18	0xbcc941f3	-0.02456758
19	0xbd6c2fbf	-0.05766272
20	0x3c6d970d	0.014501345
21	0xbcc078d8	-0.023495123
22	0xbbc62eec	-0.006048074
23	0xbcdd5381	-0.027017357
24	0x3d04bc2c	0.032406017
25	0xbc00d58a	-0.007863412
26	0x3d5dae85	0.054121513
27	0x3d899ca3	0.06719329
28	0x3b9ad9ce	0.0047256714
29	0x3d1f6daa	0.038922943
30	0xbd7d929a	-0.06190739
31	0x3dbec0e0	0.09314132
32	0x3d9cc530	0.07654798
33	0x3db17f79	0.086668916
34	0x3c0c4360	0.008560985
35	0xbdb557ec	-0.088546604
36	0xbd8d6449	-0.069038935
37	0x3da87b7f	0.0822668
38	0x3d67f34d	0.056628514
39	0xbb5ab0f8	-0.0033369642
40	0x3d387718	0.04503545
41	0x3c581190	0.013187781
42	0xbd58e255	-0.052950222
43	0xbc94e075	-0.018173436
44	0x3c1c1191	0.0095256725
45	0x3c11ecde	0.008906571
46	0x3db838bc	0.08995196
47	0xbd482fb1	-0.048873607
48	0xbd9605e0	-0.07325339
49	0x3d5fe76a	0.054664053
50	0x3d9c4da2	0.07631995
51	0x3d6f747d	0.0584607
52	0xbbabbc0f	-0.005240924
53	0xbd436540	-0.04770398
54	0x3d0e56d8	0.03475079
55	0x3bf79c89	0.0075565022
56	0x3ba928aa	0.0051623182
57	0xbd9ca1b8	-0.07648033
58	0xbc933c2e	-0.017973032
59	0xbd209aea	-0.039210238
60	0x3c862c4f	0.01637855
61	0x3ac795e0	0.0015227161
62	0x3c9c2d1b	0.019064477
63	0x3d553964	0.052056685

action_head.weight f4 [5, 64]
0	0x3d03f263	0.03221358
1	0xbdaf2416	-0.08551805
2	0xbd255734	-0.040366367
3	0xbd85feb0	-0.065427184
4	0x3d1db507	0.03850272
5	0xbcf99b78	-0.030469641
6	0xbcf70fe1	-0.030158939
7	0xbd9eefc9	-0.07760579
8	0xbb9faef8	-0.004873153
9	0x3cb00346	0.021485936
10	0x3da873cd	0.08225212
11	0x3d1881bb	0.037233096
12	0xbd915168	-0.07095605
13	0x3db0d877	0.086350374
14	0x3c07a78a	0.0082796905
15	0x3d9c3ea8	0.07629138
16	0x3dbdfe4c	0.09277019
17	0xbc9aefe9	-0.018913226
18	0x3dac2978	0.08406347
19	0xbdc9876e	-0.09840284
20	0xbdab6516	-0.0836889
21	0xbde875a5	-0.11350564
22	0x3c84bff7	0.016204817
23	0x3ba600de	0.0050660213
24	0xbd7ff45c	-0.0624889
25	0xbc55c588	-0.013047583
26	0xbd9cbe67	-0.07653504
27	0xbe0b194f	-0.13583873
28	0x3d0d72b4	0.034533218
29	0x3dc19a87	0.09453302
30	0x3d8baef7	0.06820481
31	0x3d86e4e8	0.06586629
32	0x3dc0ea93	0.094197415
33	0xbd9bfe5d	-0.07616875
34	0x3d3a1d58	0.04543814
35	0x3d73673b	0.05942462
36	0x3dae6272	0.08514871
37	0x3d378b09	0.04481033
38	0x3c1bbd88	0.009505637
39	0xbdd607b6	-0.104506895
40	0xbd36d21e	-0.044633977
41	0xbb726fb6	-0.0036992854
42	0x3be8fc00	0.007110119
43	0xbd83f826	-0.06443815
44	0xbe044b94	-0.12919456
45	0xbddb69b8	-0.107135236
46	0x3d532be3	0.051555526
47	0x3da9008a	0.08252056
48	0xbde9331a	-0.113867
49	0x3dd755fd	0.10514448
50	0xbc818343	-0.01580966
51	0x3c478142	0.012176814
52	0xbda63105	-0.081148185
53	0x3d1ec293	0.03875978
54	0x3d9d6f49	0.076872416
55	0x3c7d95ca	0.015477607
56	0x3cb53914	0.022121944
57	0xbd3fdd4c	-0.046841905
58	0xbd731ae5	-0.05935182
59	0x3dfd95cc	0.12382087
60	0x3c3f0498	0.01165881
61	0x3dda0a9e	0.10646556
62	0xbde2a6e0	-0.11066985
63	0x3d15444e	0.036442094
64	0xbc671c00	-0.014105797
65	0xbd093f3d	-0.033507574
66	0xbd8c52d1	-0.068517335
67	0x3d81ae47	0.06332069
68	0xbdcef675	-0.10105602
69	0x3bde7fd8	0.0067901425
70	0x3d9854f5	0.07438079
71	0x3b9ea4da	0.004841429
72	0xbcaa0c5c	-0.020757847
73	0xbd859cbd	-0.06524036
74	0x3d4f2c09	0.050579105
75	0xbcbfe4f3	-0.023424601
76	0x3c700e30	0.01465182
77	0xbdd850fb	-0.10562321
78	0xbc8061e6	-0.015671682
79	0xbdef7d80	-0.11693859
80	0x3dc65c7b	0.09685608
81	0x3d33863a	0.04382918
82	0x3dd315e2	0.10306908
83	0x3de887cc	0.11354026
84	0xbc934c9c	-0.017980866
85	0x3d6fdc79	0.05855987
86	0x3dd7473c	0.10511634
87	0xbda342ed	-0.079717495
88	0xbdc3e7ec	-0.0956572
89	0xbdc902c6	-0.09814982
90	0x3de55d8c	0.11199483
91	0x3c815e3c	0.015792005
92	0xbd460454	-0.04834397
93	0xbd8166ca	-0.063184336
94	0xbcdc93cb	-0.026925942
95	0xbcb99145	-0.022652278
96	0xbc887f38	-0.016662225
97	0xbd370f31	-0.044692222
98	0xbdfbb4c6	-0.12290339
99	0xbde6a447	-0.11261802
100	0x3cb8df09	0.022567289
101	0xbcdbe186	-0.026840936
102	0x3d956bd1	0.07295955
103	0xbda0fb13	-0.078603886
104	0x3d39cc33	0.045360755
105	0x3c943f3c	0.018096559
106	0x3d62a934	0.055337146
107	0xbd9a8238	-0.075443685
108	0x3e0e3bf3	0.13890056
109	0x3d674131	0.056458656
110	0xbd75785c	-0.059929237
111	0x3dd50665	0.1040161
112	0xbd8f38ec	-0.06993279
113	0x3d1bef83	0.038070213
114	0xbdbecfc9	-0.093169756
115	0xbcf8f5bb	-0.03039061
116	0x3cb2b786	0.021816026
117	0x3c7bac73	0.015360939
118	0xbd14c1d7	-0.036317673
119	0x3bf8626b	0.0075800917
120	0xbd4fab1f	-0.050700303
121	0xbdd0cd92	-0.101954594
122	0x3ceeceeb	0.0291514
123	0xbd0176f2	-0.031607576
124	0x3dcb0dfa	0.09914775
125	0xbd5e030e	-0.054202132
126	0x3d9567da	0.07295199
127	0x3e07cefb	0.1326255
128	0xbd2f2c63	-0.04276694
129	0x3d1b595c	0.037927017
130	0xbcad8413	-0.021181142
131	0xbdf4eea6	-0.11959581
132	0xbbe27ed2	-0.006912091
133	0xbdb5dacb	-0.08879622
134	0x3d806edf	0.06271147
135	0xbdfa5750	-0.12223685
136	0x3d320c8b	0.043468993
137	0x3dd317fe	0.103073105
138	0xbd8be582	-0.068308845
139	0xbd1b264b	-0.037878316
140	0x3d3875e8	0.04503432
141	0x3d7c9c49	0.061672483
142	0xbe1583ad	-0.14601012
143	0x3ddae65c	0.10688469
144	0x3d81bc6b	0.06334766
145	0xbd4904db	-0.049076896
146	0xbdde7705	-0.10862545
147	0xbd78c723	-0.060736787
148	0xbe343673	-0.17598896
149	0xbdb04cc7	-0.08608394
150	0xbd4c6764	-0.04990329
151	0xbd60c152	-0.054871865
152	0x3d3c0d8b	0.045911353
153	0xbdab05bb	-0.083507024
154	0xbe500022	-0.2031255
155	0x3ce9837c	0.02850508
156	0x3d40a06a	0.047027983
157	0x3d61a039	0.05508444
158	0xb9cce56e	-0.0003908085
159	0xbb4121ab	-0.002946953
160	0x3d18653b	0.037205916
161	0x3d1315cf	0.03590947
162	0xbda04a46	-0.078266665
163	0x3d7f1237	0.06227323
164	0x3cde45f6	0.02713297
165	0x3d499812	0.04921729
166	0xbd333302	-0.043749817
167	0x3cb93bae	0.022611465
168	0xbd9d6f32	-0.076872244
169	0x3c779083	0.015110138
170	0xbdc14791	-0.09437478
171	0x3bdae93a	0.006680635
172	0xbd60a062	-0.054840453
173	0xbdee7bb2	-0.11644687
174	0xbc28a351	-0.010292844
175	0x3d7a0613	0.06104095
176	0xbc4eefc0	-0.012630403
177	0xbe27efee	-0.1640012
178	0xbd4fe5fe	-0.050756447
179	0xbca29649	-0.019847052
180	0xbda55294	-0.08072391
181	0xbdf0fd96	-0.11767118
182	0xbd75141a	-0.059833623
183	0xbdf3d146	-0.1190515
184	0xbc1069d7	-0.008814297
185	0xbce6d59c	-0.028178029
186	0xbd639db4	-0.05557032
187	0x3d3badf6	0.0458202
188	0xbdc68939	-0.09694142
189	0xbab5f708	-0.0013882825
190	0xbcca1e63	-0.024672693
191	0xbbf94654	-0.0076072607
192	0xbd893f65	-0.06701545
193	0x3d253243	0.040331136
194	0x3d7f3229	0.062303696
195	0x3d6e1038	0.058120936
196	0xbda95be9	-0.082694836
197	0x3d699178	0.057023495
198	0xbd860fa8	-0.06545955
199	0x3c1c08e2	0.009523602
200	0x3ceedbaf	0.029157488
201	0xbc3f5656	-0.011678299
202	0x3e0f453f	0.13991259
203	0x3c6f452c	0.014603894
204	0x3e18fe21	0.14940692
205	0x3ddfbce8	0.10924703
206	0x3d5ed07a	0.054398037
207	0x3db261a0	0.08710027
208	0x3da55d1b	0.08074399
209	0x3d00c658	0.031439155
210	0x3e123b80	0.1428051
211	0x3d3354c1	0.043782
212	0x3c5725cc	0.01313157
213	0x3d7fe5fb	0.062475186
214	0x3d73a8d2	0.05948717
215	0x3d9435b8	0.072368085
216	0x3db0e4a2	0.08637358
217	0x3d1a1ae8	0.037623316
218	0xbd7b2ea9	-0.061323795
219	0x3d336dc4	0.043805853
220	0x3d9e6c3a	0.07735486
221	0xbd673cc8	-0.05645445
222	0xbdd39b4a	-0.103323534
223	0xbd69eb8c	-0.0571094
224	0x3c1af480	0.009457707
225	0xbd011936	-0.031518184
226	0x3c24f1a0	0.0100673735
227	0x3dfc69aa	0.12324841
228	0xbd753e8a	-0.059874095
229	0xbd989291	-0.0744983
230	0x3d8c26ce	0.06843339
231	0x3e12b062	0.14325097
232	0xbd91b23b	-0.07114073
233	0xbd2d9c6f	-0.042385515
234	0xbd659ddd	-0.056058753
235	0x3d67b8fb	0.056572895
236	0x3e1db2ea	0.15400282
237	0x3dc3cfb6	0.09561102
238	0x3dc6bf0f	0.0970441
239	0xbd69f280	-0.05711603
240	0xbd9772d2	-0.07394947
241	0x3c091f65	0.008369301
242	0x3e1456d2	0.14486244
243	0x3e22ab4b	0.15885656
244	0x3da16d9e	0.07882236
245	0xbde15264	-0.11002043
246	0x3ca13a49	0.019681113
247	0x3ddeb2aa	0.10873921
248	0xbcef066f	-0.029177872
249	0xbdd4abbc	-0.10384318
250	0xbdcfe130	-0.10150373
251	0xbda036bc	-0.0782294
252	0x3cbc8633	0.02301321
253	0xbd84b8e1	-0.06480575
254	0xbd85e437	-0.06537669
255	0x3cd7aebb	0.026328435

action_head.bias f4 [5]
0	0x3c0a49bb	0.00844043
1	0xbcd44015	-0.025909463
2	0xbe206de3	-0.15666918
3	0xbd16f3ba	-0.03685353
4	0x3d810ee8	0.06301671

value_head.weight f4 [1, 64]
0	0x3b3f32f8	0.0029174667
1	0xbd2f672a	-0.042822994
2	0xbd2dff9d	-0.0424801
3	0x3e033d0b	0.12816255
4	0xbde65644	-0.112469226
5	0xbe0adae0	-0.13560057
6	0x3e169dba	0.14708605
7	0xbd8b0ab5	-0.067891516
8	0x3daf69e3	0.08565118
9	0xbcc77ff0	-0.024352998
10	0xbe1e00fe	-0.15430066
11	0xbe31b381	-0.17353632
12	0xbde66163	-0.11249044
13	0x3d9c1596	0.07621305
14	0x3dcfe697	0.101514034
15	0x3dda62b4	0.106633574
16	0x3c1ab9a7	0.009443677
17	0xbd8beaca	-0.06831892
18	0x3dd079d6	0.10179488
19	0xbdb9c98f	-0.090716474
20	0xbde7cfcc	-0.11318931
21	0x3d0cfde5	0.03442182
22	0xbde8c795	-0.11366192
23	0x3db085d2	0.08619274
24	0xbdfc3c1a	-0.12316151
25	0xbe4a3a2c	-0.19748753
26	0xbe16d0fb	-0.14728157
27	0x3d70c5bc	0.058782324
28	0xbda3371c	-0.07969496
29	0x3df7a1b9	0.12091393
30	0x3c945f0e	0.018111732
31	0x3dc6ab2f	0.097006194
32	0xbe2d4060	-0.16919088
33	0xbe35554a	-0.17708316
34	0x3d9b6a42	0.075886264
35	0x3cdb5eea	0.026778657
36	0x3df1418f	0.117800824
37	0x3dbbfdb6	0.09179251
38	0x3d06ad6c	0.03288023
39	0xbe14ead8	-0.14542711
40	0xbe303b7f	-0.17210196
41	0xbe3fe6b5	-0.18740351
42	0xbd4fde12	-0.050748892
43	0x3e1a2c5d	0.15055986
44	0x3d1990fe	0.03749179
45	0x3db4c5a4	0.088267595
46	0x3e0f5751	0.13998152
47	0x3c86065f	0.01636046
48	0xbda20788	-0.07911593
49	0x3d9d1a4f	0.076710336
50	0x3df1a3c3	0.11798813
51	0xbe384def	-0.1799848
52	0x3da6a4c5	0.08136896
53	0xbd2ce0a4	-0.04220642
54	0x3d98e323	0.07465198
55	0x3d9a22aa	0.07526143
56	0x3e173602	0.14766696
57	0x3d29fc42	0.041500337
58	0xb9234481	-0.00015570411
59	0x3c6ab04c	0.014324259
60	0x3ced4781	0.02896476
61	0x3d8eb2b6	0.0696768
62	0x3e2122ac	0.15735883
63	0xbe0cf989	-0.13767065

fc1.weight f4 [128, 147]
0	0xbd756134	-0.059907153
1	0x3cc1ee7f	0.023673294
2	0x3c61c897	0.0137807345
3	0xbd81d2ab	-0.0633901
4	0x3df09155	0.1174647
5	0xbc007066	-0.007839298
6	0x3d09451f	0.033513185
7	0x3db0e618	0.08637637
8	0x3d96a93b	0.07356497
9	0xbc297d10	-0.010344759
10	0x3d443f32	0.04791183
11	0x3d9e0c36	0.07717173
12	0xbcbbc074	-0.022918917
13	0x3d8762ca	0.066106394
14	0xbd96b595	-0.07358853
15	0x3d75eb51	0.06003887
16	0x3d2df50c	0.042470023
17	0x3d80aac6	0.062825724
18	0xbda06aaf	-0.07832848
19	0x3d014d42	0.03156782
20	0x3d9299cb	0.0715824
21	0xbd6cdff6	-0.057830773
22	0x3c6ecd94	0.014575381
23	0xbd0029f1	-0.03129
24	0x3c2eee44	0.010676924
25	0x3a5597b7	0.00081479124
26	0x3ce67251	0.028130682
27	0xbcc7f668	-0.024409488
28	0x3d32f993	0.043695044
29	0x3d005ca2	0.03133834
30	0xbda0c44c	-0.07849941
31	0x3cfaee86	0.030631315
32	0x3d2c4b09	0.042063747
33	0xbd1d4c07	-0.038402583
34	0xbbc8c2fd	-0.00612676
35	0x3dabf78c	0.08396825
36	0x3986c478	0.00025704852
37	0x3d8be6b5	0.06831113
38	0x3d7c4c5f	0.06159627
39	0x3d0fd0d9	0.035111282
40	0x3db602d8	0.08887261
41	0xbbd235ff	-0.0064151282
42	0xbde3be8d	-0.11120329
43	0x3d8bdc3a	0.06829114
44	0xbc91ddff	-0.017806051
45	0xbc571451	-0.013127402
46	0x3dbaa24a	0.091129854
47	0x3dd14c02	0.102195755
48	0xbc8d7512	-0.017267738
49	0x3db539e9	0.08848936
50	0xbc8d022e	-0.017212953
51	0xbdc71f84	-0.09722808
52	0x3de2bd2a	0.110712364
53	0xbc3701c3	-0.011169854
54	0x3d249d62	0.040189154
55	0x3dc262bd	0.09491489
56	0xbcfa0ae4	-0.030522771
57	0xbda7ada2	-0.08187415
58	0xbcc28fe7	-0.023750259
59	0xbafb3e37	-0.0019168322
60	0xbd66cace	-0.056345753
61	0x3d9b5972	0.0758542
62	0xbd5f212e	-0.054475002
63	0xbcee42ac	-0.029084526
64	0x3daf76d9	0.0856759
65	0x3d3f9672	0.046774335
66	0x3b9db380	0.004812658
67	0x3d820d23	0.06350162
68	0xbd357b96	-0.044307314
69	0xbc9966f4	-0.01872585
70	0x3dd2a927	0.102861695
71	0x3d712698	0.058874696
72	0x3d8a9d33	0.067682646
73	0x3a5b2f76	0.0008361259
74	0xbdc356ae	-0.09538017
75	0xbd02d0c8	-0.03193739
76	0xbc9e5f14	-0.019332446
77	0xbcee72a0	-0.029107392
78	0xbdb8b996	-0.09019773
79	0x3de1891b	0.11012479
80	0x3d1e1306	0.03859236
81	0x3d03ba8c	0.032160327
82	0x3d984496	0.07434957
83	0x3d6dc343	0.058047544
84	0x3c8780d7	0.016540928
85	0xbcb5b745	-0.022182116
86	0xbd6bed49	-0.05759934
87	0xbb97a5f8	-0.0046279393
88	0xbc78a191	-0.015175239
89	0xbcb30327	-0.02185209
90	0x3d0d86c3	0.034552347
91	0x3d98d73d	0.074629284
92	0x3c10f10d	0.0088465335
93	0xbd4228e5	-0.04740228
94	0x3b7853f4	0.0037891837
95	0x3de00d83	0.10940077
96	0xbbfbb350	-0.007681288
97	0x3d553ddb	0.052060943
98	0x3d5657aa	0.052329697
99	0xbbad3adc	-0.0052865576
100	0x3db5eeaf	0.08883416
101	0x3d548b91	0.051890913
102	0xbd81b75b	-0.063338004
103	0xbc296349	-0.010338613
104	0xbd38c4bd	-0.0451095
105	0xbb92f764	-0.0044850577
106	0x3da7a1df	0.08185171
107	0x3d3017d6	0.04299148
108	0xbd66aa85	-0.056314964
109	0xbd19d65d	-0.03755795
110	0x3d69815b	0.05700813
111	0x3d6a51cb	0.05720691
112	0x3cb47497	0.02202825
113	0x3cea9a9c	0.028638177
114	0xbdc4c23b	-0.09607359
115	0xbc3a04b4	-0.01135366
116	0xbd8171c1	-0.06320525
117	0x3ca9d6f9	0.02073239
118	0xbcf09901	-0.029369833
119	0x3d50d6a4	0.050985947
120	0xbd4e70dc	-0.0504006
121	0x3daea3ff	0.085273735
122	0x3dbdaff2	0.092620745
123	0x3bde5dc5	0.0067860805
124	0x3ca664b9	0.0203117
125	0xbd9c5459	-0.076332755
126	0xbd49a450	-0.049228966
127	0xbc6be727	-0.014398373
128	0x3bbd79c9	0.00578234
129	0x3caf8d25	0.021429608
130	0x3d9dc28b	0.07703122
131	0xbcc5d7fe	-0.024150845
132	0xbdbac442	-0.091194645
133	0x3d511154	0.051041916
134	0xbbe24462	-0.0069051245
135	0x3ce1afbd	0.027549619
136	0x3d9d16bb	0.07670351
137	0x3dafd0db	0.08584758
138	0xbd38efb3	-0.04515047
139	0xbd0b121d	-0.03395282
140	0x3cc0ffb7	0.023559434
141	0xbc236517	-0.009972832
142	0x3d154c56	0.036449753
143	0x3d586e85	0.052839775
144	0x3d423b76	0.047419988
145	0xbb7f2e53	-0.0038937523
146	0xbd58de52	-0.052946396
147	0x3d085ab9	0.033289645
148	0x3d87fbfe	0.066398606
149	0x3c9c60ec	0.019089185
150	0x3ce9e9df	0.028553901
151	0x3d094faa	0.03352324
152	0xbd7e80ab	-0.062134426
153	0xbd0a6034	-0.033783153
154	0x3d02094a	0.03174714
155	0x3c11d99b	0.008901979
156	0x3cf9bedd	0.030486519
157	0x3dc15fe3	0.09442117
158	0x3d26e5f5	0.040746648
159	0x3d2a1ba4	0.041530266
160	0x3de27605	0.11057667
161	0xbd775928	-0.06038776
162	0xbb98154d	-0.004641211
163	0x3c0d537c	0.008625861
164	0xbc8d437c	-0.017244093
165	0x3d5a129d	0.053240407
166	0x3c8fe79a	0.01756649
167	0x3d47f4d2	0.048817463
168	0xbd189dbf	-0.037259813
169	0xbcccb137	-0.024986846
170	0x3d6bc352	0.05755932
171	0xbd5d4aed	-0.054026533
172	0xbcc89eb1	-0.024489732
173	0xbd30a130	-0.04312247
174	0xbd695689	-0.056967292
175	0x3dea45e8	0.11439115
176	0x3d4238f6	0.047417603
177	0xbdc6e4d0	-0.09711611
178	0x3dc71e5a	0.09722586
179	0x3d9a4b38	0.07533878
180	0xbb652805	-0.003496648
181	0x3dd286f0	0.102796435
182	0x3c855889	0.016277568
183	0xbdbe04b1	-0.092782386
184	0x3d817629	0.063213654
185	0x3cad3ce0	0.021147192
186	0xbcd61a59	-0.02613561
187	0xbc6259ed	-0.013815385
188	0xbd03db54	-0.03219159
189	0x3c817b66	0.015805911
190	0x3d35c871	0.04438061
191	0xbc581d06	-0.0131905135
192	0x3ca3bed5	0.019988457
193	0x3d51117d	0.05104207
194	0x3ca2ea0c	0.019886993
195	0x3b9191dd	0.004442437
196	0x3d8ee878	0.06977934
197	0x3db8936e	0.09012495
198	0xbdad036a	-0.08447917
199	0x3dd30a35	0.10304681
200	0xbd2c4609	-0.04205898
201	0x3d1380c3	0.03601147
202	0xbb935631	-0.004496359
203	0x3d7a7637	0.061147895
204	0x3a97575d	0.0011546422
205	0x3d233711	0.039847437
206	0xbc1ea6fc	-0.009683367
207	0xbdba57b2	-0.09098758
208	0x3c987659	0.01861112
209	0xbd6cca0e	-0.057809882
210	0xbd86f40b	-0.06589516
211	0x3daf2966	0.08552818
212	0x3bb95028	0.0056553073
213	0xbdb76a94	-0.08955875
214	0x3da966fd	0.082715966
215	0xbd4dcbfb	-0.05024336
216	0xbdc497eb	-0.095992886
217	0x3de36e1f	0.11104988
218	0x3c60169d	0.013677266
219	0x3d9aab09	0.075521536
220	0xbc4ebe16	-0.012618562
221	0xbda43f0b	-0.08019837
222	0xbe00b7b9	-0.12570085
223	0x3dd9763a	0.10618253
224	0x3b9b2268	0.004734326
225	0x3cb9dfec	0.022689782
226	0xbcf28e8b	-0.029608985
227	0x3dc05008	0.09390265
228	0xbdc520de	-0.096254095
229	0x3da1459c	0.07874605
230	0x3d9e0fdb	0.07717868
231	0xbd3e657d	-0.046483506
232	0x3d6864fa	0.056736924
233	0x3c92ffef	0.017944304
234	0xbc350362	-0.01104817
235	0x3d9f0a07	0.077655844
236	0x3d8165f9	0.06318278
237	0xbd7ac24f	-0.061220463
238	0x3dffa2ad	0.124822
239	0xbd6dd3f0	-0.058063447
240	0x3d062d5b	0.032758098
241	0x3dcbd912	0.09953512
242	0x3d91465e	0.070934996
243	0x3b633955	0.0034671624
244	0x3d84031a	0.06445904
245	0x3d04ee4c	0.03245382
246	0xbdb22110	-0.086977124
247	0xbc4a0028	-0.012329139
248	0x3dd03c09	0.10167701
249	0xbd248d07	-0.040173557
250	0x3d8914a2	0.066933885
251	0x3dbdbfa5	0.09265069
252	0xbdb20a06	-0.08693318
253	0x3b885462	0.00416045
254	0xbd13cdd1	-0.036084954
255	0x3d38d75e	0.045127265

fc1.bias f4 [128]
0	0x3d98531c	0.07437727
1	0x3b2d138b	0.0026409354
2	0xbcb3e73a	-0.021960843
3	0x3d49d35e	0.04927384
4	0xbd8e0f13	-0.06936469
5	0x3cd02c06	0.025411617
6	0x3dacb4b8	0.08432907
7	0x3b843e79	0.0040357676
8	0x3d1bd4aa	0.03804461
9	0x3d6fbc29	0.058529053
10	0x3d1a6c88	0.03770116
11	0xbca028e1	-0.019550743
12	0x3d88ce87	0.06680017
13	0xbb9f0e77	-0.0048540193
14	0x3d2f3cc6	0.042782567
15	0x3d1c8d8e	0.038220935
16	0x3d18f01a	0.037338354
17	0xbd65baaf	-0.05608624
18	0xbc8c3840	-0.017116666
19	0x3ab37ca1	0.0013693759
20	0x3c181685	0.009282713
21	0xbbc65b01	-0.006053329
22	0x3d9c3454	0.07627168
23	0xbddc6bf6	-0.107627794
24	0xbcd91985	-0.026501426
25	0x3b8228f6	0.003972168
26	0xbdb007f9	-0.08595271
27	0x3d03e96f	0.03220504
28	0x3ccd0ff5	0.025032023
29	0x3d916689	0.07099635
30	0x3cf6e62a	0.030139048
31	0xbb901bb9	-0.004397836
32	0xbace66cb	-0.0015747187
33	0xbd4b93c1	-0.049701456
34	0x3d5b96c0	0.053610563
35	0x3ce58c03	0.028020864
36	0x3bb1e5af	0.0054289917
37	0x3d95d570	0.073161006
38	0xbd39deec	-0.04537861
39	0x3d7491a0	0.05970919
40	0xbd2c72bc	-0.042101607
41	0x3cf84463	0.030306047
42	0x3d9c5794	0.07633892
43	0x3d2c1f55	0.042022068
44	0xbd32fdb5	-0.043698985
45	0xbb5d0999	-0.0033727644
46	0x3db5450c	0.0885106
47	0x3d639380	0.05556059
48	0x3d329ed0	0.043608487
49	0xbc89ae21	-0.016806664
50	0x3d583432	0.052784152
51	0x3cec4d31	0.028845401
52	0x3d4bc926	0.049752377
53	0x3da204e5	0.0791109
54	0x3ddf3a5c	0.10899803
55	0x3d91087f	0.070816986
56	0xbd82c51a	-0.063852504
57	0x3de42cd0	0.1114136
58	0xbcaee253	-0.021348154
59	0x3d8cc2ec	0.06873116
60	0xbccdbdeb	-0.025114974
61	0xbda9cd3f	-0.08291101
62	0x3cbf4d83	0.02335239
63	0xbd969b84	-0.07353881
64	0x3a919196	0.001110601
65	0xbc6b083a	-0.014345223
66	0xbb5d75bd	-0.0033792101
67	0xbd174d59	-0.036939
68	0x3dae50e2	0.08511521
69	0xbd02c7a1	-0.031928662
70	0x3dad58ec	0.08464226
71	0x3d24008c	0.040039584
72	0x3c909a3d	0.017651672
73	0x3dac7197	0.08420103
74	0x3c618759	0.01376518
75	0x3a67f4ed	0.00088484475
76	0xbc61fe4a	-0.013793537
77	0x3d9631d7	0.07333725
78	0x3d6f0e64	0.058363333
79	0xbc09a042	-0.008400025
80	0x3da26934	0.07930222
81	0x3d2a4898	0.041573137
82	0x3d701135	0.05861016
83	0xbd5e3633	-0.054250907
84	0xbd08c402	-0.033390053
85	0xbcdee731	-0.02720985
86	0x3d99353d	0.074808575
87	0xbdaaf031	-0.08346594
88	0x3d3661d3	0.044526886
89	0xbb0d6125	-0.0021572795
90	0xbc16b7c7	-0.009199089
91	0xbca2ef48	-0.019889489
92	0xbcc4a153	-0.024002707
93	0xbc7cb8a8	-0.015424885
94	0xbccd1b6d	-0.025037492
95	0x3cdabe88	0.02670218
96	0xbd9da790	-0.07697976
97	0x3d50936e	0.05092185
98	0x3d8b6afd	0.06807516
99	0x3daaec80	0.0834589
100	0x3d4668fe	0.048439972
101	0xbda53f12	-0.0806867
102	0x3ca8a069	0.020584302
103	0x3cfc1a48	0.03077425
104	0x3d2431e8	0.040086657
105	0xbd0fa52e	-0.035069637
106	0x3daf3998	0.08555907
107	0xbd0d8918	-0.03455457
108	0x3bcbd057	0.0062199044
109	0xbc7002cb	-0.014649103
110	0x3d035615	0.032064516
111	0x3caa036c	0.020753585
112	0x3d6f13a7	0.05836835
113	0x3b07249d	0.0020621188
114	0xbce7666b	-0.028247079
115	0xbca849b2	-0.020542953
116	0x3cbe52c6	0.023232829
117	0x3da4f9c2	0.0805545
118	0x3d7927e5	0.060829062
119	0x3add1968	0.0016868534
120	0x3dc7a97d	0.09749124
121	0x3db656fb	0.08903309
122	0x3d36e71f	0.044654008
123	0x3a175323	0.0005772581
124	0x3dc9b0d4	0.098481804
125	0x3dae4f5f	0.085112326
126	0xbd84b6b3	-0.064801596
127	0x3d291727	0.041281845

fc2.weight f4 [64, 128]
0	0x3cd3145a	0.02576654
1	0xbc56d848	-0.013113089
2	0xbd9be5aa	-0.07612164
3	0xbc1a020f	-0.009399905
4	0xbd889ab2	-0.06670131
5	0xbc24aad4	-0.010050494
6	0x3c1a9f5a	0.009437406
7	0x3d85f1b8	0.06540245
8	0xbcdc1f37	-0.026870353
9	0xbdb753cf	-0.08951532
10	0x3d3ee9a4	0.046609536
11	0xbaf5052f	-0.0018693561
12	0x3b97344f	0.00461439
13	0x3dafa607	0.08576589
14	0xbddd527e	-0.1080675
15	0xbd1d1cc9	-0.03835753
16	0x3d9572cb	0.07297286
17	0xbdd03a9a	-0.10167427
18	0xbdc1c7e0	-0.09461951
19	0x3ccebb4c	0.025235794
20	0xbd96750a	-0.07346542
21	0xbdbf258d	-0.09333334
22	0xbc9d2de2	-0.019186918
23	0xbc956d44	-0.018240578
24	0xbd0248fa	-0.031807877
25	0x3c4301fb	0.011902328
26	0xbdc5b014	-0.09652725
27	0xbd8a14f8	-0.06742281
28	0x3d81b52c	0.06333384
29	0x3c925887	0.017864479
30	0xba0960af	-0.0005240542
31	0xbda6d83e	-0.08146714
32	0xbc8e55bb	-0.017374864
33	0xbc2e9a47	-0.0106569
34	0xbdb1222a	-0.086490944
35	0x3d8303ce	0.0639721
36	0x3c861f98	0.016372487
37	0x3d46782a	0.04845444
38	0xba941736	-0.0011298421
39	0xbdc1b80c	-0.09458932
40	0x3d2093f6	0.039203607
41	0xbd68603f	-0.056732412
42	0xbcf8d85f	-0.030376611
43	0x3d784a65	0.060617823
44	0xbd725e92	-0.05917222
45	0xbba768c9	-0.005108927
46	0x3d5cb7ed	0.053886343
47	0xbbf1e8ed	-0.0073825032
48	0x3d0cd9b9	0.034387324
49	0xbda86ad6	-0.08223502
50	0xbd719642	-0.058981188
51	0x3d74de1d	0.059782136
52	0xbd6801f1	-0.056642476
53	0x3ae9f45b	0.0017849313
54	0xbac7e05c	-0.001524936
55	0x3d4a8b3a	0.049449183
56	0xbda1ee1e	-0.079067454
57	0xba0ead83	-0.00054427254
58	0x3d74cc61	0.059765223
59	0x3c9cbd09	0.019133108
60	0x3d2ff507	0.042958286
61	0xbd823e28	-0.063595116
62	0x3cc18d45	0.023626933
63	0xbd2973c1	-0.041370157
64	0x3cf8303f	0.030296443
65	0xbd522c15	-0.05131157
66	0x3cd16872	0.025562499
67	0x3da5eaf3	0.08101454
68	0xbd68fc23	-0.05688108
69	0x3d1babaa	0.03800551
70	0xbd1f11c5	-0.038835306
71	0x3ca28540	0.01983893
72	0x3b0d54f7	0.0021565536
73	0x3cb5d710	0.022197276
74	0x3ba302c5	0.0049746954
75	0x3d073df6	0.033018075
76	0x3d84ebba	0.06490274
77	0xbd07108d	-0.03297477
78	0xbdb6cfd8	-0.08926362
79	0x3d8e3a82	0.06944753
80	0x3d59f86e	0.053215437
81	0x3d0f319d	0.034959424
82	0x3b96ca0d	0.004601723
83	0x3d129d5e	0.03579461
84	0x3bc33a27	0.00595786
85	0x3d0d1860	0.034447074
86	0x3d1fdf91	0.03903157
87	0xbda2f6f8	-0.07957262
88	0xbd0b36b4	-0.033987716
89	0x3bb97343	0.005659492
90	0x3d61ce58	0.055128425
91	0x3cd80705	0.026370535
92	0xbd48dfac	-0.049041435
93	0x3d0cecb6	0.034405433
94	0xbd22b7e5	-0.039726157
95	0xbd1f36b6	-0.038870536
96	0xbd517bfe	-0.05114364
97	0x3c5e3537	0.013562492
98	0x3d6b9f9f	0.057525273
99	0xbdae7e11	-0.08520139
100	0x3d60c2ba	0.054873206
101	0x3d62c9e5	0.055368323
102	0xbc53b00e	-0.012920393
103	0x3d9e128e	0.07718383
104	0xbd48c5ca	-0.04901675
105	0xbdb039f6	-0.08604805
106	0xbc5bc3b7	-0.013413361
107	0xbcaf0297	-0.02136354
108	0xbdca683c	-0.098831624
109	0x3d5f9cd7	0.054592934
110	0xbca9adf4	-0.02071283
111	0xbd193ad4	-0.03740962
112	0x3d9c7ac5	0.07640604
113	0x3c1018ba	0.008794958
114	0xbc3ca2c6	-0.011513418
115	0xbd016c7a	-0.031597592
116	0xbd323e37	-0.043516364
117	0xbd6c1e94	-0.05764635
118	0xbd83a415	-0.064277805
119	0xbd0c917c	-0.034318432
120	0x3d93d414	0.07218185
121	0x3ce689b0	0.028141826
122	0xbcfc5dd2	-0.030806456
123	0x3c6bb7e5	0.014387106
124	0x3cb384cd	0.02191391
125	0x3d8ead33	0.06966629
126	0xbdaa159c	-0.08304903
127	0x3c512c9c	0.012766983
128	0xbc16e275	-0.009209265
129	0x3cfec5c2	0.031100158
130	0xbd061606	-0.032735847
131	0x3e1ddb34	0.1541565
132	0xbccd1db2	-0.025038574
133	0x3d0f17b6	0.034934722
134	0x3df80ce6	0.12111835
135	0x3d39828c	0.045290515
136	0x3d3504ba	0.04419396
137	0x3d32f02b	0.043686073
138	0x3d6e2f17	0.058150377
139	0x3c8c85e7	0.017153693
140	0x3c42f66d	0.011899573
141	0xbdae9e9a	-0.085263446
142	0x3d41c99b	0.047311407
143	0x3cb95930	0.022625536
144	0xbe0092a7	-0.12555943
145	0x398f4888	0.00027329125
146	0x3e0b5d23	0.13609748
147	0x3e025013	0.12725858
148	0x3e298c55	0.16557439
149	0xbd557703	-0.05211545
150	0xbd471764	-0.04860629
151	0xbc9d782d	-0.019222343
152	0x3e052569	0.13002552
153	0x3d898244	0.06714299
154	0x3d3c7c6e	0.046017103
155	0x3d8f66b2	0.070020095
156	0xbd9f15ca	-0.07767828
157	0x3d5f1b51	0.05446941
158	0xbda978c9	-0.08274991
159	0x3dcb6aef	0.09932505
160	0x3e040239	0.12891473
161	0xbda0e769	-0.07856638
162	0x3ce5825c	0.028016262
163	0x3ccde238	0.025132284
164	0xbd7739f2	-0.060357995
165	0xbdb62c02	-0.088951126
166	0x3cc576e7	0.024104549
167	0xbd69c031	-0.057068054
168	0x3e081ee0	0.13293028
169	0xbdb70d09	-0.08938033
170	0x3d1a0228	0.037599713
171	0xbd6f26b2	-0.058386512
172	0xbcb097d2	-0.021556769
173	0xbcbb9c66	-0.022901725
174	0xbd230fa6	-0.039809845
175	0x3e07034f	0.13184856
176	0xbc8a3834	-0.016872503
177	0x3dc35a1b	0.09538671
178	0x3db7a5db	0.08967181
179	0x3ddb7b10	0.10716832
180	0xbdbe9d56	-0.09307353
181	0x3dc16bf6	0.0944442
182	0xbdedfc43	-0.11620381
183	0xbdb49520	-0.08817506
184	0x3d4029d1	0.04691488
185	0xbdad2b9a	-0.08455582
186	0xbcaf4291	-0.021394046
187	0x3ce253cb	0.027627846
188	0x3caf182a	0.021373827
189	0x3d0b29ed	0.03397553
190	0xbdadbe04	-0.08483508
191	0x3c8ead1b	0.017416527
192	0xbdbd965b	-0.09257194
193	0xbd82bceb	-0.063836895
194	0x3d19e294	0.037569597
195	0xbd87c3d6	-0.066291496
196	0x3d7b70b2	0.06138677
197	0xbd88736b	-0.06662639
198	0x3da26ba3	0.07930686
199	0x3aad27df	0.0013210735
200	0xbd86598f	-0.06560051
201	0xbd90bcda	-0.070672706
202	0xbc7b8c22	-0.0153532345
203	0xbd703457	-0.058643665
204	0xbcca6630	-0.02470693
205	0x3c21d9e1	0.009878607
206	0xbadb1dfb	-0.0016717309
207	0xbd9041fc	-0.070438355
208	0x3d66a25f	0.056307193
209	0xbb399cb7	-0.002832217
210	0xbdc0feec	-0.094236225
211	0x3d64ebf1	0.055889074
212	0x3db6b876	0.08921902
213	0xbdc20fe1	-0.09475685
214	0x3d64fd0f	0.055905398
215	0xbd64286d	-0.055702616
216	0xbcd7fab6	-0.026364665
217	0xbbe3c837	-0.0069513577
218	0x3c1cd144	0.009571377
219	0xbdde279e	-0.108474
220	0x3d413900	0.0471735
221	0x3c640a25	0.013918434
222	0xbdd5b282	-0.10434438
223	0xbe078237	-0.13233267
224	0xbce5e440	-0.02806294
225	0x3dfc1e55	0.12310473
226	0x3d90b91f	0.07066559
227	0x3d8c85e6	0.068614766
228	0x3d11384a	0.035454072
229	0xbd996c14	-0.074913174
230	0xbcc022c4	-0.023454078
231	0x3d8590ba	0.06521745
232	0xbda75239	-0.081699796
233	0xbde8a267	-0.11359101
234	0x3d29aaaf	0.041422542
235	0xbd3ebfae	-0.04656952
236	0x3dfe8f4f	0.12429678
237	0xbcc98506	-0.024599563
238	0xbd102209	-0.03518871
239	0xbd934126	-0.071901605
240	0xbd935798	-0.071944416
241	0x3d202ca6	0.03910508
242	0x3ce86e75	0.028372983
243	0x3d572557	0.052525844
244	0xbccdd658	-0.025126621
245	0xbd3d60aa	-0.046234764
246	0xbdd728f0	-0.10505855
247	0x3d34197e	0.043969624
248	0x3dca0f52	0.09866203
249	0xbd29f5c1	-0.041494135
250	0x3da8d3a7	0.082434945
251	0xbd7c0a8e	-0.061533503
252	0x3dfdfacd	0.12401352
253	0xbd7942ae	-0.060854606
254	0x3e0856f6	0.13314423
255	0x3dd380e1	0.10327316

fc2.bias f4 [64]
0	0x3bc0770b	0.005873566
1	0x3d9656a6	0.07340746
2	0xbcf6b940	-0.030117631
3	0x3d9c3b11	0.076284535
4	0x3d5849cf	0.052804764
5	0xbd7e7d58	-0.062131256
6	0xbd22b3c5	-0.039722223
7	0x3d6585a4	0.056035653
8	0xbdaf4de6	-0.0855978
9	0x3d23f58c	0.040029094
10	0xbc92bfbb	-0.01791369
11	0x3e1ef7c6	0.15524206
12	0xbda48461	-0.08033062
13	0x3d106672	0.03525395
14	0x3df04be2	0.117332235
15	0xbd993aef	-0.07481944
16	0xbd2d70dd	-0.042343963
17	0x3d591905	0.053002376
18	0xbcaff491	-0.021478923
19	0xbc0bf42d	-0.008542103
20	0xbd9d4b21	-0.07680345
21	0x3cc403da	0.023927618
22	0xbcae02e8	-0.02124162
23	0xbc855501	-0.016275885
24	0x3dbde8ca	0.092729166
25	0xbd8009ec	-0.062518924
26	0x3de5c973	0.11220064
27	0x3d4df4ec	0.050282404
28	0x3d4aafe9	0.049484167
29	0xbd9cd7fa	-0.07658382
30	0x3c72bb76	0.014815202
31	0xbda6b4eb	-0.08139976
32	0x3cb09b00	0.021558285
33	0x3c7f4703	0.015580895
34	0x3cbf6162	0.023361865
35	0x3d98062a	0.07423051
36	0x3ce69768	0.028148368
37	0xbcae03d8	-0.021242067
38	0xbc20263c	-0.009774741
39	0x3bc4f250	0.006010331
40	0xbb0951f7	-0.0020953396
41	0xbd8f83fe	-0.070075974
42	0x3c08c6d7	0.008348188
43	0xbb391a56	-0.0028244457
44	0x3d8929f1	0.06697453
45	0xbc2f9643	-0.0107169775
46	0x3d86faaa	0.06590779
47	0x3cab1139	0.020882236
48	0xbb7c122c	-0.003846298
49	0xbda3ead1	-0.08003772
50	0xbd0a3376	-0.033740483
51	0xbbc8f002	-0.006132127
52	0xbd607327	-0.054797318
53	0xbd089e7a	-0.03335426
54	0x3dc5481e	0.09632896
55	0xbd1e73c4	-0.03868462
56	0xbb136562	-0.0022490849
57	0x3cd0ca86	0.025487196
58	0x3dc129cb	0.094317995
59	0xbd97465b	-0.07386466
60	0x3d9142f8	0.070928514
61	0x3cafc7bf	0.021457551
62	0x3d5f5a91	0.05452973
63	0xbd26abe4	-0.04069127
