logs/ppo_checkpoint_ep350.pth (torch, 451850 bytes, 28 tensors)

fc1.weight f4 [128, 147]
0.025619883 0.049021017 -0.0040983143 -0.002991424 -0.03297585 0.11709412 -0.09720458 0.042153195
-0.06109911 -0.010375409 -0.012864227 -0.034134228 -0.041327924 0.059775177 -0.038464352 -0.013155794
0.09243237 0.024004545 0.029102499 0.09934497 0.093619585 -0.0038523031 -0.023897253 0.011714501
-0.035556857 -0.046432532 -0.051117197 0.021920953 0.045679584 0.053447865 -0.02375073 0.10268314
-0.039357938 -0.075590946 0.027182773 0.090725556 -0.051380105 -0.009052706 -0.02135893 -0.06766916
0.078165404 0.04496353 -0.0757946 0.050060004 0.055604056 0.010612276 0.018452412 0.026913727
-0.1144894 0.0450619 -0.0069263196 -0.04740653 0.06925138 -0.0064117457 -0.10729888 0.06943973
-0.049310934 -0.033949886 0.021258656 0.018941173 -0.071196154 0.09301074 -0.029007623 -0.107602976
0.12352615 0.02406546 -0.07538406 0.0053862683 0.08623095 -0.15359084 0.06561642 -0.025444271
0.10890779 0.030544218 0.019105442 -0.09475989 0.0010750291 -0.014822678 -0.13653652 0.06076951
0.08490666 -0.021868471 -0.021904217 -0.0123430975 -0.10166777 0.06849036 -0.02170558 0.026413698
0.034808435 -0.0629383 -0.09153187 0.06714036 -0.056222532 -0.15658505 0.07826305 0.0023161739
-0.06105863 0.06348542 0.043707106 -0.077061206 0.08724144 0.097545736 -0.09028528 0.053160407
-0.010149154 0.065378375 0.06404723 0.010135227 -0.027263712 0.0799354 -0.0109148575 -0.13196412
0.12614436 -0.016768156 -0.06598764 0.045363206 -0.024519684 0.013045756 0.05804452 0.017053172
-0.07222514 0.106986545 0.025539143 -0.10107254 -0.06402453 0.017918583 0.045426644 -0.0076477444
-0.028375246 -0.049419723 0.04760835 0.09693392 -0.07495198 0.116902955 0.004080219 0.010896507
-0.00969385 0.09833102 -0.059232686 0.0797403 0.042790838 -0.011295117 0.030282002 0.057487164
-0.013049905 0.0859004 0.014457887 -0.09494157 -0.06197585 -0.003186958 -0.0979303 -0.06797127
0.10877134 -0.021820141 0.07416286 0.057914086 -0.101825945 0.105098814 -0.017691711 -0.04809336
0.081463285 0.019644663 0.035191372 0.0034558512 0.07065636 -0.047860943 0.08043118 0.053143024
0.04031016 0.004382381 0.002315204 -0.013281893 0.009326588 -0.04119421 -0.018347016 -0.028067727
-0.007848363 -0.064688124 0.10672525 -0.0008317188 -0.045618698 -0.007335887 -0.016149858 -0.022843933
0.097072616 0.023529017 -0.02207368 0.085839786 -0.009399521 0.012006292 0.01833233 -0.012727103
-0.08239097 0.08178631 -0.048077304 0.011182837 0.09589981 -0.045337882 -0.013076378 0.051183984
-0.02831779 -0.049577244 0.05320507 0.085379094 -0.017860558 0.12237787 0.05868429 0.020889517
0.11782719 0.037551247 -0.058141198 0.07009313 -0.029042192 -0.05068575 -0.010098076 0.057970434
-0.06819097 0.028406117 0.011253362 -0.03330256 -0.07477488 -0.03760305 -0.0071011987 0.062227122
0.08804546 -0.029565621 -0.053227097 0.022634069 -0.060918633 -0.053270064 -0.08250335 -0.067615986
0.013274988 0.086950906 -0.03586525 0.094542526 -0.038168658 -0.02883117 0.078923546 -0.050624862
-0.0284099 0.12649775 0.028936671 -0.076604016 -0.0021551829 0.077950746 -0.014580056 0.04582698
0.103064805 -0.02176707 0.10533864 0.05160943 -0.041695904 0.02743794 0.008490338 0.04643599
00000000: cae0 d13c 43ca 483d 274b 86bb c40b 44bb
00000010: af11 07bd 0bcf ef3d 3213 c7bd d4a8 2c3d
00000020: 0f43 7abd 9ffd 29bc 7bc4 52bc 55d0 0bbd
00000030: 7847 29bd d1d6 743d cc8c 1dbd 668b 57bc
00000040: 2f4d bd3d 2ea5 c43c 5d68 ee3c 6075 cb3d
00000050: a0bb bf3d ec76 7cbb 2cc4 c3bc 2eee 3f3c
00000060: 11a4 11bd 0a30 3ebd 4460 51bd 9293 b33c
00000070: 841a 3b3d 26ec 5a3d e490 c2bc 8a4b d23d
00000080: ca35 21bd 6dcf 9abd 68ae de3c 52ce b93d
00000090: f273 52bd cd51 14bc ecf8 aebc 2196 8abd
000000a0: 2f15 a03d ae2b 383d 333a 9bbd b80b 4d3d
000000b0: 14c1 633d 1ddf 2d3c 8329 973c 2d7a dc3c
000000c0: 6b79 eabd d492 383d 2ef6 e2bb 592d 42bd
000000d0: abd3 8d3d 9f19 d2bb 84bf dbbd 6b36 8e3d
000000e0: 43fa 49bd 090f 0bbd a226 ae3c 852a 9b3c
000000f0: 4acf 91bd 6a7c be3d 65a1 edbc f35e dcbd
00000100: 47fb fc3d ed24 c53c f562 9abd 4b7f b03b
00000110: da99 b03d eb46 1dbe e761 863d 8170 d0bc
00000120: 0c0b df3d de37 fa3c 0483 9c3c 7911 c2bd
00000130: fee7 8c3a d1da 72bc 3bd0 0bbe 73e9 783d
00000140: 8be3 ad3d 8225 b3bc 7970 b3bc b43a 4abc
00000150: 3137 d0bd ad44 8c3d e7cf b1bc 8a61 d83c
00000160: 4a93 0e3d cce5 80bd 1075 bbbd e380 893d
00000170: 9949 66bd d557 20be 6148 a03d f3ca 173b
00000180: 9d18 7abd a504 823d 3906 333d 44d2 9dbd
00000190: a4ab b23d 0fc6 c73d 7de7 b8bd babe 593d
000001a0: a348 26bc 19e5 853d 322b 833d 390e 263c
000001b0: 2658 dfbc 2cb5 a33d 3bd4 32bc 9a21 07be
000001c0: fd2b 013e 5f5d 89bc 8724 87bd c5ce 393d
000001d0: 81dd c8bc debd 553c 17c0 6d3d 18b3 8b3c
000001e0: c6ea 93bd c31b db3d 7737 d13c 1fff cebd
000001f0: 4b1f 83bd fec9 923c 4a11 3a3d ee99 fabb
00000200: 3473 e8bc 566c 4abd f900 433d 4b85 c63d
00000210: 6c80 99bd d16a ef3d 5cb3 853b 4387 323c
00000220: f4d2 1ebc c661 c93d f99d 72bd e24e a33d
00000230: 7245 2f3d 280f 39bc f611 f83c a977 6b3d
00000240: 45cf 55bc 8dec af3d c6e0 6c3c ba70 c2bd
00000250: 64da 7dbd 48dc 50bb ae8f c8bd 8534 8bbd
00000260: 82c3 de3d 27c0 b2bc b3e2 973d 5237 6d3d
00000270: 1f8a d0bd 0c3e d73d 35ee 90bc 8bfd 44bd
00000280: 39d6 a63d d8ed a03c d424 103d 907b 623b
00000290: 48b4 903d d609 44bd 1ab9 a43d 80ac 593d
000002a0: 441c 253d 149a 8f3b adba 173b 4c9c 59bc
000002b0: 8cce 183c 43bb 28bd 7b4c 96bc 4aee e5bc
000002c0: 6c96 00bc 357b 84bd c592 da3d b407 5aba
000002d0: acda 3abd e161 f0bb b54c 84bc 3323 bbbc
000002e0: 02ce c63d edbf c03c ddd3 b4bc c5cc af3d
000002f0: 7300 1abc 0ab6 443c af2d 963c 5785 50bc
00000300: 99bc a8bd 957f a73d b5ec 44bd 3838 373c
00000310: 1f67 c43d 37b4 39bd 4e3e 56bc 4ca6 513d
00000320: b6fa e7bc 8211 4bbd 8fed 593d 3cdb ae3d
00000330: 4e50 92bc 40a1 fa3d f05e 703d 7e20 ab3c
00000340: 624f f13d 56cf 193d 7725 6ebd fd8c 8f3d
00000350: e4e9 edbc dc9b 4fbd 6772 25bc 6872 6d3d
00000360: b5a7 8bbd f2b3 e83c 0560 383c 4468 08bd
00000370: 9323 99bd a805 1abd 2cb1 e8bb dee1 7e3d
00000380: 2e51 b43d 9a33 f2bc a804 5abd 156b b93c
00000390: d185 79bd b631 5abd 84f7 a8bd 407a 8abd
000003a0: 567f 593c 5113 b23d 71e7 12bd 839f c13d
000003b0: bd56 1cbd 592f ecbc aba2 a13d 045c 4fbd
000003c0: e1bb e8bc a088 013e 990c ed3c 91e2 9cbd
000003d0: f83d 0dbb a4a4 9f3d 30e1 6ebc 12b5 3b3d
000003e0: a413 d33d db50 b2bc c9bb d73d 6964 533d
000003f0: 53c9 2abd 88c5 e03c 0f1b 0b3c aa33 3e3d

fc1.bias f4 [128]
-0.0033232144 0.09482429 0.016429186 -0.026515342 -0.04701459 0.066007785 -0.10802794 -0.022389261
0.060737178 0.06073627 0.03299864 -0.09895696 0.0523017 0.042735893 -0.037940606 0.030155985
-0.06769493 1.8437662e-05 -0.065885946 0.0092221135 -0.055462413 -0.017687868 0.05240088 0.01857469
-0.10245557 -0.06643927 0.08167614 0.060512263 0.056681026 0.061951905 -0.007426855 0.013738959
0.065151185 0.093349345 0.011288751 -0.0811907 0.09704314 0.060186137 -0.04579587 0.054667972
0.10557663 0.012322204 0.00466744 0.026710603 0.08341649 -0.029879373 0.07088724 0.037533812
0.030638745 -0.01697503 0.019340003 0.014416626 0.11334219 0.045346286 -0.027543675 -0.03675492
-0.043898452 -0.07779926 0.09296967 0.024934277 -0.02610489 0.029747102 0.009527591 0.08829552
-0.00029067346 -0.013526066 -0.07656123 0.027101984 -0.013001547 -0.021749794 0.097543634 0.08314174
0.035377465 0.07553164 0.03339522 0.02960002 0.04216468 0.090955146 -0.005623842 0.05648573
0.09656838 0.002513524 -0.018540561 -0.042661954 0.09813275 -0.045117073 0.0532644 0.07670906
-0.038971968 0.03921415 -0.044235174 -0.08160812 -0.04501367 -0.007916831 -0.047952108 -0.037305586
0.033972356 0.07885232 0.06700143 -0.004072954 -0.009716916 0.08787683 0.056882706 0.06734521
0.060668584 0.0764127 0.0443901 -0.027302131 0.06337822 0.08801798 -0.0016896555 -0.08004949
-0.05075942 0.037459064 0.02435089 0.003934237 0.05123519 0.06768351 0.10514339 -0.036952112
-0.020716868 -0.040545695 0.070501655 0.015876474 -0.053486425 0.07510875 0.043304753 0.053570244
00000000: 49ca 59bb 3d33 c23d 8096 863c b436 d9bc
00000010: 5f92 40bd 172f 873d c13d ddbd af69 b7bc
00000020: 8cc7 783d 98c6 783d 9529 073d f2a9 cabd
00000030: 4f3a 563d d50b 2f3d 9c67 1bbd af09 f73c
00000040: a4a3 8abd 94aa 9a37 36ef 86bd 5918 173c
00000050: 8e2c 63bd 26e6 90bc 4ea2 563d f329 983c
00000060: 3ad4 d1bd 5011 88bd d245 a73d b5db 773d
00000070: 5d2a 683d 48c1 7d3d fa5c f3bb 5f19 613c
00000080: fc6d 853d f12d bf3d 74f4 383c 4f47 a6bd
00000090: 8ebe c63d bd85 763d 7394 3bbd 86eb 5f3d
000000a0: 8f38 d83d 12e3 493c 53f1 983b 32d0 da3c
000000b0: 44d6 aa3d 96c5 f4bc 542d 913d 0ebd 193d
000000c0: 1bfe fa3c 380f 8bbc ed6e 9e3c b633 6c3c
000000d0: f31f e83d 07bd 393d 46a3 e1bc 548c 16bd
000000e0: ddce 33bd 3855 9fbd e266 be3d f842 cc3c
000000f0: ecd9 d5bc 32b0 f33c 9d19 1c3c 48d4 b43d
00000100: 8865 98b9 6f9c 5dbc 22cc 9cbd fb04 de3c
00000110: 7104 55bc a02c b2bc f5c4 c73d 3746 aa3d
00000120: f6e7 103d 55b0 9a3d 6dc9 083d be7b f23c
00000130: dfb4 2c3d b146 ba3d 3548 b8bb 955d 673d
00000140: a5c5 c53d efb9 243b 60e2 97bc 4dbe 2ebd
00000150: d3f9 c83d aecc 38bd c62b 5a3d a419 9d3d
00000160: 12a1 1fbd 049f 203d f12f 35bd 2822 a7bd
00000170: 4160 38bd 99b5 01bc 6e69 44bd becd 18bd
00000180: 9926 0b3d 537d a13d 0c38 893d 6a76 85bb
00000190: b333 1fbc c4f8 b33d d7fd 683d 49ec 893d
000001a0: 9f7f 783d 437e 9c3d 65d2 353d b8a8 dfbc
000001b0: 71cc 813d c542 b43d 6e77 ddba fdf0 a3bd
000001c0: 1ce9 4fbd ad6e 193d 857b c73c c6ea 803b
000001d0: fedb 513d a79d 8a3d 6b55 d73d 195b 17bd
000001e0: 6cb6 a9bc 3e13 26bd 2c63 903d 610f 823c
000001f0: 9514 5bbd 9ed2 993d 5360 313d 796c 5b3d

fc2.weight f4 [64, 128]
0.00876384 -0.07759551 -0.049813706 0.059628587 -0.07453107 0.053754736 0.038368646 0.076956704
-0.090354346 -0.05291707 -0.05592309 0.016572358 -0.07311965 0.048264626 -0.020924475 0.07033671
0.02469716 -0.018769164 -0.037319507 0.04268114 -0.035348866 0.035767816 0.039428733 -0.042768747
-0.08543938 0.074022256 -0.06259461 -0.06706635 -0.07102204 0.025559284 -0.03055067 -0.023984391
0.01735504 -0.0790172 -0.08356112 -0.058148384 0.024568493 0.00054594496 -0.032192655 -0.029812954
0.02565321 -0.0123357335 0.03972472 -0.009204011 0.069219306 0.053352922 -0.04929567 -0.018005833
-0.0754225 -0.07883198 -0.09415155 0.05767911 0.016923677 0.024669347 -0.09709697 0.07860453
-0.030272027 -0.042030618 -0.03897955 0.028479794 0.019529635 0.015511712 -0.027485818 0.0012313391
0.04973444 -0.04446889 0.06850159 0.03871975 0.02092402 -0.04725019 -0.078126356 -0.012330239
-0.027484993 -0.0141174225 -0.0940468 0.01619159 0.041715447 1.3751294e-05 0.055320133 -0.018118188
-0.07340172 0.009858174 -0.008613709 0.00851766 -0.046197485 0.035174116 -0.09387669 0.0566432
-0.05596023 -0.033882152 -0.053663243 -0.019289987 0.0104911495 0.014027227 0.07489296 0.042803507
-0.013790579 -0.020343442 -0.09556315 -0.08032892 0.07242227 -0.073529534 -0.019545648 -0.025587171
0.046217866 -0.026999086 0.07037879 -0.053566635 0.058304343 -0.01368581 0.03642405 -0.05494143
0.005063213 -0.030216774 0.023861825 -0.033066966 -0.053983368 0.041257225 -0.040094737 -0.06301871
0.001581492 0.058914322 -0.005294601 -0.05453079 -0.028962804 -0.032364074 0.06490425 -0.09635977
0.005130767 -0.04564399 0.059707277 -0.065302335 -0.021166097 0.00032501246 -0.049399197 0.08917649
-0.03636842 -0.0012175305 0.06235206 -0.08478583 -0.06939879 0.060046908 -0.042412184 0.028179925
0.06071987 -0.07299767 -0.04399747 -0.010752304 -0.043211117 0.025729144 -0.050558884 -0.023942595
0.078689456 0.08194693 0.044094216 0.014474859 -0.09363159 -0.028712226 0.062773034 0.041256584
0.014130548 -0.033987664 0.100243166 0.03241689 -0.07452939 0.066337086 0.006564801 -0.05368716
-0.08536204 -0.08106597 -0.09432171 -0.0066486006 -0.07883595 -0.041138776 0.05083214 -0.05369888
-0.035914034 0.05938238 0.047488917 0.0415484 0.07367467 0.06718927 -0.09269099 -0.07574605
0.016251106 0.06799612 0.07192492 -0.087135024 0.018023333 -0.021175439 0.052303374 0.03670555
0.020654842 -0.045201406 0.043528233 0.02266955 -0.0059054666 0.05001178 0.08427863 -0.07918852
-0.02379685 0.080675036 -0.034847092 0.04550784 -0.052874066 -0.0074991994 0.016171494 0.046782337
-0.07564495 -0.051831394 -0.08149379 -0.03128335 0.023896923 -0.0780145 -0.031075012 0.04884179
-0.09997327 0.014638814 -0.07219921 0.04054084 0.04916439 0.050291855 0.050112672 0.083440125
0.05584178 -0.06475074 0.047806725 -0.0904146 0.028166482 0.083871685 -0.010965518 -0.06426767
-0.09335486 0.050707307 0.001330636 -0.06892593 -0.056157693 -0.07487746 -0.034010075 0.015417799
-0.0023951984 -0.04157855 -0.079564996 -0.035321083 -0.074412316 -0.055396542 0.028015714 0.058268193
-0.0020889738 0.087796055 0.04649705 -0.08458666 0.010406547 0.0798163 0.022246659 0.06377183
00000000: 3696 0f3c 65ea 9ebd 7509 4cbd 1b3d 743d
00000010: bfa3 98bd ed2d 5c3d 7128 1d3d 7a9b 9d3d
00000020: b30b b9bd 92bf 58bd 9c0f 65bd c1c2 873c
00000030: c1bf 95bd 21b1 453d ce69 abbc b10c 903d
00000040: b351 ca3c cac1 99bc 57dc 18bd 6bd2 2e3d
00000050: f9c9 10bd 4681 123d 0680 213d 482e 2fbd
00000060: d7fa aebd fb98 973d 9a31 80bd 155a 89bd
00000070: 0174 91bd b461 d13c 6645 fabc ea7a c4bc
00000080: 282c 8e3c c5d3 a1bd 1822 abbd 002d 6ebd
00000090: dd43 c93c bf1d 0f3a 72dc 03bd 4c3a f4bc
000000a0: ae26 d23c d11b 4abc 63b6 223d 6ccc 16bc
000000b0: dac2 8d3d 9888 5a3d 42ea 49bd f880 93bc
000000c0: 1d77 9abd a972 a1bd 87d2 c0bd ee40 6c3d
000000d0: 86a3 8a3c 5f17 ca3c c7da c6bd 69fb a03d
000000e0: 0bfd f7bc 4c28 2cbd 05a9 1fbd 754e e93c
000000f0: 9dfc 9f3c d624 7e3c f029 e1bc e264 a13a
00000100: 57b6 4b3d 0325 36bd 904a 8c3d 9a98 1e3d
00000110: da68 ab3c 6a89 41bd b600 a0bd c504 4abc
00000120: 3528 e1bc c34c 67bc 9c9b c0bd 3aa4 843c
00000130: d1dd 2a3d 5cb5 6637 5d97 623d 986c 94bc
00000140: a453 96bd 2e84 213c 8420 0dbc a88d 0b3c
00000150: 9339 3dbd bc12 103d 6c42 c0bd b302 683d
00000160: 8e36 65bd 03c8 0abd fdcd 5bbd 0906 9ebc
00000170: 12e3 2b3c 74d2 653c 7b61 993d bb52 2f3d
00000180: e1f1 61bc 4aa7 a6bc 9db6 c3bd 7d83 a4bd
00000190: 2152 943d a796 96bd 321e a0bc 309c d1bc
000001a0: f24e 3d3d 302d ddbc c122 903d b068 5bbd
000001b0: 89d0 6e3d 733a 60bc 6231 153d 440a 61bd
000001c0: 4fe9 a53b 2b89 f7bc e079 c33c 3a71 07bd
000001d0: aa1d 5dbd 56fd 283d 613a 24bd f40f 81bd
000001e0: 114a cf3a 2550 713d 557e adbb ad5b 5fbd
000001f0: 6743 edbc 3190 04bd 85ec 843d 4558 c5bd
00000200: fe1f a83b 31f5 3abd 9e8f 743d 3bbd 85bd
00000210: 8664 adbc 6f66 aa39 d056 4abd 2aa2 b63d
00000220: 0df7 14bd 8b95 9fba e064 7f3d 31a4 adbd
00000230: f420 8ebd bff3 753d 66b8 2dbd 96d9 e63c
00000240: 66b5 783d cd7f 95bd b136 34bd 6f2a 30bc
00000250: 24fe 30bd edc5 d23c d516 4fbd 4323 c4bc
00000260: f027 a13d cbd3 a73d 239c 343d f627 6d3c
00000270: ebc1 bfbd e735 ebbc 268f 803d aafc 283d
00000280: d083 673c a636 0bbd 4a4c cd3d 93c7 043d
00000290: dda2 98bd bddb 873d 8b1d d73b 11e7 5bbd
000002a0: 4bd2 aebd ea05 a6bd be2b c1bd 81dc d9bb
000002b0: be74 a1bd 2281 28bd 5d35 503d 5bf3 5bbd
000002c0: 981a 13bd f03a 733d bd83 423d a82e 2a3d
000002d0: bfe2 963d 879a 893d c6d4 bdbd bf20 9bbd
000002e0: 0a21 853c 8d41 8b3d 5f4d 933d d973 b2bd
000002f0: aba5 933c 1d78 adbc 103c 563d 8f58 163d
00000300: 5834 a93c 1c25 39bd a94a 323d 7eb5 b93c
00000310: a582 c1bb 27d9 4c3d 469a ac3d 972d a2bd
00000320: 9df1 c2bc f438 a53d d3bb 0ebd 6e66 3a3d
00000330: 7a92 58bd d8bb f5bb 157a 843c d69e 3f3d
00000340: bdeb 9abd 284d 54bd 37e6 a6bd f822 00bd
00000350: 7bc3 c33c 11c6 9fbd 0691 febc 540e 483d
00000360: c9be ccbd a3d7 6f3c 2edd 93bd 270e 263d
00000370: 9960 493d d5fe 4d3d f242 4d3d a8e2 aa3d
00000380: 5aba 643d 099c 84bd fcd0 433d 4a2b b9bd
00000390: 65bd e63c ebc4 ab3d b7a8 33bc c59e 83bd
000003a0: d530 bfbd 77b2 4f3d bc68 ae3a 0a29 8dbd
000003b0: 9c05 66bd 5b59 99bd 264e 0bbd f09a 7c3c
000003c0: c3f8 1cbb 454e 2abd f9f2 a2bd d7ac 10bd
000003d0: 7c65 98bd 7ce7 62bd 3681 e53c a1aa 6e3d
000003e0: 2ae7 08bb 6bce b33d b173 3e3d c53b adbd
000003f0: 3980 2a3c ba76 a33d a03e b63c ce9a 823d

fc2.bias f4 [64]
-0.04027415 -0.0870981 -0.0824875 0.1033222 -0.07254631 0.0053231376 -0.026901867 -0.09584641
0.011319051 -0.083098784 0.076671615 -0.004125319 0.03383772 0.004294621 0.05303936 -0.07527673
-0.08332401 -0.06720971 -0.02042178 -0.0576628 0.014022812 -0.022336945 -0.0077784653 -0.0272458
0.03159829 -0.0077837156 0.05202614 0.07089914 0.0038320073 0.041377403 -0.05828799 0.095468655
0.075688764 0.085411966 0.008560985 -0.088546604 -0.068796985 0.084299356 0.06462182 -0.004538655
0.044195276 0.013477767 -0.053947706 -0.013904456 0.021864858 0.0142965475 0.093770824 -0.048873607
-0.07325339 0.05844934 0.07965098 0.057611078 -0.0012177085 -0.04770398 0.038321503 0.012146836
0.008760533 -0.07785353 -0.016857108 -0.039651595 0.02308623 0.00037249824 0.022614576 0.052961674
00000000: 82f6 24bd 7d60 b2bd 35ef a8bd 979a d33d
00000010: 2993 94bd b76d ae3b 4e61 dcbc 1f4b c4bd
00000020: 8a73 393c b22f aabd 0206 9d3d af2d 87bb
00000030: 6c99 0a3d e4b9 8c3b cd3f 593d b02a 9abd
00000040: c7a5 aabd 3fa5 89bd 944b a7bc d42f 6cbd
00000050: f0bf 653c f8fb b6bc 7fe2 febb 9532 dfbc
00000060: 356d 013d 8a0e ffbb 5d19 553d 9133 913d
00000070: 6a22 7b3b 5a7b 293d 63bf 6ebd 1285 c33d
00000080: b602 9b3d 78ec ae3d 6043 0c3c ec57 b5bd
00000090: 6fe5 8cbd 24a5 ac3d 7258 843d ffb8 94bb
000000a0: 1b06 353d dad1 5c3c 45f8 5cbd 84cf 63bc
000000b0: ee1d b33c 113c 6a3c eb0a c03d b12f 48bd
000000c0: e005 96bd 9368 6f3d 0e20 a33d 98f9 6b3d
000000d0: 849b 9fba 4065 43bd 02f7 1c3d 8603 473c
000000e0: 5788 0f3c ac71 9fbd eb17 8abc b669 22bd
000000f0: 551f bd3c de4b c339 3442 b93c 57ee 583d

action_head.weight f4 [5, 64]
0.03221358 -0.08551817 -0.040366367 -0.07218336 0.03850272 -0.035195716 -0.036857065 -0.07760579
-0.011476986 0.021474672 0.077355474 0.03401248 -0.07546468 0.08198719 0.0019352401 0.07629138
0.09287256 -0.018913226 0.07970119 -0.09840284 -0.088002935 -0.11410602 0.0102878455 0.0050371913
-0.0671434 -0.018027848 -0.08505772 -0.14293873 0.029945789 0.08921919 0.077758156 0.060393527
0.08933119 -0.08080785 0.04543814 0.05942462 0.08225114 0.03809233 0.0026074403 -0.11190172
-0.04836023 -0.008376726 0.006994386 -0.07062407 -0.1407329 -0.11437394 0.04503567 0.08252056
-0.113867 0.09696152 -0.021715887 0.00871497 -0.08679553 0.03875978 0.07073914 0.009049478
0.01586441 -0.04575933 -0.05899055 0.12377732 0.0034581842 0.104499646 -0.1167633 0.029701421
-0.014105797 -0.033507716 -0.068517335 0.070357956 -0.10105602 0.01365024 0.07974823 0.004841429
-0.01355882 -0.06526362 0.05613252 -0.015815979 0.022351187 -0.100330256 -0.008822733 -0.11693859
0.097215176 0.04382918 0.11289628 0.11354026 -0.011031698 0.058268752 0.110345684 -0.07974895
-0.08822389 -0.092055164 0.11949204 0.02212907 -0.041331 -0.056730416 -0.019627515 -0.017718244
-0.010380235 -0.037529502 -0.12290339 -0.11261802 0.026683882 -0.022708908 0.083881654 -0.07034175
0.05394446 0.026350563 0.055848002 -0.0703874 0.15205656 0.06575114 -0.051877968 0.1040161
-0.06993279 0.044578 -0.08372449 -0.024230286 0.027974376 0.015360939 -0.031236345 0.01557204
-0.04344825 -0.1003704 0.02894152 -0.031619515 0.11236682 -0.051600814 0.08107262 0.13908683
-0.04276694 0.037927367 -0.021181142 -0.124854505 -0.006912091 -0.0992614 0.05793097 -0.12223685
0.038243983 0.10304931 -0.07701975 -0.047138233 0.035848863 0.057830513 -0.15090725 0.10688469
0.063265175 -0.049076896 -0.115468085 -0.060736805 -0.18763417 -0.08446817 -0.06139261 -0.054951176
0.037882224 -0.092606194 -0.21490325 0.023725685 0.041556302 0.05139146 0.0071909493 -0.007686545
0.02857697 0.027704297 -0.078266665 0.06227323 0.022389581 0.045655273 -0.05113791 0.011796241
-0.08632372 0.0054267407 -0.09110178 0.0019765496 -0.06897627 -0.123132646 -0.014254119 0.06104095
-0.012630403 -0.17178532 -0.05622668 -0.02870893 -0.08731289 -0.11767118 -0.06423424 -0.12589717
-0.013194567 -0.02883323 -0.056211516 0.045830674 -0.10530228 -0.0037048839 -0.03009663 -0.017117206
-0.06701545 0.040330935 0.062303696 0.07127219 -0.082694836 0.070947655 -0.0518149 0.009523602
0.04066234 -0.011646219 0.15509751 0.027997052 0.16360132 0.11768702 0.067060016 0.08710027
0.08056262 0.031439155 0.15504935 0.04378201 0.027887221 0.062324785 0.075875945 0.07235396
0.097705826 0.051553316 -0.043760676 0.058904827 0.08957411 -0.04611246 -0.11078954 -0.045747627
0.023812773 -0.018896507 0.0100673735 0.12324841 -0.05137321 -0.062250886 0.08257119 0.1580089
-0.0592923 -0.028933592 -0.057009585 0.068247445 0.17642824 0.10980713 0.10825238 -0.05711603
-0.07394947 0.020020142 0.15547645 0.1719718 0.09306952 -0.11002043 0.03193584 0.12269692
-0.01715593 -0.10561847 -0.101969205 -0.07820247 0.03820538 -0.05934907 -0.05358883 0.04171961
00000000: 63f2 033d 2624 afbd 3457 25bd dfd4 93bd
00000010: 07b5 1d3d 6229 10bd 6ff7 16bd c9ef 9ebd
00000020: f809 3cbc a7eb af3c 8c6c 9e3d ac50 0b3d
00000030: 3a8d 9abd e6e8 a73d e2a7 fd3a a83e 9c3d
00000040: f833 be3d e9ef 9abc 613a a33d 6e87 c9bd
00000050: e23a b4bd 6bb0 e9bd 5a8e 283c 060f a53b
00000060: 7b82 89bd 23af 93bc be32 aebd 885e 12be
00000070: df50 f53c 8db8 b63d ab3f 9f3d 345f 773d
00000080: 45f3 b63d 967e a5bd 581d 3a3d 3b67 733d
00000090: 4973 a83d b406 1c3d 97e1 2a3b bb2c e5bd
000000a0: 6015 46bd 893e 09bc 2a31 e53b 5aa3 90bd
000000b0: 491c 10be e23c eabd 5377 383d 8a00 a93d
000000c0: 1a33 e9bd c393 c63d 84e5 b1bc 3cc9 0e3c
000000d0: dbc1 b1bd 93c2 1e3d afdf 903d 4344 143c
000000e0: 14f6 813c 236e 3bbd 13a0 71bd f77e fd3d
000000f0: b4a2 623b e903 d63d 9921 efbd 6550 f33c
00000100: 001c 67bc 633f 09bd d152 8cbd d517 903d
00000110: 75f6 cebd 42a5 5f3c 0a53 a33d daa4 9e3b
00000120: d025 5ebc efa8 85bd 37eb 653d 8390 81bc
00000130: d619 b73c f379 cdbd 398d 10bc 807d efbd
00000140: c018 c73d 3a86 333d 2a36 e73d cc87 e83d
00000150: 4cbe 34bc 37ab 6e3d ebfc e13d 6b53 a3bd
00000160: baae b4bd 6b87 bcbd 3eb8 f43d 0648 b53c
00000170: b24a 29bd 275e 68bd e2c9 a0bc da25 91bc
00000180: dc11 2abc 89b8 19bd c6b4 fbbd 47a4 e6bd
00000190: 2898 da3c 0808 babc 25ca ab3d 560f 90bd
000001a0: def4 5c3d 23dd d73c e0c0 643d 4527 90bd
000001b0: b7b4 1b3e 89a8 863d fe7d 54bd 6506 d53d
000001c0: ec38 8fbd 6c97 363d bf77 abbd 987e c6bc
000001d0: 852a e53c 73ac 7b3c 5de3 ffbc df21 7f3c
000001e0: cbf6 31bd ff8e cdbd c416 ed3c 7783 01bd
000001f0: 9320 e63d 605b 53bd 6709 a63d c76c 0e3e
00000200: 632c 2fbd ba59 1b3d 1384 adbc b8b3 ffbd
00000210: d27e e2bb 9049 cbbd 0649 6d3d 5057 fabd
00000220: b9a5 1c3d 840b d33d 88bc 9dbd 0514 41bd
00000230: 42d6 123d b0df 6c3d 6e87 1abe 5ce6 da3d
00000240: 2c91 813d db04 49bd 887a ecbd 28c7 78bd
00000250: 2c23 40be a6fd acbd d176 7bbd 7c14 61bd
00000260: 642a 1b3d 51a8 bdbd 990f 5cbe 5e5c c23c
00000270: f136 2a3d da7f 523d 0ea2 eb3b 6adf fbbb
00000280: 401a ea3c 1ff4 e23c 464a a0bd 3712 7f3d
00000290: 5b6a b73c 0601 3b3d fc75 51bd 0545 413c
000002a0: 7eca b0bd cdd2 b13b 9293 babd 0089 013b
000002b0: 6e43 8dbd f82c fcbd 1c8a 69bc 1306 7a3d
000002c0: c0ef 4ebc 7ee8 2fbe f24d 66bd fd2e ebbc
000002d0: 1ad1 b2bd 96fd f0bd 3e8d 83bd 30eb 00be
000002e0: 062e 58bc aa33 ecbc 0c3e 66bd f2b8 3b3d
000002f0: b9a8 d7bd a3cd 72bb 358d f6bc 6239 8cbc
00000300: 653f 89bd 0d32 253d 2932 7f3d 27f7 913d
00000310: e95b a9bd 014d 913d dc3b 54bd e208 1c3c
00000320: 8e8d 263d c8cf 3ebc e2d1 1e3e 135a e53c
00000330: 1b87 273e e405 f13d c356 893d a061 b23d
00000340: 04fe a43d 58c6 003d 42c5 1e3e c454 333d
00000350: be73 e43c 4648 7f3d d964 9b3d 502e 943d
00000360: fe19 c83d 9229 533d 653e 33bd 3046 713d
00000370: a272 b73d 6be0 3cbd a0e5 e2bd dd61 3bbd
00000380: 0113 c33c d9cc 9abc a0f1 243c aa69 fc3d
00000390: b76c 52bd c9fa 7ebd 161b a93d 16cd 213e
000003a0: 7cdc 72bd 2406 edbc e282 69bd 51c5 8b3d
000003b0: 9ba9 343e 90e2 e03d 6cb3 dd3d 80f2 69bd
000003c0: d272 97bd 4801 a43c 3835 1f3e 6019 303e
000003d0: 3c9b be3d 6452 e1bd 28cf 023d 8648 fb3d
000003e0: 988a 8cbc 7f4e d8bd 3bd5 d0bd 9e28 a0bd
000003f0: 3f7d 1c3d 0318 73bd f67f 5bbd 2fe2 2a3d

action_head.bias f4 [5]
0.001406981 -0.018584598 -0.16388127 -0.021443175 0.053032465
00000000: 736a b83a ba3e 98bc 7ed0 27be 99a9 afbc
00000010: 9238 593d

value_head.weight f4 [1, 64]
0.0029174667 -0.042822838 -0.0424801 0.13006005 -0.112469226 -0.1392016 0.14550173 -0.067891516
0.085877985 -0.024326542 -0.15766284 -0.17786779 -0.11649115 0.07601047 0.10181482 0.106633574
0.009492315 -0.06831892 0.10110024 -0.090716474 -0.11607793 0.03481652 -0.11737852 0.08619031
-0.1269249 -0.20127414 -0.15040721 0.059368465 -0.08739783 0.1203183 0.008349623 0.097225815
-0.17289056 -0.18111497 0.075886264 0.026778657 0.11412517 0.092420414 0.032254998 -0.15191671
-0.17742378 -0.1913921 -0.05222512 0.15050627 0.037028003 0.08820671 0.14015885 0.01636046
-0.07911593 0.07531795 0.11875241 -0.18405744 0.08172244 -0.04220642 0.07553818 0.075270295
0.14736122 0.04074123 0.00015592726 0.014316363 0.028262185 0.06783625 0.15778576 -0.14154804
00000000: f832 3f3b 0067 2fbd 9dff 2dbd 762e 053e
00000010: 4456 e6bd dd8a 0ebe 68fe 143e b50a 8bbd
00000020: cce0 af3d 7548 c7bc 5e72 21be f922 36be
00000030: e992 eebd 61ab 9b3d 4a84 d03d b462 da3d
00000040: a885 1b3c caea 8bbd a50d cf3d 8fc9 b9bd
00000050: 44ba edbd c49b 0e3d 2664 f0bd 8c84 b03d
00000060: 9af8 01be cf1a 4ebe 5904 1abe 592c 733d
00000070: a2fd b2bd 7169 f63d dbcc 083c 541e c73d
00000080: 390a 31be 3476 39be 426a 9b3d ea5e db3c
00000090: 75ba e93d ea46 bd3d d11d 043d 0e90 1bbe
000000a0: 94ae 35be 4afc 43be 02ea 55bd 511e 1a3e
000000b0: adaa 173d b8a5 b43d cd85 0f3e 5f06 863c
000000c0: 8807 a2bd 4c40 9a3d 7734 f33d 8e79 3cbe
000000d0: 185e a73d a4e0 2cbd c3b3 9a3d 5027 9a3d
000000e0: dce5 163e 47e0 263d 6880 2339 2e8f 6a3c
000000f0: 1986 e73c bbed 8a3d 9792 213e f8f1 10be

fc1.weight f4 [128, 147]
-0.064320125 0.022820944 0.021145282 -0.06173775 0.10711647 -0.015920952 0.04462155 0.071470544
0.077995315 -0.004471611 0.039214652 0.076568075 -0.014279372 0.055865988 -0.08109435 0.0643488
0.055275988 0.06755436 -0.070304476 0.039643776 0.080878615 -0.06541197 0.003501885 -0.048446972
0.014264817 -0.010254025 0.022563988 -0.0127091445 0.033700414 0.045047875 -0.089487486 0.026024891
0.026128395 -0.02460931 -0.009737157 0.08653313 0.006379069 0.058847696 0.05535607 0.044043418
0.081292875 -0.0065462017 -0.10983828 0.052499987 -0.026737355 -0.018912667 0.08681142 0.099886954
-0.01204225 0.090240456 -0.029140929 -0.093669325 0.093992114 -0.0084276935 0.04496516 0.09353942
-0.03254655 -0.07590169 -0.010635599 -0.007355671 -0.06336887 0.073444225 -0.05849115 -0.033237576
0.068733566 0.05267699 -0.00021812851 0.05547518 -0.039565887 -0.015716955 0.10416666 0.060811725
0.07135922 0.0005194155 -0.09538755 -0.04044575 -0.010375769 -0.017126856 -0.101814814 0.11680171
0.039547794 0.022776319 0.084566265 0.056251846 0.018641626 -0.014446804 -0.07260018 -0.0017779531
-0.011625725 -0.017984983 0.03041713 0.075250134 0.015089673 -0.052127074 0.0033552868 0.1151794
0.00424485 0.05641074 0.0529231 -0.0059891734 0.10037768 0.05611621 -0.067808054 0.0037589916
-0.046378423 -0.011633758 0.07640937 0.041811213 -0.05265184 -0.039371826 0.06401563 0.061235517
0.031637486 0.01963863 -0.09247121 0.00024177425 -0.061955955 0.014299622 -0.02638455 0.05522203
-0.046763085 0.10011573 0.09591081 0.007064342 0.033483464 -0.077223815 -0.051387016 -0.013066936
0.0046604713 0.017745115 0.082450084 -0.017996276 -0.07741202 0.05628867 0.0003319452 0.0332637
0.08620218 0.07290336 -0.05238406 -0.026677521 0.02025344 -0.008997812 0.04109924 0.054480083
0.04017627 0.0026582836 -0.054675274 0.0277382 0.06219996 0.029996907 0.027917944 0.024040598
-0.070044 -0.02142278 0.017803635 0.01849757 0.035738103 0.083378 0.038301107 0.0525158
0.10137183 -0.066378005 0.00028663347 0.019035941 -0.013223662 0.061005127 0.029349823 0.060635943
-0.044445235 -0.036728587 0.044381976 -0.046794895 -0.036341447 -0.047120657 -0.036335103 0.10727041
0.055485528 -0.108140156 0.09124604 0.058430873 0.016094752 0.10077334 0.017660405 -0.085105516
0.057227623 0.014743216 -0.012858984 -0.019394834 -0.030835679 0.014817559 0.02813429 -0.023294356
0.02047144 0.046702147 0.01278737 0.0055654775 0.0709538 0.07837952 -0.08326599 0.0887861
-0.04008772 0.038458195 -0.005769567 0.056322422 -7.912205e-05 0.051081058 -0.014151755 -0.09635772
0.020870931 -0.061379123 -0.0722872 0.0732896 0.009594187 -0.09749232 0.07874472 -0.046313386
-0.09715965 0.11056307 0.015009455 0.078898184 -0.010542482 -0.08019837 -0.1267679 0.11468718
0.013408694 0.01785975 -0.022927241 0.09532675 -0.111719824 0.092447184 0.07460273 -0.047294617
0.064318545 0.003278563 -0.006809314 0.079158396 0.07029956 -0.06583759 0.12528141 -0.05178209
0.03256989 0.09706598 0.07361066 0.015474228 0.070066765 0.035056785 -0.091588914 0.00059325114
0.10633876 -0.042926762 0.08333606 0.08907106 -0.08968863 0.0011647284 -0.038587205 0.04506804
00000000: 45ba 83bd fdf2 ba3c df38 ad3c b9e0 7cbd
00000010: e15f db3d a86c 82bc 16c5 363d 265f 923d
00000020: 02bc 9f3d 9886 92bb 8b9f 203d b9cf 9c3d
00000030: 07f4 69bc bcd3 643d cb14 a6bd 4ec9 833d
00000040: 1369 623d f159 8a3d cbfb 8fbd 8361 223d
00000050: b0a3 a53d b6f6 85bd e27f 653b 5570 46bd
00000060: fbb6 693c 8000 28bc 1dd8 b83c 043a 50bc
00000070: 7209 0a3d 1f84 383d 3745 b7bd 2732 d53c
00000080: 370b d63c 7799 c9bc 9988 1fbc 4838 b13d
00000090: 8207 d13b 480a 713d 0cbd 623d df66 343d
000000a0: e17c a63d 8581 d6bb e4f2 e0bd 3a0a 573d
000000b0: 4c08 dbbc bdee 9abc 30ca b13d 8891 cc3d
000000c0: db4c 45bc fdcf b83d f5b8 eebc b4d5 bfbd
000000d0: f07e c03d 4f14 0abc 632d 383d 9891 bf3d
000000e0: 884f 05bd 5872 9bbd ef40 2ebc d707 f1bb
000000f0: 8ac7 81bd ed69 963d 6b94 6fbd 2024 08bd
00000100: 2fc4 8c3d d4c3 573d 6db9 64b9 f139 633d
00000110: d70f 22bd d8c0 80bc 5455 d53d b715 793d
00000120: c824 923d 6229 083a 8c5a c3bd 71aa 25bd
00000130: 21ff 29bc 9f4d 8cbc 4984 d0bd bc35 ef3d
00000140: defc 213d 6795 ba3c 1431 ad3d 5668 663d
00000150: 53b6 983c 4ab2 6cbc 67af 94bd 350a e9ba
00000160: d379 3ebc 3e55 93bc 582d f93c be1c 9a3d
00000170: ad3a 773c 3383 55bd 5fe4 5b3b 2de3 eb3d
00000180: 6218 8b3b f30e 673d e4c5 583d d440 c4bb
00000190: d092 cd3d 1cda 653d f3de 8abd 6a59 763b
000001a0: 4df7 3dbd 859b 3ebc 847c 9c3d 3c42 2b3d
000001b0: 75a9 57bd 5a44 21bd a01a 833d 18d2 7a3d
000001c0: 4f96 013d 31e1 a03c 8c61 bdbd c884 7d39
000001d0: 87c5 7dbd f648 6a3c 6924 d8bc 7f30 623d
000001e0: a68a 3fbd 7a09 cd3d e36c c43d ff7b e73b
000001f0: f525 093d 8527 9ebd 317b 52bd b416 56bc
00000200: deb6 983b 345e 913c 97db a83d ed6c 93bc
00000210: 318a 9ebd f38e 663d ee08 ae39 843f 083d
00000220: c58a b03d 5b4e 953d ab90 56bd d18a dabc
00000230: 8bea a53c 8f6b 13bc ad57 283d 8226 5f3d
00000240: df8f 243d 9936 2e3b 2ef3 5fbd 393b e33c
00000250: 63c5 7e3d 13bc f53c 2cb4 e43c caf0 c43c
00000260: 3b73 8fbd d37e afbc eed8 913c 3788 973c
00000270: 1e62 123d 16c2 aa3d 9fe1 1c3d cf1a 573d
00000280: 099c cf3d 31f1 87bd 4b47 9639 43f1 9b3c
00000290: 0fa8 58bc 83e0 793d 0a6f f03c 655d 783d
000002a0: 350c 36bd b770 16bd e0c9 353d 01ac 3fbd
000002b0: c5da 14bd 9701 41bd 1ed4 14bd 97b0 db3d
000002c0: cb44 633d 9678 ddbd 34df ba3d 3655 6f3d
000002d0: 24d9 833c 4162 ce3d 8eac 903c cd4b aebd
000002e0: 8367 6a3d 888d 713c 7dae 52bc eae1 9ebc
000002f0: 1b9b fcbc 59c5 723c e279 e63c ced3 bebc
00000300: b9b3 a73c c04a 3f3d 1e82 513c 9c5e b63b
00000310: 3a50 913d 7185 a03d 5c87 aabd 7dd5 b53d
00000320: 0533 24bd 5786 1d3d a30e bdbb 57b2 663d
00000330: 54ee a5b8 5f3a 513d c3dc 67bc 3257 c5bd
00000340: 84f9 aa3c ad68 7bbd 500b 94bd dc18 963d
00000350: f030 1d3c 0eaa c7bd e944 a13d 1bb3 3dbd
00000360: a3fb c6bd e46e e23d 38ea 753c 5f95 a13d
00000370: 60ba 2cbc 0b3f a4bd 72cf 01be 1de1 ea3d
00000380: 24b0 5b3c 9c4e 923c e9d1 bbbc ac3a c33d
00000390: 5dcd e4bd f354 bd3d 51c9 983d 00b8 41bd
000003a0: 71b9 833d 29dd 563b aa20 dfbb cc1d a23d
000003b0: 37f9 8f3d dcd5 86bd c549 003e 7519 54bd
000003c0: 0168 053d 87ca c63d 30c1 963d 9e87 7d3c
000003d0: 2a7f 8f3d b497 0f3d f892 bbbd 6984 1b3a
000003e0: 23c8 d93d f9d3 2fbd 19ac aa3d e36a b63d
000003f0: acae b7bd cda9 983a 9e0d 1ebd 4499 383d

fc1.bias f4 [128]
0.07805384 0.0060175927 -0.016326547 0.044657 -0.06948418 0.020337373 0.08100693 0.0057883095
0.041650183 0.059511133 0.039410703 -0.022091221 0.06948994 0.0038905228 0.047897678 0.03468441
0.04206866 -0.052745998 -0.014682765 -0.0028069934 0.00803018 0.006898943 0.08032181 -0.11483364
-0.025843425 0.004590605 -0.082361214 0.030608276 0.031142302 0.06499852 0.03337514 -0.009300066
-0.009352802 -0.053552058 0.057889357 0.032488827 0.0014195589 0.07327595 -0.04419857 0.06134451
-0.04918911 0.035120144 0.08006723 0.04131946 -0.041014154 0.0018891725 0.09004079 0.050442975
0.045613833 -0.022855012 0.050793864 0.02619705 0.052481085 0.077685915 0.11189886 0.07409682
-0.063788064 0.11340788 -0.02712036 0.0664947 -0.021194981 -0.08075562 0.03417194 -0.077555194
0.0006915477 -0.0084456885 -0.0015952439 -0.033999063 0.07987026 -0.031382933 0.08134527 0.04404918
0.016266035 0.08909527 0.019026097 0.004464404 -0.013501023 0.06936713 0.052738518 -0.006157008
0.08341075 0.04354046 0.05939194 -0.05549447 -0.034765266 -0.023451949 0.07803461 -0.08671049
0.04290164 -0.0026990098 -0.0073121972 -0.02381449 -0.026218122 -0.017735798 -0.022618573 0.027635615
-0.07354785 0.04790834 0.063322395 0.078823864 0.05200722 -0.08009152 0.015542409 0.03395057
0.049749233 -0.039270397 0.08124756 -0.02555006 0.002137547 -0.010907487 0.0330493 0.02150899
0.060740165 -0.0025495724 -0.027479408 -0.018324688 0.01885923 0.084321864 0.06551696 0.00051399844
0.09391294 0.09383158 0.042116843 0.0018222437 0.0941378 0.088615395 -0.06898278 0.03986338
00000000: b1da 9f3d 3a2f c53b 40bf 85bc 42ea 363d
00000010: b94d 8ebd 909a a63c f6e6 a53d dcab bd3b
00000020: 6299 2a3d f2c1 733d 1e6d 213d a6f8 b4bc
00000030: be50 8e3d 24f8 7e3b 5b30 443d 3d11 0e3d
00000040: 3050 2c3d 300c 58bd fb8f 70bc 89f5 37bb
00000050: 0491 033c 8710 e23b c37f a43d e62d ebbd
00000060: 97b5 d3bc c96c 963b ffac a8bd 35be fa3c
00000070: 241e ff3c f21d 853d 5fb4 083d 4e5f 18bc
00000080: 7f3c 19bc 6759 5bbd 641d 6d3d 0113 053d
00000090: 7e10 ba3a b411 963d 8f09 35bd 6244 7b3d
000000a0: 857a 49bd 24da 0f3d 4afa a33d 983e 293d
000000b0: 75fe 27bd 1c9e f73a 4e67 b83d 4b9d 4e3d
000000c0: 92d5 3a3d 6f3a bbbc 3a0d 503d 329b d63c
000000d0: 68f6 563d cb19 9f3d 3b2b e53d 13c0 973d
000000e0: 51a3 82bd 6442 e83d 842b debc 602e 883d
000000f0: 19a1 adbc 3463 a5bd e0f7 0b3d 42d5 9ebd
00000100: fb48 353a c95f 0abc 8117 d1ba 9a42 0bbd
00000110: 0593 a33d 648b 00bd 5998 a63d ea6c 343d
00000120: 5940 853c 9577 b63d 9edc 9b3c 234a 923b
00000130: 6533 5dbc 5b10 8e3d 5804 583d bac0 c9bb
00000140: 41d3 aa3d 7b57 323d f644 733d 2b4e 63bd
00000150: 0666 0ebd 4d1e c0bc 9cd0 9f3d 4595 b1bd
00000160: a1b9 2f3d dfe1 30bb 289b efbb 9b16 c3bc
00000170: 63c7 d6bc aa4a 91bc 964a b9bc 1664 e23c
00000180: 41a0 96bd 893b 443d 2caf 813d 686e a13d
00000190: 8605 553d 0607 a4bd 97a5 7e3c c10f 0b3d
000001a0: dac5 4b3d ffd9 20bd 1f65 a63d 5c4e d1bc
000001b0: 1616 0c3b 51b5 32bc b45e 073d 9f33 b03c
000001c0: aeca 783d ba16 27bb 7f1c e1bc a81d 96bc
000001d0: ac7e 9a3c f1b0 ac3d c22d 863d dabd 063a
000001e0: 6d55 c03d c52a c03d b682 2c3d 5ad8 ee3a
000001f0: 52cb c03d fd7b b53d d846 8dbd c947 233d

fc2.weight f4 [64, 128]
0.02588507 -0.013500178 -0.07773731 -0.008047239 -0.07121433 -0.008150182 0.011305702 0.06496167
-0.028961468 -0.08979501 0.045560863 -0.003990011 0.0025584728 0.08829123 -0.1095344 -0.03699973
0.071320705 -0.10551117 -0.09770447 0.024983078 -0.070702106 -0.098437205 -0.019538887 -0.018662771
-0.03014345 0.008571746 -0.09766775 -0.06908423 0.06407304 0.018947126 -0.0013111454 -0.08000879
-0.012339451 -0.0069424734 -0.08950067 0.061476294 0.016270459 0.047247037 -7.235877e-05 -0.09704264
0.03950792 -0.05701693 -0.030961959 0.061429553 -0.05993588 -0.004248024 0.056262042 -0.007487062
0.03528782 -0.079961315 -0.059577174 0.059408724 -0.062122736 0.0019294968 -0.002785836 0.048690762
-0.07937444 -0.003328973 0.065820925 0.02039362 0.04644316 -0.065197386 0.023809187 -0.04161716
0.029255053 -0.051530402 0.02721206 0.08165151 -0.055455152 0.0363811 -0.038025 0.018596688
-0.000112319394 0.021002656 0.004673553 0.029218754 0.06345081 -0.03168806 -0.08864581 0.07465038
0.052210517 0.03513631 0.0039379275 0.038670536 0.004724282 0.033394337 0.037330735 -0.079765044
-0.03521102 0.0014873513 0.055269465 0.022701493 -0.047525443 0.034299374 -0.042692307 -0.040910915
-0.056876577 0.0139504485 0.059107512 -0.08597309 0.0552896 0.052147333 -0.012813602 0.07476213
-0.04911811 -0.08860097 -0.012317465 -0.025182553 -0.09870512 0.051333115 -0.02896583 -0.039299306
0.07618483 0.01058711 -0.012313555 -0.030951709 -0.044816658 -0.058866903 -0.07029965 -0.03504158
0.0731211 0.028152952 -0.030342627 0.014203166 0.024066186 0.071669415 -0.087098904 0.013186076
-0.013792544 0.028283285 -0.037332796 0.15266915 -0.03173441 0.03166482 0.12069067 0.04038566
0.037312403 0.03969707 0.05257073 0.0116989035 0.010246166 -0.10307109 0.03796568 0.020532507
-0.12981735 0.010340529 0.13912477 0.1295134 0.17416003 -0.044201866 -0.053051252 -0.021518154
0.1369712 0.069844864 0.04173982 0.07066046 -0.08015953 0.054709293 -0.088248886 0.0970472
0.12219831 -0.085339 0.02638581 0.021746295 -0.057534005 -0.09636348 0.017348738 -0.06462102
0.13091631 -0.09836598 0.031560674 -0.059380557 -0.02750922 -0.03103801 -0.03998005 0.1275977
-0.024076728 0.0942093 0.089823395 0.10638679 -0.095921814 0.09229428 -0.121241964 -0.08779331
0.046385206 -0.0848681 -0.035147816 0.026491398 0.01151151 0.025026523 -0.09623666 0.0295028
-0.090810806 -0.07315602 0.030362621 -0.066615224 0.058712583 -0.074137144 0.078305766 -0.0008676187
-0.061681204 -0.078650124 -0.02208877 -0.061222397 -0.030455524 0.009545261 -0.005437756 -0.077880375
0.05414158 -0.005076098 -0.10186699 0.049433034 0.094696246 -0.09554421 0.05498695 -0.050848484
-0.029937686 -0.0085202195 -0.0011944321 -0.10977987 0.055033576 0.017928189 -0.11109395 -0.14005251
-0.03716325 0.12341957 0.067828886 0.06774765 0.029489573 -0.07584139 -0.021806037 0.0647497
-0.08748922 -0.112567134 0.03965772 -0.06329002 0.1254122 -0.031064827 -0.038996752 -0.07465135
-0.07698995 0.037514415 0.030259911 0.05808845 -0.018098518 -0.050732624 -0.108150125 0.036864277
0.09839836 -0.048273087 0.0808411 -0.07013673 0.12362196 -0.06751449 0.13320057 0.09893611
00000000: ed0c d43c da2f 5dbc bd34 9fbd 91d8 03bc
00000010: d2d8 91bd 5788 05bc 8d3b 393c a00a 853d
00000020: 9a40 edbc 72e6 b7bd 079e 3a3d a3be 82bb
00000030: 0dac 273b 08d2 b43d 9253 e0bd 078d 17bd
00000040: 9710 923d 3e16 d8bd 4819 c8bd 50a9 cc3c
00000050: 44cc 90bd 7299 c9bd 0410 a0bc abe2 98bc
00000060: 65ef f6bc 8270 0c3c 0806 c8bd 087c 8dbd
00000070: ba38 833d 0137 9b3c bdda abba a6db a3bd
00000080: 692b 4abc b07d e3bb 214c b7bd 91ce 7b3d
00000090: a049 853c 1c86 413d 52bf 97b8 4bbe c6bd
000000a0: 0fd3 213d 968a 69bd efa3 fdbc 8e9d 7b3d
000000b0: 537f 75bd 0233 8bbb 0773 663d 0756 f5bb
000000c0: f689 103d c2c2 a3bd 3207 74bd 9056 733d
000000d0: 6974 7ebd 2be7 fc3a 9392 36bb f76f 473d
000000e0: 118f a2bd e62a 5abb 1fcd 863d 8510 a73c
000000f0: 2f3b 3e3d 3586 85bd 7c0b c33c c176 2abd
00000100: 4ba8 ef3c 8b11 53bd d3eb de3c e838 a73d
00000110: f124 63bd 5904 153d 1ac0 1bbd 1558 983c
00000120: 048d ebb8 c30d ac3c 9b24 993b 2b5c ef3c
00000130: 80f2 813d 57cb 01bd ef8b b5bd 4ce2 983d
00000140: b2da 553d 17eb 0f3d bb09 813b ff64 1e3d
00000150: 26ce 9a3b 80c8 083d 1de8 183d db5b a3bd
00000160: 6e39 10bd 3af3 c23a 3c62 623d 7bf8 b93c
00000170: 0aaa 42bd 807d 0c3d 21de 2ebd 3492 27bd
00000180: 6af7 68bd 6c90 643c b81a 723d a912 b0bd
00000190: 5977 623d 7198 553d 24f0 51bc e31c 993d
000001a0: 1230 49bd 6d74 b5bd 31cf 49bc a44b cebc
000001b0: e925 cabd ac42 523d c049 edbc 4ff8 20bd
000001c0: cb06 9c3d 8f75 2d3c cbbe 49bc 708e fdbc
000001d0: ac91 37bd 6c1e 71bd 43f9 8fbd c387 0fbd
000001e0: 84c0 953d 05a1 e63c 1a91 f8bc 65b4 683c
000001f0: 7326 c53c 6ac7 923d e960 b2bd 690a 583c
00000200: 1ffa 61bc 59b2 e73c 46ea 18bd 4d55 1c3e
00000210: f1fb 01bd f8b2 013d ac2c f73d 6f6b 253d
00000220: e4d4 183d 6599 223d 6854 573d c2ac 3f3c
00000230: 89df 273c f016 d3bd e781 1b3d ca33 a83c
00000240: d7ee 04be 526b 293c b976 0e3e 299f 043e
00000250: 0257 323e 040d 35bd 454c 59bd d746 b0bc
00000260: 2e42 0c3e d30a 8f3d 60f7 2a3d 6eb6 903d
00000270: ae2a a4bd da16 603d d5bb b4bd afc0 c63d
00000280: 1c43 fa3d 37c6 aebd 0e27 d83c 4925 b23c
00000290: c7a8 6bbd 375a c5bd f11e 8e3c 0658 84bd
000002a0: ed0e 063e 1a74 c9bd c445 013d 0739 73bd
000002b0: 045b e1bc 6d43 febc 1fc2 23bd f9a8 023e
000002c0: 8f3c c5bc cef0 c03d 54f5 b73d 51e1 d93d
000002d0: a872 c4bd c904 bd3d b54d f8bd fbcc b3bd
000002e0: 6afe 3d3d 54cf adbd 28f7 0fbd 7d04 d93c
000002f0: c69a 3c3c 6c04 cd3c ba17 c5bd dbaf f13c
00000300: 04fb b9bd d3d2 95bd 08bb f83c 906d 88bd
00000310: 9b7c 703d 37d5 97bd c65e a03d e870 63ba
00000320: 6ea5 7cbd 5113 a1bd 82f3 b4bc 56c4 7abd
00000330: dd7d f9bc ba63 1c3c 342f b2bb bf7f 9fbd
00000340: 90c3 5d3d 6555 a6bb a49f d0bd 4b7a 4a3d
00000350: 1bf0 c13d afac c3bd ff39 613d 8046 50bd
00000360: e13f f5bc 6498 0bbc 7e8e 9cba 45d4 e0bd
00000370: e36a 613d 23de 923c 3a85 e3bd ed69 0fbe
00000380: 7e38 18bd 66c3 fc3d dfe9 8a3d 48bf 8a3d
00000390: 1e94 f13c bb52 9bbd 93a2 b2bc 7e9b 843d
000003a0: 8c2d b3bd 9989 e6bd 2270 223d 339e 81bd
000003b0: 0e6c 003e aa7b febc 0fbb 1fbd cfe2 98bd
000003c0: e8ac 9dbd b7a8 193d a2e3 f73c 28ee 6d3d
000003d0: 5843 94bc 03cd 4fbd d07d ddbd fffe 163d
000003e0: 1485 c93d 00ba 45bd 0590 a53d d9a3 8fbd
000003f0: 832d fd3d 0945 8abd bb65 083e 049f ca3d

fc2.bias f4 [64]
0.0062067425 0.069887735 -0.026836222 0.07192723 0.055049803 -0.06233183 -0.035541777 0.059335377
-0.085747145 0.042847287 -0.021550795 0.16161677 -0.08033062 0.030873217 0.113176845 -0.07481944
-0.039248925 0.048572607 -0.015415293 -0.008542103 -0.07680498 0.028775584 -0.02124162 -0.016275885
0.09001409 -0.062518924 0.119183324 0.047920287 0.047451828 -0.07657825 0.018027091 -0.08139976
0.026325865 0.017886672 0.018702215 0.070754215 0.025407052 -0.021242067 -0.0061583957 0.009865507
-0.0022974606 -0.070075974 0.010013587 -0.00430683 0.07135322 -0.008297908 0.06823686 0.02047974
-0.008909888 -0.08003772 -0.033740483 -0.0031752733 -0.054797318 -0.030202191 0.091087565 -0.040596534
-0.002274816 0.02205871 0.09955203 -0.07386466 0.076307885 0.024674607 0.05786312 -0.04349583
00000000: ee61 cb3b 4d21 8f3d a3d7 dbbc 954e 933d
00000010: e77b 613d a94f 7fbd 4194 11bd a709 733d
00000020: 339c afbd a380 2f3d 4b8b b0bc de7e 253e
00000030: 6184 a4bd d4e9 fc3c 43c9 e73d ef3a 99bd
00000040: 7bc3 20bd 12f4 463d 6d90 7cbc 2df4 0bbc
00000050: ee4b 9dbd c6ba eb3c e802 aebc 0155 85bc
00000060: 4f59 b83d ec09 80bd 6316 f43d 1048 443d
00000070: d95c 423d 0fd5 9cbd 8dad 933c ebb4 a6bd
00000080: 57a9 d73c 1287 923c 6335 993c 96e7 903d
00000090: 7322 d03c d803 aebc 5ecc c9bb efa2 213c
000000a0: fe90 16bb fe83 8fbd 0710 243c 4f20 8dbb
000000b0: a321 923d f3f3 07bc c4bf 8b3d 21c5 a73c
000000c0: c7fa 11bc d1ea a3bd 7633 0abd 3f18 50bb
000000d0: 2773 60bd 966a f7bc 1e8c ba3d 8d48 26bd
000000e0: 1415 15bb 78b4 b43c efe1 cb3d 5b46 97bd
000000f0: 4f47 9c3d 6722 ca3c e101 6d3d af28 32bd

action_head.weight f4 [5, 64]
0.06817523 0.002645395 -0.09794298 -0.02795756 0.07830576 -0.0076547046 -0.13318793 0.02249866
-0.044632394 -0.0520533 -0.06336271 -0.047812928 0.05854121 -0.021653367 -0.066510394 0.037138537
-0.027023701 0.005404501 -0.16925026 0.11657407 -0.06415104 0.0103616 -0.027199676 0.057933833
0.062717065 -0.108132094 -0.0020094623 0.08011732 -0.11129936 -0.08213824 0.014585025 -0.028103387
0.05389052 -0.0017828328 -0.11816293 0.08373318 0.10255607 0.008816987 0.06703638 0.06618336
0.053427447 -0.046453953 -0.11012167 0.0745674 0.039295413 -0.031202326 -0.098625466 0.02825936
0.046260715 0.008899683 0.11181022 -0.1175634 0.11659227 -0.16033095 -0.0117470175 0.094941095
-0.12425197 0.05843401 -0.12821203 0.09928724 0.04182812 -0.0015227137 -0.048069663 -0.0011270157
0.0039048109 0.07884768 -0.03205546 -0.019255856 0.13880953 -0.010472656 0.05497741 0.07060419
-0.00043867153 0.11211527 0.01915376 0.22600058 0.05885531 0.09256029 0.049740735 -0.035756383
-0.02902656 0.13470292 0.06404716 0.048575442 0.06500505 0.18522313 0.060939807 0.06731233
-0.09077801 -0.037556987 0.18855345 0.06546257 -0.09870019 0.09302778 -0.028986076 -0.06516099
0.018219782 0.18555063 0.052193865 0.121118836 0.058849465 -0.050685957 0.13540201 0.06390419
0.08262142 0.012756437 -0.0018706138 -0.08050128 0.1727426 0.10218508 0.036136907 -0.07716108
0.10706725 0.021976255 -0.051070556 0.031755757 0.1274899 0.18704848 0.13881661 -0.119249426
-0.07881549 -0.0052896603 0.16334812 0.097039245 0.16505857 0.020953363 -0.0042033917 0.008847703
-0.031101353 -0.020326294 -0.015116264 0.008195025 -0.0008527672 0.04078326 -0.114284776 -0.05178605
0.08428004 0.034980785 -0.07315654 -0.02557405 0.011399031 -0.06948207 -0.07725846 -0.05381967
-0.13327107 -0.1586255 -0.20499049 -0.11376736 0.10895936 -0.17076382 0.034246404 0.061854474
-0.11910904 -0.05642415 -0.07616826 -0.09275738 -0.013877577 -0.065827124 -0.07322855 -0.09721555
-0.124753 -0.18329605 0.016822724 -0.072050266 0.008579281 0.115821406 0.04397123 -0.07446801
0.08499972 0.045928225 -0.05469761 -0.013165027 -0.029421795 -0.07618005 0.0047783297 -0.14605857
-0.013455098 0.07003943 0.018399097 -0.0015423165 -0.10905041 -0.002806542 -0.13054396 -0.028686525
0.11072519 0.055745237 -0.15077658 0.063882135 -0.20029745 0.038531665 -0.060976315 0.05098714
0.010715676 0.15712494 0.15796614 0.08998884 -0.081620134 -0.030983634 0.17760828 -0.03694661
0.027539909 0.057066947 0.012434696 0.19650276 0.046720356 -0.050438747 0.054056183 -0.034867223
0.094326004 -0.03669793 0.15198715 0.084414035 -0.09307265 -0.002656631 -0.04028582 0.08831759
-0.0016916217 -0.04792013 0.12575223 0.106700025 0.18762997 0.030596457 0.11046678 0.107749656
0.17986363 -0.012444369 0.031399883 -0.00040018902 -0.021945294 0.01850606 0.1599664 0.1637614
-0.08833111 -0.035103872 0.014133595 0.12280865 0.10689329 -0.04027935 0.1538115 0.14004987
-0.050180398 -0.007587522 -0.09192769 0.11529778 -0.07967771 -0.022051869 0.17325102 0.108754635
-0.035481926 0.17924723 0.119335845 0.058320668 0.1675704 0.042957187 0.16414078 -0.13312088
00000000: 749f 8b3d 5d5e 2d3b 5496 c8bd 4107 e5bc
00000010: c55e a03d 51d4 fabb 6b62 08be 1c4f b83c
00000020: 75d0 36bd d735 55bd 4fc4 81bd 7dd7 43bd
00000030: e8c8 6f3d 6762 b1bc 9a36 88bd 941e 183d
00000040: cf60 ddbc 3e18 b13b f14f 2dbe 63be ee3d
00000050: 9f61 83bd b3c3 293c dbd1 debc 074c 6d3d
00000060: ce71 803d 5c74 ddbd 2fb1 03bb 8d14 a43d
00000070: ebf0 e3bd 1838 a8bd 07f6 6e3c 1339 e6bc
00000080: 4ebc 5c3d f1ad e9ba 68ff f1bd 4d7c ab3d
00000090: eb08 d23d 2075 103c 5f4a 893d 248b 873d
000000a0: bdd6 5a3d 8046 3ebd 7887 e1bd cbb6 983d
000000b0: 3af4 203d 059c ffbc 26fc c9bd 2c80 e73c
000000c0: e07b 3d3d facf 113c c2fc e43d 14c5 f0bd
000000d0: eec7 ee3d cc2d 24be 9076 40bc 7a70 c23d
000000e0: d177 febd 8058 6f3d 044a 03be 1c57 cb3d
000000f0: f653 2b3d cb95 c7ba b2e4 44bd 5fb8 93ba
00000100: dbe7 7f3b e47a a13d 964c 03bd 75be 9dbc
00000110: 1624 0e3e 8195 2bbc fe2f 613d ee98 903d
00000120: 7ffd e5b9 b19c e53d 59e8 9c3c b26c 673e
00000130: 4412 713d 4090 bd3d f1bc 4b3d 4975 12bd
00000140: 1cc9 edbc 90ef 093e 282b 833d 0bf7 463d
00000150: 5e21 853d 22ab 3d3e 059c 793d 0cdb 893d
00000160: d2e9 b9bd 5bd5 19bd 2814 413e 3d11 863d
00000170: 5323 cabd 5985 be3d 3574 edbc 2073 85bd
00000180: a741 953c fc00 3e3e 3cc9 553d 270d f83d
00000190: 230c 713d 149c 4fbd d3a6 0a3e 33e0 823d
000001a0: 6b35 a93d 6000 513c 622f f5ba dbdd a4bd
000001b0: 70e3 303e 6946 d13d 4b04 143d a106 9ebd
000001c0: 1346 db3d 8c07 b43c 5c2f 51bd 5312 023d
000001d0: b68c 023e a389 3f3e f125 0e3e 0b39 f4bd
000001e0: 046a a1bd e354 adbb bb44 273e 83bc c63d
000001f0: 1d05 293e 63a6 ab3c 9bbc 89bb f5f5 103c
00000200: 44c8 febc 5483 a6bc 35aa 77bc 6d44 063c
00000210: 3d8c 5fba 590c 273d 230e eabd 9c1d 54bd
00000220: 039b ac3d 0348 0f3d 19d3 95bd ac80 d1bc
00000230: 00c3 3a3c 9e4c 8ebd af39 9ebd 0472 5cbd
00000240: 3678 08be b96e 22be 07e9 51be ddfe e8bd
00000250: 1626 df3d b6dc 2ebe f545 0c3d 1e5b 7d3d
00000260: 71ef f3bd 021d 67bd 1bfe 9bbd 95f7 bdbd
00000270: c75e 63bc 5fd0 86bd daf8 95bd f218 c7bd
00000280: 807e ffbd f6b1 3bbe cfcf 893c 178f 93bd
00000290: 1d90 0c3c c633 ed3d 2d1b 343d af82 98bd
000002a0: 5514 ae3d 3c1f 3c3d 9a0a 60bd 20b2 57bc
000002b0: fa05 f1bc 4904 9cbd 8993 9c3b 6190 15be
000002c0: c572 5cbc d570 8f3d b4b9 963c 8e27 caba
000002d0: d255 dfbd f6ed 37bb 51ad 05be 0100 ebbc
000002e0: e3c3 e23d 1e55 643d 2d65 1abe a3d4 823d
000002f0: c61a 4dbe 61d3 1d3d 4dc2 79bd e4d7 503d
00000300: cd90 2f3c 5ce5 203e e0c1 213e 124c b83d
00000310: 7528 a7bd 64d1 fdbc f2de 353e 5455 17bd
00000320: 609b e13c 08bf 693d e5ba 4b3c 0538 493e
00000330: d85d 3f3d dc98 4ebd 046a 5d3d efd0 0ebd
00000340: fe2d c13d 9250 16bd 85a2 1b3e 44e1 ac3d
00000350: e09c bebd df1a 2ebb be02 25bd dadf b43d
00000360: 68b9 ddba e647 44bd 31c5 003e 8b85 da3d
00000370: 1222 403e 6ca5 fa3c 683c e23d daab dc3d
00000380: 2c2e 383e 77e3 4bbc 2a9d 003d 76d0 d1b9
00000390: 9ec6 b3bc 059a 973c 3bce 233e 12b1 273e
000003a0: f1e6 b4bd 14c9 0fbd 9890 673c 1a83 fb3d
000003b0: dfea da3d f6fb 24bd c380 1d3e 3c69 0f3e
000003c0: f689 4dbd bfa0 f8bb 9644 bcbd 3e21 ec3d
000003d0: 112e a3bd 1fa6 b4bc b768 313e c0ba de3d
000003e0: 7f55 11bd 968c 373e 5a66 f43d a7e1 6e3d
000003f0: 9397 2b3e e0f3 2f3d 8514 283e d750 08be

action_head.bias f4 [5]
-0.15904339 0.18163362 -0.12557772 -0.051892105 0.017936837
00000000: 45dc 22be 2afe 393e 7297 00be d18c 54bd
00000010: 46f0 923c
