logs/ppo_checkpoint_ep0.pth (torch, 451778 bytes, 28 tensors)

fc1.weight f4 [128, 147]
0.05215949 0.03118246 -0.03575828 0.03638972 -0.048325483 0.06812081 -0.073564015 0.030481718
-0.07468531 0.02638466 -0.023664355 -0.03845965 -0.0017771646 0.038980953 -0.05009268 0.021141127
0.06751822 0.00960339 0.07037403 0.060421452 0.07197611 0.0352571 -0.04746124 0.048134357
8.516014e-06 -0.07044684 -0.08044783 0.080830805 0.037384927 0.07638214 -6.0528982e-06 0.07564838
-0.043034956 -0.041111585 0.0058197156 0.062280137 0.014630899 -0.0387187 -0.029958017 -0.051962763
0.051070392 0.028008182 -0.01929498 0.024518006 0.06556979 0.073269844 -0.00717625 0.04908077
-0.06204664 0.005650945 -0.07198918 -0.046564713 0.037191197 -0.014459649 -0.07099682 0.03510669
-0.04806433 0.007422343 -0.024149526 0.013574691 -0.052347824 0.05635891 -0.04429448 -0.06288062
0.071073934 0.023584614 -0.04752738 -0.046940804 0.064349316 -0.073301576 0.03798589 -0.016780078
0.07592302 -0.005919397 0.029483365 -0.077356756 -0.044762976 -0.013154805 -0.06536649 0.021139838
0.05891134 0.036611125 -0.05408728 -0.04500413 -0.031919554 0.014808036 -0.04970137 0.078873254
-0.0007356927 -0.067161225 -0.011742413 0.011282273 -0.06520516 -0.068502605 0.0324632 -0.029718766
-0.01016776 0.008940592 0.019900331 -0.08134793 0.03761995 0.048491135 -0.054771774 -0.004379063
-0.028735623 0.06683692 0.019187324 -0.018251218 -0.002796625 0.027937092 -0.02936655 -0.07533736
0.08107653 -0.042502843 -0.029237002 0.003339894 -0.044707358 0.060717184 -2.4996698e-05 -0.010954212
-0.032475665 0.056168422 -0.015867516 -0.066478446 -0.077822536 -0.01734087 0.048413727 -0.04552321
-0.05157245 -0.02552143 0.00601884 0.066580795 -0.06406822 0.073254034 -0.014354143 0.03619822
-0.045595657 0.081441626 -0.057327304 0.018501863 0.03379353 0.02016633 -0.024356298 0.025566073
0.0038256347 0.036277786 -0.027926026 -0.070359185 -0.070014134 -0.051961634 -0.069345124 -0.0773992
0.060267925 0.013100576 0.06150134 0.0783382 -0.061878573 0.08123863 -0.01986976 -0.009195238
0.058319032 -0.0041469787 0.068741575 -0.027941834 0.0402492 -0.0036008358 0.04518997 0.03191358
0.07943856 -0.040962264 0.035741836 0.024871549 -0.016605139 -0.013911569 0.043737933 -0.041347068
0.024868948 -0.043201517 0.069176584 -0.023621999 0.0081491945 -0.029947184 -0.040571533 0.046331823
0.051013783 -0.0034842957 0.039310038 0.049509503 -0.025063261 0.06441093 -0.0103157535 -0.019210212
-0.04290851 0.05078754 -0.016197292 0.0742872 0.057912737 -0.0745736 0.0048464094 0.008824408
-0.02079611 -0.021648958 0.008946203 0.06293768 0.044410855 0.07134229 0.04251385 0.06992525
0.0693023 0.006017044 -0.04475463 0.018177249 -0.04462042 0.027200997 -0.055625148 0.031457067
-0.025074888 -0.0014331564 0.025582273 -0.06577454 -0.07365088 -0.027698858 0.07667051 0.014318481
0.074094124 0.025626197 -0.066174954 -0.00958014 -0.053263705 -0.07207901 -0.07647852 -0.06767188
-0.037327334 0.046190307 0.0337875 0.044694334 -0.058617085 0.055383645 0.016467378 -0.08168219
0.019799784 0.07282075 -0.003632029 -0.05435106 -0.049371846 0.044464163 0.039647803 -0.0057854503
0.044803217 0.027779015 0.053290453 0.023683643 -0.036048695 -0.010988586 -0.032218866 0.07467999
00000000: 30a5 553d 5c72 ff3c 4677 12bd 630d 153d
00000010: f1f0 45bd ec82 8b3d bba8 96bd ccb4 f93c
00000020: 9df4 98bd a424 d83c c0db c1bc de87 1dbd
00000030: c0ef e8ba 7eaa 1f3d fb2d 4dbd 2830 ad3c
00000040: fe46 8a3d 8957 1d3c 4220 903d 7c7c 773d
00000050: 3668 933d c069 103d b866 42bd 8828 453d
00000060: 00e0 0e37 6f46 90bd d5c1 a4bd 9f8a a53d
00000070: f020 193d 3d6e 9c3d 001a cbb6 8aed 9a3d
00000080: 6c45 30bd 9f64 28bd 50b3 be3b 7519 7f3d
00000090: 70b6 6f3c 8097 1ebd 846a f5bc e8d6 54bd
000000a0: 302f 513d 6a71 e53c 8210 9ebc fcd9 c83c
000000b0: 7449 863d 800e 963d c026 ebbb eb08 493d
000000c0: 9e24 7ebd 902b b93b 106f 93bd a4ba 3ebd
000000d0: cc55 183d 2ae8 6cbc c866 91bd 08cc 0f3d
000000e0: 1adf 44bd 2037 f33b 3ad5 c5bc 6168 5e3c
000000f0: ac6a 56bd 9ad8 663d 216e 35bd 8ec7 80bd
00000100: 368f 913d 8534 c13c 12ac 42bd 0045 40bd
00000110: 93c9 833d 231f 96bd 1897 1b3d 6076 89bc
00000120: 877d 9b3d 80f7 c1bb 1987 f13c 386d 9ebd
00000130: 6259 37bd 4087 57bc dede 85bd 742d ad3c
00000140: 044d 713d 8cf5 153d a08a 5dbd 4056 38bd
00000150: 14be 02bd 689d 723c aa93 4bbd 4d88 a13d
00000160: 80db 40ba d38b 89bd 4063 40bc 48d9 383c
00000170: 488a 85bd 184b 8cbd 22f8 043d c574 f3bc
00000180: ad96 26bc 907b 123c 0506 a33c be99 a6bd
00000190: 6017 1a3d a49e 463d 5e58 60bd 3e7e 8fbb
000001a0: f866 ebbc cce1 883d bc2e 9d3c 9483 95bc
000001b0: 9547 37bb 54dc e43c 1e92 f0bc 794a 9abd
000001c0: 740b a63d 7617 2ebd 7082 efbc 20e2 5a3b
000001d0: 101f 37bd 95b2 783d 00b0 d1b7 4c79 33bc
000001e0: 3405 05bd dc10 663d 98fc 81bc da25 88bd
000001f0: 6c61 9fbd 710e 8ebc 794d 463d 8c76 3abd
00000200: a23d 53bd 5112 d1bc b039 c53b 835b 883d
00000210: 3336 83bd 3606 963d a42d 6bbc 9644 143d
00000220: 83c2 3abd deca a63d 09d0 6abd 3891 973c
00000230: 166b 0a3d dc33 a53c dc86 c7bc f16f d13c
00000240: 80b7 7a3b 0498 143d 1fc5 e4bc 7a18 90bd
00000250: 9263 8fbd b9d5 54bd d104 8ebd 7983 9ebd
00000260: 80db 763d cca3 563c d4e8 7b3d c76f a03d
00000270: 6374 7dbd 7060 a63d e8c5 a2bc a0a7 16bc
00000280: f0df 6e3d 61e3 87bb 62c8 8c3d 46e6 e4bc
00000290: 58dc 243d 00fc 6bbb 1e19 393d d0b7 023d
000002a0: afb0 a23d 0cc8 27bd 0866 123d 6bbf cb3c
000002b0: 8007 88bc 59ed 63bc 8c26 333d 8b5b 29bd
000002c0: f7b9 cb3c 13f4 30bd 74ac 8d3d ec82 c1bc
000002d0: 3384 053c cc53 f5bc 562e 26bd 70c6 3d3d
000002e0: d4f3 503d c858 64bb 9003 213d 7aca 4a3d
000002f0: 7851 cdbc e1e9 833d 6803 29bc bc5e 9dbc
00000300: d5c0 2fbd 9806 503d 2fb0 84bc e323 983d
00000310: e835 6d3d 0bba 98bd a1ce 9e3b 4094 103c
00000320: 9b5c aabc 2859 b1bc 1893 123c 78e5 803d
00000330: 28e8 353d e81b 923d 0123 2e3d f834 8f3d
00000340: 5dee 8d3d a02a c53b a250 37bd 74e8 943c
00000350: e7c3 36bd a0d4 de3c 32d7 63bd 20d9 003d
00000360: da69 cdbc c0d8 bbba ea91 d13c cdb4 86bd
00000370: 46d6 96bd b7e8 e2bc 6e05 9d3d 1098 6a3c
00000380: a9be 973d 08ee d13c bc86 87bd 05f6 1cbc
00000390: 0b2b 5abd 299e 93bd c5a0 9cbd 8e97 8abd
000003a0: 8ce4 18bd 0c32 3d3d c364 0a3d 6811 373d
000003b0: 7818 70bd f6d9 623d 98e6 863c fe48 a7bd
000003c0: 2833 a23c 0c23 953d 5607 6ebb 389f 5ebd
000003d0: 223a 4abd 0e20 363d bc65 223d e093 bdbb
000003e0: 9483 373d d190 e33c 1747 5a3d 3304 c23c
000003f0: cca7 13bd 7809 34bc eef7 03bd d3f1 983d

fc1.bias f4 [128]
-0.03630799 0.062352367 -0.01612713 0.0026932817 -0.040796384 0.081347294 -0.08327234 -0.06406926
0.04232139 0.025280962 -0.003215192 -0.07296028 0.047212534 0.008004248 -0.044709027 0.012774842
-0.076522425 0.026962548 -0.06496275 -0.020631125 -0.056110557 -0.016649958 0.02419307 0.003089967
-0.07878164 -0.050413467 0.045082778 0.046239056 0.031638235 0.012109023 -0.027558759 -0.007017915
0.0179867 0.051658094 0.02106615 -0.0759314 0.07343895 0.0455077 -0.031910438 0.041186545
0.08054048 -0.03069935 -0.040734984 0.01590079 0.052925482 -0.055067357 0.059955735 0.0155247785
0.030639896 -0.040720113 0.018301107 -0.0015232726 0.07367543 0.029455803 0.0011659487 -0.026052993
-0.04509511 -0.072563805 0.053411864 0.008323622 -0.0596598 0.009639159 0.034255117 0.05588452
0.009195297 -0.0124225905 -0.08017811 0.025722845 -0.027171897 -0.060282324 0.053311937 0.05319601
0.02969265 0.06810093 0.01462811 0.007944412 0.0018295782 0.068411976 -0.058948644 0.017281262
0.07441642 -0.03402064 -0.030330513 -0.04486362 0.06592793 -0.039463498 0.02946965 0.071426004
-0.05889471 0.036615763 -0.051625337 -0.06870535 -0.045433432 -0.00458481 -0.07369847 -0.039346673
0.026394803 0.07442019 0.051482596 0.007321744 -0.02694311 0.043557584 0.053544823 0.058169726
0.035119735 0.065979876 0.06257566 -0.07821261 0.04471023 0.04758699 0.004215912 -0.07470817
-0.062393233 0.041083828 0.006888167 -0.016510831 0.034097992 0.045809764 0.06911979 -0.068591684
-0.025338886 -0.060448144 0.062276624 -0.0006152581 -0.026993006 0.07734118 0.0346902 0.035128377
00000000: b0b7 14bd 3265 7f3d 0b1d 84bc c581 303b
00000010: 1c1a 27bd 6999 a63d b08a aabd bf36 83bd
00000020: 3259 2d3d 051a cf3c f8b5 52bb 336c 95bd
00000030: ee61 413d 4024 033c d020 37bd 924d 513c
00000040: cab7 9cbd 90e0 dc3c 310b 85bd 9b02 a9bc
00000050: 2fd4 65bd 7e65 88bc 8c30 c63c 0b81 4a3b
00000060: 4558 a1bd 5a7e 4ebd b8a8 383d 2a65 3d3d
00000070: 1897 013d ec64 463c e8c2 e1bc 8af6 e5bb
00000080: d858 933c 7097 533d eb92 ac3c ec81 9bbd
00000090: 2967 963d 4866 3a3d 85b4 02bd 39b3 283d
000000a0: 68f2 a43d 347d fbbc bad9 26bd 6042 823c
000000b0: 64c8 583d 4f8e 61bd 2594 753d a45b 7e3c
000000c0: 8500 fb3c 22ca 26bd 34ec 953c 8ca8 c7ba
000000d0: 25e3 963d 4c4d f13c bfd2 983a 166d d5bc
000000e0: a6b5 38bd 559c 94bd 66c6 5a3d cd5f 083c
000000f0: d65d 74bd 90ed 1d3c 184f 0c3d 2be7 643d
00000100: dfa7 163c 1f88 4bbc 6c34 a4bd b7b8 d23c
00000110: 9997 debc 99ea 76bd 9e5d 5a3d 0fe4 593d
00000120: 003e f33c 8078 8b3d beaa 6f3c 4729 023c
00000130: 75ce ef3a 941b 8c3d 2274 71bd 6f91 8d3c
00000140: a367 983d 3a59 0bbd b277 f8bc eac2 37bd
00000150: 3905 873d 7aa4 21bd 566a f13c cc47 923d
00000160: 943b 71bd 69fa 153d 1775 53bd 64b5 8cbd
00000170: 6818 3abd 2d3c 96bb 39ef 96bd fa29 21bd
00000180: ea39 d83c 9d69 983d 6adf 523d 3eeb ef3b
00000190: ccb7 dcbc 7069 323d d151 5b3d 6143 6e3d
000001a0: b6d9 0f3d 7520 873d ab27 803d ef2d a0bd
000001b0: 1322 373d 93ea 423d a225 8a3b 9900 99bd
000001c0: 0c90 7fbd 8447 283d 22b6 e13b b941 87bc
000001d0: 56aa 0b3d 05a3 3b3d ad8e 8d3d cc79 8cbd
000001e0: 7f93 cfbc 7998 77bd c615 7f3d 4649 21ba
000001f0: 7020 ddbc 0d65 9e3d 5017 0e3d c6e2 0f3d

fc2.weight f4 [64, 128]
0.012555743 -0.07222139 -0.041425597 0.06920916 -0.06446098 0.064211205 0.042406775 0.08366047
-0.08090586 -0.04866873 -0.046932288 0.022691326 -0.06639233 0.058397498 -0.022741595 0.07654136
0.029693445 -0.020587966 -0.030884668 0.048392307 -0.026181595 0.043803763 0.046327922 -0.039235998
-0.07811796 0.08124085 -0.054898813 -0.059253097 -0.06621428 0.034347504 -0.0270632 -0.015740052
0.015398221 -0.07018841 -0.07991555 -0.056777943 0.033954762 0.007835193 -0.022329362 -0.029493492
0.03348316 -0.0073571815 0.04736556 -0.0024816617 0.072627194 0.061825607 -0.037574477 -0.011010466
-0.071960494 -0.07883198 -0.08134067 0.06731531 0.025223 0.035259984 -0.089298375 0.08492573
-0.026016396 -0.042030618 -0.031536892 0.03280248 0.029806433 0.01588026 -0.017759709 0.010489359
0.062326264 -0.041629028 0.071702264 0.045834936 0.033393715 -0.04725019 -0.076228775 -0.009140565
-0.021530513 -0.006864289 -0.08582247 0.020678991 0.046445448 0.008991491 0.06131825 -0.009895833
-0.06463732 0.01178483 -0.0037553716 0.017213717 -0.039774723 0.044970013 -0.08622546 0.06771264
-0.0519885 -0.023778912 -0.046879277 -0.012024076 0.018170472 0.016567482 0.07489296 0.043717526
-0.021210872 -0.009926613 -0.086845785 -0.06697462 0.07918736 -0.07854794 -0.011024803 -0.01343125
0.056859203 -0.023117887 0.07631523 -0.048033256 0.07201661 -0.0041188053 0.042765185 -0.049962804
0.010063631 -0.02421506 0.030563531 -0.027512219 -0.047947105 0.048822355 -0.026177075 -0.057123024
0.00921678 0.0639593 0.0038344772 -0.04739454 -0.019313602 -0.025573695 0.07651239 -0.08674733
0.0046814084 -0.04150614 0.06289407 -0.06443091 -0.02728255 0.0012004152 -0.040004976 0.08629852
-0.033381168 0.00059913844 0.06468647 -0.08478583 -0.07146861 0.06537398 -0.054509267 0.0359765
0.054143764 -0.082646556 -0.03269411 -0.0101505965 -0.043422937 0.021458521 -0.04461045 -0.008147955
0.087122135 0.06994269 0.046994813 0.017493911 -0.08687988 -0.022101767 0.06629076 0.043118887
-0.0010001436 -0.030352201 0.08825786 0.017959751 -0.072345704 0.070417695 0.010586917 -0.05819819
-0.08346139 -0.074123345 -0.08692588 -0.0015577674 -0.070278235 -0.03942535 0.05385276 -0.049293373
-0.026451476 0.061521463 0.056827836 0.047670282 0.066700004 0.07140916 -0.083214276 -0.06417829
0.0064201355 0.08034899 0.0773939 -0.07968941 0.021663196 -0.018064983 0.042371325 0.043985717
0.02439078 -0.036986325 0.029754452 0.03893604 -0.0098640025 0.056974567 0.08676649 -0.07380799
-0.026620086 0.08186317 -0.037931025 0.04735396 -0.03909353 -0.006591633 0.013809539 0.051732413
-0.06959602 -0.050053585 -0.0811967 -0.03640508 0.02825936 -0.073814064 -0.022808485 0.05152405
-0.08707733 0.018538669 -0.066635385 0.053474493 0.045245416 0.059206255 0.06909836 0.08820119
0.07434449 -0.056335565 0.05271498 -0.08320777 0.029248334 0.08218057 -0.014476776 -0.061061963
-0.08564144 0.057384036 0.010880917 -0.05580877 -0.053383093 -0.07341394 -0.019564785 0.0016242266
-0.020780377 -0.03889527 -0.078271806 -0.043542445 -0.07366073 -0.048160106 0.031385787 0.06840625
0.0039542466 0.087139 0.058323033 -0.085313976 0.015934087 0.076220684 0.04173609 0.068255045
00000000: 9ab6 4d3c cfe8 93bd e3ad 29bd 88bd 8d3d
00000010: 1e04 84bd 2a81 833d bab2 2d3d 2e56 ab3d
00000020: f9b1 a5bd dd58 47bd 123c 40bd 29e3 b93c
00000030: b4f8 87bd 3732 6f3d 954c babc b7c1 9c3d
00000040: ab3f f33c 18a8 a8bc d801 fdbc 0337 463d
00000050: c97a d6bc 936b 333d 59c2 3d3d edb5 20bd
00000060: 4ffc 9fbd 9a61 a63d 94dd 60bd 60b3 72bd
00000070: 5a9b 87bd f8af 0c3d a5b3 ddbc 48f1 80bc
00000080: d248 7c3c f1be 8fbd c4aa a3bd fd8f 68bd
00000090: 2614 0b3d 2e5f 003c 11ec b6bc 569c f1bc
000000a0: a325 093d 8314 f1bb 6402 423d 60a3 22bb
000000b0: 91bd 943d d93c 7d3d b2e7 19bd 3e65 34bc
000000c0: 0660 93bd a972 a1bd f095 a6bd 9cdc 893d
000000d0: 77a0 ce3c c66c 103d 11e2 b6bd 8bed ad3d
000000e0: 5620 d5bc 4c28 2cbd d42c 01bd e55b 063d
000000f0: 9f2c f43c 5217 823c cf7c 91bc 8fdb 2b3c
00000100: d349 7f3d 3383 2abd a3d8 923d 6abd 3b3d
00000110: d9c7 083d 6a89 41bd d51d 9cbd 4fc2 15bc
00000120: c260 b0bc d4ed e0bb b1c3 afbd fd66 a93c
00000130: 953d 3e3d 0c51 133c d828 7b3d 2222 22bc
00000140: 9260 84bd 2915 413c ae1c 76bb c803 8d3c
00000150: d2ea 22bd 7a32 383d f996 b0bd edac 8a3d
00000160: e5f1 54bd fecb c2bc 7c04 40bd a100 45bc
00000170: 3eda 943c 87b8 873c 7b61 993d 2611 333d
00000180: 6cc2 adbc 3ca3 22bc 34dc b1bd fd29 89bd
00000190: fc2c a23d bedd a0bd 60a1 34bc bf0e 5cbc
000001a0: 32e5 683d b961 bdbc 294b 9c3d 85be 44bd
000001b0: 727d 933d 0bf7 86bb 8c2a 2f3d cca5 4cbd
000001c0: eee1 243c a95e c6bc 5f60 fa3c 4e61 e1bc
000001d0: 2f64 44bd f3f9 473d 4e71 d6bc d5f9 69bd
000001e0: fa01 173c 18fd 823d da4b 7b3b c720 42bd
000001f0: 8f37 9ebc ed7f d1bc 87b2 9c3d 96a8 b1bd
00000200: 8066 993b 5802 2abd 9bce 803d 5af4 83bd
00000210: a87f dfbc 4057 9d3a 42dc 23bd 47bd b03d
00000220: b1ba 08bd 800f 1d3a 577a 843d 31a4 adbd
00000230: 225e 92bd cbe2 853d 1c45 5fbd 185c 133d
00000240: dac5 5d3d 9942 a9bd 42ea 05bd b04e 26bc
00000250: 40dc 31bd c8c9 af3c 72b9 36bd 007f 05bc
00000260: 176d b23d 1d3e 8f3d a27d 403d 644f 8f3c
00000270: 14ee b1bd c40e b5bc 73c3 873d 6e9d 303d
00000280: 4017 83ba 2ea5 f8bc 89c0 b43d 5420 933c
00000290: fc29 94bd 2737 903d c074 2d3c 3a61 6ebd
000002a0: ceed aabd fbcd 97bd 3206 b2bd 002e ccba
000002b0: 09ee 8fbd 7a7c 21bd b694 5c3d d9e7 49bd
000002c0: c4b0 d8bc eefd 7b3d 4ec4 683d ea41 433d
000002d0: 039a 883d f73e 923d 3f6c aabd e86f 83bd
000002e0: 0060 d23b 038e a43d b180 9e3d 3434 a3bd
000002f0: 0477 b13c 04fd 93bc 8e8d 2d3d 5e2a 343d
00000300: 2ccf c73c f97e 17bd 9cbf f33c 667b 1f3d
00000310: a09c 21bc 2a5e 693d a1b2 b13d a528 97bd
00000320: 5e12 dabc e1a7 a73d 905d 1bbd 3af6 413d
00000330: 8a20 20bd a0fe d7bb 6841 623c 5ee5 533d
00000340: 5c88 8ebd fd04 4dbd 754a a6bd 7e1d 15bd
00000350: 2c80 e73c d42b 97bd dcd8 babc e20a 533d
00000360: 9955 b2bd 68de 973c 2278 88bd 1208 5b3d
00000370: 4253 393d 4282 723d 7183 8d3d d3a2 b43d
00000380: ed41 983d 1fc0 66bd aaeb 573d d668 aabd
00000390: 349a ef3c 494e a83d 0030 6dbc 1c1c 7abd
000003a0: c764 afbd 860b 6b3d e045 323c bd97 64bd
000003b0: 3ba8 5abd 0c5a 96bd 5446 a0bc 00e4 d43a
000003c0: 9c3b aabc a650 1fbd f84c a0bd 9059 32bd
000003d0: 70db 96bd 8843 45bd 628e 003d 9318 8c3d
000003e0: a092 813b ef75 b23d 22e4 6e3d 18b9 aebd
000003f0: 3488 823c 9719 9c3d 76f3 2a3d 4dc9 8b3d

fc2.bias f4 [64]
-0.030126082 -0.0828202 -0.07404729 0.085205615 -0.06463562 -0.0075977705 -0.046041828 -0.08091602
-0.011277495 -0.077608556 0.07092926 -0.014568838 0.028831488 -0.019953407 0.024956677 -0.07527673
-0.07308423 -0.058195375 -0.049962305 -0.05147447 -0.011824074 -0.018523004 -0.019318864 -0.015726725
0.034350988 -0.03184228 0.0446642 0.05836642 -0.0019928417 0.02142793 -0.058801997 0.07858954
0.07977032 0.07298194 0.008560985 -0.0833919 -0.08583956 0.07096389 0.04112817 -0.011690616
0.03129397 -0.011017059 -0.037522063 -0.060593333 -0.020981437 -0.028805286 0.060736004 -0.03490162
-0.07325339 0.03740413 0.05428872 0.038418543 -0.035056725 -0.0414386 0.004595378 -0.031271737
-0.026135057 -0.0831683 -0.0040246854 -0.034585956 -0.010739151 -0.01386956 -0.00661813 0.043059614
00000000: f9ca f6bc a39d a9bd 1ba6 97bd 4880 ae3d
00000010: ae5f 84bd b8f6 f8bb 5b96 3cbd 4cb7 a5bd
00000020: 3ec5 38bc 3cf1 9ebd 5c43 913d 23b2 6ebc
00000030: 0330 ec3c 5475 a3bc f271 cc3c b02a 9abd
00000040: 2fad 95bd 465e 6ebd 46a5 4cbd e5d6 52bd
00000050: c3b9 41bc 8ebd 97bc 9842 9ebc 55d5 80bc
00000060: 9fb3 0c3d 0d6d 02bd cff1 363d a111 6f3d
00000070: 569a 02bb a089 af3c 5dda 70bd 8ef3 a03d
00000080: 9f5e a33d 8e77 953d 6043 0c3c 5fc9 aabd
00000090: a7cc afbd 8455 913d 0376 283d ff89 3fbc
000000a0: 1b2e 003d e580 34bc bcb0 19bd b730 78bd
000000b0: 43e1 abbc 10f9 ebbc 51c6 783d 00f5 0ebd
000000c0: e005 96bd 1335 193d d95d 5e3d c35c 1d3d
000000d0: a497 0fbd 85bb 29bd d394 963b cb16 00bd
000000e0: 3019 d6bc 2454 aabd 82e1 83bb 01aa 0dbd
000000f0: 44f3 2fbc 273d 63bc e6dc d8bb 475f 303d

action_head.weight f4 [5, 64]
0.037081413 -0.08961581 -0.035089612 -0.040642112 0.030372184 -0.0086879 -0.02704833 -0.084639
0.018095654 0.023342103 0.11414429 0.06988944 -0.047183923 0.09876474 0.03163014 0.07629138
0.10183682 -0.009733349 0.10422086 -0.08984992 -0.048610073 -0.120522946 0.05269453 -0.0048408033
-0.038087927 0.0095894905 -0.027142141 -0.11940474 0.061442908 0.11930426 0.076283485 0.088255905
0.12030472 -0.051457975 0.04543814 0.05465904 0.09167949 0.06925878 0.03149146 -0.05387844
-0.016396686 0.017544795 0.013456054 -0.060286067 -0.104769774 -0.08641823 0.07410942 0.07863882
-0.113867 0.11358811 0.0031482985 0.036712136 -0.059504844 0.031191805 0.1077609 0.039175056
0.0401271 -0.037534967 -0.05390459 0.121079594 0.044695374 0.117399424 -0.08835037 0.064173296
-0.009754376 -0.035708398 -0.06264529 0.048207074 -0.09882324 -0.029312994 0.067692 0.02179782
-0.048772473 -0.07603513 0.020810684 -0.05495949 -0.0036165891 -0.11282449 -0.03924559 -0.11693859
0.09116343 0.04224907 0.08227611 0.11805855 -0.0711859 0.074083954 0.057125762 -0.10387718
-0.11214812 -0.11835401 0.05401294 -0.0010024452 -0.08631083 -0.08488079 -0.016291454 -0.04125007
-0.04000274 -0.05807998 -0.12290339 -0.11733098 0.0077344817 -0.05045065 0.05374069 -0.11837033
0.010267457 -0.011388233 0.057480928 -0.089689456 0.09822576 0.025050212 -0.08416912 0.09259459
-0.06993279 0.0046313843 -0.11475893 -0.053618837 -0.0024322532 0.009454294 -0.0601704 -0.029278658
-0.08385641 -0.093113735 0.0389975 -0.02903241 0.067663826 -0.07880395 0.041130785 0.10581015
-0.04675186 0.036759853 -0.020420136 -0.08133931 0.0013801126 -0.014267748 0.098429084 -0.116013035
0.08074742 0.0972029 -0.0037461445 0.032645937 0.101453535 0.08664668 -0.11058534 0.10688469
0.060103703 -0.05862786 -0.0735793 -0.052371442 -0.11088098 -0.08128507 0.027920038 -0.034716994
0.09935992 -0.021873057 -0.11873549 0.063406326 0.10831261 0.08566878 0.010060206 0.03134746
0.09600324 0.09567424 -0.078266665 0.06731777 0.052723315 0.08386913 -0.005330281 0.08592129
0.00030648138 0.087018855 -0.10323947 0.05988151 -0.007886074 -0.06996269 0.011124871 0.084528096
-0.012630403 -0.12276865 -0.009221502 0.050360065 -0.038639005 -0.12222498 -0.024554454 -0.07516449
0.028066292 -0.035417303 -0.04445567 0.031031251 -0.047174267 0.02030502 0.010745555 0.05644233
-0.071678214 0.036657065 0.05855353 0.012389053 -0.08148364 0.03158544 -0.09372912 0.026502326
-0.0028751823 -0.01084438 0.09609426 -0.035125505 0.11441663 0.08262402 0.01859845 0.08710027
0.061488356 0.040626273 0.117955804 0.03715089 -0.02122135 0.059382685 -0.0070905685 0.071796484
0.04752878 0.0010734667 -0.12079202 0.0046065594 0.05667804 -0.08596681 -0.108458266 -0.09295362
-0.034951977 -0.07534965 0.0100673735 0.118525684 -0.081818745 -0.106592365 0.030376915 0.11291571
-0.10351437 -0.08079436 -0.051219642 0.018244809 0.117839806 0.07175632 0.06548417 -0.0599326
-0.07394947 -0.02911957 0.107973814 0.11394665 0.042087395 -0.10479877 -0.008860237 0.077193305
-0.060112048 -0.09349759 -0.11804693 -0.08282034 -0.011663802 -0.07698787 -0.102305576 -0.016510231
00000000: aee2 173d 7e88 b7bd 20ba 0fbd 5878 26bd
00000010: 16cf f83c b257 0ebc 7694 ddbc 3657 adbd
00000020: 563d 943c f037 bf3c 7bc4 e93d 3222 8f3d
00000030: ee43 41bd 2b45 ca3d 9b8e 013d a83e 9c3d
00000040: d38f d03d a078 1fbc bf71 d53d 3c03 b8bd
00000050: 5b1b 47bd bcd4 f6bd 38d6 573d 9a9f 9ebb
00000060: 1602 1cbd 3d1d 1d3c 3259 debc 798a f4bd
00000070: 8fab 7b3d cb55 f43d 843a 9c3d 83bf b43d
00000080: 5262 f63d 99c5 52bd 581d 3a3d 28e2 5f3d
00000090: 75c2 bb3d 8cd7 8d3d 30fd 003d a4af 5cbd
000000a0: 5852 86bc 1aba 8f3c c876 5c3c 86ee 76bd
000000b0: 8991 d6bd 0afc b0bd aec6 973d 640d a13d
000000c0: 1a33 e9bd e2a0 e83d af53 4e3b 775f 163d
000000d0: 5abb 73bd f585 ff3c bfb1 dc3d 0676 203d
000000e0: 505c 243d 44be 19bd 0fcb 5cbd 94f8 f73d
000000f0: 7f12 373d 1c6f f03d 0af1 b4bd 4a6d 833d
00000100: d1d0 1fbc f842 12bd 2c4c 80bd c874 453d
00000110: d763 cabd ce21 f0bc 1aa2 8a3d 5891 b23c
00000120: a5c5 47bd 4eb8 9bbd 2b7b aa3c 341d 61bd
00000130: 4c04 6dbb 8710 e7bd fcbf 20bd 807d efbd
00000140: e4b3 ba3d 5c0d 2d3d 6180 a83d aec8 f13d
00000150: eac9 91bd 54b9 973d b4fc 693d 8fbd d4bd
00000160: eaad e5bd 9663 f2bd ac3c 5d3d 7b64 83ba
00000170: bcc3 b0bd fbd5 adbd a875 85bc d5f5 28bd
00000180: ead9 23bd 46e5 6dbd c6b4 fbbd 3a4b f0bd
00000190: 8971 fd3b 57a5 4ebd 331f 5c3d 256c f2bd
000001a0: d638 283c b695 3abc 1f71 6b3d 1baf b7bd
000001b0: 962a c93d 1a36 cd3c dc60 acbd 3ba2 bd3d
000001c0: ec38 8fbd dec2 973b bb06 ebbd 6d9f 5bbd
000001d0: 7066 1fbb 2fe6 1a3c 3d75 76bd ccd9 efbc
000001e0: e9bc abbd 6ab2 bebd d8bb 1f3d 60d5 edbc
000001f0: 5593 8a3d f763 a1bd c178 283d feb2 d83d
00000200: e17e 3fbd 8091 163d 2148 a7bc 3995 a6bd
00000210: e5e4 b43a 46c3 69bc 3095 c93d 3e98 edbd
00000220: e75e a53d 5012 c73d e081 75bb bfb7 053d
00000230: dfc6 cf3d d173 b13d 917a e2bd 5ce6 da3d
00000240: 4d2f 763d c423 70bd beb0 96bd 7083 56bd
00000250: 9115 e3bd c978 a6bd 90b8 e43c 6833 0ebd
00000260: 377d cb3d 202f b3bc 982b f3bd 2ddb 813d
00000270: 00d3 dd3d 1d73 af3d 90d3 243c 3266 003d
00000280: 599d c43d dbf0 c33d 464a a0bd e6dd 893d
00000290: 67f4 573d 94c3 ab3d a3a9 aebb 80f7 af3d
000002a0: 3caf a039 f136 b23d 376f d3bd 5046 753d
000002b0: 9734 01bc 9948 8fbd 1745 363c 111d ad3d
000002c0: c0ef 4ebc 216e fbbd c815 17bc 5b46 4e3d
000002d0: ef43 1ebd 1751 fabd 6c26 c9bc d7ef 99bd
000002e0: 48eb e53c bc11 11bd 2617 36bd 4035 fe3c
000002f0: ce39 41bd b756 a63c 200e 303c 1330 673d
00000300: 07cc 92bd b825 163d d4d5 6f3d 74fb 4a3c
00000310: e5e0 a6bd bc5f 013d 0ef5 bfbd 681b d93c
00000320: 8e6d 3cbb a0ac 31bc 11cd c43d c3df 0fbd
00000330: 4453 ea3d c836 a93d c75b 983c a061 b23d
00000340: 37db 7b3d bc67 263d d092 f13d 882b 183d
00000350: 66d8 adbc 423b 733d 0058 e8bb 090a 933d
00000360: 8aad 423d 91b3 8c3a ce61 f7bd 9ff2 963b
00000370: 3c27 683d 5e0f b0bd 5e1f debd 785e bebd
00000380: ce29 0fbd eb50 9abd a0f1 243c 98bd f23d
00000390: 9690 a7bd 194d dabd 02d9 f83c 5a40 e73d
000003a0: 58ff d3bd 8377 a5bd b0cb 51bd 2376 953c
000003b0: ff55 f13d faf4 923d 911c 863d e37b 75bd
000003c0: d272 97bd 2a8c eebc 6021 dd3d dc5c e93d
000003d0: d563 2c3d bda0 d6bd 872a 11bc 8617 9e3d
000003e0: 0d38 76bd aa7b bfbd 97c2 f1bd b69d a9bd
000003f0: 8819 3fbc d1ab 9dbd 9685 d1bd 7740 87bc

action_head.bias f4 [5]
0.029477324 -0.050044622 -0.106750235 -0.07857609 0.05435015
00000000: 6e7a f13c 97fb 4cbd de9f dabd 80ec a0bd
00000010: 439e 5e3d

value_head.weight f4 [1, 64]
0.01365428 -0.03269252 -0.055736013 0.07404067 -0.11470832 -0.07440625 0.12302119 -0.08502053
0.03404532 -0.036645144 -0.07467636 -0.09528574 -0.033321302 0.027938124 0.04389408 0.106633574
0.04542843 -0.07748994 0.08467868 -0.098502174 -0.0637717 0.025290916 -0.060342506 0.08074982
-0.04119875 -0.118340805 -0.11114844 0.015299719 0.007197872 0.061184578 0.007179752 0.04348507
-0.10654193 -0.079298235 0.075886264 0.031843737 0.1001537 0.058632154 0.006804254 -0.088774264
-0.095962204 -0.094134815 -0.064582 0.09885601 0.038408767 0.040840793 0.08465058 0.009559791
-0.07911593 0.06897507 0.08928016 -0.08901804 0.02957375 -0.046159416 0.020114386 0.027300727
0.09494601 0.041382715 -0.012181912 0.0016160309 0.0024694277 0.027869614 0.09584001 -0.07582463
00000000: 34b6 5f3c 98e8 05bd 724b 64bd a3a2 973d
00000010: 32ec eabd 4e62 98bd 89f2 fb3d 3e1f aebd
00000020: 1b73 0b3d 3819 16bd ebef 98bd 2c25 c3bd
00000030: eb7b 08bd 7ede e43c 47ca 333d b462 da3d
00000040: 2913 3a3d 0cb3 9ebd 046c ad3d 82bb c9bd
00000050: bd9a 82bd e52e cf3c b429 77bd 2960 a53d
00000060: 05c0 28bd aa5c f2bd cba1 e3bd acab 7a3c
00000070: 20dc eb3b ae9c 7a3d 2044 eb3b 671d 323d
00000080: a832 dabd 1d67 a2bd 426a 9b3d 946e 023d
00000090: 621d cd3d 4528 703d 38f6 de3b 48cf b5bd
000000a0: d587 c4bd c1c9 c0bd 9143 84bd 0575 ca3d
000000b0: 8352 1d3d ad48 273d 495d ad3d aba0 1c3c
000000c0: 8807 a2bd cd42 8d3d 84d8 b63d 174f b6bd
000000d0: a644 f23c a811 3dbd edc6 a43c c6a5 df3c
000000e0: 0e73 c23d ec80 293d a496 47bc 00d1 d33a
000000f0: 1fd6 213b d14e e43c c447 c43d f249 9bbd

fc1.weight f4 [128, 147]
-0.024454858 -0.023374423 -0.0087469295 -0.0392503 0.06920777 -0.050873403 0.069913104 0.043719694
0.0650623 0.006993152 0.0006515831 0.078237854 -0.0061135823 0.025214605 -0.07117934 0.07884213
0.0060827956 0.051264673 -0.06478613 0.005198978 0.06986461 -0.02353677 -0.012788974 -0.01874058
0.06248431 -0.033901967 0.042901292 0.015139796 -0.0076371282 0.008984076 -0.055435017 -0.02860893
0.015379126 -0.04286181 -0.044881325 0.07073424 0.027241934 0.050573587 0.05363239 0.03609529
0.07510656 -0.0006706845 -0.06512844 0.03468158 -0.04585644 0.02402185 0.059577033 0.079776525
0.01610847 0.04111015 -0.05668802 -0.082245596 0.043034643 -0.032281805 0.06878905 0.032205246
-0.040372424 -0.0537642 -0.059858948 -0.0005896166 -0.026089344 0.04987079 -0.058219016 0.018855754
0.051951066 0.030034741 0.04800883 0.008468017 -0.06724115 0.0011427443 0.07337095 0.044378433
0.051119912 -0.049836222 -0.068029925 0.010579636 -0.0578852 -0.07944975 -0.05183519 0.08213426
0.03106406 0.03718477 0.06379646 0.04633874 0.06350647 -0.07665819 -0.053714886 0.046620384
-0.06240733 -0.040012177 0.07432903 0.03169167 -0.0064267237 -0.02190171 -0.050596815 0.031369645
0.03026109 0.018088289 0.008338945 0.022439212 0.056298867 -0.0007541601 -0.037898295 -0.029365234
-0.061695065 0.023428023 0.049916998 0.04509657 -0.026086897 -0.080078006 0.073509365 0.080060795
-0.031837426 0.036349423 -0.06475854 -0.07526908 -0.07880543 0.042666495 -0.07536781 0.006024286
-0.027218798 0.05476965 0.08188769 0.017844606 0.024614207 -0.061251096 -0.031837624 -0.05073748
0.019087628 0.03177792 0.057328165 -0.03175687 -0.0780078 0.02946496 -0.0010556147 0.03231029
0.040492855 0.06055565 -0.020219868 -0.050624855 0.005071819 0.0068484573 0.016336456 0.04888021
0.046805784 -0.015417241 -0.046264034 0.060699224 0.021724068 -0.00028113276 0.053042114 -0.019175477
-0.08091043 0.0059180483 -0.004279904 -0.006613984 0.04880965 0.056233168 0.041274212 0.07119245
0.059943214 -0.05830668 0.025083192 -0.034345813 -0.02771933 0.059600163 -0.017386846 0.046498824
-0.0067878445 -0.05218156 0.07114524 -0.017699394 -0.057140596 -0.057523366 -0.054330304 0.06178607
0.033822466 -0.06885357 0.0367029 0.04190791 0.0041772258 0.049715728 0.00075423694 -0.054251473
0.035528824 0.016668301 -0.026051886 -0.04644401 -0.032484416 0.06510542 0.002267979 -0.035795733
0.061190728 0.022968404 -0.014067419 0.026991604 0.022576675 0.07441796 -0.04138622 0.03342832
-0.076081656 0.061675604 -0.06087613 0.047824852 0.048696887 -0.011096701 -0.030351032 -0.07758896
-0.0029784143 -0.07035767 -0.04118871 0.048902854 -0.0059023276 -0.06319265 0.02915205 -0.06426467
-0.07810666 0.076804444 0.0018200577 0.03502647 -0.057084847 -0.049513116 -0.06347106 0.06153564
-0.06620271 0.052941263 -0.04617281 0.06768922 -0.07429318 0.06125225 0.048161432 -0.023358624
0.008097008 0.018384365 0.04399456 0.024438523 0.053053048 -0.024956193 0.075162634 -0.08123566
0.0693673 0.030966014 -0.0074551627 0.068353646 0.020882174 -0.013164995 -0.080976695 -0.048654694
0.0432627 -0.08021525 0.034196146 0.05961914 -0.06667519 -0.03087977 -0.040767916 0.06916635
00000000: 8e55 c8bc b87b bfbc 484f 0fbc ecc4 20bd
00000010: cebc 8d3d a160 50bd 9a2e 8f3d 6c13 333d
00000020: 623f 853d d026 e53b 00cf 2a3a 2b3b a03d
00000030: 7254 c8bb dc8e ce3c 79c6 91bd fc77 a13d
00000040: 3052 c73b e8fa 513d 97ae 84bd 305c aa3b
00000050: 2d15 8f3d 2fd0 c0bc d888 51bc d885 99bc
00000060: 8cef 7f3d cadc 0abd 44b9 2f3d e80c 783c
00000070: e040 fabb f231 133c d40f 63bd 465d eabc
00000080: bbf8 7b3c de8f 2fbd 7bd5 37bd 1ddd 903d
00000090: 7a2a df3c 4026 4f3d a3ad 5b3d a8d8 133d
000000a0: 78d1 993d e0d0 2fba 0f62 85bd 460e 0e3d
000000b0: f6d3 3bbd 79c9 c43c 0c07 743d e061 a33d
000000c0: e9f5 833c 1e63 283d b231 68bd 6170 a8bd
000000d0: 1845 303d ed39 04bd 46e1 8c3d a6e9 033d
000000e0: 8e5d 25bd da37 5cbd a82e 75bd 8090 1aba
000000f0: 52b9 d5bc 5045 4c3d 1077 6ebd 6277 9a3c
00000100: a4ca 543d 6b0b f63c e8a4 443d 70bd 0a3c
00000110: bab5 89bd 23c8 953a 8243 963d 29c6 353d
00000120: 1d63 513d 1121 4cbd 4653 8bbd 3656 2d3c
00000130: 0819 6dbd 8db6 a2bd 2351 54bd 0236 a83d
00000140: 0e7a fe3c 0f4f 183d b8a7 823d b1cd 3d3d
00000150: ae0f 823d f8fe 9cbd 2404 5cbd 04f5 3e3d
00000160: d49e 7fbd cfe3 23bd d239 983d 20cf 013d
00000170: 4497 d2bb 376b b3bc 9b3e 4fbd 757d 003d
00000180: 1be6 f73c e42d 943c 12a0 083c 70d2 b73c
00000190: a499 663d d4b2 45ba 3e3b 1bbd 5c8f f0bc
000001a0: f7b3 7cbd 20ec bf3c c475 4c3d 2eb7 383d
000001b0: 30b4 d5bc f0ff a3bd 148c 963d eaf6 a33d
000001c0: f667 02bd 22e3 143d 20a0 84bd ad26 9abd
000001d0: be64 a1bd 10c3 2e3d 705a 9abd 6067 c53b
000001e0: f5f9 debc 2456 603d bcb4 a73d da2e 923c
000001f0: bca3 c93c 6ee2 7abd 2b68 02bd 1bd2 4fbd
00000200: a85d 9c3c 9029 023d f0d0 6a3d 7e13 02bd
00000210: 8ec2 9fbd 8060 f13c 8d5c 8aba cb57 043d
00000220: d6db 253d 3409 783d 23a4 a5bc 025c 4fbd
00000230: 8031 a63b 0669 e03b 08d4 853c 9d36 483d
00000240: 6cb7 3f3d 9898 7cbc 5b7f 3dbd c09f 783d
00000250: acf6 b13c 0065 93b9 b042 593d e415 9dbc
00000260: 5eb4 a5bd 30ec c13b 703e 8cbb 1eba d8bb
00000270: a1ec 473d c054 663d 260f 293d 59cd 913d
00000280: 0487 753d fcd2 6ebd 447b cd3c 32ae 0cbd
00000290: a613 e3bc 4d1f 743d dc6e 8ebc 8d75 3e3d
000002a0: 916c debb 55bc 55bd 98b4 913d 52fe 90bc
000002b0: 420c 6abd 9f9d 6bbd 7489 5ebd 6413 7d3d
000002c0: 6d89 0a3d 1a03 8dbd c855 163d a1a7 2b3d
000002d0: 1ce1 883b b8a2 4b3d fcb7 453a cb36 5ebd
000002e0: ac86 113d f68b 883c c46a d5bc 133c 3ebd
000002f0: 610e 05bd fe55 853d 60a2 143b 8c9e 12bd
00000300: 21a3 7a3d 3c28 bc3c 087b 66bc 7f1d dd3c
00000310: b8f2 b83c 7268 983d 9984 29bd 22ec 083d
00000320: b3d0 9bbd 8f9f 7c3d 4059 79bd fee3 433d
00000330: 6376 473d f0ce 35bc baa2 f8bc f6e6 9ebd
00000340: 8031 43bb af17 90bd 7eb5 28bd 5c4e 483d
00000350: 5068 c1bb 266b 81bd 48d0 ee3c 329d 83bd
00000360: 62f6 9fbd a64b 9d3d 018f ee3a ea77 0f3d
00000370: cdd1 69bd 44ce 4abd 1dfd 81bd cc0c 7c3d
00000380: 4995 87bd f0d8 583d b31f 3dbd a5a0 8a3d
00000390: 0627 98bd a4e3 7a3d ec44 453d 965a bfbc
000003a0: 50a9 043c cf9a 963c a433 343d 4c33 c83c
000003b0: 274e 593d ee70 ccbc deee 993d e25e a6bd
000003c0: 7110 8e3d 70ac fd3c 704a f4bb fffc 8b3d
000003d0: 1811 ab3c feb1 57bc 1cd7 a5bd 254a 47bd
000003e0: 3b34 313d e547 a4bd 4211 0c3d 3333 743d
000003f0: 018d 88bd 92f7 fcbc 42fc 26bd 16a7 8d3d

fc1.bias f4 [128]
0.057814512 -0.03785415 -0.045118306 0.052870225 -0.052266657 -0.011408349 0.07551659 0.0066051325
0.03585314 0.0134928925 -0.0023816102 -0.060703915 0.060357146 0.020255463 0.046429396 0.019754494
0.024451531 -0.07425525 -0.029768677 -0.041924037 -0.0005785198 -0.005835915 0.056801878 -0.07370727
-0.027729752 -0.0021177288 -0.06808838 0.019455979 0.032395672 0.034683153 0.011845196 -0.041441135
-0.022348937 -0.048014484 0.033195004 0.028308213 0.001426625 0.07844516 -0.07837255 0.014788727
-0.0442398 0.01674922 0.04619957 0.030951247 -0.079665735 0.035795223 0.07687086 0.043033782
0.051095657 -0.054931846 0.022643156 0.02392187 0.039045338 0.07568095 0.08329927 0.044305526
-0.06417348 0.078268446 -0.05695349 0.013626472 -0.0397482 -0.07709944 0.03159997 -0.06823028
-0.03454279 -0.05198514 -0.013066796 -0.037365984 0.053928304 -0.0411548 0.044775046 0.012500656
0.009980942 0.074533515 -0.031903125 0.002769131 -0.039404776 0.048653536 0.06154075 -0.020401243
0.058973305 0.030845832 0.061179306 -0.06786521 -0.029388431 -0.061030675 0.07027752 -0.06993172
0.031228663 -0.008753935 -0.05708045 -0.029920243 -0.06309739 -0.0568008 -0.043927085 -0.014560731
-0.082509875 0.041122083 0.02904064 0.066122346 0.029750839 -0.071521856 -0.012822177 0.010946425
0.027944129 -0.054552585 0.043980323 -0.042589724 -0.043114383 -0.043061595 -0.022358097 0.047136825
0.023595426 -0.021840181 -0.044170585 -0.0013275803 -0.0068874513 0.07980015 0.062040556 0.032602686
0.07175249 0.063287795 0.013244978 -0.032838263 0.05425588 0.06744129 -0.04610139 0.028823026
00000000: e9ce 6c3d f40c 1bbd f9cd 38bd 738e 583d
00000010: 9015 56bd 15ea 3abc 71a8 9a3d de6f d83b
00000020: beda 123d 4b11 5d3c ca14 1cbb aba4 78bd
00000030: 0e39 773d c9ee a53c c02c 3e3d 2dd4 a13c
00000040: 944e c83c 2313 98bd 71dd f3bc 8ab8 2bbd
00000050: cea7 17ba 343b bfbb 16a9 683d d6f3 96bd
00000060: 8129 e3bc 98c9 0abb ec71 8bbd 2562 9f3c
00000070: 53b1 043d ec0f 0e3d 5a12 423c 2ebe 29bd
00000080: 1e15 b7bc d6aa 44bd 7cf7 073d a0e6 e73c
00000090: 97fd ba3a dba7 a03d ca81 a0bd 6b4c 723c
000000a0: cb34 35bd a935 893c c33b 3d3d 788d fd3c
000000b0: ca27 a3bd 039e 123d 786e 9d3d 3144 303d
000000c0: ae49 513d 3700 61bd 247e b93c ccf7 c33c
000000d0: 01ee 1f3d 9dfe 9a3d cf98 aa3d b679 353d
000000e0: 636d 83bd 354b a03d 1048 69bd 9141 5f3c
000000f0: 02cf 22bd 50e6 9dbd f86e 013d 51bc 8bbd
00000100: be7c 0dbd 5fee 54bd 1d16 56bc 130d 19bd
00000110: ede3 5c3d f091 28bd 0a66 373d 8dcf 4c3c
00000120: 1b87 233c 07a5 983d daac 02bd 4f7a 353b
00000130: e766 21bd ee48 473d 2712 7c3d 8220 a7bc
00000140: fe8d 713d 66b0 fc3c 2797 7a3d eafc 8abd
00000150: 02c0 f0bc 4dfb 79bd a9ed 8f3d 5d38 8fbd
00000160: 41d3 ff3c aa6c 0fbc 31cd 69bd 4c1b f5bc
00000170: 3439 81bd f5a7 68bd e3ec 33bd 2290 6ebc
00000180: f0fa a8bd a16f 283d a3e6 ed3c 276b 873d
00000190: 08b8 f33c 0d7a 92bd 1c14 52bc a258 333c
000001a0: 16eb e43c 8872 5fbd b624 343d 9072 2ebd
000001b0: b598 30bd 5b61 30bd 5428 b7bc 8b12 413d
000001c0: 324b c13c 2eea b2bc 37ec 34bd 3402 aeba
000001d0: 21b0 e1bb 436e a33d 3d1e 7e3d 658a 053d
000001e0: f8f2 923d 089d 813d 7701 593c 6a81 06bd
000001f0: 6a3b 5e3d a91e 8a3d d0d4 3cbd 441e ec3c

fc2.weight f4 [64, 128]
0.026287923 -0.017160933 -0.06550431 0.0055755293 -0.04657752 0.002570825 0.0025778282 0.086171344
-0.021434454 -0.07133171 0.05302019 -0.005495388 0.025708957 0.08265601 -0.08607653 -0.037817974
0.08438175 -0.08303535 -0.038164794 0.031742305 -0.052229755 -0.07257675 -0.016122263 -0.004714694
-0.028564142 0.02018031 -0.07963233 -0.07791241 0.0715541 0.034474917 0.0072558243 -0.06335117
-0.016400553 -0.01985961 -0.086875506 0.073486075 0.034632403 0.072455384 -0.0055700573 -0.08497923
0.08541856 -0.04582105 -0.017312868 0.06396995 -0.04641907 -0.009360358 0.045856595 -0.002191389
0.042186376 -0.06382333 -0.055304803 0.07087207 -0.07547172 0.0030099354 0.0058069844 0.04993127
-0.066853575 0.012519219 -0.027892467 0.026951926 0.035543907 -0.03819433 0.022166083 -0.020975966
0.040712994 -0.027507948 0.033872277 0.086765714 -0.03640685 0.029867 -0.039817076 0.029711993
0.0029440932 0.03057775 0.013411859 0.050893996 0.046458356 -0.016419964 -0.06787288 0.082063116
0.062157456 0.04591341 0.009800927 0.058402 0.00907063 0.040224247 0.057550687 -0.088947386
-0.017512389 0.023405857 0.0750963 0.015184207 -0.03971017 0.017315375 -0.022950944 -0.030461943
-0.040446024 0.014501558 0.071283564 -0.07312093 0.06581937 0.060669456 -0.0075361095 0.07938691
-0.0724916 -0.07364577 -0.0010282584 -0.017759396 -0.08388943 0.049545195 -0.008654541 -0.03518231
0.08199513 0.009189288 -0.005095663 -0.03609782 -0.056656335 -0.04509188 -0.073768295 -0.023541983
0.07839584 0.038030583 -0.04112554 0.01873746 0.03961967 0.08024053 -0.0655733 0.028932136
-0.015910756 0.01277149 -0.020869428 0.07996077 -0.03474074 -0.030002376 0.086879306 0.05928055
0.056634896 0.057177056 0.08933345 0.06736642 0.00237643 -0.03868991 0.055909038 -0.036402285
-0.06623596 -0.087912135 0.06764285 0.059645083 0.08230669 -0.048809204 -0.036163718 -0.020918325
0.07327601 0.07825329 0.080759004 0.032337442 -0.06854469 -0.022566047 -0.06376168 0.020342253
0.07899659 -0.05585076 0.048500184 0.033747017 -0.075599074 -0.06340815 0.07048557 -0.012125031
0.04389745 -0.043365438 0.043784596 -0.04680928 0.006582166 -0.022866333 -0.06014176 0.0669176
0.0072825323 0.007866513 0.03270782 0.05135063 -0.08684683 0.06606919 -0.07862409 -0.084146634
0.07954 -0.063356966 0.073150955 -0.032503806 0.07864103 0.049224507 -0.06795215 0.040123615
-0.06096637 -0.040905233 0.0758571 -0.034830064 -0.014819318 0.009742037 0.02930469 0.03775325
-0.04483949 -0.0665185 0.044932988 -0.04190077 0.042873528 -0.07268136 -0.07829543 -0.03890726
0.04895407 -0.009480988 -0.05548282 0.055768065 0.004884644 -0.06871562 0.06793029 -0.080342665
-0.024606712 0.013348742 0.061418165 -0.022414038 -0.044045366 -0.06273066 -0.08399659 -0.07720675
-0.0026459792 0.06664275 0.0007030857 -0.0056578675 0.05314651 -0.052426014 0.02598344 0.08916701
-0.06927824 -0.07047381 -0.04012272 -0.02667772 0.035894405 0.014230814 0.027579876 -0.087650396
-0.030705508 -0.027966209 0.04895503 0.028665066 -0.078098424 -0.040956173 -0.08280947 0.026589507
0.02980593 -0.034106057 0.01931615 -0.026093187 0.03922003 -0.046712402 0.08724404 0.06266966
00000000: c559 d73c 1695 8cbc 2027 86bd eeb2 b63b
00000010: 12c8 3ebd 497b 283b c8f0 283b 9a7a b03d
00000020: 4f97 afbc 5c16 92bd b32b 593d a812 b4bb
00000030: 979b d23c 8e47 a93d e448 b0bd 05e7 1abd
00000040: 57d0 ac3d 700e aabd b052 1cbd 3804 023d
00000050: deee 55bd 1ea3 94bd d612 84bc b87d 9abb
00000060: 59ff e9bc 2d51 a53c 4616 a3bd 8b90 9fbd
00000070: f58a 923d 9235 0d3d 44c2 ed3b 42be 81bd
00000080: 745a 86bc 9fb0 a2bc c9eb b1bd de7f 963d
00000090: b5da 0d3d 7d63 943d 0785 b6bb 9709 aebd
000000a0: edef ae3d daae 3bbd b7d3 8dbc ad02 833d
000000b0: ec21 3ebd 305c 19bc 20d4 3b3d 689d 0fbb
000000c0: 9fcb 2c3d ceb5 82bd 4a87 62bd 6025 913d
000000d0: eb90 9abd 5642 453b 8448 be3b bb84 4c3d
000000e0: 87ea 88bd 691d 4d3c be7e e4bc 49ca dc3c
000000f0: 7d96 113d a871 1cbd a595 b53c cad5 abbc
00000100: abc2 263d 5958 e1bc a8bd 0a3d 39b2 b13d
00000110: 591f 15bd a4ab f43c 3b17 23bd 9166 f33c
00000120: b0f1 403b 317e fa3c 6abd 5b3c 3976 503d
00000130: 1e4b 3e3d 2983 86bc f000 8bbd b510 a83d
00000140: d198 7e3d b30f 3c3d 1194 203c f036 6f3d
00000150: fb9c 143c 2ec2 243d 45ba 6b3d 0c2a b6bd
00000160: 2476 8fbc a4bd bf3c 17cc 993d 2ec7 783c
00000170: 22a7 22bd f9d8 8d3c 9e03 bcbc 538b f9bc
00000180: bbaa 25bd f197 6d3c 1efd 913d 6dc0 95bd
00000190: 4ecc 863d 8980 783d 78f1 f6bb 9b95 a23d
000001a0: 7a76 94bd 98d3 96bd a0c6 86ba 277c 91bc
000001b0: 39ce abbd e7ef 4a3d c7cb 0dbc 531b 10bd
000001c0: 10ed a73d ab8e 163c 85f9 a6bb 4fdb 13bd
000001d0: 7910 68bd 43b2 38bd d513 97bd 1edb c0bc
000001e0: 008e a03d f5c5 1b3d 4173 28bd 4d7f 993c
000001f0: 3c48 223d 2655 a43d 4b4b 86bd 1603 ed3c
00000200: 4657 82bc 833f 513c 5df6 aabc 79c2 a33d
00000210: 4e4c 0ebd 8bc7 f5bc c7ed b13d 29d0 723d
00000220: fef9 673d 7d32 6a3d 75f4 b63d 68f7 893d
00000230: e1bd 1b3b 5079 1ebd e000 653d 901a 15bd
00000240: b8a6 87bd 470b b4bd 5688 8a3d 674e 743d
00000250: 6990 a83d 29ec 47bd 6820 14bd e85c abbc
00000260: bc11 963d 4343 a03d fa64 a53d 4474 043d
00000270: 2961 8cbd 6edc b8bc 7c95 82bd cca4 a63c
00000280: f7c8 a13d c4c3 64bd 21a8 463d 503a 0a3d
00000290: b0d3 9abd 22dc 81bd bd5a 903d 11a8 46bc
000002a0: d0cd 333d f59f 31bd 7a57 333d 16bb 3fbd
000002b0: 36af d73b 2d52 bbbc 3557 76bd 180c 893d
000002c0: 4fa2 ee3b 8ce2 003c a3f8 053d 0a55 523d
000002d0: c0dc b1bd 494f 873d ab05 a1bd 1255 acbd
000002e0: dee5 a23d 4cc1 81bd 2bd0 953d b622 05bd
000002f0: 8c0e a13d a39f 493d 7f2a 8bbd a958 243d
00000300: dfb7 79bd 3f8c 27bd f85a 9b3d f8a9 0ebd
00000310: bacc 72bc 119d 1f3c 6410 f03c 27a3 1a3d
00000320: 9da9 37bd da3a 88bd a70b 383d 24a0 2bbd
00000330: 279c 2f3d f7d9 94bd 5b59 a0bd 385d 1fbd
00000340: 1084 483d 2556 1bbc f441 63bd 0e6d 643d
00000350: 5d0f a03b c6ba 8cbd 091f 8b3d b28a a4bd
00000360: 0494 c9bc afb4 5a3c 9d91 7b3d a59d b7bc
00000370: ea68 34bd ef78 80bd 6706 acbd 931e 9ebd
00000380: 2a68 2dbb fe7b 883d 484f 383a a265 b9bb
00000390: 28b0 593d a9bc 56bd 39db d43c 319d b63d
000003a0: c0e1 8dbd 9354 90bd b957 24bd 3c8b dabc
000003b0: 0306 133d 5c28 693c 31ef e13c 0d82 b3bd
000003c0: 1e8a fbbc 6419 e5bc 1285 483d 00d3 ea3c
000003d0: 11f2 9fbd a9c1 27bd 0398 a9bd 3dd2 d93c
000003e0: 912b f43c cbb2 0bbd e73c 9e3c 61c1 d5bc
000003f0: 2fa5 203d 8155 3fbd 01ad b23d f358 803d

fc2.bias f4 [64]
0.01932139 0.030338174 -0.03918442 0.041449662 0.07754025 -0.056453727 -0.07193924 0.046776716
-0.08054043 0.025161078 -0.052625157 0.06691771 -0.08033062 0.00519541 0.08425503 -0.07392033
-0.058018368 0.022121001 -0.06967966 -6.794196e-05 -0.06503113 0.024861459 -0.013623102 -0.002999615
0.081777304 -0.05309493 0.08467455 0.019067619 0.01727419 -0.066945665 0.01293657 -0.07366096
0.009072918 -0.019314814 -0.020839224 0.040205754 0.016577516 -0.014615887 -0.021181691 -0.005030948
0.0003062263 -0.070075974 0.0050682398 -0.02802227 0.06425404 -0.018312538 0.040449988 0.0022225196
-0.025004711 -0.07004314 -0.028735146 -0.023502517 -0.044818085 -0.06186128 0.03557444 -0.04985381
0.003995754 -0.0049499907 0.07448325 -0.06663482 0.059593294 0.002566861 0.053846125 -0.044911206
00000000: e447 9e3c c387 f83c d87f 20bd 1fc7 293d
00000010: 6ccd 9e3d 063c 67bd e154 93bd f198 3f3d
00000020: 62f2 a4bd 9b1e ce3c 7a8d 57bd 270c 893d
00000030: 6184 a4bd 423e aa3b e78d ac3d 8b63 97bd
00000040: aba4 6dbd 1a37 b53c 36b4 8ebd 107c 8eb8
00000050: 0b2f 85bd 42aa cb3c 6e33 5fbc 3095 44bb
00000060: dc7a a73d 127a 59bd da69 ad3d b233 9c3c
00000070: 9a82 8d3c cf1a 89bd e8f3 533c 8fdb 96bd
00000080: 94a6 143c 1a3a 9ebc 05b7 aabc caae 243d
00000090: 92cd 873c 7977 6fbc 3a85 adbc a7da a4bb
000000a0: 008d a039 fe83 8fbd 7a13 a63b f68e e5bc
000000b0: 9f97 833d 2d04 96bc e3ae 253d b1a7 113b
000000c0: aed6 ccbc c772 8fbd f865 ebbc 5a88 c0bc
000000d0: 2b93 37bd 4162 7dbd 81b6 113d 8233 4cbd
000000e0: d0ee 823b 8833 a2bb ad8a 983d d677 88bd
000000f0: 1918 743d c838 283b c18d 5c3d d0f4 37bd

action_head.weight f4 [5, 64]
0.106453195 0.018110303 -0.05388146 -0.008640779 0.09811757 0.015489266 -0.06905557 0.07208416
-0.024848968 -0.004820956 -0.032983437 0.033615 0.05854121 -0.010391925 -0.049459204 0.035975877
0.027519252 0.020076333 -0.09183422 0.12063054 -0.076601885 0.059075423 -0.031732537 0.06047829
0.07297685 -0.11237318 0.066160165 0.099872 -0.08168019 -0.09298446 0.068138465 -0.027686328
0.104121834 0.07019548 -0.09814235 0.08866359 0.110251926 0.02246145 0.1155809 0.1177433
0.07234661 -0.046453953 -0.057324298 0.084938146 0.09081465 0.01992278 -0.05346646 0.047321666
0.06443964 0.010859549 0.106810056 -0.05421997 0.121454254 -0.10495867 0.021555278 0.1048094
-0.12388748 0.06766938 -0.0706191 0.0920818 0.09309962 0.056349047 0.0060021747 0.015887901
-0.064790815 0.047620043 -0.115558155 -0.035228334 0.09851847 -0.010008902 -0.040473342 -0.019621193
-0.012842149 0.027703939 -0.00054929464 0.11042463 0.05885531 0.06986196 0.026932366 -0.038997896
-0.10997654 0.113535784 -0.04776132 0.0539265 0.07916991 0.09243238 0.0668425 0.06784319
-0.09382922 -0.031570937 0.0832 0.05206716 -0.120837905 0.098440945 -0.09708969 -0.067688234
-0.07746882 0.108838655 0.038474143 0.110491805 0.04728862 -0.05271337 0.051987365 -0.025690714
0.07978013 0.012756437 -0.076677136 -0.08483322 0.08295565 0.021121033 -0.05100827 -0.09616745
0.09608446 0.010430187 -0.046067532 -0.04465903 0.12202403 0.0933586 0.09402718 -0.116370596
-0.0826139 -0.0031923912 0.065510415 0.104212716 0.06841012 -0.06606119 -0.095308736 -0.03955269
0.03606472 0.05310783 0.065314546 0.0720112 0.030437876 0.034778703 -0.03130226 0.022796353
0.06756888 0.1164812 -0.015327969 0.092804916 0.011399031 -0.0063628247 -0.016703272 -0.039878704
-0.064081505 -0.1064469 -0.10433993 -0.122184426 0.09961921 -0.08297417 0.040891506 0.07377536
-0.06993265 -0.06659312 0.018492851 -0.036348913 0.035400353 -0.0681015 -0.00052444066 -0.09030726
-0.04184655 -0.0884173 0.06796495 -0.01860432 0.05665875 0.10989873 0.12146837 0.008331373
0.072637185 0.045928225 0.009751435 0.05365945 0.05670745 -0.00033114688 0.08984748 -0.10004465
0.034548666 0.081065744 0.02340168 0.07664283 -0.09965843 0.08539506 -0.05563626 0.021974696
0.113474295 0.10612688 -0.05985562 0.07103567 -0.10524779 0.10546271 0.02121424 0.04814741
-0.036925793 0.07790818 0.101237 0.0157712 -0.11320997 -0.0324135 0.10467059 -0.10433023
0.015969604 -0.0012398807 -0.071233556 0.094846286 0.046720356 -0.11107968 -0.021715771 -0.036727965
0.021430947 -0.09939163 0.082516804 0.083924286 -0.088713855 -0.060834188 -0.034354154 0.08433926
-0.060217507 -0.049932923 0.048434686 0.040050507 0.1177949 0.020271175 0.053213127 0.106531456
0.11643955 -0.12348073 -0.034260765 -0.059863836 -0.07668395 0.014152108 0.08962445 0.099273905
-0.110821515 -0.035103872 -0.043478094 0.042423204 0.041566953 -0.116509065 0.09412859 0.088644095
-0.10666203 0.003524065 -0.09693213 0.034026686 -0.08229998 -0.085622676 0.082046814 0.045562744
-0.042780057 0.11955858 0.050938025 0.06548463 0.09771372 -0.013817067 0.09378905 -0.09667508
00000000: 2204 da3d 0f5c 943c ceb2 5cbd 0e92 0dbc
00000010: ddf1 c83d b1c6 7d3c 026d 8dbd dca0 933d
00000020: 1090 cbbc 1cf9 9dbb a419 07bd e2af 093d
00000030: e8c8 6f3d e542 2abc bc95 4abd 715b 133d
00000040: 0e70 e13c 1f77 a43c 9413 bcbd 250d f73d
00000050: 73e1 9cbd 12f9 713d faf9 01bd 15b8 773d
00000060: e374 953d e923 e6bd fb7e 873d b189 cc3d
00000070: f247 a7bd a36e bebd 2e8c 8b3d 70ce e2bc
00000080: d43d d53d a6c2 8f3d dbfe c8bd 4295 b53d
00000090: c3cb e13d 1301 b83c aeb5 ec3d 6623 f13d
000000a0: 762a 943d 8046 3ebd e2cc 6abd 0df4 ad3d
000000b0: 08fd b93d 1935 a33c a6ff 5abd 5dd4 413d
000000c0: eef8 833d 40ec 313c 3bbf da3d c215 5ebd
000000d0: 02bd f83d 92f4 d6bd b294 b03c 50a6 d63d
000000e0: b8b8 fdbd 3e96 8a3d bfa0 90bd 6295 bc3d
000000f0: 03ab be3d 42ce 663d e4ad c43b 5827 823c
00000100: 0cb1 84bd 3c0d 433d c1a9 ecbd 964b 10bd
00000110: 0dc4 c93d 61fc 23bc 60c7 25bd a0bc a0bc
00000120: e067 52bc 5ff3 e23c 8afe 0fba 4f26 e23d
00000130: 4412 713d ca13 8f3d 44a1 dc3c 42bc 1fbd
00000140: 613b e1bd 7385 e83d 60a1 43bd 09e2 5c3d
00000150: d523 a23d 304d bd3d b8e4 883d 5ff1 8a3d
00000160: 8929 c0bd 8750 01bd c364 aa3d 6044 553d
00000170: dd79 f7bd 689b c93d f6d6 c6bd 21a0 8abd
00000180: f9a7 9ebd cde6 de3d 1097 1d3d 8749 e23d
00000190: b6b1 413d fae9 57bd b4f0 543d 5575 d2bc
000001a0: c463 a33d 6000 513c e708 9dbd 0abd adbd
000001b0: a7e4 a93d 0406 ad3c 0cee 50bd 71f3 c4bd
000001c0: eec7 c43d 60e3 2a3c 4fb1 3cbd 63ec 36bd
000001d0: bce7 f93d cb32 bf3d 5291 c03d b553 eebd
000001e0: 7a31 a9bd 7037 51bb 532a 863d 7a6d d53d
000001f0: 9b1a 8c3d 174b 87bd 3a31 c3bd 0002 22bd
00000200: 9ab8 133d 9987 593d a2c3 853d 9c7a 933d
00000210: da58 f93c 1d74 0e3d cc36 00bd 6bbf ba3c
00000220: 8e61 8a3d b28d ee3d 2922 7bbc 8110 be3d
00000230: 00c3 3a3c 3e7f d0bb 4dd5 88bc da57 23bd
00000240: 2a3d 83bd d500 dabd 2cb0 d5bd d43b fabd
00000250: 2805 cc3d 5dee a9bd da7d 273d 8917 973d
00000260: d938 8fbd f961 88bd 527e 973c 99e2 14bd
00000270: f6ff 103d cd78 8bbd 9e7a 09ba 03f3 b8bd
00000280: 4a67 2bbd 2114 b5bd 3531 8b3d 1668 98bc
00000290: 0113 683d 9612 e13d 69c4 f83d 5080 083c
000002a0: cec2 943d 3c1f 3c3d 7cc4 1f3c 03ca 5b3d
000002b0: 1246 683d c89d adb9 f501 b83d 36e4 ccbd
000002c0: e782 0d3d cc05 a63d e1b4 bf3c ebf6 9c3d
000002d0: b819 ccbd 9be3 ae3d d9e2 63bd 4704 b43c
000002e0: 3665 e83d 0d59 d93d 2b2b 75bd 267b 913d
000002f0: 278c d7bd d5fc d73d 7cc9 ad3c 3836 453d
00000300: 803f 17bd 538e 9f3d 5855 cf3d 9b32 813c
00000310: a1da e7bd 05c4 04bd 895d d63d 16ab d5bd
00000320: b0d2 823c 7e83 a2ba e6e2 91bd c53e c23d
00000330: d85d 3f3d be7d e3bd 46e5 b1bc 1070 16bd
00000340: f48f af3c d78d cbbd 92fe a83d 7fe0 ab3d
00000350: 9caf b5bd 452d 79bd f1b6 0cbd 10ba ac3d
00000360: a2a6 76bd 7786 4cbd 7363 463d 000c 243d
00000370: 743e f13d bc0f a63c 02f6 593d 2a2d da3d
00000380: dc77 ee3d 77e3 fcbd 0455 0cbd c833 75bd
00000390: 7a0c 9dbd 3ede 673c 068d b73d 1e50 cb3d
000003a0: 64f6 e2bd 14c9 0fbd 1616 32bd f4c3 2d3d
000003b0: 1c42 2a3d 4e9c eebd 7dc6 c03d 098b b53d
000003c0: 9f71 dabd 00f4 663b 5a84 c6bd 915f 0b3d
000003d0: e48c a8bd f15a afbd 2908 a83d 00a0 3a3d
000003e0: 243a 2fbd 21db f43d 64a4 503d ce1c 863d
000003f0: 211e c83d fb60 62bc 7914 c03d 96fd c5bd

action_head.bias f4 [5]
-0.12355341 0.11177838 -0.047252577 -0.12079198 0.048262473
00000000: 9209 fdbd 10ec e43d eb8b 41bd c961 f7bd
00000010: dfae 453d
