logs/ppo_checkpoint_ep450.pth (torch, 451850 bytes, 28 tensors)

fc1.weight f4 [128, 147]
0.028225219 0.03052144 -0.013144425 -0.017088711 -0.040627506 0.12665619 -0.09950417 0.044498898
-0.07337648 -0.022042524 -0.022270378 -0.039364666 -0.030205876 0.060587715 -0.020008631 -0.037558887
0.0957858 0.031043425 0.026361572 0.10643343 0.09789376 -0.014549008 -0.047497597 0.013477697
-0.03378177 -0.035649266 -0.05921608 0.029178051 0.035526425 0.0490042 -0.02250069 0.09144035
-0.040897317 -0.065327875 0.013599492 0.109093904 -0.048186194 -0.015414218 -0.008685218 -0.05439148
0.07051697 0.06623289 -0.06307416 0.041191522 0.05893257 0.0080235405 0.01901618 0.038271006
-0.10742562 0.041717887 -0.007905018 -0.04902041 0.06931194 0.0031048083 -0.08345858 0.064103596
-0.037326895 -0.03403951 0.019894576 0.020508973 -0.06693657 0.09066633 -0.02171913 -0.11769746
0.115281165 0.017208038 -0.06732023 5.269103e-06 0.091169335 -0.13474199 0.07246998 -0.023870805
0.10605836 0.031424254 0.023785552 -0.097788684 0.0102060065 0.01496403 -0.13607983 0.069098026
0.08476248 -0.023721315 -0.024317008 -0.003656973 -0.10862925 0.055875503 -0.013378547 0.03208148
0.01733193 -0.048374806 -0.08414551 0.058716327 -0.07355513 -0.14846978 0.062119123 0.008367843
-0.050538097 0.07274876 0.056672305 -0.08808016 0.1044483 0.09697097 -0.081970245 0.06303279
-0.0063870028 0.058692455 0.058467153 0.014039135 -0.02646882 0.069964804 -0.015343238 -0.13889459
0.13628766 -0.01982693 -0.06884485 0.06438891 -0.016908282 0.026583424 0.076949246 0.031046737
-0.06292486 0.11998145 0.028397456 -0.121089414 -0.05581389 0.015108109 0.041623775 -0.01057823
-0.020442314 -0.051245507 0.06439409 0.090386756 -0.086581275 0.13174108 -0.0009775093 0.009872671
0.015114413 0.09599743 -0.06958944 0.09148466 0.036723137 -0.014618349 0.03481599 0.048787076
-0.015231933 0.07552446 0.008947426 -0.080515005 -0.080969326 -0.007378947 -0.11533372 -0.08270249
0.117719464 -0.022728862 0.07624589 0.045885764 -0.11860043 0.09404633 -0.023324694 -0.04384501
0.08432024 0.035087463 0.010813648 0.009180939 0.074999295 -0.058478855 0.087098874 0.054107845
0.029534776 -0.01782866 0.0031943528 -0.012773507 0.022642935 -0.051525075 -0.012155093 -0.04568513
-0.015003213 -0.0624989 0.097297356 -0.005239907 -0.03769506 -0.022382 -0.0024407522 -0.02125169
0.09274591 0.032858133 -0.026693251 0.080330916 0.0077210646 0.029231263 0.008064442 -0.0142990565
-0.08262891 0.08492028 -0.038908757 0.018580705 0.09694246 -0.045845665 -0.010139757 0.054413117
-0.016843509 -0.02856205 0.04827079 0.096556254 -0.025565444 0.12159975 0.058223408 0.020596694
0.11700991 0.04368818 -0.069934696 0.067155086 -0.037197676 -0.03776526 -0.011590156 0.063573904
-0.0450707 0.020417515 0.015233265 -0.03727389 -0.08089733 -0.03239129 -0.013860674 0.06952205
0.11631353 -0.020258468 -0.04524482 0.023080384 -0.058798965 -0.056590773 -0.078661956 -0.07837645
0.005540679 0.09478696 -0.034000263 0.08480151 -0.011601942 -0.025229506 0.077083595 -0.06056664
-0.009382649 0.1106464 0.031054692 -0.07227033 0.008962704 0.08990789 -0.015565858 0.05929279
0.1006824 -0.016550763 0.11320987 0.053951327 -0.045236915 0.028506879 0.01625386 0.04602073
00000000: 9338 e73c 1908 fa3c b75b 57bc a0fd 8bbc
00000010: 0769 26bd 29b2 013e d8c8 cbbd 7a44 363d
00000020: 6846 96bd 8692 b4bc 5e70 b6bc d83c 21bd
00000030: 5072 f7bc d32a 783d 24e9 a3bc 59d7 19bd
00000040: 582b c43d c84e fe3c 39f4 d73c c5f9 d93d
00000050: 867c c83d f65e 6ebc d78c 42bd 8fd1 5c3c
00000060: c15e 0abd f704 12bd 8f8c 72bd cf06 ef3c
00000070: 2884 113d a1b8 483d 5e53 b8bc 1445 bb3d
00000080: f283 27bd 9fca 85bd 67d0 5e3c a06c df3d
00000090: e35e 45bd eb8b 7cbc 724c 0ebc 9ac9 5ebd
000000a0: 336b 903d 1ca5 873d 062d 81bd 71b8 283d
000000b0: 4763 713d 2b75 033c d2c7 9b3c 0fc2 1c3d
000000c0: f701 dcbd 60e0 2a3d 0c84 01bc a0c9 48bd
000000d0: 6bf3 8d3d 0a7a 4b3b 55ec aabd bf48 833d
000000e0: 16e4 18bd 036d 0bbd f3f9 a23c 6f02 a83c
000000f0: 0a16 89bd 45af b93d 51ec b1bc 5e0b f1bd
00000100: 8818 ec3d dff7 8c3c 30df 89bd 40cd b036
00000110: fdb6 ba3d cef9 09be 246b 943d b58c c3bc
00000120: 2035 d93d b8b6 003d ebd9 c23c 6f45 c8bd
00000130: 1837 273c b12b 753c 8358 0bbe 4483 8d3d
00000140: f397 ad3d 3453 c2bc 7634 c7bc d3a9 6fbb
00000150: 0379 debd b6dd 643d b131 5bbc df67 033d
00000160: b1fb 8d3c a924 46bd 7b54 acbd 8880 703d
00000170: 12a4 96bd 7608 18be 9f70 7e3d 4719 093c
00000180: 0901 4fbd 4dfd 943d 3821 683d 5f63 b4bd
00000190: fee8 d53d b798 c63d 04e0 a7bd 5617 813d
000001a0: 104a d1bb 8067 703d 417b 6f3d 6604 663c
000001b0: 24d5 d8bc b549 8f3d 3462 7bbc 623a 0ebe
000001c0: fe8e 0b3e 166c a2bc 87fe 8cbd 55de 833d
000001d0: 3d83 8abc 7bc5 d93c 9197 9d3d ba55 fe3c
000001e0: c0de 80bd d6b8 f53d c8a1 e83c bafd f7bd
000001f0: 1b9d 64bd 0188 773c b17d 2a3d 5050 2dbc
00000200: a476 a7bc cfe6 51bd 0ce1 833d b11c b93d
00000210: 8651 b1bd 22e7 063e c51f 80ba fcc0 213c
00000220: 71a2 773c 4d9a c43d e984 8ebd 4f5c bb3d
00000230: 006b 163d cd81 6fbc 369b 0e3d f5d4 473d
00000240: 5c8f 79bc 91ac 9a3d 3a98 123c 0de5 a4bd
00000250: 3fd3 a5bd 18cb f1bb 1634 ecbd ec5f a9bd
00000260: e716 f13d e131 babc ce26 9c3d b6f2 3b3d
00000270: c8e4 f2bd 5d9b c03d 6e13 bfbc d396 33bd
00000280: 17b0 ac3d dfb7 0f3d ba2b 313c a66b 163c
00000290: 3b99 993d 8687 6fbd e560 b23d 30a0 5d3d
000002a0: eaf2 f13c 690d 92bc 5958 513b f947 51bc
000002b0: ad7d b93c f50b 53bd 2826 47bc 5520 3bbd
000002c0: 09d0 75bc d9fe 7fbd d643 c73d 87b3 abbb
000002d0: 2366 1abd 755a b7bc 07f5 1fbb 0618 aebc
000002e0: 91f1 bd3d 4096 063d ceab dabc 8984 a43d
000002f0: fc00 fd3b 6776 ef3c b920 043c 9746 6abc
00000300: 5939 a9bd afea ad3d ca5e 1fbd 9036 983c
00000310: c589 c63d aac8 3bbd 3921 26bc 4ae0 5e3d
00000320: 66fb 89bc f6fa e9bc 98b7 453d 49bf c53d
00000330: 9f6e d1bc 4a09 f93d ab7b 6e3d 66ba a83c
00000340: e4a2 ef3d 61f2 323d ec39 8fbd 9b88 893d
00000350: 975c 18bd bfaf 1abd a3e4 3dbc 0933 823d
00000360: 0e9c 38bd a242 a73c f294 793c 82ac 18bd
00000370: 80ad a5bd bbac 04bd e117 63bc 9461 8e3d
00000380: ca35 ee3d 16f5 a5bc a252 39bd 1313 bd3c
00000390: 2fd7 70bd bacb 67bd 8519 a1bd d583 a0bd
000003a0: 968e b53b aa1f c23d dc43 0bbd 6aac ad3d
000003b0: 1216 3ebc 1cae cebc 01de 9d3d ba14 78bd
000003c0: afb9 19bc 949a e23d 6966 fe3c 7702 94bd
000003d0: 4ed8 123c a121 b83d f107 7fbc ffdc 723d
000003e0: 9332 ce3d 7795 87bc 94da e73d 11fc 5c3d
000003f0: 584a 39bd 4287 e93c d126 853c 3c80 3c3d

fc1.bias f4 [128]
-0.0061726198 0.090853 0.00920467 -0.025443189 -0.04000022 0.06554887 -0.10754228 -0.024419282
0.06648723 0.056579806 0.030640153 -0.102217615 0.05671303 0.041460868 -0.048155878 0.022650817
-0.06268976 7.359106e-05 -0.067783594 0.00999548 -0.05785077 -0.014397174 0.05467991 0.02270621
-0.10188483 -0.05912881 0.07871156 0.060668096 0.05873398 0.060825817 -0.019376844 0.01280134
0.06356203 0.092672825 0.009880072 -0.07545404 0.09417269 0.05580257 -0.04680485 0.057064343
0.10335797 0.018946689 0.009485943 0.0284872 0.084662855 -0.034613255 0.0762466 0.03617813
0.03532943 -0.011917477 0.026715377 0.008828462 0.111333 0.0474147 -0.025795575 -0.039392494
-0.046577178 -0.067082256 0.09053381 0.02670581 -0.028810987 0.023867114 -0.0033596172 0.08710493
0.005862064 -0.016317096 -0.07791641 0.033009898 -0.014223978 -0.023457007 0.09280922 0.08222576
0.0575081 0.07265422 0.032579772 0.025389943 0.047225885 0.09324935 -0.00851467 0.0516775
0.10100148 0.00054302445 -0.018662978 -0.051121954 0.09644243 -0.048456926 0.053318605 0.06767373
-0.03502265 0.038153917 -0.04391753 -0.081484884 -0.03885254 -0.016682133 -0.030542994 -0.036128465
0.029792948 0.08190245 0.06539695 -0.0030705791 -0.011502846 0.08613049 0.05486368 0.060349043
0.055999536 0.08087065 0.053344943 -0.023395443 0.06096104 0.08223167 -0.0012884128 -0.08341237
-0.051231623 0.026229218 0.02865333 0.0002039557 0.05017996 0.0637503 0.10566616 -0.03868506
-0.026923116 -0.049223296 0.073134325 0.019826578 -0.05430963 0.07604005 0.044426873 0.05088914
00000000: b043 cabb 2311 ba3d 2fcf 163c 3c6e d0bc
00000010: 45d7 23bd 7c3e 863d 203f dcbd f20a c8bc
00000020: 752a 883d 3ac0 673d 0f01 fb3c 7857 d1bd
00000030: ec4b 683d dfd2 293d 193f 45bd 358e b93c
00000040: 7d63 80bd e654 9a38 20d2 8abd 15c4 233c
00000050: eef4 6cbd 20e2 6bbc 0bf8 5f3d 6002 ba3c
00000060: fea8 d0bd 0d31 72bd 8733 a13d 1c7f 783d
00000070: 0b93 703d 7e24 793d 30bc 9ebc b6bc 513c
00000080: cf2c 823d 40cb bd3d 07e0 213c a687 9abd
00000090: 9cdd c03d 3c91 643d 71b6 3fbd 4dbc 693d
000000a0: 58ad d33d 1636 9b3c ee6a 1b3c fd5d e93c
000000b0: b863 ad3d a1c6 0dbd 2d27 9c3d 852f 143d
000000c0: 98b5 103d 8541 43bc 35da da3c 41a5 103c
000000d0: 8e02 e43d eb35 423d 3e51 d3bc 065a 21bd
000000e0: b6c7 3ebd 6c62 89bd ca69 b93d 25c6 da3c
000000f0: 0505 ecbc f784 c33c 062d 5cbb 1264 b23d
00000100: 8f16 c03b 6eab 85bc a492 9fbd 6335 073d
00000110: b00b 69bc e928 c0bc c312 be3d fb65 a83d
00000120: 9d8d 6b3d bccb 943d 5e72 053d 92fe cf3c
00000130: ee6f 413d 84f9 be3d 1d81 0bbc c9ab 533d
00000140: ddd9 ce3d c159 0e3a 1ae3 98bc 4165 51bd
00000150: 9c83 c53d c57a 46bd 9c64 5a3d 8698 8a3d
00000160: e973 0fbd 4847 1c3d dee2 33bd 8ce1 a6bd
00000170: d723 1fbd f8a8 88bc 4d35 fabc 71fb 13bd
00000180: 5710 f43c 79bc a73d d6ee 853d c53b 49bb
00000190: 6f76 3cbc 2f65 b03d bdb8 603d 8f30 773d
000001a0: c55f 653d 839f a53d 3a80 5a3d cda7 bfbc
000001b0: 49b2 793d 1469 a83d f6df a8ba 1bd4 aabd
000001c0: 40d8 51bd a8de d63c 63ba ea3c f1dc 5539
000001d0: 8089 4d3d 848f 823d 8067 d83d 3a74 1ebd
000001e0: de8d dcbc 5e9e 49bd 73c7 953d 596b a23c
000001f0: c673 5ebd e3ba 9b3d f4f8 353d 2271 503d

fc2.weight f4 [64, 128]
0.00876384 -0.07759551 -0.049813706 0.059628587 -0.07453107 0.053754736 0.038368646 0.076956704
-0.090354346 -0.05291707 -0.05592309 0.016572358 -0.07311965 0.048264626 -0.020924475 0.07033671
0.02469716 -0.018769164 -0.037319507 0.04268114 -0.035348866 0.035767816 0.039428733 -0.042768747
-0.08543938 0.074022256 -0.06259461 -0.06706635 -0.07102204 0.025559284 -0.03055067 -0.023984391
0.01735504 -0.0790172 -0.08356112 -0.058148384 0.024568493 0.00054594496 -0.032192655 -0.029812954
0.02565321 -0.0123357335 0.03972472 -0.009204011 0.069219306 0.053352922 -0.04929567 -0.018005833
-0.0754225 -0.07883198 -0.09415155 0.05767911 0.016923677 0.024669347 -0.09709697 0.07860453
-0.030272027 -0.042030618 -0.03897955 0.028479794 0.019529635 0.015511712 -0.027485818 0.0012313391
0.04973444 -0.04446889 0.06850159 0.03871975 0.02092402 -0.04725019 -0.078126356 -0.012330239
-0.027484993 -0.0141174225 -0.0940468 0.01619159 0.041715447 1.3751294e-05 0.055320133 -0.018118188
-0.07340172 0.009858174 -0.008613709 0.00851766 -0.046197485 0.035174116 -0.09387669 0.0566432
-0.05596023 -0.033882152 -0.053663243 -0.019289987 0.0104911495 0.014027227 0.07489296 0.042803507
-0.013790579 -0.020343442 -0.09556315 -0.08032892 0.07242227 -0.073529534 -0.019545648 -0.025587171
0.046217866 -0.026999086 0.07037879 -0.053566635 0.058304343 -0.01368581 0.03642405 -0.05494143
0.005063213 -0.030216774 0.023861825 -0.033066966 -0.053983368 0.041257225 -0.040094737 -0.06301871
0.001581492 0.058914322 -0.005294601 -0.05453079 -0.028962804 -0.032364074 0.06490425 -0.09635977
0.005130767 -0.04564399 0.059707277 -0.065302335 -0.021166097 0.00032501153 -0.049399197 0.08917649
-0.03636842 -0.0012175316 0.06235206 -0.08478583 -0.06939879 0.060046908 -0.042412184 0.028179925
0.06071987 -0.07299767 -0.04399747 -0.010752304 -0.043211117 0.025729144 -0.050558884 -0.023942595
0.078689456 0.08194693 0.044094216 0.014474859 -0.09363159 -0.028712226 0.062773034 0.041256584
0.014130547 -0.033987664 0.100243166 0.03241689 -0.07452939 0.066337086 0.006564801 -0.05368716
-0.08536204 -0.08106597 -0.09432171 -0.0066486006 -0.07883595 -0.041138776 0.05083214 -0.05369888
-0.035914034 0.05938238 0.047488917 0.0415484 0.07367467 0.06718927 -0.09269099 -0.07574605
0.016251106 0.06799612 0.07192492 -0.087135024 0.018023333 -0.021175439 0.052303374 0.03670555
0.020654842 -0.045201406 0.043528233 0.02266955 -0.0059054666 0.05001178 0.08427863 -0.07918852
-0.02379685 0.080675036 -0.034847092 0.04550784 -0.052874066 -0.007499203 0.016171494 0.046782337
-0.07564495 -0.051831394 -0.08149379 -0.03128335 0.023896923 -0.0780145 -0.031075012 0.04884179
-0.09997327 0.014638814 -0.07219921 0.04054084 0.04916439 0.050291855 0.050112657 0.083440125
0.05584178 -0.06475074 0.047806725 -0.0904146 0.028166482 0.083871685 -0.010965518 -0.06426767
-0.09335486 0.050707307 0.0013306338 -0.06892593 -0.056157693 -0.07487746 -0.034010075 0.015417799
-0.0023951984 -0.04157855 -0.079564996 -0.035321083 -0.074412316 -0.055396542 0.028015714 0.058268193
-0.002088996 0.087796055 0.04649705 -0.08458666 0.010406547 0.0798163 0.022246659 0.06377183
00000000: 3696 0f3c 65ea 9ebd 7509 4cbd 1b3d 743d
00000010: bfa3 98bd ed2d 5c3d 7128 1d3d 7a9b 9d3d
00000020: b30b b9bd 92bf 58bd 9c0f 65bd c1c2 873c
00000030: c1bf 95bd 21b1 453d ce69 abbc b10c 903d
00000040: b351 ca3c cac1 99bc 57dc 18bd 6bd2 2e3d
00000050: f9c9 10bd 4681 123d 0680 213d 482e 2fbd
00000060: d7fa aebd fb98 973d 9a31 80bd 155a 89bd
00000070: 0174 91bd b461 d13c 6645 fabc ea7a c4bc
00000080: 282c 8e3c c5d3 a1bd 1822 abbd 002d 6ebd
00000090: dd43 c93c bf1d 0f3a 72dc 03bd 4c3a f4bc
000000a0: ae26 d23c d11b 4abc 63b6 223d 6ccc 16bc
000000b0: dac2 8d3d 9888 5a3d 42ea 49bd f880 93bc
000000c0: 1d77 9abd a972 a1bd 87d2 c0bd ee40 6c3d
000000d0: 86a3 8a3c 5f17 ca3c c7da c6bd 69fb a03d
000000e0: 0bfd f7bc 4c28 2cbd 05a9 1fbd 754e e93c
000000f0: 9dfc 9f3c d624 7e3c f029 e1bc e264 a13a
00000100: 57b6 4b3d 0325 36bd 904a 8c3d 9a98 1e3d
00000110: da68 ab3c 6a89 41bd b600 a0bd c504 4abc
00000120: 3528 e1bc c34c 67bc 9c9b c0bd 3aa4 843c
00000130: d1dd 2a3d 5cb5 6637 5d97 623d 986c 94bc
00000140: a453 96bd 2e84 213c 8420 0dbc a88d 0b3c
00000150: 9339 3dbd bc12 103d 6c42 c0bd b302 683d
00000160: 8e36 65bd 03c8 0abd fdcd 5bbd 0906 9ebc
00000170: 12e3 2b3c 74d2 653c 7b61 993d bb52 2f3d
00000180: e1f1 61bc 4aa7 a6bc 9db6 c3bd 7d83 a4bd
00000190: 2152 943d a796 96bd 321e a0bc 309c d1bc
000001a0: f24e 3d3d 302d ddbc c122 903d b068 5bbd
000001b0: 89d0 6e3d 733a 60bc 6231 153d 440a 61bd
000001c0: 4fe9 a53b 2b89 f7bc e079 c33c 3a71 07bd
000001d0: aa1d 5dbd 56fd 283d 613a 24bd f40f 81bd
000001e0: 114a cf3a 2550 713d 557e adbb ad5b 5fbd
000001f0: 6743 edbc 3190 04bd 85ec 843d 4558 c5bd
00000200: fe1f a83b 31f5 3abd 9e8f 743d 3bbd 85bd
00000210: 8664 adbc 4f66 aa39 d056 4abd 2aa2 b63d
00000220: 0df7 14bd 9595 9fba e064 7f3d 31a4 adbd
00000230: f420 8ebd bff3 753d 66b8 2dbd 96d9 e63c
00000240: 66b5 783d cd7f 95bd b136 34bd 6f2a 30bc
00000250: 24fe 30bd edc5 d23c d516 4fbd 4323 c4bc
00000260: f027 a13d cbd3 a73d 239c 343d f627 6d3c
00000270: ebc1 bfbd e735 ebbc 268f 803d aafc 283d
00000280: cf83 673c a636 0bbd 4a4c cd3d 93c7 043d
00000290: dda2 98bd bddb 873d 8b1d d73b 11e7 5bbd
000002a0: 4bd2 aebd ea05 a6bd be2b c1bd 81dc d9bb
000002b0: be74 a1bd 2281 28bd 5d35 503d 5bf3 5bbd
000002c0: 981a 13bd f03a 733d bd83 423d a82e 2a3d
000002d0: bfe2 963d 879a 893d c6d4 bdbd bf20 9bbd
000002e0: 0a21 853c 8d41 8b3d 5f4d 933d d973 b2bd
000002f0: aba5 933c 1d78 adbc 103c 563d 8f58 163d
00000300: 5834 a93c 1c25 39bd a94a 323d 7eb5 b93c
00000310: a582 c1bb 27d9 4c3d 469a ac3d 972d a2bd
00000320: 9df1 c2bc f438 a53d d3bb 0ebd 6e66 3a3d
00000330: 7a92 58bd e0bb f5bb 157a 843c d69e 3f3d
00000340: bdeb 9abd 284d 54bd 37e6 a6bd f822 00bd
00000350: 7bc3 c33c 11c6 9fbd 0691 febc 540e 483d
00000360: c9be ccbd a3d7 6f3c 2edd 93bd 270e 263d
00000370: 9960 493d d5fe 4d3d ee42 4d3d a8e2 aa3d
00000380: 5aba 643d 099c 84bd fcd0 433d 4a2b b9bd
00000390: 65bd e63c ebc4 ab3d b7a8 33bc c59e 83bd
000003a0: d530 bfbd 77b2 4f3d a968 ae3a 0a29 8dbd
000003b0: 9c05 66bd 5b59 99bd 264e 0bbd f09a 7c3c
000003c0: c3f8 1cbb 454e 2abd f9f2 a2bd d7ac 10bd
000003d0: 7c65 98bd 7ce7 62bd 3681 e53c a1aa 6e3d
000003e0: 8ae7 08bb 6bce b33d b173 3e3d c53b adbd
000003f0: 3980 2a3c ba76 a33d a03e b63c ce9a 823d

fc2.bias f4 [64]
-0.04027415 -0.0870981 -0.0824875 0.106191725 -0.07814275 0.008746966 -0.029705213 -0.09584641
0.0074758297 -0.08309888 0.081660844 -0.0029219384 0.040403794 -0.009364569 0.050869312 -0.07527673
-0.08219804 -0.06720971 -0.018399037 -0.0576628 0.022117434 -0.024639497 -0.00072294625 -0.028757824
0.026818065 -0.008052495 0.06321731 0.0802479 -0.0021888632 0.030285006 -0.07110919 0.089138635
0.07425591 0.08734496 0.008560985 -0.088546604 -0.07572843 0.079713054 0.07619615 -0.006712142
0.047197033 0.01391215 -0.05378244 -0.016528277 0.049477845 0.023683162 0.08835049 -0.048873607
-0.07325339 0.05534173 0.077962555 0.057906836 0.0061370935 -0.04770398 0.033481933 0.01489767
0.005090141 -0.07890318 0.005796981 -0.041576628 0.042097498 -0.0055621117 0.02290712 0.057715725
00000000: 82f6 24bd 7d60 b2bd 35ef a8bd 0c7b d93d
00000010: 4e09 a0bd 6f4f 0f3c 5958 f3bc 1f4b c4bd
00000020: cef7 f43b bf2f aabd cd3d a73d fe7d 3fbb
00000030: 737e 253d d96d 19bc 575c 503d b02a 9abd
00000040: 7257 a8bd 3fa5 89bd 94b9 96bc d42f 6cbd
00000050: 9f2f b53c c5d8 c9bc 1a84 3dba 8795 ebbc
00000060: 8fb1 db3c 9dee 03bc 1478 813d 0359 a43d
00000070: 0873 0fbb 4318 f83c b2a1 91bd 518e b63d
00000080: 7c13 983d eae1 b23d 6043 0c3c ec57 b5bd
00000090: 8217 9bbd 9940 a33d ba0c 9c3d 87f1 dbbb
000000a0: ad51 413d c9ef 633c fa4a 5cbd 4f66 87bc
000000b0: 48a9 4a3d 3103 c23c 1af1 b43d b12f 48bd
000000c0: e005 96bd 03ae 623d d5aa 9f3d b82f 6d3d
000000d0: ac19 c93b 4065 43bd 5a24 093d 5b15 743c
000000e0: 33cb a63b fe97 a1bd 9af4 bd3b 414c 2abd
000000f0: 6d6e 2c3d 6042 b6bb b6a7 bb3c 5367 6c3d

action_head.weight f4 [5, 64]
0.03221358 -0.08551817 -0.040366367 -0.10635144 0.038500126 -0.06802669 -0.05330127 -0.07760579
-0.035005752 0.021474617 0.040667847 0.0032718575 -0.10992857 0.06703594 -0.02963539 0.07629138
0.092092015 -0.018913226 0.038314357 -0.09840284 -0.13081053 -0.11166556 -0.02744665 0.0050076623
-0.09076849 -0.050323695 -0.1265578 -0.18009035 0.00962701 0.070282385 0.08475001 0.03728235
0.06139773 -0.10863378 0.04543814 0.05942462 0.06603813 0.0122817755 -0.051488604 -0.1438718
-0.07913487 -0.037988443 0.0053381464 -0.09721065 -0.20312355 -0.15624115 0.01719563 0.08252056
-0.113867 0.06578471 -0.05257857 -0.02335227 -0.124078184 0.03875978 0.045769405 -0.026225662
-0.009374806 -0.046293516 -0.094780274 0.123673 -0.055370584 0.1006331 -0.14640193 -0.0032275408
-0.014105797 -0.033507716 -0.068517335 0.10483686 -0.1010828 0.050228465 0.097763866 0.004841429
0.010655874 -0.06526373 0.09517524 0.01815929 0.06119455 -0.079932615 0.023669153 -0.11693859
0.09939944 0.04382918 0.15158397 0.11354026 0.029799992 0.054001566 0.1533308 -0.07961276
-0.058886647 -0.055840474 0.15831283 0.058868255 -0.015031581 -0.03551785 -0.034136523 0.007383316
0.023816869 -0.0021010153 -0.12290339 -0.11261802 0.041353215 0.00085248915 0.13846849 -0.038326614
0.08890342 0.06046824 0.05642597 -0.04331454 0.2100886 0.10877715 -0.02163802 0.1040161
-0.06993279 0.079202466 -0.05001731 0.013120495 0.064894125 0.015360939 -0.005178614 0.053291246
-0.015593942 -0.09968063 0.05043676 -0.031607106 0.1676785 -0.04489545 0.11256458 0.17706674
-0.04276694 0.037927367 -0.021181142 -0.14840002 -0.0069185104 -0.10523582 0.045073718 -0.12223685
0.020104272 0.1030492 -0.08626868 -0.053404298 0.028899364 0.047977176 -0.17142853 0.10688469
0.062184013 -0.049076896 -0.1393607 -0.060736805 -0.19947264 -0.08614944 -0.06938169 -0.056467026
0.035397507 -0.0987562 -0.2253382 0.0005437028 0.04224645 0.035846375 0.018515483 -0.023821412
0.023427125 0.023239369 -0.078266665 0.06227323 0.011154384 0.028456748 -0.08006726 0.00880248
-0.088555194 -0.00060331903 -0.0856806 -0.0164898 -0.1041065 -0.14725414 -0.033533476 0.06104095
-0.012630403 -0.19074309 -0.074075215 -0.035562295 -0.10970923 -0.11767118 -0.08200439 -0.14788504
-0.033555727 -0.029104598 -0.08395919 0.04583505 -0.13634846 -0.0074029146 -0.051828694 -0.024410367
-0.06701545 0.040330935 0.062303696 0.071908735 -0.082639284 0.07436224 -0.050699476 0.009523602
0.041124336 -0.011646041 0.15777259 0.030033957 0.16493294 0.11429503 0.068361364 0.08710027
0.081855804 0.031439155 0.15225317 0.04378201 0.03583868 0.065645956 0.080675565 0.07305931
0.09950114 0.053117577 -0.036899775 0.060642935 0.09336897 -0.046431903 -0.10086557 -0.046673752
0.024419932 -0.018279927 0.0100673735 0.12324841 -0.049036577 -0.059589777 0.082369186 0.16235496
-0.055316538 -0.02678438 -0.05711266 0.06948538 0.17830357 0.109851345 0.10854849 -0.05711603
-0.07394947 0.015443986 0.15302873 0.1729567 0.09529795 -0.11002043 0.031429153 0.12128564
-0.016644945 -0.10605014 -0.07675889 -0.078124516 0.03677744 -0.06145312 -0.05400871 0.042814635
00000000: 63f2 033d 2624 afbd 3457 25bd c9ce d9bd
00000010: 4fb2 1d3d 9451 8bbd 6f52 5abd c9ef 9ebd
00000020: 3162 0fbd 89eb af3c 5493 263d a96c 563b
00000030: 3b22 e1bd 244a 893d ebc5 f2bc a83e 9c3d
00000040: bd9a bc3d e9ef 9abc 84ef 1c3d 6e87 c9bd
00000050: 32f3 05be eab0 e4bd ccd7 e0bc 5117 a43b
00000060: d5e4 b9bd 3820 4ebd 5e98 01be 9b69 38be
00000070: 9bba 1d3c 36f0 8f3d 6a91 ad3d 61b5 183d
00000080: 307c 7b3d 637b debd 581d 3a3d 3b67 733d
00000090: 003f 873d 8039 493c b7e5 52bd 2153 13be
000000a0: 7611 a2bd c599 1bbd 9eeb ae3b 6116 c7bd
000000b0: 9fff 4fbe aefd 1fbe dadd 8c3c 8a00 a93d
000000c0: 1a33 e9bd 22ba 863d a05c 57bd 424d bfbc
000000d0: b41c febd 93c2 1e3d b378 3b3d 33d7 d6bc
000000e0: c998 19bc 459e 3dbd 291c c2bd 4548 fd3d
000000f0: 44cc 62bd ba18 ce3d 63ea 15be 2685 53bb
00000100: 001c 67bc 633f 09bd d152 8cbd b5b4 d63d
00000110: 8004 cfbd 5dbc 4d3d 6c38 c83d daa4 9e3b
00000120: fa95 2e3c fea8 85bd 3ceb c23d cbc2 943c
00000130: 23a7 7a3d b6b3 a3bd d0e5 c13c 807d efbd
00000140: ef91 cb3d 3a86 333d d438 1b3e cc87 e83d
00000150: 1d1f f43c bf30 5d3d c002 1d3e 040c a3bd
00000160: 2033 71bd fbb8 64bd c21c 223e d71f 713d
00000170: 0547 76bc 2a7b 11bd bdd2 0bbd beef f13b
00000180: 981b c33c 30b1 09bb c6b4 fbbd 47a4 e6bd
00000190: fd61 293d 9479 5f3a afca 0d3e 5efc 1cbd
000001a0: ff12 b63d 8cad 773d eb1e 673d 966a 31bd
000001b0: 7721 573e 8ec6 de3d 3842 b1bc 6506 d53d
000001c0: ec38 8fbd e734 a23d f3de 4cbd 58f7 563c
000001d0: 36e7 843d 73ac 7b3c 5db1 a9bb ec47 5a3d
000001e0: bc7d 7fbc 5c25 ccbd c796 4e3d 7476 01bd
000001f0: eab3 2b3e 4be4 37bd 4288 e63d fc50 353e
00000200: 632c 2fbd ba59 1b3d 1384 adbc 2df6 17be
00000210: acb4 e2bb e185 d7bd 389f 383d 5057 fabd
00000220: b7b1 a43c 750b d33d a2ad b0bd 77be 5abd
00000230: 5cbe ec3c b783 443d f68a 2fbe 5ce6 da3d
00000240: aab4 7e3d db04 49bd 92b4 0ebe 28c7 78bd
00000250: 8e42 4cbe 1e6f b0bd fd17 8ebd f849 67bd
00000260: fafc 103d b140 cabd 0fbf 66be 4787 0e3a
00000270: 9d0a 2d3d a6d3 123d c8ad 973c 1f25 c3bc
00000280: 3eea bf3c 7d60 be3c 464a a0bd 3712 7f3d
00000290: e1c0 363c 201e e93c 4efa a3bd 4738 103c
000002a0: 6d5c b5bd 0e28 1eba 4f79 afbd 9e15 87bc
000002b0: ca35 d5bd cac9 16be 665a 09bd 1306 7a3d
000002c0: c0ef 4ebc 2852 43be bfb4 97bd c5a9 11bd
000002d0: 3caf e0bd 96fd f0bd ebf1 a7bd 2d6f 17be
000002e0: bb71 09bd c46c eebc ccf2 abbd 89bd 3b3d
000002f0: ee9e 0bbe 2694 f2bb 534a 54bd 40f8 c7bc
00000300: 653f 89bd 0d32 253d 2932 7f3d e344 933d
00000310: c93e a9bd 3b4b 983d 41aa 4fbd e208 1c3c
00000320: fe71 283d 09cf 3ebc 238f 213e c609 f63c
00000330: 2ee4 283e 8313 ea3d 0b01 8c3d a061 b23d
00000340: 04a4 a73d 58c6 003d 41e8 1b3e c454 333d
00000350: 94cb 123d 6371 863d 3b39 a53d 1fa0 953d
00000360: 41c7 cb3d d191 593d 3824 17bd ba64 783d
00000370: 3b38 bf3d 612f 3ebd 9c92 cebd fa2c 3fbd
00000380: 4f0c c83c c9bf 95bc a0f1 243c aa69 fc3d
00000390: 94da 48bd 6914 74bd 2db1 a83d 6140 263e
000003a0: 9893 62bd eb6a dbbc f7ee 69bd 5a4e 8e3d
000003b0: 3695 363e bef9 e03d ac4e de3d 80f2 69bd
000003c0: d272 97bd c608 7d3c 90b3 1c3e 901b 313e
000003d0: 922b c33d 6452 e1bd dbbb 003d 9b64 f83d
000003e0: fb5a 88bc d130 d9bd c433 9dbd bfff 9fbd
000003f0: f1a3 163d 44b6 7bbd 3d38 5dbd 665e 2f3d

action_head.bias f4 [5]
-0.033719134 0.019768123 -0.18247838 -0.019363724 0.064240806
00000000: 131d 0abd c2f0 a13c 9ddb 3abe aca0 9ebc
00000010: af90 833d

value_head.weight f4 [1, 64]
0.0029174667 -0.042822838 -0.0424801 0.12292744 -0.11245247 -0.13872072 0.14175105 -0.067891516
0.07963531 -0.024326399 -0.15738943 -0.1769938 -0.11545809 0.07059031 0.09607056 0.106633574
0.010189979 -0.06831892 0.092928484 -0.090716474 -0.114719145 0.033058528 -0.11366746 0.08583547
-0.124862805 -0.20041113 -0.15089135 0.05142333 -0.08369217 0.11664374 -0.005456946 0.09189375
-0.17203607 -0.1808284 0.075886264 0.026778657 0.11113245 0.08466608 0.025325809 -0.1474257
-0.17696652 -0.19070101 -0.05854907 0.14359877 0.029051472 0.079910204 0.13400118 0.01636046
-0.07911593 0.06848075 0.110899016 -0.18301614 0.07427107 -0.04220642 0.06924677 0.06798597
0.14233546 0.040439334 -0.013433146 0.014312328 0.020276446 0.06472131 0.15184066 -0.14150211
00000000: f832 3f3b 0067 2fbd 9dff 2dbd 62c1 fb3d
00000010: 7b4d e6bd ce0c 0ebe 3027 113e b50a 8bbd
00000020: d617 a33d 2848 c7bc b22a 21be dd3d 35be
00000030: 4b75 ecbd a791 903d a4c0 c43d b462 da3d
00000040: dff3 263c caea 8bbd 4a51 be3d 8fc9 b9bd
00000050: dff1 eabd 6168 073d 7cca e8bd 82ca af3d
00000060: 12b8 ffbd 9338 4dbe 4383 1abe 45a1 523d
00000070: cd66 abbd eae2 ee3d 2ed0 b2bb ca32 bc3d
00000080: 392a 30be 152b 39be 426a 9b3d ea5e db3c
00000090: 6999 e33d 6965 ad3d 1278 cf3c c3f6 16be
000000a0: b636 35be 2047 43be 26d1 6fbd 8e0b 133e
000000b0: 5afd ed3c f6a7 a33d 9b37 093e 5f06 863c
000000c0: 8807 a2bd a33f 8c3d 061f e33d 9568 3bbe
000000d0: 6e1b 983d a4e0 2cbd 40d1 8d3d 3a3c 8b3d
000000e0: 63c0 113e b7a3 253d b316 5cbc 417e 6a3c
000000f0: ca1a a63c 9b8c 843d 1e7c 1b3e eee5 10be

fc1.weight f4 [128, 147]
-0.06412558 0.012486903 0.035316464 -0.064710625 0.09764992 -0.024345977 0.0361396 0.061846264
0.07998082 0.00036624982 0.035349432 0.07900601 -0.022140639 0.0277988 -0.091631345 0.06605274
0.05631945 0.048441425 -0.07370306 0.028364532 0.08757928 -0.08570011 -0.00036809273 -0.050155055
0.0194238 -0.021365339 0.021263763 0.003231897 0.02799619 0.054845087 -0.09831383 0.017459111
0.036087997 -0.016304618 -0.01537415 0.09071092 -4.0394116e-05 0.04715511 0.043653984 0.03804887
0.08172996 -0.017525118 -0.085145175 0.0417835 -0.019565038 -0.0078335125 0.07962183 0.100864835
0.006285131 0.08994841 -0.028043387 -0.09703985 0.09113867 0.0012876902 0.045098558 0.08606733
-0.034575585 -0.06344647 -0.024439413 -0.020409059 -0.0643576 0.07664426 -0.061679058 -0.02726254
0.0723761 0.068135 0.00063508324 0.078737274 -0.022088459 -0.024291947 0.111023165 0.05647561
0.073271945 0.00024446598 -0.095387556 -0.038210306 0.00092356425 -0.016234465 -0.10747847 0.11916594
0.037593037 0.009164879 0.08832724 0.047581416 0.008181222 0.0013108439 -0.06671351 -0.006860564
-0.00590578 -0.021145869 0.03325188 0.08178915 0.00511348 -0.055648025 0.013472206 0.11477342
0.023334479 0.06545229 0.049707063 0.004994429 0.10215864 0.043702856 -0.04975534 0.007672968
-0.039492726 -0.017383065 0.0626642 0.04481361 -0.055978592 -0.031911403 0.06785685 0.06304726
0.024116706 0.015839444 -0.08877952 -0.010778965 -0.06621266 0.005057362 -0.010524756 0.068694115
-0.04619085 0.115818985 0.101111844 -0.0024021978 0.0451635 -0.08138833 -0.043303948 -0.024767919
0.017342078 -0.0038755029 0.07904751 -0.02073398 -0.07960839 0.056072127 -0.0017130546 0.042398334
0.080508284 0.061898008 -0.049163282 -0.020973762 0.03290463 -0.0044333385 0.06896464 0.0623069
0.040636625 0.011381189 -0.04550643 0.022477595 0.052252773 0.04296941 0.028204175 0.015591446
-0.07751828 -0.028339934 0.0071233674 0.025508173 0.037497923 0.080465 0.041641485 0.043517485
0.07467294 -0.07383562 0.009627815 0.02330797 -0.035743114 0.05780628 0.022319281 0.06750828
-0.06443212 -0.04500297 0.041241106 -0.032994732 -0.04320436 -0.046349917 -0.026071655 0.10320387
0.066127956 -0.11855155 0.079981916 0.06656406 0.01532694 0.095690615 0.022600431 -0.085621305
0.049310166 0.00081226195 -0.021231716 -0.01634521 -0.04289136 0.02599421 0.018198559 -0.011917825
0.021388551 0.04096263 0.022589857 0.017502805 0.07083014 0.0803473 -0.080808945 0.0841629
-0.029069485 0.040207114 -0.009075715 0.053206403 0.010038346 0.04032254 -0.026418563 -0.09720469
0.022314537 -0.06771843 -0.07067043 0.080800846 0.01963675 -0.09926137 0.09898036 -0.027771153
-0.10076356 0.11712392 0.009364267 0.07940646 -0.006859443 -0.08019837 -0.11022686 0.12935998
0.022737974 0.023365553 -0.020239718 0.09420212 -0.11944553 0.09604991 0.068901636 -0.06971068
0.08053515 0.010979092 -0.02292839 0.087430835 0.07074833 -0.05506517 0.13100193 -0.057225294
0.03339144 0.109653026 0.06749576 0.034315035 0.0783803 0.031450074 -0.085305765 0.002716021
0.09836631 -0.01649944 0.09255975 0.09957569 -0.09331673 0.0051705237 -0.03865897 0.039733585
00000000: 4654 83bd de95 4c3c ffa7 103d 0187 84bd
00000010: aefc c73d 3771 c7bc 1e07 143d 8252 7d3d
00000020: fccc a33d 3805 c039 91ca 103d e7cd a13d
00000030: 4960 b5bc 4fba e33c 37a9 bbbd a946 873d
00000040: 39af 663d 846a 463d a1f1 96bd bc5c e83c
00000050: c45c b33d 8a83 afbd 92fc c0b9 636f 4dbd
00000060: a91e 9f3c 5d06 afbc 5831 ae3c 3cce 533b
00000070: 4458 e53c 3ea5 603d c358 c9bd 6906 8f3c
00000080: 02d1 133d 4391 85bc dce3 7bbc a6c6 b93d
00000090: da6c 29b8 b725 413d 85ce 323d 22d9 1b3d
000000a0: 0a62 a73d d690 8fbc 9860 aebd 2d25 2b3d
000000b0: dc46 a0bc 2258 00bc c510 a33d 3992 ce3d
000000c0: 80f3 cd3b df36 b83d 3fbb e5bc d4bc c6bd
000000d0: e9a6 ba3d b7c7 a83a 44b9 383d 1144 b03d
000000e0: 219f 0dbd 39f0 81bd 2a35 c8bc e630 a7bc
000000f0: ebcd 83bd aaf7 9c3d 2ea3 7cbd b155 dfbc
00000100: ec39 943d 5d8a 8b3d b77b 263a 0241 a13d
00000110: dbf2 b4bc e8ff c6bc 1d60 e33d f852 673d
00000120: 9a0f 963d ab2b 8039 8d5a c3bd 6982 1cbd
00000130: 591b 723a 24fe 84bc ac1d dcbd 460d f43d
00000140: 28fb 193d 4a28 163c e9e4 b43d bbe4 423d
00000150: 880a 063c 9fd0 ab3a 18a1 88bd 95ce e0bb
00000160: 4685 c1bb 1a3a adbc 2033 083d 1281 a73d
00000170: fb8e a73b 2fef 63bd 87ba 5c3c 540e eb3d
00000180: f327 bf3c da0b 863d a299 4b3d 4fa8 a33b
00000190: 8d38 d13d c401 333d 41cc 4bbd 856d fb3b
000001a0: 20c3 21bd ee66 8ebc 1756 803d 7a8e 373d
000001b0: cf49 65bd 88b5 02bd 88f8 8a3d ec1e 813d
000001c0: 6690 c53c b9c1 813c 09d2 b5bd 429a 30bc
000001d0: 819a 87bd 3ab8 a53b 0770 2cbc 80af 8c3d
000001e0: 9e32 3dbd 8132 ed3d ba13 cf3d 316e 1dbb
000001f0: 5dfd 383d edae a6bd 7b5f 31bd 17e6 cabc
00000200: f910 8e3c 26fc 7dbb a9e3 a13d 4fda a9bc
00000210: b909 a3bd e3ab 653d 9388 e0ba e0a9 2d3d
00000220: 87e1 a43d c488 7d3d 705f 49bd 2bd1 abbc
00000230: 01c7 063d 8a45 91bb 553d 8d3d 8535 7f3d
00000240: 9772 263d 2b78 3a3c f364 3abd ef22 b83c
00000250: 0107 563d b100 303d 710c e73c 4473 7f3c
00000260: e7c1 9ebd 2629 e8bc 236b e93b 84f6 d03c
00000270: 6c97 193d d5ca a43d 4390 2a3d 643f 323d
00000280: 20ee 983d 2137 97bd fcbd 1d3c 5bf0 be3c
00000290: 5f67 12bd 47c6 6c3d edd6 b63c c841 8a3d
000002a0: fdf4 83bd 0955 38bd 6fec 283d 7c25 07bd
000002b0: 0ef7 30bd 69d9 3dbd 3994 d5bc 8d5c d33d
000002c0: 186e 873d 28cb f2bd 8fcd a33d bd52 883d
000002d0: d91d 7b3c 71f9 c33d 8a24 b93c 395a afbd
000002e0: 75f9 493d faed 543a 23ee adbc 64e6 85bc
000002f0: daae 2fbd cff1 d43c 2515 953c fb42 43bc
00000300: 0b37 af3c 6ec8 273d 5d0e b93c 0b62 8f3c
00000310: 640f 913d 208d a43d 297f a5bd 995d ac3d
00000320: 2123 eebc 37b0 243d 4fb2 14bc f5ee 593d
00000330: e077 243c 3f29 253d be6b d8bc 4113 c7bd
00000340: facc b63c f6af 8abd a9bb 90bd ea7a a53d
00000350: 40dd a03c 8c49 cbbd 37b6 ca3d 5480 e3bc
00000360: 205d cebd aade ef3d 956c 193c db9f a23d
00000370: 2ec5 e0bb 0b3f a4bd 9fbe e1bd f176 043e
00000380: fd44 ba3c 1e69 bf3c c4cd a5bc 0bed c03d
00000390: dc9f f4bd d1b5 c43d 4d1c 8d3d 79c4 8ebd
000003a0: 9def a43d a6e1 333c 52d4 bbbc f00e b33d
000003b0: 80e4 903d 048c 61bd 5f25 063e 1265 6abd
000003c0: 76c5 083d c491 e03d 383b 8a3d ec8d 0c3d
000003d0: da85 a03d cbd1 003d cab4 aebd 45ff 313b
000003e0: 4774 c93d d529 87bc f78f bd3d 57ee cb3d
000003f0: d71c bfbd 7f6d a93b de58 1ebd afbf 223d

fc1.bias f4 [128]
0.07996657 0.006525891 -0.0145366825 0.04342943 -0.06699466 0.018950997 0.08299268 -0.0018617987
0.041006703 0.057385657 0.03733264 -0.028198412 0.07271478 0.002134169 0.047488853 0.034490015
0.03847734 -0.06436334 -0.023068754 -0.002055019 -3.155571e-05 0.02575652 0.08108517 -0.11849066
-0.03951932 0.0035598262 -0.07657728 0.035293635 0.032144714 0.062948436 0.035455123 -0.009906465
-0.01196054 -0.04612717 0.056173068 0.032866284 0.0034736854 0.07793726 -0.043045145 0.06284869
-0.05283697 0.027256973 0.081783265 0.042199258 -0.04529839 0.0026194737 0.09347988 0.048997488
0.05447248 -0.022927921 0.051156864 0.029176295 0.054226004 0.0825499 0.109292276 0.07462766
-0.07075605 0.11588571 -0.02981813 0.06926695 0.0043712095 -0.08478483 0.036005888 -0.07603306
-0.0049438663 -0.00826943 0.0024296553 -0.017101612 0.07729389 -0.029286994 0.08219475 0.044976365
0.01470556 0.09062271 0.016331721 0.0035796524 -0.017537182 0.06808878 0.052707333 -0.014803629
0.084802926 0.044079248 0.063785434 -0.06322986 -0.044227995 -0.022367662 0.07538452 -0.08901837
0.043851838 -0.0077748033 -0.009706461 -0.010949371 -0.038021956 -0.016925095 -0.02501777 0.023233827
-0.05739024 0.0469602 0.06254438 0.07793307 0.046670314 -0.07948039 0.024525495 0.03205701
0.062313527 -0.03132593 0.08092378 -0.005050778 -0.000892506 -0.012598912 0.02805942 0.030425688
0.05677648 -0.0031837611 -0.029768432 -0.023587745 0.010623495 0.08821459 0.071391754 -0.002987315
0.09438768 0.09516638 0.043410633 -0.002264421 0.093612246 0.086657725 -0.081883274 0.042977702
00000000: 83c5 a33d 24d7 d53b 442b 6ebc 0fe3 313d
00000010: 7f34 89bd 1f3f 9b3c 11f8 a93d 9907 f4ba
00000020: a5f6 273d 390d 6b3d 1cea 183d 5b00 e7bc
00000030: 7deb 943d 6add 0b3b ac83 423d 6745 0d3d
00000040: 6a9a 1d3d edd0 83bd affa bcbc 7fad 06bb
00000050: b05a 04b8 56ff d23c fb0f a63d 3bab f2bd
00000060: 03df 21bd f94b 693b 8dd4 9cbd 0f90 103d
00000070: 2daa 033d 1ceb 803d 6439 113d ba4e 22bc
00000080: 24f6 43bc d8ef 3cbd bb15 663d cc9e 063d
00000090: c5a6 633b 929d 9f3d 1b50 30bd d0b6 803d
000000a0: 946b 58bd 044a df3c fc7d a73d 21d9 2c3d
000000b0: ce8a 39bd 7aab 2b3b 6172 bf3d 97b1 483d
000000c0: 891e 5f3d 56d3 bbbc dc89 513d 2003 ef3c
000000d0: 161c 5e3d ec0f a93d a1d4 df3d 63d6 983d
000000e0: 8ce8 90bd 7d55 ed3d 2745 f4bc d5db 8d3d
000000f0: 5d3c 8f3b aba3 adbd e97a 133d 39b7 9bbd
00000100: 2800 a2bb 817c 07bc da3a 1f3b ae18 8cbc
00000110: 424c 9e3d 47eb efbc b955 a83d 2339 383d
00000120: 97ef 703c 6698 b93d 1aca 853c 9a98 6a3b
00000130: 23aa 8fbc 2172 8b3d a5e3 573d ec8a 72bc
00000140: 28ad ad3d 718c 343d f0a1 823d a87e 81bd
00000150: 6a28 35bd 633c b7bc 3363 9a3d 434f b6bd
00000160: fc9d 333d c7c3 febb d907 1fbc fe64 33bc
00000170: e9bc 1bbd 7fa6 8abc 11f2 ccbc de54 be3c
00000180: 0712 6bbd 5759 403d 4517 803d 609b 9f3d
00000190: 5f29 3f3d 9dc6 a2bd b1e9 c83c 364e 033d
000001a0: 783c 7f3d 9e4f 00bd 5ebb a53d ff80 a5bb
000001b0: 10f7 69ba ab6b 4ebc dedc e53c 4b3f f93c
000001c0: 748e 683d a6a6 50bb eddc f3bc 163b c1bc
000001d0: 2b0e 2e3c daa9 b43d d735 923d d4c6 43bb
000001e0: 544e c13d 97e6 c23d 59cf 313d ae66 14bb
000001f0: c7b7 bf3d 9b79 b13d 6bb2 a7bd 6309 303d

fc2.weight f4 [64, 128]
0.022767605 -0.014142213 -0.08221901 -0.005724743 -0.074455895 -0.010060464 0.00818334 0.058640826
-0.03402013 -0.09099349 0.044485554 -0.011577325 0.0038202077 0.08079988 -0.11397868 -0.03976145
0.06702583 -0.11549006 -0.09922156 0.023909895 -0.06949917 -0.12030888 -0.023595305 -0.019740611
-0.028616404 0.007946006 -0.094399415 -0.062480345 0.06870896 0.014423463 -0.00505609 -0.07971578
-0.010424017 -0.005851304 -0.09102315 0.055191673 0.013632278 0.042007737 -0.0047110165 -0.10074439
0.036818314 -0.06201308 -0.034080468 0.0627476 -0.063847005 -0.0030906606 0.05756861 -0.009909509
0.031600893 -0.0799793 -0.06330355 0.05794558 -0.067333914 0.0020275682 -0.004660282 0.04572704
-0.07874809 -0.009651349 0.08625221 0.018939829 0.048104763 -0.072484516 0.02484039 -0.041812375
0.027269341 -0.0493997 0.024648534 0.085095085 -0.05767314 0.042288117 -0.038702536 0.016637482
5.555633e-05 0.018129325 0.0035292206 0.024579346 0.060978472 -0.035415098 -0.09361689 0.07377944
0.047268268 0.03450451 0.0009099049 0.035443556 0.007078934 0.031486765 0.03311255 -0.0808973
-0.033550702 0.0010160638 0.050019804 0.017398583 -0.04908206 0.032346815 -0.044530615 -0.046258595
-0.055239104 0.01144677 0.056115203 -0.08827158 0.05260043 0.045361545 -0.011365185 0.07316317
-0.046172302 -0.087760426 -0.01581716 -0.023868352 -0.099636264 0.04951731 -0.03909419 -0.04368879
0.07525926 0.007785467 -0.017044771 -0.031316526 -0.046111047 -0.062337395 -0.07126394 -0.034927845
0.06987808 0.025312375 -0.030817278 0.010946427 0.020579623 0.07185708 -0.08725101 0.008459867
-0.013309286 0.024927948 -0.030509513 0.15947063 -0.03804045 0.033773977 0.12406794 0.03874835
0.03716738 0.035851523 0.04323054 0.0038618788 0.0058086296 -0.117525116 0.037847023 0.023251574
-0.12843066 0.009612341 0.1259197 0.1278551 0.2001896 -0.08502577 -0.052515678 -0.01983956
0.13687782 0.06773248 0.03498656 0.06408582 -0.08726572 0.058925524 -0.08695995 0.10035777
0.11982012 -0.09813567 0.03122386 0.025636822 -0.058739197 -0.09896771 0.010023872 -0.072089426
0.13641825 -0.08638121 0.030995678 -0.06392636 -0.037727404 -0.044520456 -0.03815594 0.12524399
-0.058316663 0.09940932 0.08913345 0.10592249 -0.113759086 0.09461891 -0.12351219 -0.08035756
0.031091098 -0.08893158 -0.049871266 0.026469044 -0.023748936 0.02250074 -0.104272544 0.031212328
-0.091011874 -0.07992226 0.006316558 -0.08695599 0.062956885 -0.08341059 0.07972538 -0.0024155558
-0.06621843 -0.07822518 -0.03743222 -0.063833304 -0.034258034 0.010390769 -0.0058675734 -0.07572658
0.055412915 -0.0025493838 -0.11810962 0.038811244 0.097189546 -0.09809681 0.06369647 -0.04084402
-0.042013522 -0.014203354 -0.007635169 -0.14143299 0.053069368 0.020451501 -0.11205142 -0.1392807
-0.07009671 0.12463868 0.069551 0.071159124 0.024822595 -0.07914271 -0.036343392 0.065129966
-0.11216583 -0.12753892 0.043099612 -0.08139608 0.12790035 -0.025820479 -0.05612909 -0.06874752
-0.085702 0.043096 0.024613047 0.046140596 -0.019473856 -0.050070122 -0.1086286 0.03387727
0.100255676 -0.0465213 0.07998035 -0.07764971 0.1284517 -0.06766544 0.1299809 0.1041621
00000000: 2183 ba3c beb4 67bc 7162 a8bd a096 bbbb
00000010: 557c 98bd a5d4 24bc 6a13 063c 5d31 703d
00000020: b158 0bbd cb5a babd 7c36 363d d2ae 3dbc
00000030: 735c 7a3b 687a a53d a76d e9bd e7dc 22bd
00000040: d744 893d 0d86 ecbd ac34 cbbd afde c33c
00000050: 9555 8ebd 8164 f6bd f14a c1bc 10b7 a1bc
00000060: f36c eabc f72f 023c 7b54 c1bd 64eb 7fbd
00000070: 49b7 8c3d 6350 6c3c 8fad a5bb 0742 a3bd
00000080: 7fc9 2abc 4cbc bfbb 586a babd aa10 623d
00000090: eb59 5f3c 4e10 2c3d df5e 9abb 1353 cebd
000000a0: cdce 163d 6d01 7ebd f697 0bbd d081 803d
000000b0: 38c2 82bd ae8c 4abb 10cd 6b3d 7e5b 22bc
000000c0: f06f 013d 30cc a3bd 4ba5 81bd 5858 6d3d
000000d0: 5de6 89bd f3e0 043b 47b5 98bb 474c 3b3d
000000e0: ae46 a1bd b120 1ebc 00a5 b03d b327 9b3c
000000f0: 8009 453d c372 94bd 137e cb3c 7443 2bbd
00000100: f463 df3c 5757 4abd b9eb c93c 5546 ae3d
00000110: ac3a 6cbd 4e36 2d3d 8d86 1ebd 544b 883c
00000120: 2805 6938 f383 943c 7f4a 673b a05a c93c
00000130: 90c4 793d 6c0f 11bd 36ba bfbd ad19 973d
00000140: 5f9c 413d 9a54 0d3d af86 6e3a 432d 113d
00000150: 67f6 e73b 44f8 003d 06a1 073d 7cad a5bd
00000160: 766c 09bd 722d 853a 91e1 4c3d 7987 8e3c
00000170: 450a 49bd 187e 043d bc65 36bd a779 3dbd
00000180: 6642 62bd 3c8b 3b3c 0ed9 653d bbc7 b4bd
00000190: 8c73 573d 07cd 393d 0a35 3abc 92d6 953d
000001a0: 2b1f 3dbd bdbb b3bd fd92 81bc 9087 c3bc
000001b0: 190e ccbd aad2 4a3d 3b21 20bd 04f3 32bd
000001c0: 8721 9a3d 3b1d ff3b 7aa1 8bbc c245 00bd
000001d0: f0de 3cbd 7f55 7fbd d4f2 91bd 8010 0fbd
000001e0: 3d1c 8f3d e65b cf3c 8474 fcbc a458 333c
000001f0: 9996 a83c ce29 933d a8b0 b2bd 419b 0a3c
00000200: 310f 5abc b235 cc3c 16ef f9bc 454c 233e
00000210: 4ed0 1bbd 9556 0a3d 5517 fe3d 97b6 1e3d
00000220: d33c 183d 0cd9 123d 8212 313d 9317 7d3b
00000230: 5156 be3b 02b1 f0bd 7b05 1b3d 167a be3c
00000240: 5483 03be 157d 1d3c 18f1 003e 73ec 023e
00000250: 81fe 4c3e fe21 aebd ae1a 57bd 9386 a2bc
00000260: b329 0c3e 54b7 8a3d 114e 0f3d 6d3f 833d
00000270: 5fb8 b2bd e45b 713d 0f18 b2bd 6088 cd3d
00000280: 4064 f53d 5bfb c8bd 2ec9 ff3c 5004 d23c
00000290: 8398 70bd 95af cabd 2b3b 243c 9fa3 93bd
000002a0: 3ab1 0b3e a2e8 b0bd a6ea fd3c d3eb 82bd
000002b0: 0d88 1abd 155b 36bd 6749 1cbd f63f 003e
000002c0: 74dd 6ebd 1d97 cb3d 998b b63d e4ed d83d
000002d0: 86fa e8bd 8fc7 c13d f6f3 fcbd 8192 a4bd
000002e0: c2b2 fe3c c321 b6bd d045 4cbd 9cd5 d83c
000002f0: 218d c2bc 7953 b83c d88c d5bd ffb0 ff3c
00000300: 6f64 babd 48ae a3bd 21fb ce3b fb15 b2bd
00000310: 8aef 803d 2cd3 aabd 0f47 a33d 4d4e 1ebb
00000320: 879d 87bd 8634 a0bd 8752 19bd 09bb 82bd
00000330: 2752 0cbd 0b3e 2a3c c644 c0bb 8a16 9bbd
00000340: a7f8 623d 9013 27bb 75e3 f1bd 8af8 1e3d
00000350: 500b c73d fbe6 c8bd 4b73 823d 0f4c 27bd
00000360: 5f16 2cbd 2fb5 68bc 7130 fabb cfd3 10be
00000370: 445f 593d e889 a73c 377b e5bd 9a9f 0ebe
00000380: dd8e 8fbd 9042 ff3d c170 8e3d e0bb 913d
00000390: c158 cb3c 9315 a2bd cfdc 14bd dc62 853d
000003a0: 33b7 e5bd 9099 02be 3889 303d fdb2 a6bd
000003b0: 4ff8 023e 7885 d3bc 9ee7 65bd 80cb 8cbd
000003c0: 8884 afbd 6e85 303d 4da1 c93c ecfd 3c3d
000003d0: a387 9fbc 5416 4dbd ac78 debd e4c2 0a3d
000003e0: d952 cd3d 1e8d 3ebd bdcc a33d d006 9fbd
000003f0: d888 033e 2e94 8abd b719 053e f052 d53d

fc2.bias f4 [64]
0.0023022795 0.07166901 -0.021407725 0.07095199 0.053123817 -0.06233731 -0.032069847 0.059802603
-0.08556091 0.046134673 -0.020321472 0.16841419 -0.08033062 0.03118387 0.113688245 -0.07481944
-0.0381035 0.04863185 -0.010776644 -0.008542103 -0.07680498 0.028906401 -0.02124162 -0.016275885
0.09116207 -0.062518924 0.12038381 0.049344204 0.05069981 -0.07658104 0.020807205 -0.08139976
0.029326312 0.014325397 0.020392222 0.06916374 0.023553321 -0.021242067 -0.0029895406 0.012364784
-0.0005930237 -0.070075974 0.010037049 -0.0053596618 0.07423306 -0.00777345 0.072035156 0.022715248
-0.009206847 -0.08003772 -0.033740483 -4.9589376e-05 -0.054797318 -0.030523734 0.0913185 -0.04294264
-0.0022749614 0.022794863 0.10177888 -0.07386466 0.07788642 0.026740223 0.062099863 -0.04749998
00000000: d7e1 163b 34c7 923d 415f afbc 474f 913d
00000010: 5c98 593d 6855 7fbd ac5b 03bd 93f3 743d
00000020: 8f3a afbd b6f7 3c3d 3779 a6bc c574 2c3e
00000030: 6184 a4bd 5175 ff3c 62d5 e83d ef3a 99bd
00000040: 6a12 1cbd 3132 473d 8590 30bc 2df4 0bbc
00000050: ee4b 9dbd 1ecd ec3c e802 aebc 0155 85bc
00000060: 2eb3 ba3d ec09 80bd c98b f63d 261d 4a3d
00000070: 9baa 4f3d 85d6 9cbd df73 aa3c ebb4 a6bd
00000080: bc3d f03c 12b5 6a3c 970d a73c b8a5 8d3d
00000090: e5f2 c03c d803 aebc 2bec 43bb aa95 4a3c
000000a0: 2675 1bba fe83 8fbd 6f72 243c 1aa0 afbb
000000b0: 8107 983d 6db8 febb 2b87 933d 5415 ba3c
000000c0: 51d8 16bc d1ea a3bd 7633 0abd 30fe 4fb8
000000d0: 2773 60bd e90c fabc 3205 bb3d 9fe4 2fbd
000000e0: 8517 15bb 4bbc ba3c 7271 d03d 5b46 97bd
000000f0: ea82 9f3d 500e db3c 6d5c 7e3d 578f 42bd

action_head.weight f4 [5, 64]
0.06785416 -0.006701354 -0.10275284 -0.036672316 0.06645218 -0.007751264 -0.14221518 0.016737476
-0.04514754 -0.056731224 -0.072223455 -0.06254032 0.05854121 -0.03422289 -0.07635157 0.037138537
-0.028720776 -0.005119535 -0.18215632 0.11657407 -0.06415104 0.0020251737 -0.027199676 0.057933833
0.052124493 -0.108132094 -0.014509333 0.07213394 -0.12388632 -0.08213748 0.009378871 -0.028103387
0.044900745 -0.018024852 -0.13027075 0.075036466 0.09237638 0.008816987 0.061762646 0.05923366
0.048464548 -0.046453953 -0.11405097 0.063977435 0.03311305 -0.037285127 -0.10671348 0.014549722
0.036293563 0.008899683 0.11181022 -0.1324295 0.11659227 -0.17221572 -0.021770863 0.08007428
-0.12425197 0.05123244 -0.13714173 0.09928724 0.03353784 -0.007483635 -0.055275254 -0.0067065703
-0.00030177398 0.06920157 -0.033983354 -0.029923083 0.14909302 -0.010441341 0.055655997 0.07076058
-0.00032681934 0.11522468 0.0070207226 0.22432894 0.05885531 0.08460847 0.038498364 -0.035756383
-0.029161492 0.12572919 0.066945225 0.048575442 0.06500505 0.19320376 0.060939807 0.06731233
-0.10301534 -0.037556987 0.19047241 0.054617893 -0.1090331 0.09303142 -0.02264357 -0.06516099
0.020050524 0.18582606 0.04314388 0.11166528 0.046559177 -0.050685957 0.13675731 0.064862944
0.07622388 0.012756437 0.0023250973 -0.090356484 0.17359228 0.105893515 0.040488373 -0.08665892
0.09371253 0.021976255 -0.051070556 0.030068897 0.1274899 0.19051461 0.12745509 -0.12845497
-0.07881549 -0.018469876 0.16624668 0.097039245 0.1669137 0.025375998 -0.0028057776 0.02936691
-0.030968294 -0.021147054 -0.0057424135 0.0099857915 0.01418622 0.040796142 -0.105526336 -0.037171394
0.084338315 0.042614084 -0.07324587 -0.020258347 0.011399031 -0.070621565 -0.078815505 -0.05381967
-0.12209719 -0.15755138 -0.19782916 -0.11376736 0.10895936 -0.16306603 0.034246404 0.061854474
-0.116702326 -0.05642415 -0.06868289 -0.09332822 -0.013287028 -0.0658264 -0.06444019 -0.09721555
-0.118091255 -0.1815456 0.015965702 -0.0724537 0.0122054 0.115821406 0.054989144 -0.066223666
0.09750854 0.045928225 -0.045713466 -0.011765412 -0.020505773 -0.06734579 0.013510803 -0.14454067
-0.011447135 0.07003943 0.018399097 0.007978619 -0.10905041 0.0062108813 -0.13371734 -0.026337253
0.11072519 0.05809822 -0.13996035 0.063882135 -0.19388805 0.050736245 -0.05340159 0.09207653
0.013054001 0.17465013 0.16113183 0.106103785 -0.09817669 -0.03094725 0.17944257 -0.040729903
0.027732234 0.052761417 0.031034008 0.20746107 0.046720356 -0.030785501 0.07291814 -0.034867223
0.09133884 -0.01983985 0.15693344 0.084414035 -0.09307265 -0.0068767075 -0.04028582 0.08831759
0.016881132 -0.04792013 0.12991366 0.12397784 0.20837629 0.030590365 0.104129866 0.107749656
0.18192449 -0.00029406592 0.05178058 0.015990706 -0.004315703 0.01850606 0.15879487 0.16487733
-0.08986662 -0.035103872 0.008596652 0.14104983 0.10738526 -0.04302279 0.15098803 0.16077147
-0.03097265 -0.007587522 -0.09192769 0.12269976 -0.07967771 -0.02049559 0.19449866 0.12765808
-0.035481926 0.19476812 0.1181589 0.058320668 0.17010404 0.036773883 0.16492042 -0.1720544
00000000: 1ff7 8a3d 0897 dbbb 1570 d2bd b635 16bd
00000010: 1518 883d 51fe fdbb dba0 11be 081d 893c
00000020: a0ec 38bd 005f 68bd e4e9 93bd 2415 80bd
00000030: e8c8 6f3d 4d2d 0cbd 365e 9cbd 941e 183d
00000040: d547 ebbc c6c1 a7bb 3087 3abe 63be ee3d
00000050: 9f61 83bd c7b8 043b dbd1 debc 074c 6d3d
00000060: 7e80 553d 5c74 ddbd 8eb8 6dbc f6ba 933d
00000070: 1cb8 fdbd b237 a8bd d6a9 193c 1339 e6bc
00000080: d8e9 373d dba8 93bc b265 05be b8ac 993d
00000090: d42f bd3d 2075 103c d4fa 7c3d ff9e 723d
000000a0: c382 463d 8046 3ebd 8e93 e9bd 9a06 833d
000000b0: 8da1 073d 4ab8 18bd 998c dabd f561 6e3c
000000c0: 8fa8 143d facf 113c c2fc e43d 999b 07be
000000d0: eec7 ee3d 5159 30be cf58 b2bc fcfd a33d
000000e0: d177 febd 1bd9 513d e26e 0cbe 1c57 cb3d
000000f0: f95e 093d 4839 f5bb 4e68 62bd cac2 dbbb
00000100: 6b37 9eb9 8db9 8d3d 2132 0bbd 4121 f5bc
00000110: d7ab 183e 2912 2bbc 8bf7 633d ecea 903d
00000120: f358 abb9 ebfa eb3d 170e e63b 7cb6 653e
00000130: 4412 713d 3547 ad3d 76b0 1d3d 4975 12bd
00000140: 15e4 eebc 27bf 003e 941a 893d 0bf7 463d
00000150: 5e21 853d 35d7 453e 059c 793d 0cdb 893d
00000160: b5f9 d2bd 5bd5 19bd 330b 433e 03b7 5f3d
00000170: bf4c dfbd 4287 be3d 027f b9bc 2073 85bd
00000180: ff40 a43c 3049 3e3e a3b7 303d c4b0 e43d
00000190: d6b4 3e3d 149c 4fbd 1c0a 0c3e ddd6 843d
000001a0: 441b 9c3d 6000 513c a960 183b d20c b9bd
000001b0: 2dc2 313e b3de d83d 23d7 253d 3b7a b1bd
000001c0: 5bec bf3d 8c07 b43c 5c2f 51bd 0c53 f63c
000001d0: b68c 023e 4316 433e 9683 023e b389 03be
000001e0: 046a a1bd 234e 97bc 923c 2a3e 83bc c63d
000001f0: 6deb 2a3e 53e1 cf3c 23e1 37bb e092 f03c
00000200: 38b1 fdbc 963c adbc db2a bcbb 729b 233c
00000210: 526d 683c db19 273d 311e d8bd 0841 18bd
00000220: 91b9 ac3d 1b8c 2e3d ee01 96bd d5f4 a5bc
00000230: 00c3 3a3c 0aa2 90bd 066a a1bd 0472 5cbd
00000240: 170e fabd 2655 21be ba93 4abe ddfe e8bd
00000250: 1626 df3d c8fa 26be f545 0c3d 1e5b 7d3d
00000260: a101 efbd 021d 67bd 9da9 8cbd de22 bfbd
00000270: d6b1 59bc fecf 86bd 38f9 83bd f218 c7bd
00000280: d4d9 f1bd 17e7 39be 81ca 823c 9b62 94bd
00000290: 28f9 473c c633 ed3d 4c3c 613d 46a0 87bd
000002a0: 8fb2 c73d 3c1f 3c3d 0b3e 3bbd b7c3 40bc
000002b0: b9fb a7bc 97ec 89bd 6a5c 5d3c 7802 14be
000002c0: c48c 3bbc d570 8f3d b4b9 963c c1b8 023c
000002d0: d255 dfbd a684 cb3b 33ed 08be 39c1 d7bc
000002e0: e3c3 e23d 66f8 6d3d c451 0fbe a3d4 823d
000002f0: 978a 46be cfd0 4f3d a0bb 5abd 9f92 bc3d
00000300: 73e0 553c 7cd7 323e beff 243e f14c d93d
00000310: dc10 c9bd 1685 fdbc cbbf 373e 66d4 26bd
00000320: b62e e33c 5b1c 583d 083b fe3c ad70 543e
00000330: d85d 3f3d e031 fcbc 1b56 953d efd0 0ebd
00000340: dc0f bb3d 2e87 a2bc 29b3 203e 44e1 ac3d
00000350: e09c bebd 0156 e1bb be02 25bd dadf b43d
00000360: 4d4a 8a3c e647 44bd 1608 053e 18e8 fd3d
00000370: 9860 553e a598 fa3c 0a42 d53d daab dc3d
00000380: 6a4a 3a3e dc2c 9ab9 e017 543d f1fe 823c
00000390: be6a 8dbb 059a 973c 1f9b 223e 9ad5 283e
000003a0: fe0b b8bd 14c9 0fbd f9d8 0c3c 5e6f 103e
000003b0: ceec db3d aa38 30bd 9b9c 1a3e 47a1 243e
000003c0: 5bba fdbc bfa0 f8bb 9644 bcbd 034a fb3d
000003d0: 112e a3bd 5ee6 a7bc a82a 473e cdb8 023e
000003e0: 7f55 11bd 4b71 473e 4bfd f13d a7e1 6e3d
000003f0: c12f 2e3e 36a0 163d e6e0 283e 072f 30be

action_head.bias f4 [5]
-0.16854472 0.17690083 -0.1255284 -0.038697988 0.01647506
00000000: fd96 2cbe 7e25 353e 848a 00be c881 1ebd
00000010: b4f6 863c
