logs/ppo_checkpoint_ep150.pth (torch, 451850 bytes, 28 tensors)

fc1.weight f4 [128, 147]
000000 7a 1b 13 3d 86 ff 4a 3d 41 cc 21 bd 63 98 fa 3c
       0.035914876 0.049560092 -0.039501432 0.030590242
000010 6b 3c 0c bd bc c4 d8 3d ec a1 8e bd 1d 14 24 3d
       -0.034237307 0.10584399 -0.06964478 0.040058244
000020 a7 30 6e bd e6 58 ba 3c a1 a2 8f bc 78 c9 e7 bc
       -0.058151867 0.022747468 -0.017533602 -0.02829431
000030 c5 75 bc bb 39 70 4b 3d 15 fa 11 bd 4d e4 e3 3b
       -0.005751344 0.04966757 -0.035638887 0.006954706
000040 80 27 bd 3d ee a3 f2 3c 04 cd 87 3d 2c a1 a3 3d
       0.0923605 0.029619183 0.066309005 0.079897255
000050 88 fb b8 3d 38 9f 35 3c 09 ba 11 bd 7b d0 b9 3c
       0.09032351 0.011085324 -0.035577808 0.022682419
000060 39 06 b3 bc d6 7d 7d bd 56 35 94 bd 8b 39 42 3d
       -0.021853553 -0.061887585 -0.072367355 0.04741816
000070 08 8d 8e 3d 80 a0 7d 3d 6c 03 aa bc 44 19 c4 3d
       0.06960493 0.061920643 -0.020753585 0.095751315
000080 d8 74 aa bc 11 3b 98 bd 46 44 ba 3c cf d1 c0 3d
       -0.020807669 -0.07433141 0.022737633 0.09415018
000090 10 17 b4 bc d3 49 90 bc 07 a1 41 bc 10 4d 97 bd
       -0.021983653 -0.017613327 -0.011818177 -0.073877454
0000a0 53 90 9e 3d 8c d9 42 3d 12 39 56 bd 77 84 4e 3d
       0.077423714 0.04757075 -0.05230052 0.050419297
0000b0 ec 41 69 3d 18 51 6d 3c 89 5f 9c 3c 8e c8 01 3d
       0.056947634 0.014484666 0.019088523 0.031685404
0000c0 fb f5 bd bd 41 88 0c 3d 67 3e 04 bd 41 f5 55 bd
       -0.09275433 0.03430963 -0.032286074 -0.052235845
0000d0 15 34 96 3d 4c ea 99 bc 4c 69 d7 bd 9c e0 93 3d
       0.073341526 -0.01878848 -0.10518131 0.07220575
0000e0 24 78 11 bd 52 13 90 bc 23 af c9 3c 92 a2 e4 3c
       -0.035514966 -0.017587338 0.024619645 0.02790955
0000f0 1b 02 7d bd 9e ee b2 3d 5e 8c b9 bc 4b 7e ab bd
       -0.061769586 0.08736919 -0.02264994 -0.08373698
000100 f7 a5 dc 3d bc e7 4f 3c 50 1b 72 bd 8d e8 8a ba
       0.10773843 0.012689527 -0.05910808 -0.001059787
000110 d4 41 b3 3d f1 de ee bd 2a 2c 8d 3d 82 82 92 bc
       0.0875279 -0.116636164 0.06893189 -0.017884497
000120 9b 8c cc 3d 70 b5 7b 3c a3 54 0a 3d e2 59 da bd
       0.09987756 0.015363082 0.033772122 -0.10661675
000130 ad 03 18 bc 57 ec e0 ba 87 36 ca bd fa 80 71 3d
       -0.00927822 -0.0017160279 -0.098736815 0.058960892
000140 3c ce c0 3d b7 d2 a8 ba bc a6 16 bd eb 0d 8f bb
       0.09414336 -0.0012880181 -0.036780104 -0.004365673
000150 6e fc 81 bd 1d d9 42 3d f9 f6 d2 bc 9a c2 82 3d
       -0.06346975 0.047570337 -0.025752531 0.063847736
000160 e8 c3 13 3d 2d 38 48 bd 1a 5a 77 bd 16 7b 62 3d
       0.036075503 -0.0488817 -0.060388662 0.055293165
000170 cf 0f 51 bd bf 39 d5 bd 43 8e 90 3d 2b f1 05 bc
       -0.051040467 -0.10411405 0.07058384 -0.008175175
000180 4d 3f 50 bd 55 51 30 3d 91 d2 20 3d 7a 5f c9 bd
       -0.05084162 0.043046314 0.03926331 -0.09832664
000190 43 56 9e 3d 1e c3 a4 3d 38 ec aa bd 14 20 b2 3c
       0.07731297 0.08045028 -0.083458364 0.021743812
0001a0 2a 9b 4e 39 08 c4 83 3d 27 57 37 3d aa 11 24 3c
       0.00019703494 0.06433874 0.04476085 0.010013977
0001b0 93 ca ed bc 50 43 98 3d c4 62 80 3a c3 a2 d4 bd
       -0.029027259 0.07434714 0.000979506 -0.10382607
0001c0 92 d5 f5 3d b4 56 17 bc bf dc 66 bd 9b 44 39 3d
       0.12003626 -0.00923698 -0.056362864 0.045231443
0001d0 11 53 c3 bc 5c f1 b5 3b fd 88 14 3d 99 70 86 3c
       -0.02384332 0.005552454 0.036263455 0.016411113
0001e0 96 93 8b bd 19 d7 ab 3d 02 40 85 3c 03 90 c9 bd
       -0.06815259 0.08390636 0.016265873 -0.09841921
0001f0 b5 19 8b bd 13 7b 14 3c 3c 9d 21 3d 7e 97 00 bd
       -0.067920126 0.009062546 0.03945659 -0.031394474
000200 49 2e 0f bd 62 95 05 bd 4f 57 5b 3d 85 86 cd 3d
       -0.03495625 -0.032613166 0.05355006 0.10035423
000210 ec 4e a7 bd ec cc f3 3d 6d 83 2f 3c 56 39 68 b9
       -0.0816935 0.1190432 0.010712487 -0.00022146603
000220 65 ce c7 bb 50 36 e1 3d 21 88 8b bd 8c ed a0 3d
       -0.006097602 0.109966874 -0.06813074 0.078578085
000230 cb 82 8b 3d c9 3a 42 3c d0 61 ac 3c 2d 0c 77 3d
       0.06812056 0.011854836 0.021042734 0.060314346
000240 65 24 bd 3a 76 46 8a 3d 39 8b 49 3c bc 87 bd bd
       0.0014430402 0.067517206 0.01230126 -0.09254405
000250 76 f9 60 bd d5 d5 1c bd af b9 8c bd 11 86 ac bd
       -0.054925404 -0.038289864 -0.06871354 -0.08424009
000260 a5 d5 c3 3d 76 cb 63 3b 44 72 8e 3d b9 5d 9a 3d
       0.09562234 0.0034758723 0.06955388 0.075374074
000270 c4 fd a4 bd 87 de c5 3d 70 4a 30 bc c4 35 be bc
       -0.080562145 0.09661584 -0.010759935 -0.023218997
000280 69 da 8e 3d 7d 5e ca 3c fe bc 5e 3d 21 1e 68 ba
       0.06975252 0.024703259 0.054379456 -0.0008854587
000290 3e 4f 92 3d 40 60 7f bc 8e d3 83 3d 4e c1 43 3d
       0.071440205 -0.015586913 0.06436835 0.04779177
0002a0 7b 7a 61 3d 34 5e 71 bc f6 a8 67 3c f7 10 98 3a
       0.055048447 -0.014731932 0.0141394045 0.0011601736
0002b0 1f 48 be bb b2 dc a5 bc 09 02 d7 3b 24 b0 0a bc
       -0.0058069373 -0.020246837 0.006561522 -0.008464847
0002c0 b8 ee a0 3b 0a 5d 8c bd 19 78 cb 3d b3 9e fa 3b
       0.00491127 -0.06853683 0.09935016 0.007648313
0002d0 61 85 07 bd b0 df 64 bc 3c ac 22 bc e6 dc fd 3b
       -0.033086184 -0.013969347 -0.009928759 0.0077472804
0002e0 ac 33 b7 3d 85 61 d9 3c 27 84 a9 3a 2e ba aa 3d
       0.089454025 0.026535759 0.0012933061 0.08336292
0002f0 03 d9 c2 bb 5b 0f 0a 3d 46 d3 18 3c 2a 16 b3 bc
       -0.00594628 0.03370605 0.009327715 -0.021861155
000300 48 b5 8f bd 7c 6b 9d 3d 8b 71 1c bd c6 c7 7e 3c
       -0.070169985 0.07686517 -0.03819422 0.015550559
000310 0c 50 af 3d 04 6e 51 bd 68 f9 9f bc bc cb 42 3d
       0.085601896 -0.05113031 -0.019528106 0.047557577
000320 96 89 1d bd aa 5e 3f bd fb 46 59 3d 07 08 c2 3d
       -0.03846129 -0.046721138 0.053046208 0.09474187
000330 d8 f3 e3 3a 6e 65 f8 3d b5 96 82 3d 49 34 31 3d
       0.0017391397 0.12128721 0.06376401 0.043262754
000340 82 c9 e3 3d 9d 3e 3e 3d 28 77 39 bd b4 f0 52 3d
       0.11122419 0.04644643 -0.045279652 0.051499084
000350 55 a8 09 bd 26 73 e5 bc 13 d9 92 bc 35 b3 68 3d
       -0.0336078 -0.028009009 -0.017925775 0.05681153
000360 48 5f 80 bd f7 f3 f9 3c ec e6 97 3c 35 38 23 bd
       -0.062681735 0.03051184 0.01854273 -0.039848525
000370 53 df 95 bd 1d dd ea bc 44 88 5b 3c 87 7d 53 3d
       -0.07317986 -0.028669888 0.0133991875 0.051633384
000380 a8 d9 c4 3d 20 03 b7 bc e0 db 53 bd 39 a4 f9 3c
       0.09611827 -0.022340357 -0.05172336 0.030473815
000390 94 29 91 bd 0d 70 83 bd 32 f6 89 bd 27 71 7d bd
       -0.070880085 -0.06417856 -0.06736411 -0.06187549
0003a0 9e a8 8a bb db 6a b4 3d 08 91 63 ba 5c e7 c1 3d
       -0.0042315265 0.088094436 -0.0008680974 0.094679564
0003b0 85 0f 8d bc c2 cf 58 3b 82 51 8d 3d d4 18 4f bd
       -0.017219314 0.0033082818 0.06900312 -0.050560787
0003c0 f7 e7 a9 bc 9a e0 ef 3d f8 40 d6 3c 5e 9c 93 bd
       -0.020740492 0.11712761 0.026154026 -0.07207559
0003d0 f3 8d 0c bd 3a e4 93 3d a4 89 58 bc 46 fd 13 3d
       -0.03431506 0.07221265 -0.01321641 0.036130212
0003e0 58 8a b2 3d 87 35 ac bc ea 6e a0 3d f8 72 7b 3d
       0.08717793 -0.021021618 0.07833655 0.06138894
0003f0 3c a7 0c bd b6 3b 00 3c 5b a2 89 bb 0f 23 41 3d
       -0.034339175 0.007826736 -0.0042002625 0.047152575

fc1.bias f4 [128]
000000 3a 66 4a bc 4c cb b4 3d 90 23 40 3c ff f9 8f bc
       -0.012353474 0.08827838 0.011727229 -0.017575262
000010 40 f0 29 bd 00 90 9e 3d 1d a7 d6 bd 30 b5 de bc
       -0.041488886 0.077423096 -0.10481093 -0.027186006
000020 43 bb 64 3d 51 e0 6b 3d 8f 7d d4 3c 4b 28 c5 bd
       0.05584265 0.05758697 0.025938777 -0.09626826
000030 82 6f 76 3d dd 24 56 3d a6 1a 2d bd 52 11 08 3d
       0.060164936 0.05228125 -0.042261742 0.033219643
000040 67 f2 6f bd d8 24 d1 b8 79 7b 91 bd 07 11 bc 3c
       -0.058580782 -9.972759e-05 -0.07103629 0.022957338
000050 32 ec 4b bd f1 39 d4 bb be 46 73 3d 4d 7a ed 3c
       -0.0497858 -0.0064766337 0.059393637 0.028988982
000060 31 29 bc bd 27 5c 7a bd 81 4b 9a 3d b7 c6 97 3d
       -0.09187544 -0.06112304 0.075339325 0.07410949
000070 46 ed 82 3d 8d fa 4f 3d ba 56 53 3a 18 54 cf 3b
       0.063929126 0.050776053 0.00080619345 0.0063271634
000080 f7 63 5a 3d 24 52 b2 3d 48 b8 73 3c 0d 48 99 bd
       0.05331799 0.08707073 0.014875479 -0.07484446
000090 c8 d6 bd 3d 17 c4 8b 3d c3 06 3c bd 5c a3 83 3d
       0.09269482 0.068245105 -0.045904886 0.06427643
0000a0 75 ff d6 3d 9c 59 07 3c 3a ae 2d 3c 15 97 31 3d
       0.10497943 0.008261111 0.010600621 0.043356974
0000b0 57 06 b9 3d 13 3a 18 bd c8 fa a6 3d 10 0b 03 3d
       0.09034412 -0.03716476 0.081533015 0.031992972
0000c0 06 b3 0e 3c f6 0f f0 bb 5f e5 ed 3c 7f 01 04 3d
       0.008709675 -0.0073261214 0.029040037 0.03222799
0000d0 e8 c1 d7 3d 30 17 61 3d 8d 4c e4 bc 42 40 e2 bc
       0.105350316 0.054953754 -0.027868534 -0.027618531
0000e0 6e 4f 38 bd 3e d5 94 bd 77 5c a8 3d 6a 6f 0e 3d
       -0.044997625 -0.07267235 0.08220761 0.03477422
0000f0 f3 97 09 bd 69 9b b9 3c f2 df be 3b 3e 8f 9c 3d
       -0.033592176 0.022657113 0.005825036 0.07644509
000100 0a b7 7b 3b 39 d3 fc bc 2f cc 72 bd 1a a8 0b 3d
       0.003840866 -0.030862438 -0.059276756 0.03409586
000110 bb fb 0e bc a7 b1 1f bd ed 70 b3 3d a4 2c 9c 3d
       -0.008727009 -0.03898778 0.08761773 0.07625702
000120 10 30 f8 3c 0d 7c a5 3d 04 e8 40 3d 4a 8b af 3c
       0.030296355 0.080803014 0.047096267 0.021428723
000130 82 0c 4e 3d f2 9c ac 3d 9f c2 87 bc 68 dd 52 3d
       0.050304897 0.084283724 -0.016572295 0.05148068
000140 44 6f d3 3d 96 25 06 bc dc 69 10 bc fe 9c 44 bd
       0.103239566 -0.008187672 -0.008814301 -0.048001282
000150 bd 0c bb 3d 64 60 01 bd 4d 56 7c 3d 5e 6d aa 3d
       0.09133289 -0.031586066 0.06160574 0.083216414
000160 af a5 0a bd e3 db 4b 3d 75 9b 2b bd 1e 1a 87 bd
       -0.033849414 0.049770247 -0.041896302 -0.06596778
000170 34 2b 22 bd ee 1a 86 bc f9 06 50 bd 3b fb d8 bc
       -0.039591983 -0.016370263 -0.0507879 -0.026486984
000180 88 b4 58 3d 0a 25 af 3d ac 53 67 3d 5c 8e 0f bc
       0.052906543 0.085519865 0.05647628 -0.008761968
000190 53 37 52 bc 69 ac a4 3d 49 cc 55 3d 73 fe 76 3d
       -0.012830573 0.08040697 0.052196775 0.060301255
0001a0 94 6a 4e 3d 30 30 ab 3d f1 47 27 3d a3 a1 c3 bc
       0.05039461 0.083588004 0.040840093 -0.023880785
0001b0 16 d1 67 3d f8 2c a1 3d 21 60 a4 3b 0e b3 92 bd
       0.056595884 0.07869905 0.0050163423 -0.07163058
0001c0 67 76 30 bd 7d 59 3d 3d 5d 34 f1 3c 03 0a ab 3c
       -0.043081667 0.04622792 0.029443914 0.020878797
0001d0 d3 b4 3b 3d 2f 87 72 3d be 65 c5 3d 2c 39 14 bd
       0.045826744 0.059210952 0.096385464 -0.036187336
0001e0 01 cf b4 bc fd da 28 bd a7 2d 9f 3d 19 82 b9 3c
       -0.022071363 -0.04122447 0.07772379 0.022645043
0001f0 e5 77 1c bd 7d 5f ba 3d ed 01 5e 3d f2 c2 86 3d
       -0.038200278 0.09100244 0.054201055 0.065801516

fc2.weight f4 [64, 128]
000000 36 96 0f 3c 65 ea 9e bd 75 09 4c bd 1b 3d 74 3d
       0.00876384 -0.07759551 -0.049813706 0.059628587
000010 bf a3 98 bd ed 2d 5c 3d 71 28 1d 3d 7a 9b 9d 3d
       -0.07453107 0.053754736 0.038368646 0.076956704
000020 b3 0b b9 bd 92 bf 58 bd 9c 0f 65 bd c1 c2 87 3c
       -0.090354346 -0.05291707 -0.05592309 0.016572358
000030 c1 bf 95 bd 21 b1 45 3d ce 69 ab bc b1 0c 90 3d
       -0.07311965 0.048264626 -0.020924475 0.07033671
000040 b3 51 ca 3c ca c1 99 bc 57 dc 18 bd 6b d2 2e 3d
       0.02469716 -0.018769164 -0.037319507 0.04268114
000050 f9 c9 10 bd 46 81 12 3d 06 80 21 3d 48 2e 2f bd
       -0.035348866 0.035767816 0.039428733 -0.042768747
000060 d7 fa ae bd fb 98 97 3d 9a 31 80 bd 15 5a 89 bd
       -0.08543938 0.074022256 -0.06259461 -0.06706635
000070 01 74 91 bd b4 61 d1 3c 66 45 fa bc ea 7a c4 bc
       -0.07102204 0.025559284 -0.03055067 -0.023984391
000080 28 2c 8e 3c c5 d3 a1 bd 18 22 ab bd 00 2d 6e bd
       0.01735504 -0.0790172 -0.08356112 -0.058148384
000090 dd 43 c9 3c 07 1e 0f 3a 72 dc 03 bd 4c 3a f4 bc
       0.024568493 0.00054594915 -0.032192655 -0.029812954
0000a0 ae 26 d2 3c d1 1b 4a bc 63 b6 22 3d 6c cc 16 bc
       0.02565321 -0.0123357335 0.03972472 -0.009204011
0000b0 da c2 8d 3d 98 88 5a 3d 42 ea 49 bd f8 80 93 bc
       0.069219306 0.053352922 -0.04929567 -0.018005833
0000c0 1d 77 9a bd a9 72 a1 bd 87 d2 c0 bd ee 40 6c 3d
       -0.0754225 -0.07883198 -0.09415155 0.05767911
0000d0 86 a3 8a 3c 5f 17 ca 3c c7 da c6 bd 69 fb a0 3d
       0.016923677 0.024669347 -0.09709697 0.07860453
0000e0 0b fd f7 bc 4c 28 2c bd 05 a9 1f bd 75 4e e9 3c
       -0.030272027 -0.042030618 -0.03897955 0.028479794
0000f0 9d fc 9f 3c d6 24 7e 3c f0 29 e1 bc fc 64 a1 3a
       0.019529635 0.015511712 -0.027485818 0.0012313421
000100 57 b6 4b 3d 03 25 36 bd 90 4a 8c 3d 9a 98 1e 3d
       0.04973444 -0.04446889 0.06850159 0.03871975
000110 da 68 ab 3c 6a 89 41 bd b6 00 a0 bd c5 04 4a bc
       0.02092402 -0.04725019 -0.078126356 -0.012330239
000120 35 28 e1 bc c3 4c 67 bc 9c 9b c0 bd 3a a4 84 3c
       -0.027484993 -0.0141174225 -0.0940468 0.01619159
000130 d1 dd 2a 3d 71 c7 66 37 5d 97 62 3d 98 6c 94 bc
       0.041715447 1.3755504e-05 0.055320133 -0.018118188
000140 a4 53 96 bd 2e 84 21 3c 84 20 0d bc a8 8d 0b 3c
       -0.07340172 0.009858174 -0.008613709 0.00851766
000150 93 39 3d bd bc 12 10 3d 6c 42 c0 bd b3 02 68 3d
       -0.046197485 0.035174116 -0.09387669 0.0566432
000160 8e 36 65 bd 03 c8 0a bd fd cd 5b bd 09 06 9e bc
       -0.05596023 -0.033882152 -0.053663243 -0.019289987
000170 12 e3 2b 3c 74 d2 65 3c 7b 61 99 3d bb 52 2f 3d
       0.0104911495 0.014027227 0.07489296 0.042803507
000180 e1 f1 61 bc 4a a7 a6 bc 9d b6 c3 bd 7d 83 a4 bd
       -0.013790579 -0.020343442 -0.09556315 -0.08032892
000190 21 52 94 3d a7 96 96 bd 32 1e a0 bc 30 9c d1 bc
       0.07242227 -0.073529534 -0.019545648 -0.025587171
0001a0 f2 4e 3d 3d 30 2d dd bc c1 22 90 3d b0 68 5b bd
       0.046217866 -0.026999086 0.07037879 -0.053566635
0001b0 89 d0 6e 3d 73 3a 60 bc 62 31 15 3d 44 0a 61 bd
       0.058304343 -0.01368581 0.03642405 -0.05494143
0001c0 4f e9 a5 3b 2b 89 f7 bc e0 79 c3 3c 3a 71 07 bd
       0.005063213 -0.030216774 0.023861825 -0.033066966
0001d0 aa 1d 5d bd 56 fd 28 3d 61 3a 24 bd f4 0f 81 bd
       -0.053983368 0.041257225 -0.040094737 -0.06301871
0001e0 26 4a cf 3a 25 50 71 3d 4d 7e ad bb ad 5b 5f bd
       0.0015814945 0.058914322 -0.0052945972 -0.05453079
0001f0 67 43 ed bc 31 90 04 bd 85 ec 84 3d 45 58 c5 bd
       -0.028962804 -0.032364074 0.06490425 -0.09635977
000200 b4 cb b6 3b 37 ce 3a bd ee d8 79 3d b4 b2 85 bd
       0.0055784825 -0.045606818 0.060997896 -0.065282255
000210 a2 28 9a bc 33 cd 62 3a 67 40 4a bd 08 09 b7 3d
       -0.018818203 0.0008651793 -0.049377825 0.089372694
000220 a8 c1 11 bd 96 41 cb b9 c5 eb 81 3d 31 a4 ad bd
       -0.035585076 -0.00038768043 0.063437976 -0.08478583
000230 a0 17 8e bd fa 15 76 3d 44 c7 2d bd fa 0c e7 3c
       -0.069381 0.060079552 -0.042426363 0.02820443
000240 b8 bb 78 3d 0b 91 95 bd 98 24 34 bd b1 c5 2f bc
       0.060725898 -0.073030554 -0.04398021 -0.010728286
000250 d6 dd 2e bd c8 d5 d2 3c cb f6 4e bd 98 ce c3 bc
       -0.042692028 0.025736704 -0.05052833 -0.023902223
000260 b9 35 a1 3d bc c9 a7 3d 46 79 3a 3d be 95 6d 3c
       0.07871575 0.08192775 0.04552581 0.014501033
000270 30 b0 bf bd f7 75 dc bc 91 52 82 3d 33 e3 2a 3d
       -0.09359777 -0.026911719 0.063634045 0.04172058
000280 56 00 89 3c 5a 0d 09 bd c1 41 cd 3d 0c b0 04 3d
       0.016723793 -0.03346 0.10022307 0.032394454
000290 56 16 96 bd af f0 87 3d 67 88 f8 3b df ea 5b bd
       -0.07328479 0.066377036 0.00758462 -0.053690787
0002a0 d8 08 ae bd 88 78 9e bd 8e 15 c1 bd 9f c1 d8 bb
       -0.084977806 -0.07737833 -0.09427939 -0.0066148783
0002b0 1b 63 a1 bd c8 1b 24 bd 87 4e 50 3d ad 1a 5a bd
       -0.07880231 -0.040065557 0.05085614 -0.053248096
0002c0 c8 0c 13 bd 70 68 82 3d 06 a8 42 3d d4 47 2a 3d
       -0.03590086 0.06367576 0.04752352 0.041572407
0002d0 54 04 9a 3d 0a f0 8a 3d 75 c7 bd bd 5e 0e 9b bd
       0.07520357 0.06784065 -0.09266559 -0.075711
0002e0 9a ec 84 3c f5 51 8b 3d e6 be 95 3d eb 61 b2 bd
       0.016226102 0.068027414 0.073118016 -0.087100826
0002f0 6d fd 9b 3c ad 39 a6 bc 51 18 56 3d bf 28 18 3d
       0.019041741 -0.020291174 0.052269284 0.037148234
000300 b5 79 ac 3c 30 a5 2e bd 32 16 36 3d df c6 bf 3c
       0.021054128 -0.042638004 0.04445476 0.023410259
000310 f2 71 c1 bb b2 a9 4f 3d f5 7a af 3d 62 2c a1 bd
       -0.005903476 0.050698943 0.08568374 -0.078697935
000320 de 59 b8 bc b8 43 a5 3d 6d af 0e bd ff 40 3f 3d
       -0.02250379 0.08069557 -0.034835268 0.046692844
000330 6e 6f 58 bd ec 0b 9e bb a6 29 92 3c 92 1b 43 3d
       -0.052840643 -0.0048231985 0.017842125 0.047633715
000340 70 d5 9a bd ce 18 50 bd b0 e7 a6 bd 89 e2 f6 bc
       -0.07560241 -0.050804906 -0.0814966 -0.030137317
000350 96 68 c9 3c 3b b6 9f bd bd 3d fc bc d1 c1 48 3d
       0.024586003 -0.077984296 -0.030791158 0.049012963
000360 a8 ad cc bd 23 75 70 3c be 22 8f bd 84 2d 26 3d
       -0.0999406 0.014676365 -0.069890484 0.04057075
000370 cd 5b 4c 3d aa 80 4f 3d 76 94 83 3d b8 f0 aa 3d
       0.049892236 0.050659813 0.06424801 0.08346695
000380 69 21 65 3d 3d 87 84 bd 2b 90 45 3d f6 c1 b7 bd
       0.055940066 -0.06471107 0.048233192 -0.08972542
000390 76 61 f7 3c 5d 76 af 3d ac 90 17 bc da f8 81 bd
       0.03019784 0.08567498 -0.009250801 -0.06346293
0003a0 31 cc bd bd 81 2c 51 3d 34 54 30 3b ff 16 8d bd
       -0.09267462 0.051067833 0.0026905658 -0.06889152
0003b0 ce 29 62 bd 07 c6 97 bd ac 01 0a bd 5b 28 7c 3c
       -0.05521565 -0.074108176 -0.033693 0.015390481
0003c0 e2 84 1f bb 5d 3b 2a bd 67 e7 a2 bd 64 b6 10 bd
       -0.002434068 -0.04156052 -0.07954293 -0.03533019
0003d0 f4 e6 95 bd c0 fd 5d bd 23 f7 f3 3c 68 95 74 3d
       -0.073194414 -0.054197073 0.02978093 0.059712797
0003e0 1d e7 1e 3c 0d 5c b5 3d 60 cc 40 3d 40 2d ad bd
       0.009698656 0.08855448 0.047069907 -0.084558964
0003f0 03 87 2b 3c 5d 7a a3 3d 78 96 b6 3c 30 a8 82 3d
       0.010469201 0.07982323 0.022288546 0.063797355

fc2.bias f4 [64]
000000 82 f6 24 bd d2 ae b0 bd 35 ef a8 bd c0 f2 be 3d
       -0.04027415 -0.08627094 -0.0824875 0.09323645
000010 66 51 94 bd f1 42 db 3b 05 4e d5 bc 89 3b b8 bd
       -0.07242088 0.0066913296 -0.02603818 -0.089957304
000020 bc ff f8 3b 5f aa a6 bd d9 4b 9e 3d 08 98 27 3b
       0.0075988453 -0.081379645 0.077293105 0.0025572795
000030 a0 67 0e 3d 4a 80 c3 3a cb 93 34 3d b0 2a 9a bd
       0.034766793 0.0014915552 0.04408626 -0.07527673
000040 d2 c0 a8 bd ec cc 89 bd 3d ce f7 bc 07 73 4f bd
       -0.082399026 -0.06728539 -0.03024971 -0.050646808
000050 72 ce 63 3c fa bd c0 bc 16 6e 4b bc 3f 59 c3 bc
       0.013904201 -0.023528088 -0.012416383 -0.023846267
000060 5c b1 25 3d f0 64 60 bb ad 54 5b 3d 97 b6 73 3d
       0.040452346 -0.003423985 0.05354755 0.059500303
000070 70 9e 0b 3c 62 25 27 3d 7a 53 7e bd 83 d4 c1 3d
       0.008521661 0.040807135 -0.06209133 0.094643615
000080 46 e8 a9 3d 4c 6b bc 3d 60 43 0c 3c ec 57 b5 bd
       0.08296256 0.09200153 0.008560985 -0.088546604
000090 d1 b8 8a bd f9 3f aa 3d bd 4e 3b 3d e4 68 83 39
       -0.06773532 0.08312983 0.045729388 0.00025064417
0000a0 cc dd 55 3d 56 09 9a 3c a2 ca 55 bd d1 2b 9e bc
       0.052213475 0.01880328 -0.0521952 -0.019308003
0000b0 bc bb 3f bc 7c 26 45 3a bc 36 b3 3d ea 20 48 bd
       -0.011702474 0.0007520688 0.08750674 -0.048859514
0000c0 e0 05 96 bd 4a e6 49 3d bd 91 96 3d d0 5c 7b 3d
       -0.07325339 0.049291886 0.07352016 0.06136781
0000d0 ab 03 30 bc e6 2d 42 bd 4d ac 11 3d a0 97 8b 3b
       -0.010743062 -0.047407053 0.03556471 0.0042600185
0000e0 37 3a bf 3b 3d 5a 91 bd 6f 35 64 bc 1c a7 17 bd
       0.005835797 -0.0709729 -0.013928755 -0.037024602
0000f0 ae 58 e4 3b 91 b2 e3 3b cb 2f 87 3c f5 d5 65 3d
       0.0069685793 0.006948777 0.016502282 0.05611225

action_head.weight f4 [5, 64]
000000 63 f2 03 3d 41 58 ae bd 34 57 25 bd fc 82 2f bd
       0.03221358 -0.08512927 -0.040366367 -0.042849526
000010 a7 90 1d 3d 0e 3f 1d bc c7 34 83 bc a7 c2 ad bd
       0.03846803 -0.009597553 -0.016016377 -0.084843926
000020 64 c9 76 3c 3b 86 b6 3c f2 fd d5 3d 6d af 69 3d
       0.015062664 0.022280803 0.10448827 0.057052065
000030 87 3c 59 bd a7 b1 da 3d 49 9c f2 3c a8 3e 9c 3d
       -0.05303624 0.10678416 0.029615538 0.07629138
000040 16 da c9 3d 8c f6 99 bc f7 d2 da 3d 04 c7 d3 bd
       0.0985605 -0.01879432 0.106847696 -0.103406936
000050 b1 81 74 bd ae 63 e9 bd 51 bf 46 3d 12 c4 8c 3b
       -0.059693996 -0.113959655 0.048522297 0.0042958343
000060 c1 15 37 bd 97 96 fa 3b 16 bf 41 bd 82 91 ea bd
       -0.04469848 0.0076473462 -0.047301374 -0.11453535
000070 e1 81 50 3d f7 6e ea 3d 6a 14 87 3d 8b 54 af 3d
       0.050905112 0.11446946 0.065956905 0.08561047
000080 cd 75 ec 3d a5 9e 6f bd 58 1d 3a 3d 3b 67 73 3d
       0.11545906 -0.058500905 0.04543814 0.05942462
000090 e8 c7 cd 3d 58 3e 86 3d 8a d7 e1 3c 39 7f a4 bd
       0.10047895 0.0655486 0.027568597 -0.08032078
0000a0 95 54 ba bc b5 b5 79 3c 40 3e ef 3b 9d 6d 32 bd
       -0.02274541 0.015241076 0.007301122 -0.043561567
0000b0 9f ba cc bd 67 33 ad bd ec 83 95 3d 38 05 a9 3d
       -0.09996533 -0.0845707 0.07300553 0.082529485
0000c0 1a 33 e9 bd 59 26 fd 3d 7e 25 62 3b ed c1 ef 3c
       -0.113867 0.1236083 0.003450721 0.029267276
0000d0 c9 4f 75 bd 7d 1f 1f 3d 1d 67 cc 3d c8 ad 26 3d
       -0.059890542 0.03884839 0.09980605 0.040693074
0000e0 a1 46 2a 3d 3d 10 28 bd e4 f1 65 bd 92 75 fe 3d
       0.041571263 -0.04103111 -0.056138888 0.124247685
0000f0 58 85 0e 3d 47 4e 00 3e 78 52 b5 bd 70 d3 70 3d
       0.034795135 0.1252986 -0.0885362 0.058795393
000100 00 1c 67 bc 4f 8a 07 bd d1 52 8c bd 73 07 32 3d
       -0.014105797 -0.033090886 -0.068517335 0.043464135
000110 1b e5 ce bd 65 26 9c bc 9f b8 72 3d ac f9 44 3c
       -0.10102292 -0.019061277 0.0592581 0.012022417
000120 ca 2a 21 bd 59 93 82 bd 28 c9 d0 3c 21 78 36 bd
       -0.039347447 -0.063757606 0.025486544 -0.044548158
000130 64 19 aa bb f6 00 fa bd 5d b0 0d bd 80 7d ef bd
       -0.005191015 -0.122072145 -0.03459202 -0.11693859
000140 31 9c b3 3d ed 9d 32 3d 12 16 a0 3d cb 8d dd 3d
       0.087700255 0.04360764 0.078167096 0.108180605
000150 95 2e 46 bd 0b fa 6e 3d 32 0a 80 3d 3c ba a4 bd
       -0.048384268 0.05834393 0.062519446 -0.08043334
000160 ff 35 ea bd 7f 24 f6 bd d8 6c 98 3d ef 74 9e bb
       -0.1143608 -0.1201868 0.07442635 -0.004835717
000170 1c ed 7e bd 05 ec a1 bd a1 dd d8 bc 60 c7 20 bd
       -0.062237844 -0.07906345 -0.026472868 -0.03925264
000180 19 69 20 bd 29 db 81 bd c6 b4 fb bd 47 a4 e6 bd
       -0.03916273 -0.063406296 -0.12290339 -0.11261802
000190 dd 8e 0b 3c b8 18 2b bd ea c5 5e 3d eb 1b cc bd
       0.008517948 -0.04177162 0.054387964 -0.099662624
0001a0 94 34 b5 3c 2c 93 be bb ac 6e 62 3d 2f a5 bf bd
       0.022119798 -0.005815884 0.055281326 -0.09357678
0001b0 71 08 dd 3d e8 16 18 3d ca 05 a0 bd 24 0c d5 3d
       0.10792626 0.03713122 -0.07813604 0.10402706
0001c0 ec 38 8f bd 1a d1 90 3c 6f cd ef bd 31 11 58 bd
       -0.06993279 0.017677832 -0.11709105 -0.05275077
0001d0 1c 48 f7 3a e3 6c 7d 3c 69 5b 60 bd 47 84 52 bc
       0.0018866095 0.015467855 -0.054774676 -0.01284892
0001e0 53 36 90 bd e7 7a d5 bd 4e 5a 09 3d 02 86 00 bd
       -0.070416115 -0.104238324 0.033533387 -0.0313778
0001f0 5b 73 a5 3d 65 01 94 bd 6f a9 5c 3d e5 b3 de 3d
       0.08078643 -0.072268285 0.053872522 0.10874156
000200 63 2c 2f bd 72 35 17 3d 13 84 ad bc 92 6f d9 bd
       -0.04276694 0.036916204 -0.021181142 -0.106169835
000210 db ab e1 bb 29 49 44 bd 73 43 8c 3d d2 6a ec bd
       -0.006886942 -0.047921333 0.068488024 -0.11543812
000220 6c 51 57 3d 90 7c d6 3d 82 5e dc bc 46 7c 38 3b
       0.052567884 0.10472977 -0.026900534 0.0028150245
000230 6e a4 a0 3d dc 24 89 3d 63 bb 08 be 5c e6 da 3d
       0.078438625 0.066964835 -0.13352732 0.10688469
000240 9c 47 92 3d bc ea 4a bd 1d a3 c1 bd d2 ad 30 bd
       0.07142565 -0.049540266 -0.094549395 -0.043134518
000250 fe ec fc bd 52 6c b0 bd 9f c7 97 3c 35 36 5b bd
       -0.1234989 -0.086144105 0.018527804 -0.053518493
000260 dc 14 9b 3d b1 8d 35 bd a9 ca 19 be 0c 48 1a 3d
       0.07572338 -0.04432458 -0.15018715 0.037666366
000270 62 fb b4 3d ba 1d 83 3d a5 31 70 b8 9b 58 f4 3b
       0.0883701 0.06402154 -5.7266694e-05 0.0074568517
000280 cd 32 92 3d bd 84 92 3d 46 4a a0 bd 37 12 7f 3d
       0.07138596 0.07154224 -0.078266665 0.06227323
000290 c4 85 1d 3d 59 06 73 3d fd b0 e3 bc f5 ed 86 3d
       0.038457647 0.059332225 -0.027794356 0.065883555
0002a0 2e da 08 bd 6e 88 5c 3d fe 6c c3 bd 47 1c 8b 3c
       -0.033411197 0.053841047 -0.09542273 0.016981257
0002b0 43 1f 05 bd ef 22 d5 bd a9 a7 56 bb ae 14 7a 3d
       -0.032500517 -0.10407054 -0.0032753742 0.061054878
0002c0 c0 ef 4e bc 95 dd 1c be bd 46 29 bd 85 ce ab 3c
       -0.012630403 -0.15318902 -0.041327227 0.0209725
0002d0 df 67 8c bd cc 05 f1 bd 07 9a 4e bd 37 05 dd bd
       -0.06855749 -0.11768684 -0.05043986 -0.1079201
0002e0 e4 d5 4b 3a d9 16 14 bd a4 8d 71 bd 35 e7 3a 3d
       0.00077757076 -0.0361546 -0.05897297 0.045630652
0002f0 7c a9 9e bd d3 93 cb 3a d3 84 66 bc e0 77 02 3d
       -0.0774717 0.0015531726 -0.014069754 0.031852603
000300 65 3f 89 bd 74 ab 27 3d 29 32 7f 3d 87 52 e1 3c
       -0.06701545 0.040934995 0.062303696 0.027505172
000310 38 4b a9 bd 78 10 fd 3c f4 99 c3 bd 2e f2 88 3c
       -0.082663 0.030891642 -0.095508486 0.016717043
000320 5d 86 54 3a 1b fd 6b bc 10 88 e0 3d 88 11 85 bc
       0.000810718 -0.014403607 0.10963452 -0.016243711
000330 3b 0e fe 3d 4a 0a a8 3d 20 e1 cc 3c a0 61 b2 3d
       0.12405058 0.082050875 0.025009692 0.08710027
000340 cd 60 6a 3d 56 4e 01 3d 48 24 e5 3d a4 1a 22 3d
       0.057221223 0.031568848 0.11188561 0.039576188
000350 ee 72 b2 bc 7d 7e 81 3d 15 12 92 3b f1 d9 95 3d
       -0.021783318 0.06322954 0.004457722 0.0731696
000360 c2 a6 7c 3d f1 f0 fe 3b 0f e9 c9 bd cd 7a 80 3c
       0.06168247 0.0077801873 -0.098589055 0.015683556
000370 6c 57 3e 3d f3 e2 ad bd db 3c d3 bd 8b 45 b1 bd
       0.04647009 -0.08490553 -0.10314342 -0.086558424
000380 b8 3f 9b bc 16 76 6f bd a0 f1 24 3c aa 69 fc 3d
       -0.018951282 -0.058462225 0.0100673735 0.12324841
000390 b8 d4 ad bd e1 22 d6 bd b5 a9 20 3d 51 b9 dd 3d
       -0.084878385 -0.104558714 0.039224345 0.10826362
0003a0 55 10 d4 bd 5e ea 92 bd 6c 8b 67 bd d7 43 e8 3c
       -0.103546776 -0.07173608 -0.056529447 0.028352661
0003b0 d7 1a e9 3d 4b ce 83 3d b3 33 8c 3d a2 ea 69 bd
       0.113820724 0.06435832 0.06845798 -0.05710853
0003c0 d2 72 97 bd 75 61 97 bc 73 1d f3 3d 78 d3 06 3e
       -0.07394947 -0.018479088 0.11870851 0.13166606
0003d0 85 48 4b 3d 14 ca e1 bd 78 6f 23 bc a1 c1 9b 3d
       0.049629707 -0.110248715 -0.009975307 0.07605291
0003e0 bc 19 68 bd 9f 1b d4 bd 9b 49 da bd 2a d1 a1 bd
       -0.056665167 -0.10356831 -0.106585704 -0.07901223
0003f0 87 c9 2d bc 73 a2 b1 bd 48 c8 c2 bd e4 5f 53 bb
       -0.01060713 -0.08673563 -0.09510857 -0.00322532

action_head.bias f4 [5]
000000 e8 87 e5 3c 7e 0b 4a bd 33 1b 08 be 0f 46 86 bd
       0.028018907 -0.049327366 -0.13291626 -0.06556331
000010 43 cf 8c 3d
       0.068754695

value_head.weight f4 [1, 64]
000000 07 33 3f 3b 9d 60 31 bd 9e ff 2d bd df 06 07 3e
       0.0029174702 -0.04330503 -0.042480104 0.13186215
000010 9d 68 e6 bd c4 95 ff bd 0b 5f 23 3e 3a d6 99 bd
       -0.11250422 -0.124797374 0.15954225 -0.075115636
000020 ec 18 be 3d 10 d6 d6 bc 56 db 15 be 87 4c 25 be
       0.09282097 -0.02622512 -0.14634451 -0.16142474
000030 7e c0 c9 bd e5 db aa 3d 80 46 da 3d b4 62 da 3d
       -0.09851168 0.08342723 0.10657978 0.106633574
000040 c4 d5 0a 3d 3c 22 8c bd 06 90 e1 3d 6f bc cb bd
       0.03389527 -0.06842467 0.110137984 -0.0994805
000050 b7 c8 d5 bd c6 50 0a 3d 2a ac 9a bd b6 7c b2 3d
       -0.10438674 0.033768438 -0.07552369 0.08715193
000060 87 ed e1 bd 8c 5e 3e be c6 f6 0f be b9 bc 84 3d
       -0.11031633 -0.18590754 -0.1405898 0.064813085
000070 c4 c5 6f bd 47 ce 01 3e 50 87 90 3c 5a 1b d0 3d
       -0.058538213 0.12676345 0.017642647 0.10161467
000080 3a df 22 be 3a b7 29 be 42 6a 9b 3d ea 5e db 3c
       -0.15905467 -0.16573802 0.075886264 0.026778657
000090 a5 b3 02 3e f6 e0 c3 3d fd 68 1b 3d a7 55 04 be
       0.12763841 0.09564392 0.03794192 -0.12923299
0000a0 f2 31 23 be 35 98 33 be 00 17 52 bd 5c d3 21 3e
       -0.15937021 -0.17538531 -0.051291466 0.15803283
0000b0 3b 6a 41 3d 59 1d c4 3d 73 12 15 3e 43 f5 85 3c
       0.04722045 0.0957591 0.14557819 0.016352301
0000c0 88 07 a2 bd 10 2c ac 3d 9e 1c f9 3d 7d c7 2d be
       -0.07911593 0.08406842 0.121636614 -0.1697063
0000d0 da 79 b4 3d 5a cb 2c bd 48 26 a7 3d 5a a6 a9 3d
       0.08812304 -0.04218612 0.081615984 0.08283682
0000e0 ce df 1c 3e 14 90 3d 3d e7 df 88 3b df 92 74 3c
       0.1531975 0.04627998 0.004177082 0.014927595
0000f0 9d de 1b 3d b8 59 a3 3d 0a 07 26 3e d7 29 03 be
       0.038054097 0.07976097 0.16213623 -0.1280893

fc1.weight f4 [128, 147]
000000 1e 48 28 bd 8c 4d 41 3c 58 a1 e3 3c 22 24 61 bd
       -0.0410844 0.011798274 0.027786896 -0.0549661
000010 a2 c6 d5 3d 38 ce 54 bc 1e 2d 49 3d 6b 9e 88 3d
       0.10438277 -0.0129886195 0.049115293 0.06670841
000020 ea b5 89 3d 3b 1e fe bc 21 d1 e0 3c 93 a7 ae 3d
       0.067241505 -0.031020274 0.02744347 0.08528056
000030 a1 43 6d bc 8f c7 da 3c af b9 20 bd a0 cd b1 3d
       -0.014481456 0.026706485 -0.03923958 0.08681798
000040 cf 26 0d 3d 8d 38 9d 3d 44 c1 84 bd 06 ba 8e 3c
       0.03446084 0.07676802 -0.06482175 0.017422687
000050 3b fc b7 3d 95 49 3a bd b4 ea 67 3c a6 e9 37 bc
       0.08983656 -0.04548033 0.014155079 -0.01122514
000060 86 54 19 3d 9f ed 37 bc de 87 48 3d 53 fa 07 bc
       0.037434123 -0.011226087 0.048957698 -0.008299428
000070 f4 f1 be 3c fe 91 d3 3c 4e 09 b4 bd cb 27 db ba
       0.023308732 0.02582645 -0.08790837 -0.0016720233
000080 82 9e 6f 3d ea 65 28 bd 22 43 07 bd f3 b4 c2 3d
       0.058500774 -0.041112818 -0.033023007 0.095071696
000090 00 7f 31 3c 71 d3 78 3d aa cb 92 3d e2 07 03 3d
       0.010833502 0.06074852 0.07167752 0.03198994
0000a0 bd cf 9c 3d 50 bf 37 3c d4 88 c6 bd 14 01 73 3d
       0.076568104 0.011215046 -0.09694067 0.0593272
0000b0 cf 6c 18 bd ae d7 c8 bb e2 36 c4 3d 05 eb b8 3d
       -0.037213143 -0.0061292266 0.095807806 0.090292014
0000c0 8c 7e 53 bc 6c 7e a1 3d 06 ef 0a bd 42 64 be bd
       -0.012908589 0.07885441 -0.033919357 -0.092964664
0000d0 2e fa b7 3d 4f 4f fb bc 39 72 6c 3d 4b 03 9e 3d
       0.08983265 -0.030677466 0.05772612 0.07715472
0000e0 2f 79 a5 bc aa b2 90 bd c9 fb 81 bc 35 a6 61 3c
       -0.020199386 -0.070653275 -0.01586713 0.013772537
0000f0 04 26 2b bd e7 3a a6 3d c2 14 2a bd c8 2c aa bc
       -0.0417843 0.081167035 -0.041523702 -0.020773306
000100 b8 61 88 3d da a8 23 3d 6c 20 08 3c 2d 45 36 3d
       0.06659263 0.03995595 0.008308511 0.044499565
000110 0c 86 19 bd af 0c a1 bc 40 3e c9 3d f6 a2 44 3d
       -0.037481353 -0.019659368 0.09826326 0.048006974
000120 77 55 82 3d 7d 40 29 bb b3 4e c2 bd 5b e9 d2 bc
       0.063639574 -0.0025825792 -0.09487667 -0.025746038
000130 14 11 e3 bc ce 66 62 bd 66 5b b3 bd 04 d0 e9 3d
       -0.027718104 -0.055273823 -0.08757667 0.11416629
000140 71 82 37 3d af 14 fd 3c 68 2a b3 3d 74 c5 4a 3d
       0.044802133 0.030893652 0.08748323 0.049504712
000150 aa c0 d5 3c f2 e1 ea bc ea a0 07 bd ac 64 c8 37
       0.026092846 -0.028672192 -0.033112444 2.3888737e-05
000160 ff 53 a9 bc bf bd 96 bc e8 e6 20 3d 45 10 83 3d
       -0.020669935 -0.018401025 0.03928271 0.063995875
000170 a4 75 75 3c 8a 9a 2e bd 93 38 83 bc 8d 99 7b 3d
       0.014981661 -0.04262785 -0.016018188 0.061425734
000180 3a 3c b1 3b 08 e6 85 3d 92 f0 06 3d 02 9a 55 ba
       0.005408791 0.065380156 0.03294427 -0.0008148254
000190 08 69 b6 3d a0 79 93 3c af 65 4e bd 3a 4e 10 bc
       0.08906752 0.018002331 -0.05038994 -0.008807713
0001a0 c9 12 5b bd 6e 23 a5 3b 32 c5 b1 3d ee eb 9b 3d
       -0.05348471 0.005039624 0.0868019 0.076133594
0001b0 bd d6 42 bd 4f a2 61 bd 9e 35 ab 3d ea 2b 6a 3d
       -0.04756807 -0.05508643 0.08359836 0.057170786
0001c0 62 8e fa 3a 5b d8 5a 3d e8 91 b3 bd 33 25 f1 bc
       0.001911592 0.05342899 -0.08768064 -0.029436683
0001d0 a3 6b 5f bd bc ac b0 3c d7 04 36 bd 26 42 fb 3c
       -0.05454601 0.021566741 -0.04443821 0.03067119
0001e0 f5 b3 12 bd 30 85 a1 3d 44 9d c4 3d 1e b3 3d 3c
       -0.03581615 0.078867316 0.096003085 0.011578349
0001f0 7d 54 09 3d 56 0e 51 bd fb 72 fb bc d0 ad 85 bc
       0.03352784 -0.051039062 -0.030694475 -0.016318232
000200 77 3d 20 3d fa 96 ac 3c c0 46 b6 3d 87 02 c6 bb
       0.039121117 0.021068085 0.08900213 -0.0060427818
000210 f5 83 ab bd ae ee 29 3d 90 0b 60 3c c2 44 19 3d
       -0.08374778 0.04148739 0.013674632 0.03741909
000220 39 03 7f 3d a2 45 bd 3d 51 0a f7 bc e1 d2 38 bd
       0.062258933 0.09241797 -0.030156286 -0.045122985
000230 ba 34 0b 3d 24 a4 86 b9 a3 4c 33 3d 81 d2 88 3d
       0.03398583 -0.00025680766 0.04377426 0.066807754
000240 1c a3 61 3d 1f b2 17 3c 65 62 07 bd e3 07 40 3d
       0.055087194 0.009258776 -0.03305282 0.04688252
000250 e1 3d 64 3d c6 da ff 3c bc c7 14 3d db 4b d5 3c
       0.055723075 0.031232249 0.036323294 0.026037147
000260 75 54 87 bd 39 69 a5 bc aa 54 4c 3c 40 05 1f 37
       -0.06607906 -0.020191776 0.012471357 9.478361e-06
000270 dd ee 65 3c 2a dd 90 3d d9 43 44 3d 3a 0f 6a 3d
       0.014034 0.07073434 0.047916267 0.057143427
000280 47 17 91 3d 04 64 e9 bc 70 f9 cb 3c d4 93 be bb
       0.07084518 -0.028490074 0.024899215 -0.0058159623
000290 09 17 24 bb 1e 3a 78 3d 92 b8 24 3b 9b 84 8c 3d
       -0.0025038144 0.0606023 0.0025134427 0.0686123
0002a0 ab 60 d5 bc 90 38 e5 bc 83 3b ae 3d ba c5 c8 bc
       -0.026047071 -0.027981073 0.08507445 -0.024508346
0002b0 04 b2 29 bd 89 d1 23 bd 53 e2 6f bd ff b5 b8 3d
       -0.041429535 -0.03999475 -0.05856545 0.09019088
0002c0 af f4 47 3d a4 2f d6 bd 20 f2 7c 3d d6 d0 b9 3d
       0.048817333 -0.104583055 0.061754346 0.090730354
0002d0 ba d7 22 bc 29 f4 93 3d 6f 23 bc 3c e0 d1 8f bd
       -0.0099391285 0.07224304 0.022966115 -0.07022452
0002e0 23 22 5f 3d d3 c4 cd 3c 3d 77 f0 bc 1b 29 0f bd
       0.054475915 0.025118267 -0.029353732 -0.03495131
0002f0 2c 83 ad bc 04 fa ed 3c fc 50 13 3d ad cd dd bc
       -0.021180712 0.02904988 0.035965905 -0.027075613
000300 3b eb cc 3c cc fa 5f 3d 08 aa 09 3c ca fc 12 3b
       0.02501451 0.054682538 0.008402355 0.0022428506
000310 c6 b1 6e 3d d7 ad 98 3d 30 e2 85 bd 3c 8d a4 3d
       0.058275007 0.07455032 -0.065372825 0.08034751
000320 6a 85 7c bd c8 fa 65 3d 6a b9 b1 bc 38 0d 90 3d
       -0.06165067 0.056147367 -0.021694858 0.07033771
000330 5c 8b ae 3c 8a 16 36 3d f4 ad 42 bb 73 47 a0 bd
       0.021306686 0.04445509 -0.0029705735 -0.07826128
000340 79 b9 9d 3c 1d 85 5f bd 01 76 6c bd f2 5e 8e 3d
       0.01925348 -0.054570306 -0.057729725 0.06951703
000350 92 fe d0 3b ed 3b a4 bd 0f ed 80 3d cf b7 55 bd
       0.0063780034 -0.080192424 0.06295215 -0.052177247
000360 f1 74 a8 bd fb 6d df 3d 1b ba c6 3b a3 a4 8b 3d
       -0.0822543 0.10909649 0.006064666 0.06818511
000370 68 13 85 bc 70 8e 9f bd 2f 40 d3 bd 80 21 c5 3d
       -0.016244605 -0.0779084 -0.103149764 0.0962553
000380 36 7e d6 bc a8 83 01 3d 72 57 f8 bc 07 52 c3 3d
       -0.026183229 0.031619698 -0.030315135 0.0953713
000390 39 34 b9 bd 3f 68 b3 3d d1 fb 7d 3d 79 53 17 bd
       -0.09043164 0.08760118 0.06200773 -0.03694484
0003a0 0b 61 69 3d b8 0e 32 3d af 0a 82 bb 7d 59 94 3d
       0.056977313 0.04347107 -0.0039685587 0.07243631
0003b0 09 22 8d 3d 87 21 77 bd 94 5d ec 3d 3c 9f 52 bd
       0.06891257 -0.06033471 0.11541286 -0.05142139
0003c0 7d d8 12 3d 99 44 a7 3d 9f f6 d2 3c 9c 41 99 3c
       0.03585099 0.08167381 0.025752364 0.018708043
0003d0 1b f1 93 3d b9 1e 3b 3c ee fb a8 bd 68 74 82 bc
       0.072237216 0.011420899 -0.08251177 -0.015924647
0003e0 b2 aa 7d 3d c2 da 3f bd 72 ff 82 3d 21 12 a1 3d
       0.061930366 -0.046839483 0.063963786 0.07864786
0003f0 5c 86 8f bd 4e ab 74 3b ab b2 1a bc 2e 55 62 3d
       -0.07008049 0.003733355 -0.009442012 0.055257015

fc1.bias f4 [128]
000000 60 0b 90 3d 8b dc 99 bb b2 91 e9 bc 7d 2e 63 3d
       0.070334196 -0.00469548 -0.028511856 0.055464257
000010 44 84 73 bd dd 77 00 3d d9 95 b5 3d 8f 27 2d bb
       -0.05945231 0.03136431 0.08866472 -0.0026421284
000020 c4 12 16 3d d5 64 69 3d 23 a5 06 3d 0f 74 cb bc
       0.03663899 0.056980927 0.03287233 -0.024835614
000030 1c 4a 87 3d c5 8c 97 3a 5e 98 16 3d 90 d4 2e 3d
       0.06605932 0.0011562338 0.036766402 0.042683184
000040 e9 c3 b9 3c cd 40 84 bd d3 e2 df bc df 9f 20 3b
       0.022676425 -0.06457672 -0.027329838 0.0024509353
000050 60 08 f1 3c 20 5c da bc de 9e 90 3d 61 73 d3 bd
       0.029422939 -0.026655257 0.070615515 -0.10324741
000060 74 f0 63 bc e0 95 7d ba 4d 07 96 bd 4a 63 fd 3c
       -0.013912309 -0.0009673517 -0.07325611 0.030931134
000070 c0 73 b9 3c 97 e8 9f 3d a2 ce d2 3c 1a 72 99 3a
       0.022638202 0.07808035 0.025733296 0.0011706979
000080 99 24 78 bc 77 d6 7e bd 6e c4 49 3d 96 c7 b7 3c
       -0.015145444 -0.06221625 0.049259596 0.022434037
000090 3d c4 38 3c 5e b6 93 3d 42 4e 3a bd e2 5d 58 3d
       0.011277256 0.07212518 -0.04548479 0.05282391
0000a0 8f e1 12 bd 1b f4 9a 3c 24 b0 91 3d fe 21 1a 3d
       -0.03585964 0.018915227 0.07113674 0.037630074
0000b0 fd 86 33 bd 75 00 0f 3b d9 22 b1 3d c5 19 7c 3d
       -0.043829907 0.002182034 0.08649225 0.061548013
0000c0 f0 24 3b 3d 1c 0a 1d bc 47 32 6c 3d 05 cd 04 3d
       0.045689523 -0.00958493 0.057665136 0.032422084
0000d0 94 9a 1f 3d f6 99 af 3d e2 59 e0 3d df 24 89 3d
       0.038965777 0.085742876 0.10954644 0.06696486
0000e0 21 a8 7a bd 4e d2 c7 3d d6 18 18 bd 6d 23 85 3d
       -0.061195496 0.09756909 -0.03713306 0.065008976
0000f0 a5 8d bc bc d5 37 a0 bd d5 bf df 3c b0 d4 82 bd
       -0.02301676 -0.07823149 0.027313152 -0.06388223
000100 80 80 07 bb a9 a7 89 bc 9c e1 ee 3b 69 ba 09 bd
       -0.0020675957 -0.01680358 0.0072900783 -0.03362504
000110 3f 05 b9 3d 4f 1f b1 bc 48 ae b4 3d c2 6c 0b 3d
       0.09034204 -0.021621374 0.08822304 0.034039266
000120 b3 21 66 3c 2c 0c a7 3d 21 cf 80 3c d6 85 b7 bb
       0.01404612 0.081566185 0.015723767 -0.0056006713
000130 8e 6f b1 bc d0 24 9b 3d 1b f5 7c 3d 41 e5 0a bc
       -0.021659639 0.07575381 0.06175719 -0.00847751
000140 c4 f0 95 3d ad cf 09 3d fb b6 7f 3d 19 f4 5d bd
       0.07321313 0.03364532 0.062430363 -0.054187868
000150 c6 f2 6d bc 74 4e ec bc 1d 23 9e 3d 23 f1 aa bd
       -0.014523214 -0.028846003 0.07721541 -0.083467744
000160 f2 18 47 3d ab 1d 3d bc c8 fa 63 bc 72 40 cd bc
       0.048607774 -0.011542718 -0.013914771 -0.025055144
000170 70 e9 31 bc 40 bb 7c bc b0 af ec bc f9 4a b2 3c
       -0.0108588785 -0.015425503 -0.028892368 0.021764265
000180 72 62 9e bd e8 64 70 3d e1 7b 92 3d de 2e bb 3d
       -0.07733621 0.05868998 0.07152534 0.091397986
000190 5c 53 2a 3d 27 f5 a6 bd b1 fc 9d 3c 77 03 cd 3c
       0.041583404 -0.08152228 0.019285532 0.025026066
0001a0 4e e9 c0 3c 6c e0 05 bd b2 d2 b9 3d 79 36 c6 bc
       0.023548748 -0.03268473 0.0907339 -0.024195896
0001b0 4e 3e 60 3c 53 22 aa bc 47 d3 5b 3c d2 6c cf 3c
       0.01368673 -0.02076832 0.013417072 0.025320444
0001c0 0d 87 59 3d 1b 8f 32 3c 50 52 fa bc 11 e5 ee bb
       0.05310731 0.010898377 -0.030556828 -0.0072904904
0001d0 bc 07 72 3c b3 d8 9b 3d c0 3c 2b 3d 54 45 70 3c
       0.014772352 0.076096915 0.041805983 0.014664967
0001e0 67 b9 ca 3d 98 f4 a3 3d 7f de 48 3d 14 72 cf ba
       0.09898644 0.08005637 0.049040314 -0.0015826845
0001f0 01 ba d2 3d 71 ef 9c 3d 65 b9 72 bd b4 4c f0 3c
       0.10289384 0.07662857 -0.059258837 0.02933345

fc2.weight f4 [64, 128]
000000 a9 04 13 3d 35 7a 9f ba ca 7a 88 bd 6c db f4 bb
       0.035893116 -0.0012167158 -0.06664045 -0.007472446
000010 96 33 53 bd f1 98 05 bc cc 14 51 3c 7e a7 a9 3d
       -0.051562868 -0.00815414 0.012761306 0.082839
000020 ee ee 5f bc c8 43 8b bd 82 74 84 3d 1e bd bb 3b
       -0.013667805 -0.068000376 0.064675346 0.0057293316
000030 41 10 9a 3c 5c c0 c6 3d 11 d9 a4 bd f8 a4 25 bd
       0.018806579 0.097046584 -0.08049215 -0.04044053
000040 ba 01 a5 3d 0e 21 a8 bd 3a b8 55 bd 06 95 17 3d
       0.0805697 -0.0820943 -0.052177645 0.037007354
000050 85 5f 96 bd b8 9a a7 bd 7e 42 bd bb 94 9f 1e bc
       -0.07342438 -0.08183807 -0.0057757488 -0.009681601
000060 6a 1f 1c bd ea 48 c7 3c 32 3e 91 bd d2 be 94 bd
       -0.038115896 0.02432676 -0.07091941 -0.072629586
000070 8d 3b 91 3d c6 f9 c1 3c 7c 9b cb 3b 9a 9d 9a bd
       0.070914365 0.023678672 0.0062136035 -0.07549591
000080 d5 8f ac 3b 1f 37 ca bc 04 e5 9e bd e2 02 9b 3d
       0.0052661696 -0.024684487 -0.07758525 0.07568909
000090 ea 6c ef 3c 9c c4 8f 3d 15 4e 35 3c 53 6d 89 bd
       0.029226739 0.07019922 0.0110659795 -0.06710305
0000a0 4a 39 79 3d f5 ba 39 bd 48 b0 76 bc 44 31 84 3d
       0.06084565 -0.04534431 -0.015056677 0.06454709
0000b0 0e 37 09 bd aa 35 52 bb 24 51 61 3d ea f1 38 bb
       -0.03349977 -0.0032075443 0.055009022 -0.0028220364
0000c0 53 99 43 3d 31 ad a5 bd 30 60 7c bd fa 15 75 3d
       0.047753643 -0.08089674 -0.06161517 0.05983541
0000d0 b0 dd 42 bd 26 9b a0 38 07 d9 92 3c 91 1f 6e 3d
       -0.0475747 7.658293e-05 0.017925752 0.058135573
0000e0 5c 10 73 bd d7 66 68 3c 63 5e cb 3b cc 93 88 3c
       -0.059341773 0.014184675 0.00620632 0.016672038
0000f0 a4 c0 2c 3d 64 98 6b bd 6b 54 10 3d 11 33 0b bd
       0.042175904 -0.057518378 0.035236757 -0.033984248
000100 55 cd 5a 3d c6 da ea bc 00 7a 44 3d 18 13 b4 3d
       0.053418476 -0.028668772 0.04796791 0.08792704
000110 75 ec 5f bd c4 6c 59 3d 87 c5 10 bd e1 1e 0e 3d
       -0.054668862 0.053082243 -0.035344627 0.034697417
000120 b6 c0 2d 3c cc 8c 0f 3d bc 7a d5 3c 8f 75 68 3d
       0.010605028 0.035046384 0.0260595 0.056752738
000130 a7 f5 8c 3d 02 2e e0 bc aa 34 9d bd 51 dc 9f 3d
       0.06882792 -0.027365688 -0.076760605 0.07805694
000140 f3 d7 87 3d 2d 3c 42 3d c7 1a d6 3c 1e 34 45 3d
       0.06632986 0.04742067 0.026135815 0.048145406
000150 49 29 b7 ba 3d 97 4b 3d 46 d5 5d 3d dc 41 a7 bd
       -0.0013974096 0.04970478 0.05415847 -0.081668586
000160 9c 4c 5d bc 79 20 3f 3b b8 ef a1 3d 8a ec 0d 3d
       -0.013507035 0.0029163642 0.07907051 0.03464941
000170 6d 59 83 bd e3 72 02 3d a6 96 54 bc bd 94 f9 bb
       -0.06413541 0.031847846 -0.0129753705 -0.007616608
000180 e0 ff ec bc 30 05 a4 3c 5b fd 82 3d 05 d3 b0 bd
       -0.028930604 0.020022005 0.0639598 -0.08633999
000190 f2 61 8f 3d 31 fc 7d 3d 32 ad db ba 9c ce a9 3d
       0.070011035 0.062008087 -0.001675999 0.08291361
0001a0 62 da 7c bd 0b b7 8d bd 5e 7f 3a bc b5 2a 10 bb
       -0.061731704 -0.06919678 -0.011382906 -0.0021998112
0001b0 86 7d cb bd 72 5a 88 3d dd 6d 2e bb 9d 16 0d bd
       -0.09936051 0.06657876 -0.0026615777 -0.034445394
0001c0 80 0a b4 3d 45 d7 07 3b 12 4b 40 3b 84 f6 08 bd
       0.08791065 0.0020727676 0.002934162 -0.03343822
0001d0 24 b4 32 bd 18 97 28 bd 7e 4b 8f bd f4 ff 01 bd
       -0.043628827 -0.04115972 -0.06996821 -0.031738237
0001e0 dc ec 88 3d 58 6e 28 3d 69 2e 28 bd f2 fd 0d 3d
       0.06685802 0.041120857 -0.041059885 0.03466601
0001f0 a1 83 b3 3c 6d 63 a9 3d 58 28 7c bd c6 33 77 3c
       0.021913351 0.08270917 -0.061561912 0.015088027
000200 9b 77 d9 bb fb 35 0f 3d ff 44 b9 bc 1d 54 11 3e
       -0.0066365725 0.03496359 -0.022615908 0.14192243
000210 e9 cc fa bc 8a c7 f9 3c 48 26 ea 3d fd 13 32 3d
       -0.030615287 0.030490655 0.11433083 0.043476094
000220 23 4a 5e 3d ce 98 dc 3c 42 60 8a 3d 3d f3 e1 3c
       0.05426992 0.026928332 0.06756641 0.027581805
000230 9e ce 92 3c 84 bf 89 bd 13 72 32 3d e6 50 9c 3c
       0.017920788 -0.06725982 0.04356582 0.019081544
000240 6f 32 ad bd f7 43 0e bd 0f cb d5 3d e6 62 de 3d
       -0.08456885 -0.034732785 0.10439121 0.10858707
000250 1f 29 0d 3e 06 21 7e bd e8 fe 35 bd fc 2f ce bc
       0.13785218 -0.062043212 -0.04443255 -0.025169365
000260 e0 d4 e2 3d c8 85 8d 3d 40 35 38 3d 68 7c 76 3d
       0.11075759 0.069102824 0.04497266 0.060177237
000270 24 6c 91 bd dd ab 3f 3d 59 b1 95 bd 68 72 ad 3d
       -0.07100704 0.04679476 -0.07309217 0.08469087
000280 d8 9b c2 3d ef 7b 51 bd 09 18 12 3d f0 ad 08 3d
       0.09502381 -0.051143583 0.035667453 0.033369005
000290 14 40 83 bd 99 8d a8 bd be 29 f6 3c b8 dd 58 bd
       -0.06408706 -0.082301326 0.030049201 -0.052945822
0002a0 be 7f dd 3d 9a 57 98 bd 2c 62 22 3d 22 cc 23 bd
       0.108153805 -0.07438584 0.039644405 -0.039989598
0002b0 75 dd f0 bc 16 1b be bc 74 cf 11 bd b3 4f f5 3d
       -0.029402474 -0.023206275 -0.035598233 0.11978092
0002c0 33 09 73 bc 48 bc af 3d 86 56 aa 3d 9e 23 cd 3d
       -0.014833736 0.08580834 0.08317284 0.10016559
0002d0 ed 58 c6 bd 82 1e c2 3d 05 92 ea bd 50 af ad bd
       -0.0968493 0.09478475 -0.11453632 -0.08480704
0002e0 1b fc 73 3d 9f 71 9e bd d2 a5 dc 3c b8 e1 b2 3c
       0.0595666 -0.07736515 0.026934538 0.021836147
0002f0 40 d0 22 3d 7a 4a 1c 3d 76 a8 9a bd 9f c9 8f 3c
       0.039749384 0.038156964 -0.075516626 0.017552195
000300 79 f6 c0 bd 9d 5c 84 bd bb 7d 1e 3d 2b 78 79 bd
       -0.09422011 -0.06462977 0.038694125 -0.060905617
000310 8d 43 62 3d 81 34 24 bd ff 2e 9a 3d 1c 14 62 3c
       0.055240203 -0.040089134 0.07528495 0.01379874
000320 5a b1 47 bd e1 5f 84 bd 55 f9 ff bb 4e 2f 6a bd
       -0.04875312 -0.064636 -0.007811705 -0.05717402
000330 bb ac 1d ba db d6 69 bb 6b c4 b4 bc b3 9e 47 bd
       -0.00060148136 -0.0035681042 -0.022066316 -0.04873533
000340 62 cd 69 3d 18 03 7f bb 82 70 b6 bd 1e f2 46 3d
       0.057080634 -0.0038911756 -0.08908178 0.048570745
000350 23 fe a6 3d 7b fa b7 bd 1e a4 77 3d e8 af 97 bd
       0.081539415 -0.08983322 0.06045925 -0.07406598
000360 1b 0e 0c bd ba 4c aa 3c 09 ee ad 3c 76 d1 87 bd
       -0.03419314 0.02078854 0.021231668 -0.066317484
000370 5a 5d e8 3c b2 e5 0e 3b 95 d0 de bd 06 56 0b be
       0.028364826 0.002180439 -0.108796276 -0.13607034
000380 8c 79 e0 bc 1b df e4 3d 74 ea 7b 3d 29 3f 74 3d
       -0.027401708 0.111753665 0.06150289 0.059630547
000390 32 7c 1e 3d 1d ea 9c bd 75 e6 ff bb a7 ac 93 3d
       0.03869266 -0.07661841 -0.007809455 0.07210665
0003a0 60 a2 93 bd b2 6f ca bd 79 02 06 3d f8 40 4c bd
       -0.07208705 -0.098845854 0.0327172 -0.049866647
0003b0 4c cc e1 3d 64 26 77 bc 29 3a 73 bc 8f 20 79 bd
       0.11025295 -0.015084837 -0.014845409 -0.060822066
0003c0 52 2f 5e bd 53 e9 0d 3d a2 04 08 3d 71 44 54 3d
       -0.054244347 0.034646343 0.033207543 0.051823083
0003d0 7b 50 39 bd 48 25 2e bd 7a 1d a5 bd 41 4d 55 3d
       -0.045242768 -0.042516023 -0.08062263 0.05207563
0003e0 50 48 c1 3d c0 45 38 bd 89 48 af 3d a9 b9 6f bd
       0.09437621 -0.044988394 0.08558757 -0.05852667
0003f0 6e 15 ea 3d f9 b4 36 bd d9 7e e9 3d 7b 03 d4 3d
       0.11429869 -0.044606183 0.114011474 0.10352226

fc2.bias f4 [64]
000000 33 1d 84 3c 53 33 91 3d a9 8f ff bc 05 19 9b 3d
       0.016127205 0.070898674 -0.031196432 0.075731315
000010 6a 13 6e 3d eb fe 7b bd bd fc 53 bd 9f 46 7c 3d
       0.058123983 -0.061522406 -0.051754702 0.061590787
000020 79 10 a5 bd 36 bb 2a 3d 87 1e 89 bc 63 6f 99 3d
       -0.080597825 0.041682445 -0.01673819 0.074919485
000030 61 84 a4 bd 8e 9d 08 3d ee 7a e8 3d 21 20 9a bd
       -0.08033062 0.03335338 0.11351572 -0.07525659
000040 04 2b 1f bd fd ef 60 3d 05 da 37 bd 2d f4 0b bc
       -0.038859382 0.05491637 -0.044885654 -0.008542103
000050 39 0a 91 bd 45 7b b5 3c e8 02 ae bc 9c b7 85 bc
       -0.07082028 0.022153506 -0.02124162 -0.016322903
000060 05 d7 cf 3d 81 06 80 bd a7 f5 bc 3d 5f 0a 4c 3d
       0.101484336 -0.062512405 0.09226542 0.04981458
000070 ad a5 55 3d a3 f0 9a bd fb ab 66 3c eb b4 a6 bd
       0.052159954 -0.07565429 0.014079089 -0.08139976
000080 a5 a8 68 3c 05 60 50 bc 1b bd bc 3c 42 bd 95 3d
       0.014200364 -0.012718205 0.023039391 0.07311489
000090 f9 e2 f4 3c ca 50 ad bc a4 6c 02 bc 01 19 2e 3b
       0.029893385 -0.021156687 -0.007960472 0.0026565196
0000a0 6e 49 37 3b fe 83 8f bd 0b 77 64 3c 6a 6f 29 ba
       0.0027967351 -0.070075974 0.013944398 -0.00064634404
0000b0 c1 90 88 3d bb 66 8d bb 4b 2e 6e 3d c9 ab b5 3c
       0.066682346 -0.004315225 0.058149617 0.02217664
0000c0 a1 ed ef ba cc ea a3 bd 76 33 0a bd ea aa 6e bc
       -0.0018305072 -0.08003768 -0.033740483 -0.014567116
0000d0 27 73 60 bd 2e af 33 bd 28 4d be 3d 7e fb 28 bd
       -0.054797318 -0.043868236 0.0929206 -0.041255467
0000e0 25 b5 ab ba e3 35 e0 3c 33 72 a2 3d 4a 46 97 bd
       -0.001310025 0.027369445 0.07931938 -0.073864534
0000f0 67 25 78 3d ca 30 cb 3c 8e 6a 4c 3d d5 b6 36 bd
       0.060582545 0.024803538 0.049906306 -0.044607956
