logs/ppo_checkpoint_ep50.pth (torch, 451814 bytes, 28 tensors)

fc1.weight f4 [128, 147]
0	0x3d4a110b	0.04933266
1	0x3d280f1a	0.041030027
2	0xbd0c608e	-0.03427177
3	0x3d156561	0.036473636
4	0xbd28cd3f	-0.041211363
5	0x3db3c3e8	0.087776005
6	0xbda879e1	-0.082263716
7	0x3d13a27f	0.03604364
8	0xbd862369	-0.06549723
9	0x3cc9fb05	0.024655828
10	0xbcad116c	-0.021126471
11	0xbd01e90a	-0.031716384
12	0xbbc6ce79	-0.006067094
13	0x3d247f9e	0.040160768
14	0xbd02dfb5	-0.031951625
15	0x3ca0443f	0.019563792
16	0x3d984c9f	0.07436489
17	0x3cdcf157	0.026970549
18	0x3d96e63d	0.07368133
19	0x3d668f4b	0.056289
20	0x3dbdb0ba	0.092622235
21	0x3ced70a6	0.028984379
22	0xbd4e9d97	-0.050443258
23	0x3cd7de4d	0.026351118
24	0xbc57a479	-0.013161772
25	0xbd85d158	-0.0653407
26	0xbdb70888	-0.08937174
27	0x3d808bdc	0.06276676
28	0x3d2d04c2	0.042240866
29	0x3d81fcfc	0.06347081
30	0xbbbb1830	-0.0057096705
31	0x3d91835f	0.07105135
32	0xbcca2b4c	-0.024678849
33	0xbd646f98	-0.055770487
34	0x3c16e802	0.009210588
35	0x3dbb402e	0.09143101
36	0x3b2b5543	0.002614335
37	0xbd20bd6d	-0.03924315
38	0xbc1ade39	-0.009452396
39	0xbd5febb8	-0.05466816
40	0x3d3da10e	0.04629617
41	0x3d46ee58	0.048567146
42	0xbd01e41f	-0.031711694
43	0x3d0d5ab9	0.034510348
44	0x3d713e11	0.05889708
45	0x3d518ddd	0.051160682
46	0xba8d3ab2	-0.0010774939
47	0x3d156421	0.036472443
48	0xbd82635a	-0.06366606
49	0x3cc3c157	0.023895903
50	0xbd69bf86	-0.057067417
51	0xbd074c83	-0.03303195
52	0x3d708e6d	0.058729578
53	0xbcb9f350	-0.022699028
54	0xbdb010c8	-0.08596951
55	0x3d24a590	0.040196955
56	0xbd1d530b	-0.038409274
57	0x3b904129	0.004402299
58	0xbc2ba5f4	-0.010476578
59	0x3d082285	0.033236045
60	0xbd3390a0	-0.043839097
61	0x3d780f6a	0.060561575
62	0xbcf5ee0a	-0.030020732
63	0xbd8176ea	-0.06321509
64	0x3dac9b11	0.08428014
65	0x3cd72584	0.026263006
66	0xbd61501d	-0.055008043
67	0xbd19f3cf	-0.03758603
68	0x3d96ab53	0.07356896
69	0xbdc100a1	-0.09423948
70	0x3d5af6ec	0.05345814
71	0xbca8218a	-0.020523805
72	0x3db46b1c	0.08809492
73	0x3c04e812	0.0081119705
74	0x3cdb5d6c	0.026777945
75	0xbdbd23fd	-0.0923538
76	0xbd09e8da	-0.03366933
77	0x3a8293c1	0.0009962247
78	0xbdb1f2f6	-0.08688919
79	0x3d1178f8	0.035515755
80	0x3db84025	0.089966096
81	0x3cbb45e1	0.02286047
82	0xbd59d4eb	-0.05318157
83	0xbc1e031e	-0.009644298
84	0xbd27cdd7	-0.04096779
85	0x3d010087	0.031494644
86	0xbd2e0778	-0.04248759
87	0x3da5654d	0.08075962
88	0x3b5886c2	0.0033039306
89	0xbd673a43	-0.056452047
90	0xbd18629f	-0.037203427
91	0x3ccbf08a	0.024894971
92	0xbd60230b	-0.05472092
93	0xbda6a4ad	-0.08136878
94	0x3d5b706a	0.053574003
95	0xbc51f1d9	-0.012814009
96	0xbce358aa	-0.02775224
97	0x3caa87cd	0.020816708
98	0x3d25dbd5	0.04049285
99	0xbdaf4b2a	-0.08559258
100	0x3d5ed07d	0.05439805
101	0x3d9b1c2a	0.07573731
102	0xbd7d6fd5	-0.06187423
103	0x3c58be07	0.0132289
104	0xbc25bbae	-0.010115547
105	0x3d8b9629	0.0681575
106	0x3d14b5d5	0.03630622
107	0x3c009b72	0.007849561
108	0xbba91318	-0.005159747
109	0x3d329b9d	0.043605436
110	0xbc84a464	-0.016191669
111	0xbdac726d	-0.084202625
112	0x3dc6a414	0.09699264
113	0xbc991432	-0.018686388
114	0xbce107c5	-0.027469525
115	0x3c601473	0.0136767505
116	0xbd1b1779	-0.037864182
117	0x3d1decb5	0.03855582
118	0x3c8a64b7	0.016893728
119	0x3b286b54	0.0025698738
120	0xbd1f681c	-0.038917646
121	0x3d8d7364	0.06906775
122	0x3baf3c7e	0.0053477874
123	0xbd857f1a	-0.06518383
124	0xbd8e32b5	-0.06943265
125	0x3c055c44	0.008139674
126	0x3d5278ce	0.05138474
127	0xbd063927	-0.03276935
128	0xbd1906f1	-0.037360135
129	0xbc839df1	-0.016066523
130	0x3ce9c459	0.028536009
131	0x3dbab37e	0.09116267
132	0xbda824f4	-0.08210173
133	0x3dc01264	0.09378508
134	0x3b41814e	0.0029526534
135	0x3cd61aa5	0.026135752
136	0xbd27bd71	-0.04095215
137	0x3dbd17cd	0.09233055
138	0xbd810caa	-0.063012436
139	0x3d16237b	0.03665493
140	0x3d375ed9	0.04476819
141	0x3b896ff2	0.004194253
142	0xbc987d95	-0.01861457
143	0x3d49f2e9	0.049303923
144	0x3bfe93d7	0.0077690887
145	0x3d53fc12	0.051754065
146	0xbb9f18fb	-0.004855273
147	0xbd9f879a	-0.07789536
148	0xbd8471c9	-0.06467015
149	0xbd2f4ac6	-0.04279592
150	0xbd8dca90	-0.06923401
151	0xbda268de	-0.07930158
152	0x3da1efe6	0.07907085
153	0x3a80b31a	0.0009819001
154	0x3d89eaac	0.06734213
155	0x3d9ba70f	0.07600223
156	0xbd995c71	-0.07488335
157	0x3dbe5ec6	0.0929542
158	0xbc885386	-0.01664139
159	0xbc96ff17	-0.018432183
160	0x3d732908	0.059365302
161	0x3cb5abbb	0.022176614
162	0x3d88b83b	0.06675764
163	0xbc8e0512	-0.017336402
164	0x3d8011ba	0.06253381
165	0xbba4e12b	-0.005031725
166	0x3d2c6a5b	0.042093616
167	0x3d459037	0.048233237
168	0x3d9466bb	0.07246157
169	0xbd111610	-0.03542143
170	0x3cae72ac	0.021294914
171	0x3c68b2d9	0.014202797
172	0xbc102129	-0.0087969685
173	0xbcd8e44f	-0.026476054
174	0x3cb00dfc	0.021491043
175	0xbd0441b5	-0.032289226
176	0x3bb212c7	0.0054343673
177	0xbd405ba0	-0.04696238
178	0x3d9881c9	0.074466296
179	0x3a4b4d01	0.000775531
180	0xbc0ff050	-0.008785322
181	0xbcdb0f8e	-0.026740815
182	0xbc7d0388	-0.015442736
183	0x3d142682	0.036169536
184	0x3d8308fc	0.06398198
185	0x3cdea099	0.027176188
186	0x3d092f5d	0.033492435
187	0x3d5a55ae	0.053304367
188	0xbbc09829	-0.005877514
189	0x3d6280fe	0.055298798
190	0xbba5794c	-0.00504986
191	0xbc59494d	-0.013262105
192	0xbd43f269	-0.047838602
193	0x3d6b7070	0.057480276
194	0xbcc62220	-0.024186194
195	0x3d4a7039	0.04942343
196	0x3d97a1b3	0.074038886
197	0xbd8b892a	-0.06813271
198	0xb97ac6ce	-0.00023915918
199	0x3cf3c2fd	0.029756064
200	0xbcf02f6b	-0.029319486
201	0xbd0db117	-0.034592714
202	0x3cb6414c	0.022247933
203	0x3db222c5	0.08698038
204	0x3cc14e76	0.023596983
205	0x3db2e22e	0.087345466
206	0x3d880564	0.06641653
207	0x3d8c6f5d	0.06857178
208	0x3dad5907	0.08464246
209	0x3cef47f1	0.029209109
210	0xbd0f8b7d	-0.035045136
211	0x3ce68302	0.028138641
212	0xbcc6352f	-0.024195282
213	0x3bdad6df	0.0066784467
214	0xbd4f06d4	-0.05054362
215	0x3d420fd0	0.04737836
216	0xbd54ac6c	-0.051922247
217	0x3c52d64b	0.012868474
218	0x3cb99516	0.022654098
219	0xbd3a9b7d	-0.04555844
220	0xbd93c51a	-0.072153285
221	0xbd01857b	-0.031621438
222	0x3d1ac037	0.037780967
223	0x3cd519c8	0.02601327
224	0x3dc0d06f	0.094147556
225	0xb95fc65c	-0.00021340832
226	0xbd773682	-0.060354717
227	0x3cc3ac97	0.023886008
228	0xbd576301	-0.05258465
229	0xbda81c4c	-0.08208522
230	0xbd6a9a70	-0.05727619
231	0xbd69f037	-0.057113852
232	0xbcb984a6	-0.02264626
233	0x3d8adfa6	0.06780939
234	0x3c9d6371	0.019212456
235	0x3d6f8575	0.058476884
236	0xbd0495c0	-0.032369375
237	0x3d0383eb	0.03210823
238	0x3d16e1a3	0.036836278
239	0xbd738a2a	-0.059457935
240	0xbc1efee8	-0.009704329
241	0x3dc69a7b	0.096974336
242	0x3c875886	0.016521703
243	0xbd60bb80	-0.054866314
244	0xbd3b3f42	-0.045714624
245	0x3d945af2	0.07243909
246	0x3c85438f	0.016267566
247	0x3c3165ef	0.0108275255
248	0x3da1bdf3	0.07897558
249	0x3c167d5c	0.009185161
250	0x3d8cf789	0.06883151
251	0x3d63bd92	0.05560071
252	0xbd3de159	-0.046357486
253	0xbb812ca9	-0.0039420915
254	0xbba22d2a	-0.0049492316
255	0x3d91145b	0.070839606

fc1.bias f4 [128]
0	0xbcc5b909	-0.024136083
1	0x3da919a7	0.08256846
2	0xbbb06c24	-0.005383985
3	0xbc8d789a	-0.017269421
4	0xbd20eab4	-0.03928633
5	0x3da8822a	0.08227952
6	0xbdcf85ba	-0.10132928
7	0xbd2c9635	-0.042135436
8	0x3d5921ba	0.05301068
9	0x3d31acc7	0.043377664
10	0x3c9aecdc	0.018911771
11	0xbdb9135c	-0.09036896
12	0x3d5781ea	0.05261413
13	0x3d0d3a69	0.034479532
14	0xbd2df6cc	-0.042471692
15	0x3d2da549	0.042393956
16	0xbd8581a8	-0.065188706
17	0x3c978999	0.018498229
18	0xbd823091	-0.063569196
19	0x3c9e515f	0.01932591
20	0xbd7cc119	-0.06170759
21	0xbc07bbfd	-0.008284566
22	0x3d5e5bc0	0.05428672
23	0x3cf71493	0.030161178
24	0xbdace579	-0.08442206
25	0xbd3fe6cb	-0.04685096
26	0x3d8eda43	0.06975224
27	0x3d83a20e	0.06427394
28	0x3d6d9cb0	0.058010757
29	0x3cecd3b5	0.028909544
30	0xbaae0286	-0.0013275899
31	0x3b3e12ae	0.0029002833
32	0x3d0476ea	0.032339968
33	0x3d999399	0.07498855
34	0x3c885271	0.016640874
35	0xbd9d6ba1	-0.07686544
36	0x3db8ef78	0.0903005
37	0x3d9975a6	0.07493143
38	0xbd644bc4	-0.05573632
39	0x3d7fb8e1	0.062432174
40	0x3dbebc5e	0.09313272
41	0xbbdfed82	-0.006833733
42	0xbbfdae0a	-0.0077416943
43	0x3d11276f	0.035437997
44	0x3db1c37e	0.08679865
45	0xbd3cb045	-0.04606654
46	0x3da1b668	0.07896119
47	0x3d05109e	0.03248655
48	0x3cbc7c94	0.023008622
49	0xbc86c18b	-0.01644971
50	0x3cd702eb	0.026246509
51	0x3ca6f2dd	0.020379478
52	0x3dc828a8	0.097733796
53	0x3d68b960	0.056817412
54	0xbc423c34	-0.011855174
55	0xbcd8009f	-0.026367484
56	0xbd3d8403	-0.046268474
57	0xbd95c40e	-0.07312785
58	0x3d9ebf7a	0.07751365
59	0x3cd0bd7d	0.02548098
60	0xbd3ac62c	-0.045599148
61	0x3c79fdd9	0.015258276
62	0x3ce3fb1b	0.027829697
63	0x3d7d569b	0.06185017
64	0xbb87ac6c	-0.0041404273
65	0xbce0a95b	-0.027424505
66	0xbd9843cc	-0.07434806
67	0x3d003b79	0.031306718
68	0xbc99c96b	-0.018772801
69	0xbd5344db	-0.051579338
70	0x3d9a9d85	0.07549576
71	0x3d724a48	0.05915287
72	0x3d0f13c1	0.03493095
73	0x3dad5c81	0.08464909
74	0x3d2e1163	0.04249705
75	0x3c2d2602	0.010568144
76	0x3d37e9db	0.044900756
77	0x3da09cee	0.07842432
78	0xbcc6cf9d	-0.02426892
79	0x3d27e262	0.04098738
80	0x3dd08a3f	0.10182618
81	0xbc4c1d08	-0.012458093
82	0xbc646b74	-0.013941634
83	0xbd1019ba	-0.035180785
84	0x3db478f1	0.0881213
85	0xbd26f72f	-0.040763076
86	0x3d7c48fa	0.061593033
87	0x3daca98a	0.084307745
88	0xbd40853e	-0.04700207
89	0x3d3a7c9c	0.045528993
90	0xbd37e434	-0.044895366
91	0xbd915be3	-0.07097604
92	0xbd35df37	-0.044402327
93	0xbcd305ce	-0.025759604
94	0xbd74bd1b	-0.059750658
95	0xbd102364	-0.03519
96	0x3d352925	0.04422869
97	0x3daba0e9	0.083803006
98	0x3d4b106b	0.049576204
99	0xbbf6b788	-0.007529203
100	0xbcae49a3	-0.021275347
101	0x3d8c10c4	0.06839135
102	0x3d4c3ebb	0.049864512
103	0x3d674b61	0.05646837
104	0x3d3bb834	0.045829967
105	0x3da92f9f	0.08261036
106	0x3d3a1df4	0.04543872
107	0xbd217b37	-0.039424147
108	0x3d536e86	0.051619075
109	0x3d904e9c	0.070462435
110	0x3bd1acbf	0.006398767
111	0xbd9832a6	-0.074315354
112	0xbd324971	-0.04352707
113	0x3d1d60dd	0.038422454
114	0x3ccce2d9	0.025010513
115	0x3bc11b0c	0.005893117
116	0x3d12179e	0.035667054
117	0x3d670d0b	0.056408923
118	0x3db245cd	0.0870472
119	0xbd2b0f2d	-0.04176252
120	0xbd1623a4	-0.036655083
121	0xbd4790a7	-0.048721936
122	0x3da49896	0.08036916
123	0x3c4c241f	0.012459784
124	0xbcf41eab	-0.02979978
125	0x3db59404	0.08866122
126	0x3d5432ec	0.051806375
127	0x3d670c55	0.056408245

fc2.weight f4 [64, 128]
0	0x3c109d04	0.008826498
1	0xbd9ed584	-0.077555686
2	0xbd4bc70b	-0.04975037
3	0x3d7494ec	0.059712335
4	0xbd987011	-0.0744325
5	0x3d5cb9a4	0.05388798
6	0x3d1d409c	0.038391694
7	0x3d9db76b	0.07701
8	0xbdb8cabc	-0.090230435
9	0xbd587fce	-0.05285626
10	0xbd64c152	-0.055848427
11	0x3c883253	0.016625559
12	0xbd957e0d	-0.07299433
13	0x3d460441	0.0483439
14	0xbcab4fca	-0.02091207
15	0x3d90248e	0.07038222
16	0x3cca9e6a	0.02473374
17	0xbc99b138	-0.018761262
18	0xbd18810b	-0.03723244
19	0x3d2f1334	0.042742923
20	0xbd108149	-0.035279546
21	0x3d12ce58	0.035841316
22	0x3d21f757	0.039542522
23	0xbd2efc0f	-0.04272085
24	0xbdaedd02	-0.08538248
25	0x3d97dafa	0.07414813
26	0xbd7fd0f6	-0.06245514
27	0xbd8932e6	-0.06699161
28	0xbd91542b	-0.07096132
29	0x3cd1ef94	0.025626935
30	0xbcf9f1a2	-0.030510727
31	0xbcc3d447	-0.023904933
32	0x3c8dff24	0.017333575
33	0xbda1abfe	-0.07894133
34	0xbdab16a2	-0.08353926
35	0xbd6e1227	-0.05812278
36	0x3cca2221	0.024674477
37	0x3a29a167	0.0006470889
38	0xbd036a04	-0.032083526
39	0xbcf3b23d	-0.029748077
40	0x3cd30778	0.025760397
41	0xbc4983cd	-0.01229949
42	0x3d22f2e8	0.039782435
43	0xbc15fdca	-0.009154746
44	0x3d8ddee0	0.06927276
45	0x3d5b1126	0.05348315
46	0xbd496b61	-0.04917467
47	0xbc92b287	-0.017907394
48	0xbd9a621b	-0.075382434
49	0xbda172a9	-0.07883198
50	0xbdc07f0e	-0.09399234
51	0x3d6cd3cb	0.05781917
52	0x3c8b4db2	0.017004821
53	0x3ccb17fe	0.024791714
54	0xbdc6b52a	-0.09702523
55	0x3da12ba0	0.07869649
56	0xbcf7cead	-0.030249918
57	0xbd2c284c	-0.042030618
58	0xbd1f69f7	-0.038919415
59	0x3ce9aac5	0.028523812
60	0x3ca0c4ca	0.019625086
61	0x3c7e4f3b	0.01552182
62	0xbce0575c	-0.027385406
63	0x3aab3e7d	0.0013064888
64	0x3d4c53a3	0.04988445
65	0xbd3608ef	-0.044442113
66	0x3d8c614a	0.06854494
67	0x3d1efe2e	0.038816623
68	0x3cac7b39	0.02105485
69	0xbd41896a	-0.04725019
70	0xbd9fe75d	-0.07807801
71	0xbc49754c	-0.012296032
72	0xbce0bcee	-0.027433839
73	0xbc66506f	-0.014057263
74	0xbdc07a52	-0.09398331
75	0x3c852075	0.016250828
76	0x3d2b31e4	0.041795626
77	0x38e46f9b	0.00010892675
78	0x3d62d6d1	0.055380646
79	0xbc939742	-0.018016461
80	0xbd961f22	-0.07330157
81	0x3c229872	0.009924041
82	0xbc0ca296	-0.008583685
83	0x3c0cb0b3	0.00858705
84	0xbd3cf9f7	-0.046136823
85	0x3d1070b9	0.03526375
86	0xbdc021df	-0.093814604
87	0x3d68925f	0.056780215
88	0xbd6517a8	-0.055930763
89	0xbd0a3bc2	-0.033748396
90	0xbd5b8de4	-0.053602114
91	0xbc9d84bc	-0.019228332
92	0x3c2cf67a	0.0105568115
93	0x3c660343	0.014038864
94	0x3d99617b	0.07489296
95	0x3d2f8c28	0.042858273
96	0xbc62d5e3	-0.01384494
97	0xbca5910a	-0.020210762
98	0xbdc37564	-0.09543875
99	0xbda4315d	-0.08017228
100	0x3d948839	0.07252545
101	0xbd96a9a2	-0.07356574
102	0xbc9f821e	-0.019471224
103	0xbcd06355	-0.02543799
104	0x3d3db0cd	0.04631119
105	0xbcdcaf7e	-0.02693915
106	0x3d904294	0.07043949
107	0xbd5b3e6a	-0.05352632
108	0x3d6f7243	0.058458578
109	0xbc5ef2e8	-0.013607718
110	0x3d1570d5	0.036484558
111	0xbd60e443	-0.054905187
112	0x3ba71cde	0.005099877
113	0xbcf70a9f	-0.030156432
114	0x3cc440e9	0.023956733
115	0xbd074435	-0.03302403
116	0xbd5cba46	-0.05388858
117	0x3d295d69	0.04134885
118	0xbd239a73	-0.039942216
119	0xbd80f839	-0.06297345
120	0x3ad7d6a2	0.0016467164
121	0x3d717a7d	0.058954705
122	0xbba9dd2e	-0.0051838374
123	0xbd5f1eef	-0.05447286
124	0xbcec4606	-0.028841984
125	0xbd042d9f	-0.03227007
126	0x3d8524b6	0.06501143
127	0xbdc52c1f	-0.09627556
128	0x3b996680	0.0046814084
129	0xbd2a0258	-0.04150614
130	0x3d80ce9b	0.06289407
131	0xbd83f45a	-0.06443091
132	0xbcdf7fa8	-0.02728255
133	0x3a9d5740	0.0012004152
134	0xbd23dc42	-0.040004976
135	0x3db0bd47	0.08629852
136	0xbd08bab1	-0.033381168
137	0x3a1d0f80	0.00059913844
138	0x3d847a57	0.06468647
139	0xbdada431	-0.08478583
140	0xbd925e22	-0.07146861
141	0x3d85e2cb	0.06537398
142	0xbd5f451c	-0.054509267
143	0x3d135c18	0.0359765
144	0x3d5dc5da	0.054143764
145	0xbda94299	-0.082646556
146	0xbd05ea42	-0.03269411
147	0xbc264eb0	-0.0101505965
148	0xbd31dc40	-0.043422937
149	0x3cafc9c8	0.021458521
150	0xbd36b972	-0.04461045
151	0xbc057f00	-0.008147955
152	0x3db26d17	0.087122135
153	0x3d8f3e1d	0.06994269
154	0x3d407da2	0.046994813
155	0x3c8f4f64	0.017493911
156	0xbdb1ee14	-0.08687988
157	0xbcb50ec4	-0.022101767
158	0x3d87c373	0.06629076
159	0x3d309d6e	0.043118887
160	0xba831740	-0.0010001436
161	0xbcf8a52e	-0.030352201
162	0x3db4c089	0.08825786
163	0x3c932054	0.017959751
164	0xbd9429fc	-0.072345704
165	0x3d903727	0.070417695
166	0x3c2d74c0	0.010586917
167	0xbd6e613a	-0.05819819
168	0xbdaaedce	-0.08346139
169	0xbd97cdfb	-0.074123345
170	0xbdb20632	-0.08692588
171	0xbacc2e00	-0.0015577674
172	0xbd8fee09	-0.070278235
173	0xbd217c7a	-0.03942535
174	0x3d5c94b6	0.05385276
175	0xbd49e7d9	-0.049293373
176	0xbcd8b0c4	-0.026451476
177	0x3d7bfdee	0.061521463
178	0x3d68c44e	0.056827836
179	0x3d4341ea	0.047670282
180	0x3d889a03	0.066700004
181	0x3d923ef7	0.07140916
182	0xbdaa6c3f	-0.083214276
183	0xbd836fe8	-0.06417829
184	0x3bd26000	0.0064201355
185	0x3da48e03	0.08034899
186	0x3d9e80b1	0.0773939
187	0xbda33434	-0.07968941
188	0x3cb17704	0.021663196
189	0xbc93fd04	-0.018064983
190	0x3d2d8d8e	0.042371325
191	0x3d342a5e	0.043985717
192	0x3cc7cf2c	0.02439078
193	0xbd177ef9	-0.036986325
194	0x3cf3bf9c	0.029754452
195	0x3d1f7b66	0.03893604
196	0xbc219ca0	-0.0098640025
197	0x3d695e2a	0.056974567
198	0x3db1b2a1	0.08676649
199	0xbd9728a5	-0.07380799
200	0xbcda125e	-0.026620086
201	0x3da7a7e1	0.08186317
202	0xbd1b5d90	-0.037931025
203	0x3d41f63a	0.04735396
204	0xbd20208a	-0.03909353
205	0xbbd7fea0	-0.006591633
206	0x3c624168	0.013809539
207	0x3d53e55e	0.051732413
208	0xbd8e885c	-0.06959602
209	0xbd4d04fd	-0.050053585
210	0xbda64a75	-0.0811967
211	0xbd151d7e	-0.03640508
212	0x3ce7802c	0.02825936
213	0xbd972bd4	-0.073814064
214	0xbcbad8dc	-0.022808485
215	0x3d530ae2	0.05152405
216	0xbdb25599	-0.08707733
217	0x3c97de68	0.018538669
218	0xbd887822	-0.066635385
219	0x3d5b0812	0.053474493
220	0x3d395342	0.045245416
221	0x3d728242	0.059206255
222	0x3d8d8371	0.06909836
223	0x3db4a2d3	0.08820119
224	0x3d9841ed	0.07434449
225	0xbd66c01f	-0.056335565
226	0x3d57ebaa	0.05271498
227	0xbdaa68d6	-0.08320777
228	0x3cef9a34	0.029248334
229	0x3da84e49	0.08218057
230	0xbc6d3000	-0.014476776
231	0xbd7a1c1c	-0.061061963
232	0xbdaf64c7	-0.08564144
233	0x3d6b0b86	0.057384036
234	0x3c3245e0	0.010880917
235	0xbd6497bd	-0.05580877
236	0xbd5aa83b	-0.053383093
237	0xbd965a0c	-0.07341394
238	0xbca04654	-0.019564785
239	0x3ad4e400	0.0016242266
240	0xbcaa3b9c	-0.020780377
241	0xbd1f50a6	-0.03889527
242	0xbda04cf8	-0.078271806
243	0xbd325990	-0.043542445
244	0xbd96db70	-0.07366073
245	0xbd454388	-0.048160106
246	0x3d008e62	0.031385787
247	0x3d8c1893	0.06840625
248	0x3b8192a0	0.0039542466
249	0x3db275ef	0.087139
250	0x3d6ee422	0.058323033
251	0xbdaeb918	-0.085313976
252	0x3c828834	0.015934087
253	0x3d9c1997	0.076220684
254	0x3d2af376	0.04173609
255	0x3d8bc94d	0.068255045

fc2.bias f4 [64]
0	0xbd2472a5	-0.040148396
1	0xbda99da3	-0.0828202
2	0xbda821ef	-0.08209597
3	0x3db3c235	0.087772764
4	0xbd933c9c	-0.07189295
5	0x3a4c4a74	0.0007793077
6	0xbd1f7bc6	-0.0389364
7	0xbdb01641	-0.085979946
8	0x3b7d001a	0.0038604797
9	0xbd9ef13c	-0.077608556
10	0x3d92317d	0.071383454
11	0xbb7ff4b3	-0.0039055764
12	0x3d1903c1	0.037357096
13	0x39e2579d	0.00043171356
14	0x3d0b49bd	0.03400587
15	0xbd9a2ab0	-0.07527673
16	0xbda93ac8	-0.08263165
17	0xbd89921a	-0.0671732
18	0xbd1a1087	-0.037613418
19	0xbd43389d	-0.047661413
20	0xbb283fa6	-0.0025672703
21	0xbc97e970	-0.018543929
22	0xbcc2e5a7	-0.023791147
23	0xbc7c788a	-0.015409598
24	0x3d299891	0.041405264
25	0xbc192062	-0.0093461
26	0x3d2c7af6	0.042109452
27	0x3d6f63f4	0.058444932
28	0x3c02dc90	0.0079871565
29	0x3d03ebc5	0.03220727
30	0xbd7da17b	-0.061921578
31	0x3dad020b	0.08447655
32	0x3d9a8362	0.075445905
33	0x3db2ef22	0.08737017
34	0x3c0c4360	0.008560985
35	0xbdb5266e	-0.088452205
36	0xbd99ae2c	-0.07503924
37	0x3d9df15d	0.07712052
38	0x3d21ac80	0.03947115
39	0xbc30af95	-0.0107840495
40	0x3d3474ff	0.04405689
41	0x3c6f3617	0.014600298
42	0xbd4c3009	-0.049850497
43	0xbcf0f0d3	-0.029411709
44	0xbc8a67cf	-0.016895203
45	0xbc474267	-0.012161828
46	0x3da41f81	0.080138214
47	0xbd20128b	-0.039080184
48	0xbd9605e0	-0.07325339
49	0x3d2c654a	0.042088784
50	0x3d92983d	0.071579434
51	0x3d5d5f66	0.054046057
52	0xbc943319	-0.018090772
53	0xbd423b7b	-0.047420006
54	0x3ceed87c	0.029155962
55	0xbb9c05b4	-0.004761422
56	0xbb9b2ef3	-0.0047358214
57	0xbd89590e	-0.06706439
58	0xbc59ef87	-0.013301737
59	0xbd000d07	-0.031262424
60	0xbb2b07a4	-0.0026097083
61	0x3ba57a92	0.005050012
62	0x3be47912	0.0069724405
63	0x3d47d6bc	0.04878877

action_head.weight f4 [5, 64]
0	0x3d043242	0.032274492
1	0xbdb7887e	-0.08961581
2	0xbd26561b	-0.04060946
3	0xbd2bd5e5	-0.041952033
4	0x3d1cb323	0.038256776
5	0xbb78cc84	-0.0037963698
6	0xbcc1c3dd	-0.023652965
7	0xbdb77ea1	-0.089596994
8	0x3c79658d	0.0152219655
9	0x3cbf37f0	0.023342103
10	0x3de3a534	0.11115494
11	0x3d92d384	0.0716925
12	0xbd3bbe95	-0.04583605
13	0x3dd64cd5	0.10463873
14	0x3cfbcbaf	0.030736772
15	0x3d9c3ea8	0.07629138
16	0x3dd10198	0.10205382
17	0xbc990c60	-0.018682659
18	0x3dd2ea56	0.10298602
19	0xbdd48ef1	-0.103788264
20	0xbd15ac3d	-0.036541212
21	0xbdf673d2	-0.1203381
22	0x3d4ada9b	0.049524885
23	0xb9877ced	-0.00025842284
24	0xbd208856	-0.03919252
25	0x3c7633e6	0.015027022
26	0xbcc7837e	-0.024354693
27	0xbdee6a77	-0.116414
28	0x3d88f6a6	0.066876695
29	0x3dea943f	0.11454057
30	0x3d877f74	0.06616107
31	0x3dae9975	0.08525363
32	0x3df58e35	0.119900145
33	0xbd4ed3b6	-0.050494872
34	0x3d3a1d58	0.04543814
35	0x3d731112	0.05934245
36	0x3dd516d5	0.104047455
37	0x3d81ce84	0.06338218
38	0x3ce7c489	0.028291957
39	0xbd76f7ee	-0.060295038
40	0xbc4d3b52	-0.01252635
41	0x3c9d46be	0.019198772
42	0x3c39b339	0.011334234
43	0xbd372ab6	-0.044718467
44	0xbdcbd890	-0.099534154
45	0xbdb76674	-0.08955088
46	0x3d94ce49	0.07265908
47	0x3da2c5d3	0.07947888
48	0xbde9331a	-0.113867
49	0x3df4a55b	0.119456016
50	0x3a66e08b	0.0008807263
51	0x3d1330a9	0.035935078
52	0xbd74d9ad	-0.059777904
53	0x3d1e3c61	0.0386318
54	0x3dd18850	0.10231078
55	0x3d243da3	0.040097844
56	0x3d2b756d	0.041860033
57	0xbd030e06	-0.031995796
58	0xbd4d86a9	-0.05017725
59	0x3e0686d9	0.13137378
60	0x3d010fad	0.03150909
61	0x3e001097	0.12506329
62	0xbdafa7cb	-0.08576926
63	0x3d8a309f	0.06747555
64	0xbc66cb25	-0.014086519
65	0xbd1242f8	-0.035708398
66	0xbd8c0c7d	-0.068383195
67	0x3d14d7d3	0.03633864
68	0xbdce7c4d	-0.10082302
69	0xbd133484	-0.035938755
70	0x3d59a4d2	0.0531357
71	0x3c8a175e	0.016856845
72	0xbd42039d	-0.047366727
73	0xbd9bb84e	-0.07603513
74	0x3c5655e3	0.013082
75	0xbd82676e	-0.06367384
76	0xbc92f288	-0.017937914
77	0xbe02c6be	-0.12771127
78	0xbd33f8b6	-0.04393836
79	0xbdef7d80	-0.11693859
80	0x3db6cd8a	0.08925922
81	0x3d32cc1a	0.043651678
82	0x3d9a56b8	0.075360715
83	0x3deae87d	0.11470125
84	0xbd95f9a8	-0.07323009
85	0x3d7a53d2	0.061115094
86	0x3d587540	0.052846193
87	0xbdb74a72	-0.08949746
88	0xbdff7b99	-0.12474746
89	0xbe07fabd	-0.13279243
90	0x3d45060b	0.048101466
91	0xbc2d5f8c	-0.010581862
92	0xbda030cf	-0.078218095
93	0xbdb4222d	-0.08795581
94	0xbcd73793	-0.026271617
95	0xbd402ed9	-0.046919677
96	0xbd59e514	-0.05319698
97	0xbd9a2987	-0.07527452
98	0xbdfbb4c6	-0.12290339
99	0xbde6ce8a	-0.11269863
100	0xbb5da329	-0.0033819175
101	0xbd494c9f	-0.049145337
102	0x3d3d64fe	0.04623889
103	0xbdfb56f2	-0.12272443
104	0x3bb4da48	0.005519185
105	0xbcab9433	-0.02094469
106	0x3d54e7e4	0.05197896
107	0xbdce6537	-0.10077899
108	0x3dcf688b	0.10127362
109	0x3cf35ee4	0.029708333
110	0xbdb6b5af	-0.08921372
111	0x3dd8089a	0.105485156
112	0xbd8f38ec	-0.06993279
113	0x3c31600e	0.010826124
114	0xbe01a23e	-0.12659547
115	0xbd878959	-0.06617994
116	0xbbc66c42	-0.006055386
117	0x3c7a21f4	0.015266884
118	0xbd7506c2	-0.059820898
119	0xbcbdc464	-0.023164935
120	0xbda7018b	-0.08154591
121	0xbdd9c805	-0.10633854
122	0x3cfce548	0.030871049
123	0xbd1c9cd1	-0.03823549
124	0x3d9b4951	0.07582343
125	0xbdad8c41	-0.08474017
126	0x3d3457ad	0.044028927
127	0x3dc1068b	0.09425076
128	0xbd2f4d72	-0.042798467
129	0x3d169180	0.036759853
130	0xbcaefe7d	-0.021361584
131	0xbdb77201	-0.089572914
132	0xbbdbc5de	-0.006706937
133	0xbcc9c408	-0.024629608
134	0x3dbd4c64	0.09243086
135	0xbde34885	-0.110978164
136	0x3d8c69a8	0.0685609
137	0x3dc71250	0.0972029
138	0xbc0dd5ab	-0.008656899
139	0x3cc0459c	0.023470692
140	0x3dc5a37b	0.09650322
141	0x3da5c673	0.08094492
142	0xbdf2d13e	-0.11856316
143	0x3ddae65c	0.10688469
144	0x3d8e6367	0.06952553
145	0xbd4b6058	-0.049652427
146	0xbdb44b56	-0.08803432
147	0xbd446bcf	-0.047954377
148	0xbdebccac	-0.115136474
149	0xbda8c96b	-0.082415424
150	0x3ce27129	0.02764185
151	0xbd65ff5b	-0.05615173
152	0x3dbf1c17	0.093315296
153	0xbcd89147	-0.026436461
154	0xbe0693be	-0.13142297
155	0x3d5c8c22	0.05384458
156	0x3dcc7db1	0.09984911
157	0x3d9f2b1e	0.07771896
158	0x39150fbf	0.00014215613
159	0x3cc6354c	0.024195336
160	0x3db7b6e7	0.08970433
161	0x3db5d5e2	0.088786855
162	0xbda04a46	-0.078266665
163	0x3d7f716e	0.062364034
164	0x3d44f8e4	0.048088923
165	0x3d9a77a4	0.07542351
166	0xbc4ff7e6	-0.012693381
167	0x3dacc79f	0.08436512
168	0xbc76c875	-0.015062441
169	0x3d970b70	0.073752284
170	0xbdc50892	-0.09620775
171	0x3d05c7ec	0.032661363
172	0xbca64ce4	-0.020300336
173	0xbdae729a	-0.08517952
174	0x3c41e31d	0.011833933
175	0x3d97b7a2	0.07408072
176	0xbc4eefc0	-0.012630403
177	0xbe0c757e	-0.13716695
178	0xbcc6d3da	-0.02427094
179	0x3d2d99d4	0.04238303
180	0xbd58645b	-0.05283008
181	0xbdf1212f	-0.117739074
182	0xbd16979f	-0.03676569
183	0xbdbfb2e8	-0.093602955
184	0x3c7e7b5d	0.015532342
185	0xbd1d936e	-0.038470678
186	0xbd6bb856	-0.057548843
187	0x3d07bb29	0.033137474
188	0xbd7d564d	-0.06184988
189	0x3c8381f3	0.016053176
190	0x3a2b4d40	0.00065346435
191	0x3d4f3930	0.050591648
192	0xbd89627f	-0.0670824
193	0x3d1625b8	0.036657065
194	0x3d7fe3d8	0.062473148
195	0x3cd994e8	0.026560262
196	0xbda8ed85	-0.08248428
197	0x3d0b917d	0.034074295
198	0xbdcd0225	-0.10010175
199	0x3cb09dc3	0.021559602
200	0x3b683ff5	0.0035438512
201	0xbc31aca0	-0.01084438
202	0x3dde2b8c	0.1084815
203	0xbc9394f8	-0.01801537
204	0x3e017ded	0.12645693
205	0x3dade4fd	0.08490942
206	0x3cd72d01	0.026266577
207	0x3db261a0	0.08710027
208	0x3d677b19	0.05651388
209	0x3d01c35b	0.031680446
210	0x3defbdbd	0.117061116
211	0x3d2cdd18	0.04220304
212	0xbcab9b32	-0.020948026
213	0x3d84118c	0.06448659
214	0xbba32a2c	-0.0049793925
215	0x3d8f422f	0.069950454
216	0x3d77cb0d	0.06049638
217	0x3c132307	0.008980519
218	0xbdd8f353	-0.105932854
219	0x3c6b2d05	0.014353995
220	0x3d52ba41	0.051447157
221	0xbda692ed	-0.081334926
222	0xbdd3a84f	-0.10334837
223	0xbdad9744	-0.08476117
224	0xbcb9d539	-0.02268468
225	0xbd6eb064	-0.058273688
226	0x3c24f1a0	0.0100673735
227	0x3dfc3f43	0.12316754
228	0xbda14fe7	-0.07876568
229	0xbdca89f2	-0.09889592
230	0x3d262c9a	0.04056988
231	0x3ddcc4ca	0.10779722
232	0xbdd01cfe	-0.1016178
233	0xbd8df31d	-0.06931136
234	0xbd72a540	-0.059239626
235	0x3cdd2e6c	0.026999675
236	0x3df1e6f5	0.1181163
237	0x3d82629b	0.06366464
238	0x3d93cbe1	0.07216621
239	0xbd82de22	-0.06390025
240	0xbd9772d2	-0.07394947
241	0xbc9aa573	-0.01887772
242	0x3df5786b	0.119858585
243	0x3e02ce4b	0.12774007
244	0x3d4c410c	0.04986672
245	0xbde123df	-0.1099317
246	0xbbca306b	-0.0061703227
247	0x3da0c340	0.07849741
248	0xbd5c37dc	-0.05376421
249	0xbdcefdbd	-0.101069905
250	0xbdde4e94	-0.10854831
251	0xbdace8f0	-0.08442867
252	0xbc60bc8c	-0.013716828
253	0xbda382f5	-0.079839624
254	0xbdbd8e40	-0.09255648
255	0xbbe01f39	-0.0068396595

action_head.bias f4 [5]
0	0x3cea4855	0.028598944
1	0xbd79ecf4	-0.06101699
2	0xbde79e3f	-0.1130948
3	0xbd88af40	-0.06674051
4	0x3d6fa976	0.05851122

value_head.weight f4 [1, 64]
0	0x3b459b0e	0.0030152234
1	0xbd05e898	-0.03269252
2	0xbd2fc72f	-0.042914566
3	0x3defb289	0.11703975
4	0xbde6d519	-0.11271114
5	0xbdb67f32	-0.08910979
6	0x3e1a1209	0.15045942
7	0xbda3cca1	-0.07998014
8	0x3d9e5155	0.077303566
9	0xbd161938	-0.036645144
10	0xbddc1e37	-0.107479505
11	0xbdfaa688	-0.122387946
12	0xbd7c7885	-0.061638374
13	0x3d8ad9d2	0.06779827
14	0x3dbd1927	0.09233313
15	0x3dda62b4	0.106633574
16	0x3d08e609	0.033422504
17	0xbd8c5ccc	-0.06853637
18	0x3dd80276	0.105473444
19	0xbdce59f8	-0.10075754
20	0xbd882d03	-0.0664921
21	0x3d0631a2	0.032762177
22	0xbd657d60	-0.05602777
23	0x3dbfd0e7	0.09366017
24	0xbd9b01de	-0.075687155
25	0xbe1892ec	-0.14899796
26	0xbdea1f17	-0.11431711
27	0x3d56c118	0.052430242
28	0xbcb62c73	-0.022237992
29	0x3de0521e	0.109531626
30	0x3c8ee2e5	0.017442176
31	0x3db2a020	0.08721948
32	0xbe00e02c	-0.12585515
33	0xbe024836	-0.12722859
34	0x3d9b6a42	0.075886264
35	0x3cdc1ec2	0.026870135
36	0x3df1dc67	0.118096165
37	0x3da85e66	0.0822113
38	0x3d00781c	0.031364545
39	0xbdbec9bb	-0.09315821
40	0xbdf5ec0c	-0.12007913
41	0xbe0d908e	-0.13824674
42	0xbd5d9ee0	-0.054106593
43	0x3e132dfe	0.14373013
44	0x3d36f7ca	0.044669904
45	0x3dac11fa	0.08401866
46	0x3e07970d	0.13241215
47	0x3c48a703	0.01224685
48	0xbda20788	-0.07911593
49	0x3d9af2e1	0.07565857
50	0x3de3591e	0.11100982
51	0xbe0630bf	-0.13104533
52	0x3d994ea2	0.07485701
53	0xbd2d72d8	-0.04234585
54	0x3d8974c3	0.06711724
55	0x3d8e2062	0.0693977
56	0x3e0c184e	0.13681147
57	0x3d635db7	0.055509295
58	0x3bc08e28	0.0058763213
59	0x3cb9a636	0.022662263
60	0x3d0538db	0.032524925
61	0x3d88d578	0.06681341
62	0x3e153428	0.14570677
63	0xbdc1c1be	-0.094607815

fc1.weight f4 [128, 147]
0	0xbc960a47	-0.018315447
1	0xbc06fe80	-0.0082393885
2	0x3c7ee51d	0.015557555
3	0xbd38b3a4	-0.045093194
4	0x3d984d68	0.07436639
5	0xbcb28265	-0.021790693
6	0x3d737563	0.05943812
7	0x3d6c3c80	0.057674885
8	0x3d84d829	0.06486542
9	0xbbdfa4b3	-0.0068250536
10	0x3caf334b	0.021386763
11	0x3db9bfee	0.09069811
12	0xbc248fd1	-0.010044054
13	0x3d19f313	0.03758533
14	0xbd35d114	-0.044388846
15	0x3dc1fe54	0.09472337
16	0x3cdbf656	0.02685086
17	0x3db3c5fd	0.08777998
18	0xbd5bd4a8	-0.0536696
19	0x3cb36afd	0.021901602
20	0x3dd1f29e	0.10251354
21	0xbce38aae	-0.027776089
22	0xbb3236de	-0.0027193348
23	0xbce99e1b	-0.028517773
24	0x3d30c4bf	0.04315638
25	0xbcc547e2	-0.024082128
26	0x3cc96f12	0.024589095
27	0x3926811b	0.00015879089
28	0x3c0fc4e4	0.00877497
29	0xba3655d2	-0.0006955537
30	0xbd9ae49e	-0.075631365
31	0xbba2fd26	-0.0049740253
32	0x3d56ea66	0.052469634
33	0xbd3c5b49	-0.045985494
34	0xbcfa88d0	-0.030582815
35	0x3dcf2bc0	0.101157665
36	0x3ca8ccbe	0.020605441
37	0x3d837e80	0.06420612
38	0x3db23e1b	0.08703252
39	0x3d1030eb	0.0352029
40	0x3db201b6	0.086917326
41	0x3cba7326	0.022759985
42	0xbd9dbfa5	-0.07702569
43	0x3d38c8cc	0.04511337
44	0xbd3ff1cd	-0.04686146
45	0x3b69012e	0.0035553682
46	0x3d9df783	0.07713225
47	0x3d794af8	0.06086251
48	0xbc92189e	-0.017834004
49	0x3d84fd5f	0.06493639
50	0xbd600fb8	-0.05470249
51	0xbdd405d2	-0.10352673
52	0x3d85e5ef	0.06537997
53	0xbcf38456	-0.029726189
54	0x3d4a81be	0.049440138
55	0x3d609c9a	0.054836847
56	0xbc8e4238	-0.01736556
57	0xbd814f1a	-0.063139156
58	0xbd31d9b7	-0.04342052
59	0x3cc83a6e	0.024441924
60	0xbd043022	-0.032272466
61	0x3d80d8ef	0.06291377
62	0xbd06fd9e	-0.032956712
63	0x3bdfe783	0.0068330183
64	0x3d7f04b3	0.06226034
65	0x3d33a2f6	0.043856584
66	0x3c948892	0.018131528
67	0x3d020577	0.031743493
68	0xbd32e96e	-0.043679647
69	0xbd1f388d	-0.03887229
70	0x3dbca37f	0.09210872
71	0x3d2578a5	0.04039826
72	0x3d80e180	0.06293011
73	0xbcbd63bb	-0.023118844
74	0xbda6fb3c	-0.08153388
75	0xbcb1b694	-0.021693505
76	0xbd28436c	-0.041079924
77	0xbd6dd090	-0.05806023
78	0xbd99bbe5	-0.07506541
79	0x3dd7e49a	0.10541649
80	0x3d3ae81b	0.04563151
81	0x3d20c0be	0.039246313
82	0x3d97c76c	0.074110836
83	0x3d7095b6	0.058736525
84	0x3d34c9b4	0.04413767
85	0xbd8b7659	-0.068096824
86	0xbd12294d	-0.03568392
87	0x3ce69989	0.028149383
88	0xbd285e91	-0.04110581
89	0xbc9e93e0	-0.019357622
90	0x3d4c3c0c	0.049861953
91	0x3d451bfe	0.0481224
92	0x3bcadedb	0.006191117
93	0xbd21ad63	-0.039471995
94	0xbd1f42d8	-0.038882107
95	0x3d619b7b	0.05507992
96	0x3cbe70ce	0.023247149
97	0x3d2c51c7	0.042070176
98	0x3d3c5243	0.04597689
99	0x3c14471b	0.009050156
100	0x3d98efbb	0.074676
101	0x3cf5bd50	0.029997498
102	0xbd372db1	-0.04472131
103	0xbc60714a	-0.013698885
104	0xbd363b7d	-0.044490326
105	0x3cb7fa87	0.022458328
106	0x3d80a8de	0.06282209
107	0x3d8d3144	0.06894162
108	0xbd21ffcd	-0.03955059
109	0xbd835814	-0.06413284
110	0x3db6e4b8	0.089303434
111	0x3d8ee6b4	0.06977597
112	0xbc064963	-0.008196208
113	0x3d6c3243	0.05766512
114	0xbda743f0	-0.08167255
115	0xbd799308	-0.060931236
116	0xbd4cbaaa	-0.049982704
117	0x3cadba19	0.021206902
118	0xbd83bfdf	-0.06433081
119	0x3d3731fc	0.044725403
120	0xbd33df89	-0.04391435
121	0x3d966f20	0.07345414
122	0x3df04fdf	0.11733984
123	0x3bac47e4	0.0052575935
124	0x3cd8f849	0.02648558
125	0xbd31751c	-0.043324575
126	0xbcf124d3	-0.029436504
127	0xbd09450d	-0.033513118
128	0x3d273aa6	0.040827416
129	0x3ce57c1e	0.028013285
130	0x3dab9a3f	0.083790295
131	0xbb097106	-0.0020971908
132	0xbdb8a84a	-0.090164736
133	0x3d344d54	0.04401906
134	0x3c780e92	0.015140193
135	0x3cfd2e30	0.030905813
136	0x3d534608	0.05158046
137	0x3db0d2a7	0.08633929
138	0xbd186e2f	-0.037214454
139	0xbd43739a	-0.047717668
140	0x3d317634	0.043325618
141	0xbb2fb929	-0.0026813245
142	0x3d22eb28	0.039775044
143	0x3da1f6b2	0.079083815
144	0x3d389b5c	0.045070037
145	0xbb9acf75	-0.004724438
146	0xbcb89f42	-0.022536878
147	0x3d86cb96	0.065818
148	0x3cdbc420	0.026826918
149	0x3c613563	0.013745639
150	0x3d3c3d7b	0.04595707
151	0xbb9a6c7a	-0.0047126384
152	0xbd86965a	-0.06571646
153	0xbbc56067	-0.006023455
154	0x3c0185f8	0.007905476
155	0xbb28813e	-0.00257118
156	0x3d1f517e	0.038896076
157	0x3d8bb13b	0.068209134
158	0x3d54adfa	0.05192373
159	0x3d71bd86	0.059018634
160	0x3d9f8ebd	0.07790897
161	0xbce42191	-0.027848037
162	0x3d075016	0.03303536
163	0xbc8c924f	-0.01715961
164	0x3bc93679	0.006140527
165	0x3d903931	0.070421584
166	0x398904bc	0.00026134204
167	0x3da18311	0.07886327
168	0xbb80debc	-0.003932802
169	0xbd2be234	-0.04196377
170	0x3d99257b	0.07477852
171	0xbc07cf14	-0.008289117
172	0xbd56fb82	-0.05248595
173	0xbd832592	-0.0640365
174	0xbd524f1b	-0.051344972
175	0x3d96a9ad	0.07356582
176	0x3cce5808	0.025188461
177	0xbd94b52b	-0.072611175
178	0x3d7a2be4	0.061077014
179	0x3da82fdf	0.08212256
180	0xbc5f70d8	-0.013637744
181	0x3d95942a	0.07303651
182	0x3cd008f4	0.025394894
183	0xbd77e9a3	-0.060525548
184	0x3d5e3625	0.054250855
185	0x3d2aa618	0.041662306
186	0xbcc8a851	-0.024494322
187	0xbd05d290	-0.03267151
188	0xbc37d66a	-0.011220554
189	0x3d6807f0	0.056648195
190	0x3c9ceadb	0.019154957
191	0xbd019f87	-0.031646278
192	0x3d1f3040	0.038864374
193	0x3d055d00	0.032559395
194	0xbcb3940f	-0.021921186
195	0x3bf2f6b0	0.0074146613
196	0x3d31e3b8	0.04343006
197	0x3d8458d4	0.06462255
198	0xbd69e348	-0.057101518
199	0x3d62a219	0.05533037
200	0xbd80ccad	-0.06289039
201	0x3d5c3198	0.053758234
202	0xbd30dfe8	-0.043182284
203	0x3d8ffe25	0.07030896
204	0x3d1623df	0.036655303
205	0x3c2849f1	0.010271535
206	0xba5a9ac7	-0.00083391037
207	0xbd96438e	-0.07337104
208	0x3bcbcc64	0.0062194336
209	0xbd3dbb37	-0.04632112
210	0xbd0db2e9	-0.03459445
211	0x3d6dc724	0.058051243
212	0x3c39a75c	0.0113314055
213	0xbd8573ca	-0.06516226
214	0x3d3ef3d4	0.04661925
215	0xbd691e50	-0.056913674
216	0xbdb821bc	-0.08990809
217	0x3dca331d	0.0987303
218	0x39ab2355	0.00032641986
219	0x3d83364a	0.06406839
220	0xbd0f3066	-0.034958266
221	0xbd8e39af	-0.06944596
222	0xbdaf41cc	-0.08557472
223	0x3da66c0c	0.08126077
224	0xbd0e5be8	-0.034755617
225	0x3d080231	0.033205215
226	0xbd22b085	-0.039719123
227	0x3db85ff1	0.09002674
228	0xbda9c060	-0.08288646
229	0x3d96503f	0.073395245
230	0x3d7e2e4a	0.062055863
231	0xbc5aa3ce	-0.013344718
232	0x3c9e0bf6	0.019292813
233	0x3d1ce17e	0.038300984
234	0x3cf293ca	0.029611487
235	0x3d4481d4	0.047975376
236	0x3d909dc9	0.07061345
237	0xbd39612a	-0.04525868
238	0x3dc8f81f	0.0981295
239	0xbd8a2ea2	-0.06747176
240	0x3d4cd9c1	0.050012354
241	0x3d5e0333	0.05420227
242	0x3c972c60	0.018453777
243	0x3d38fd43	0.045163404
244	0x3d2ef201	0.04271126
245	0x3caf9a04	0.021435745
246	0xbdb850ca	-0.08999784
247	0xbd006009	-0.031341586
248	0x3d9380f0	0.07202327
249	0xbd8583b4	-0.06519261
250	0x3d56e5c7	0.052465227
251	0x3daa0579	0.08301825
252	0xbd707ada	-0.05871091
253	0xbcc409e7	-0.023930503
254	0xbca7fccb	-0.020506283
255	0x3d89aab1	0.0672201

fc1.bias f4 [128]
0	0x3d8e9766	0.06962471
1	0xbc10613a	-0.008812243
2	0xbcf9b621	-0.030482354
3	0x3d493450	0.049122155
4	0xbd927acf	-0.0715233
5	0x3cfecee5	0.031104514
6	0x3db42bb8	0.08797401
7	0xbb801f5b	-0.003909988
8	0x3d04d50a	0.032429732
9	0x3d49f0df	0.04930198
10	0x3c6747da	0.014116252
11	0xbcc555b5	-0.02408872
12	0x3d6cc045	0.05780055
13	0x3b24f7ba	0.002517207
14	0x3cfdbcc3	0.030973798
15	0x3d2b7c10	0.041866362
16	0x3c83876f	0.01605579
17	0xbd9fbc0b	-0.07799538
18	0xbd0df5e9	-0.034658346
19	0xbbf2f508	-0.007414464
20	0x3c1ce994	0.009577174
21	0xbcc9e2ec	-0.024644338
22	0x3d9010ba	0.0703444
23	0xbdcbbff1	-0.09948719
24	0xbceef08a	-0.029167432
25	0xbaba353e	-0.0014206541
26	0xbda7cd23	-0.081934236
27	0x3ccc5929	0.024944859
28	0x3c9df860	0.019283473
29	0x3d96a27c	0.0735521
30	0x3c9d8dab	0.019232592
31	0xbb132777	-0.0022453943
32	0xbc2f7283	-0.010708454
33	0xbd647e11	-0.05578429
34	0x3d541e5f	0.051786777
35	0x3cc74299	0.024323748
36	0x3c215003	0.009845736
37	0x3d9c3018	0.07626361
38	0xbd4a1b57	-0.04934248
39	0x3d22de49	0.03976277
40	0xbd0fdc33	-0.035122108
41	0x3c332943	0.0109351305
42	0x3d83e189	0.06439502
43	0x3d3a4c1b	0.045482736
44	0xbd4813af	-0.048846897
45	0x3c5483a6	0.012970841
46	0x3da50fd9	0.08059663
47	0x3d819258	0.06326741
48	0x3d40889f	0.047005292
49	0xbc56b8d9	-0.013105595
50	0x3d619798	0.05507621
51	0x3d05a999	0.032632444
52	0x3cd1ade9	0.025595622
53	0x3db1778e	0.08665381
54	0x3dcf48c1	0.101212986
55	0x3d8c82f6	0.06860916
56	0xbd99a21d	-0.07501624
57	0x3db884b9	0.0900969
58	0xbd806d7b	-0.06270882
59	0x3d66836b	0.056277674
60	0xbd0cd187	-0.03437951
61	0xbd8fd8d8	-0.070237815
62	0x3cde808c	0.027160905
63	0xbd89858c	-0.06714925
64	0xbbc2b3e1	-0.0059418534
65	0xbc8ec66c	-0.0174286
66	0xbc08fe80	-0.008361459
67	0xbcfb3a7e	-0.03066754
68	0x3db46db8	0.0880999
69	0xbd209f64	-0.039214507
70	0x3da12c90	0.07869828
71	0x3cde0dea	0.027106244
72	0x3c1495cf	0.00906892
73	0x3da29931	0.07939375
74	0x3b15b429	0.002284298
75	0xbc20f125	-0.009823118
76	0xbcd5e657	-0.026110811
77	0x3d97a15a	0.07403822
78	0x3d8896f8	0.0666942
79	0xbc5588e4	-0.013033126
80	0x3d92feb8	0.0717749
81	0x3cf50102	0.029907707
82	0x3d5e27a1	0.05423701
83	0xbd5be062	-0.053680785
84	0xbc1e5cc1	-0.009665669
85	0xbd1336fd	-0.035941113
86	0x3d9431c5	0.07236055
87	0xbd9a2be5	-0.075279035
88	0x3d42cd78	0.04755923
89	0xbbc94734	-0.0061425213
90	0xbcde041d	-0.02710157
91	0xbd375581	-0.044759277
92	0xbca00628	-0.019534186
93	0xbcddb109	-0.027061956
94	0xbd197a92	-0.037470408
95	0x3c14aa0d	0.009073746
96	0xbda8738c	-0.08225164
97	0x3d68dab7	0.056849208
98	0x3d8bf862	0.06834485
99	0x3db6eb82	0.08931638
100	0x3d186a25	0.037210602
101	0xbd891280	-0.06692982
102	0x3c1927df	0.009347885
103	0x3ca215bf	0.01978576
104	0x3c9b9ac5	0.018994698
105	0xbd230655	-0.03980096
106	0x3daf92a7	0.085728936
107	0xbcbf284f	-0.02333465
108	0x3c0929e9	0.008371809
109	0xbd14c4ff	-0.036320683
110	0x3c506175	0.012718548
111	0x3d0b26a7	0.03397241
112	0x3d4bc1bb	0.049745303
113	0x3bb65236	0.0055639995
114	0xbcf67772	-0.030086253
115	0xbb1b5168	-0.0023699645
116	0x3bc17eb2	0.005904996
117	0x3d9cc0fd	0.07653997
118	0x3d35b460	0.044361472
119	0x3c95e86f	0.01829931
120	0x3dbb5fea	0.091491535
121	0x3d9fc187	0.07800584
122	0x3d26fd65	0.040769
123	0xbc4eac9a	-0.012614394
124	0x3dbf35d9	0.093364425
125	0x3d991ddd	0.07476399
126	0xbd63bdf9	-0.055601094
127	0x3cd82a9a	0.026387502

fc2.weight f4 [64, 128]
0	0x3d22494d	0.039620686
1	0x3b297880	0.0025859177
2	0xbd6b8e2f	-0.057508644
3	0xbc1571e5	-0.009121393
4	0xbd4ea7b0	-0.050452888
5	0xbcbe2b51	-0.023214014
6	0x3c0e8c24	0.008700404
7	0x3dc031bb	0.09384485
8	0xbb869280	-0.0041068196
9	0xbd73bfd2	-0.059509106
10	0x3d8af913	0.067857884
11	0x3c5bb10d	0.013408911
12	0x3ce4471a	0.027865935
13	0x3dc02d1e	0.093836054
14	0xbd9edc3c	-0.0775685
15	0xbd54ae7c	-0.051924214
16	0x3db71eb3	0.08941402
17	0xbd9e55d1	-0.07731212
18	0xbd24591d	-0.040124048
19	0x3cc18bcb	0.023626229
20	0xbd79e3b9	-0.06100819
21	0xbda3604e	-0.07977353
22	0xbbc150d4	-0.005899528
23	0xbc4a79ad	-0.012358111
24	0xbd18ae1a	-0.03727541
25	0x3d097a72	0.03356404
26	0xbd93ad6f	-0.07210814
27	0xbdb654bf	-0.08902883
28	0x3da5f505	0.081033744
29	0x3c98999e	0.018627938
30	0x3c475e53	0.012168485
31	0xbdb00dcf	-0.08596384
32	0xbc290502	-0.010316135
33	0xbc48b1ed	-0.012249452
34	0xbd969533	-0.07352676
35	0x3db829ec	0.08992371
36	0x3d1cd6a1	0.038290624
37	0x3db5e82b	0.08882173
38	0x3c6d846f	0.014496907
39	0xbd835c55	-0.06414095
40	0x3d9d5baa	0.07683499
41	0xbd244cd2	-0.040112324
42	0xbc87ef29	-0.016593533
43	0x3d85b112	0.06527914
44	0xbcd16bfc	-0.025564186
45	0x3b06af2a	0.0020551183
46	0x3d64b874	0.05583997
47	0xbc860415	-0.016359368
48	0x3d591006	0.052993797
49	0xbdaf77c9	-0.08567769
50	0xbd88f0ee	-0.06686579
51	0x3d5d7ee7	0.0540761
52	0xbd6b7c20	-0.05749142
53	0xbb04336c	-0.0020172251
54	0x3cac2143	0.021011954
55	0x3d8257d2	0.06364407
56	0xbd67c74b	-0.056586545
57	0x3c6a351a	0.014294887
58	0xbcb89cb3	-0.022535658
59	0x3c312ec0	0.010814369
60	0x3d382676	0.044958554
61	0xbd2acb26	-0.041697644
62	0x3d36316a	0.04448072
63	0xbd078b73	-0.033091974
64	0x3d7ce75e	0.061744086
65	0xbc90bffe	-0.017669674
66	0x3d43e0ef	0.047821935
67	0x3dc2c966	0.0951107
68	0xbd6a011b	-0.05712996
69	0x3d2a6b1b	0.04160605
70	0xbd3dda8e	-0.046351008
71	0x3d451bca	0.048122205
72	0x3c6a284d	0.014291835
73	0x3d29cc88	0.04145482
74	0x3cf2d5cd	0.029642964
75	0x3d82be58	0.063839614
76	0x3d865d65	0.06560782
77	0xbcff7673	-0.03118441
78	0xbdb8d1de	-0.09024404
79	0x3db34010	0.08752453
80	0x3d8f1936	0.069872305
81	0x3d45186a	0.048118986
82	0x3cbc8ecb	0.023017308
83	0x3d8d7067	0.06906205
84	0xbbcd41c1	-0.006263942
85	0x3d64b747	0.05583885
86	0x3d833f5d	0.0640857
87	0xbdc1f446	-0.094704196
88	0x3baa5126	0.005197662
89	0x3c3e4ced	0.01161502
90	0x3daf1083	0.08548071
91	0x3c7b24c5	0.015328591
92	0xbd8b763b	-0.0680966
93	0x3cdd56f1	0.027018996
94	0xbc09c3e8	-0.008408524
95	0xbc162dab	-0.0091661615
96	0xbcde08c7	-0.027103795
97	0x3be88360	0.0070957392
98	0x3d62e3c4	0.055392995
99	0xbdbe5b8b	-0.09294804
100	0x3d9ccc0a	0.07656105
101	0x3d6e1fbb	0.05813573
102	0x3c300fb5	0.010745932
103	0x3db3ff9d	0.08788989
104	0xbd897af2	-0.06712903
105	0xbd783fd1	-0.060607735
106	0xbc8bcfb6	-0.017066818
107	0x3b8430ee	0.004034153
108	0xbdd6ec60	-0.10494304
109	0x3d97a617	0.07404726
110	0x3bf74cac	0.007546982
111	0xbd154e4c	-0.036451623
112	0x3dd0e711	0.102003224
113	0x3b112a9b	0.002215064
114	0x3c84c4dc	0.016207151
115	0xbcfaea15	-0.030629197
116	0xbd5a9913	-0.05336864
117	0xbd21c262	-0.03949202
118	0xbd9f294f	-0.07771551
119	0xbc68c115	-0.014206191
120	0x3d81b28e	0.06332885
121	0x3d42cbbc	0.047557577
122	0xbd237629	-0.03990761
123	0x3d1e7ee7	0.038695242
124	0x3cc4f1b3	0.024041032
125	0x3db47860	0.08812022
126	0xbd69add7	-0.057050552
127	0x3cbb83bb	0.022889962
128	0xbc5058d6	-0.012716493
129	0x3d02c0f6	0.031922303
130	0xbcadcd15	-0.021215955
131	0x3ddfe7c3	0.10932877
132	0xbcf9dba1	-0.030500235
133	0x3bbd12a4	0.0057700444
134	0x3dc9ae06	0.098476455
135	0x3d3e9d3f	0.04653668
136	0x3d638bca	0.055553235
137	0x3d079f46	0.03311088
138	0x3da0ad62	0.0784557
139	0x3d233e08	0.03985408
140	0x3c737a41	0.014860691
141	0xbd53ed1b	-0.051739793
142	0x3d5ebe1e	0.05438053
143	0xbb6d9c04	-0.0036256323
144	0xbd8e4467	-0.069466405
145	0xbda18e71	-0.07888497
146	0x3d97ea29	0.074177094
147	0x3da7cc76	0.08193295
148	0x3dcc766f	0.09983527
149	0xbd77ce97	-0.060499754
150	0xbd196d1e	-0.037457578
151	0xbc7d4e4e	-0.015460564
152	0x3db8cb8d	0.09023199
153	0x3d865090	0.06558335
154	0x3d846959	0.06465406
155	0x3d4494c5	0.04799344
156	0xbd8dabce	-0.06917535
157	0x3c770fc9	0.015079447
158	0xbd85a7cf	-0.065261476
159	0x3d4f4468	0.050602347
160	0x3dabf4bf	0.08396291
161	0xbd6a8f3d	-0.05726551
162	0x3d10baae	0.03533428
163	0x3cc6b034	0.024253942
164	0xbd98ad1b	-0.07454892
165	0xbdabd311	-0.08389867
166	0x3d2b1b78	0.041774243
167	0xbd097adf	-0.033564445
168	0x3d85797d	0.06517313
169	0xbd4db49a	-0.050221063
170	0x3d3bfde9	0.045896444
171	0xbd010224	-0.031496182
172	0xbc78375e	-0.015149919
173	0xbd053384	-0.032519832
174	0xbd37e55f	-0.04489648
175	0x3dc48483	0.09595587
176	0x3b8d0a9f	0.0043042446
177	0x3d4c7f92	0.049926348
178	0x3d69b560	0.05705774
179	0x3d9efa22	0.07762553
180	0xbda84005	-0.08215336
181	0x3da91596	0.0825607
182	0xbdcb7bf0	-0.099357486
183	0xbdb31742	-0.087446705
184	0x3d901461	0.07035137
185	0xbd8078ec	-0.06273064
186	0x3d889d7f	0.06670665
187	0xbab793b8	-0.0014005816
188	0x3d807da0	0.06273961
189	0x3d2d9803	0.042381298
190	0xbd96e096	-0.07367055
191	0x3cdab2d8	0.026696607
192	0xbdb02df8	-0.08602518
193	0xbd6df0be	-0.058090918
194	0x3d805122	0.06265475
195	0xbd67c6ca	-0.056586064
196	0x3caf71ef	0.021416632
197	0x3b7a144c	0.003815907
198	0x3d5fc4b8	0.054630965
199	0x3c60400f	0.013687148
200	0xbd26747b	-0.04063843
201	0xbd7cc049	-0.061706815
202	0x3c37759f	0.011197477
203	0xbd3dd6cd	-0.046347428
204	0x3ca8551d	0.020548398
205	0xbd15d1e9	-0.03657714
206	0xbd4c9e3e	-0.0499556
207	0xbd190af7	-0.037363973
208	0x3d65912c	0.05604665
209	0x3bed735e	0.007246419
210	0xbd8562a0	-0.06512952
211	0x3d23da72	0.040003248
212	0x3d2d33b6	0.042285644
213	0xbda55238	-0.080723226
214	0x3d8045ea	0.06263335
215	0xbda8d98d	-0.082446195
216	0xbd2ddc52	-0.042446442
217	0x3ca0d9ca	0.0196351
218	0x3d26b3bf	0.040698763
219	0xbcb05099	-0.021522807
220	0xbc3c941b	-0.0115099205
221	0xbd156366	-0.036471747
222	0xbdc42cad	-0.09578834
223	0xbde1c70e	-0.11024295
224	0xbc9cd563	-0.01914472
225	0x3dab3b3c	0.083609074
226	0x3d06a3b5	0.032870967
227	0x3cfa22c6	0.03053416
228	0x3d32127a	0.043474652
229	0xbd968c22	-0.07350947
230	0x3a996758	0.0011703772
231	0x3d9e4e5c	0.077297896
232	0xbda458a6	-0.08024721
233	0xbdad39c5	-0.08458284
234	0xbac25f00	-0.0014829338
235	0xbd3f7822	-0.046745427
236	0x3d95096b	0.07277187
237	0xbc01bf62	-0.007919164
238	0xbba2d022	-0.004968659
239	0xbda0d0de	-0.07852338
240	0xbd4fac28	-0.05070129
241	0xbab22cde	-0.0013593694
242	0x3cf1681a	0.029468585
243	0x3d0d0103	0.034424793
244	0xbd94c4c1	-0.0726409
245	0xbd0f43f1	-0.034976903
246	0xbd8edb56	-0.06975429
247	0x3cc80fda	0.024421621
248	0x3d7f8951	0.062386815
249	0xbd2365c5	-0.039891977
250	0x3d4903c0	0.049075842
251	0xbd355c65	-0.044277567
252	0x3d9531e0	0.072849035
253	0xbd137560	-0.03600061
254	0x3db2bbae	0.08727203
255	0x3da75dd1	0.08172191

fc2.bias f4 [64]
0	0x3c6fb46d	0.014630419
1	0x3d5eb6ac	0.05437343
2	0xbd0c17c7	-0.034202363
3	0x3d8d65ed	0.069042064
4	0x3d967f74	0.073485285
5	0xbd73485a	-0.05939517
6	0xbd650a0d	-0.05591779
7	0x3d690e96	0.056898676
8	0xbd99647a	-0.074898675
9	0x3d1b6d84	0.03794624
10	0xbcd476e8	-0.025935605
11	0x3d90aef8	0.07064623
12	0xbda48461	-0.08033062
13	0x3ce23ade	0.02761596
14	0x3dcf1146	0.101107165
15	0xbd9aa7da	-0.075515464
16	0xbd27dcf0	-0.040982187
17	0x3d344f8e	0.04402118
18	0xbd3e6a6d	-0.046488214
19	0xbc0ac2bd	-0.008469281
20	0xbd90f61e	-0.07078193
21	0x3ccd331c	0.025048785
22	0xbcad840d	-0.02118113
23	0xbc85ced5	-0.016333977
24	0x3dbdbee9	0.09264929
25	0xbd769345	-0.06019904
26	0x3db14ea8	0.086575806
27	0x3d1cfcf3	0.03832717
28	0x3d321e8f	0.043486174
29	0xbd93072b	-0.071791016
30	0x3c503a15	0.01270916
31	0xbda672d0	-0.081273675
32	0x3c1a6044	0.009422366
33	0xbcb9bb1e	-0.022672232
34	0x3c8ce8ad	0.017200792
35	0x3d832fc1	0.06405593
36	0x3cbc0886	0.022953283
37	0xbc9d64e6	-0.019213151
38	0xbc430cfc	-0.011904951
39	0xbb21748c	-0.0024636118
40	0x3ca65182	0.020302538
41	0xbd8f83fe	-0.070075974
42	0x3c411350	0.01178439
43	0xbc46850b	-0.012116681
44	0x3d79c1dd	0.060975898
45	0xbbc21c7c	-0.0059238058
46	0x3d64c138	0.05584833
47	0x3c02fd7d	0.007995007
48	0xbc04ba89	-0.008101114
49	0xbda13a3b	-0.07872435
50	0xbd0a0cf1	-0.033703748
51	0xbc85ce12	-0.016333614
52	0xbd60126a	-0.05470506
53	0xbd34e860	-0.044166923
54	0x3d961985	0.07329086
55	0xbd5089f1	-0.0509128
56	0xbaa18d20	-0.0012325384
57	0x3ca7cc3d	0.02048313
58	0x3d9c325b	0.07626792
59	0xbd906fc6	-0.07052569
60	0x3d8365ef	0.06415927
61	0x3caf35d9	0.021387981
62	0x3d477e4a	0.048704423
63	0xbd199c89	-0.0375028
